checkpoints3/team1_agent_1.pt (torch, 411297 bytes, 24 tensors)

net.0.weight f4 [128, 53]
0	0x3e1863fd	0.14881893
1	0x3dfe3fc3	0.12414505
2	0xbea0092c	-0.31256998
3	0x3f2ffd70	0.6874609
4	0x3f7a24db	0.97712487
5	0xbde4e84c	-0.111771196
6	0x3f28402c	0.6572292
7	0x3eaa45f0	0.33256483
8	0x3d360936	0.044442378
9	0xbd77e7b8	-0.06052372
10	0xbf20b25b	-0.6277215
11	0xbefab89c	-0.4896897
12	0xbf588732	-0.8458129
13	0x3c493b4d	0.012282205
14	0xbe36bc1f	-0.178452
15	0x3e8987ae	0.26861328
16	0xbce2e507	-0.0276971
17	0x3efcb8ab	0.4935964
18	0xbf9430d9	-1.1577407
19	0xbee057e6	-0.4381706
20	0xbd00422c	-0.031313106
21	0x3f5ed9c3	0.8705103
22	0x3db043f8	0.08606714
23	0x3e38a182	0.1803036
24	0xbe3ae5c1	-0.18251707
25	0x3fadfad3	1.359217
26	0x3ee924b8	0.45535827
27	0x3f61ec7d	0.8825148
28	0xbead06d4	-0.33794272
29	0xbfc66663	-1.5499996
30	0x3f27b259	0.6550651
31	0xbf04373d	-0.51646787
32	0x3e67f9da	0.22653905
33	0xc01b5c83	-2.4275215
34	0xbf19f711	-0.6014262
35	0x3dc73edf	0.097287886
36	0x3f0981da	0.5371376
37	0xbf42aaa5	-0.7604163
38	0x3fcc1be1	1.5946008
39	0x3f9b7953	1.21464
40	0x3e804848	0.25055146
41	0x3f0c2566	0.54744565
42	0x3edba7b2	0.4290138
43	0x3f896444	1.0733724
44	0xbf84da3b	-1.0379099
45	0xbd9a8aeb	-0.07546028
46	0x3d4d4212	0.050111838
47	0xbe165b7d	-0.14683338
48	0xbe886abd	-0.26643935
49	0xbc2fe40a	-0.010735521
50	0xbefe8cea	-0.49716884
51	0xbd82f124	-0.0639365
52	0x3e570bd3	0.21000604
53	0xbc36309b	-0.011119987
54	0x3f1138c5	0.5672725
55	0xbf670565	-0.90242606
56	0x3f89fa8e	1.0779588
57	0x40029402	2.0402837
58	0x3eb90547	0.3613684
59	0x3dec2f20	0.11532426
60	0x3f6f5c19	0.93499905
61	0x3dfe9ba4	0.1243203
62	0xbdb669a3	-0.08906867
63	0x3fc98735	1.5744387
64	0x3e9c4a49	0.30525425
65	0x3f52ec11	0.8239146
66	0x3d8ff596	0.07029264
67	0xbf06444a	-0.5244795
68	0x3f786f58	0.970449
69	0x3f46356e	0.7742528
70	0x3ecc5089	0.39905193
71	0x3faf0772	1.3674147
72	0xc0b31993	-5.596872
73	0x3f5757b1	0.8411818
74	0xbd4c5a47	-0.049890783
75	0x3f82c73a	1.0217049
76	0x3c8ab359	0.016931223
77	0xbf1dec74	-0.61688924
78	0xbead2814	-0.3381964
79	0x3edf8828	0.43658566
80	0x3f08d120	0.534441
81	0xbeffa0b8	-0.49927306
82	0xbfc9d86c	-1.5769172
83	0x3d592195	0.053010542
84	0x3f035963	0.5130827
85	0xbde1a93d	-0.11018608
86	0x3f019eb9	0.50632817
87	0x3fd5c3af	1.6700343
88	0xbd9c9051	-0.07644714
89	0xbf523a8e	-0.821206
90	0xbf7de54c	-0.99178004
91	0xbffd3a01	-1.9783326
92	0x3f55dabb	0.8353688
93	0x3dc2582f	0.09489476
94	0x3e4d39db	0.20041601
95	0x3f8c75b9	1.0973426
96	0xbfc67bc7	-1.5506524
97	0xbfa706f4	-1.3048997
98	0x3f6c4449	0.92291695
99	0x3ef89440	0.48550606
100	0x3e27a0cf	0.16369937
101	0xbf271ef5	-0.6528161
102	0x3f332ede	0.6999339
103	0xbf171319	-0.59013516
104	0x3f1b5f14	0.6069195
105	0x3e9d123e	0.3067798
106	0x3ecbc66e	0.39799827
107	0xbe2e37b9	-0.17013444
108	0x3ed6cb5a	0.4195202
109	0xc00cc089	-2.1992514
110	0xbec72e83	-0.38902673
111	0xbf5a324a	-0.85232985
112	0x3f6fd956	0.93691003
113	0xbe3b7dac	-0.18309659
114	0x3eda595b	0.42646298
115	0xbc8bde6c	-0.017073832
116	0xc06e0db7	-3.719587
117	0xbe1b5d00	-0.15172195
118	0xbf12ee51	-0.5739489
119	0xbebbceec	-0.36681306
120	0x3cde7c4f	0.027158884
121	0x3e17ded3	0.14831094
122	0x3d6ce17c	0.057832226
123	0x3f543bc1	0.8290368
124	0xbf6c81d0	-0.9238558
125	0xbfefa980	-1.8723602
126	0xbea2774d	-0.31731644
127	0x3f846010	1.0341816
128	0x3e0b070a	0.13576904
129	0x3e8cdf29	0.27514008
130	0x3d7f92de	0.062395923
131	0xbfb0ae54	-1.3803201
132	0x3f21a415	0.63140994
133	0xbeee16f2	-0.4650188
134	0x3e2b63b1	0.16737248
135	0xbbf817be	-0.0075711897
136	0xbf8aa43a	-1.0831368
137	0xbec07f6f	-0.37597224
138	0x3e29f0c6	0.16595754
139	0x3fc4fe2d	1.5390068
140	0x3f295a2e	0.6615323
141	0xbe462a18	-0.19351995
142	0xbed16181	-0.40894702
143	0xbfa3acf4	-1.2787156
144	0x3f060abb	0.52360123
145	0xbf71ec8f	-0.94501585
146	0x3f720849	0.9454389
147	0xbe2b6f35	-0.16741641
148	0x3fe60b50	1.7972202
149	0xbed49df5	-0.41526762
150	0x3faecf4a	1.365701
151	0xbf81e4c6	-1.0147941
152	0x3cdae454	0.026720203
153	0xbf019e16	-0.50631845
154	0x3d9fc8c1	0.07801963
155	0xbe889251	-0.2667413
156	0x3e746e58	0.23870218
157	0x3ea293aa	0.31753284
158	0x3d21dce3	0.039517295
159	0x3eb8d928	0.36103177
160	0x3e736210	0.23767877
161	0x3f0cdab3	0.5502121
162	0x3f2f18d1	0.6839724
163	0xbebea7db	-0.3723744
164	0xbd066bed	-0.03281777
165	0xbea2653c	-0.3171786
166	0xbed2eb7a	-0.4119528
167	0xbeddbf54	-0.43310034
168	0xbdfc20a3	-0.123109125
169	0x3fddb967	1.7322205
170	0xbdeb23bd	-0.11481426
171	0x3f3e4ea8	0.7433877
172	0x3d554240	0.052065134
173	0xbe41bebc	-0.18920416
174	0x3f5cb331	0.86210924
175	0xbf10499f	-0.56362337
176	0xbe2faef5	-0.17156585
177	0xbce46b80	-0.027883291
178	0x3f393d0e	0.7235879
179	0x3d0e9717	0.03481206
180	0xbec3c221	-0.38234046
181	0xbe69f1b9	-0.22846116
182	0xbf0ade06	-0.5424503
183	0xbedbe26b	-0.4294618
184	0xbf1fe28a	-0.62455046
185	0x3e8a967c	0.27067935
186	0xbd9931fa	-0.074802354
187	0xbef59c30	-0.47970724
188	0xbf278fad	-0.65453607
189	0xbf1d25a2	-0.6138555
190	0x3f4f74ca	0.8103758
191	0xbf037218	-0.5134597
192	0x3f25e7e1	0.64806944
193	0xbfc858dd	-1.5652119
194	0xbdebd89d	-0.11515925
195	0xbe1df07a	-0.15423766
196	0xbe919015	-0.28430238
197	0xbe298d82	-0.16557887
198	0x3ecee590	0.40409517
199	0xbf67ad1a	-0.9049851
200	0xbe878588	-0.26469064
201	0xc0040487	-2.0627763
202	0xbe516b09	-0.20450987
203	0xc044c056	-3.0742393
204	0xbf080c8f	-0.5314416
205	0x3eac2585	0.33622375
206	0xbf0c0f7a	-0.54711115
207	0x3eb4f045	0.3533956
208	0x3ea02d12	0.31284386
209	0x3ec9abab	0.39388785
210	0x3f134d51	0.5753985
211	0x3e8260f4	0.25464594
212	0xbf0165d2	-0.5054599
213	0x3ead9ede	0.3391027
214	0xbeba5d65	-0.3639938
215	0x3dda83c1	0.10669661
216	0xbfabc5b3	-1.3419708
217	0x3fa4ed95	1.2885004
218	0x3f503a1e	0.8133868
219	0xbec62f6f	-0.38708064
220	0xbdffb7cd	-0.12486229
221	0xbda6ef74	-0.08151141
222	0x3e57da78	0.21079433
223	0xbe824759	-0.2544506
224	0x3e012422	0.1261144
225	0xbface55e	-1.3507497
226	0xbea64bda	-0.32479745
227	0xbfe5255b	-1.7902025
228	0x3fb4b47e	1.4117582
229	0x3f7b73b0	0.982234
230	0x3f81e768	1.0148745
231	0xbe1101f4	-0.14160901
232	0x3ef7a221	0.48365882
233	0x3f2dd032	0.67895806
234	0x3e6f4518	0.23366201
235	0xbed6edf7	-0.41978428
236	0x3e4e293a	0.20132914
237	0x3fd5c8de	1.6701925
238	0xbea89cfa	-0.32932264
239	0x3f573e6b	0.8407962
240	0x3f5f7d7a	0.8730084
241	0x3f608754	0.87706494
242	0x3f8d605e	1.1045034
243	0x3fb0d9e0	1.381649
244	0x3f9f7d59	1.2460128
245	0x3f687b0a	0.9081274
246	0x3f59207f	0.8481521
247	0x3e62ac0d	0.22135945
248	0xbd064fe4	-0.032791033
249	0x3f7193fd	0.9436644
250	0xbf4ec214	-0.8076489
251	0xbd9f2d2e	-0.07772289
252	0x3f411e13	0.75436515
253	0x3e359679	0.17733182
254	0x400d93b2	2.2121396
255	0xbdb7bf15	-0.08971993

net.0.bias f4 [128]
0	0xbde04c20	-0.1095202
1	0x3e79b4e1	0.24385406
2	0xbe098105	-0.13428123
3	0x3e87a5c8	0.2649367
4	0x3e6b280e	0.22964498
5	0x3f265f10	0.64988804
6	0xbecf2081	-0.40454486
7	0xbdf4935e	-0.119421706
8	0x3f080214	0.5312817
9	0xbe1e7f74	-0.15478307
10	0x3e6eeacd	0.23331757
11	0x3f0d6618	0.5523391
12	0x3ee62b76	0.44955033
13	0xbe7ad981	-0.24497034
14	0x3f0b7e54	0.54489636
15	0x3e1f7a3d	0.15573974
16	0xbdbed817	-0.093185596
17	0xbd393206	-0.04521372
18	0x3e278292	0.16358402
19	0xbda58ea0	-0.08083844
20	0xbdecd6f7	-0.11564439
21	0xbe49f316	-0.19721636
22	0x3d8a0957	0.06740063
23	0x3e4380c3	0.19092087
24	0x3dfee05a	0.124451354
25	0x3f4a752a	0.7908503
26	0xbe449247	-0.19196425
27	0xbea0ddf8	-0.3141935
28	0x3ebaff56	0.3652293
29	0xbe23c079	-0.15991391
30	0x3d574c05	0.052562732
31	0xbdb910a9	-0.09036381
32	0xbe4cab3d	-0.19987197
33	0xbef0ef3f	-0.4705753
34	0xbddbc3a9	-0.107306786
35	0x3cba9f9d	0.022781188
36	0xbd5bb96d	-0.053643633
37	0x3e189262	0.1489959
38	0xbdddf886	-0.10838418
39	0xbd3577f9	-0.044303868
40	0xbe414eac	-0.18877667
41	0xbd89c486	-0.06726937
42	0xbddfcac4	-0.10927346
43	0x3e9e8f3e	0.3096866
44	0x3ebe5ca8	0.37180066
45	0x3de3cbfe	0.11122893
46	0xbd75c73e	-0.060004465
47	0xbd882e99	-0.06649513
48	0xbe745a77	-0.23862635
49	0x3e4004de	0.18751857
50	0x3dff58ff	0.124681465
51	0x3df33a79	0.11876387
52	0xbeadd628	-0.3395245
53	0x3e93d838	0.288759
54	0xbe48ded9	-0.1961626
55	0x3ef140ec	0.47119844
56	0xbc8a16ec	-0.016856633
57	0xbe9ecc6b	-0.31015334
58	0x3e5ca211	0.21546198
59	0x3f186bc5	0.59539443
60	0xbe489950	-0.19589734
61	0xbcbc15b4	-0.022959568
62	0xbe417477	-0.18892084
63	0x3d311516	0.043233
64	0xbcacf96b	-0.021115026
65	0xbe98582c	-0.2975477
66	0x3de89f41	0.113585
67	0x3eafcf7d	0.34337988
68	0x3e6f2c6e	0.23356792
69	0x3d0618da	0.032738544
70	0xbee7cda2	-0.45274073
71	0x3dca7dd0	0.09887278
72	0x3ecee327	0.40407678
73	0x3ed7bc46	0.4213583
74	0xbe8f5155	-0.2799174
75	0x3edb6b2b	0.428552
76	0xbc5a73ce	-0.013333274
77	0x3cbbce77	0.022925599
78	0x3f27e859	0.6558891
79	0xbe08270f	-0.1329615
80	0x3f129040	0.5725136
81	0xbeacc9e6	-0.33747786
82	0xbe108b82	-0.14115718
83	0x3e525020	0.20538378
84	0x3ecd708c	0.4012493
85	0xbe4af737	-0.19820867
86	0x3eb0d46e	0.3453707
87	0x3c200ce1	0.009768696
88	0xbe8195f4	-0.25309718
89	0x3e303fe7	0.17211877
90	0xbd926da2	-0.07149817
91	0xbd79c82e	-0.06098192
92	0x3f338e8a	0.7013937
93	0x3d5451e4	0.05183591
94	0x3eccceeb	0.40001616
95	0xbeb400e8	-0.3515694
96	0xbd735467	-0.059406664
97	0x3e93b898	0.2885177
98	0xbdeeea43	-0.116657756
99	0xbccc1fd5	-0.024917522
100	0x3f2ded82	0.67940533
101	0x3e3a0cd1	0.18168952
102	0x3ed6a323	0.41921338
103	0xbedabb5f	-0.42721078
104	0x3f07f7e5	0.5311263
105	0x3d563ce9	0.052304182
106	0x3df38c52	0.11891998
107	0xbe41b12e	-0.18915245
108	0x3d424349	0.04742745
109	0xbe02c20b	-0.12769334
110	0x3b22aa34	0.0024820687
111	0xbd198ff4	-0.0374908
112	0x3ecf31e5	0.40467754
113	0xbdb5e8c9	-0.08882291
114	0x3edf601b	0.4362801
115	0x3ea4f00e	0.32214397
116	0x3f1c45b0	0.61043835
117	0x3d9a0d1a	0.0752203
118	0x3defbeb8	0.117062986
119	0xbdaa3ce1	-0.08312393
120	0x3f18a801	0.59631354
121	0xbd97f341	-0.07419444
122	0x3c52d8b8	0.012869053
123	0x3dd7e698	0.10542029
124	0x3ef0f923	0.47065076
125	0xbd8fa74c	-0.07014331
126	0xbec1fb1b	-0.3788689
127	0x3de77f1e	0.113035426

net.2.weight f4 [128, 128]
0	0x3d0e998a	0.034814395
1	0x3c8e3c30	0.017362684
2	0xbdbb05fc	-0.09132001
3	0xbc2666e7	-0.01015637
4	0xbda6ccf4	-0.081445605
5	0xbde4d1f2	-0.111728564
6	0xbd2b6dc6	-0.041852735
7	0x3d839559	0.0642497
8	0xb9c162da	-0.0003688548
9	0xbd08066b	-0.033209246
10	0xbd5e8252	-0.054323502
11	0xbd0c6af9	-0.034281705
12	0x3d382df8	0.044965714
13	0xbcf37641	-0.029719474
14	0xbd86a97b	-0.065752946
15	0xbd231e5b	-0.03982387
16	0x3c17d73f	0.009267627
17	0xbda666d9	-0.081250854
18	0x3d6c027b	0.057619553
19	0x3d67864e	0.056524567
20	0xbd8f7b72	-0.07005967
21	0x3ba13bb0	0.0049204454
22	0xbdcd9fb6	-0.10040228
23	0xbd2ed3f5	-0.042682607
24	0xbcf46200	-0.029831886
25	0x3cddbf99	0.0270689
26	0x3cb26ba1	0.021779837
27	0xbb5f4b0e	-0.0034071836
28	0x3d0e9ee8	0.034819514
29	0xbcf7cbf8	-0.030248627
30	0xbd841558	-0.064493835
31	0xbd8ac3df	-0.06775641
32	0x3d81d4b2	0.063393965
33	0x3d39ed70	0.045392454
34	0xbde12290	-0.109929204
35	0xbd2b97af	-0.041892704
36	0xbd9841cc	-0.07434425
37	0xbc1d7395	-0.009610076
38	0x3da87721	0.08225847
39	0xbd4eefd6	-0.050521694
40	0xbd64d618	-0.05586824
41	0xbc814660	-0.015780628
42	0xbd35ef90	-0.044417918
43	0xbcaf6d29	-0.021414356
44	0xbc051f9a	-0.00812521
45	0x3d46bf8f	0.04852253
46	0xbdeff17c	-0.11715981
47	0xbd8833a2	-0.06650473
48	0xbce6283e	-0.02809536
49	0x3d55b340	0.0521729
50	0x3d57bec4	0.052672163
51	0xbcfb8b31	-0.03070602
52	0x3d8585ee	0.06519686
53	0xbc7fdcd8	-0.015616618
54	0xbd5dd056	-0.054153763
55	0xbdb8fd42	-0.0903268
56	0x3d81250c	0.06305894
57	0x3b1fb697	0.0024370307
58	0x3d73e0ba	0.059540488
59	0x3d9b037d	0.07569025
60	0xbd9ed09a	-0.07754631
61	0x3d96b843	0.07359364
62	0xbdb063d4	-0.08612791
63	0x3d6be3f1	0.05759043
64	0x3c87260c	0.016497634
65	0x3bb2f90f	0.005461819
66	0x3c5a72ba	0.013333017
67	0xbcb8de9e	-0.02256709
68	0xbd058f39	-0.03260729
69	0xbc6befbd	-0.01440042
70	0xbd46e2c2	-0.048556097
71	0xbd00dc30	-0.031459987
72	0x3d6cf949	0.057854924
73	0x3aee1651	0.001816461
74	0x3d43ddc2	0.047818907
75	0xbdb8fec4	-0.09032968
76	0xbd450e76	-0.048109494
77	0x3cad1d9b	0.021132281
78	0xbddd1dc3	-0.10796692
79	0xbde0bf2e	-0.10973965
80	0xbd9193b4	-0.0710825
81	0x3b98f4ee	0.00466787
82	0x3d826744	0.063673526
83	0xbdb74d88	-0.08950335
84	0xbdd827bb	-0.10554453
85	0x3d1aa3ee	0.03775399
86	0xbdfb8fdb	-0.12283298
87	0x3d92dec1	0.07171393
88	0x3c2264fb	0.009911771
89	0xbdbc0215	-0.091800846
90	0xbcaa1a05	-0.02076436
91	0xbd14a1db	-0.03628717
92	0xbd4aa458	-0.049473137
93	0xbd3161fb	-0.043306332
94	0xbd660d9e	-0.05616533
95	0x3dc8a864	0.09797743
96	0xbbf68260	-0.007522866
97	0x3dae92d3	0.08524098
98	0xbda72dd6	-0.081630394
99	0xbd7e4d1c	-0.062085256
100	0xbe1181fe	-0.14209744
101	0xbd88560a	-0.06657036
102	0x3a3bce5d	0.00071642344
103	0xbc74cfb6	-0.0149421
104	0xbdc9ae30	-0.09847677
105	0xbcdfbecb	-0.027312657
106	0xbd9d8c06	-0.07692723
107	0x3cf107f8	0.029422745
108	0x3d964d8c	0.0733901
109	0x3c827f54	0.015929855
110	0x3cf05e02	0.029341701
111	0xbd8db000	-0.06918335
112	0xbde52a1f	-0.111896746
113	0x3d7bf0e2	0.06150902
114	0xbdf5d26c	-0.120030254
115	0xbd6a1940	-0.057152987
116	0xbdade317	-0.084905796
117	0x3b3639b1	0.0027805383
118	0xbddf59ba	-0.10905786
119	0xbd4254c0	-0.047444105
120	0xbdab8372	-0.083746806
121	0x3c3e2e30	0.011607692
122	0xbd839032	-0.064239874
123	0xbd58d956	-0.052941643
124	0xbd2aed2f	-0.041730102
125	0x3d282b5a	0.04105697
126	0xbd328f6c	-0.04359381
127	0xbcc3bb1a	-0.023892928
128	0xbdf78562	-0.12085988
129	0x3d21687e	0.039406292
130	0x3c10a3e4	0.008828137
131	0xbd6a1cd0	-0.057156384
132	0x3d736f36	0.05943223
133	0xbda78e77	-0.0818147
134	0xbcc0c5b6	-0.023531776
135	0xbd284d22	-0.041089185
136	0x3d256d67	0.040387537
137	0xbda2eab7	-0.079549246
138	0x3b27a75a	0.0025581927
139	0xbd9535ca	-0.0728565
140	0xbdefc784	-0.117079765
141	0xbd054dde	-0.032544963
142	0xbda1dc88	-0.07903391
143	0x3cae9148	0.02130951
144	0x3da5c114	0.08093467
145	0xbd70784d	-0.058708478
146	0x3d782ce9	0.060589705
147	0x3d4d78f6	0.050164185
148	0xbc30d260	-0.010792345
149	0x3d493f46	0.049132608
150	0x3d8cef9b	0.068816386
151	0x3c2882bf	0.010285079
152	0x3dae4861	0.08509899
153	0xbc6b5178	-0.014362685
154	0xbd9a4bb3	-0.0753397
155	0x3ae51eba	0.0017480471
156	0xbe10dde4	-0.14147145
157	0x3d05daf9	0.03267953
158	0xbdda8cbc	-0.10671374
159	0xbcf6a2b2	-0.030106876
160	0xbcdb1338	-0.026742563
161	0x3d8145d6	0.06312148
162	0x3caf7601	0.021418573
163	0xbd9044d1	-0.07044376
164	0xbd7a28a1	-0.061073903
165	0xbd315a4c	-0.043299004
166	0x3d51ecaa	0.05125109
167	0xbd741d59	-0.0595983
168	0xbd351104	-0.04420568
169	0xbd472a48	-0.048624307
170	0xbdacbe21	-0.08434702
171	0xbd2dc68a	-0.04242567
172	0x3d083ca2	0.03326095
173	0xbd0b35d0	-0.033986866
174	0xbbe833e2	-0.007086263
175	0x3d926d6f	0.07149779
176	0x3db7fda0	0.08983922
177	0xbde82091	-0.113343365
178	0x3c7e53ee	0.01552294
179	0x3d49c3dd	0.049259055
180	0xbdb88094	-0.09008899
181	0xbdd138a6	-0.10215883
182	0x3c0243a4	0.007950697
183	0xbd83a227	-0.064274125
184	0x3d98bf52	0.074583665
185	0xbd5a0b98	-0.053233713
186	0xbd274b20	-0.04084313
187	0xbd8c1211	-0.068393834
188	0x3cce7744	0.025203355
189	0x3d9d7dfd	0.07690046
190	0xbd734ead	-0.059401203
191	0x3d4ac027	0.049499657
192	0x3cdc8bc0	0.026922107
193	0xbd0a177c	-0.033713803
194	0xbdd7512c	-0.10513529
195	0x3c1c7f4c	0.009551834
196	0x3cf8c9ec	0.030369721
197	0x3ce6a123	0.028153008
198	0xbdc23f45	-0.09484724
199	0x3dafacae	0.08577858
200	0xbd4f7658	-0.05064997
201	0x3d41d826	0.047325276
202	0xbd82aa67	-0.06380158
203	0xbda26c11	-0.07930768
204	0xbdc1275d	-0.09431336
205	0x3d1bef38	0.038069934
206	0xbdcb4f9a	-0.09927292
207	0x3d2fffad	0.04296844
208	0xbd98292f	-0.0742973
209	0x3d0e02ed	0.03467076
210	0xbdda7114	-0.10666099
211	0x3bad1b53	0.0052827983
212	0xbe018ba3	-0.12650923
213	0x3d93fc23	0.07225826
214	0xbde5e1ee	-0.11224733
215	0xbde534d3	-0.11191716
216	0xbcf057ea	-0.029338796
217	0x3b3b4eed	0.002858098
218	0x3c8e2ba6	0.017354798
219	0xbd46ea98	-0.04856357
220	0xbd8cc3a2	-0.068732515
221	0xbc480980	-0.012209296
222	0xbdec3e6a	-0.11535342
223	0x3d302f8e	0.0430141
224	0xbca904f4	-0.020632245
225	0x3bf415a8	0.0074488707
226	0xbcbfb71c	-0.023402743
227	0xbd8a4c00	-0.06752777
228	0xbd5d1b5e	-0.053981178
229	0xbda3a29b	-0.07989999
230	0xbc491466	-0.01227293
231	0x3ccd7f44	0.025085099
232	0x3c01a7cc	0.007913541
233	0xbdad6544	-0.084665805
234	0xbd06cd25	-0.032910485
235	0xbbc937c0	-0.006140679
236	0x3bcbfd59	0.0062252698
237	0x3d3fd95a	0.046838142
238	0x3c9c3beb	0.01907154
239	0xbde724dc	-0.11286327
240	0xbda120cf	-0.07867586
241	0xbe065e7f	-0.13121985
242	0xbd11e408	-0.03561786
243	0xbdb2d40c	-0.08731851
244	0x3d67b2a7	0.05656686
245	0xbde637e7	-0.11241131
246	0xbe003267	-0.12519227
247	0xbc8cd123	-0.017189568
248	0xbd7b9038	-0.061416835
249	0xbcf3d796	-0.029765885
250	0xbd678283	-0.05652095
251	0x3d5b1440	0.05348611
252	0xbde184ab	-0.110116325
253	0x3c22ef90	0.009944811
254	0xbdc1471d	-0.09437392
255	0xbd8c11a3	-0.068393014

net.2.bias f4 [128]
0	0xbcead9f6	-0.028668385
1	0x3d105b2e	0.035243206
2	0x3d4c7296	0.049913965
3	0xbdc08399	-0.094001
4	0x3ea9bb78	0.3315084
5	0x3e8b122e	0.27162308
6	0x39e5213c	0.00043703045
7	0xbd9f1785	-0.07768158
8	0xbe6d37d7	-0.23165832
9	0x3e173d65	0.14769514
10	0x3f93514a	1.1509182
11	0x3f8eaee0	1.1147118
12	0xbd9ef3d4	-0.0776135
13	0x3f12a33c	0.57280326
14	0x3f985095	1.1899592
15	0x3f839bef	1.0281962
16	0xbef1d1ab	-0.47230276
17	0x3f553184	0.8327868
18	0x3fe2c97c	1.7717738
19	0xbdef46aa	-0.116834
20	0x3ca71b67	0.020398809
21	0xbd93227c	-0.07184312
22	0xbd1c9a43	-0.038233053
23	0xbdecb09f	-0.11557125
24	0x3cbf5005	0.023353586
25	0x3fa0f19b	1.2573732
26	0xbc15b8cb	-0.009138296
27	0x3ebbe7da	0.36700326
28	0xba68fcb2	-0.0008887752
29	0xbeb5a107	-0.35474417
30	0x3d214d75	0.03938051
31	0xbc961fb1	-0.018325659
32	0xbd04c264	-0.032411948
33	0x3f9288ce	1.1448
34	0xbda2648a	-0.079293326
35	0xbdf867cd	-0.121291734
36	0x3d08abe5	0.033367056
37	0xbd1052ee	-0.035235338
38	0xbe0a9987	-0.13535129
39	0x3c71b303	0.014752152
40	0xbdb2ef87	-0.087370925
41	0xbdd4a2d9	-0.10382623
42	0xbd9478d7	-0.07249611
43	0xbd9c3b10	-0.07628453
44	0xbd18fc43	-0.03734995
45	0x3f1f640f	0.6226205
46	0xbdcc0166	-0.09961204
47	0x3f3439b2	0.70400536
48	0x3f3029a3	0.6881353
49	0x3cef9198	0.02924423
50	0x3f4e4df7	0.80587715
51	0x3fb8dbd8	1.4442091
52	0xbd9149f3	-0.07094183
53	0x3f216349	0.6304212
54	0x3f37e200	0.71829224
55	0xbd378149	-0.04480103
56	0xbce9cea8	-0.028540924
57	0x3f039939	0.51405674
58	0x3f1ae0bf	0.60499185
59	0x3f5895b6	0.8460344
60	0x3f9bd649	1.217477
61	0x3c865e12	0.016402278
62	0x3f9085f5	1.129088
63	0x3ef86e60	0.4852171
64	0xbd9406e2	-0.07227875
65	0x3a7e2966	0.00096955
66	0x3f562bfe	0.83660877
67	0xbd84964c	-0.06473979
68	0x3f93dac6	1.1551139
69	0x3f257874	0.6463692
70	0xbde04bf6	-0.109519884
71	0x3e6086ab	0.21926372
72	0xbca59c68	-0.020216182
73	0xbd2c8ac5	-0.04212453
74	0x3f8d2dee	1.1029642
75	0x3f87b481	1.060196
76	0x3f83ace3	1.0287136
77	0xbd2cc969	-0.042184267
78	0x3cf34865	0.029697606
79	0x3f5f3a57	0.87198395
80	0xbdf66321	-0.12030626
81	0xbe06dc7c	-0.13170046
82	0xbe0aa3f5	-0.13539107
83	0x3f68d500	0.9095001
84	0xbcd33905	-0.025784025
85	0xbcd814be	-0.026377078
86	0x3f83f676	1.0309589
87	0x3f1b1b76	0.6058878
88	0x3d19904e	0.037491135
89	0xbcf9911e	-0.030464705
90	0x3c84bd7e	0.016203638
91	0x3f92fe08	1.1483774
92	0xbdc359fe	-0.09538649
93	0x3f3704f5	0.7149194
94	0xbd91be94	-0.07116428
95	0x3f22af7e	0.6354903
96	0x3f436b8f	0.76335996
97	0xbda72f50	-0.08163321
98	0x3ee456a2	0.44597346
99	0xbde7615e	-0.11297868
100	0xbc0d52a2	-0.008625658
101	0xbdf2d3ec	-0.11856827
102	0x3f50fa90	0.8163233
103	0x3facafb9	1.3491126
104	0x3f89b457	1.075816
105	0x3fc22fb2	1.5170805
106	0xbdcef083	-0.10104468
107	0x3fa78d8a	1.3090069
108	0xbdfe1c1f	-0.124077074
109	0xbddb7db0	-0.10717332
110	0x3f2fa954	0.6861775
111	0xbe0c17cc	-0.13680953
112	0xbcf615ac	-0.03003963
113	0xbd4174f4	-0.047230676
114	0x3f01994e	0.5062455
115	0xbc950af2	-0.018193696
116	0x3f9c36e6	1.2204254
117	0xbdc487c5	-0.095962085
118	0x3f7c8a34	0.9864838
119	0x3f9e5674	1.2370133
120	0x3f4ac7f1	0.79211336
121	0xbdd82f50	-0.10555899
122	0x3ea94a24	0.33064377
123	0x3f7197e4	0.9437239
124	0x3fa097b3	1.2546295
125	0x3ede8787	0.43462774
126	0x3eb8ff48	0.36132264
127	0x3eeda144	0.46412098

net.4.weight f4 [13, 128]
0	0x3bf48d54	0.0074631367
1	0xbc842116	-0.016129058
2	0xbda72550	-0.08161414
3	0x3d958e4b	0.07302531
4	0x405e822a	3.4766946
5	0x4042f863	3.0464103
6	0xbe3a3ce4	-0.1818729
7	0x3d0728d2	0.032997914
8	0xbfa26360	-1.2686577
9	0x4017ead0	2.3737068
10	0x3edd0b32	0.43172604
11	0x3e912259	0.28346518
12	0x3ea697f8	0.32537818
13	0x4055c516	3.3401542
14	0x3f14dd9f	0.58150667
15	0x3e81cdea	0.25352412
16	0x3fd96957	1.6985272
17	0x3f1bebe1	0.609068
18	0x3fa558bd	1.2917706
19	0x3d0ea5c7	0.034826066
20	0xbb0bed38	-0.002135111
21	0x3a5f10d3	0.0008509282
22	0xbb8f8d71	-0.004380875
23	0xbc7bdf84	-0.0153731145
24	0x3dac2fbd	0.08407543
25	0x3ee2f6ed	0.44329014
26	0xbd458b8f	-0.048228797
27	0x40353bae	2.8317676
28	0xbd7188a5	-0.058968205
29	0x3fff53a9	1.9947406
30	0x3fd028ba	1.6262429
31	0x3ceb640c	0.02873423
32	0xbdb3e673	-0.08784189
33	0x3f0995d4	0.53744245
34	0x3cc84f0c	0.024451755
35	0xbd25f8cf	-0.040520485
36	0xbd876f9b	-0.06613084
37	0x3ead286e	0.33819908
38	0x3d91ec47	0.071251445
39	0xbd6db49b	-0.058033567
40	0xbc2e3eec	-0.010635119
41	0xbd5424ce	-0.051792912
42	0x3d0b8d59	0.034070347
43	0xbbfe124a	-0.007753645
44	0xbd75f2eb	-0.060046118
45	0x3fb05732	1.377661
46	0xbcb6f698	-0.022334382
47	0x3f67822b	0.90432996
48	0x4005c248	2.089983
49	0xbd7631a0	-0.06010592
50	0x3f6d5015	0.9270032
51	0x3f36e67b	0.71445435
52	0xbd463888	-0.048393756
53	0x400467aa	2.0688272
54	0x401fedc4	2.498887
55	0x3dc0842a	0.09400208
56	0xbd3b25bf	-0.045690294
57	0x409677fb	4.702146
58	0x403d46e3	2.9574516
59	0x3f1cb0f5	0.61207515
60	0x3e959571	0.29215577
61	0x3cd535c0	0.026026607
62	0x3ecae93a	0.39631063
63	0x404b81e9	3.179804
64	0x3cd414e0	0.02588886
65	0xbd5badf5	-0.053632695
66	0x3f2c8f97	0.674066
67	0xbd019d8b	-0.031644385
68	0x3e8d40ed	0.27588597
69	0x3e06e426	0.13172969
70	0x3d7139f6	0.058893166
71	0x404b58c3	3.1772926
72	0x3f7d4371	0.9893103
73	0xbd02f201	-0.031969074
74	0x3f19fffb	0.6015622
75	0x3e87aae3	0.26497564
76	0x3ec6e4bc	0.38846385
77	0x3c82d788	0.015971914
78	0x3da303dd	0.07959721
79	0x3fd9479c	1.6974978
80	0xbc4eb868	-0.012617208
81	0xbc942f58	-0.018088982
82	0x3d9ede9c	0.07757303
83	0x3f6998aa	0.9124857
84	0xbd9cde08	-0.076595366
85	0xbd9c255d	-0.07624314
86	0x3fa7d749	1.3112575
87	0x400f3a23	2.2379234
88	0xbc6ccdf5	-0.014453401
89	0xbc886f9b	-0.01665478
90	0xbd01bd98	-0.03167495
91	0x3eab3a4a	0.3344291
92	0x3d600746	0.054694436
93	0x3f7a3715	0.977403
94	0xbc999804	-0.018749245
95	0x4007a3a7	2.1193635
96	0x3f8e13de	1.1099813
97	0xbd74fb4f	-0.05980998
98	0x401f738c	2.4914274
99	0x3b9b0430	0.004730724
100	0x3dd9453f	0.10608911
101	0xbd775b9f	-0.06039011
102	0x3fd5f8e0	1.6716576
103	0x3f92dbea	1.1473362
104	0x3ed5dd50	0.4177041
105	0x3f0a9aff	0.54142755
106	0xbd15cc77	-0.036571946
107	0x3f0e7597	0.5564818
108	0x3cd9ef52	0.026603375
109	0x3da3d1cb	0.07998999
110	0x3f1eccdb	0.62031335
111	0xbc440d07	-0.011965997
112	0xbc66537b	-0.014057989
113	0x3c3ffe90	0.011718407
114	0x4043d47a	3.0598435
115	0xbc302150	-0.01075013
116	0x3ea914f7	0.33023807
117	0x3cf6438c	0.030061506
118	0x3ebee8ad	0.37286893
119	0x3f12860d	0.57235795
120	0x3f05aeb8	0.52219725
121	0xbc2c43e2	-0.010514231
122	0x3fb915ce	1.4459779
123	0x3efbf7d4	0.49212515
124	0x3eb3d952	0.3512674
125	0x404734c7	3.1125963
126	0x4043e29a	3.0607057
127	0x40254131	2.582104
128	0x3c96526f	0.018349854
129	0xbc3d7e06	-0.011565691
130	0xbd743820	-0.059623837
131	0xbcee2fb2	-0.029075477
132	0x4051bdd2	3.2772107
133	0x40604d6c	3.5047255
134	0x3d9c0210	0.07617581
135	0x3ce12228	0.027482107
136	0xbf995e76	-1.1981952
137	0x400f9cfc	2.2439566
138	0x3ec30b43	0.3809453
139	0x3ed77e7a	0.4208868
140	0xbefa56a0	-0.48894215
141	0x4030b4af	2.761028
142	0x3eb45da5	0.35227695
143	0x3ef71fe1	0.4826651
144	0x3f5a7b7d	0.8534468
145	0x3f4631a3	0.7741949
146	0x3f9ff1f6	1.2495716
147	0x3dad7e79	0.08471388
148	0x3c14f8e5	0.009092544
149	0xbc81d00a	-0.015846271
150	0x3d9b9952	0.07597603
151	0x3db213ef	0.08695208
152	0xbd8f358f	-0.06992637
153	0x3f1cf477	0.61310524
154	0xbc311390	-0.010807887
155	0x4031439d	2.7697518
156	0xbb7ae214	-0.0038281726
157	0x40048ee2	2.0712209
158	0x400c9849	2.1967947
159	0x3d43157f	0.047627922
160	0xbcf95ed0	-0.030440718
161	0x3f25259d	0.6451052
162	0xbd336e95	-0.04380663
163	0x3d50f873	0.05101819
164	0x3d6665fc	0.056249604
165	0x3f0277bc	0.5096395
166	0x3cf33454	0.029688038
167	0xbccb0783	-0.024783855
168	0x3db7c413	0.08972945
169	0xbd80af50	-0.06283438
170	0x3d16ac12	0.036785193
171	0x3d6c80c6	0.057739995
172	0xbd56c62d	-0.05243509
173	0x3f8c4334	1.0958009
174	0x3de60bc6	0.11232714
175	0x3f1c6a36	0.61099565
176	0x40102f86	2.2529006
177	0xbd7f6db2	-0.062360473
178	0x3f3bf24e	0.734166
179	0x3f2492e8	0.6428666
180	0xbca002cb	-0.019532582
181	0x400fc27b	2.2462451
182	0x4029b299	2.6515257
183	0x3db9c385	0.090704955
184	0xbdac09a5	-0.08400277
185	0x407bd9cb	3.935168
186	0x405c301c	3.4404364
187	0x3f385df9	0.7201839
188	0x3f0c1deb	0.5473315
189	0xbd804466	-0.06263046
190	0x3ed14dbd	0.40879622
191	0x401a8ce4	2.4148493
192	0xbcaa7438	-0.02080737
193	0x3da61658	0.081097305
194	0x3f31ba5d	0.6942499
195	0xbcdc270a	-0.026874084
196	0x3ef480e0	0.47754574
197	0x3f4f7d0a	0.8105017
198	0x3da81a5b	0.08208152
199	0x402178b1	2.5229914
200	0x3e7657a1	0.24056865
201	0x3d911159	0.07083387
202	0x3e81372e	0.2523741
203	0x3ee0d253	0.43910465
204	0x3eba1901	0.363472
205	0xbcbd16a8	-0.023082092
206	0x3d135c8e	0.03597694
207	0x3fb476c3	1.4098743
208	0xbce4e02a	-0.027938921
209	0xbd0c90d4	-0.034317806
210	0xbd3210be	-0.043472998
211	0x3ee17d46	0.4404089
212	0xbcf55aa3	-0.029950446
213	0x3b57eaaf	0.0032946279
214	0x3f8712a9	1.055257
215	0x3fd70e46	1.6801231
216	0x3dd72aaa	0.105061844
217	0x3ca1094a	0.01965775
218	0x3c18a426	0.00931648
219	0x3ec2c4c1	0.38040736
220	0xbcf4e744	-0.029895432
221	0x3fc92da5	1.5717055
222	0xbdb29f2b	-0.08721765
223	0x4034ae54	2.8231401
224	0x3f72f7f0	0.9490957
225	0xbccfb646	-0.02535547
226	0x40520f99	3.282202
227	0x3d4a4e80	0.04939127
228	0x3d490ce8	0.049084574
229	0xbc1d278b	-0.009591947
230	0x3fcd3399	1.6031371
231	0x3f6cbf7f	0.924797
232	0x3ebc6829	0.36798218
233	0x3f1497b8	0.58044004
234	0x3d77f722	0.06053842
235	0x3eddf85f	0.43353555
236	0x3cdb4df2	0.026770566
237	0xbd57ea8f	-0.052713927
238	0x3fa8e7dc	1.3195758
239	0x3ae4cb0d	0.0017455533
240	0xbdaf4415	-0.085579075
241	0x3d62806a	0.055298246
242	0x4039aeda	2.901297
243	0x3d976ef9	0.07394213
244	0x3e70e665	0.23525389
245	0xbd0141e4	-0.03155698
246	0x3eeca6e5	0.4622108
247	0x3f03fe27	0.5155968
248	0x3f231f7b	0.6371991
249	0xbda34733	-0.079725645
250	0x3ff9f63a	1.9528267
251	0x3f0aa7c6	0.5416225
252	0x3ee51fc6	0.44750804
253	0x4030bd02	2.7615361
254	0x4052d32a	3.2941384
255	0x4024a80b	2.5727565

net.4.bias f4 [13]
0	0x3f5e0b02	0.86735547
1	0x3fa1813a	1.2617562
2	0x3eef9584	0.4679376
3	0x3f9077dd	1.1286579
4	0x3f9b7fd4	1.2148385
5	0x3fa5ccf4	1.2953172
6	0x3f886ea4	1.0658765
7	0x3fc85037	1.564948
8	0x3f3909a2	0.72280324
9	0x3f797322	0.97441304
10	0x3f2904e2	0.66023076
11	0x3f5ba696	0.85801065
12	0x3f3a3c60	0.72748375

net.0.weight f4 [128, 53]
0	0x3e1dd1b2	0.15412024
1	0x3e017668	0.12642825
2	0xbe9d69dd	-0.3074483
3	0x3f2f36cf	0.68443006
4	0x3f79078f	0.9727716
5	0xbdf067f6	-0.11738579
6	0x3f2990b5	0.6623643
7	0x3ea67d98	0.32517695
8	0x3d43c65a	0.047796585
9	0xbd77e7b8	-0.06052372
10	0xbf218a30	-0.6310148
11	0xbefa9cb9	-0.48947695
12	0xbf5aab12	-0.8541728
13	0x3c291398	0.010319613
14	0xbe3024ef	-0.17201589
15	0x3e8697f0	0.26287794
16	0xbcc189d3	-0.02362529
17	0x3efc21c6	0.49244517
18	0xbf94bfe5	-1.1621062
19	0xbedf9941	-0.4367161
20	0xbcea41ba	-0.028595794
21	0x3f602921	0.8756276
22	0x3da4a9b5	0.080401815
23	0x3e3b29cd	0.18277664
24	0xbe3a1e05	-0.18175514
25	0x3fae4650	1.3615208
26	0x3ee8b87a	0.45453244
27	0x3f60b346	0.8777355
28	0xbeacb663	-0.337329
29	0xbfc628da	-1.5481217
30	0x3f2864bb	0.657787
31	0xbf04153f	-0.5159492
32	0x3e5de9f6	0.2167128
33	0xc01b7a1d	-2.4293282
34	0xbf1a6330	-0.603076
35	0x3dcf5b1d	0.101248
36	0x3f0a19a5	0.5394538
37	0xbf44086c	-0.7657535
38	0x3fcb77bf	1.5895919
39	0x3f9ba8e8	1.2160921
40	0x3e82264c	0.25419843
41	0x3f0d6d80	0.5524521
42	0x3edb589a	0.42841035
43	0x3f8a564c	1.0807586
44	0xbf84a5cf	-1.0363101
45	0xbd95b681	-0.073102005
46	0x3d5d0a42	0.05396486
47	0xbe1bc932	-0.15213469
48	0xbe86d16d	-0.26331654
49	0xbc000cd6	-0.00781556
50	0xbefcf39a	-0.49404603
51	0xbd79c629	-0.060979996
52	0x3e585284	0.21125227
53	0xbc3ea53a	-0.011636073
54	0x3f11922c	0.56863666
55	0xbf66b274	-0.9011605
56	0x3f896913	1.0735191
57	0x400261fd	2.0372307
58	0x3eb94343	0.3618413
59	0x3dec486c	0.11537251
60	0x3f6ebf0a	0.9326025
61	0x3df2aa8a	0.11848934
62	0xbdb669a3	-0.08906867
63	0x3fc96f67	1.5737122
64	0x3e9b50c6	0.30335063
65	0x3f537ca2	0.8261205
66	0x3d7d5798	0.061851114
67	0xbf04e470	-0.5191107
68	0x3f77585b	0.96619195
69	0x3f485b37	0.7826418
70	0x3ec746e8	0.38921285
71	0x3faeb8ea	1.3650181
72	0xc0b318af	-5.596763
73	0x3f57a6b3	0.8423874
74	0xbd4b8bc2	-0.04969383
75	0x3f829eac	1.0204673
76	0x3c378392	0.011200802
77	0xbf1e2a76	-0.6178354
78	0xbeacd145	-0.3375341
79	0x3ee168f3	0.44025382
80	0x3f090ace	0.5353211
81	0xbefca834	-0.4934708
82	0xbfc956a6	-1.5729568
83	0x3d51d1f0	0.051225603
84	0x3f02e2da	0.511274
85	0xbdde6b54	-0.10860315
86	0x3f022438	0.50836515
87	0x3fd593c4	1.668572
88	0xbd9f132b	-0.07767328
89	0xbf511305	-0.81669647
90	0xbf7ef77f	-0.995964
91	0xbffce852	-1.9758399
92	0x3f560208	0.8359685
93	0x3dbe8d85	0.093043365
94	0x3e4e8e53	0.2017148
95	0x3f8c1689	1.0944377
96	0xbfc668d0	-1.5500736
97	0xbfa7861d	-1.3087803
98	0x3f68abaf	0.9088697
99	0x3ef8ed78	0.48618674
100	0x3e282819	0.16421546
101	0xbf277372	-0.6541053
102	0x3f33792b	0.7010676
103	0xbf176796	-0.59142435
104	0x3f1c70ac	0.61109424
105	0x3e9dc5c4	0.30814946
106	0x3ecaab34	0.39583743
107	0xbe31cb97	-0.1736282
108	0x3ed7fa75	0.4218327
109	0xc00ce8a9	-2.2017004
110	0xbec94d36	-0.3931672
111	0xbf5997bf	-0.8499717
112	0x3f706152	0.938985
113	0xbe409a2f	-0.18808816
114	0x3edbbc34	0.42917025
115	0xbc8bde6c	-0.017073832
116	0xc06db85a	-3.714377
117	0xbe1aca63	-0.15116267
118	0xbf12f3f8	-0.57403517
119	0xbebb0bc6	-0.3653242
120	0x3cf652ba	0.030068744
121	0x3e1b8527	0.15187512
122	0x3d82dc8f	0.063897245
123	0x3f53123b	0.8244969
124	0xbf6c70cc	-0.92359614
125	0xbfefcbdb	-1.8734087
126	0xbea20d1c	-0.31650627
127	0x3f84a2e3	1.0362209
128	0x3e08c184	0.1335507
129	0x3e8d007f	0.2753944
130	0x3d7f92de	0.062395923
131	0xbfb0bdf7	-1.3807973
132	0x3f22c436	0.63580644
133	0xbeeecd54	-0.46641028
134	0x3e30379e	0.17208716
135	0xbc1aed50	-0.009455994
136	0xbf8a982f	-1.0827693
137	0xbebe96d9	-0.37224463
138	0x3e227c6d	0.15867777
139	0x3fc5229c	1.5401187
140	0x3f29eaa8	0.6637368
141	0xbe44b875	-0.1921099
142	0xbecee16a	-0.40406352
143	0xbfa42ac0	-1.2825546
144	0x3f05e0d3	0.5229618
145	0xbf71a9aa	-0.9439951
146	0x3f71b857	0.94421905
147	0xbe2ee7e8	-0.17080653
148	0x3fe64c63	1.7992061
149	0xbed520b5	-0.41626516
150	0x3fae377d	1.3610684
151	0xbf81df38	-1.0146246
152	0x3cd79540	0.026316285
153	0xbf01107b	-0.5041577
154	0x3daa4b08	0.08315092
155	0xbe884117	-0.2661216
156	0x3e79af7a	0.24383345
157	0x3ea393ab	0.319486
158	0x3d251f66	0.040313147
159	0x3eb97f83	0.36230096
160	0x3e732b46	0.23746976
161	0x3f0c3ff4	0.54785085
162	0x3f300925	0.68763953
163	0xbebebe47	-0.37254545
164	0xbd0ce38a	-0.034396686
165	0xbea3e198	-0.32008052
166	0xbecece0a	-0.4039157
167	0xbedf5b6a	-0.4362443
168	0xbdfc20a3	-0.123109125
169	0x3fde576f	1.7370433
170	0xbdf12f98	-0.11776656
171	0x3f3f648c	0.747628
172	0x3d4b6af7	0.049662556
173	0xbe44306a	-0.19159093
174	0x3f5cea39	0.86294895
175	0xbf0fc79e	-0.56163967
176	0xbe2f5d78	-0.17125499
177	0xbcd7bdd1	-0.026335629
178	0x3f38ea07	0.722321
179	0x3d0de7d9	0.034644935
180	0xbec5281a	-0.38507158
181	0xbe68e8f2	-0.22745112
182	0xbf0b4d5c	-0.54414916
183	0xbedc4daf	-0.43028018
184	0xbf1faacf	-0.6237001
185	0x3e8a6e91	0.2703748
186	0xbd9879a9	-0.0744508
187	0xbef5f896	-0.4804122
188	0xbf2785b4	-0.6543839
189	0xbf1cedcd	-0.61300355
190	0x3f4ecfcb	0.80785817
191	0xbf014d90	-0.50508976
192	0x3f254248	0.6455426
193	0xbfc86eed	-1.5658852
194	0xbde82731	-0.113356
195	0xbe1c8355	-0.15284474
196	0xbe90f96d	-0.28315297
197	0xbe25bb1c	-0.16184658
198	0x3ecfd587	0.40592596
199	0xbf66f121	-0.90211684
200	0xbe88acba	-0.2669428
201	0xc003cc6a	-2.0593514
202	0xbe56e62b	-0.2098624
203	0xc044dfd3	-3.0761611
204	0xbf073bd1	-0.5282565
205	0x3eac49b6	0.33649987
206	0xbf0c62a9	-0.54838043
207	0x3eb56c4a	0.3543418
208	0x3ea016d6	0.31267422
209	0x3eca27b0	0.39483404
210	0x3f12bba5	0.5731757
211	0x3e833958	0.25629687
212	0xbf0200a3	-0.5078222
213	0x3eac495d	0.33649722
214	0xbeb806a3	-0.35942563
215	0x3dd7941b	0.10526296
216	0xbfabb4c6	-1.3414543
217	0x3fa52774	1.2902665
218	0x3f4f98f8	0.81092787
219	0xbeca5947	-0.39521238
220	0xbe016652	-0.12636688
221	0xbda6ef74	-0.08151141
222	0x3e55c52f	0.20876001
223	0xbe81828a	-0.25294906
224	0x3e045789	0.12924017
225	0xbfad7fc0	-1.3554611
226	0xbea62063	-0.32446584
227	0xbfe52011	-1.7900411
228	0x3fb4e2bf	1.4131697
229	0x3f7ab52d	0.979327
230	0x3f81fced	1.0155312
231	0xbe0ec4c1	-0.13942243
232	0x3ef55f8b	0.47924456
233	0x3f2d2720	0.67637825
234	0x3e6ce364	0.23133618
235	0xbed8c836	-0.4234025
236	0x3e4e4c0a	0.20146194
237	0x3fd5040c	1.664186
238	0xbea70f50	-0.3262887
239	0x3f579714	0.842149
240	0x3f60118b	0.8752677
241	0x3f60304d	0.875737
242	0x3f8c70ee	1.0971963
243	0x3fb075fe	1.3786008
244	0x3f9ef4cf	1.241846
245	0x3f68be4c	0.9091537
246	0x3f5917f2	0.8480216
247	0x3e5e4a22	0.21707967
248	0xbcfcc283	-0.03085447
249	0x3f713a92	0.94229996
250	0xbf4e8a57	-0.8067984
251	0xbdb1b3d6	-0.08676879
252	0x3f40099c	0.7501466
253	0x3e331acb	0.1749069
254	0x400d33ab	2.2062786
255	0xbdba48c7	-0.090959124

net.0.bias f4 [128]
0	0xbdd8680d	-0.10566721
1	0x3e7a674f	0.24453472
2	0xbe09eae8	-0.13468516
3	0x3e87c9f9	0.2652128
4	0x3e672ffb	0.22576897
5	0x3f250b31	0.644702
6	0xbecc78d5	-0.39935938
7	0xbdf4935e	-0.119421706
8	0x3f08b511	0.53401285
9	0xbe1ed733	-0.1551178
10	0x3e703d57	0.234609
11	0x3f0d1129	0.5510431
12	0x3ee785f3	0.45219383
13	0xbe7a6154	-0.2445119
14	0x3f0c0966	0.5470184
15	0x3e1e0b19	0.15433921
16	0xbdb750f8	-0.089509904
17	0xbd342ea1	-0.04398978
18	0x3e2846dc	0.1643328
19	0xbda58ea0	-0.08083844
20	0xbdecd6f7	-0.11564439
21	0xbe49f316	-0.19721636
22	0x3d877313	0.066137455
23	0x3e460298	0.19336927
24	0x3dfb17ef	0.12260424
25	0x3f4a1669	0.78940445
26	0xbe436516	-0.1908153
27	0xbea189ec	-0.3155054
28	0x3eb9b983	0.36274347
29	0xbe1f7c97	-0.15574871
30	0x3d403ce5	0.046933074
31	0xbdb81999	-0.08989257
32	0xbe4c952b	-0.19978778
33	0xbef1a26e	-0.47194237
34	0xbddf4ead	-0.10903678
35	0x3cb4aa74	0.022053935
36	0xbd5db185	-0.054124374
37	0x3e1820f0	0.14856315
38	0xbdddf886	-0.10838418
39	0xbd2f5d8b	-0.04281382
40	0xbe406545	-0.18788631
41	0xbd8e088e	-0.069352254
42	0xbde37f74	-0.11108294
43	0x3e9d7b97	0.30758354
44	0x3ebe6d92	0.3719297
45	0x3de9c143	0.11413815
46	0xbd7a3b04	-0.061091438
47	0xbd8b2d6a	-0.067957714
48	0xbe762355	-0.24036916
49	0x3e3ef702	0.18648914
50	0x3e0067e0	0.12539625
51	0x3dfacbef	0.122459285
52	0xbeaaf81c	-0.33392417
53	0x3e9227cf	0.28545997
54	0xbe46507e	-0.19366643
55	0x3ef066f7	0.46953556
56	0xbc9bcfb2	-0.019019935
57	0xbe9f2b73	-0.31087837
58	0x3e618a79	0.2202548
59	0x3f180493	0.5938198
60	0xbe489950	-0.19589734
61	0xbcbc15b4	-0.022959568
62	0xbe42b523	-0.1901441
63	0x3d1d8bd0	0.038463414
64	0xbcacf96b	-0.021115026
65	0xbe99b7d9	-0.30023077
66	0x3de33ba3	0.11095359
67	0x3eaf1977	0.34199116
68	0x3e716c6a	0.23576513
69	0x3cfb95e2	0.030711118
70	0xbee89581	-0.45426562
71	0x3dc142cc	0.094365686
72	0x3ecc789a	0.39935762
73	0x3ed6d2bb	0.4195765
74	0xbe8ef8f6	-0.27924317
75	0x3edab5d8	0.4271686
76	0xbc7cf0c4	-0.015438262
77	0x3cc07c31	0.02349672
78	0x3f27a3c0	0.6548424
79	0xbe050b08	-0.1299249
80	0x3f11aba5	0.56902534
81	0xbeacc8f3	-0.33747062
82	0xbe13b8e3	-0.14425997
83	0x3e57d9cf	0.21079181
84	0x3ece0cd5	0.40244165
85	0xbe4af737	-0.19820867
86	0x3eb07a3f	0.34468266
87	0x3c341ce4	0.010993216
88	0xbe7ff0ea	-0.24994245
89	0x3e2f50da	0.17120686
90	0xbd8c4030	-0.0684818
91	0xbd8561e0	-0.06512809
92	0x3f328bbf	0.69744486
93	0x3d531495	0.0515333
94	0x3ecce0e6	0.40015334
95	0xbeb68d0a	-0.3565448
96	0xbd735467	-0.059406664
97	0x3e95d478	0.29263663
98	0xbdeeea43	-0.116657756
99	0xbccc1fd5	-0.024917522
100	0x3f2de39a	0.6792542
101	0x3e3b827b	0.18311493
102	0x3ed68dca	0.4190505
103	0xbeda6a0c	-0.42659032
104	0x3f0758a4	0.5286963
105	0x3d6e02c5	0.05810811
106	0x3df56a75	0.11983196
107	0xbe41b12e	-0.18915245
108	0x3d3e1f32	0.04641647
109	0xbe02c20b	-0.12769334
110	0x3b21a5b3	0.0024665415
111	0xbd112de1	-0.035444144
112	0x3ecd86f4	0.40142024
113	0xbdbbe6df	-0.091748945
114	0x3ede41d4	0.43409598
115	0x3ea43e0a	0.32078582
116	0x3f1c1153	0.60963935
117	0x3da150ce	0.078767404
118	0x3deea825	0.11653165
119	0xbdab7ae5	-0.0837305
120	0x3f186bde	0.5953959
121	0xbd97f341	-0.07419444
122	0x3c52cf4a	0.012866804
123	0x3dd57a68	0.10423738
124	0x3eeec11b	0.46631703
125	0xbd947591	-0.072489865
126	0xbec13071	-0.3773227
127	0x3de2a516	0.11066644

net.2.weight f4 [128, 128]
0	0x3d0e998a	0.034814395
1	0x3c8e3c30	0.017362684
2	0xbdbb05fc	-0.09132001
3	0xbc2666e7	-0.01015637
4	0xbda6ccf4	-0.081445605
5	0xbde4d1f2	-0.111728564
6	0xbd2b6dc6	-0.041852735
7	0x3d839559	0.0642497
8	0xb9c162da	-0.0003688548
9	0xbd08066b	-0.033209246
10	0xbd5e8252	-0.054323502
11	0xbd0c6af9	-0.034281705
12	0x3d382df8	0.044965714
13	0xbcf37641	-0.029719474
14	0xbd86a97b	-0.065752946
15	0xbd231e5b	-0.03982387
16	0x3c17d73f	0.009267627
17	0xbda666d9	-0.081250854
18	0x3d6c027b	0.057619553
19	0x3d67864e	0.056524567
20	0xbd8f7b72	-0.07005967
21	0x3ba13bb0	0.0049204454
22	0xbdcd9fb6	-0.10040228
23	0xbd2ed3f5	-0.042682607
24	0xbcf46200	-0.029831886
25	0x3cddbf99	0.0270689
26	0x3cb26ba1	0.021779837
27	0xbb5f4b0e	-0.0034071836
28	0x3d0e9ee8	0.034819514
29	0xbcf7cbf8	-0.030248627
30	0xbd841558	-0.064493835
31	0xbd8ac3df	-0.06775641
32	0x3d81d4b2	0.063393965
33	0x3d39ed70	0.045392454
34	0xbde12290	-0.109929204
35	0xbd2b97af	-0.041892704
36	0xbd9841cc	-0.07434425
37	0xbc1d7395	-0.009610076
38	0x3da87721	0.08225847
39	0xbd4eefd6	-0.050521694
40	0xbd64d618	-0.05586824
41	0xbc814660	-0.015780628
42	0xbd35ef90	-0.044417918
43	0xbcaf6d29	-0.021414356
44	0xbc051f9a	-0.00812521
45	0x3d46bf8f	0.04852253
46	0xbdeff17c	-0.11715981
47	0xbd8833a2	-0.06650473
48	0xbce6283e	-0.02809536
49	0x3d55b340	0.0521729
50	0x3d57bec4	0.052672163
51	0xbcfb8b31	-0.03070602
52	0x3d8585ee	0.06519686
53	0xbc7fdcd8	-0.015616618
54	0xbd5dd056	-0.054153763
55	0xbdb8fd42	-0.0903268
56	0x3d81250c	0.06305894
57	0x3b1fb697	0.0024370307
58	0x3d73e0ba	0.059540488
59	0x3d9b037d	0.07569025
60	0xbd9ed09a	-0.07754631
61	0x3d96b843	0.07359364
62	0xbdb063d4	-0.08612791
63	0x3d6be3f1	0.05759043
64	0x3c87260c	0.016497634
65	0x3bb2f90f	0.005461819
66	0x3c5a72ba	0.013333017
67	0xbcb8de9e	-0.02256709
68	0xbd058f39	-0.03260729
69	0xbc6befbd	-0.01440042
70	0xbd46e2c2	-0.048556097
71	0xbd00dc30	-0.031459987
72	0x3d6cf949	0.057854924
73	0x3aee1651	0.001816461
74	0x3d43ddc2	0.047818907
75	0xbdb8fec4	-0.09032968
76	0xbd450e76	-0.048109494
77	0x3cad1d9b	0.021132281
78	0xbddd1dc3	-0.10796692
79	0xbde0bf2e	-0.10973965
80	0xbd9193b4	-0.0710825
81	0x3b98f4ee	0.00466787
82	0x3d826744	0.063673526
83	0xbdb74d88	-0.08950335
84	0xbdd827bb	-0.10554453
85	0x3d1aa3ee	0.03775399
86	0xbdfb8fdb	-0.12283298
87	0x3d92dec1	0.07171393
88	0x3c2264fb	0.009911771
89	0xbdbc0215	-0.091800846
90	0xbcaa1a05	-0.02076436
91	0xbd14a1db	-0.03628717
92	0xbd4aa458	-0.049473137
93	0xbd3161fb	-0.043306332
94	0xbd660d9e	-0.05616533
95	0x3dc8a864	0.09797743
96	0xbbf68260	-0.007522866
97	0x3dae92d3	0.08524098
98	0xbda72dd6	-0.081630394
99	0xbd7e4d1c	-0.062085256
100	0xbe1181fe	-0.14209744
101	0xbd88560a	-0.06657036
102	0x3a3bce5d	0.00071642344
103	0xbc74cfb6	-0.0149421
104	0xbdc9ae30	-0.09847677
105	0xbcdfbecb	-0.027312657
106	0xbd9d8c06	-0.07692723
107	0x3cf107f8	0.029422745
108	0x3d964d8c	0.0733901
109	0x3c827f54	0.015929855
110	0x3cf05e02	0.029341701
111	0xbd8db000	-0.06918335
112	0xbde52a1f	-0.111896746
113	0x3d7bf0e2	0.06150902
114	0xbdf5d26c	-0.120030254
115	0xbd6a1940	-0.057152987
116	0xbdade317	-0.084905796
117	0x3b3639b1	0.0027805383
118	0xbddf59ba	-0.10905786
119	0xbd4254c0	-0.047444105
120	0xbdab8372	-0.083746806
121	0x3c3e2e30	0.011607692
122	0xbd839032	-0.064239874
123	0xbd58d956	-0.052941643
124	0xbd2aed2f	-0.041730102
125	0x3d282b5a	0.04105697
126	0xbd328f6c	-0.04359381
127	0xbcc3bb1a	-0.023892928
128	0xbdf78562	-0.12085988
129	0x3d21687e	0.039406292
130	0x3c10a3e4	0.008828137
131	0xbd6a1cd0	-0.057156384
132	0x3d736f36	0.05943223
133	0xbda78e77	-0.0818147
134	0xbcc0c5b6	-0.023531776
135	0xbd284d22	-0.041089185
136	0x3d256d67	0.040387537
137	0xbda2eab7	-0.079549246
138	0x3b27a75a	0.0025581927
139	0xbd9535ca	-0.0728565
140	0xbdefc784	-0.117079765
141	0xbd054dde	-0.032544963
142	0xbda1dc88	-0.07903391
143	0x3cae9148	0.02130951
144	0x3da5c114	0.08093467
145	0xbd70784d	-0.058708478
146	0x3d782ce9	0.060589705
147	0x3d4d78f6	0.050164185
148	0xbc30d260	-0.010792345
149	0x3d493f46	0.049132608
150	0x3d8cef9b	0.068816386
151	0x3c2882bf	0.010285079
152	0x3dae4861	0.08509899
153	0xbc6b5178	-0.014362685
154	0xbd9a4bb3	-0.0753397
155	0x3ae51eba	0.0017480471
156	0xbe10dde4	-0.14147145
157	0x3d05daf9	0.03267953
158	0xbdda8cbc	-0.10671374
159	0xbcf6a2b2	-0.030106876
160	0xbcdb1338	-0.026742563
161	0x3d8145d6	0.06312148
162	0x3caf7601	0.021418573
163	0xbd9044d1	-0.07044376
164	0xbd7a28a1	-0.061073903
165	0xbd315a4c	-0.043299004
166	0x3d51ecaa	0.05125109
167	0xbd741d59	-0.0595983
168	0xbd351104	-0.04420568
169	0xbd472a48	-0.048624307
170	0xbdacbe21	-0.08434702
171	0xbd2dc68a	-0.04242567
172	0x3d083ca2	0.03326095
173	0xbd0b35d0	-0.033986866
174	0xbbe833e2	-0.007086263
175	0x3d926d6f	0.07149779
176	0x3db7fda0	0.08983922
177	0xbde82091	-0.113343365
178	0x3c7e53ee	0.01552294
179	0x3d49c3dd	0.049259055
180	0xbdb88094	-0.09008899
181	0xbdd138a6	-0.10215883
182	0x3c0243a4	0.007950697
183	0xbd83a227	-0.064274125
184	0x3d98bf52	0.074583665
185	0xbd5a0b98	-0.053233713
186	0xbd274b20	-0.04084313
187	0xbd8c1211	-0.068393834
188	0x3cce7744	0.025203355
189	0x3d9d7dfd	0.07690046
190	0xbd734ead	-0.059401203
191	0x3d4ac027	0.049499657
192	0x3cdc8bc0	0.026922107
193	0xbd0a177c	-0.033713803
194	0xbdd7512c	-0.10513529
195	0x3c1c7f4c	0.009551834
196	0x3cf8c9ec	0.030369721
197	0x3ce6a123	0.028153008
198	0xbdc23f45	-0.09484724
199	0x3dafacae	0.08577858
200	0xbd4f7658	-0.05064997
201	0x3d41d826	0.047325276
202	0xbd82aa67	-0.06380158
203	0xbda26c11	-0.07930768
204	0xbdc1275d	-0.09431336
205	0x3d1bef38	0.038069934
206	0xbdcb4f9a	-0.09927292
207	0x3d2fffad	0.04296844
208	0xbd98292f	-0.0742973
209	0x3d0e02ed	0.03467076
210	0xbdda7114	-0.10666099
211	0x3bad1b53	0.0052827983
212	0xbe018ba3	-0.12650923
213	0x3d93fc23	0.07225826
214	0xbde5e1ee	-0.11224733
215	0xbde534d3	-0.11191716
216	0xbcf057ea	-0.029338796
217	0x3b3b4eed	0.002858098
218	0x3c8e2ba6	0.017354798
219	0xbd46ea98	-0.04856357
220	0xbd8cc3a2	-0.068732515
221	0xbc480980	-0.012209296
222	0xbdec3e6a	-0.11535342
223	0x3d302f8e	0.0430141
224	0xbca904f4	-0.020632245
225	0x3bf415a8	0.0074488707
226	0xbcbfb71c	-0.023402743
227	0xbd8a4c00	-0.06752777
228	0xbd5d1b5e	-0.053981178
229	0xbda3a29b	-0.07989999
230	0xbc491466	-0.01227293
231	0x3ccd7f44	0.025085099
232	0x3c01a7cc	0.007913541
233	0xbdad6544	-0.084665805
234	0xbd06cd25	-0.032910485
235	0xbbc937c0	-0.006140679
236	0x3bcbfd59	0.0062252698
237	0x3d3fd95a	0.046838142
238	0x3c9c3beb	0.01907154
239	0xbde724dc	-0.11286327
240	0xbda120cf	-0.07867586
241	0xbe065e7f	-0.13121985
242	0xbd11e408	-0.03561786
243	0xbdb2d40c	-0.08731851
244	0x3d67b2a7	0.05656686
245	0xbde637e7	-0.11241131
246	0xbe003267	-0.12519227
247	0xbc8cd123	-0.017189568
248	0xbd7b9038	-0.061416835
249	0xbcf3d796	-0.029765885
250	0xbd678283	-0.05652095
251	0x3d5b1440	0.05348611
252	0xbde184ab	-0.110116325
253	0x3c22ef90	0.009944811
254	0xbdc1471d	-0.09437392
255	0xbd8c11a3	-0.068393014

net.2.bias f4 [128]
0	0xbcead9f6	-0.028668385
1	0x3d105b2e	0.035243206
2	0x3d4c7296	0.049913965
3	0xbdc08399	-0.094001
4	0x3eaad1f0	0.33363295
5	0x3e8df947	0.27729246
6	0x39e5213c	0.00043703045
7	0xbd9f1785	-0.07768158
8	0xbe6ab827	-0.22921811
9	0x3e1b61d0	0.15174031
10	0x3f93370e	1.1501176
11	0x3f8e9a7e	1.1140897
12	0xbdaa18a4	-0.08305481
13	0x3f1302c5	0.574261
14	0x3f98351d	1.1891209
15	0x3f83b2c9	1.0288936
16	0xbef1d1ab	-0.47230276
17	0x3f545e5e	0.8295649
18	0x3fe2ad5f	1.7709159
19	0xbdef46aa	-0.116834
20	0x3ca71b67	0.020398809
21	0xbd93227c	-0.07184312
22	0xbd1c9a43	-0.038233053
23	0xbdecb09f	-0.11557125
24	0x3cbf5005	0.023353586
25	0x3fa0ea1f	1.2571448
26	0xbc15b8cb	-0.009138296
27	0x3eb9ff34	0.36327517
28	0xba68fcb2	-0.0008887752
29	0xbeb5393b	-0.35395226
30	0x3d137a3e	0.03600525
31	0xbc961fb1	-0.018325659
32	0xbd04c264	-0.032411948
33	0x3f926a85	1.1438757
34	0xbda2648a	-0.079293326
35	0xbdf867cd	-0.121291734
36	0x3d08abe5	0.033367056
37	0xbd104eeb	-0.035231512
38	0xbe0a9987	-0.13535129
39	0x3c71b303	0.014752152
40	0xbdb2ef87	-0.087370925
41	0xbdd4a2d9	-0.10382623
42	0xbd9478d7	-0.07249611
43	0xbd9c3b10	-0.07628453
44	0xbd18fc43	-0.03734995
45	0x3f1f0838	0.62121916
46	0xbdcc0166	-0.09961204
47	0x3f345178	0.7043681
48	0x3f2fec87	0.6872029
49	0x3cef9198	0.02924423
50	0x3f4ddef4	0.80418324
51	0x3fb8c2eb	1.4434484
52	0xbd9149f3	-0.07094183
53	0x3f2162cb	0.6304137
54	0x3f37fe51	0.7187243
55	0xbd378149	-0.04480103
56	0xbce9cea8	-0.028540924
57	0x3f03b4c8	0.51447725
58	0x3f1a8de5	0.60372764
59	0x3f5876cb	0.84556264
60	0x3f9bd1ba	1.2173378
61	0x3c865e12	0.016402278
62	0x3f907364	1.1285214
63	0x3ef7cd32	0.4839874
64	0xbd9406e2	-0.07227875
65	0x3a7e2966	0.00096955
66	0x3f55b775	0.8348306
67	0xbd84964c	-0.06473979
68	0x3f93bea2	1.1542552
69	0x3f25897a	0.646629
70	0xbde04bf6	-0.109519884
71	0x3e637a32	0.22214583
72	0xbca59c68	-0.020216182
73	0xbd2c8ac5	-0.04212453
74	0x3f8d0697	1.1017636
75	0x3f878b36	1.0589359
76	0x3f838111	1.0273763
77	0xbd2cc969	-0.042184267
78	0x3cf34865	0.029697606
79	0x3f5fc55e	0.87410533
80	0xbdf66321	-0.12030626
81	0xbe06dc7c	-0.13170046
82	0xbe0aa3f5	-0.13539107
83	0x3f681aa8	0.90665674
84	0xbcd33905	-0.025784025
85	0xbcd814be	-0.026377078
86	0x3f83d264	1.0298581
87	0x3f19d845	0.60095626
88	0x3d19904e	0.037491135
89	0xbcf9911e	-0.030464705
90	0x3c84bd7e	0.016203638
91	0x3f92f2c1	1.1480333
92	0xbdc359fe	-0.09538649
93	0x3f3669e6	0.7125534
94	0xbd91be94	-0.07116428
95	0x3f21faec	0.632735
96	0x3f44b090	0.76831913
97	0xbda72f50	-0.08163321
98	0x3ee0da3a	0.43916494
99	0xbde7615e	-0.11297868
100	0xbc0d52a2	-0.008625658
101	0xbdf2d3ec	-0.11856827
102	0x3f506e89	0.81418663
103	0x3fac7fb7	1.3476475
104	0x3f899b3d	1.07505
105	0x3fc20fae	1.5161035
106	0xbdcef083	-0.10104468
107	0x3fa769af	1.3079127
108	0xbdfe1c1f	-0.124077074
109	0xbddb7db0	-0.10717332
110	0x3f2f11dc	0.68386626
111	0xbe0c17cc	-0.13680953
112	0xbcf615ac	-0.03003963
113	0xbd4174f4	-0.047230676
114	0x3f00dabe	0.50333774
115	0xbc950af2	-0.018193696
116	0x3f9c15f2	1.2194197
117	0xbdc487c5	-0.095962085
118	0x3f7c72d1	0.98612696
119	0x3f9e3c7e	1.2362211
120	0x3f4a9c40	0.7914467
121	0xbdd82f50	-0.10555899
122	0x3ea8ed25	0.32993427
123	0x3f70f8d4	0.9412968
124	0x3fa06857	1.2531842
125	0x3eddcd9c	0.4332093
126	0x3eb93963	0.36176595
127	0x3eed55a5	0.46354404
