checkpoints3/team2_agent_3.pt (torch, 411297 bytes, 24 tensors)

net.0.weight f4 [128, 53]
000000 e3 bd ea 3d 67 82 28 3e 8f ae 44 bf ab eb 93 3f
       0.11461999 0.16455995 -0.76828855 1.1556295
000010 b6 d9 b2 3f 50 4f 64 3f 0c 48 53 3f 90 70 2f 3f
       1.397269 0.8918352 0.8253181 0.6853113
000020 82 22 04 bf 8c 4c 64 bd 1a b0 db bf d1 af dd 3f
       -0.51615155 -0.055737063 -1.7163117 1.731928
000030 7c dc 27 be 5a f0 b8 3e 5b 2d b5 3f 50 e6 c2 3e
       -0.16392702 0.36120874 1.4154466 0.3806634
000040 22 c6 f8 bf ef 71 45 bf 7e e1 9b bf 5a ea 6a bf
       -1.9435465 -0.77126974 -1.217819 -0.9176384
000050 f4 a0 a9 bd 14 9a 83 3f 67 56 66 3f ce 0a 03 bf
       -0.082826525 1.0281396 0.8997559 -0.5118836
000060 98 d7 2e bd ae 63 14 40 eb 7f 42 3f cd 90 2c bc
       -0.042686075 2.318584 0.7597644 -0.01053257
000070 8a c9 88 3e c6 9a e6 bf d5 9c c9 3e 90 7f 9a 3f
       0.26716262 -1.8015983 0.39377466 1.2070179
000080 ce 9b 8f 3f 76 2e ac 3f 59 08 d7 bf 8f 0e f0 bd
       1.1219423 1.3451679 -1.6799423 -0.11721527
000090 7e bc 80 bd 39 25 4d 3e 66 53 23 bf 42 66 98 bd
       -0.06285952 0.2003373 -0.6379913 -0.07441379
0000a0 63 14 f8 be c3 33 58 bd 62 02 bb 3e fe 53 51 3e
       -0.48453054 -0.05278374 0.36525255 0.20442197
0000b0 94 74 9e 3d 41 6f 89 bf 76 96 c1 bd 06 a0 a5 3e
       0.07737079 -1.0737077 -0.09452526 0.3234865
0000c0 de b4 ba 3e f6 60 03 bc 1a 6a aa 3e d0 55 56 3f
       0.36466116 -0.008018723 0.33284074 0.8372469
0000d0 33 66 ac bf dc 85 74 3c 03 90 11 3e c0 0c c4 be
       -1.3468689 0.014924493 0.14215092 -0.38290977
0000e0 0e 5c 74 3e 47 71 5b 3f d3 6e 69 3d b8 e8 b0 be
       0.23863241 0.8571972 0.056990456 -0.3455255
0000f0 88 5d ef 3e b2 ff 83 bf 10 fb ed 3c e8 10 c2 be
       0.46751046 -1.0312407 0.02905038 -0.37903523
000100 13 b5 29 bd 6b 3a 42 bf a9 1f e2 bf 2a 15 4e 3f
       -0.04143245 -0.7587039 -1.7665912 0.80501044
000110 b6 45 4b 3f 2f f1 d5 be 06 44 19 3f 88 34 c5 3e
       0.79403245 -0.4178557 0.5986942 0.3851664
000120 46 9a 01 3f f0 2d bd 3e 79 82 f7 be 11 5a 96 3d
       0.5062603 0.3694911 -0.4834173 0.073413976
000130 5a b7 80 bf bc c8 76 3d 83 62 74 3e 27 20 11 3f
       -1.0055954 0.06025003 0.23865704 0.56689686
000140 b7 90 a6 3e 33 ed eb 3d 45 f9 3a 3f 0d c2 cd 3e
       0.32532284 0.115198515 0.73036605 0.40187111
000150 28 d1 15 bf dd 1b 0e bd 3e 3d 07 bf 6f ba ce 3e
       -0.5852227 -0.03469454 -0.52827823 0.40376613
000160 f5 b5 d0 3e 5f d3 53 bf a4 01 0e 3e 0a 94 1e bf
       0.40763822 -0.827444 0.13867813 -0.6194464
000170 1c 54 10 3e ae 83 b1 be 84 6b 70 be 1c 5a c7 be
       0.14094585 -0.34670776 -0.23478514 -0.38935935
000180 86 f8 5c bf 72 c5 72 3f e3 ba 84 bf 1a 9c 6e be
       -0.86316717 0.9483253 -1.0369533 -0.23301736
000190 d4 98 20 3f 80 ed 59 be 8f dd 20 bd b0 65 96 be
       0.627332 -0.21282005 -0.039273795 -0.29374456
0001a0 b2 74 5a bd 5f fd 63 3e e7 77 ce 3e 81 cc 9e be
       -0.053333946 0.22264622 0.40325853 -0.310154
0001b0 76 76 b1 bf 88 3d 90 bf 47 bf 86 3f 78 2a 62 bd
       -1.3864276 -1.1268778 1.0527123 -0.055216283
0001c0 03 68 d2 be 7d d4 b6 3e ae 65 7a be dd 84 fd bd
       -0.4109498 0.3570899 -0.2445285 -0.12378857
0001d0 9e 17 c8 be 0d 19 15 3f 5e 98 af be 10 a6 ed bc
       -0.39080518 0.5824135 -0.34295934 -0.029009849
0001e0 6c a7 36 c0 30 19 f7 bf 86 a3 b5 3f 40 3e 95 bf
       -2.8539686 -1.9304562 1.4190528 -1.1659622
0001f0 eb 7f 50 3f d4 80 5c bd c2 d3 c3 be 44 40 bc be
       0.8144519 -0.053833798 -0.38247496 -0.3676778
000200 7f 44 02 3f 50 eb f3 3c fd 04 94 bd 46 a0 03 bf
       0.50885767 0.029775292 -0.07227514 -0.5141643
000210 a5 ac 4b bf 34 b0 39 bf 14 95 96 be 9d 78 c8 3e
       -0.7956031 -0.7253449 -0.29410613 0.3915452
000220 08 8a 4b 3c f0 1e 13 40 91 75 1a 3e d7 01 b1 3f
       0.012423046 2.2987633 0.1508391 1.3828686
000230 2c af c8 bf c4 16 82 3e d8 51 35 3e 34 bb 92 3e
       -1.5678458 0.25407994 0.17707002 0.2865845
000240 53 03 8b 3e 33 91 ba bf 8e b4 a7 3e 59 ac 43 bf
       0.27150974 -1.4575561 0.3275494 -0.76434857
000250 46 d0 90 bd 3f 63 70 bf 79 a1 52 3e a4 10 78 c0
       -0.07070975 -0.9390144 0.2056941 -3.8760157
000260 5f 19 82 be 2d d5 41 3e 3c 32 a5 3f 11 b1 fb be
       -0.25409982 0.18928976 1.2905955 -0.49158528
000270 6e 36 a2 3f 74 58 e9 3e e9 66 64 bf 66 09 a5 3d
       1.2672861 0.45575297 -0.8921953 0.08058433
000280 b1 ff db be 4e 49 14 3e e6 2b a1 bf fb 54 12 40
       -0.42968515 0.14481089 -1.2591522 2.2864368
000290 e2 d1 ef be 5d 1a 61 3d 2f 45 d5 be d4 b8 37 3f
       -0.46839815 0.054956783 -0.41654345 0.717664
0002a0 f9 c2 06 bf d2 96 93 3f 15 07 83 3e d9 95 4a 3f
       -0.52641255 1.1530402 0.2559134 0.791349
0002b0 fb 12 ab bf 7e 81 98 3e 4a ea 1c bf ab ba e1 bf
       -1.3365167 0.29786295 -0.61294997 -1.7635092
0002c0 1f ac df bf 68 6e 8a bf 8b a2 62 bf 57 7a 2e 3e
       -1.7474402 -1.0814943 -0.8852927 0.17038856
0002d0 80 51 af 3d d7 1f 1a bd 67 ae 67 3f 4f fb 0b 3e
       0.08560467 -0.03762802 0.9050049 0.13670085
0002e0 73 02 35 bf 9d 15 53 3f 56 1e 46 3f 3f b1 28 3f
       -0.7070686 0.82454854 0.7739004 0.65895456
0002f0 b5 a7 31 c0 24 ed 1c bf b1 ed a2 bf 88 8b 2b bd
       -2.775861 -0.6129935 -1.2728788 -0.041881114
000300 aa 51 93 3d b2 a2 51 3f d2 76 64 3e 58 db 30 be
       0.071933106 0.8188888 0.22310951 -0.17271173
000310 bc 3c b7 3e 2e 62 0e bd 1b a2 8e bf 93 80 ff be
       0.35788524 -0.0347616 -1.1143221 -0.49902782
000320 9d b9 15 bf 7f c1 7f bf 8d 08 75 be 27 24 95 3e
       -0.5848635 -0.99904627 -0.23929043 0.29129145
000330 78 fa 7d bf b5 f5 94 3e ce 09 77 be 5a e4 71 3e
       -0.9921031 0.2909371 -0.24124834 0.23622265
000340 25 d3 c6 3c 18 45 7f 3e 2c 82 eb 3e 04 04 ef 3d
       0.024270603 0.24928701 0.4599775 0.11670688
000350 0b e6 2b 3e c6 49 fe 3e e4 e2 ce 3e a8 11 f2 39
       0.16786973 0.4966566 0.4040748 0.00046170992
000360 66 6c 5e bf 68 e9 bf 3e 8e 89 db 3e 59 f9 f7 be
       -0.8688415 0.37482762 0.42878383 -0.48432425
000370 7d 2e c6 3d 1b 5a 86 bd 7d d1 9b bf 20 ab 8b bf
       0.09676836 -0.06560155 -1.2173306 -1.0911598
000380 49 00 86 bf 9a a7 da be fb 18 61 3f 5c 5d 03 c0
       -1.0468837 -0.42705995 0.8792874 -2.0525732
000390 cd 0d b7 3e 67 59 9a bf 3e b6 c4 be f8 31 a0 3e
       0.35752717 -1.2058533 -0.3842029 0.31288123
0003a0 92 b4 2e be 45 93 7f 3e b7 18 ff be bd 73 7c be
       -0.1706107 0.24958523 -0.49823543 -0.24653526
0003b0 dc fb 56 bd d4 91 9e 3f 47 bc 8b bf a1 21 67 3f
       -0.052486286 1.2388253 -1.0916833 0.9028569
0003c0 76 1b 10 3f 56 ba 6c be 38 de d5 be cd 65 98 3f
       0.562919 -0.23117957 -0.41771102 1.1906067
0003d0 23 9d 2a be 2a 03 ca 3e 7d a1 bd 3f 7d ba 66 3f
       -0.16661505 0.3945554 1.4814907 0.9012831
0003e0 20 07 f0 3e ff 5b 46 bc 24 b3 f3 3c aa e4 18 3e
       0.46880436 -0.0121068945 0.029748507 0.14930978
0003f0 1a 81 fe bf 40 04 db 3e b9 e7 17 c0 53 56 02 bf
       -1.9883149 0.4277668 -2.3735182 -0.5091297

net.0.bias f4 [128]
000000 28 12 1e 3e ce 20 26 3e 0c ef 69 3e f3 36 c4 bd
       0.15436614 0.16223451 0.22845095 -0.09580793
000010 61 a1 a5 3e 3b 57 76 3d 1b 6e 80 3e b4 6e dc 3e
       0.32349685 0.060141783 0.25084004 0.4305321
000020 ee ac 8a 3d fd cf bb be 83 83 49 3e a7 b3 4c 3a
       0.06771265 -0.3668212 0.19679074 0.00078087527
000030 55 df 8f bd 62 46 19 be f1 b4 23 be 68 e4 cb 3e
       -0.07025019 -0.14968255 -0.15986992 0.39822698
000040 42 a0 80 3e d6 fd fd 3e 02 3c 73 3e d0 31 b1 3d
       0.25122267 0.49607724 0.2375336 0.08652079
000050 45 8a ee 3d 87 29 4f be 0a 62 9c 3e b0 0b cc bd
       0.116474666 -0.20230685 0.30543548 -0.09963167
000060 e6 d3 c3 3e bf 85 af 3e ff 99 b5 bd 61 29 5a bb
       0.38247603 0.34281728 -0.08867263 -0.0033288824
000070 8c ab aa be 82 26 31 be dd a1 9b 3e c8 27 27 be
       -0.33334005 -0.17299846 0.3039693 -0.16323769
000080 73 70 a1 3e c5 05 91 3e dc 97 db 3e e0 7f f7 3e
       0.31531104 0.28324714 0.42889297 0.48339748
000090 96 5c 4a 3f 28 48 fe 3c f5 75 31 be 8e 89 0f be
       0.79047525 0.031040266 -0.17330153 -0.14017317
0000a0 bd fb dc 3e 08 ae 23 bd a1 ef b6 3e 52 6f c1 bd
       0.4316081 -0.03996089 0.35729697 -0.09445061
0000b0 56 e2 46 bd 11 7d 66 3d f6 ed 8d be 60 12 13 3f
       -0.048555695 0.056271616 -0.27720612 0.57449913
0000c0 25 d9 85 bd b4 fb 95 bd 10 95 68 be 26 e6 09 3e
       -0.06535558 -0.07323399 -0.22713113 0.13466701
0000d0 78 f3 2e bd 6a 56 8a 3e 33 35 13 be 4e c0 91 bd
       -0.04271266 0.27019054 -0.14375763 -0.07116757
0000e0 29 97 51 3d 35 0a d8 3e 7a ac 40 be 58 b4 21 bd
       0.05116955 0.42195287 -0.18815795 -0.03947863
0000f0 ab 3a bb 3d 08 7c 7e 3e fb 6a c1 3e 34 7a d6 bd
       0.091420494 0.24852002 0.37776932 -0.10472527
000100 cd 3d 4c 3c 3c 75 10 3d fa 61 13 be f7 b7 9b bc
       0.012465906 0.035268053 -0.14392844 -0.01900862
000110 5d 9f 21 3f b6 2e e2 be 04 92 ad bd c0 78 8f 3d
       0.63133794 -0.44176263 -0.08475116 0.07005453
000120 9b 2e 19 3e 73 e0 55 be a3 07 c3 3e 04 d2 fa 3d
       0.14959185 -0.20886402 0.38091764 0.122470886
000130 af 6b 0d be 58 4c 76 3e 0f ce 10 be d7 4a c1 3e
       -0.1381061 0.2405256 -0.14141105 0.3775241
000140 74 f2 a7 3e b0 ba 07 3f 0c 75 58 3d f8 88 2c 3e
       0.32802165 0.5301924 0.052846 0.16849124
000150 ca 8f d7 be f5 ae 6d 3e 34 e2 ca bd df 60 fd 3e
       -0.4210189 0.23211272 -0.09906426 0.4948797
000160 3e 5b b8 bd 10 49 48 be 41 a3 08 3f 02 9b 39 bd
       -0.09001778 -0.19559121 0.53374106 -0.045313843
000170 d0 78 d0 3e c4 bf 97 bd 17 9a 54 be 14 98 3a be
       0.40717173 -0.07409623 -0.20761906 -0.18222076
000180 33 70 71 3e 48 85 3a 3e 7f 59 51 be 5a fb 50 3d
       0.23577957 0.18214905 -0.20444296 0.051020958
000190 98 04 1c 3d c9 c4 36 be 41 f6 db be 20 f9 d7 3e
       0.03809032 -0.17848505 -0.42961314 0.42182255
0001a0 00 39 35 3e 90 5a 55 3e 28 7d 4b 3c 0e 12 94 3e
       0.17697525 0.20835328 0.012419976 0.28920025
0001b0 67 ee 59 be c0 51 3b 3f 68 c7 66 be 55 da 83 3e
       -0.2128235 0.73171616 -0.22537005 0.25752512
0001c0 23 3e c7 3e a7 2b 45 bd 48 85 3c be 75 66 38 3e
       0.38914594 -0.048137333 -0.18410218 0.18007834
0001d0 e6 66 03 be e7 20 42 3e 4e d6 4a 3e bc b3 83 38
       -0.12832221 0.18957864 0.19808313 6.280045e-05
0001e0 cc d4 3f 3e 6f 2a 0a 3f ef bb b8 3e c5 cf 64 be
       0.1873352 0.53971 0.36080882 -0.22344883
0001f0 47 e1 4a bb 8b ca 3a bd c7 ef 20 be 3c 74 0c 3f
       -0.003095703 -0.045603316 -0.15716468 0.5486486

net.2.weight f4 [128, 128]
000000 6c 6b f1 bc f7 f4 10 be ac 00 d0 bd fb 41 fe bc
       -0.029470168 -0.14155947 -0.10156378 -0.031037321
000010 90 73 99 bb c6 c7 b0 bd f9 15 97 bc 88 f0 7a bd
       -0.0046829656 -0.08631854 -0.018443095 -0.061264545
000020 92 6a fd bc 19 f3 be bd d1 22 1d 3d fd 69 e8 bd
       -0.030934606 -0.09323711 0.03836328 -0.11348341
000030 20 65 84 bc 2e bd a6 bd 10 0a 52 3c 20 75 1c bc
       -0.016161501 -0.08141552 0.012819782 -0.009549409
000040 14 ea 0d be 85 38 00 bc 3f c2 d5 3c c4 20 8b bd
       -0.13858825 -0.007825975 0.0260936 -0.06793359
000050 0b e6 65 bd 09 31 5a ba 42 62 bd bd fb 2e 97 3d
       -0.05612759 -0.0008323347 -0.09247257 0.07382008
000060 59 83 12 be dd 7a 87 bc 11 21 86 3d 84 40 92 3c
       -0.14307918 -0.016538078 0.06549276 0.01785303
000070 08 23 0a 3d 22 4e db bc f7 7a 30 3c 98 63 52 bd
       0.033724815 -0.026770655 0.010771505 -0.05136451
000080 3b 07 ac bd c8 a8 96 bd e5 8d a7 bc b7 e3 8c 3c
       -0.083998166 -0.07356411 -0.020453403 0.017198427
000090 68 0f 1e be ef 83 3e 3d 71 62 c3 bb c9 03 fa bd
       -0.15435565 0.04651254 -0.005962663 -0.12207753
0000a0 e7 22 f3 bb d4 a7 78 bd 98 d0 08 3a fc 70 8e 3c
       -0.007419932 -0.06070693 0.0005219071 0.01738786
0000b0 4b eb bc 3d b8 06 d7 bd bf f5 6c bd 8b 9a 75 3d
       0.09224566 -0.104993284 -0.05785155 0.059961837
0000c0 9a a4 b4 bd da 7a b7 bd e0 e0 27 bb fc b7 dc bd
       -0.08820458 -0.08958979 -0.0025616214 -0.1077728
0000d0 ac 22 b0 3c 14 b0 8d bd d7 ba 85 bd 41 78 bd bc
       0.021500908 -0.0691835 -0.065297775 -0.02312863
0000e0 ba 60 0f 3d 3b 2c 9b bd 72 4c 5e 3d 43 4e e8 bd
       0.035004355 -0.07576796 0.054272123 -0.11343052
0000f0 ab 15 72 bc 12 08 bd bc c3 b9 f6 3c 40 87 8c bd
       -0.014775674 -0.023075137 0.030117875 -0.068617344
000100 a7 42 19 3c 28 07 11 be 1b af a3 3d a9 af 14 bc
       0.00935427 -0.14162886 0.07992383 -0.009075084
000110 70 ec a8 3b 7d 3f 8f bd 33 4d a6 bd be 6c c9 bc
       0.0051551387 -0.06994531 -0.08120193 -0.024587985
000120 dc 67 5e bd 32 ba 51 bd 9a 42 fc 35 74 c7 28 bd
       -0.054298267 -0.05120296 1.8794847e-06 -0.04120584
000130 b1 69 0b bd 6e d2 0e be 04 21 56 bd e9 f4 17 bd
       -0.034036342 -0.1394746 -0.05227758 -0.0370988
000140 2b 25 78 bd c4 fd 8a bd c7 de e4 bd 1c 87 01 bd
       -0.06058232 -0.06786683 -0.11175304 -0.03162299
000150 81 53 1d 3d de 1d e2 bd a6 c4 3e bd bc be 88 3a
       0.038409714 -0.11040853 -0.046574257 0.001043282
000160 d2 e3 71 3d da da a9 bd 7f d2 67 bd 79 02 85 bd
       0.059055157 -0.08293696 -0.05659723 -0.06494612
000170 18 e8 cf bd 11 d1 ce 3c 3a 71 49 3d 55 55 9e bd
       -0.1015169 0.025246175 0.049180247 -0.077311195
000180 80 d1 fa 3c 4d c3 17 3d f0 c7 35 bc b7 13 3b bd
       0.030617476 0.037051488 -0.011095032 -0.0456731
000190 d6 b2 67 bd c9 71 05 bd 26 b8 54 ba 2d 59 06 3c
       -0.056567036 -0.032579217 -0.00081145985 0.008199972
0001a0 ae ac 88 3c 66 03 b2 3d 50 41 82 3c a3 2b e8 3c
       0.016683903 0.086920545 0.015900284 0.02834112
0001b0 7c 5a b0 3c d1 d5 b6 bd aa 3b 91 bd 1c 36 92 bd
       0.021527521 -0.08927501 -0.07091458 -0.07139227
0001c0 44 1d f2 bd 9a a4 d0 bd 78 41 7f bd 55 5d a3 bd
       -0.11821988 -0.10187645 -0.062318295 -0.07976786
0001d0 22 3f 43 bd 54 4d c0 bc 61 56 e7 bd a7 bf f1 bd
       -0.04766763 -0.023474373 -0.11295772 -0.11804133
0001e0 e9 08 9d bd f3 c3 ce bd 0b 07 b1 bd 62 6d 29 3c
       -0.07667715 -0.10095968 -0.086439215 0.01034102
0001f0 e4 f7 9f bd 24 54 7f bd cc e2 f5 bc aa 9e 2a bd
       -0.07810953 -0.062336102 -0.030015372 -0.04165522
000200 cd 87 02 40 0b 0a 77 bd b7 61 2b c0 0f cc 03 3f
       2.0395386 -0.060312312 -2.677839 0.51483244
000210 4c 97 f2 be 97 77 97 3f 88 67 20 3d 7f bb 85 be
       -0.47381055 1.1833371 0.039161235 -0.2611961
000220 3a 32 a8 3f c8 d5 09 bf 70 e0 68 be 51 f8 bc be
       1.3140328 -0.5384183 -0.22741866 -0.369082
000230 2d 2a c5 3c a6 7b 82 bd 4c d8 df 3d 36 ed b7 be
       0.024067963 -0.0637124 0.10929927 -0.35923165
000240 48 8e ab 3d a4 eb 55 3e e6 a5 25 c0 73 62 2d be
       0.08376747 0.20890671 -2.5882506 -0.16932087
000250 64 04 61 3f 4f 24 82 c0 fc 82 00 c0 44 09 e3 3b
       0.87897325 -4.066932 -2.0079947 0.006928595
000260 fa 33 d1 3e 41 33 4a be a6 74 50 3e ae 60 96 3b
       0.40859967 -0.19746114 0.20356998 0.004589162
000270 ee 87 aa 3f 39 1a ef 3e 85 3f ba 3f 7c 57 c4 bc
       1.3322732 0.46699694 1.4550635 -0.023967497
000280 c4 7d 20 40 a3 2d 73 3f 2c b8 81 3e 77 89 07 3f
       2.5076761 0.9499151 0.25335824 0.5294413
000290 df fd eb 3e 44 6d e2 3f 2e d4 70 be 5d 90 a5 be
       0.46092126 1.7689595 -0.2351844 -0.32336703
0002a0 78 92 5a bf af 4f 34 c0 1f 12 34 bf f1 b1 0a bd
       -0.85379744 -2.8173635 -0.7034015 -0.033861104
0002b0 d7 6f 1d 3f e9 c4 50 be e5 9b 96 bf 25 9f 09 be
       0.6149878 -0.20387615 -1.1766325 -0.13439615
0002c0 d8 a4 66 c0 f1 2c 84 c0 4b b5 55 bc 2f db a5 bf
       -3.6038113 -4.130486 -0.013043712 -1.2957515
0002d0 57 10 01 c0 d1 41 b8 3e 33 14 a3 bd 00 1a 6a 3c
       -2.0166223 0.35987714 -0.07962837 0.014288425
0002e0 77 fd 10 40 7b ce 06 be 75 dd 45 3d be cc 47 bf
       2.2654703 -0.13164704 0.0483069 -0.78046787
0002f0 2d 24 ca 3e 42 d8 37 c0 ee b1 28 3f 60 33 b4 3c
       0.39480725 -2.8725743 0.658965 0.021997154
000300 b4 d6 41 bf 83 24 f1 3f 34 d8 b6 3d 1c 5e dd be
       -0.75718236 1.8839267 0.08927956 -0.43235862
000310 47 89 45 3e 07 36 da 3f 18 ef f9 3f 7b 7c 95 3f
       0.19290648 1.7047738 1.9526091 1.1678613
000320 1c 04 9e 3f 67 c7 e1 bd 23 70 5e 3f 75 64 bf bf
       1.2345004 -0.11024361 0.8688986 -1.4952532
000330 fa 00 f0 bd 85 4e 33 3e 86 65 17 c0 c7 ba 37 c0
       -0.11718936 0.17510422 -2.3655715 -2.870775
000340 eb 87 be 3f e5 4d 1a 3e 6b ef 8d bf 36 2a 55 bf
       1.4885229 0.15068777 -1.108869 -0.83267534
000350 ef 78 ec 3e f5 0e 20 c0 a9 fa 87 bd 66 7a 5d 3e
       0.46186015 -2.500913 -0.066396065 0.21628723
000360 19 bf ce bc cd 1c a1 bc ef 36 3b 3e 06 03 46 bc
       -0.025237607 -0.019667054 0.18282674 -0.012085682
000370 9d f6 85 be 9f ca be be b7 9f 7a 3d be 7a 7e bf
       -0.26164714 -0.37263963 0.061187472 -0.9940604
000380 c1 bd fc 3e 2a 6d 89 3f 83 5d 67 3d ca 5e 60 c0
       0.4936352 1.0736439 0.056485664 -3.5057855
000390 29 2a 8a bf 7f 13 a1 bd 5e cb 0c c0 d4 be b5 3e
       -1.0794116 -0.07865047 -2.1999125 0.35497153
0003a0 32 83 b0 bf 8d 91 c0 3e 8c 3b 67 3f c3 2a 77 bf
       -1.3790038 0.37611046 0.90325236 -0.96549624
0003b0 f1 38 2e 3d 7a 5d 0d bf cb db 0f bd 11 47 8e 3d
       0.042534772 -0.5522076 -0.03512172 0.069471486
0003c0 71 6e a5 bf 5a 4e ab bf 3f 18 a3 3b 73 c8 4d 3f
       -1.2924329 -1.3383286 0.0049772556 0.80383986
0003d0 40 0c 1b bd 6b 5b 16 c0 33 95 48 3e c8 cc 05 40
       -0.03785348 -2.3493297 0.19588165 2.0906239
0003e0 51 c4 7e 3e cb 12 13 3e ad 62 78 bf da eb b9 bf
       0.24879576 0.14362638 -0.9702557 -1.4525101
0003f0 5d ee 2a bd 37 37 c8 bf 42 11 5b 3d 14 d1 23 3e
       -0.041731227 -1.564185 0.053483255 0.15997726

net.2.bias f4 [128]
000000 c3 b5 22 be 92 8e 4b 3f eb 5e 39 3e 4a 82 87 3f
       -0.15889649 0.7951442 0.18102615 1.0586636
000010 37 a9 d3 bb 4f dc 7f 3f f7 54 8e 3f f0 14 88 3f
       -0.006459381 0.9994554 1.1119679 1.063139
000020 16 18 b2 3c 6d 71 05 3f 56 03 f3 bd 22 8d d0 3f
       0.02174 0.521262 -0.11865871 1.629307
000030 02 fd c3 3f ac 3f f3 bc 71 66 7b 3f f0 d8 3e bf
       1.5311587 -0.029693447 0.9820319 -0.7454977
000040 40 5f 84 3f 15 24 03 bd 15 35 cf 3f f3 f0 0d bd
       1.0341568 -0.032016832 1.6188074 -0.034653615
000050 6d 01 85 bd 4d 00 49 3f 1b 2f 42 3f e6 d8 18 bd
       -0.064944126 0.78516084 0.7585313 -0.037316225
000060 f3 a9 84 3f 48 9c 00 be 4c b8 1c bd 7d 05 9d 3f
       1.0364364 -0.12559617 -0.038261697 1.22673
000070 e9 50 69 bd c4 36 ca 3c f7 ad c2 3f 11 2a 78 bd
       -0.056961928 0.024684317 1.520934 -0.060586993
000080 6f 52 5c 3f 9c db a0 3c 9c b4 ff 3e 55 fe 90 3f
       0.86063284 0.019635968 0.49942482 1.1327616
000090 73 11 3b be 8d 90 75 3f ba 05 4f 3f 8e f5 36 3f
       -0.18268375 0.9592369 0.80868113 0.71468437
0000a0 47 03 11 3f 46 8d a2 bd 49 79 8f bd cc 3d d6 bd
       0.56645626 -0.07937102 -0.07005555 -0.104610056
0000b0 94 08 0d be d8 f8 6c 3c 22 c2 b4 bd 42 ac 5d 3f
       -0.13772804 0.014463626 -0.088260904 0.8659097
0000c0 02 62 12 3f d6 9e 01 be 1c f1 84 bf 2f 4c 67 3f
       0.571808 -0.12658247 -1.0386081 0.9035062
0000d0 ad ae be bc ce cf 90 be 3d 59 ab bd 1e 58 2a 3f
       -0.023276651 -0.28283542 -0.0836663 0.66540706
0000e0 3c a9 da 3e 45 f3 d5 bd 56 52 55 ba e2 3e fe bd
       0.4270724 -0.104467906 -0.0008137574 -0.12414338
0000f0 fb f3 09 bc 0d cf 0c ba f5 e8 46 3f 27 aa 19 3f
       -0.008419986 -0.0005371429 0.77699214 0.60025257
000100 8f f2 b4 bd 68 2d 61 3e 9a 48 2b be 3f 09 37 3f
       -0.08835327 0.21989977 -0.16726914 0.71498483
000110 eb 43 bd bd 95 2f a7 bd 29 19 e1 bd a8 60 9e 3c
       -0.0924147 -0.081633724 -0.10991127 0.019333199
000120 dc 1f 82 bd c8 4e 68 bd 49 e9 57 bf 04 80 d3 bd
       -0.06353733 -0.056715757 -0.8434034 -0.103271514
000130 37 71 b5 bd 6e e8 92 3f ba 19 01 3f 29 8d a0 bd
       -0.08859485 1.1477182 0.5042988 -0.07839424
000140 82 d4 71 bd 82 d7 8e 3f 6e 21 b3 bd e1 5d 76 3f
       -0.059040554 1.1159518 -0.087466106 0.96237
000150 b0 fb 05 3f a1 92 f9 bd 36 40 c3 bc 46 12 05 3f
       0.5233717 -0.1218617 -0.02383433 0.5198101
000160 4c 3c ec 3f 3f 45 05 be 13 56 e8 bd 78 dc 18 3f
       1.8455901 -0.13014697 -0.11344542 0.5971141
000170 b3 d4 4c bd da 8e 98 3f 0d b1 c7 bd 87 8d 99 bd
       -0.050007533 1.1918595 -0.09750567 -0.07497697
000180 30 07 3e be d2 4d 85 3c dc 74 09 3f de de ab be
       -0.1855743 0.01627246 0.5369394 -0.33568472
000190 0f 1f e6 3b 16 21 01 3c ee f7 bc 3f be bb 11 3f
       0.0070227454 0.007881423 1.4763162 0.56927097
0001a0 38 35 19 3f 0f 07 59 3f 7e 55 88 3f c4 d4 b9 3e
       0.5984683 0.84776396 1.065109 0.3629514
0001b0 b9 8b 3f 3f f1 0b fb 3e f3 b9 cd bc 3d 08 2c 3f
       0.74822575 0.49032548 -0.025113082 0.6720007
0001c0 0d 26 03 be ba 8c 4b 3c 86 4b 32 3f ba 6b 29 3c
       -0.12807484 0.012423689 0.6964649 0.010340625
0001d0 a6 e7 b8 bd 12 65 c8 3f ee c1 31 3f 09 69 1a bd
       -0.090285584 1.5655844 0.6943654 -0.037697826
0001e0 00 34 ac bd 13 64 be bd 64 cf fb bd d4 7e 04 bf
       -0.08408356 -0.092964314 -0.12295416 -0.51756024
0001f0 85 e2 d6 3c dd ef eb bd 7b d5 0c be db 3c 68 3e
       0.02623106 -0.1152036 -0.13753311 0.22679465

net.4.weight f4 [13, 128]
000000 63 53 42 bc 76 04 0e 40 bd 75 1f 40 9d 68 00 40
       -0.011860701 2.2190223 2.4915612 2.006385
000010 4b 62 9f 3d e6 dc 02 40 dd 50 4f 3f 97 30 7a 3f
       0.0778242 2.0447326 0.8098276 0.9773039
000020 52 41 61 3d 0c f2 f5 3f b0 87 9d 3b 6b 54 00 3f
       0.054993935 1.9214492 0.004807435 0.5012881
000030 73 5a fc 3e 76 50 2e 3d e2 ea 03 40 62 5d e2 3f
       0.49287757 0.042557202 2.061211 1.7684748
000040 eb 17 9e 3f 77 43 0e bd 36 67 eb 3e 7c ce 8c bd
       1.2351049 -0.03473231 0.4597718 -0.06875321
000050 7b e4 93 3d 46 78 e6 3f 6c 4c 83 3f 31 e5 98 bd
       0.072213136 1.8005455 1.0257697 -0.0746559
000060 ca 6e 67 3f 29 b5 29 bd cb 38 93 3d 3c d0 00 40
       0.90403426 -0.041432533 0.07188567 2.0127096
000070 4f b5 da 3b 22 79 30 3d 87 a1 2b 3f 27 4a 64 bd
       0.0066744457 0.04308427 0.67043346 -0.05573478
000080 6d 15 ed 3f ec 3e 81 bc a5 c9 08 40 6a 6a 34 40
       1.8522164 -0.015777074 2.1373074 2.818995
000090 80 fe 96 3a f5 54 c2 3f 65 fa 55 40 7c bd c0 3f
       0.0011519939 1.5182177 3.3434079 1.5057826
0000a0 ff 04 1a 40 18 25 d9 bb 20 53 80 bb ed 51 5d 3d
       2.406555 -0.0066267364 -0.0039161593 0.05403321
0000b0 6e fb bc bf de 77 ef bc 38 ab b3 bd c2 d5 4c 40
       -1.476423 -0.029231962 -0.08772892 3.2005467
0000c0 48 e3 29 40 20 e8 8e bd ff 2f 80 bf 3f 60 7f 40
       2.6544971 -0.06977868 -1.0014647 3.9902494
0000d0 b7 01 d1 bc a2 51 19 40 ef 8f 13 3e fb ad b7 3f
       -0.025513513 2.3956075 0.14410375 1.434997
0000e0 06 1d 04 40 25 c8 0b bd 6f 75 bd 3d 3d 48 2d 3c
       2.0642715 -0.03412642 0.09250914 0.010576305
0000f0 1d 84 ba 3f f5 b2 cf 3c b2 22 a2 3f 66 7a 48 40
       1.4571568 0.025353888 1.2666838 3.1324706
000100 68 7e 88 3c 9a fc 2b 40 41 94 b0 3e b1 b8 20 40
       0.016661838 2.6872926 0.3448811 2.5112727
000110 2e 79 d9 3d d9 ac 77 3d 58 9d 03 be 74 d3 69 bd
       0.10618816 0.060467575 -0.1285299 -0.057086423
000120 0e 30 3c 3c 47 34 3c bd f2 7f f4 3f 48 42 8a bc
       0.0114860665 -0.045948293 1.9101546 -0.016877308
000130 46 5e f5 bd dd da 61 3f 7b 26 51 40 a0 94 c2 3c
       -0.11980872 0.88224584 3.2679737 0.02375251
000140 c5 da a2 3d c8 f9 3a 3f 28 de 70 bd 54 56 9d 3f
       0.07951883 0.73037386 -0.058805615 1.229197
000150 f4 28 a6 3f d3 f6 60 40 a8 aa c0 3d 7e 44 f2 3f
       1.2981248 3.515065 0.0940755 1.8927152
000160 01 98 9a 3f f7 33 81 3b 60 ca c1 3a 5f b9 0f 40
       1.2077638 0.0039429623 0.0014785044 2.2456892
000170 f4 91 ef 3c a2 3a 31 3f 50 2e 92 bd 7c 00 29 3c
       0.0292444 0.6923009 -0.0713774 0.010315057
000180 f0 4c cf be e2 f9 7a bd fd e3 22 40 11 e7 10 3f
       -0.40488386 -0.061273463 2.5451653 0.5660258
000190 85 39 2a 3d c2 e0 54 3d fb 96 56 3f 5d 26 23 40
       0.04155876 0.05197216 0.8382413 2.5492165
0001a0 11 4b 0c 40 45 99 2e 40 4c a6 47 40 06 bb 08 40
       2.1920817 2.7281048 3.119525 2.136415
0001b0 7c 2d f4 3f 3e c6 29 40 36 fa 1b 3d 1e 2d 4e 40
       1.9076381 2.6527247 0.038080417 3.2215037
0001c0 ec d1 56 bb b0 23 31 3d 83 51 3d 40 98 7b 51 3c
       -0.0032778932 0.043246925 2.9581 0.012785815
0001d0 16 77 ed 3d 7a ab 54 3f b1 1c 0c 40 bf 46 35 bd
       0.115949795 0.8307415 2.1892512 -0.04425692
0001e0 37 83 b4 b9 88 12 67 bd b1 27 b3 3c 1c 43 b9 bf
       -0.00034430038 -0.056414157 0.021869512 -1.4473605
0001f0 a5 8d 89 bb 18 58 a1 3d 36 70 51 3d a3 a7 23 40
       -0.0041977935 0.07878131 0.051132403 2.5571067
000200 c5 f2 6a bc af 81 98 3f a3 37 20 40 6f 7b 20 40
       -0.014340107 1.1914576 2.5033958 2.5075338
000210 eb 69 80 3d 41 a3 01 40 19 a8 3b 3f 49 3a 40 3f
       0.06270202 2.0255892 0.7330337 0.75088936
000220 06 bb da bc fe 25 05 40 93 b3 8b 3d 6d 26 2b 3f
       -0.026700508 2.0804439 0.068213604 0.6685551
000230 16 2c 08 3f 7e 3b 8f 3d 15 da 95 3f 81 ec bb 3f
       0.5319227 0.06993769 1.1707178 1.468155
000240 8d 62 7b 3f 92 61 98 3c be b1 4b 3f 86 ac 92 bd
       0.9819725 0.018601213 0.7956809 -0.071618125
000250 c1 30 2e bd 80 b0 dc 3f 74 83 95 3f 63 0c 08 3c
       -0.042526964 1.7241364 1.1680741 0.0083037345
000260 17 61 75 3f 62 a1 ec 3d 76 7d 39 3c 9f af 03 40
       0.9585127 0.11554219 0.011321416 2.057594
000270 59 1f 3d bd b9 cb f3 3c 46 e2 33 3f a4 a9 e1 3c
       -0.046172474 0.029760228 0.7026714 0.027546711
000280 c8 e7 f2 3f b2 dd b4 bd 40 de 19 40 e2 2f 21 40
       1.8976984 -0.088313475 2.40419 2.5185475
000290 a0 27 f3 bb c1 3b cd 3f 83 ae 4a 40 a0 c6 d0 3f
       -0.007420495 1.603386 3.1669014 1.6310616
0002a0 54 3e a5 3f b9 3c 81 3d 46 64 01 3d 96 eb c7 3c
       1.2909646 0.0631041 0.03158977 0.024404328
0002b0 89 23 dd bf bf 0f ae 3d b6 d5 4f 3d 92 09 57 40
       -1.727647 0.08499097 0.05074092 3.3599591
0002c0 f3 52 4b 40 a3 32 dd 3c 5e 31 91 bf 43 30 86 40
       3.1769378 0.027001685 -1.1343191 4.1933913
0002d0 b1 ae d3 3d 1a 60 1d 40 ec 74 5a 3f c6 58 ff 3f
       0.10336054 2.4589906 0.8533466 1.9948967
0002e0 8b 90 e7 3f a3 04 9b 3c 28 a9 80 3d e9 2e 23 3c
       1.8090986 0.01892311 0.06282264 0.009959915
0002f0 4f 97 d2 3f 15 c3 be bc 33 0c 95 3f 85 92 46 40
       1.6452426 -0.023286382 1.1644348 3.1026928
000300 30 db e6 bc d7 88 32 40 78 06 89 3f ba 7d 23 40
       -0.028180689 2.789602 1.0705099 2.5545487
000310 ad da 4f bc 93 87 80 bd dd 9b 1c 3b 13 c5 5c 3c
       -0.012686414 -0.06275859 0.0023896613 0.0134747205
000320 44 35 7b 3d 8d 58 05 bd 7f 32 ee 3f 28 d6 8b bd
       0.061330095 -0.03255515 1.860916 -0.068279564
000330 26 52 03 3d 90 97 5f 3f 87 ef 3b 40 9a 3b 75 bd
       0.032060765 0.8734064 2.9364946 -0.059871294
000340 c2 45 30 3d ae 35 62 3f 4e 7a 52 3c 20 7a 37 3f
       0.043035276 0.8836316 0.0128465425 0.7167072
000350 f9 b7 bf 3f bb f2 2c 40 48 f7 b5 3d e9 7e d4 3f
       1.4978019 2.702315 0.08885056 1.660123
000360 78 e2 8c 3f e0 dd 8c bd 1a 68 9e 3a e8 d8 28 40
       1.1006613 -0.06878257 0.0012085468 2.638239
000370 f9 f0 1a bb d4 30 0a 3f 4e 00 b5 bc 7c 36 8e bd
       -0.0023642166 0.53980756 -0.022094872 -0.06943986
000380 b5 55 10 bf 97 8f cc 3c c5 55 d5 3f cf c8 a0 3f
       -0.5638078 0.024970813 1.66668 1.2561282
000390 33 8e 43 3d 0e b6 2e 3d 32 9a 56 3f 63 97 14 40
       0.047743034 0.04265409 0.83829033 2.32174
0003a0 31 e5 75 3f b9 ac 00 40 6a 59 30 40 66 0b 1d 40
       0.96052843 2.0105422 2.7554574 2.4538207
0003b0 77 7e f8 3f 1c 7a 61 40 50 27 5d bc 4e d6 39 40
       1.9413594 3.523078 -0.013498142 2.9037051
0003c0 ba 74 db bc 5d d7 34 3d 7c f5 1e 40 fd e9 9d bd
       -0.026789058 0.0441507 2.4837332 -0.07710645
0003d0 9e a1 16 bc 26 3e cd 3e 4a f3 09 40 79 14 a1 bc
       -0.009193806 0.40086478 2.1554742 -0.019663082
0003e0 6a 72 7e 3d aa 17 06 bd d8 16 83 3d 8c cf a6 bf
       0.062120833 -0.03273741 0.064008415 -1.3032088
0003f0 67 76 92 bd 4d 64 ab 3c d2 ce 63 bd a1 8b d4 3f
       -0.0715149 0.02092185 -0.05561716 1.6605111

net.4.bias f4 [13]
000000 e4 17 c2 3f 82 b2 8a 3f 6f 7d c4 3f 38 58 5b 3f
       1.5163541 1.0835726 1.5350779 0.85681486
000010 d6 96 92 3f e9 0e a2 3f 7b 6e 85 3f d0 0b 6f 3f
       1.1452281 1.26608 1.0424341 0.933774
000020 dd dd 9f 3f 96 77 58 3f 4d eb 51 3f 55 13 27 3f
       1.2489582 0.84557474 0.81999665 0.65263873
000030 fb c8 5e 3f
       0.8702542

net.0.weight f4 [128, 53]
000000 bf 30 ee 3d d0 36 29 3e 15 d5 43 bf d8 9b 93 3f
       0.11630391 0.16524816 -0.7649701 1.1531935
000010 de e7 b2 3f b7 23 64 3f 8c 47 53 3f d2 2b 2e 3f
       1.397701 0.89116997 0.82531047 0.68035614
000020 55 f8 03 bf 8c 4c 64 bd 83 fc da bf cf 7c dd 3f
       -0.515508 -0.055737063 -1.710831 1.7303714
000030 00 9e 2c be 3b ca ba 3e 3e 10 b5 3f dc c7 c1 3e
       -0.16857147 0.36482415 1.4145582 0.37847793
000040 77 4c f8 bf 19 e9 44 bf 88 e5 9b bf fb 7b 6a bf
       -1.9398335 -0.7691818 -1.2179422 -0.9159543
000050 ba 6f ad bd d2 97 83 3f 4a a8 65 3f bc 25 03 bf
       -0.08468576 1.0280707 0.89709914 -0.51229453
000060 98 d7 2e bd 52 57 14 40 84 e0 41 3f 8e a6 33 bc
       -0.042686075 2.3178296 0.7573321 -0.010965003
000070 be 4f 89 3e c0 96 e7 bf 56 1e c9 3e f1 8c 9a 3f
       0.2681865 -1.809288 0.39280957 1.2074262
000080 15 17 8f 3f c5 03 ad 3f e1 60 d7 bf 51 bc f2 bd
       1.1178919 1.3516775 -1.682644 -0.11852325
000090 07 42 7f bd 09 09 4c 3e 34 3a 22 bf d1 f8 a6 bd
       -0.062318828 0.19925322 -0.6337006 -0.08152927
0000a0 ac 7b f6 be 6d 00 51 bd ec a5 bc 3e bf d9 52 3e
       -0.4814123 -0.051025797 0.36845338 0.20590876
0000b0 6b f2 9d 3d 6e 41 89 bf e5 a5 c2 bd d1 49 a5 3e
       0.07712253 -1.0723093 -0.09504298 0.3228288
0000c0 ad 8f ba 3e e1 f7 1e bc e9 44 aa 3e a8 41 56 3f
       0.3643774 -0.009702654 0.332557 0.83693933
0000d0 a7 35 ad bf b7 ec 82 3c 85 fc 11 3e 51 27 c4 be
       -1.3531998 0.015982015 0.14256485 -0.38311246
0000e0 2a e9 75 3e b8 d5 5a 3f 29 d6 62 3d 11 ff b0 be
       0.24014726 0.8548236 0.05538002 -0.345696
0000f0 19 43 ef 3e 0f 43 84 bf 10 fb ed 3c c8 8d c0 be
       0.4673088 -1.0332965 0.02905038 -0.3760817
000100 cb 79 32 bd 19 da 42 bf d1 cc e1 bf 80 5b 4d 3f
       -0.043573182 -0.7611404 -1.764063 0.8021774
000110 ab e3 49 3f bb 10 d4 be 40 61 1a 3f 5b ae c6 3e
       0.7886302 -0.41419014 0.6030464 0.38804898
000120 54 ae 01 3f 72 87 bc 3e dc 83 f7 be 71 89 96 3d
       0.5065663 0.36822087 -0.48342788 0.073504336
000130 27 e6 80 bf bc c8 76 3d 35 af 72 3e 44 d2 10 3f
       -1.0070237 0.06025003 0.23699649 0.5657084
000140 27 5d a6 3e bf c2 ec 3d 76 de 39 3f 5e a4 cd 3e
       0.32492945 0.11560582 0.72605073 0.40164465
000150 1f 4e 15 bf d1 c4 11 bd 36 5d 07 bf 6c a7 ce 3e
       -0.5832233 -0.03558809 -0.52876604 0.40362108
000160 45 fa d0 3e 77 d2 52 bf d8 f2 0e 3e c0 3c 1d bf
       0.4081594 -0.82352394 0.13959825 -0.6142082
000170 ee c2 0e 3e d0 c9 b0 be af 32 6e be 62 13 c7 be
       0.13941547 -0.3452897 -0.23261522 -0.38881975
000180 15 73 5c bf 30 15 74 3f 88 48 84 bf 95 74 6e be
       -0.861131 0.9534483 -1.0334635 -0.2328666
000190 7b 38 20 3f d1 60 5b be 75 32 25 bd 5c 1f 97 be
       0.6258618 -0.21423651 -0.040331323 -0.29516113
0001a0 09 c2 68 bd ec f9 63 3e e3 18 ce 3e 62 e6 9f be
       -0.05682567 0.22263306 0.40253362 -0.31230456
0001b0 22 42 b1 bf 40 0d 90 bf 3e 44 86 3f 0c 40 6a bd
       -1.3848307 -1.1254044 1.0489576 -0.057189986
0001c0 92 48 d0 be bb 29 b6 3e f4 7f 78 be d1 00 fd bd
       -0.40680367 0.35578713 -0.2426756 -0.12353671
0001d0 07 11 c9 be 4f c8 15 3f 0a 8d b1 be 43 94 e5 bc
       -0.39270803 0.5850877 -0.34677917 -0.028024798
0001e0 50 db 36 c0 45 71 f7 bf ed c5 b5 3f d1 45 95 bf
       -2.8571358 -1.9331442 1.4201027 -1.1661931
0001f0 15 f3 50 3f 06 83 62 bd cd 8d c3 be 15 22 ba be
       0.81620914 -0.055300735 -0.38194123 -0.36354128
000200 67 73 01 3f e1 27 09 3d fd 04 94 bd 56 b4 03 bf
       0.50566715 0.033485297 -0.07227514 -0.51447046
000210 50 3a 4b bf 52 09 3a bf 0a 7c 95 be e9 9c c8 3e
       -0.7938585 -0.7267047 -0.29196197 0.39182213
000220 db 1a 3e 3c ad 09 13 40 f4 e3 18 3e 09 c3 b0 3f
       0.0116030825 2.2974656 0.14930707 1.380952
000230 ea 71 c8 bf d4 a0 82 3e 63 c0 32 3e 79 2c 92 3e
       -1.5659764 0.25513327 0.17456202 0.28549555
000240 2d 6c 8a 3e 75 9c ba bf a5 83 a6 3e c9 93 43 bf
       0.27035657 -1.4578997 0.32522312 -0.7639738
000250 77 cd 98 bd ba 55 6f bf e5 55 51 3e 3d f2 77 c0
       -0.07461064 -0.93490183 0.20442922 -3.87416
000260 fd 6a 81 be 47 f9 3f 3e cf 50 a5 3f 0d 52 fb be
       -0.25276938 0.18747436 1.2915286 -0.49086037
000270 01 55 a2 3f 73 c8 e6 3e 65 0b 64 bf c0 8e 9d 3d
       1.2682191 0.45074806 -0.89079887 0.07693243
000280 6f dc db be 29 95 17 3e c0 84 a1 bf 1e 4d 12 40
       -0.42941615 0.14802994 -1.2618637 2.2859569
000290 df ba ef be fd 52 5d 3d a7 06 d7 be 7f 20 39 3f
       -0.4682226 0.054034222 -0.41997263 0.7231521
0002a0 f9 c2 06 bf c2 ff 93 3f de 56 81 3e 35 ec 49 3f
       -0.52641255 1.1562426 0.25261587 0.7887605
0002b0 e6 c1 aa bf 1b 26 97 3e 94 4c 1c bf c9 a6 e1 bf
       -1.3340423 0.2952126 -0.6105435 -1.7629024
0002c0 5a 2c df bf e4 15 8a bf bb 39 62 bf 73 6a 32 3e
       -1.743541 -1.078793 -0.8836934 0.1742342
0002d0 72 3c ad 3d c1 04 1f bd f4 b4 68 3f 4f fb 0b 3e
       0.08458795 -0.038822893 0.9090111 0.13670085
0002e0 6a fc 34 bf a7 4c 51 3f 02 45 46 3f 0c 86 28 3f
       -0.70697653 0.8175759 0.7744905 0.6582954
0002f0 b5 a7 31 c0 0c d5 1b bf 9f db a2 bf 31 c4 25 bd
       -2.775861 -0.6087196 -1.2723273 -0.040470306
000300 40 79 9b 3d d9 07 51 3f c0 ab 66 3e d5 04 2e be
       0.07591486 0.816526 0.22526455 -0.16994031
000310 24 4f b6 3e 8f 48 e0 bc b5 03 8f bf 77 54 00 bf
       0.35607255 -0.027378349 -1.1173006 -0.50128883
000320 22 24 15 bf ee 76 7e bf 8b 41 72 be 59 e6 94 3e
       -0.5825826 -0.9940022 -0.23657815 0.2908199
000330 2f 4c 7e bf 2c 2d 96 3e 71 76 77 be c7 a1 6c 3e
       -0.99334997 0.29331338 -0.24166276 0.23108588
000340 bd bd e4 3c 85 02 7a 3e a0 8a ea 3e d4 e9 e7 3d
       0.027922506 0.24415024 0.45808887 0.11323896
000350 b4 ed 2a 3e cb 6a fe 3e 44 89 ce 3e 06 31 a6 3b
       0.16692239 0.49690852 0.403391 0.005071762
000360 6c 39 5e bf 40 05 c1 3e 79 4c db 3e 8f 12 f7 be
       -0.8680637 0.37699318 0.42831782 -0.48256347
000370 ab a6 bf 3d 49 da 85 bd 1c 30 9c bf 41 7c 8b bf
       0.09357961 -0.06535775 -1.2202182 -1.0897294
000380 57 5b 85 bf e5 40 dd be ef d6 61 3f 9f 4d 03 c0
       -1.04185 -0.43213573 0.8821859 -2.0516126
000390 27 71 b5 3e e2 b7 9a bf 28 d6 c7 be db 32 9f 3e
       0.3543789 -1.2087367 -0.39030576 0.31093487
0003a0 09 8c 2d be 34 12 7f 3e cb 24 ff be 8b 93 7f be
       -0.1694795 0.24909288 -0.49832758 -0.24958627
0003b0 dc fb 56 bd 79 c6 9e 3f 24 54 8b bf 6b 50 66 3f
       -0.052486286 1.2404319 -1.0885053 0.8996646
0003c0 22 8b 0f 3f 82 f1 64 be 1c 64 d6 be db ad 98 3f
       0.56071675 -0.22357753 -0.41873252 1.1928056
0003d0 85 d7 2a be 8f f4 c7 3e 5b d6 bc 3f 99 7d 67 3f
       -0.16683777 0.3905377 1.4752916 0.9042602
0003e0 f5 ac ed 3e 80 92 43 bc fe 13 b8 3c e5 dc 19 3e
       0.46421018 -0.011936784 0.02247047 0.15025671
0003f0 b8 96 fe bf fc 85 da 3e 51 d7 17 c0 37 d3 02 bf
       -1.9889746 0.42680347 -2.3725169 -0.5110354

net.0.bias f4 [128]
000000 e3 99 1e 3e 49 f9 25 3e 42 92 68 3e c8 14 c9 bd
       0.1548839 0.16208376 0.22712043 -0.09818417
000010 4d cb a5 3e d9 8a 73 3d 95 69 7f 3e 05 84 de 3e
       0.3238167 0.059458587 0.2494262 0.43460098
000020 d0 28 8b 3d 17 cf bb be b1 3f 4a 3e da e3 aa 3a
       0.06794894 -0.36681435 0.19750859 0.0013037876
000030 55 df 8f bd 62 46 19 be f1 b4 23 be 83 e6 cc 3e
       -0.07025019 -0.14968255 -0.15986992 0.40019616
000040 f5 84 7f 3e 3a c9 fd 3e bb 2a 73 3e 39 a3 b5 3d
       0.24953063 0.49567586 0.23746769 0.08869023
000050 4c 59 ef 3d a5 44 4f be 4e b5 9b 3e b0 0b cc bd
       0.11686954 -0.2024103 0.30411762 -0.09963167
000060 11 d8 c3 3e 3b 1f af 3e 27 d7 b3 bd 61 29 5a bb
       0.38250783 0.34203514 -0.087812714 -0.0033288824
000070 0e 90 aa be 47 4d 34 be 64 80 9b 3e c8 27 27 be
       -0.3331303 -0.17607604 0.30371392 -0.16323769
000080 a4 70 a0 3e a8 a5 90 3e 7a 76 db 3e 93 b9 f7 3e
       0.31335938 0.28251386 0.42863828 0.4838377
000090 59 68 4a 3f 82 17 f3 3c 80 b9 2e be 16 f0 0b be
       0.7906547 0.029674295 -0.1706295 -0.13665804
0000a0 22 27 de 3e b3 66 18 bd 6d cf b6 3e 52 6f c1 bd
       0.4338923 -0.037207317 0.35705128 -0.09445061
0000b0 60 03 42 bd 5f d2 65 3d e9 9e 8e be 78 08 13 3f
       -0.0473665 0.05610883 -0.27855614 0.574348
0000c0 f7 15 8b bd 4d 6e 91 bd 10 95 68 be 5a 8d 08 3e
       -0.06791299 -0.07101116 -0.22713113 0.13335171
0000d0 fb 29 2f bd 3b c8 8a 3e 33 35 13 be 27 54 90 bd
       -0.042764645 0.2710589 -0.14375763 -0.07047301
0000e0 0a fa 4f 3d 93 05 d8 3e 7a ac 40 be 27 60 1d bd
       0.050775565 0.42191753 -0.18815795 -0.038421776
0000f0 c6 79 bc 3d 22 f8 7b 3e 63 aa c0 3e 34 7a d6 bd
       0.09202914 0.24606374 0.37629995 -0.10472527
000100 41 b4 6a 3c e3 b9 10 3d fa 61 13 be 28 64 96 bc
       0.014325202 0.035333525 -0.14392844 -0.018358305
000110 f3 24 21 3f 52 d4 e1 be 76 0e af bd 83 db 90 3d
       0.62947005 -0.441073 -0.0854768 0.070731185
000120 32 1b 19 3e 73 e0 55 be 3e a3 c2 3e 8c 64 fe 3d
       0.1495178 -0.20886402 0.3801517 0.124215215
000130 4f 2f 0b be 15 9b 76 3e 9b b4 13 be a8 08 c1 3e
       -0.13592266 0.24082597 -0.14424364 0.37701917
000140 ce ff a7 3e 55 eb 07 3f 21 0e 4c 3d 0e e9 2f 3e
       0.3281235 0.53093463 0.049818162 0.17178747
000150 c4 31 d7 be bf 61 6e 3e 34 e2 ca bd a9 7f fd 3e
       -0.42030156 0.23279475 -0.09906426 0.4951146
000160 3e 5b b8 bd 10 49 48 be 3c 64 08 3f 02 9b 39 bd
       -0.09001778 -0.19559121 0.53277946 -0.045313843
000170 bb a9 d0 3e fc 0b 9d bd 17 9a 54 be f4 12 3b be
       0.40754494 -0.076683015 -0.20761906 -0.18268949
000180 4f b0 70 3e f5 c9 39 3e 7f 59 51 be d1 2d 5b 3d
       0.23504756 0.18143447 -0.20444296 0.05351049
000190 8e dd 07 3d c9 c4 36 be 11 4a dc be f6 11 d9 3e
       0.033170275 -0.17848505 -0.43025258 0.42396516
0001a0 da 59 34 3e e5 ad 56 3e 7d 2a 49 3c 8c e6 93 3e
       0.176124 0.20964773 0.012278196 0.2888683
0001b0 67 ee 59 be c5 40 3b 3f 68 c7 66 be 84 49 86 3e
       -0.2128235 0.73145705 -0.22537005 0.26227963
0001c0 24 cd c7 3e 29 60 50 bd 48 85 3c be ac a6 39 3e
       0.39023697 -0.050872955 -0.18410218 0.18129987
0001d0 e6 66 03 be 4d f4 3f 3e f4 d6 49 3e 95 7b 10 3b
       -0.12832221 0.18745537 0.19710904 0.0022046317
0001e0 cb 41 3d 3e 33 2b 0a 3f d5 e0 b9 3e b3 b5 65 be
       0.1848213 0.53972167 0.36304346 -0.22432594
0001f0 47 e1 4a bb 4b 18 3e bd c7 ef 20 be 56 7c 0c 3f
       -0.003095703 -0.046409886 -0.15716468 0.5487722

net.2.weight f4 [128, 128]
000000 6c 6b f1 bc f7 f4 10 be ac 00 d0 bd fb 41 fe bc
       -0.029470168 -0.14155947 -0.10156378 -0.031037321
000010 90 73 99 bb c6 c7 b0 bd f9 15 97 bc 88 f0 7a bd
       -0.0046829656 -0.08631854 -0.018443095 -0.061264545
000020 92 6a fd bc 19 f3 be bd d1 22 1d 3d fd 69 e8 bd
       -0.030934606 -0.09323711 0.03836328 -0.11348341
000030 20 65 84 bc 2e bd a6 bd 10 0a 52 3c 20 75 1c bc
       -0.016161501 -0.08141552 0.012819782 -0.009549409
000040 14 ea 0d be 85 38 00 bc 3f c2 d5 3c c4 20 8b bd
       -0.13858825 -0.007825975 0.0260936 -0.06793359
000050 0b e6 65 bd 09 31 5a ba 42 62 bd bd fb 2e 97 3d
       -0.05612759 -0.0008323347 -0.09247257 0.07382008
000060 59 83 12 be dd 7a 87 bc 11 21 86 3d 84 40 92 3c
       -0.14307918 -0.016538078 0.06549276 0.01785303
000070 08 23 0a 3d 22 4e db bc f7 7a 30 3c 98 63 52 bd
       0.033724815 -0.026770655 0.010771505 -0.05136451
000080 3b 07 ac bd c8 a8 96 bd e5 8d a7 bc b7 e3 8c 3c
       -0.083998166 -0.07356411 -0.020453403 0.017198427
000090 68 0f 1e be ef 83 3e 3d 71 62 c3 bb c9 03 fa bd
       -0.15435565 0.04651254 -0.005962663 -0.12207753
0000a0 e7 22 f3 bb d4 a7 78 bd 98 d0 08 3a fc 70 8e 3c
       -0.007419932 -0.06070693 0.0005219071 0.01738786
0000b0 4b eb bc 3d b8 06 d7 bd bf f5 6c bd 8b 9a 75 3d
       0.09224566 -0.104993284 -0.05785155 0.059961837
0000c0 9a a4 b4 bd da 7a b7 bd e0 e0 27 bb fc b7 dc bd
       -0.08820458 -0.08958979 -0.0025616214 -0.1077728
0000d0 ac 22 b0 3c 14 b0 8d bd d7 ba 85 bd 41 78 bd bc
       0.021500908 -0.0691835 -0.065297775 -0.02312863
0000e0 ba 60 0f 3d 3b 2c 9b bd 72 4c 5e 3d 43 4e e8 bd
       0.035004355 -0.07576796 0.054272123 -0.11343052
0000f0 ab 15 72 bc 12 08 bd bc c3 b9 f6 3c 40 87 8c bd
       -0.014775674 -0.023075137 0.030117875 -0.068617344
000100 a7 42 19 3c 28 07 11 be 1b af a3 3d a9 af 14 bc
       0.00935427 -0.14162886 0.07992383 -0.009075084
000110 70 ec a8 3b 7d 3f 8f bd 33 4d a6 bd be 6c c9 bc
       0.0051551387 -0.06994531 -0.08120193 -0.024587985
000120 dc 67 5e bd 32 ba 51 bd 9a 42 fc 35 74 c7 28 bd
       -0.054298267 -0.05120296 1.8794847e-06 -0.04120584
000130 b1 69 0b bd 6e d2 0e be 04 21 56 bd e9 f4 17 bd
       -0.034036342 -0.1394746 -0.05227758 -0.0370988
000140 2b 25 78 bd c4 fd 8a bd c7 de e4 bd 1c 87 01 bd
       -0.06058232 -0.06786683 -0.11175304 -0.03162299
000150 81 53 1d 3d de 1d e2 bd a6 c4 3e bd bc be 88 3a
       0.038409714 -0.11040853 -0.046574257 0.001043282
000160 d2 e3 71 3d da da a9 bd 7f d2 67 bd 79 02 85 bd
       0.059055157 -0.08293696 -0.05659723 -0.06494612
000170 18 e8 cf bd 11 d1 ce 3c 3a 71 49 3d 55 55 9e bd
       -0.1015169 0.025246175 0.049180247 -0.077311195
000180 80 d1 fa 3c 4d c3 17 3d f0 c7 35 bc b7 13 3b bd
       0.030617476 0.037051488 -0.011095032 -0.0456731
000190 d6 b2 67 bd c9 71 05 bd 26 b8 54 ba 2d 59 06 3c
       -0.056567036 -0.032579217 -0.00081145985 0.008199972
0001a0 ae ac 88 3c 66 03 b2 3d 50 41 82 3c a3 2b e8 3c
       0.016683903 0.086920545 0.015900284 0.02834112
0001b0 7c 5a b0 3c d1 d5 b6 bd aa 3b 91 bd 1c 36 92 bd
       0.021527521 -0.08927501 -0.07091458 -0.07139227
0001c0 44 1d f2 bd 9a a4 d0 bd 78 41 7f bd 55 5d a3 bd
       -0.11821988 -0.10187645 -0.062318295 -0.07976786
0001d0 22 3f 43 bd 54 4d c0 bc 61 56 e7 bd a7 bf f1 bd
       -0.04766763 -0.023474373 -0.11295772 -0.11804133
0001e0 e9 08 9d bd f3 c3 ce bd 0b 07 b1 bd 62 6d 29 3c
       -0.07667715 -0.10095968 -0.086439215 0.01034102
0001f0 e4 f7 9f bd 24 54 7f bd cc e2 f5 bc aa 9e 2a bd
       -0.07810953 -0.062336102 -0.030015372 -0.04165522
000200 bf 6c 02 40 c4 bc 80 bd 02 18 2b c0 90 50 04 3f
       2.0378873 -0.06286004 -2.6733403 0.5168543
000210 59 6f f1 be de db 97 3f 3f bd 1f 3d d5 b3 85 be
       -0.47155264 1.1863973 0.03899884 -0.26113763
000220 22 5c a8 3f 1b 54 0a bf 74 58 62 be 6a 5b bc be
       1.3153117 -0.54034585 -0.22104055 -0.36788493
000230 2d 2a c5 3c a6 7b 82 bd 4c d8 df 3d a5 c4 b9 be
       0.024067963 -0.0637124 0.10929927 -0.3628284
000240 a3 e3 af 3d e6 22 57 3e b3 80 25 c0 d9 95 31 be
       0.0858834 0.21009406 -2.5859802 -0.17342319
000250 84 7c 61 3f dc 0a 82 c0 2d 64 00 c0 44 09 e3 3b
       0.8808062 -4.0638256 -2.0061142 0.006928595
000260 0c ac d1 3e 03 83 4a be bf 8a 51 3e ae 60 96 3b
       0.40951574 -0.1977654 0.20463084 0.004589162
000270 5f 43 ab 3f ed 26 f2 3e f0 61 ba 3f 7c 57 c4 bc
       1.3379935 0.47295323 1.4561138 -0.023967497
000280 4e 3c 20 40 37 68 73 3f 67 a0 81 3e 85 58 07 3f
       2.5036807 0.95080894 0.2531769 0.52869445
000290 fd 50 ed 3e ab 74 e2 3f 47 2e 72 be 75 6d a2 be
       0.46350852 1.7691854 -0.23650466 -0.31724134
0002a0 c5 11 5a bf d8 7e 34 c0 5d 6e 33 bf f1 b1 0a bd
       -0.85183364 -2.820242 -0.70090276 -0.033861104
0002b0 04 9e 1e 3f eb 78 50 be e4 98 96 bf 7f 0a 08 be
       0.6195986 -0.20358627 -1.1765409 -0.13285254
0002c0 9e 94 66 c0 ac 1c 84 c0 4b b5 55 bc 40 f3 a5 bf
       -3.6028209 -4.1285 -0.013043712 -1.2964859
0002d0 f3 d2 00 c0 cb 29 b8 3e 33 14 a3 bd a4 69 8f 3c
       -2.0128753 0.35969386 -0.07962837 0.017506428
0002e0 14 16 11 40 45 cc 08 be 75 dd 45 3d 90 a9 47 bf
       2.2669725 -0.13359173 0.0483069 -0.77993107
0002f0 4f df ca 3e ac cd 37 c0 45 de 28 3f 60 33 b4 3c
       0.39623496 -2.8719282 0.65964156 0.021997154
000300 c4 be 41 bf 37 d3 f0 3f 34 d8 b6 3d 41 81 dd be
       -0.7568171 1.8814458 0.08927956 -0.43262675
000310 d0 ed 43 3e f9 34 da 3f 0d e7 f9 3f d4 28 95 3f
       0.19133687 1.7047416 1.9523636 1.1653085
000320 4b ff 9d 3f 67 c7 e1 bd 84 56 5e 3f 31 e9 be bf
       1.2343534 -0.11024361 0.8685076 -1.4914914
000330 f3 a5 f4 bd 47 e0 37 3e c2 a5 16 c0 f7 c9 37 c0
       -0.11945715 0.17956649 -2.353867 -2.871702
000340 a7 74 be 3f bd 36 1a 3e af d4 8d bf 62 40 54 bf
       1.487935 0.15059943 -1.1080531 -0.8291074
000350 bf 09 e9 3e 79 d1 1f c0 a9 fa 87 bd 09 e7 5d 3e
       0.45515248 -2.4971602 -0.066396065 0.21670164
000360 19 bf ce bc cd 1c a1 bc b5 47 3c 3e 06 03 46 bc
       -0.025237607 -0.019667054 0.18386729 -0.012085682
000370 15 41 87 be 56 66 bd be b7 9f 7a 3d d7 9b 7c bf
       -0.2641684 -0.3699214 0.061187472 -0.9867529
000380 a7 e4 fb 3e 0c 5b 89 3f 83 5d 67 3d 1d 9b 60 c0
       0.49197885 1.073091 0.056485664 -3.5094674
000390 28 5f 8a bf 7f 13 a1 bd 8f 6f 0c c0 59 4e b8 3e
       -1.0810289 -0.07865047 -2.194309 0.35997275
0003a0 b1 c0 b0 bf 7d 1b c2 3e 8b e9 67 3f b1 01 77 bf
       -1.3808805 0.37911597 0.90590733 -0.96486956
0003b0 f1 38 2e 3d 17 e1 0d bf cb db 0f bd 44 b1 87 3d
       0.042534772 -0.55421585 -0.03512172 0.066256076
0003c0 35 21 a5 bf 29 09 ab bf 3f 18 a3 3b fb b0 4d 3f
       -1.2900759 -1.336217 0.0049772556 0.80348176
0003d0 40 0c 1b bd 97 da 15 c0 8b 4c 4a 3e f6 cd 05 40
       -0.03785348 -2.3414667 0.19755761 2.0906959
0003e0 b2 ac 7e 3e 43 15 13 3e da 76 77 bf a9 97 b9 bf
       0.24870566 0.1436358 -0.9666573 -1.4499408
0003f0 5d ee 2a bd 30 d4 c7 bf 42 11 5b 3d d5 71 24 3e
       -0.041731227 -1.561163 0.053483255 0.16059048

net.2.bias f4 [128]
000000 c3 b5 22 be bb d6 4b 3f 9f 09 39 3e 71 21 87 3f
       -0.15889649 0.7962453 0.18070076 1.055708
000010 37 a9 d3 bb 09 8b 7f 3f 06 83 8e 3f 28 00 88 3f
       -0.006459381 0.99821526 1.1133735 1.0625048
000020 16 18 b2 3c e3 d1 05 3f 56 03 f3 bd 67 9c d0 3f
       0.02174 0.52273387 -0.11865871 1.629773
000030 0d fb c3 3f ac 3f f3 bc 22 e4 7b 3f 6c 63 3e bf
       1.531099 -0.029693447 0.9839498 -0.74370456
000040 70 2d 84 3f 15 24 03 bd b6 54 cf 3f f3 f0 0d bd
       1.0326366 -0.032016832 1.6197727 -0.034653615
000050 6d 01 85 bd 60 77 49 3f 02 53 42 3f e6 d8 18 bd
       -0.064944126 0.78697777 0.7590791 -0.037316225
000060 78 7a 84 3f 48 9c 00 be 4c b8 1c bd 16 33 9d 3f
       1.0349874 -0.12559617 -0.038261697 1.2281215
000070 e9 50 69 bd c4 36 ca 3c 46 c7 c2 3f 11 2a 78 bd
       -0.056961928 0.024684317 1.5217063 -0.060586993
000080 ba c4 5b 3f 9c db a0 3c 37 96 ff 3e c6 e3 90 3f
       0.85847056 0.019635968 0.49919292 1.1319511
000090 73 11 3b be a0 42 75 3f f6 6f 4f 3f c1 52 36 3f
       -0.18268375 0.95804787 0.81030214 0.7122002
0000a0 b0 da 0f 3f 46 8d a2 bd 49 79 8f bd cc 3d d6 bd
       0.56193066 -0.07937102 -0.07005555 -0.104610056
0000b0 b0 c3 0b be d8 f8 6c 3c 22 c2 b4 bd 64 8a 5c 3f
       -0.13648868 0.014463626 -0.088260904 0.8614867
0000c0 8f f6 11 3f d6 9e 01 be ac fe 84 bf fd b6 6a 3f
       0.57016844 -0.12658247 -1.039022 0.9168547
0000d0 ad ae be bc 28 50 92 be 3d 59 ab bd 88 a9 29 3f
       -0.023276651 -0.2857678 -0.0836663 0.6627431
0000e0 95 ec d8 3e 45 f3 d5 bd 56 52 55 ba e2 3e fe bd
       0.42367998 -0.104467906 -0.0008137574 -0.12414338
0000f0 fd 7e f3 bb 0d cf 0c ba 9e 88 45 3f b1 12 1a 3f
       -0.0074309097 -0.0005371429 0.77161586 0.6018477
000100 8f f2 b4 bd 29 0f 61 3e 9a 48 2b be a4 cc 36 3f
       -0.08835327 0.2197844 -0.16726914 0.71406007
000110 eb 43 bd bd 95 2f a7 bd 29 19 e1 bd a8 60 9e 3c
       -0.0924147 -0.081633724 -0.10991127 0.019333199
000120 dc 1f 82 bd c8 4e 68 bd 2b 93 57 bf 04 80 d3 bd
       -0.06353733 -0.056715757 -0.84208935 -0.103271514
000130 37 71 b5 bd a1 04 93 3f c9 78 01 3f 29 8d a0 bd
       -0.08859485 1.1485788 0.5057493 -0.07839424
000140 82 d4 71 bd 70 09 8f 3f 6e 21 b3 bd b6 2e 76 3f
       -0.059040554 1.1174755 -0.087466106 0.96165025
000150 c4 05 06 3f 2c e6 f0 bd 36 40 c3 bc 46 12 05 3f
       0.5235255 -0.11762652 -0.02383433 0.5198101
000160 b2 49 ec 3f 3f 45 05 be 13 56 e8 bd 41 61 19 3f
       1.845999 -0.13014697 -0.11344542 0.5991402
000170 b3 d4 4c bd 79 ad 98 3f 0d b1 c7 bd 87 8d 99 bd
       -0.050007533 1.192794 -0.09750567 -0.07497697
000180 22 71 3a be d2 4d 85 3c 3d e4 07 3f de de ab be
       -0.18207219 0.01627246 0.5308264 -0.33568472
000190 0f 1f e6 3b 16 21 01 3c 47 0b bd 3f bf 50 11 3f
       0.0070227454 0.007881423 1.4769067 0.56763834
0001a0 e6 3a 18 3f 75 f5 58 3f 85 8e 88 3f fa 00 b9 3e
       0.5946487 0.8474954 1.0668494 0.36133558
0001b0 32 ad 3f 3f d2 e1 fb 3e f3 b9 cd bc 21 18 2c 3f
       0.7487365 0.49195725 -0.025113082 0.6722432
0001c0 0d 26 03 be ba 8c 4b 3c 16 d1 32 3f ba 6b 29 3c
       -0.12807484 0.012423689 0.6985029 0.010340625
0001d0 a6 e7 b8 bd c3 81 c8 3f ca 98 31 3f 09 69 1a bd
       -0.090285584 1.56646 0.6937376 -0.037697826
0001e0 00 34 ac bd 13 64 be bd 64 cf fb bd 06 fc 04 bf
       -0.08408356 -0.092964314 -0.12295416 -0.5194706
0001f0 85 e2 d6 3c dd ef eb bd 7b d5 0c be f4 71 6a 3e
       0.02623106 -0.1152036 -0.13753311 0.22895032
