checkpoints3/team2_agent_1.pt (torch, 411297 bytes, 24 tensors)

net.0.weight f4 [128, 53]
0	0xbe1bf40b	-0.15229814
1	0x3c7d389d	0.015455392
2	0xbf7265eb	-0.94686764
3	0xbfb8c2e8	-1.4434481
4	0x3fa688f9	1.3010551
5	0x3f217741	0.6307259
6	0xbf2b64f6	-0.6695093
7	0x3f37b855	0.71765643
8	0xbf0e739e	-0.5564517
9	0xbdcbecbe	-0.09957264
10	0xbfa0341f	-1.2515906
11	0xbed392d1	-0.4132295
12	0x3e9cdb48	0.30636048
13	0x3dfa7a9d	0.12230418
14	0xbefacdcf	-0.48985144
15	0x3f909e46	1.1298301
16	0x3e029239	0.12751092
17	0xbebd5112	-0.36975914
18	0x3e3acf11	0.18243052
19	0xc00ba0fa	-2.1817002
20	0x3e818e47	0.25303861
21	0xbef13845	-0.47113243
22	0x3f2ac0a8	0.6670022
23	0xbe5890df	-0.21149014
24	0xbdf87298	-0.12131232
25	0x3ed38e20	0.4131937
26	0xbe289a80	-0.16465187
27	0xbf682f99	-0.9069763
28	0xbdb16826	-0.08662443
29	0xbec67187	-0.3875849
30	0x3ab51c6e	0.0013817677
31	0xbf7fcc9a	-0.9992157
32	0x3e1747ce	0.14773485
33	0x3df06471	0.11737908
34	0x3e9bc2df	0.30422112
35	0xbf6bb724	-0.92076325
36	0xc0001fe4	-2.0019464
37	0xbe8fdbeb	-0.28097472
38	0xbfdfa378	-1.7471762
39	0xbf3de4fa	-0.74177516
40	0xbe58e03d	-0.2117929
41	0xbe61e3db	-0.22059576
42	0xbea3c972	-0.31989628
43	0xbef3526d	-0.47523823
44	0x3ef0db63	0.4704238
45	0xbf8cb49c	-1.0992618
46	0xbf029549	-0.5100904
47	0x3f030f27	0.51194996
48	0x3d930eb2	0.07180537
49	0x3e1adf04	0.15124136
50	0xbda0efda	-0.07858248
51	0x3e0f9d9a	0.14024964
52	0xbea6bc18	-0.3256538
53	0x3cafb73c	0.021449678
54	0x3e7d9d88	0.24767125
55	0x3e09b804	0.13449103
56	0x3efbab10	0.49153948
57	0x3ee3a515	0.44461885
58	0xbe04ca11	-0.12967707
59	0xbe806434	-0.2507645
60	0x3e67bacf	0.22629856
61	0xbefc570a	-0.49285156
62	0xbc98006b	-0.018554887
63	0x3d2249cb	0.039621156
64	0xbf637f49	-0.88866097
65	0xbf369729	-0.713244
66	0x3ea90e72	0.33018833
67	0xbe607013	-0.21917753
68	0xbf9087e9	-1.1291476
69	0xbe257037	-0.16156088
70	0xbf6ad6cc	-0.91734004
71	0xbea46ce7	-0.32114336
72	0x3f57f092	0.84351456
73	0x3e5ae6b5	0.2137707
74	0xbeb7bbc3	-0.35885438
75	0xbe01cd22	-0.12675908
76	0xbed2cca2	-0.41171747
77	0x3e0753eb	0.13215606
78	0x3d8a8b77	0.06764882
79	0x3f1b7a7e	0.60733783
80	0x3c6a04d7	0.0142833805
81	0x3ea41ad2	0.32051712
82	0x3d916823	0.07099941
83	0xbe1d157b	-0.15340225
84	0x3eeb5863	0.4596587
85	0x3ec0163c	0.37516963
86	0x3f10ad4f	0.5651445
87	0x3f312b95	0.69207126
88	0x3ec5b368	0.3861344
89	0xbe733637	-0.2375115
90	0x3f3de7cb	0.74181813
91	0x3f44f876	0.7694162
92	0x3f0858a9	0.53260285
93	0x3e961ea1	0.29320243
94	0xbed95b63	-0.42452535
95	0x3e1ce5f9	0.15322103
96	0xbfe7ccca	-1.8109372
97	0x3efa7369	0.48916176
98	0xc009662a	-2.1468606
99	0xbe2605b5	-0.16213115
100	0x3e24659b	0.16054384
101	0x3c9760e0	0.01847881
102	0xbbdbe6b4	-0.0067108516
103	0xbe1cd570	-0.15315795
104	0x3d7d1362	0.061786063
105	0x3f48b52f	0.78401464
106	0xbe81d00c	-0.2535404
107	0xbda3b573	-0.07993593
108	0x3d7358ae	0.059410743
109	0x3d19c460	0.037540793
110	0xbdb964b9	-0.090524144
111	0xbd4a7d76	-0.049436055
112	0xbd3aa16f	-0.04556411
113	0xbd813c51	-0.063103326
114	0x3dc3512c	0.09536967
115	0x3df978de	0.12181257
116	0x3d43639c	0.047702417
117	0x3d5b5e7e	0.05355691
118	0x3cb93a3b	0.022610774
119	0x3d2d44e6	0.042302035
120	0xbd01315a	-0.031541206
121	0x3cd9508e	0.02652767
122	0xbd74fad3	-0.059809517
123	0xbcdb09e0	-0.026738107
124	0x3cfc6d37	0.030813796
125	0x3ddc69ea	0.10762389
126	0x3d81be9c	0.06335184
127	0xbd56e925	-0.052468438
128	0xbdd8daf1	-0.10588635
129	0xbe1f35ce	-0.15547869
130	0x3dcbea26	0.0995677
131	0x3d8b49c4	0.06801179
132	0x3d1c1fdf	0.038116332
133	0xbd85936e	-0.065222606
134	0xbc36e0f3	-0.0111620305
135	0xbd12ec88	-0.035870105
136	0xbcf84776	-0.030307513
137	0x3e5526f5	0.20815642
138	0xbdaf932c	-0.08572993
139	0xbe040ec2	-0.12896255
140	0xbd0e4d11	-0.034741465
141	0xbcfac366	-0.030610751
142	0x3dd609cf	0.104510896
143	0xbe07dce5	-0.13267858
144	0xbdbbd695	-0.09171788
145	0xbd54271c	-0.05179511
146	0xbdf8fd2a	-0.12157662
147	0xbd2f4449	-0.04278973
148	0x3cf90446	0.030397546
149	0x3c820c32	0.015874956
150	0xbc3ca8fe	-0.0115149
151	0x3d91d1eb	0.07120117
152	0x3e77c1a2	0.24194959
153	0xbe200444	-0.15626627
154	0x3cba6ea0	0.022757828
155	0x3e5a76ac	0.21334332
156	0xbe1d64d9	-0.15370502
157	0xbe1f5b58	-0.15562189
158	0xbd711c19	-0.058864687
159	0x3cc40365	0.0239274
160	0x3d625919	0.05526075
161	0xbf11aed6	-0.56907403
162	0x3f80d1cc	1.0064025
163	0xbfa00767	-1.2502259
164	0xbefda988	-0.49543405
165	0x3f4715b1	0.77767473
166	0x3e00ab1f	0.12565278
167	0x3e9d2d1e	0.30698484
168	0xbb826c11	-0.0039801677
169	0x3f308e94	0.68967557
170	0xbf4bf20d	-0.79666215
171	0x3e9dcca4	0.3082019
172	0xbed0a43f	-0.4075031
173	0xbe886d67	-0.26645967
174	0xc006e813	-2.1079147
175	0xbeef6e7c	-0.4676398
176	0xbf8d5e36	-1.1044376
177	0x3e838197	0.25684807
178	0xbf95508a	-1.1665204
179	0x3e655a42	0.22397712
180	0x3f24f226	0.6443199
181	0x3eeccfb3	0.46252212
182	0x3da23ee7	0.07922154
183	0x3dca271e	0.09870742
184	0x3cdf6ccb	0.027273556
185	0x3e9d03e3	0.30667028
186	0x3f481378	0.78154707
187	0x3e3b5209	0.18293013
188	0x3efc1a72	0.49238926
189	0xbf07c113	-0.5302898
190	0x3f6d34da	0.9265877
191	0xbdee5c26	-0.1163867
192	0x3f30e242	0.6909524
193	0xbff337c2	-1.9001391
194	0xbe8d4a43	-0.2759572
195	0x3d11101a	0.035415746
196	0x3e86678e	0.2625088
197	0x3e635b3a	0.22202769
198	0xbeb2a9a5	-0.34895054
199	0xbee5ee5e	-0.44908422
200	0x3dff1d08	0.12456709
201	0x3e8ab549	0.27091435
202	0xbeaa2c5f	-0.33236977
203	0xbc4215a5	-0.011845981
204	0xbf020305	-0.5078586
205	0x3d1690bf	0.036759134
206	0xbe7ecf82	-0.24883845
207	0xbe856c87	-0.26059362
208	0x3d8691b6	0.06570761
209	0xbeb75055	-0.35803476
210	0xbfaa2ff5	-1.3295885
211	0x3c56941e	0.013096837
212	0x3bf76021	0.0075493013
213	0xbe69f7ee	-0.22848484
214	0xbf3b9f0b	-0.73289555
215	0x3f8234cd	1.0172364
216	0x3fcdc6e4	1.6076322
217	0x3d196b75	0.037455995
218	0xbfd79a1d	-1.6843907
219	0x3d8cd6d4	0.06876913
220	0xbeee20c2	-0.46509367
221	0xbda1029c	-0.07861826
222	0xbd2c0d0e	-0.042004637
223	0xbe758ac9	-0.23978724
224	0x3eade539	0.33963946
225	0x3ec8f9db	0.39253125
226	0xbf9a543a	-1.2056954
227	0xc00f0ade	-2.2350383
228	0xbfa42a6b	-1.2825445
229	0x3f4e075c	0.8047998
230	0xbf9f453b	-1.2443002
231	0x3f84d295	1.0376765
232	0xbe396e06	-0.18108377
233	0xbfe91e46	-1.8212364
234	0x3fb6a764	1.4269834
235	0xbed450aa	-0.41467792
236	0x3d26eb10	0.040751517
237	0x3f1acf3d	0.6047247
238	0x3f49e9f5	0.78872615
239	0x3ea1385d	0.31488314
240	0x3daa2a80	0.083088875
241	0xbe9efe8a	-0.31053573
242	0x3eb4df24	0.35326493
243	0xbf563fc4	-0.8369105
244	0x3e66c25d	0.22535081
245	0x3edc0ae5	0.42977062
246	0x3f77ff7d	0.9687422
247	0x3e92d9d1	0.28681806
248	0xbf6d3568	-0.92659616
249	0xbe3bf41e	-0.18354842
250	0x3f79390c	0.9735267
251	0x3e25dcc5	0.16197498
252	0x3e36e03c	0.17858976
253	0xbf6e6ed8	-0.93137884
254	0x3f9b327f	1.2124785
255	0xbfc637c2	-1.5485766

net.0.bias f4 [128]
0	0x3ed84a3d	0.4224414
1	0x3e468904	0.19388205
2	0xbdc899be	-0.09794949
3	0xbe0db370	-0.13837981
4	0xbe40ebd5	-0.18839963
5	0x3f10a2e9	0.5649858
6	0xbf1107cb	-0.56652516
7	0x3e49205b	0.19641249
8	0x3ee10a34	0.43953097
9	0x3db06695	0.08613316
10	0xbc91026f	-0.017701356
11	0xbefdc118	-0.4956138
12	0x3eaa9c99	0.333226
13	0x3e03f206	0.12885293
14	0xbdc9288c	-0.09822187
15	0xbd843d35	-0.06456987
16	0x3e10d98b	0.14145486
17	0x3e006577	0.12538706
18	0xbd6883ad	-0.0567662
19	0x3cc836de	0.024440225
20	0x3e52000b	0.20507829
21	0xbd9f4a0a	-0.07777794
22	0x3e64db66	0.22349319
23	0xb9aeb502	-0.00033322728
24	0xbe9479e1	-0.28999236
25	0xbe682304	-0.22669607
26	0x3ea9e73b	0.33184227
27	0x3e9eb850	0.30999994
28	0x3df3846f	0.11890494
29	0x3e644300	0.22291183
30	0x3e49c1f7	0.19702898
31	0x3ee32c85	0.44369903
32	0xbe383669	-0.17989506
33	0xbdebc049	-0.11511285
34	0x3d1fecac	0.039044067
35	0xbe42a548	-0.19008362
36	0x3e75cd94	0.24004203
37	0xbe22b051	-0.15887572
38	0x3d011cd5	0.031521637
39	0xbe1242b6	-0.1428326
40	0xbeb4ce25	-0.35313526
41	0x3e716dc9	0.23577036
42	0x3e322596	0.1739715
43	0x3e040121	0.12891056
44	0x3ec744c1	0.38919643
45	0xbe6a4e4a	-0.22881427
46	0x3e3773ee	0.17915317
47	0xbdfe29ba	-0.124103025
48	0xbdb53b1a	-0.08849163
49	0x3d759072	0.059952207
50	0xbe81439e	-0.252469
51	0xbe02c105	-0.12768944
52	0xbe016dc9	-0.12639536
53	0x3ea17c37	0.3154008
54	0xbe323f43	-0.17406945
55	0x3e9f8e41	0.3116322
56	0x3e7ff704	0.24996573
57	0x3d3a7291	0.045519415
58	0xbdb45b6e	-0.08806501
59	0x3f09911b	0.5373704
60	0x3f06f733	0.52720946
61	0x3cb9328f	0.022607116
62	0x3e3c2fe3	0.18377642
63	0x3e30865a	0.17238751
64	0xbe83b772	-0.25725895
65	0x3d6b8fdb	0.05751024
66	0xbe6a7785	-0.22897156
67	0x3c52fbcf	0.012877419
68	0x3dd8a737	0.10578769
69	0xbeb493d6	-0.3526904
70	0xbd6ef62d	-0.05834024
71	0xbe7c5a44	-0.24643809
72	0xbe7d98c1	-0.24765302
73	0xbe0829ef	-0.13297246
74	0x3aad620b	0.0013228072
75	0xbe126b1a	-0.14298669
76	0x3e84cd58	0.25937915
77	0x3d41750b	0.04723076
78	0x3f12bf13	0.57322806
79	0x3f184192	0.5947505
80	0x3e0d89dc	0.1382212
81	0xbea1c53e	-0.31595796
82	0xbdc6208a	-0.09674175
83	0x3d5ad0f5	0.053421933
84	0xbec0345d	-0.3753995
85	0x3ea4c477	0.3218114
86	0xbe3cb513	-0.1842845
87	0x3e07f0be	0.1327543
88	0x3f263eef	0.6493978
89	0x3e4123a3	0.1886125
90	0x3d79dd76	0.061002217
91	0x3e8fb9c4	0.28071415
92	0xbe68623d	-0.22693725
93	0xbe793e23	-0.2434011
94	0x3d989165	0.07449607
95	0x3f209a9f	0.62735933
96	0xbec3321a	-0.38124162
97	0x3e0297ea	0.12753263
98	0x3f3a76d1	0.7283755
99	0x3e9b1ce8	0.3029549
100	0x3ace316e	0.0015731284
101	0x3f1127d5	0.56701404
102	0x3e611d32	0.21983793
103	0xbe18b9e6	-0.14914665
104	0x3ea9e77b	0.33184418
105	0xbe211f7e	-0.1573467
106	0xbdfd4280	-0.123661995
107	0xbe33f3a3	-0.17573409
108	0xbea8bbbe	-0.32955736
109	0x3d85e7aa	0.06538327
110	0x3f4d9602	0.8030702
111	0x3d9411b1	0.07229937
112	0xbd03930a	-0.03212265
113	0x3e670c02	0.22563174
114	0x3dd2e242	0.102970615
115	0x3f346b9f	0.70476717
116	0xbe21ba14	-0.1579364
117	0x3dbf49be	0.09340237
118	0x3eac5110	0.33655596
119	0x3e959a0e	0.29219097
120	0x3eaa9d11	0.33322957
121	0xbccb4be6	-0.024816465
122	0xbd9657dc	-0.073409766
123	0x3f0c9fb1	0.5493117
124	0xbde010d0	-0.10940707
125	0xbe3ce6e3	-0.18447451
126	0x3e79bc10	0.24388146
127	0xbdd16752	-0.10224785

net.2.weight f4 [128, 128]
0	0x3ead39c7	0.33833143
1	0x3f810d52	1.008219
2	0x3ca882a1	0.020570101
3	0xbec5fa1a	-0.38667375
4	0x3f2f5cfe	0.6850127
5	0x400a27a2	2.158669
6	0x3f099063	0.5373594
7	0xbf5a4b53	-0.85271186
8	0x3e47c28a	0.19507805
9	0xbe089a05	-0.13340004
10	0xbf16d841	-0.5892373
11	0xbe4e74d0	-0.20161748
12	0x3ebec0ca	0.3725646
13	0xbf7235f2	-0.94613564
14	0xbdb6c663	-0.08924558
15	0x3f4bd9a9	0.79629
16	0xc09762b6	-4.7307997
17	0xbe545eca	-0.20739284
18	0xbfcb7711	-1.5895711
19	0xbfa9e5db	-1.3273271
20	0x3d93d18e	0.07217704
21	0xbee9ad07	-0.45639822
22	0x3fa66bf9	1.3001701
23	0x3f42b88c	0.76062846
24	0xbff47173	-1.9097122
25	0xc053b655	-3.3080037
26	0xbeb0d577	-0.3453786
27	0xbf3fecb6	-0.7497057
28	0x3e6a7d83	0.22899441
29	0xbf27afc3	-0.65502566
30	0x3d4dd55d	0.050252307
31	0xbf9b2d43	-1.2123188
32	0x3d077770	0.03307289
33	0xbc819cea	-0.015821893
34	0xbf9763db	-1.1827348
35	0xbf936400	-1.1514893
36	0xbf9e8fb5	-1.2387606
37	0xbcf6e730	-0.030139536
38	0xbfdee354	-1.7413125
39	0xbf0dd595	-0.55404025
40	0x3f3a610b	0.72804326
41	0x3ec56c09	0.38558987
42	0xc08400ee	-4.1251135
43	0xbfe9504f	-1.8227633
44	0x3d66681e	0.056251638
45	0x3ea4c791	0.32183507
46	0x3e9d8332	0.30764157
47	0xbcebc6d8	-0.02878134
48	0x3e0a1713	0.13485365
49	0xbf09caac	-0.5382488
50	0xbf659f81	-0.8969651
51	0x3f539bd4	0.8265965
52	0x3e067aaf	0.13132738
53	0x3ecf724b	0.40516886
54	0xbfc9bdef	-1.5761088
55	0xbe884d75	-0.26621595
56	0xbfb8185a	-1.4382432
57	0xc032313d	-2.7842553
58	0xbd2c50c6	-0.04206922
59	0xbd2c1429	-0.042011414
60	0x3ce1a1b0	0.027542919
61	0x3cb2533b	0.021768203
62	0xbf91a3d3	-1.137812
63	0x3ebe27b6	0.37139672
64	0x3dc0ab32	0.09407653
65	0xc076d210	-3.8565712
66	0xbcceb905	-0.025234709
67	0xbfd8241d	-1.6886021
68	0x40102574	2.252286
69	0xbff8db6d	-1.9441963
70	0x3e398a04	0.18119055
71	0xbe9d56a7	-0.30730173
72	0x3f7c625e	0.98587596
73	0xbe3b3980	-0.18283653
74	0x3d0b40db	0.033997398
75	0xc012fc2c	-2.2966413
76	0xbf7da4c4	-0.9907954
77	0xbf5c920a	-0.8616034
78	0x3d2b66f7	0.04184624
79	0xbd929b51	-0.071585305
80	0x3ef4ef46	0.478388
81	0xbf1d4afa	-0.6144253
82	0x3ed881d9	0.42286566
83	0x3e1dd3a0	0.1541276
84	0xbfecf26b	-1.851148
85	0xbf3a0b50	-0.7267351
86	0xbd188899	-0.037239645
87	0xbf92dac0	-1.1473007
88	0x3dc8eab4	0.09810391
89	0x3ca939c9	0.020657437
90	0x3c810085	0.015747318
91	0xbe9af5d0	-0.30265665
92	0xbf83bfe9	-1.0292941
93	0x3d1685ff	0.036748882
94	0x3e04ee1d	0.12981458
95	0xbd980a80	-0.07423878
96	0x3f487cf3	0.7831566
97	0xbed27a87	-0.41109106
98	0x3f45ce6a	0.7726809
99	0xbfb8c36e	-1.443464
100	0x3f655f4b	0.8959853
101	0xbf56b0fb	-0.838638
102	0x3e500b12	0.20316723
103	0xbf7cf6b3	-0.98813933
104	0x3f250985	0.6446765
105	0xbdeca1c1	-0.115542896
106	0xbffc475e	-1.970928
107	0xbdb10b5d	-0.086447455
108	0xbf4cfba7	-0.8007149
109	0xbef10c72	-0.47079808
110	0x3dd495c0	0.10380125
111	0xbf776642	-0.9664041
112	0xbfa8bebc	-1.3183208
113	0xbf486b8e	-0.78289115
114	0x3da43b7b	0.080191575
115	0x3dbfe2e2	0.09369446
116	0xbf8c02b2	-1.0938323
117	0x3fef5ba6	1.8699844
118	0xbfacf4ea	-1.3512242
119	0xbe606fc6	-0.21917638
120	0x3efcfd41	0.49411967
121	0xbc382215	-0.011238595
122	0xbaa55bd2	-0.0012615866
123	0x3e2aa566	0.16664657
124	0x3f4af8bb	0.7928578
125	0xc02077e1	-2.5073168
126	0xc02fc395	-2.7463124
127	0xbe148019	-0.1450199
128	0xc03b6203	-2.9278572
129	0x3ee3aca8	0.44467664
130	0x3cb7bf57	0.022430105
131	0x3ee16e0c	0.44029272
132	0xbd87b6c8	-0.0662666
133	0x3f6b35ef	0.9187917
134	0x3ef7b56b	0.48380598
135	0x3f583721	0.8445912
136	0xbc77f313	-0.015133637
137	0x3ee8c9e5	0.45466533
138	0xbe86498a	-0.2622798
139	0x3dfe382f	0.1241306
140	0x3e15f432	0.14643934
141	0xbe33af24	-0.1754728
142	0x3cce69da	0.025196958
143	0x3f536446	0.8257488
144	0xc0688696	-3.6332145
145	0x3f960cc1	1.1722642
146	0xbfcc0e56	-1.5941875
147	0x3fa5b163	1.2944759
148	0xc046a3cc	-3.1037474
149	0xbaab3f54	-0.0013065138
150	0x3efeb8fe	0.49750513
151	0xbf81ca16	-1.0139797
152	0xbfef52ba	-1.8697121
153	0x3fe797a0	1.8093147
154	0xbf28c9f8	-0.6593318
155	0x3ea72c06	0.32650775
156	0x3fae716c	1.3628364
157	0xbfcda473	-1.6065811
158	0xbf8892dd	-1.0669819
159	0xbf925f56	-1.1435344
160	0x3ce12f86	0.027488481
161	0xbd494277	-0.04913565
162	0xbea155c7	-0.31510755
163	0xbf153635	-0.5828584
164	0x3d920bca	0.07131155
165	0x3cfbca8f	0.030736236
166	0xbebd5f34	-0.36986697
167	0xbf3b1c31	-0.7308989
168	0x3f10bff3	0.5654289
169	0x3e89c5fe	0.2690887
170	0xbec11bad	-0.37716427
171	0xbed980a3	-0.42480955
172	0x3e9698ac	0.29413354
173	0xbf7df681	-0.9920426
174	0x3ef40ad6	0.47664517
175	0x3dab9c78	0.083794534
176	0xbfab1775	-1.3366534
177	0xbf8df756	-1.1091106
178	0xbff82e23	-1.938908
179	0x3f45d57f	0.77278894
180	0x3f993836	1.1970279
181	0xbe12716b	-0.14301078
182	0xbf8ba255	-1.0908915
183	0x3f50863f	0.81454843
184	0xc008374f	-2.1283758
185	0xbf3ee9cc	-0.74575496
186	0xc05891dd	-3.3839028
187	0x3f122fdf	0.57104295
188	0xbccff7ab	-0.025386652
189	0xbd9b6282	-0.07587148
190	0xbfa8c906	-1.3186347
191	0x3d8a444e	0.06751309
192	0xbc770b6e	-0.015078409
193	0xbdd4122c	-0.103550285
194	0x3d8438e5	0.06456164
195	0xbfcfe9bf	-1.6243209
196	0xbf72b05b	-0.9480035
197	0x3f4b8500	0.79499817
198	0xbf140c81	-0.5783158
199	0x3f7bdd15	0.9838422
200	0x3f8c904a	1.0981534
201	0x3f0294c5	0.51008254
202	0xbdab8740	-0.08375406
203	0x3ee80596	0.45316762
204	0xbfc6be61	-1.5526849
205	0xbfdb8674	-1.7150407
206	0x3db82b43	0.089926265
207	0x3e8c1b89	0.27364758
208	0x3f22f3ed	0.6365345
209	0xbfdc90f9	-1.7231742
210	0xbf2977ac	-0.6619823
211	0xbe767987	-0.24069797
212	0xc038ea63	-2.8893058
213	0xbecd02e6	-0.40041274
214	0x3ba33fb6	0.00498196
215	0xc060e451	-3.5139353
216	0x3eabfa18	0.33589244
217	0xbe335c87	-0.17515765
218	0xbf462ad4	-0.774091
219	0x3e499cc9	0.19688715
220	0xbfe30d9d	-1.773853
221	0x3db424d4	0.08796087
222	0x3fa9271a	1.3215058
223	0x3e524108	0.2053262
224	0xbdb56bbe	-0.08858441
225	0xbed6e514	-0.41971648
226	0x3ee9be85	0.45653167
227	0xbc85df26	-0.016341757
228	0x3f8046db	1.0021623
229	0xc05b410a	-3.4258447
230	0x3d66c06a	0.056335844
231	0xbfce066c	-1.609571
232	0x3f2c7df5	0.67379695
233	0x3c13bd6b	0.009017329
234	0xbe6bde43	-0.23034005
235	0xbd38afde	-0.045089595
236	0x3f1a371f	0.6024036
237	0x3f15dfea	0.5854479
238	0x3dcc9a3b	0.099903546
239	0x3ede0b3d	0.4336795
240	0xbef138c5	-0.47113624
241	0x3fac0894	1.3440118
242	0x3ef3ea63	0.4763976
243	0x3e0d277e	0.13784596
244	0x3ee3ef74	0.44518626
245	0x3f591fc7	0.84814113
246	0xbc0cafcd	-0.008586836
247	0x3e78d33c	0.2429933
248	0xbfc34ed8	-1.5258436
249	0xbe902d8a	-0.28159744
250	0xbe0db9f0	-0.13840461
251	0x3f1edeec	0.620589
252	0x3f92728a	1.1441205
253	0x3ee71f8c	0.45141256
254	0xbf8e3ad2	-1.11117
255	0xbec5a790	-0.38604403

net.2.bias f4 [128]
0	0x3ece7651	0.40324643
1	0x3f18f07f	0.5974197
2	0x3c8a2e9f	0.016867934
3	0xbdcc9b89	-0.099906035
4	0x3ee5df16	0.44896764
5	0xbdc21bf4	-0.09477988
6	0x3c5d5eb6	0.01351135
7	0xbd9e4e72	-0.07729806
8	0x3f427f66	0.75975645
9	0x3f0982d2	0.5371524
10	0xbc8a14a1	-0.01685554
11	0xbdc078d8	-0.09398049
12	0xbda96b91	-0.0827247
13	0x3f0af539	0.5428043
14	0xbdf8930d	-0.12137423
15	0xbc3fd288	-0.011707909
16	0xbe085ae7	-0.13315926
17	0x3f16d023	0.5891134
18	0x3ed1970b	0.4093555
19	0xbc93e1a0	-0.018051922
20	0x3f04a347	0.5181164
21	0xbdaddc53	-0.08489289
22	0xbce13303	-0.027490145
23	0x3ee51985	0.44746032
24	0x3ef3729a	0.47548372
25	0xbdde717d	-0.1086149
26	0xbdd71509	-0.10502059
27	0xbc98f194	-0.01866988
28	0xbdc5e07f	-0.0966196
29	0x3f0f0eaf	0.5588178
30	0xbd936825	-0.07197598
31	0xbd5f648b	-0.054539245
32	0xbdc21ff3	-0.0947875
33	0x3e2abe88	0.16674244
34	0xbd8cf0d0	-0.06881869
35	0x3f0dc148	0.5537305
36	0xbcb1c705	-0.021701345
37	0xbd8c0b79	-0.06838126
38	0x3efc7bd5	0.49313226
39	0xbdd27953	-0.10277047
40	0x3f926db0	1.1439724
41	0x3f11a32c	0.56889606
42	0xbda88f77	-0.08230489
43	0xbd88e2cd	-0.06683884
44	0x3f533777	0.8250651
45	0x3fe8c2e5	1.8184477
46	0xbb836e13	-0.0040109246
47	0xbd9304e6	-0.07178669
48	0xbd8f0385	-0.06983093
49	0x3f7c18b1	0.98475176
50	0xbe154736	-0.14577946
51	0xbdef65eb	-0.11689361
52	0x3e9f6bba	0.31136876
53	0x3f366e84	0.71262383
54	0x3f4630ba	0.774181
55	0xbdf94db9	-0.121730275
56	0xbe7054c3	-0.23469834
57	0x3cbf89bd	0.023381108
58	0xbd118a69	-0.03553239
59	0xbd64cc39	-0.055858824
60	0xbdd6e9d1	-0.10493816
61	0xbd8e08ea	-0.06935294
62	0xbc549e70	-0.012977228
63	0x3ef5e3bf	0.4802532
64	0xbda7417a	-0.081667855
65	0xbf0ab193	-0.54177207
66	0xbc80ea66	-0.01573677
67	0xbdc2537f	-0.09488582
68	0xbccddd47	-0.025129927
69	0xbdf531fc	-0.119724244
70	0x3f40c282	0.75296795
71	0xbc90f173	-0.017693257
72	0xbcf1cdbb	-0.029517045
73	0xbc648795	-0.013948341
74	0x3f1d1f63	0.6137602
75	0xbe8acd0d	-0.27109566
76	0x3d705708	0.05867675
77	0x3d260a3a	0.040537097
78	0x3e23c0dc	0.15991539
79	0x3f234184	0.63771844
80	0xbcabb362	-0.02095956
81	0xbdba0405	-0.09082798
82	0x3fd1cc72	1.6390517
83	0xbc9ea966	-0.019367885
84	0xbdd07d54	-0.101801544
85	0x3fb6bae1	1.4275781
86	0x3b3e6bee	0.002905603
87	0xbd3825fb	-0.044958096
88	0x3c5180af	0.012787028
89	0x3f037592	0.51351273
90	0xbe77edc7	-0.24211799
91	0xbda35187	-0.079745345
92	0xbd39e97d	-0.045388687
93	0x3f342724	0.70372224
94	0xbe5b4715	-0.21413834
95	0x3c7a0fe3	0.015262577
96	0x3f11448f	0.5674524
97	0x3eef2311	0.4670644
98	0x3f20f3d2	0.6287204
99	0xbd564fba	-0.052322127
100	0x3ca8b18c	0.020592473
101	0x3e711ef2	0.23546961
102	0x3f136161	0.57570463
103	0x3ec46034	0.38354647
104	0x3ea4bbc5	0.32174507
105	0xbe0c6ee0	-0.1371417
106	0x3f140c2f	0.5783109
107	0x3f5c7318	0.8611312
108	0xbdf9aee3	-0.1219156
109	0xbe1c8b31	-0.15287472
110	0xbc768fe2	-0.015048953
111	0x3ee5925e	0.44838232
112	0xbdedd63d	-0.11613128
113	0x3e814237	0.2524583
114	0x3f000f1e	0.50023067
115	0xbdef7dd6	-0.11693923
116	0x3f3ca42d	0.7368801
117	0x3e8774ea	0.26456386
118	0x3dba87e3	0.091079496
119	0x3cd0e2d9	0.025498794
120	0xbc68ba95	-0.014204641
121	0xbddd0bfa	-0.107933
122	0x3f0603c3	0.5234949
123	0xbc27428d	-0.010208738
124	0xbdee8de1	-0.11648155
125	0xbb711d5d	-0.0036791184
126	0x3bfe4ea0	0.0077608377
127	0x3c08b326	0.008343494

net.4.weight f4 [13, 128]
0	0x3fc2a099	1.520526
1	0x3feb5592	1.8385489
2	0xbcdea894	-0.027179994
3	0x3d7087e6	0.058723353
4	0x3fac60a2	1.346699
5	0xbd30f915	-0.043206293
6	0x3d33d419	0.043903444
7	0x3d51426a	0.051088728
8	0x3fea4cd6	1.8304698
9	0x3f886a08	1.0657358
10	0xbd7a925e	-0.061174743
11	0xbd98762b	-0.07444414
12	0x3c6a8b51	0.014315442
13	0x3f90b4c6	1.1305168
14	0x3d441610	0.047872603
15	0xbca32cb0	-0.01991877
16	0x3f1bae3d	0.6081274
17	0x3f6dbccf	0.92866224
18	0x3fcb6051	1.5888768
19	0x3ca175dc	0.01970952
20	0x3ff00fb7	1.8754796
21	0x3d0b27d2	0.033973522
22	0xbd30ed98	-0.043195337
23	0x3f89b2bf	1.0757674
24	0x40006824	2.0063562
25	0x3d2d43fa	0.042301156
26	0xbd66cb6a	-0.056346335
27	0x3dab7c56	0.083733246
28	0x3d9ac7d3	0.07557645
29	0x3fbdf193	1.4839348
30	0x3c12b448	0.008954115
31	0xbdb4797d	-0.088122346
32	0x3d480133	0.04882927
33	0x40016e50	2.022358
34	0xbd27feba	-0.04101441
35	0x3f950902	1.1643374
36	0xbda287d5	-0.07936064
37	0x3d98bc5a	0.074578
38	0x3fc58585	1.5431372
39	0xbf861839	-1.0476142
40	0x3f12136b	0.5706088
41	0x3f993425	1.1969038
42	0xbb6e0e96	-0.0036324612
43	0xbd0474ce	-0.032337956
44	0x3f0db036	0.55347
45	0x3f49a768	0.78771067
46	0x3d975ba5	0.07390527
47	0x3d2635cb	0.040578645
48	0x3d6e6d5d	0.058209766
49	0x3f927685	1.1442419
50	0x3dd52c13	0.10408797
51	0xbb825569	-0.003977467
52	0x3f4ea0aa	0.80713904
53	0x3f97a343	1.1846699
54	0x3fc32e37	1.5248479
55	0xbd93a4bd	-0.07209156
56	0xbf47be32	-0.7802459
57	0x3d8946af	0.06702935
58	0x3d92595b	0.071459495
59	0xbd5d1c68	-0.05398217
60	0xbbf09c10	-0.007342823
61	0x3c6de08e	0.01451887
62	0xbc491adb	-0.012274469
63	0x4008da40	2.138321
64	0x3ca363a8	0.01994498
65	0xbf81ac09	-1.0130626
66	0xbc83f67f	-0.01610875
67	0xbd4646cf	-0.048407372
68	0xbd4a5dad	-0.049405742
69	0xbd9ce49d	-0.07660792
70	0x3f9e49ad	1.2366234
71	0xbae401f1	-0.0017395598
72	0x3f0fc99c	0.56167006
73	0x3ce18cf3	0.02753303
74	0x3f95ddf8	1.1708364
75	0xbf73ef34	-0.9528687
76	0x3f4b0d6a	0.79317343
77	0xbbcd2529	-0.0062605334
78	0x3f6acdad	0.91720086
79	0x3f5da825	0.86584693
80	0xbd0835b8	-0.033254355
81	0xbcd046c4	-0.025424369
82	0x3f3c30c5	0.73511916
83	0x3cde91c9	0.027169125
84	0xbd9a2c57	-0.075279884
85	0x3f0bb1e9	0.54568344
86	0x3dfff0fd	0.12497137
87	0xbbe2bfd0	-0.0069198385
88	0x3d582125	0.052765984
89	0x3fd12bcd	1.6341492
90	0x3df21839	0.11821026
91	0x388aad64	6.612649e-05
92	0x3cf387bc	0.02972781
93	0x3fc0a11a	1.5049164
94	0xbf0108fb	-0.5040433
95	0x3d911326	0.070837304
96	0x3fc79ceb	1.5594763
97	0x3f9545e9	1.166196
98	0x3fc902cc	1.5703979
99	0xbd841570	-0.064494014
100	0xbd8a2e01	-0.06747056
101	0x3fc06015	1.5029322
102	0x3f8cdf84	1.1005712
103	0x3fee969c	1.8639712
104	0x40315e9e	2.7714
105	0xbc949020	-0.01813513
106	0x3fa01c9c	1.2508731
107	0x3feca6ce	1.8488405
108	0x3d42fbdd	0.047603477
109	0x3b94a8d9	0.00453673
110	0x3bbff189	0.0058576507
111	0x3fb6bc2c	1.4276175
112	0x3d0e8dea	0.03480331
113	0x3f96ac53	1.1771339
114	0x3fc23c22	1.5174601
115	0xbd7c07b4	-0.061530784
116	0x3eddb588	0.4330256
117	0x3f4734a8	0.7781472
118	0x3ee1e592	0.4412046
119	0xbda8d5d4	-0.082439095
120	0x3dab3591	0.08359826
121	0x3d9eb131	0.0774864
122	0x3f952715	1.1652552
123	0x3cd56278	0.02604793
124	0xbd4680b6	-0.048462592
125	0x3d893ff5	0.06701652
126	0x3d214c14	0.039379194
127	0x3deac3ae	0.11463104
128	0x3fd7e5f1	1.6867048
129	0x400f14e6	2.2356505
130	0x3d62248a	0.055210628
131	0xbc82da90	-0.01597336
132	0x3fa2b4e3	1.2711452
133	0xbc335258	-0.010944925
134	0x3d060875	0.03272291
135	0xbd21862b	-0.039434593
136	0x3ff1bb2a	1.8885243
137	0x3f863f84	1.0488133
138	0xbdc0fe33	-0.09423485
139	0xbd74de05	-0.059782047
140	0x3d3dd51c	0.046345815
141	0x3f933df3	1.150328
142	0x3d045303	0.03230573
143	0x3d60f392	0.054919787
144	0x3f0be845	0.5465129
145	0x3f78374a	0.96959364
146	0x3fc5c008	1.5449228
147	0x3c732c00	0.014842033
148	0x3fff6dc2	1.995537
149	0xbd0b0752	-0.033942528
150	0x3bc6b1a9	0.006063659
151	0x3f7b5d13	0.98188895
152	0x3ff08515	1.8790613
153	0xbd5991a1	-0.0531174
154	0xbccffd21	-0.025389256
155	0xbd89e332	-0.06732787
156	0xbd449a9f	-0.04799902
157	0x3fba5bf6	1.4559314
158	0xbd6fe0e0	-0.058564067
159	0xbdd22c02	-0.102623
160	0x3dd8c6a7	0.10584765
161	0x4004ea25	2.076791
162	0x3dbca87b	0.092118226
163	0x3f9bfd82	1.218674
164	0x3c9fde1d	0.019515092
165	0x3c84bf56	0.016204517
166	0x3fccb8aa	1.5993855
167	0xbf8a8c22	-1.0824015
168	0x3f1076ff	0.56431574
169	0x3f9c3205	1.2202765
170	0xbd2a2ec0	-0.04154849
171	0xbaa16247	-0.0012312614
172	0x3f0aaac1	0.541668
173	0x3f4a73e5	0.7908309
174	0xbd2eba3f	-0.042658087
175	0x3dc7324f	0.097263925
176	0xbcb3a0e5	-0.021927306
177	0x3f8664d1	1.0499517
178	0xbc988ce5	-0.018621871
179	0xbd135487	-0.035969283
180	0x3f5770a7	0.8415627
181	0x3f9f6fa1	1.2455941
182	0x3fb6536f	1.4244212
183	0x3cb83af4	0.022489049
184	0xbf78470c	-0.9698341
185	0x3cec9534	0.02887974
186	0x3c68fab8	0.014219932
187	0xbca8632c	-0.020555101
188	0x3cbe0f7c	0.023200743
189	0xbd0e5ba0	-0.03475535
190	0xbd905dd2	-0.07049145
191	0x4005e945	2.0923626
192	0xbd8180d7	-0.063234024
193	0xbf8554be	-1.0416486
194	0x3d405002	0.0469513
195	0x3d6792f2	0.056536622
196	0xbd6f1147	-0.058366086
197	0x3d70aa1e	0.058755986
198	0x3f907309	1.1285106
199	0xbd63ef7b	-0.05564831
200	0x3ec8c995	0.39216295
201	0x3d87f459	0.066384025
202	0x3f70c2c2	0.94047177
203	0xbf9ae64e	-1.2101533
204	0x3f37750d	0.7166298
205	0x3d6b39b9	0.057428095
206	0x3f7c6507	0.98591655
207	0x3f54764e	0.8299302
208	0xbcd73d85	-0.026274452
209	0x3ccea41b	0.025224736
210	0x3f39ea4c	0.72623134
211	0x3ded5e32	0.11590232
212	0xbd173739	-0.0369179
213	0x3f12feac	0.5741985
214	0xbda0e861	-0.07856823
215	0xbd7eb437	-0.062183585
216	0x3d8291b5	0.06375448
217	0x3fdc3af9	1.7205497
218	0xbf1717c4	-0.5902064
219	0x3cc9cc76	0.024633627
220	0xbdaec7e2	-0.08534218
221	0x3fadb9b2	1.3572295
222	0xbf3d5129	-0.73951966
223	0xbd76d9fc	-0.06026648
224	0x3fc87615	1.5661036
225	0x3f90e148	1.131875
226	0x3fcf40d7	1.6191663
227	0x3dae9015	0.08523575
228	0x3cdf9467	0.027292443
229	0x3f90bb3a	1.1307137
230	0x3f939acd	1.1531616
231	0x3fe74986	1.8069313
232	0x40365bb3	2.8493469
233	0x3c361372	0.011113035
234	0x3fbaeda9	1.4603778
235	0x3fcdbaa5	1.6072584
236	0x3e00190d	0.12509556
237	0x3bfe6cd4	0.007764438
238	0xbd046012	-0.032318182
239	0x3f19757e	0.59944904
240	0xbdd42c46	-0.10360007
241	0x3f8d68be	1.104759
242	0x3fd31f74	1.6493974
243	0x3cfe3afc	0.031033985
244	0x3ecf6da4	0.40513337
245	0x3f7454ac	0.954417
246	0x3f091364	0.5354521
247	0xbc049a83	-0.008093479
248	0xbab3c926	-0.0013716563
249	0xbd85ea6c	-0.06538853
250	0x3f90dd28	1.1317492
251	0xbc9f3e94	-0.01943902
252	0xbb05a4a2	-0.0020392318
253	0xbd0d634c	-0.034518525
254	0x3dee4e1c	0.11635992
255	0x3e02a469	0.1275803

net.4.bias f4 [13]
0	0x3fa00847	1.2502526
1	0x3f88308c	1.0639815
2	0x3f5da2fb	0.86576813
3	0x3fbc34ee	1.4703653
4	0x3f8dde97	1.1083554
5	0x3fb8cd44	1.4437642
6	0x3f853005	1.0405279
7	0x3fb57ce0	1.4178734
8	0x3f9522ec	1.1651282
9	0x3f6438e8	0.8914933
10	0x3f96391a	1.1736176
11	0x3f5a855c	0.8535974
12	0x3f716560	0.9429531

net.0.weight f4 [128, 53]
0	0xbe188424	-0.14894158
1	0x3caa5374	0.020791747
2	0xbf735983	-0.9505846
3	0xbfb898d4	-1.442164
4	0x3fa5be27	1.2948655
5	0x3f223201	0.6335755
6	0xbf2b7210	-0.6697092
7	0x3f3843c5	0.7197841
8	0xbf0efeae	-0.5585736
9	0xbdcbecbe	-0.09957264
10	0xbfa0c021	-1.2558633
11	0xbed0c396	-0.4077422
12	0x3e9ee149	0.31031254
13	0x3df037e4	0.1172941
14	0xbef794e4	-0.48355782
15	0x3f90d94e	1.1316316
16	0x3e05096e	0.12991878
17	0xbebce5f4	-0.3689419
18	0x3e3bc35d	0.18336244
19	0xc00b4f6b	-2.1767223
20	0x3e7fb832	0.24972609
21	0xbef14697	-0.47124168
22	0x3f2bf74b	0.67174214
23	0xbe59393b	-0.21213238
24	0xbdf87298	-0.12131232
25	0x3ed0e8e6	0.40802687
26	0xbe2ae838	-0.16690147
27	0xbf6716ec	-0.9026935
28	0xbdb435ec	-0.08799347
29	0xbec72271	-0.38893464
30	0xbaa4659f	-0.0012542492
31	0xbf7fb259	-0.9988151
32	0x3e1b1158	0.15143335
33	0x3de01305	0.10941128
34	0x3e9bc7e2	0.30425936
35	0xbf6c81d8	-0.92385626
36	0xc000192e	-2.0015368
37	0xbe8e7076	-0.27820176
38	0xbfe01c14	-1.7508569
39	0xbf3d1434	-0.7385895
40	0xbe581f9a	-0.21105805
41	0xbe5c7b6c	-0.21531457
42	0xbea652d7	-0.32485077
43	0xbef1f62b	-0.47258124
44	0x3ef19734	0.4718567
45	0xbf8c4a44	-1.0960164
46	0xbf03745e	-0.5134944
47	0x3f03d5ef	0.5149831
48	0x3d875873	0.06608667
49	0x3e176f1d	0.1478848
50	0xbdaca619	-0.08430118
51	0x3e10af92	0.14129475
52	0xbea59d49	-0.32346562
53	0x3cbf9dad	0.023390615
54	0x3e7f7a34	0.2494896
55	0x3e027922	0.12741521
56	0x3efc88f4	0.49323237
57	0x3ee3d05e	0.4449491
58	0xbe0744b2	-0.13209799
59	0xbe80fbe7	-0.25192186
60	0x3e6dc6ad	0.2322032
61	0xbef9fadd	-0.48824206
62	0xbc98006b	-0.018554887
63	0x3d16f286	0.036852382
64	0xbf6389b7	-0.8888201
65	0xbf33be2b	-0.7021205
66	0x3ea90609	0.33012417
67	0xbe599e95	-0.212519
68	0xbf913ae7	-1.13461
69	0xbe246b65	-0.16056593
70	0xbf69bdb7	-0.91305107
71	0xbea1a56a	-0.31571513
72	0x3f5850c5	0.84498245
73	0x3e58ab05	0.21158989
74	0xbeb83d87	-0.35984442
75	0xbdf190de	-0.11795209
76	0xbed08a5d	-0.40730563
77	0x3e0753eb	0.13215606
78	0x3d84467d	0.06458757
79	0x3f1b540e	0.6067513
80	0x3cbbf42e	0.022943582
81	0x3ea1e7e8	0.31622243
82	0x3d8d2908	0.06892592
83	0xbe1d6f1f	-0.1537442
84	0x3eead339	0.45864275
85	0x3ec33d84	0.3813287
86	0x3f0ef050	0.5583544
87	0x3f319dc6	0.6938137
88	0x3ec5a995	0.38605943
89	0xbe733aab	-0.23752849
90	0x3f3db52d	0.7410458
91	0x3f45a1e7	0.7720017
92	0x3f0848f0	0.53236294
93	0x3e969382	0.29409415
94	0xbed8a4f0	-0.42313337
95	0x3e1a0ed6	0.15044722
96	0xbfe7c9de	-1.810848
97	0x3efb7e26	0.4911968
98	0xc0092ea0	-2.1434708
99	0xbe26848e	-0.16261503
100	0x3e22909e	0.1587548
101	0x3c8b41c1	0.016999127
102	0xbc0dc03a	-0.008651787
103	0xbe1e5953	-0.15463762
104	0x3d82d298	0.06387824
105	0x3f48ab28	0.78386164
106	0xbe81d00c	-0.2535404
107	0xbda3b573	-0.07993593
108	0x3d7358ae	0.059410743
109	0x3d19c460	0.037540793
110	0xbdb964b9	-0.090524144
111	0xbd4a7d76	-0.049436055
112	0xbd3aa16f	-0.04556411
113	0xbd813c51	-0.063103326
114	0x3dc3512c	0.09536967
115	0x3df978de	0.12181257
116	0x3d43639c	0.047702417
117	0x3d5b5e7e	0.05355691
118	0x3cb93a3b	0.022610774
119	0x3d2d44e6	0.042302035
120	0xbd01315a	-0.031541206
121	0x3cd9508e	0.02652767
122	0xbd74fad3	-0.059809517
123	0xbcdb09e0	-0.026738107
124	0x3cfc6d37	0.030813796
125	0x3ddc69ea	0.10762389
126	0x3d81be9c	0.06335184
127	0xbd56e925	-0.052468438
128	0xbdd8daf1	-0.10588635
129	0xbe1f35ce	-0.15547869
130	0x3dcbea26	0.0995677
131	0x3d8b49c4	0.06801179
132	0x3d1c1fdf	0.038116332
133	0xbd85936e	-0.065222606
134	0xbc36e0f3	-0.0111620305
135	0xbd12ec88	-0.035870105
136	0xbcf84776	-0.030307513
137	0x3e5526f5	0.20815642
138	0xbdaf932c	-0.08572993
139	0xbe040ec2	-0.12896255
140	0xbd0e4d11	-0.034741465
141	0xbcfac366	-0.030610751
142	0x3dd609cf	0.104510896
143	0xbe07dce5	-0.13267858
144	0xbdbbd695	-0.09171788
145	0xbd54271c	-0.05179511
146	0xbdf8fd2a	-0.12157662
147	0xbd2f4449	-0.04278973
148	0x3cf90446	0.030397546
149	0x3c820c32	0.015874956
150	0xbc3ca8fe	-0.0115149
151	0x3d91d1eb	0.07120117
152	0x3e77c1a2	0.24194959
153	0xbe200444	-0.15626627
154	0x3cba6ea0	0.022757828
155	0x3e5a76ac	0.21334332
156	0xbe1d64d9	-0.15370502
157	0xbe1f5b58	-0.15562189
158	0xbd711c19	-0.058864687
159	0x3cbd9b51	0.02314535
160	0x3d5a89e0	0.053354144
161	0xbf127fbe	-0.5722617
162	0x3f807fbd	1.0038983
163	0xbfa00767	-1.2502259
164	0xbefdd75d	-0.49578372
165	0x3f4732ed	0.7781208
166	0x3e03955c	0.12849945
167	0x3e9bff00	0.30467987
168	0xbb826c11	-0.0039801677
169	0x3f30d508	0.6907506
170	0xbf4c41b1	-0.7978774
171	0x3ea07bf7	0.31344578
172	0xbece62c2	-0.4030972
173	0xbe87ecf1	-0.2654796
174	0xc006cf17	-2.1063898
175	0xbeeeabd9	-0.46615484
176	0xbf8cbdc0	-1.0995407
177	0x3e84a5b7	0.2590768
178	0xbf95508a	-1.1665204
179	0x3e662c57	0.22477852
180	0x3f250cc5	0.6447261
181	0x3eeec00b	0.46630892
182	0x3d9f4a4d	0.077778436
183	0x3dca271e	0.09870742
184	0x3ce3e6f4	0.027820088
185	0x3e9cd862	0.30633837
186	0x3f485ee9	0.7826982
187	0x3e39e8ef	0.18155263
188	0x3ef8f796	0.48626393
189	0xbf078d68	-0.52950144
190	0x3f6d183e	0.92615116
191	0xbde8e0e2	-0.11371018
192	0x3f315cc0	0.6928215
193	0xbff3e77a	-1.9055016
194	0xbe8dfd0f	-0.2773213
195	0x3d109331	0.035296623
196	0x3e8641ed	0.26222172
197	0x3e651a5e	0.2237334
198	0xbeb15370	-0.3463397
199	0xbee70923	-0.45124158
200	0x3dfdf30d	0.12399874
201	0x3e8a39ae	0.2699713
202	0xbea9fbed	-0.33200017
203	0xbba24a30	-0.0049526915
204	0xbf03ab96	-0.51433694
205	0x3d198c64	0.037487403
206	0xbe7f509a	-0.24933091
207	0xbe852c74	-0.26010478
208	0x3d882bbd	0.066489674
209	0xbeb71042	-0.3575459
210	0xbfaa0fd7	-1.3286084
211	0x3c387d27	0.011260307
212	0x3b999a03	0.004687549
213	0xbe6c9bdc	-0.2310633
214	0xbf3aa105	-0.72901946
215	0x3f81e76e	1.0148752
216	0x3fcd5f70	1.604475
217	0x3d23bb44	0.039973512
218	0xbfd77475	-1.6832415
219	0x3d8749ad	0.066058494
220	0xbeec74de	-0.46182913
221	0xbda1029c	-0.07861826
222	0xbd277220	-0.040880322
223	0xbe74d57c	-0.23909563
224	0x3eafa16f	0.34302852
225	0x3ecb2e9e	0.39684004
226	0xbf9ba929	-1.2160999
227	0xc00ef2c0	-2.2335663
228	0xbfa48c75	-1.2855364
229	0x3f4cb63a	0.79965556
230	0xbf9f3f7f	-1.2441252
231	0x3f83f698	1.030963
232	0xbe364016	-0.17797884
233	0xbfe8f9f5	-1.8201281
234	0x3fb640bb	1.4238504
235	0xbed35766	-0.41277617
236	0x3d26eb10	0.040751517
237	0x3f1c3c61	0.6102963
238	0x3f4af00d	0.7927254
239	0x3e9f508f	0.3111615
240	0x3dafbd44	0.085810214
241	0xbea4b4e6	-0.32169265
242	0x3eb61bb7	0.3556802
243	0xbf559827	-0.8343529
244	0x3e67ecdd	0.2264895
245	0x3ee014b4	0.43765795
246	0x3f78ba81	0.9715958
247	0x3e94341d	0.2894601
248	0xbf6c4d11	-0.92305094
249	0xbe4108ed	-0.18851061
250	0x3f79f2f0	0.9763632
251	0x3e22b099	0.15887679
252	0x3e33e42d	0.17567511
253	0xbf6f465f	-0.9346675
254	0x3f9b5b82	1.2137301
255	0xbfc64c78	-1.5492086

net.0.bias f4 [128]
0	0x3eda0868	0.42584538
1	0x3e4707dd	0.19436593
2	0xbdc899be	-0.09794949
3	0xbe0e7259	-0.13910808
4	0xbe426264	-0.18982846
5	0x3f10e43a	0.56598246
6	0xbf1107cb	-0.56652516
7	0x3e484ba0	0.19560099
8	0x3ee114ce	0.43961185
9	0x3da69dba	0.08135553
10	0xbcb65fb3	-0.02226243
11	0xbefdc118	-0.4956138
12	0x3eaa98aa	0.33319598
13	0x3e018f97	0.12652431
14	0xbdc9288c	-0.09822187
15	0xbd835999	-0.06413574
16	0x3e0d7bf1	0.13816811
17	0x3e019116	0.12653002
18	0xbd540f12	-0.051772185
19	0x3c9c3efa	0.019072998
20	0x3e4e3b65	0.20139845
21	0xbd9b0419	-0.07569141
22	0x3e6356a1	0.22201015
23	0xbb9bd12c	-0.00475516
24	0xbe93f34e	-0.28896564
25	0xbe677af2	-0.22605494
26	0x3ea9df18	0.3317802
27	0x3e9f02e1	0.31056884
28	0x3df699b8	0.12041038
29	0x3e646aa4	0.22306305
30	0x3e4a29af	0.19742464
31	0x3ee3ee16	0.44517583
32	0xbe383669	-0.17989506
33	0xbdebc049	-0.11511285
34	0x3d2385b5	0.039922435
35	0xbe43bbef	-0.1911466
36	0x3e75d83d	0.2400827
37	0xbe22b051	-0.15887572
38	0x3d1118e0	0.035424113
39	0xbe172b8c	-0.14762706
40	0xbeb4ce25	-0.35313526
41	0x3e71170e	0.23543951
42	0x3e365a4e	0.17807886
43	0x3e02e5e5	0.1278301
44	0x3ec66e6d	0.38756123
45	0xbe6cdaff	-0.23130415
46	0x3e390092	0.18066624
47	0xbdfe29ba	-0.124103025
48	0xbdb2f1f2	-0.08737554
49	0x3d775b69	0.06038991
50	0xbe80a619	-0.25126722
51	0xbe02c24f	-0.12769435
52	0xbdf8437d	-0.12122247
53	0x3ea0ec5c	0.31430328
54	0xbe3258d7	-0.17416702
55	0x3ea20de3	0.3165122
56	0x3e809d0a	0.2511981
57	0x3d3e6a8c	0.04648833
58	0xbdb52d5a	-0.08846541
59	0x3f09240b	0.5357062
60	0x3f06cfa6	0.52660596
61	0x3ca4e519	0.020128774
62	0x3e3bdd20	0.18346071
63	0x3e303528	0.17207778
64	0xbe83b772	-0.25725895
65	0x3d6dad7e	0.058026783
66	0xbe6a7785	-0.22897156
67	0x3c1fd715	0.009755869
68	0x3dd1b8e2	0.10240342
69	0xbeb5436b	-0.35402998
70	0xbd5855d7	-0.05281624
71	0xbe7a5228	-0.24445403
72	0xbe8345ec	-0.25639284
73	0xbe0c99f4	-0.13730603
74	0x3aad620b	0.0013228072
75	0xbe149f25	-0.14513834
76	0x3e857bb8	0.26070952
77	0x3d506bdd	0.050884116
78	0x3f127e42	0.57223904
79	0x3f183dae	0.59469116
80	0x3e0e4999	0.13895263
81	0xbea10f3f	-0.31456944
82	0xbdca0a1d	-0.0986521
83	0x3d604e68	0.054762274
84	0xbec1b9e1	-0.37837127
85	0x3ea61861	0.32440475
86	0xbe3cb513	-0.1842845
87	0x3e0b16fe	0.1358299
88	0x3f263877	0.6492991
89	0x3e3ed7aa	0.18636957
90	0x3d7486c9	0.059698854
91	0x3e8f9a19	0.28047255
92	0xbe66afd8	-0.22528017
93	0xbe793e23	-0.2434011
94	0x3d97ff1a	0.07421704
95	0x3f208667	0.6270508
96	0xbec42bde	-0.38314718
97	0x3e04cd21	0.12968875
98	0x3f3a640b	0.72808903
99	0x3e9becbf	0.3045406
100	0x3a82bd1e	0.0009974574
101	0x3f116f56	0.5681051
102	0x3e606db2	0.21916845
103	0xbe186095	-0.14880593
104	0x3ea9398c	0.33051717
105	0xbe211f7e	-0.1573467
106	0xbdff8ef2	-0.124784365
107	0xbe33f3a3	-0.17573409
108	0xbea922c7	-0.33034346
109	0x3d88980a	0.06669624
110	0x3f4d84db	0.80280846
111	0x3d98a3e1	0.074531324
112	0xbd01cda6	-0.031690262
113	0x3e67a705	0.22622307
114	0x3dd959db	0.10612842
115	0x3f344882	0.7042314
116	0xbe21576a	-0.15756002
117	0x3dc26662	0.09492184
118	0x3eae6ed9	0.34068945
119	0x3e96531e	0.29360288
120	0x3eaaeb6b	0.33382735
121	0xbccf3fed	-0.025299037
122	0xbd9657dc	-0.073409766
123	0x3f0cc8bc	0.54993796
124	0xbde0ff16	-0.10986154
125	0xbe3d227f	-0.1847019
126	0x3e7cbd24	0.24681526
127	0xbdd2e28f	-0.10297119

net.2.weight f4 [128, 128]
0	0x3eae38fb	0.34027848
1	0x3f810b09	1.0081493
2	0x3ca882a1	0.020570101
3	0xbec7c785	-0.3901941
4	0x3f308278	0.6894908
5	0x400a505e	2.1611552
6	0x3f099063	0.5373594
7	0xbf5a6214	-0.85305905
8	0x3e49f676	0.19722924
9	0xbe0455d8	-0.12923372
10	0xbf16ad23	-0.58857936
11	0xbe4e74d0	-0.20161748
12	0x3ec03222	0.37538248
13	0xbf723779	-0.94615895
14	0xbdb6c663	-0.08924558
15	0x3f4c91af	0.79909796
16	0xc097abc5	-4.739718
17	0xbe52e59f	-0.20595406
18	0xbfcb0474	-1.5860734
19	0xbfa96333	-1.3233398
20	0x3d98108f	0.07425033
21	0xbee69655	-0.4503657
22	0x3fa6c1d7	1.3027905
23	0x3f3ee734	0.7457154
24	0xbff47173	-1.9097122
25	0xc0536007	-3.302736
26	0xbeafb998	-0.34321284
27	0xbf4079e9	-0.7518602
28	0x3e6e6d47	0.23283873
29	0xbf268b0f	-0.65055937
30	0x3d57d899	0.052696798
31	0xbf9abd5c	-1.2089038
32	0x3d077770	0.03307289
33	0xbc819cea	-0.015821893
34	0xbf976558	-1.1827803
35	0xbf934e8f	-1.1508349
36	0xbf9e44ea	-1.2364781
37	0xbcf6e730	-0.030139536
38	0xbfde7283	-1.7378696
39	0xbf0c8772	-0.54894173
40	0x3f3a610b	0.72804326
41	0x3ec7e421	0.39041236
42	0xc083e6c8	-4.1219215
43	0xbfe9509e	-1.8227727
44	0x3d6addeb	0.057340544
45	0x3ea4bfd8	0.32177615
46	0x3ea0db0c	0.3141712
47	0xbcebc6d8	-0.02878134
48	0x3e0ee90f	0.13956092
49	0xbf09cab7	-0.53824943
50	0xbf65a151	-0.89699274
51	0x3f536712	0.8257915
52	0x3e092345	0.1339236
53	0x3ece563a	0.4030016
54	0xbfc91cc8	-1.5711908
55	0xbe87eec6	-0.26549357
56	0xbfb7f7eb	-1.4372534
57	0xc031fb99	-2.7809813
58	0xbd2b5a96	-0.041834436
59	0xbd20423c	-0.039125666
60	0x3ce4cb5f	0.027929006
61	0x3cd04bd3	0.02542678
62	0xbf924af0	-1.1429119
63	0x3ebf4fd8	0.37365603
64	0x3dc0ab32	0.09407653
65	0xc076cf56	-3.8564048
66	0xbcceb905	-0.025234709
67	0xbfd7522f	-1.6821955
68	0x40101530	2.2512932
69	0xbff87ef7	-1.9413747
70	0x3e4031ff	0.18769072
71	0xbe9d56a7	-0.30730173
72	0x3f7c625e	0.98587596
73	0xbe350346	-0.1767703
74	0x3d0b40db	0.033997398
75	0xc012fc2c	-2.2966413
76	0xbf7d54b3	-0.98957366
77	0xbf5b91c2	-0.85769284
78	0x3d31267c	0.043249592
79	0xbd9009a9	-0.070330925
80	0x3ef19ca5	0.47189823
81	0xbf1ce8c8	-0.61292696
82	0x3ed881d9	0.42286566
83	0x3e1e8e34	0.15483934
84	0xbfecc0c3	-1.8496326
85	0xbf38b12d	-0.7214535
86	0xbd188899	-0.037239645
87	0xbf92adba	-1.1459267
88	0x3dcb00e2	0.09912278
89	0x3cc0052c	0.023439966
90	0x3c82c1b0	0.015961498
91	0xbe9aad34	-0.30210268
92	0xbf83c0f8	-1.0293264
93	0x3d1685ff	0.036748882
94	0x3e045827	0.12924252
95	0xbd94eb98	-0.072714984
96	0x3f4991ab	0.78737897
97	0xbed23055	-0.410525
98	0x3f468ab1	0.77555376
99	0xbfb82235	-1.4385439
100	0x3f66b5ee	0.9012135
101	0xbf56a013	-0.83838004
102	0x3e51685e	0.20449969
103	0xbf7c2da8	-0.98507166
104	0x3f2609c5	0.6485866
105	0xbdeca1c1	-0.115542896
106	0xbffc0d57	-1.9691571
107	0xbdb10b5d	-0.086447455
108	0xbf4c80c9	-0.7988401
109	0xbef09c7c	-0.46994388
110	0x3dd83fdc	0.10559055
111	0xbf75aacf	-0.9596376
112	0xbfa8c1e2	-1.3184168
113	0xbf47273e	-0.77794254
114	0x3dacf282	0.08444692
115	0x3dc28577	0.09498113
116	0xbf8bbe94	-1.0917535
117	0x3feed2b0	1.8658047
118	0xbfac5bf0	-1.3465557
119	0xbe5e4100	-0.21704483
120	0x3f00643c	0.50152946
121	0xbc1fe2a4	-0.009758625
122	0xbaa55bd2	-0.0012615866
123	0x3e26cdb6	0.1628941
124	0x3f4af8bb	0.7928578
125	0xc02077e1	-2.5073168
126	0xc02fc395	-2.7463124
127	0xbe10d5e0	-0.14144087
128	0xc03badce	-2.9324832
129	0x3ee56ffb	0.44811997
130	0x3cb7bf57	0.022430105
131	0x3ee1b3a7	0.44082376
132	0xbd80cd5a	-0.06289168
133	0x3f6bb8e6	0.9207901
134	0x3ef7b56b	0.48380598
135	0x3f5857cb	0.8450896
136	0xbc7c23d2	-0.0153894
137	0x3ee9b1cd	0.45643464
138	0xbe85f74d	-0.26165238
139	0x3dfe382f	0.1241306
140	0x3e1af1c6	0.15131292
141	0xbe369582	-0.1783047
142	0x3cce69da	0.025196958
143	0x3f537bc4	0.82610726
144	0xc068410c	-3.6289701
145	0x3f9622c9	1.1729366
146	0xbfcae2d9	-1.5850478
147	0x3fa5e824	1.2961469
148	0xc0469459	-3.1028044
149	0x3b187b1b	0.0023266736
150	0x3efbf2ca	0.4920867
151	0xbf817f71	-1.0117017
152	0xbfef5a5d	-1.8699452
153	0x3fe7e67c	1.8117213
154	0xbf284b25	-0.6573966
155	0x3ea52329	0.32253388
156	0x3faeb5bf	1.3649215
157	0xbfce2407	-1.6104745
158	0xbf888e96	-1.0668514
159	0xbf91bdd5	-1.1386057
160	0x3ce12f86	0.027488481
161	0xbd494277	-0.04913565
162	0xbea35261	-0.31898788
163	0xbf154b80	-0.5831833
164	0x3d927f41	0.07153178
165	0x3cfbca8f	0.030736236
166	0xbebcdc4b	-0.3688682
167	0xbf3b5120	-0.7317066
168	0x3f10bff3	0.5654289
169	0x3e8a4b6e	0.27010673
170	0xbec39e79	-0.38206843
171	0xbeda613c	-0.4265231
172	0x3e97c22a	0.29640323
173	0xbf7c753a	-0.98616374
174	0x3ef49c85	0.47775665
175	0x3dab9c78	0.083794534
176	0xbfaaef01	-1.3354188
177	0xbf8eaaa3	-1.1145824
178	0xbff85738	-1.9401617
179	0x3f4596b6	0.7718309
180	0x3f996d3f	1.1986464
181	0xbe0f6617	-0.14003788
182	0xbf8b9ca6	-1.090718
183	0x3f5060cf	0.8139772
184	0xc0082185	-2.1270459
185	0xbf3e600e	-0.7436532
186	0xc0589340	-3.3839874
187	0x3f127517	0.57209915
188	0xbcc9bd6d	-0.024626458
189	0xbd921e29	-0.07134659
190	0xbfa87797	-1.3161496
191	0x3d96d82f	0.073654525
192	0xbc770b6e	-0.015078409
193	0xbdd2f111	-0.10299886
194	0x3d8438e5	0.06456164
195	0xbfcfa79a	-1.6223023
196	0xbf72018a	-0.945336
197	0x3f4c60c3	0.79835147
198	0xbf152b59	-0.5826927
199	0x3f7bc103	0.9834139
200	0x3f8c904a	1.0981534
201	0x3f01fe84	0.50778985
202	0xbdab8740	-0.08375406
203	0x3ee5b1da	0.44862252
204	0xbfc6cd76	-1.5531452
205	0xbfdac268	-1.7090578
206	0x3dbbe49f	0.091744654
207	0x3e8c9418	0.27456737
208	0x3f22ff5e	0.6367091
209	0xbfddc372	-1.732527
210	0xbf28092a	-0.65638983
211	0xbe722769	-0.23647846
212	0xc038ea63	-2.8893058
213	0xbecdc6ae	-0.40190643
214	0x3ba33fb6	0.00498196
215	0xc060a73f	-3.510208
216	0x3eac5bbe	0.33663744
217	0xbe377fb6	-0.17919812
218	0xbf465629	-0.7747522
219	0x3e4ba6eb	0.19887893
220	0xbfe36840	-1.776619
221	0x3db424d4	0.08796087
222	0x3fa97135	1.3237673
223	0x3e53244e	0.20619318
224	0xbdb68296	-0.08911626
225	0xbed94b7e	-0.42440408
226	0x3eea7907	0.45795462
227	0xbca36baf	-0.019948808
228	0x3f811135	1.0083376
229	0xc05b6483	-3.4280097
230	0x3d6f7324	0.058459416
231	0xbfce07cf	-1.6096133
232	0x3f2d33b6	0.6765703
233	0x3c13bd6b	0.009017329
234	0xbe66d0d9	-0.22540607
235	0xbd38afde	-0.045089595
236	0x3f19d918	0.60096884
237	0x3f155142	0.58327115
238	0x3dcee76c	0.10102734
239	0x3ee036d6	0.43791837
240	0xbef04829	-0.46930054
241	0x3faca7dc	1.3488727
242	0x3ef8a60d	0.48564187
243	0x3e0e9ec8	0.13927758
244	0x3ee493cd	0.44644013
245	0x3f5937ab	0.8485057
246	0xbbe4e8eb	-0.006985774
247	0x3e7bbc59	0.24583568
248	0xbfc32d9c	-1.5248294
249	0xbe8d7473	-0.27627906
250	0xbe0db9f0	-0.13840461
251	0x3f1e8721	0.6192494
252	0x3f92d1bf	1.147026
253	0x3ee5b92f	0.44867846
254	0xbf8e8ef1	-1.1137372
255	0xbec606fe	-0.3867721

net.2.bias f4 [128]
0	0x3ecfa6b1	0.40556863
1	0x3f195f8b	0.5991141
2	0x3c8a2e9f	0.016867934
3	0xbdcc9b89	-0.099906035
4	0x3ee646d9	0.44975927
5	0xbdc21bf4	-0.09477988
6	0x3c5d5eb6	0.01351135
7	0xbd9e4e72	-0.07729806
8	0x3f423869	0.75867325
9	0x3f0910b3	0.53541106
10	0xbc8a14a1	-0.01685554
11	0xbdc078d8	-0.09398049
12	0xbda96b91	-0.0827247
13	0x3f0af2b0	0.5427656
14	0xbdf8930d	-0.12137423
15	0xbc3fd288	-0.011707909
16	0xbe085ae7	-0.13315926
17	0x3f164abe	0.587078
18	0x3ed14c19	0.4087837
19	0xbc93e1a0	-0.018051922
20	0x3f04d545	0.51887923
21	0xbdaddc53	-0.08489289
22	0xbce13303	-0.027490145
23	0x3ee4a6e7	0.44658586
24	0x3ef15ba3	0.47140226
25	0xbdde717d	-0.1086149
26	0xbdd71509	-0.10502059
27	0xbc98f194	-0.01866988
28	0xbdc5e07f	-0.0966196
29	0x3f0f662c	0.56015277
30	0xbd936825	-0.07197598
31	0xbd5f648b	-0.054539245
32	0xbdc21ff3	-0.0947875
33	0x3e277f2d	0.16357107
34	0xbd8cf0d0	-0.06881869
35	0x3f0e1c62	0.5551206
36	0xbcb1c705	-0.021701345
37	0xbd8c0b79	-0.06838126
38	0x3efd4934	0.49469912
39	0xbdcb0bd0	-0.099143624
40	0x3f924435	1.1427065
41	0x3f112569	0.5669771
42	0xbda88f77	-0.08230489
43	0xbd88e2cd	-0.06683884
44	0x3f52ed94	0.82393765
45	0x3fe8a8c8	1.8176508
46	0xbb836e13	-0.0040109246
47	0xbd9304e6	-0.07178669
48	0xbd8f0385	-0.06983093
49	0x3f7c4006	0.9853519
50	0xbe154736	-0.14577946
51	0xbdef65eb	-0.11689361
52	0x3ea09a3e	0.31367677
53	0x3f372f33	0.71556395
54	0x3f467d8a	0.7753531
55	0xbdf94db9	-0.121730275
56	0xbe6e7a2b	-0.23288791
57	0x3cbf89bd	0.023381108
58	0xbd118a69	-0.03553239
59	0xbd64cc39	-0.055858824
60	0xbdd6e9d1	-0.10493816
61	0xbd8e08ea	-0.06935294
62	0xbc549e70	-0.012977228
63	0x3ef57c3b	0.47946343
64	0xbda7417a	-0.081667855
65	0xbf0a9bde	-0.54144084
66	0xbc80ea66	-0.01573677
67	0xbdc2537f	-0.09488582
68	0xbccddd47	-0.025129927
69	0xbdf531fc	-0.119724244
70	0x3f414dfb	0.75509614
71	0xbc90f173	-0.017693257
72	0xbcf1cdbb	-0.029517045
73	0xbc648795	-0.013948341
74	0x3f1d4439	0.61432225
75	0xbe8a7d33	-0.27048644
76	0x3d6b693c	0.057473406
77	0x3d260a3a	0.040537097
78	0x3e25841d	0.16163678
79	0x3f229f84	0.6352465
80	0xbcabb362	-0.02095956
81	0xbdba0405	-0.09082798
82	0x3fd1b56f	1.6383494
83	0xbc9ea966	-0.019367885
84	0xbdd07d54	-0.101801544
85	0x3fb698f2	1.4265425
86	0x3b3e6bee	0.002905603
87	0xbd3825fb	-0.044958096
88	0x3c5180af	0.012787028
89	0x3f02a9bb	0.5104024
90	0xbe77edc7	-0.24211799
91	0xbda35187	-0.079745345
92	0xbd39e97d	-0.045388687
93	0x3f34024d	0.7031601
94	0xbe59681b	-0.2123112
95	0x3c7a0fe3	0.015262577
96	0x3f113681	0.5672379
97	0x3eef0c1b	0.46688923
98	0x3f20418e	0.6260003
99	0xbd564fba	-0.052322127
100	0x3ca8b18c	0.020592473
101	0x3e711ef2	0.23546961
102	0x3f1468d4	0.57972455
103	0x3ec5c69d	0.38628092
104	0x3ea4ad2e	0.32163376
105	0xbe0c6ee0	-0.1371417
106	0x3f13bbf0	0.57708645
107	0x3f5cee10	0.86300755
108	0xbdf9aee3	-0.1219156
109	0xbe1c8b31	-0.15287472
110	0xbc768fe2	-0.015048953
111	0x3ee513a8	0.4474156
112	0xbdedd63d	-0.11613128
113	0x3e810b74	0.2520405
114	0x3efda10b	0.4953693
115	0xbdef7dd6	-0.11693923
116	0x3f3c4add	0.7355173
117	0x3e86a152	0.26294953
118	0x3dba87e3	0.091079496
119	0x3cd0e2d9	0.025498794
120	0xbc68ba95	-0.014204641
121	0xbddd0bfa	-0.107933
122	0x3f06375a	0.5242821
123	0xbc27428d	-0.010208738
124	0xbdee8de1	-0.11648155
125	0xbb711d5d	-0.0036791184
126	0x3bfe4ea0	0.0077608377
127	0x3c08b326	0.008343494
