checkpoints3/team1_agent_3.pt (torch, 411297 bytes, 24 tensors)

net.0.weight f4 [128, 53]
0.5890657 0.49789944 0.18165548 0.3954196 0.53323025 -0.03710041 -0.017100379 -0.10385393
0.055659827 -0.12821616 -0.29531538 -0.26946157 -0.24557221 -0.257831 0.07563118 -0.03936281
-0.08553865 0.061445415 -0.55197734 0.011589391 0.44255272 0.15712379 0.07869214 -0.057955917
0.16971542 0.03886382 -0.13988657 0.13213281 -0.3490386 0.18388516 0.66164476 -0.025626218
0.3059341 -0.27138445 0.26426208 0.4271246 0.58682346 0.21785487 0.106580354 -0.05324623
0.43143255 0.30876857 0.28294912 -0.0064634527 -0.09257022 -0.23731853 0.61669594 -0.553226
0.12074762 0.6583697 0.25345936 0.3673521 0.23130044 0.01524015 -0.1842673 -0.048114885
0.09634006 0.06544185 0.15589215 -0.058649894 0.09317923 0.10542873 0.024730667 0.020347606
0.04354103 -0.15084812 -0.07709024 -0.0071826577 -0.03513079 -0.06344758 0.06413688 -0.09727347
-0.11016725 -0.11691963 0.05268725 0.08957555 0.12941031 0.04959087 0.0764736 0.043704655
-0.15040764 -0.0747704 0.1126277 0.094572574 0.059151918 -0.096336015 -0.037833292 0.109505236
-0.07552465 0.05358202 0.013952098 0.02015333 0.050841317 -0.05756454 -0.1913646 -0.03129148
0.07854155 -0.065745965 -0.06126733 -0.113920644 0.13809569 -0.0023462765 -0.13277204 -0.09384969
0.010701452 -0.037537746 0.109854676 0.13329537 -1.3974115 -0.037665088 0.19476163 0.26183563
0.40463248 0.78435886 0.24302244 -0.10012533 -0.47300687 -0.27907798 -2.8490262 -0.0831305
-1.0368363 -0.3055138 0.49203104 -0.23430942 0.3534859 0.028902633 0.6749954 0.25932002
0.109236754 0.5390502 -0.35585237 -0.27242774 0.23349932 -0.71123713 -0.75615966 -1.2868155
-0.81063074 0.4828197 -0.39058986 0.47267717 0.79175705 1.4144539 -0.41331175 0.33680546
-0.14233698 -1.8183593 -0.30389166 1.0593618 -1.0394446 2.080346 -1.3388454 2.6379788
0.3922955 -0.17188989 0.28835064 0.60945636 0.31150907 0.1597848 -1.150724 0.11842885
0.1859997 -0.05391198 0.4648685 -0.036204748 -0.6111672 0.4669321 0.2508022 0.0023674397
0.10456298 -0.08357367 -0.67012525 -0.11913343 -0.2524399 -0.6600813 -1.7696906 0.40078837
-1.3337783 0.91866726 -0.79842424 0.18300699 0.4722689 -0.04773969 -0.14686477 0.1681123
-0.5053522 -0.051523928 -0.06305555 0.7484805 -0.24887608 0.6937213 -0.99280566 0.25824898
-0.4953907 0.46058115 -0.47797465 -0.028184453 0.1198796 -0.73469555 0.718004 -0.4505997
0.18116361 -1.3822026 -0.5587818 -1.8631549 -1.4016743 0.02740339 -0.3556511 -0.15122819
-0.004815609 -0.2912721 0.78652257 -0.54184014 0.026022071 0.33206728 -0.15909733 -0.22580071
0.3721706 0.2806862 0.24740635 0.070861496 -0.3773287 0.023710951 0.85144615 1.1109846
-0.3475845 0.33097446 0.08208598 0.84815586 -0.46442974 -2.2385523 0.29841468 -1.8797953
0.24993876 0.3740575 0.29713476 -0.37127015 0.46649697 -1.5570471 1.4102851 -0.012493093
1.3210242 -0.15882014 0.09993829 0.19552277 1.044497 0.28668475 -0.22784752 -0.0051382813
-1.6254169 -0.14775367 -0.7615699 -0.0529577 -0.33162266 0.38169745 -0.713992 0.09577187
00000000: 02cd 163f adec fe3e e503 3a3e 7074 ca3e
00000010: c781 083f 99f6 17bd 1816 8cbc 5fb1 d4bd
00000020: 8ffb 633d 194b 03be 9433 97be def6 89be
00000030: 4877 7bbe 6d02 84be 85e4 9a3d e63a 21bd
00000040: e32e afbd 30ae 7b3d 634e 0dbf 6ee1 3d3c
00000050: 4596 e23e 0fe5 203e 5829 a13d 2f63 6dbd
00000060: e1c9 2d3e ab2f 1f3d 6d3e 0fbe d34d 073e
00000070: 30b5 b2be 644c 3c3e 8d61 293f 13ee d1bc
00000080: 65a3 9c3e e7f2 8abe 5c4d 873e 13b0 da3e
00000090: 103a 163f 5915 5f3e cd46 da3d b818 5abd
000000a0: bae4 dc3e ea16 9e3e b5de 903e 5fcb d3bb
000000b0: 7595 bdbd a103 73be c9df 1d3f 38a0 0dbf
000000c0: 874a f73d eb8a 283f 6dc5 813e 9315 bc3e
000000d0: 06da 6c3e d2b1 793c 91b0 3cbe 1d14 45bd
000000e0: f04d c53d 6006 863d 31a2 1f3e df3a 70bd
000000f0: c1d4 be3d 05eb d73d f897 ca3c 06b0 a63c
00000100: 1458 323d ee77 1abe 7de1 9dbd 805c ebbb
00000110: 4ee5 0fbd cef0 81bd 325a 833d 5037 c7bd
00000120: 5e9f e1bd 8f73 efbd 96ce 573d 6373 b73d
00000130: 2384 043e cc1f 4b3d 319e 9c3d a703 333d
00000140: 7604 1abe 3921 99bd 5aa9 e63d 44af c13d
00000150: 4849 723d d14b c5bd 15f7 1abd 4844 e03d
00000160: abac 9abd d278 5b3d 5797 643c 9918 a53c
00000170: fc3e 503d ccc8 6bbd 15f5 43be 7f2b 00bd
00000180: 64da a03d d2a5 86bd 74f3 7abd 3a4f e9bd
00000190: f568 0d3e fdc3 19bb 65f5 07be 4434 c0bd
000001a0: 2555 2f3c 2ec1 19bd 7dfb e03d 957e 083e
000001b0: 61de b2bf b546 1abd 986f 473e 520f 863e
000001c0: fd2b cf3e becb 483f e0da 783e 820e cdbd
000001d0: f52d f2be 4fe3 8ebe 7256 36c0 5340 aabd
000001e0: 0db7 84bf 4e6c 9cbe 7eeb fb3e cfee 6fbe
000001f0: 1bfc b43e 37c5 ec3c 80cc 2c3f 98c5 843e
00000200: 85b7 df3d 32ff 093f 4832 b6be a67b 8bbe
00000210: 721a 6f3e a313 36bf ae93 41bf 5fb6 a4bf
00000220: 7f85 4fbf 2534 f73e 65fb c7be be02 f23e
00000230: 97b0 4a3f d30c b53f 999d d3be c471 ac3e
00000240: c9c0 11be ffbf e8bf b097 9bbe 2b99 873f
00000250: 850c 85bf 6424 0540 495f abbf a5d4 2840
00000260: f5da c83e e703 30be b2a2 933e 5505 1c3f
00000270: 1e7e 9f3e a09e 233e ed4a 93bf d38a f23d
00000280: b576 3e3e cfd2 5cbd 3e03 ee3e 6e4b 14bd
00000290: 7475 1cbf b911 ef3e 2569 803e 0c27 1b3b
000002a0: 1e25 d63d ac28 abbd 548d 2bbf 3afc f3bd
000002b0: cd3f 81be 17fb 28bf 3985 e2bf 2234 cd3e
000002c0: 3fb9 aabf c72d 6b3f 8865 4cbf 2f66 3b3e
000002d0: 3bcd f13e b18a 43bd b863 16be a125 2c3e
000002e0: c35e 01bf c10a 53bd 4523 81bd 6b9c 3f3f
000002f0: 5fd9 7ebe b897 313f 8328 7ebf 3639 843e
00000300: daa3 fdbe 4bd1 eb3e 18b9 f4be 15e3 e6bc
00000310: 7083 f53d 0215 3cbf 1ccf 373f 01b5 e6be
00000320: f482 393e 04ec b0bf 530c 0fbf dc7b eebf
00000330: 106a b3bf 137d e03c e717 b6be 90db 1abe
00000340: 42cc 9dbb 9e21 95be 8b59 493f 09b6 0abf
00000350: 3d2c d53c b904 aa3e 69ea 22be 4d38 67be
00000360: 258d be3e 1ab6 8f3e 1758 7d3e d51f 913d
00000370: 3a31 c1be 783d c23c 60f8 593f be34 8e3f
00000380: 98f6 b1be 7c75 a93e b21c a83d be20 593f
00000390: bcc9 edbe 7144 0fc0 cfc9 983e 229d f0bf
000003a0: f2ef 7f3e 7784 bf3e 0c22 983e 1f17 bebe
000003b0: b1d8 ee3e 524d c7bf 3984 b43f d4af 4cbc
000003c0: 5217 a93f bfa1 22be 72ac cc3d 1f37 483e
000003d0: 14b2 853f 58c8 923e dc50 69be 075f a8bb
000003e0: a90d d0bf bd4c 17be 3ff6 42bf 2cea 58bd
000003f0: 72ca a9be d96d c33e 2ec8 36bf 0b24 c43d

net.0.bias f4 [128]
0.6514418 -0.073176056 0.32387742 0.015553554 0.41194528 0.23733748 -0.0596771 0.48412642
0.042057596 0.13982648 -0.006351533 0.6096765 -0.012881298 -0.022806253 0.37061217 0.4373198
-0.2613181 0.26102543 -0.08001836 0.13199654 0.22084817 -0.17745924 -0.07706234 -0.18609957
-0.38503408 0.22348651 -0.05686291 -0.05532439 -0.093281485 0.107988015 0.5557946 -0.1248239
0.34913865 -0.01992597 -0.049811628 -0.14780971 0.09340187 0.28607115 0.4557791 -0.6528573
0.13240261 0.24324626 -0.043240655 -0.16688639 -0.110559694 0.09230733 -0.09171199 0.40151072
0.62974656 -0.10966739 0.17294696 -0.23929268 0.24857146 -0.5676527 0.3536159 0.4891762
0.2904444 -0.15300632 0.35842296 0.0034585444 -0.19492449 -0.07377799 -0.17189218 0.54286826
0.1400591 0.69282746 0.08892301 -0.13030642 -0.16123024 -0.121429704 -0.3893147 -0.20986232
0.3442222 0.043661617 0.6513659 0.16769065 0.46893454 0.1020151 -0.33973238 0.582204
0.06707162 0.017130872 -0.19895166 0.21965544 0.40203804 -0.18113679 0.049616832 0.10836767
-0.1068717 -0.122803934 0.13936493 0.3382942 -0.074095875 0.37453994 0.14478666 0.052275438
0.049471833 0.23581246 0.42242107 -0.10443792 0.0956322 -0.16232452 0.035166133 -0.10704246
0.30875984 0.12261612 -0.24537277 -0.19699362 -0.25891736 -0.3257454 -0.050515357 -0.2414633
-0.16222319 -0.087133065 -0.06103646 0.33282617 0.22477363 0.15791841 -0.19328503 0.6463457
0.140944 0.018237134 -0.7503663 0.42870176 0.047795936 -0.58844316 0.08079421 -0.29400712
00000000: e4c4 263f 54dd 95bd 43d3 a53e 55d4 7e3c
00000010: 7eea d23e 9908 733e fa6f 74bd 6bdf f73e
00000020: 9644 2c3d ac2e 0f3e 8520 d0bb c213 1c3f
00000030: 140c 53bc 2ed4 babc e1c0 bd3e 61e8 df3e
00000040: 7ccb 85be 20a5 853e aae0 a3bd 1a2a 073e
00000050: 0626 623e e0b7 35be dcd2 9dbd e390 3ebe
00000060: 3023 c5be a6d9 643e 15e9 68bd d49b 62bd
00000070: 5d0a bfbd d228 dd3d 8e48 0e3f aca3 ffbd
00000080: 4dc2 b23e ca3b a3bc 4707 4cbd 6e5b 17be
00000090: 7b49 bf3d eb77 923e e15b e93e a821 27bf
000000a0: 8d94 073e 8c15 793e 1d1d 31bd 44e4 2abe
000000b0: 1f6d e2bd a00b bd3d 7fd3 bbbd d092 cd3e
000000c0: 1237 213f 4c99 e0bd 0219 313e 2409 75be
000000d0: 8489 7e3e b051 11bf 250d b53e 4e75 fa3e
000000e0: 21b5 943e b0ad 1cbe 3783 b73e bfa8 623b
000000f0: 499a 47be ea18 97bd 8104 30be 6af9 0a3f
00000100: a76b 0f3e 245d 313f 441d b63d 0c6f 05be
00000110: 8a19 25be 23b0 f8bd 4254 c7be 26e6 56be
00000120: e43d b03e 86d6 323d eabf 263f 19b7 2b3e
00000130: 3018 f03e 4bed d03d 67f1 adbe 520b 153f
00000140: d85c 893d 0b56 8c3c fcb9 4bbe 5bed 603e
00000150: eed7 cd3e ec7b 39be 053b 4b3d deef dd3d
00000160: 8ddf dabd a180 fbbd aeb5 0e3e e634 ad3e
00000170: 94bf 97bd b3c3 bf3e f442 143e c51e 563d
00000180: faa2 4a3d d278 713e 9347 d83e 8ce3 d5bd
00000190: d1da c33d 6638 26be 5d0a 103d 1439 dbbd
000001a0: c515 9e3e 291e fb3d 0043 7bbe b2b8 49be
000001b0: d190 84be 1ac8 a6be 31e9 4ebd 2842 77be
000001c0: d61d 26be d272 b2bd 5e01 7abd 3168 aa3e
000001d0: 0f2b 663e 5db5 213e 83ec 45be e976 253f
000001e0: a053 103e 0b66 953c 0118 40bf cc7e db3e
000001f0: acc5 433d 36a4 16bf 6f77 a53d 1a88 96be

net.2.weight f4 [128, 128]
0.16398805 0.13772897 -2.6636748 -0.9959898 -0.56898355 -0.029332422 0.7558559 0.39856142
1.1824414 0.97231007 -1.2721901 0.2400171 -0.06426495 -0.40806594 -0.7206347 -0.09755573
-1.5100754 0.31297103 -0.024710169 -0.116028614 0.99935097 -0.0016617534 -0.034816943 -1.2948717
-0.7760585 -0.32886925 -1.1600405 1.0459002 -0.22406273 -1.7729188 0.22652352 -0.031381782
0.6082422 -0.57251585 0.06679719 -1.3382331 -1.9022841 0.6227105 -0.2496298 -2.0311525
-0.12126594 0.44651076 -0.05198684 -3.7494335 0.023944769 0.046104252 0.004228525 0.25301436
-0.29358336 1.3535346 -0.34049153 -1.0085677 -0.4477095 -0.16173497 0.9272599 0.076302156
0.0003939332 -0.07733802 0.42278826 -0.69750565 -0.30102044 0.07140305 0.6039763 1.0355657
-0.73913836 0.20178871 0.08287247 -0.6836486 -0.038986348 -0.45817932 -2.0131955 -1.1563053
0.53728426 -0.17154978 0.23248698 0.06946939 0.3535057 -1.3712337 0.2630361 0.5203342
0.023377242 -1.4452543 -0.07573962 0.44425148 0.094061956 -0.70515877 -0.997236 0.5541584
-0.07258722 0.0030555169 0.40653917 -0.16590773 0.6181207 -0.8167353 0.63225216 -2.1163015
-1.7278895 -0.6417469 0.3227575 1.2309527 0.715548 0.023980854 -1.086835 0.005284363
0.7971589 0.42980307 -0.04472093 -0.04217384 -0.84364927 -2.4248233 -0.79935986 -0.0036769065
0.8801218 0.037108555 -0.8479264 -0.6885676 2.222131 0.14840369 0.005975572 0.7021008
-0.14967099 -1.7520368 0.28099853 -0.5526311 -0.32378364 0.98487055 0.9523763 -0.14143136
-0.032058686 -0.060209375 -0.008328704 -0.026437104 0.035804357 -0.07522946 0.036895882 0.05782702
-0.03815098 -0.05058261 -0.03402251 0.006827966 -0.031223334 -0.08975803 -0.108582996 -0.022392884
-0.07484673 -0.042560518 0.07919491 0.05667893 -0.073616855 -0.08189012 0.0043591782 -0.057655573
-0.05485307 -0.002325416 -0.022364086 -0.004428896 0.076571144 0.019247055 0.04371377 -0.0626519
-0.026582185 -0.081884444 -0.08314562 0.02265998 -0.061123908 0.07114134 0.027577203 -0.037147358
0.0056567793 -0.07465905 0.066215836 -0.04685443 -0.02387327 0.017064996 0.07356011 -0.020089556
0.04918222 0.06313529 -0.044847213 -0.08807464 0.076212294 -0.08475318 -0.09380106 -0.10755035
-0.107710086 -0.042455595 0.045964263 -0.021644026 -0.052450825 -0.03148185 0.026531719 -0.06152287
0.07492068 -0.10392026 0.016055413 0.014083043 0.013693765 0.047315143 0.06200307 -0.06643529
-0.093473546 0.0049499064 -0.11648897 0.032992944 -0.062250912 -0.07025919 -0.030207053 -0.06666206
-0.050681747 -0.005083764 0.045015387 -0.11616737 -0.011634283 -0.06073565 -0.060801886 0.031648345
0.052353702 0.042171992 -0.119845495 -0.070793495 -0.0713076 -0.018412307 0.06345255 -0.11239896
-0.039723713 -0.030094262 0.01210232 0.03235197 0.048440315 0.017790563 0.019423768 -0.08213918
0.0007422487 -0.0669442 -0.024368927 0.059947796 -0.07509436 -0.07685448 0.02580268 -0.05019643
-0.01647117 -0.076875806 0.018235886 0.027328575 -0.059738807 -0.0036278963 0.061216272 0.018323075
-0.06756069 -0.020222563 -0.06528177 0.041172154 0.0078203445 -0.07669914 -0.008440241 0.050341643
00000000: 7cec 273e d308 0d3e a679 2ac0 30f9 7ebf
00000010: e8a8 11bf 8c4a f0bc c67f 413f 3e10 cc3e
00000020: 3d5a 973f 50e9 783f 20d7 a2bf 0bc7 753e
00000030: 589d 83bd 05ee d0be 847b 38bf 4ccb c7bd
00000040: 274a c1bf bd3d a03e fb6c cabc 69a0 edbd
00000050: 77d5 7f3f 31cf d9ba 369c 0ebd 5bbe a5bf
00000060: c5ab 46bf 8d61 a8be 357c 94bf 0fe0 853f
00000070: b370 65be 01ef e2bf c8f5 673e 2f8a 00bd
00000080: c3b5 1b3f 6690 12bf f7cc 883d 394b abbf
00000090: 0c7e f3bf f569 1f3f f49e 7fbe 67fe 01c0
000000a0: 475a f8bd 0f9d e43e 27f0 54bd b8f6 6fc0
000000b0: d227 c43c d0d7 3c3d 708f 8a3b 198b 813e
000000c0: 8f50 96be 9f40 ad3f e854 aebe bf18 81bf
000000d0: 2e3a e5be da9d 25be e860 6d3f 4e44 9c3d
000000e0: d288 ce39 6563 9ebd b477 d83e bb8f 32bf
000000f0: 5a1f 9abe c33b 923d 319e 1a3f 6b8d 843f
00000100: 2c38 3dbf b3a1 4e3e 0bb9 a93d 9803 2fbf
00000110: 26b0 1fbd 7b96 eabe 32d8 00c0 d001 94bf
00000120: 768b 093f bfaa 2fbe 1111 6e3e f845 8e3d
00000130: b3fe b43e 9684 afbf abac 863e 9f34 053f
00000140: a181 bf3c 18fe b8bf 601d 9bbd ee74 e33e
00000150: 8ea3 c03d 4985 34bf dc4a 7fbf 53dd 0d3f
00000160: 9ca8 94bd 113f 483b e725 d03e b7e3 29be
00000170: 283d 1e3f 9115 51bf 47db 213f 7c71 07c0
00000180: 7c2b ddbf 8649 24bf 7940 a53e dc8f 9d3f
00000190: 272e 373f 7f73 c43c 691d 8bbf 7328 ad3b
000001a0: 9b12 4c3f 260f dc3e 4b2d 37bd 7abe 2cbd
000001b0: 66f9 57bf 4e30 1bc0 d9a2 4cbf 41f8 70bb
000001c0: aa4f 613f 24ff 173d b411 59bf f745 30bf
000001d0: 6537 0e40 23f7 173e bbce c33b e1bc 333f
000001e0: 5a43 19be be42 e0bf 0adf 8f3e 3b79 0dbf
000001f0: f8c6 a5be 7a20 7c3f efce 733f 62d3 10be
00000200: f84f 03bd 1b9e 76bd 1e75 08bc a092 d8bc
00000210: 97a7 123d e711 9abd 2320 173d 06dc 6c3d
00000220: 3444 1cbd b62f 4fbd 305b 0bbd 21bd df3b
00000230: 14c8 ffbc 0fd3 b7bd c360 debd 4871 b7bc
00000240: 3e49 99bd f053 2ebd f130 a23d 2a28 683d
00000250: 6fc4 96bd 02b6 a7bd 70d7 8e3b 4028 6cbd
00000260: 9dad 60bd 0266 18bb e334 b7bc 4620 91bb
00000270: 55d1 9c3d 00ac 9d3c 360d 333d a44f 80bd
00000280: e2c2 d9bc 08b3 a7bd 4048 aabd 6ca1 b93c
00000290: 105d 7abd 8db2 913d 96e9 e13c d427 18bd
000002a0: 815c b93b d8e6 98bd 2b9c 873d 6eea 3fbd
000002b0: e091 c3bc e4cb 8b3c afa6 963d da92 a4bc
000002c0: 4c73 493d 134d 813d b6b1 37bd 7a60 b4bd
000002d0: 3115 9c3d 1393 adbd c51a c0bd 5c43 dcbd
000002e0: 1b97 dcbd ebe5 2dbd 0645 3c3d d04e b1bc
000002f0: add6 56bd 1df3 00bd 0c59 d93c 68ff 7bbd
00000300: 0370 993d 25d4 d4bd a486 833c 90bc 663c
00000310: d05b 603c 86cd 413d eef6 7d3d 3a0f 88bd
00000320: 0f6f bfbd d332 a23b c591 eebd 9c23 073d
00000330: d0fa 7ebd 0de4 8fbd c874 f7bc 1e86 88bd
00000340: aa97 4fbd b495 a6bb 0e62 383d 28e9 edbd
00000350: b89d 3ebc f2c5 78bd 660b 79bd b2a1 013d
00000360: d670 563d 8abc 2c3d 8e71 f5bd 2efc 90bd
00000370: b809 92bd 68d5 96bc 69f3 813d 6d31 e6bd
00000380: 55b5 22bd 3e88 f6bc cf48 463c 8083 043d
00000390: 5a69 463d 84bd 913c 981e 9f3c 9638 a8bd
000003a0: 7893 423a 0a1a 89bd 58a1 c7bc d28b 753d
000003b0: 12cb 99bd e265 9dbd 2460 d33c c69a 4dbd
000003c0: 8cee 86bc 1071 9dbd 6d63 953c 2de0 df3c
000003d0: aeb0 74bd 00c2 6dbb eabd 7a3d 461a 963c
000003e0: 425d 8abd caa9 a5bc 73b2 85bd 22a4 283d
000003f0: e720 003c 7014 9dbd f048 0abc 0a33 4e3d

net.2.bias f4 [128]
0.7126851 -0.1145422 -0.10670713 -0.13952191 0.14107735 -0.115044735 0.0075983456 0.75764453
0.95707667 1.0160259 -0.048202083 0.7759136 -0.21090463 1.1839459 -0.06094779 0.80698365
0.025818098 0.5698282 0.32381192 0.9780135 0.74395984 -0.13937081 -0.04023521 -0.024501335
0.0015476266 1.0141627 0.67534393 0.5783736 0.5456245 -0.096928485 0.8888455 0.7449492
0.6130504 -0.10857643 -0.112754695 -0.03346072 -0.010318673 0.1154066 0.29927465 -0.09130617
1.1613072 0.7014073 1.2934217 0.41236293 0.6794856 1.3913348 1.3898803 1.1302253
1.1440742 -0.038143646 0.7320441 0.9102012 -0.12535407 -0.040177453 1.2478446 -0.14109053
0.48737794 0.6854584 -0.03119053 0.837943 0.8377857 1.0821968 0.9522154 1.0406554
-0.032378625 0.026720386 -0.07459859 -0.08821946 -0.53643197 -0.4971993 -0.12671082 -0.12567593
0.95565504 0.9142174 0.67469496 0.95219046 0.6581788 0.72954977 0.7375945 -0.086524434
-0.107813194 -0.10759852 -0.10714964 -0.053016707 -0.0833689 -0.11397676 -0.05686487 0.82110614
-0.050518844 -0.027869033 0.48172173 0.8135801 0.7169832 0.6126159 -0.024120571 1.107273
1.7003499 0.44049358 -0.09842582 1.1042926 0.8314004 0.4537574 1.2691967 0.59432566
1.3082244 -0.31670293 1.3193015 -0.023224916 -0.05131525 0.3093972 0.4887812 -0.096857674
1.2611635 -0.030103844 -0.13002138 0.4666169 -0.14616299 1.0569521 -0.1171686 1.2017859
0.65815806 -0.009673587 -0.17430304 0.72859746 -0.086168125 0.43235645 0.022201728 0.9463723
00000000: 8872 363f 1a95 eabd 4589 dabd d5de 0ebe
00000010: 9576 103e 939c ebbd 8bfb f83b fef4 413f
00000020: fa02 753f 230d 823f 8c6f 45bd 46a2 463f
00000030: 62f7 57be 8a8b 973f 64a4 79bd 7b96 4e3f
00000040: 7a80 d33c 43e0 113f adca a53e 185f 7a3f
00000050: 2774 3e3f 39b7 0ebe adcd 24bd 06b7 c8bc
00000060: bbd9 ca3a 15d0 813f 57e3 2c3f 4b10 143f
00000070: 0cae 0b3f 7182 c6bd 618b 633f feb4 3e3f
00000080: dff0 1c3f 525d debd efeb e6bd 1c0e 09bd
00000090: a70f 29bc 4c5a ec3d 873a 993e bbfe babd
000000a0: b7a5 943f 6e8f 333f d88e a53f 3c21 d33e
000000b0: c5f2 2d3f 4217 b23f 99e7 b13f 39ab 903f
000000c0: 0671 923f 833c 1cbd 3e67 3b3f f202 693f
000000d0: d15c 00be 1d91 24bd 5fb9 9f3f 097a 10be
000000e0: 9a89 f93e 347a 2f3f 4883 ffbc 6f83 563f
000000f0: 2079 563f 6d85 8a3f 63c4 733f 3234 853f
00000100: 739f 04bd b6e4 da3c 25c7 98bd 67ac b4bd
00000110: 9b53 09bf e890 febe 7bc0 01be 31b1 00be
00000120: cfa5 743f 270a 6a3f cfb8 2c3f c1c2 733f
00000130: 687e 283f c6c3 3a3f fed2 3c3f b933 b1bd
00000140: 2acd dcbd 9d5c dcbd 4571 dbbd 0c28 59bd
00000150: 50bd aabd a66c e9bd 23eb 68bd 0334 523f
00000160: d9ec 4ebd 994d e4bc 3ba4 f63e c946 503f
00000170: 368c 373f 65d4 1c3f 8198 c5bc 1fbb 8d3f
00000180: 11a5 d93f 6088 e13e 7a93 c9bd 7659 8d3f
00000190: a8d6 543f e452 e83e 0a75 a23f ba25 183f
000001a0: e673 a73f e326 a2be dfde a83f 2e42 bebc
000001b0: f12f 52bd 4f69 9e3e 8841 fa3e 515d c6bd
000001c0: ce6d a13f 569c f6bc 5324 05be 69e8 ee3e
000001d0: c0ab 15be 354a 873f 17f6 efbd 1fd4 993f
000001e0: 0c7d 283f f77d 1ebc 7f7c 32be 5d85 3a3f
000001f0: ea78 b0bd d35d dd3e 66e0 b53c 7445 723f

net.4.weight f4 [13, 128]
1.3001292 0.07787102 -0.068492 0.018363342 0.89987236 0.11981712 -0.062715575 3.2302308
2.8908763 0.8018448 0.07026579 1.8167381 1.417666 0.42363396 -0.020566333 3.4210749
0.100867786 1.5222185 2.6766236 2.7271347 0.7578573 0.06525942 0.0024856983 -0.044368
0.010254739 0.5008232 2.4007149 1.9784175 2.211337 -0.01809658 1.037834 1.9342526
2.1237993 0.054067455 0.08067898 0.052128483 1.1990403 2.081957 1.2991709 -0.07595566
0.38087702 2.0004046 0.46171796 2.0126455 3.3537264 0.44032237 0.47984785 0.42660618
0.33773845 -0.07959417 1.3066062 0.42077354 1.2683644 0.04882913 0.42824456 1.5057286
1.7576338 2.718114 -0.012815988 0.22204135 1.9685692 1.7212651 2.011006 1.5774208
0.030996397 -0.029710153 0.05394263 -0.07602817 0.024492508 1.5008949 -0.080471344 0.044207055
1.05405 1.6003819 3.0577056 1.8655453 1.6910404 2.967234 2.7836843 1.0690706
-0.070630096 0.0034627095 0.08043324 -0.07658149 0.087261625 0.041048404 -0.042988922 1.273383
-0.014255919 0.02484456 0.97861004 3.2783477 1.8936099 2.025652 0.19348986 0.32594028
0.85054225 1.4853226 -0.005428374 0.52875036 2.3812718 1.5467325 0.596879 2.8668928
0.41167977 0.1042215 0.54098815 -0.057279125 -0.066755034 1.1204183 1.326967 0.020485923
0.39680132 -0.018032106 -0.08619903 1.6315336 -0.029496247 0.42629376 -0.035076514 0.3732859
0.9675116 0.061632812 0.4350723 1.5774759 -0.010132662 2.1138015 -0.03148931 0.7829424
1.2537383 0.043388225 -0.077264406 -0.02967485 0.9914318 -0.0046392893 0.036806792 2.7872999
3.4016035 0.83651125 -0.04970089 1.9198743 1.5372633 0.3567144 -0.045093413 2.9960957
0.0875328 1.5836943 3.2671847 2.9564278 1.3516992 0.073644124 0.061457403 0.029003315
0.05271273 0.29762158 2.3570342 1.8283911 2.673613 0.057198662 0.75831157 1.9874812
2.665368 0.03547059 -0.056827623 0.07398473 0.6918147 1.9681516 1.0740974 0.025015844
0.52082217 1.5317359 0.47685915 2.2012644 1.2084614 0.5559735 0.4733348 0.4357735
0.46148637 0.032483302 1.1399387 0.8138373 1.164281 -0.014448387 0.46073514 1.3862455
1.515101 2.4159315 0.004422427 1.0099043 2.0556543 2.0197613 1.3591272 1.4653763
0.023984453 0.06633923 -0.042241387 -0.038468312 0.98805135 1.187414 0.033124022 0.066784136
1.0872018 1.5714519 3.072649 1.9026513 1.8949281 2.5333242 2.9121723 1.137457
0.090905376 -0.0186188 0.06186608 0.030023154 -0.02673046 -0.03179005 -0.017517582 1.1845793
0.0028402878 0.06608622 1.0314486 2.641843 2.001429 2.3696628 0.010356363 0.4817749
0.7704418 2.3113236 0.009675249 0.38427866 1.830652 1.5337476 0.4713381 2.5198464
0.46773377 0.11018307 0.39138547 -0.015549654 4.081477e-05 2.1992776 1.231374 0.10320902
0.44987085 0.07436205 -0.03123857 1.7685724 -0.022868674 0.20507802 -0.031516887 0.48971477
1.6020721 -0.048233893 1.0243986 1.4880488 -0.015992975 1.8413516 -0.07037381 0.21153487
00000000: a26a a63f d77a 9f3d 8945 8cbd b86e 963c
00000010: 095e 663f ae62 f53d 0671 80bd 1abc 4e40
00000020: 1e04 3940 b345 4d3f 83e7 8f3d e08a e83f
00000030: 1476 b53f 8de6 d83e ba7a a8bc e4f2 5a40
00000040: c593 ce3d 0ed8 c23f cd4d 2b40 6089 2e40
00000050: f002 423f bba6 853d 19e7 223b 38bb 35bd
00000060: 7e03 283c f335 003f 50a5 1940 c93c fd3f
00000070: 8c86 0d40 473f 94bc bfd7 843f 9795 f73f
00000080: 54ec 0740 d675 5d3d 053b a53d ad84 553d
00000090: 277a 993f c93e 0540 3b4b a63f a48e 9bbd
000000a0: 5002 c33e a106 0040 4c66 ec3e 2fcf 0040
000000b0: 74a3 5640 ef71 e13e 9eae f53e 206c da3e
000000c0: 0eec ac3e 4502 a3bd df3e a73f a16f d73e
000000d0: c459 a23f 0e01 483d df42 db3e b7bb c03f
000000e0: 25fa e03f 94f5 2d40 26fa 51bc cf5e 633e
000000f0: 13fa fb3f 6a52 dc3f 53b4 0040 ede8 c93f
00000100: 28ec fd3c b562 f3bc f2f2 5c3d a8b4 9bbd
00000110: 83a4 c83c 531d c03f 29ce a4bd 7512 353d
00000120: 1ceb 863f 50d9 cc3f 73b1 4340 30ca ee3f
00000130: 0374 d83f 29e7 3d40 e227 3240 4ed7 883f
00000140: 83a6 90bd a0ee 623b 2fba a43d c2d6 9cbd
00000150: 39b6 b23d 5f22 283d 2715 30bd 37fe a23f
00000160: a891 69bc d286 cb3c 3086 7a3f 73d0 5140
00000170: cf61 f23f 48a4 0140 3522 463e a5e1 a63e
00000180: 23bd 593f 0d1f be3f 80e0 b1bb 2f5c 073f
00000190: c266 1840 55fb c53f 10cd 183f 2c7b 3740
000001a0: b1c7 d23e 1572 d53d 337e 0a3f 849d 6abd
000001b0: ddb6 88bd de69 8f3f 0eda a93f 18d2 a73c
000001c0: 8b29 cb3e 11b8 93bc 1e89 b0bd 18d6 d03f
000001d0: 1da2 f1bc 2d43 da3e 64ac 0fbd 541f bf3e
000001e0: d7ae 773f b072 7c3d ccc1 de3e bbea c93f
000001f0: 7703 26bc 8648 0740 effa 00bd ea6e 483f
00000200: 7f7a a03f dab7 313d cd3c 9ebd ac18 f3bc
00000210: 79ce 7d3f 2e05 98bb b8c2 163d 1f63 3240
00000220: dfb3 5940 9a25 563f 2993 4bbd 71be f53f
00000230: 0bc5 c43f 45a3 b63e dfb3 38bd 08c0 3f40
00000240: 6644 b33d 7fb6 ca3f 8e19 5140 1d36 3d40
00000250: 7b04 ad3f bbd2 963d c2ba 7b3d 5c98 ed3c
00000260: 4ee9 573d db61 983e a6d9 1640 b808 ea3f
00000270: 7a1c 2b40 2549 6a3d b520 423f c965 fe3f
00000280: 6495 2a40 9c49 113d 15c4 68bd 4e85 973d
00000290: c51a 313f 64ec fb3f 067c 893f 07ee cc3c
000002a0: 9a54 053f ec0f c43f e226 f43e 84e1 0c40
000002b0: ddae 9a3f 4754 0e3f f058 f23e b41d df3e
000002c0: f147 ec3e 360d 053d 83e9 913f a457 503f
000002d0: 2907 953f edb8 6cbc 7ae5 eb3e 7e70 b13f
000002e0: d4ee c13f 9f9e 1a40 02ea 903b 8b44 813f
000002f0: d78f 0340 c543 0140 e1f7 ad3f 7391 bb3f
00000300: 0b7b c43c dddc 873d 4e05 2dbd f390 1dbd
00000310: eff0 7c3f 2ffd 973f 0ead 073d 1fc6 883d
00000320: 6e29 8b3f 5625 c93f 48a6 4440 148a f33f
00000330: 018d f23f fc21 2240 0861 3a40 3198 913f
00000340: 992c ba3d 7486 98bc 4967 7d3d 1ef3 f53c
00000350: d6f9 dabc 4936 02bd 0881 8fbc 4ba0 973f
00000360: 1f24 3a3b 3658 873d 8206 843f f513 2940
00000370: 6a17 0040 8ea8 1740 bcad 293c 33ab f63e
00000380: ac3b 453f baec 1340 f084 1e3c 2cc0 c43e
00000390: ce52 ea3f d751 c43f 3a53 f13e 2a45 2140
000003a0: cd7a ef3e a9a7 e13d ad63 c83e fac3 7ebc
000003b0: 8730 2b38 f7c0 0c40 aa9d 9d3f 405f d33d
000003c0: 7955 e63e 214b 983d 08e8 ffbc 9560 e23f
000003d0: 1657 bbbc f9ff 513e da17 01bd e5bb fa3e
000003e0: b310 cd3f e790 45bd 7e1f 833f 6278 be3f
000003f0: b303 83bc 69b1 eb3f 2520 90bd 999c 583e

net.4.bias f4 [13]
1.2495607 1.1481385 1.1431832 1.1604426 1.1043452 1.1570241 1.2203678 0.95050305
1.2506714 0.88491917 0.6951934 0.74892324 0.7626139
00000000: 9bf1 9f3f 34f6 923f d453 923f 6289 943f
00000010: 2f5b 8d3f 5e19 943f 0335 9c3f 2b54 733f
00000020: 0016 a03f 108a 623f 32f8 313f 6fb9 3f3f
00000030: aa3a 433f

net.0.weight f4 [128, 53]
0.58670443 0.49755493 0.18026777 0.39310914 0.5335681 -0.034202244 -0.017438777 -0.101478666
0.058595136 -0.12821616 -0.29244402 -0.27051297 -0.2426276 -0.25334033 0.07041213 -0.035652433
-0.084854215 0.06126156 -0.54999685 0.013210299 0.4430623 0.15659559 0.07907409 -0.052903607
0.16971542 0.041071136 -0.13777742 0.13741669 -0.34858465 0.18303905 0.66491103 -0.02859417
0.308269 -0.26671863 0.26204038 0.42885178 0.5852753 0.21785828 0.110633366 -0.049330764
0.4312267 0.30872047 0.28523272 -0.0057399524 -0.09100218 -0.2394931 0.61615574 -0.55086476
0.12053265 0.6586709 0.25324443 0.36461046 0.23190121 0.01524015 -0.1842673 -0.048114885
0.09634006 0.06544185 0.15589215 -0.058649894 0.09317923 0.10542873 0.024730667 0.020347606
0.04354103 -0.15084812 -0.07709024 -0.0071826577 -0.03513079 -0.06344758 0.06413688 -0.09727347
-0.11016725 -0.11691963 0.05268725 0.08957555 0.12941031 0.04959087 0.0764736 0.043704655
-0.15040764 -0.0747704 0.1126277 0.094572574 0.059151918 -0.096336015 -0.037833292 0.109505236
-0.07552465 0.05358202 0.013952098 0.02015333 0.050841317 -0.05756454 -0.1913646 -0.03129148
0.07854155 -0.065745965 -0.06126733 -0.113920644 0.13809569 -0.0023462765 -0.13277204 -0.09384969
0.010701452 -0.037537746 0.11041576 0.13513194 -1.3955531 -0.04141217 0.19422528 0.2622036
0.3981444 0.7844664 0.24226354 -0.10012533 -0.4753282 -0.2845317 -2.8528173 -0.08278158
-1.0262712 -0.30591112 0.48754492 -0.23688723 0.34763187 0.028429067 0.67894083 0.2529663
0.1079619 0.53943634 -0.35585237 -0.2667585 0.23176989 -0.7145371 -0.7521119 -1.2796606
-0.80700076 0.47764754 -0.3881851 0.47506288 0.7855368 1.4183346 -0.41575676 0.33528924
-0.13860321 -1.81583 -0.3035537 1.0571262 -1.0394807 2.070262 -1.344979 2.6341753
0.395384 -0.17245091 0.29025015 0.6133549 0.31340858 0.16748601 -1.149516 0.11592804
0.18384399 -0.0618626 0.46460602 -0.036275014 -0.60837317 0.4650705 0.25614196 0.0022385928
0.10456298 -0.084365346 -0.6714041 -0.11607698 -0.2541215 -0.65587616 -1.769548 0.3980464
-1.3265367 0.91550356 -0.8041551 0.1808617 0.4705122 -0.040619127 -0.1487442 0.1681123
-0.50977486 -0.051378798 -0.057581913 0.7510953 -0.24693148 0.69132173 -0.99062043 0.26597437
-0.49521926 0.4606223 -0.4830607 -0.02952993 0.120233245 -0.7378928 0.70911413 -0.45166495
0.17879024 -1.3811237 -0.5595334 -1.8645724 -1.4002005 0.025080504 -0.35315028 -0.15003756
-0.0069475193 -0.2900816 0.7856812 -0.5447065 0.02425169 0.33111063 -0.1587798 -0.23368672
0.37088695 0.28272718 0.24717352 0.07324638 -0.37452716 0.023710951 0.85339075 1.1106877
-0.34695932 0.334445 0.08092569 0.8519735 -0.4623691 -2.2411664 0.3003968 -1.8820732
0.24939877 0.37368792 0.29607114 -0.36654413 0.46649697 -1.5537136 1.4173435 -0.0052750204
1.3279895 -0.15675077 0.10542196 0.19099376 1.0441003 0.2924059 -0.2317037 -0.0043420177
-1.6263591 -0.1486377 -0.75382024 -0.04601942 -0.33096993 0.38103598 -0.71075785 0.09632222
00000000: 4332 163f 85bf fe3e 1d98 383e 9a45 c93e
00000010: eb97 083f a717 0cbd c4db 8ebc 0cd4 cfbd
00000020: 7401 703d 194b 03be 39bb 95be ad80 8abe
00000030: 5f73 78be d3b5 81be 3c34 903d 4908 12bd
00000040: 0cc8 adbd 67ed 7a3d 98cc 0cbf 0370 583c
00000050: 10d9 e23e 985a 203e 99f1 a13d 74b1 58bd
00000060: e1c9 2d3e 353a 283d 8615 0dbe f6b6 0c3e
00000070: b079 b2be 976e 3b3e 9c37 2a3f 523e eabc
00000080: 6fd5 9d3e 588f 88be 282a 863e 7692 db3e
00000090: 9ad4 153f 3e16 5f3e bf93 e23d 0e0f 4abd
000000a0: bfc9 dc3e 9c10 9e3e 060a 923e 3616 bcbb
000000b0: 5a5f babd ae3d 75be 62bc 1d3f 7905 0dbf
000000c0: d2d9 f63d a89e 283f 41a9 813e 39ae ba3e
000000d0: 8377 6d3e d2b1 793c 91b0 3cbe 1d14 45bd
000000e0: f04d c53d 6006 863d 31a2 1f3e df3a 70bd
000000f0: c1d4 be3d 05eb d73d f897 ca3c 06b0 a63c
00000100: 1458 323d ee77 1abe 7de1 9dbd 805c ebbb
00000110: 4ee5 0fbd cef0 81bd 325a 833d 5037 c7bd
00000120: 5e9f e1bd 8f73 efbd 96ce 573d 6373 b73d
00000130: 2384 043e cc1f 4b3d 319e 9c3d a703 333d
00000140: 7604 1abe 3921 99bd 5aa9 e63d 44af c13d
00000150: 4849 723d d14b c5bd 15f7 1abd 4844 e03d
00000160: abac 9abd d278 5b3d 5797 643c 9918 a53c
00000170: fc3e 503d ccc8 6bbd 15f5 43be 7f2b 00bd
00000180: 64da a03d d2a5 86bd 74f3 7abd 3a4f e9bd
00000190: f568 0d3e fdc3 19bb 65f5 07be 4434 c0bd
000001a0: 2555 2f3c 2ec1 19bd a821 e23d 0760 0a3e
000001b0: 7ca1 b2bf cf9f 29bd fee2 463e 8d3f 863e
000001c0: 95d9 cb3e cad2 483f ef13 783e 820e cdbd
000001d0: 385e f3be 24ae 91be 8f94 36c0 6489 a9bd
000001e0: db5c 83bf 62a0 9cbe 7d9f f93e 9192 72be
000001f0: cefc b13e 13e4 e83c 11cf 2d3f cd84 813e
00000200: 211b dd3d 8018 0a3f 4832 b6be 9294 88be
00000210: 1655 6d3e e7eb 36bf 688a 40bf ebcb a3bf
00000220: 9a97 4ebf 388e f43e 33c0 c6be 713b f33e
00000230: f118 493f fd8b b53f 12de d4be 08ab ab3e
00000240: 00ee 0dbe 1e6d e8bf 646b 9bbe e94f 873f
00000250: b40d 85bf 2c7f 0440 4628 acbf 5496 2840
00000260: c66f ca3e f996 30be ab9b 943e d404 1d3f
00000270: 1777 a03e 7481 2b3e 5723 93bf ae6b ed3d
00000280: 9941 3c3e a363 7dbd d7e0 ed3e 1c95 14bd
00000290: 58be 1bbf b81d ee3e 0a25 833e 5bb5 123b
000002a0: 1e25 d63d bdc7 acbd 24e1 2bbf c5b9 edbd
000002b0: 371c 82be 80e7 27bf 8d80 e2bf bdcc cb3e
000002c0: f4cb a9bf 715e 6a3f 1cdd 4dbf cf33 393e
000002d0: fae6 f03e 3e60 26bd 6650 18be a125 2c3e
000002e0: 9b80 02bf 9372 52bd 03db 6bbd c847 403f
000002f0: 9bdb 7cbe 76fa 303f 4d99 7dbf cb2d 883e
00000300: 618d fdbe b0d6 eb3e bb53 f7be c0e8 f1bc
00000310: d93c f63d 8be6 3cbf 8188 353f a140 e7be
00000320: ca14 373e a9c8 b0bf 953d 0fbf 4faa eebf
00000330: c539 b3bf a175 cd3c 1dd0 b4be 72a3 19be
00000340: 04a8 e3bb 9385 94be 6722 493f e371 0bbf
00000350: 7bab c63c 5587 a93e 2c97 22be 924b 6fbe
00000360: e5e4 bd3e 9ec1 903e 0e1b 7d3e 3302 963d
00000370: 06c2 bfbe 783d c23c d177 5a3f 042b 8e3f
00000380: a7a4 b1be 603c ab3e 5ebc a53d ef1a 5a3f
00000390: a5bb ecbe 456f 0fc0 9ccd 993e c6e7 f0bf
000003a0: 6462 7f3e 0654 bf3e a396 973e acab bbbe
000003b0: b1d8 ee3e 16e0 c6bf 836b b53f 14da acbb
000003c0: 8ffb a93f 4683 20be 78e7 d73d de93 433e
000003d0: 14a5 853f 3ab6 953e bc43 6dbe 7c47 8ebb
000003e0: 892c d0bf 7b34 18be 5dfa 40bf dc7e 3cbd
000003f0: e474 a9be 2617 c33e 3af4 35bf 9644 c53d

net.0.bias f4 [128]
0.6509016 -0.073176056 0.32696593 0.0132306665 0.4109513 0.23387845 -0.061758563 0.48393846
0.043687526 0.14012614 -0.006136595 0.6092079 -0.012881298 -0.022966133 0.3717873 0.43730485
-0.2645323 0.25918284 -0.08001836 0.13128547 0.21971522 -0.17745924 -0.07706234 -0.18547761
-0.3841424 0.21683817 -0.05423831 -0.055215694 -0.093730755 0.10478281 0.55530536 -0.1248239
0.34583032 -0.019389784 -0.046013 -0.15359266 0.09182429 0.28661793 0.45845103 -0.65525436
0.13541256 0.24206252 -0.043240655 -0.16758597 -0.110559694 0.09214334 -0.09171199 0.40141615
0.62988967 -0.11134325 0.17169946 -0.23752944 0.25266263 -0.5676527 0.3538209 0.4888437
0.29020172 -0.15300632 0.35793772 0.0038913821 -0.19755252 -0.07377799 -0.17268814 0.54065216
0.13784578 0.69265234 0.08673657 -0.13424812 -0.16253868 -0.120932 -0.38792142 -0.20621243
0.3432945 0.0429799 0.6509446 0.16372943 0.46904412 0.10417752 -0.3344129 0.58142316
0.06686292 0.017884422 -0.19895166 0.21892889 0.3991066 -0.17731063 0.04719148 0.10570369
-0.1068717 -0.122803934 0.13728221 0.3386495 -0.069777384 0.37413132 0.14409214 0.046941116
0.046676785 0.2339701 0.42303717 -0.101085186 0.09365613 -0.16232452 0.044437017 -0.10704246
0.30790037 0.12328015 -0.24537277 -0.19699362 -0.2561328 -0.328456 -0.050360758 -0.2414633
-0.16147737 -0.087133065 -0.0570612 0.32912806 0.22430108 0.15815319 -0.19328503 0.6467046
0.13939853 0.0201791 -0.7503663 0.4333085 0.05138502 -0.58844316 0.07663577 -0.29400712
00000000: 7da1 263f 54dd 95bd 1468 a73e 70c5 583c
00000010: 3568 d23e d57d 6f3e 8cf6 7cbd c8c6 f73e
00000020: b1f1 323d 3a7d 0f3e 7d15 c9bb 0df5 1b3f
00000030: 140c 53bc 7923 bcbc e85a be3e 6ce6 df3e
00000040: c770 87be 9db3 843e aae0 a3bd b36f 063e
00000050: 07fd 603e e0b7 35be dcd2 9dbd d8ed 3dbe
00000060: 50ae c4be d30a 5e3e fd28 5ebd da29 62bd
00000070: e9f5 bfbd 5f98 d63d 7e28 0e3f aca3 ffbd
00000080: ac10 b13e 53d7 9ebc 2178 3cbd 6547 1dbe
00000090: 600e bc3d 96bf 923e 18ba ea3e c0be 27bf
000000a0: 97a9 0a3e 3ddf 773e 1d1d 31bd a89b 2bbe
000000b0: 1f6d e2bd a6b5 bc3d 7fd3 bbbd 6b86 cd3e
000000c0: 7340 213f ee07 e4bd fcd1 2f3e eb3a 73be
000000d0: ff5c 813e b051 11bf 0328 b53e b949 fa3e
000000e0: 5295 943e b0ad 1cbe 9d43 b73e 8f06 7f3b
000000f0: 354b 4abe ea18 97bd 29d5 30be 2e68 0a3f
00000100: 7227 0d3e aa51 313f f1a2 b13d 5778 09be
00000110: 8a70 26be 32ab f7bd a39d c6be 5a29 53be
00000120: 4cc4 af3e b10b 303d 4ea4 263f b0a8 273e
00000130: 8d26 f03e 065b d53d 2b38 abbe 26d8 143f
00000140: 6def 883d 5a82 923c fcb9 4bbe e52e 603e
00000150: b357 cc3e eb90 35be da4b 413d 2d7b d83d
00000160: 8ddf dabd a180 fbbd b593 0c3e 7863 ad3e
00000170: 72e7 8ebd 248e bf3e e48c 133e 5445 403d
00000180: 2830 3f3d dc95 6f3e 5498 d83e c005 cfbd
00000190: c9ce bf3d 6638 26be 9703 363d 1439 dbbd
000001a0: 1ea5 9d3e 4e7a fc3d 0043 7bbe b2b8 49be
000001b0: d723 83be 632b a8be 1547 4ebd 2842 77be
000001c0: 535a 25be d272 b2bd 01b9 69bd 7983 a83e
000001d0: 2faf 653e e9f2 213e 83ec 45be 6f8e 253f
000001e0: 7dbe 0e3e a44e a53c 0118 40bf 9dda dd3e
000001f0: 1979 523d 36a4 16bf 37f3 9c3d 1a88 96be

net.2.weight f4 [128, 128]
0.16524656 0.13772897 -2.662632 -0.99499047 -0.5617745 -0.026946058 0.75304246 0.400374
1.1790172 0.97260123 -1.269842 0.24136017 -0.06426495 -0.41039926 -0.7181387 -0.09710325
-1.5103406 0.313952 -0.024710169 -0.118516095 0.99925095 -0.0016617534 -0.034816943 -1.2900949
-0.7721053 -0.32680047 -1.1582333 1.0470711 -0.22621472 -1.7716385 0.22771361 -0.031381782
0.61252064 -0.57565296 0.06354387 -1.3384806 -1.9002901 0.6223085 -0.24693902 -2.026657
-0.1191548 0.4446128 -0.05198684 -3.7431545 0.023944769 0.047964424 0.004228525 0.25003776
-0.28882885 1.3550975 -0.33578345 -1.0081767 -0.4459439 -0.16173497 0.92910403 0.077937916
0.0018295366 -0.07733802 0.42810068 -0.69657105 -0.29471534 0.07140305 0.61067796 1.0378098
-0.74105096 0.20590854 0.08927411 -0.67817175 -0.0412363 -0.45995548 -2.0134015 -1.1588607
0.54191005 -0.17130801 0.23436086 0.06995693 0.35407403 -1.3714993 0.26147225 0.52211124
0.022966517 -1.4440703 -0.07573962 0.44090456 0.09422988 -0.70149505 -0.99731916 0.55725396
-0.07258722 0.0030555169 0.40744922 -0.1646378 0.61872613 -0.81295127 0.6262136 -2.1166346
-1.7214881 -0.6417111 0.32387307 1.232488 0.71402013 0.023980854 -1.0842105 0.005284363
0.79889035 0.43245962 -0.04472093 -0.04217384 -0.84464055 -2.4241092 -0.79301023 -0.0036769065
0.88587475 0.037108555 -0.84840536 -0.68741214 2.220781 0.15016675 0.005975572 0.7051242
-0.14892006 -1.7517581 0.28099853 -0.5511078 -0.32020843 0.98487055 0.9503256 -0.14143136
-0.032058686 -0.060209375 -0.008328704 -0.026437104 0.035804357 -0.07522946 0.036895882 0.05782702
-0.03815098 -0.05058261 -0.03402251 0.006827966 -0.031223334 -0.08975803 -0.108582996 -0.022392884
-0.07484673 -0.042560518 0.07919491 0.05667893 -0.073616855 -0.08189012 0.0043591782 -0.057655573
-0.05485307 -0.002325416 -0.022364086 -0.004428896 0.076571144 0.019247055 0.04371377 -0.0626519
-0.026582185 -0.081884444 -0.08314562 0.02265998 -0.061123908 0.07114134 0.027577203 -0.037147358
0.0056567793 -0.07465905 0.066215836 -0.04685443 -0.02387327 0.017064996 0.07356011 -0.020089556
0.04918222 0.06313529 -0.044847213 -0.08807464 0.076212294 -0.08475318 -0.09380106 -0.10755035
-0.107710086 -0.042455595 0.045964263 -0.021644026 -0.052450825 -0.03148185 0.026531719 -0.06152287
0.07492068 -0.10392026 0.016055413 0.014083043 0.013693765 0.047315143 0.06200307 -0.06643529
-0.093473546 0.0049499064 -0.11648897 0.032992944 -0.062250912 -0.07025919 -0.030207053 -0.06666206
-0.050681747 -0.005083764 0.045015387 -0.11616737 -0.011634283 -0.06073565 -0.060801886 0.031648345
0.052353702 0.042171992 -0.119845495 -0.070793495 -0.0713076 -0.018412307 0.06345255 -0.11239896
-0.039723713 -0.030094262 0.01210232 0.03235197 0.048440315 0.017790563 0.019423768 -0.08213918
0.0007422487 -0.0669442 -0.024368927 0.059947796 -0.07509436 -0.07685448 0.02580268 -0.05019643
-0.01647117 -0.076875806 0.018235886 0.027328575 -0.059738807 -0.0036278963 0.061216272 0.018323075
-0.06756069 -0.020222563 -0.06528177 0.041172154 0.0078203445 -0.07669914 -0.008440241 0.050341643
00000000: 6536 293e d308 0d3e 9068 2ac0 b2b7 7ebf
00000010: 74d0 0fbf fbbd dcbc 64c7 403f d2fd cc3e
00000020: 09ea 963f 65fc 783f 2f8a a2bf 1f27 773e
00000030: 589d 83bd da1f d2be f0d7 37bf 12de c6bd
00000040: d752 c1bf 51be a03e fb6c cabc 91b8 f2bd
00000050: e9ce 7f3f 31cf d9ba 369c 0ebd d421 a5bf
00000060: b1a8 45bf 6452 a7be fd40 94bf 6d06 863f
00000070: d5a4 67be 0dc5 e2bf c22d 693e 2f8a 00bd
00000080: 27ce 1c3f fe5d 13bf 4a23 823d 5553 abbf
00000090: b53c f3bf 9c4f 1f3f 95dd 7cbe c0b4 01c0
000000a0: 6f07 f4bd 4aa4 e33e 27f0 54bd d88f 6fc0
000000b0: d227 c43c 5876 443d 708f 8a3b f304 803e
000000c0: 60e1 93be d673 ad3f cfeb abbe ef0b 81bf
000000d0: c252 e4be da9d 25be c3d9 6d3f ea9d 9f3d
000000e0: 10cd ef3a 6563 9ebd 0330 db3e 7b52 32bf
000000f0: eee4 96be c33b 923d 6455 1c3f f4d6 843f
00000100: 84b5 3dbf b0d9 523e 58d5 b63d aa9c 2dbf
00000110: 65e7 28bd 497f ebbe 92db 00c0 8c55 94bf
00000120: 9eba 0a3f 5e6b 2fbe 4bfc 6f3e 9445 8f3d
00000130: 3149 b53e 4a8d afbf b1df 853e 15a9 053f
00000140: 4724 bc3c 4cd7 b8bf 601d 9bbd 3ebe e13e
00000150: 98fb c03d 2e95 33bf 4f50 7fbf 32a8 0e3f
00000160: 9ca8 94bd 113f 483b 2f9d d03e d096 28be
00000170: d664 1e3f 931d 50bf 894f 203f f176 07c0
00000180: b959 dcbf 2e47 24bf b1d2 a53e 2bc2 9d3f
00000190: 06ca 363f 7f73 c43c 69c7 8abf 7328 ad3b
000001a0: 1484 4c3f 596b dd3e 4b2d 37bd 7abe 2cbd
000001b0: 5d3a 58bf 9b24 1bc0 b802 4bbf 41f8 70bb
000001c0: b0c8 623f 24ff 173d 1831 59bf 3efa 2fbf
000001d0: 4721 0e40 50c5 193e bbce c33b 0583 343f
000001e0: 807e 18be 9c39 e0bf 0adf 8f3e 6715 0dbf
000001f0: 5cf2 a3be 7a20 7c3f 8a48 733f 62d3 10be
00000200: f84f 03bd 1b9e 76bd 1e75 08bc a092 d8bc
00000210: 97a7 123d e711 9abd 2320 173d 06dc 6c3d
00000220: 3444 1cbd b62f 4fbd 305b 0bbd 21bd df3b
00000230: 14c8 ffbc 0fd3 b7bd c360 debd 4871 b7bc
00000240: 3e49 99bd f053 2ebd f130 a23d 2a28 683d
00000250: 6fc4 96bd 02b6 a7bd 70d7 8e3b 4028 6cbd
00000260: 9dad 60bd 0266 18bb e334 b7bc 4620 91bb
00000270: 55d1 9c3d 00ac 9d3c 360d 333d a44f 80bd
00000280: e2c2 d9bc 08b3 a7bd 4048 aabd 6ca1 b93c
00000290: 105d 7abd 8db2 913d 96e9 e13c d427 18bd
000002a0: 815c b93b d8e6 98bd 2b9c 873d 6eea 3fbd
000002b0: e091 c3bc e4cb 8b3c afa6 963d da92 a4bc
000002c0: 4c73 493d 134d 813d b6b1 37bd 7a60 b4bd
000002d0: 3115 9c3d 1393 adbd c51a c0bd 5c43 dcbd
000002e0: 1b97 dcbd ebe5 2dbd 0645 3c3d d04e b1bc
000002f0: add6 56bd 1df3 00bd 0c59 d93c 68ff 7bbd
00000300: 0370 993d 25d4 d4bd a486 833c 90bc 663c
00000310: d05b 603c 86cd 413d eef6 7d3d 3a0f 88bd
00000320: 0f6f bfbd d332 a23b c591 eebd 9c23 073d
00000330: d0fa 7ebd 0de4 8fbd c874 f7bc 1e86 88bd
00000340: aa97 4fbd b495 a6bb 0e62 383d 28e9 edbd
00000350: b89d 3ebc f2c5 78bd 660b 79bd b2a1 013d
00000360: d670 563d 8abc 2c3d 8e71 f5bd 2efc 90bd
00000370: b809 92bd 68d5 96bc 69f3 813d 6d31 e6bd
00000380: 55b5 22bd 3e88 f6bc cf48 463c 8083 043d
00000390: 5a69 463d 84bd 913c 981e 9f3c 9638 a8bd
000003a0: 7893 423a 0a1a 89bd 58a1 c7bc d28b 753d
000003b0: 12cb 99bd e265 9dbd 2460 d33c c69a 4dbd
000003c0: 8cee 86bc 1071 9dbd 6d63 953c 2de0 df3c
000003d0: aeb0 74bd 00c2 6dbb eabd 7a3d 461a 963c
000003e0: 425d 8abd caa9 a5bc 73b2 85bd 22a4 283d
000003f0: e720 003c 7014 9dbd f048 0abc 0a33 4e3d

net.2.bias f4 [128]
0.71483046 -0.1145422 -0.10670713 -0.13952191 0.14107735 -0.115044735 0.0075983456 0.7613272
0.9552873 1.016348 -0.048202083 0.7730545 -0.21783814 1.1830119 -0.06094779 0.80562377
0.025818098 0.5678232 0.3264506 0.9763194 0.74090123 -0.13937081 -0.04023521 -0.024501335
0.0015476266 1.0155636 0.6712499 0.58106 0.54294527 -0.096928485 0.8885815 0.74229354
0.61047506 -0.10857643 -0.112754695 -0.03346072 -0.010318673 0.114216305 0.29986843 -0.09130617
1.1600329 0.70257455 1.2916657 0.41606897 0.6794856 1.3892984 1.3874629 1.1284662
1.141816 -0.038143646 0.7320441 0.9080446 -0.12535407 -0.040177453 1.2460239 -0.14745153
0.48254848 0.6851537 -0.03119053 0.83930576 0.8388646 1.082952 0.95849013 1.0394863
-0.032378625 0.026720386 -0.07459859 -0.08821946 -0.53643197 -0.4946719 -0.12671082 -0.12567593
0.9560474 0.9139898 0.6749615 0.9559011 0.65874183 0.7341892 0.7354475 -0.09250047
-0.107813194 -0.10759852 -0.10714964 -0.053016707 -0.0833689 -0.11397676 -0.05686487 0.82184947
-0.050518844 -0.027869033 0.4819375 0.81725174 0.7207155 0.616009 -0.024120571 1.1047974
1.6985661 0.44124305 -0.09842582 1.1023132 0.83085835 0.44973537 1.2681525 0.5928042
1.3065825 -0.31670293 1.3181751 -0.023224916 -0.05131525 0.31313762 0.48656505 -0.096857674
1.259314 -0.030103844 -0.13002138 0.4641248 -0.14616299 1.0550469 -0.1171686 1.2003335
0.65561324 -0.009673587 -0.17430304 0.7262953 -0.086168125 0.42663485 0.022201728 0.9459185
00000000: 21ff 363f 1a95 eabd 4589 dabd d5de 0ebe
00000010: 9576 103e 939c ebbd 8bfb f83b 57e6 423f
00000020: b58d 743f b117 823f 8c6f 45bd e6e6 453f
00000030: f610 5fbe ef6c 973f 64a4 79bd 5c3d 4e3f
00000040: 7a80 d33c dc5c 113f 8824 a73e 11f0 793f
00000050: b4ab 3d3f 39b7 0ebe adcd 24bd 06b7 c8bc
00000060: bbd9 ca3a fdfd 813f 09d7 2b3f 59c0 143f
00000070: 76fe 0a3f 7182 c6bd 147a 633f f306 3e3f
00000080: 1848 1c3f 525d debd efeb e6bd 1c0e 09bd
00000090: a70f 29bc 3dea e93d 5b88 993e bbfe babd
000000a0: f57b 943f eddb 333f 4d55 a53f fe06 d53e
000000b0: c5f2 2d3f 88d4 b13f 6298 b13f 9571 903f
000000c0: 0727 923f 833c 1cbd 3e67 3b3f 9c75 683f
000000d0: d15c 00be 1d91 24bd b67d 9f3f 89fd 16be
000000e0: 9810 f73e 3c66 2f3f 4883 ffbc bedc 563f
000000f0: d5bf 563f 2c9e 8a3f 9c5f 753f e30d 853f
00000100: 739f 04bd b6e4 da3c 25c7 98bd 67ac b4bd
00000110: 9b53 09bf a345 fdbe 7bc0 01be 31b1 00be
00000120: 86bf 743f 3cfb 693f 47ca 2c3f efb5 743f
00000130: 4ea3 283f d3f3 3b3f 4a46 3c3f e370 bdbd
00000140: 2acd dcbd 9d5c dcbd 4571 dbbd 0c28 59bd
00000150: 50bd aabd a66c e9bd 23eb 68bd ba64 523f
00000160: d9ec 4ebd 994d e4bc 83c0 f63e 6937 513f
00000170: d080 383f c4b2 1d3f 8198 c5bc 006a 8d3f
00000180: 9d6a d93f 9cea e13e 7a93 c9bd 9918 8d3f
00000190: 22b3 543f b743 e63e d252 a23f 04c2 173f
000001a0: 183e a73f e326 a2be f6b9 a83f 2e42 bebc
000001b0: f12f 52bd 9353 a03e 0e1f f93e 515d c6bd
000001c0: 3331 a13f 569c f6bc 5324 05be c4a1 ed3e
000001d0: c0ab 15be c70b 873f 17f6 efbd 87a4 993f
000001e0: 45d6 273f f77d 1ebc 7f7c 32be 7dee 393f
000001f0: ea78 b0bd e26f da3e 66e0 b53c b727 723f

net.4.weight f4 [13, 128]
1.3004011 0.07787102 -0.068492 0.018363342 0.89987236 0.11981712 -0.062715575 3.2292418
2.8908763 0.80255646 0.07026579 1.8201356 1.4181073 0.42366514 -0.020566333 3.4250607
0.100867786 1.5250114 2.681332 2.7282798 0.75454086 0.06525942 0.0024856983 -0.044368
0.010254739 0.4983261 2.3967295 1.973103 2.2109668 -0.01809658 1.0375044 1.9296913
2.1301003 0.054067455 0.08067898 0.052128483 1.1990403 2.076107 1.2991709 -0.07595566
0.3805989 2.000089 0.46165493 2.01461 3.3537264 0.4406977 0.47985435 0.42621696
0.3372408 -0.07959417 1.3066062 0.41848648 1.2683644 0.04882913 0.42875093 1.5066272
1.7570723 2.7173133 -0.012815988 0.22460768 1.9623574 1.7194273 2.0101998 1.5795519
0.030996397 -0.029710153 0.05394263 -0.07602817 0.024492508 1.5020413 -0.080471344 0.044207055
1.056001 1.600823 3.063535 1.8642093 1.6933144 2.9697742 2.7836254 1.0755954
-0.070630096 0.0034627095 0.08043324 -0.07658149 0.087261625 0.041048404 -0.042988922 1.266899
-0.014255919 0.02484456 0.9762145 3.2843149 1.8942393 2.0273294 0.19348986 0.325677
0.8508313 1.4852712 -0.005428374 0.52872187 2.3814087 1.5413986 0.59696066 2.8686614
0.41156137 0.1042215 0.5413824 -0.057279125 -0.066755034 1.1210928 1.3228803 0.020485923
0.39672482 -0.018032106 -0.08619903 1.6374614 -0.029496247 0.425858 -0.035076514 0.37344334
0.96222633 0.061632812 0.4350723 1.575344 -0.010132662 2.1148124 -0.03148931 0.78091204
1.2521583 0.043388225 -0.077264406 -0.02967485 0.9914318 -0.0046392893 0.036806792 2.7959728
3.4016035 0.8349412 -0.04970089 1.9196402 1.5497026 0.35983026 -0.045093413 2.995835
0.0875328 1.5807601 3.272718 2.9540718 1.3484757 0.073644124 0.061457403 0.029003315
0.05271273 0.3042656 2.3577285 1.8287318 2.6840053 0.057198662 0.76582277 2.0011616
2.6650863 0.03547059 -0.056827623 0.07398473 0.6918147 1.9676008 1.0740974 0.025015844
0.524335 1.5322051 0.4790841 2.2085912 1.2084614 0.55808914 0.47614333 0.43962383
0.46566835 0.032483302 1.1399387 0.8205849 1.164281 -0.014448387 0.4630886 1.398624
1.5150814 2.4183185 0.004422427 1.0175061 2.0659645 2.0250895 1.3511412 1.4621223
0.023984453 0.06633923 -0.042241387 -0.038468312 0.98805135 1.187207 0.033124022 0.066784136
1.086449 1.5760019 3.077459 1.9044731 1.9033216 2.53516 2.9092383 1.1364756
0.090905376 -0.0186188 0.06186608 0.030023154 -0.02673046 -0.03179005 -0.017517582 1.1965734
0.0028402878 0.06608622 1.0309256 2.64182 2.0083165 2.372962 0.010356363 0.4849489
0.7724337 2.3114138 0.009675249 0.38766572 1.8300672 1.5560298 0.47391272 2.5217218
0.4703038 0.11018307 0.393911 -0.015549654 4.081477e-05 2.1978252 1.2399108 0.10320902
0.45356587 0.07436205 -0.03123857 1.7702134 -0.022868674 0.21075568 -0.031516887 0.49390873
1.6087458 -0.048233893 1.0243986 1.4929339 -0.015992975 1.8437916 -0.07037381 0.21211866
00000000: 8b73 a63f d77a 9f3d 8945 8cbd b86e 963c
00000010: 095e 663f ae62 f53d 0671 80bd e6ab 4e40
00000020: 1e04 3940 5774 4d3f 83e7 8f3d 34fa e83f
00000030: 8a84 b53f a3ea d83e ba7a a8bc 3234 5b40
00000040: c593 ce3d 9333 c33f f29a 2b40 239c 2e40
00000050: 9729 413f bba6 853d 19e7 223b 38bb 35bd
00000060: 7e03 283c 9924 ff3e 0464 1940 a48e fc3f
00000070: 7b80 0d40 473f 94bc f2cc 843f 2000 f73f
00000080: 9053 0840 d675 5d3d 053b a53d ad84 553d
00000090: 277a 993f f0de 0440 3b4b a63f a48e 9bbd
000000a0: dcdd c23e 7501 0040 095e ec3e 5fef 0040
000000b0: 74a3 5640 21a3 e13e 78af f53e 1c39 da3e
000000c0: d3aa ac3e 4502 a3bd df3e a73f dc43 d63e
000000d0: c459 a23f 0e01 483d 3e85 db3e 29d9 c03f
000000e0: bfe7 e03f 76e8 2d40 26fa 51bc 8eff 653e
000000f0: 872e fb3f 3216 dc3f 1da7 0040 c22e ca3f
00000100: 28ec fd3c b562 f3bc f2f2 5c3d a8b4 9bbd
00000110: 83a4 c83c e442 c03f 29ce a4bd 7512 353d
00000120: 0a2b 873f c5e7 cc3f f510 4440 699e ee3f
00000130: 87be d83f c810 3e40 eb26 3240 1cad 893f
00000140: 83a6 90bd a0ee 623b 2fba a43d c2d6 9cbd
00000150: 39b6 b23d 5f22 283d 2715 30bd bf29 a23f
00000160: a891 69bc d286 cb3c 32e9 793f 3732 5240
00000170: 6f76 f23f c4bf 0140 3522 463e 23bf a63e
00000180: 14d0 593f 5e1d be3f 80e0 b1bb 515a 073f
00000190: 0069 1840 8d4c c53f 6ad2 183f 2698 3740
000001a0: 2cb8 d23e 1572 d53d 0998 0a3f 849d 6abd
000001b0: ddb6 88bd f87f 8f3f 2454 a93f 18d2 a73c
000001c0: 841f cb3e 11b8 93bc 1e89 b0bd 5698 d13f
000001d0: 1da2 f1bc 0f0a da3e 64ac 0fbd f733 bf3e
000001e0: 7754 763f b072 7c3d ccc1 de3e dfa4 c93f
000001f0: 7703 26bc 1659 0740 effa 00bd dae9 473f
00000200: b946 a03f dab7 313d cd3c 9ebd ac18 f3bc
00000210: 79ce 7d3f 2e05 98bb b8c2 163d 38f1 3240
00000220: dfb3 5940 b5be 553f 2993 4bbd c5b6 f53f
00000230: a85c c63f ac3b b83e dfb3 38bd c3bb 3f40
00000240: 6644 b33d 5956 ca3f 3674 5140 830f 3d40
00000250: da9a ac3f bbd2 963d c2ba 7b3d 5c98 ed3c
00000260: 4ee9 573d b3c8 9b3e 06e5 1640 e213 ea3f
00000270: bec6 2b40 2549 6a3d f60c 443f 0813 0040
00000280: c690 2a40 9c49 113d 15c4 68bd 4e85 973d
00000290: c51a 313f 58da fb3f 067c 893f 07ee cc3c
000002a0: d23a 063f 4c1f c43f 834a f53e 8f59 0d40
000002b0: ddae 9a3f eede 0e3f 0fc9 f33e 6016 e13e
000002c0: 156c ee3e 360d 053d 83e9 913f da11 523f
000002d0: 2907 953f edb8 6cbc f319 ed3e 1c06 b33f
000002e0: 30ee c13f bbc5 1a40 02ea 903b a43d 823f
000002f0: c338 0440 119b 0140 32f2 ac3f d326 bb3f
00000300: 0b7b c43c dddc 873d 4e05 2dbd f390 1dbd
00000310: eff0 7c3f 66f6 973f 0ead 073d 1fc6 883d
00000320: c310 8b3f 6eba c93f 17f5 4440 c6c5 f33f
00000330: 0ba0 f33f 1040 2240 f630 3a40 0878 913f
00000340: 992c ba3d 7486 98bc 4967 7d3d 1ef3 f53c
00000350: d6f9 dabc 4936 02bd 0881 8fbc 5129 993f
00000360: 1f24 3a3b 3658 873d 5ff5 833f 9413 2940
00000370: 4288 0040 9cde 1740 bcad 293c 394b f83e
00000380: 37be 453f 34ee 1340 f084 1e3c 1f7c c63e
00000390: a43f ea3f fc2b c73f b0a4 f23e e463 2140
000003a0: a9cb f03e a9a7 e13d b4ae c93e fac3 7ebc
000003b0: 8730 2b38 2ba9 0c40 66b5 9e3f 405f d33d
000003c0: c939 e83e 214b 983d 08e8 ffbc 5a96 e23f
000003d0: 1657 bbbc 56d0 573e da17 01bd 9be1 fc3e
000003e0: 62eb cd3f e790 45bd 7e1f 833f 7518 bf3f
000003f0: b303 83bc 5d01 ec3f 2520 90bd a235 593e

net.4.bias f4 [13]
1.2506183 1.1498064 1.1431861 1.1503466 1.1036406 1.1581981 1.214672 0.94717646
1.2564505 0.88418305 0.6952547 0.7548041 0.76189077
00000000: 4314 a03f db2c 933f ec53 923f 8f3e 933f
00000010: 1844 8d3f d63f 943f 5f7a 9b3f 287a 723f
00000020: 5fd3 a03f d259 623f 36fc 313f d73a 413f
00000030: 460b 433f
