checkpoints3/team2_agent_2.pt (torch, 411297 bytes, 24 tensors)

net.0.weight f4 [128, 53]
-0.037746683 -1.0483273 -0.08853777 -1.7385092 0.65011454 0.35995752 0.2312096 0.6247922
0.770806 0.1472435 -0.0022218958 -0.1112028 0.6336632 1.5593147 -1.6554534 1.8977424
0.514392 -0.28695336 2.165196 0.65291446 0.04277249 0.23790993 0.5134551 1.384858
-0.03725019 0.92011726 -0.27675745 1.0096073 -0.34499466 -0.92298186 0.8703167 0.35513625
0.5160581 0.83552027 1.2784662 -0.057575382 1.20217 -0.9731016 0.7161531 2.1358032
-0.7349797 -1.0769507 -0.570083 -0.47338197 -0.42644605 -0.63485956 0.025903884 -0.1405788
0.73859364 0.008391704 0.6490162 -0.5211958 0.6742426 -0.03246264 -0.07961129 -0.044448156
-0.10034115 0.08545487 -0.095017314 -0.11486292 -0.14539483 -0.08287654 -0.07415549 0.10079074
0.14064339 0.081250295 -0.03104955 0.035348594 -0.020479165 0.066624284 -0.025256693 -0.078275464
-0.042192653 0.13483691 0.031053906 -0.051266108 -0.032590266 -0.10262618 -0.045156654 0.094907224
0.08900874 0.007335432 0.047846437 0.09982579 -0.034383006 -0.12685823 -0.019009288 0.031930283
0.014947533 -0.060453776 -0.17895569 0.060233764 -0.11492307 -0.2475748 -0.055576693 0.10751896
-0.007421322 0.042286474 -0.16545923 0.22962387 -0.067756 -0.123909906 0.23986848 0.060657483
0.018343266 -0.038386595 0.24750051 0.3936813 0.386064 1.1021345 0.31153628 0.4508756
0.79299974 -0.70436263 0.4944827 0.11169869 0.35611072 -0.6148333 -1.6618971 -0.5987798
-1.210599 0.5872345 0.51026845 -0.6499265 -0.15019019 -0.39718735 0.14455281 0.86801076
-0.27730516 0.32152203 0.063968 0.6940435 1.9932208 0.14390436 0.9287593 0.066077985
0.3608609 0.2478476 -1.4557257 -0.25290975 0.01699225 -0.10341515 0.14407621 0.09000114
-0.12918617 -1.3151758 0.5341754 0.62091726 0.26444954 0.4204097 -0.51377356 1.4666904
-0.5945089 0.8496028 0.5942369 -0.296756 0.4152705 -1.1721971 -0.29884538 0.60564893
0.81039786 0.17526402 0.5252508 0.24740668 0.5846001 -0.2081366 -0.03624129 0.041026436
0.4528228 -0.6941968 -0.87467676 -0.057991136 -0.28931618 0.21756445 0.55903953 -0.5503288
0.32062614 -0.12921119 0.09691801 -0.4431644 -0.2551788 -0.1685822 -0.10814667 -0.10846597
-0.4213589 -0.21196815 0.02891378 0.29001847 -0.024125628 0.06424711 0.18427117 0.18266818
0.14732647 -0.43015382 0.19117317 0.16604993 0.03110317 0.07813054 0.26182804 0.3898333
0.61353415 -0.783688 -0.5611375 -0.037515946 0.77868855 -0.6994111 1.1045244 0.15925036
-0.69622546 0.03880134 0.09238006 0.048462335 -0.1514606 -0.21141921 -1.2830409 -0.2824198
0.06353341 -0.22763114 0.93492246 0.9479559 1.2369395 -0.050930787 0.3177891 -0.12292741
1.3600374 -0.32537746 -0.3199823 0.14569718 -0.55035657 -2.7754726 -0.635109 0.3169533
0.17868233 0.96573967 0.80973095 0.9311159 0.0049137026 0.8773711 0.6774228 1.6014651
-1.224532 -0.74872404 -0.3499449 0.098669216 1.3228868 0.04757404 -1.228424 0.7451165
1.1027365 -0.31476897 -1.2383274 -0.6351535 1.4704517 0.9745638 2.8880107 1.853672
00000000: 449c 1abd 972f 86bf 4a53 b5bd 7887 debf
00000010: e86d 263f 5a4c b83e 36c2 6c3e 62f2 1f3f
00000020: 8b53 453f 00c7 163e 3a9d 11bb 4bbe e3bd
00000030: c037 223f a097 c73f e6e5 d3bf 39e9 f23f
00000040: 32af 033f 8deb 92be 9292 0a40 6725 273f
00000050: 3532 2f3d a99e 733e cb71 033f 0743 b13f
00000060: a893 18bd ce8c 6b3f 27b3 8dbe d03a 813f
00000070: 24a3 b0be 8a48 6cbf 13cd 5e3f 6bd4 b53e
00000080: 621c 043f a8e4 553f c8a4 a33f 2ad4 6bbd
00000090: b5e0 993f 301d 79bf cf55 373f 00b1 0840
000000a0: a127 3cbf 85d9 89bf f6f0 11bf 1f5f f2be
000000b0: 2357 dabe 2886 22bf 6234 d43c e4f3 0fbe
000000c0: 7914 3d3f 5c7d 093c ed25 263f 176d 05bf
000000d0: 2a9b 2c3f 8cf7 04bd 3e0b a3bd 450f 36bd
000000e0: a97f cdbd f602 af3d 7098 c2bd 403d ebbd
000000f0: 62e2 14be 2dbb a9bd d5de 97bd 606b ce3d
00000100: d204 103e 8e66 a63d a05b febc b0c9 103d
00000110: ecc3 a7bc 5072 883d 20e7 cebc e34e a0bd
00000120: 34d2 2cbd b012 0a3e c364 fe3c 69fc 51bd
00000130: 5f7d 05bd ad2d d2bd 2ff6 38bd b85e c23d
00000140: 374a b63d 105e f03b a0fa 433d 7771 cc3d
00000150: 32d5 0cbd 20e7 01be 5eb9 9bbc 54c9 023d
00000160: 7fe6 743c 619e 77bd 2940 37be aeb7 763d
00000170: c95c ebbd 4084 7dbe 63a4 63bd e732 dc3d
00000180: 902e f3bb 9534 2d3d 256e 29be 8522 6b3e
00000190: a8c3 8abd 7ac4 fdbd 15a0 753e fb73 783d
000001a0: 9e44 963c 433b 1dbd c670 7d3e 9890 c93e
000001b0: 2eaa c53e be12 8d3f af81 9f3e 2bd9 e63e
000001c0: 0802 4b3f 1c51 34bf d62c fd3e 48c2 e43d
000001d0: 2554 b63e b765 1dbf 0bb9 d4bf a249 19bf
000001e0: e8f4 9abf 0055 163f f4a0 023f 9561 26bf
000001f0: 75cb 19be 245c cbbe a705 143e f435 5e3f
00000200: f1fa 8dbe 899e a43e a801 833d d6ac 313f
00000210: dc21 ff3f aa5b 133e 2bc3 6d3f e553 873d
00000220: c3c2 b83e c3cb 7d3e 3855 babf 637d 81be
00000230: 5533 8b3c 52cb d3bd b788 133e 8552 b83d
00000240: 6149 04be ae57 a8bf b8bf 083f 6ff4 1e3f
00000250: ee65 873e f13f d73e aa86 03bf 83bc bb3f
00000260: bc31 18bf 927f 593f e91f 183f 67f0 97be
00000270: 569e d43e 8e0a 96bf 4302 99be cf0b 1b3f
00000280: 3c76 4f3f 6978 333e d676 063f 2d58 7d3e
00000290: 5aa8 153f c321 55be bf71 14bd 560b 283d
000002a0: 64d8 e73e e2b6 31bf d1ea 5fbf 1d88 6dbd
000002b0: 4021 94be 37c9 5e3e 371d 0f3f 59e2 0cbf
000002c0: 1c29 a43e f04f 04be f37c c63d 72e6 e2be
000002d0: cca6 82be d0a0 2cbe 007c ddbd 6823 debd
000002e0: 5bbc d7be 2e0e 59be 97dc ec3c 4d7d 943e
000002f0: 1ca3 c5bc fd93 833d 95b1 3c3e 5e0d 3b3e
00000300: c0dc 163e 1f3d dcbe e6c2 433e fe08 2a3e
00000310: 13cc fe3c e802 a03d 530e 863e 3b98 c73e
00000320: 9310 1d3f c79f 48bf b5a6 0fbf 52aa 19bd
00000330: 2258 473f 9b0c 33bf 0e61 8d3f 8712 233e
00000340: d53b 32bf 27ee 1e3d c231 bd3d 7180 463d
00000350: 7d18 1bbe 477e 58be af3a a4bf 5499 90be
00000360: ce1d 823d 2318 69be 1457 6f3f 3dad 723f
00000370: 0954 9e3f cd9c 50bd 41b5 a23e 5ec1 fbbd
00000380: b515 ae3f e097 a6be b8d4 a3be a431 153e
00000390: 2be4 0cbf 58a1 31c0 8196 22bf b447 a23e
000003a0: 80f8 363e b73a 773f 874a 4f3f 9d5d 6e3f
000003b0: 2003 a13b 649b 603f 956b 2d3f cffc cc3f
000003c0: 77bd 9cbf 61ac 3fbf fa2b b3be 1613 ca3d
000003d0: 5b54 a93f ffdc 423d ff3c 9dbf f4bf 3e3f
000003e0: 7826 8d3f 6629 a1be 8381 9ebf 6b99 22bf
000003f0: c337 bc3f 037d 793f 2bd5 3840 2045 ed3f

net.0.bias f4 [128]
-0.013741954 -0.16436322 0.38671497 0.7227408 -0.2064436 0.41645953 0.075645395 0.103547074
0.40911362 -0.18262848 0.07842398 0.81801707 -0.14144059 0.103255436 0.06921826 -0.10802385
-0.19536518 0.26221174 0.23159926 -0.008484715 0.3527391 -0.17540796 0.18831821 0.12797134
-0.14864932 -0.11251024 0.088545606 0.82886046 0.019057706 -0.04709927 0.13632315 0.5706341
-0.13981052 -0.014634317 -0.06345611 0.28052044 -0.056971274 0.100192465 0.26697403 0.061175507
-0.14230709 -0.02629731 0.097170986 0.44295686 0.20477973 -0.35942894 0.68711066 -0.23295167
0.16912003 0.30792016 0.2672696 0.30914417 0.28819302 0.483062 0.3222882 -0.17206906
0.27477905 0.35309672 0.7367051 0.49870795 0.092927694 -0.17216799 0.31700334 0.027145403
0.18712145 -0.5327782 0.064614266 -0.04212809 -0.059433956 -0.22161767 -0.0061906 -0.30098075
-0.21361214 -0.09764911 0.10265674 -0.17040403 -0.07238083 0.6889012 -0.10198197 0.3217716
0.35926116 -0.029926313 0.48244998 0.039700285 0.38563594 0.4589754 0.21676512 0.0037555883
-0.10912316 0.06383495 0.53945184 0.23930362 -0.08082775 -0.42504287 0.8122425 0.8014582
0.32353246 -0.1454452 0.17296797 -0.04612879 -0.180784 0.14828579 -0.26420763 0.09303742
0.2520782 0.032802593 0.8599104 -0.013729657 -0.03779121 0.14449589 0.46616748 -0.14301518
-0.04694631 -0.23431651 0.18466422 0.3329334 -0.054024365 0.32317072 0.15780006 -0.33514738
0.15370576 -0.16735302 0.5354912 -0.1534144 0.00073358906 0.078820035 -0.26870197 0.60245794
00000000: ef25 61bc d54e 28be 81ff c53e 8b05 393f
00000010: f365 53be 2f3a d53e f9eb 9a3d 7d10 d43d
00000020: 5777 d13e f602 3bbe c09c a03d 9169 513f
00000030: cdd5 10be 9677 d33d 4ec2 8d3d 9c3b ddbd
00000040: cf0d 48be 9e40 863e 5b28 6d3e 7903 0bbc
00000050: 389a b43e 259e 33be 7dd6 403e eb0a 033e
00000060: 8737 18be c56b e6bd 6657 b53d 3330 543f
00000070: e81e 9c3c 2aeb 40bd 4c98 0b3e 1415 123f
00000080: 7d2a 0fbe c6c4 6fbc 47f5 81bd 60a0 8f3e
00000090: b65a 69bd b531 cd3d d2b0 883e 2b93 7a3d
000000a0: f3b8 11be 756d d7bc 9501 c73d 3ecb e23e
000000b0: c7b1 513e 1207 b8be 7ce6 2f3f e28a 6ebe
000000c0: cd2d 2d3e b6a7 9d3e 90d7 883e 2548 9e3e
000000d0: 098e 933e e753 f73e f502 a53e df32 30be
000000e0: d7af 8c3e 18c9 b43e b598 3c3f a656 ff3e
000000f0: e050 be3d ce4c 30be 434e a23e 0960 de3c
00000100: c49c 3f3e 2764 08bf 7c54 843d 818e 2cbd
00000110: 0571 73bd beef 62be 84da cabb 261a 9abe
00000120: 24bd 5abe 42fc c7bd b23d d23d 657e 2ebe
00000130: 673c 94bd d45b 303f ecdb d0bd 3fbf a43e
00000140: 14f1 b73e 0728 f5bc af03 f73e c49c 223d
00000150: 1372 c53e d3fe ea3e adf7 5d3e 5120 763b
00000160: f77b dfbd e6bb 823d 8419 0a3f 020c 753e
00000170: 0589 a5bd 389f d9be 20ef 4f3f 5d2c 4d3f
00000180: 0ca6 a53e 96ef 14be 841e 313e 8bf1 3cbd
00000190: 711f 39be 3bd8 173e 3946 87be 678a be3d
000001a0: 6510 813e 035c 063d 1723 5c3f 5bf2 60bc
000001b0: f5ca 1abd bbf6 133e 81ad ee3e 9272 12be
000001c0: c64a 40bd abf0 6fbe 9e18 3d3e 3f76 aa3e
000001d0: a748 5dbd a276 a53e 5796 213e 7098 abbe
000001e0: 0b65 1d3e 975e 2bbe f415 093f aa18 1dbe
000001f0: 544e 403a 666c a13d 4e93 89be af3a 1a3f

net.2.weight f4 [128, 128]
0.0136248 -0.04720778 0.2079075 -0.039771542 2.0412788 1.282664 -2.2329865 -0.8993857
-1.7582233 -0.022459771 0.57628685 0.13842312 -1.1756095 -0.78030044 -3.1002665 -0.38004333
-0.0028352705 -0.40341553 -0.5924469 -2.879115 0.50206345 0.06335192 -0.5453917 -0.83626705
-0.32764864 0.47523493 0.9177692 -0.05290198 -0.69867045 -0.09811056 -2.2070086 -0.26394853
1.2460705 -1.2416636 -1.5162323 -1.0916429 0.9129976 0.22120573 -1.217965 -3.703639
-1.1468343 -2.614302 1.9840733 0.43260497 0.67491746 0.23278429 0.9772373 -2.9149125
0.5130826 0.11296253 -1.7281559 -0.03764597 0.9853583 -0.14094107 -1.2320993 -1.365033
1.0803142 1.1415374 1.4968108 0.57443386 0.62334204 -0.008544239 0.7266099 -2.6277595
0.039167836 -4.2873855 -0.12135026 -0.23888756 0.0033996757 -2.3354042 -0.0066902796 0.91284776
-2.3462744 1.423827 -3.466225 -0.56941795 -0.7841273 -0.11470202 -1.434509 -0.8026329
0.16257858 0.09570578 -0.38962978 -1.1482183 0.2876608 0.96274406 -0.09903331 -0.120863
-0.7476613 -2.126311 -1.1554856 1.1460066 -0.9461038 -0.8573029 0.29141197 -0.3673109
-0.39032826 -0.035241067 -1.516555 0.36564872 0.066256806 -0.09534143 -0.82451916 0.80247986
0.9056783 -1.3570457 2.1097023 1.1365376 -1.8728217 -2.0113204 0.46048892 -4.0900016
-0.008994963 -0.9357586 -1.2655119 1.0478654 -0.13518442 0.18243283 -1.4831412 -1.1767222
-1.8182282 0.023355285 -0.07586382 -0.08697217 -0.42712316 -3.2811675 -2.0862699 0.59027874
0.002628006 -0.080330804 0.008779263 -0.05988995 -0.00053070486 -0.06339203 0.03619256 -0.109394915
0.044760562 0.010390922 0.00035596374 -0.12451859 -0.008437954 0.005867058 -0.12958026 0.05703435
0.08554464 -0.017957773 0.028291462 -0.0004487925 0.046702333 -0.07485074 -0.05040228 -0.03645334
0.07998633 -0.026558813 -0.058823034 -0.019444004 -0.056782857 -0.0349675 -0.105865546 -0.04863225
-0.107280046 -0.016961798 -0.05180526 0.043571465 -0.106370136 -0.08801134 0.0085995905 0.025654918
0.010299005 -0.014128143 0.040407125 -0.030522903 0.026157966 0.0060777967 -0.07701672 -0.03277811
-0.0285405 -0.040955283 -0.023743467 -0.0023296855 -0.09714352 -0.06679452 0.021426057 -0.052932985
0.024991162 -0.04105364 -0.021411039 -0.030680718 -0.11708276 -0.06805992 -0.084521785 0.05752846
-0.11430397 0.024936838 0.046789043 -0.061945483 0.044394888 -0.10411035 -0.06648013 0.02822172
0.0053239055 -0.103933245 -0.010481749 0.031174727 -0.06276368 -0.038931284 0.014830547 -0.068087295
-0.048284035 -0.02954375 0.038807765 -0.003633198 -0.044895194 0.0010620772 -0.023013474 -0.045071956
0.02867224 -0.022862934 0.01812146 -0.013798758 0.01973486 -0.03814128 -0.07388327 -0.044533323
-0.081232876 -0.044902936 -0.10453543 -0.0019110888 0.087342 0.006802857 -0.087832525 0.0005142287
-0.0603839 0.071047984 -0.061616335 0.00300022 0.01443696 0.0040666047 -0.07966712 -0.03767864
-0.011958249 -0.026031982 -0.046967566 -0.032811515 -0.05354486 -0.08247621 0.019287465 -0.009871744
-0.0007675141 0.02041208 -0.12149827 -0.06034571 0.0027479753 -0.08260236 0.046019636 0.08718332
00000000: 8e3a 5f3c f25c 41bd b4e5 543e 7ce7 22bd
00000010: 50a4 0240 552e a43f 40e9 0ec0 243e 66bf
00000020: 760d e1bf 8efd b7bc 8987 133f cabe 0d3e
00000030: 5f7a 96bf c5c1 47bf c46a 46c0 0a95 c2be
00000040: f2cf 39bb 7b8c cebe 9aaa 17bf 6c43 38c0
00000050: 3b87 003f a7be 813d ca9e 0bbf 9915 56bf
00000060: 90c1 a7be fe51 f33e ecf2 6a3f bfaf 58bd
00000070: 11dc 32bf 30ee c8bd a13f 0dc0 4324 87be
00000080: 3d7f 9f3f d5ee 9ebf e613 c2bf f4ba 8bbf
00000090: 36ba 693f c183 623e 47e6 9bbf 6c08 6dc0
000000a0: 77cb 92bf b950 27c0 1df6 fd3f 667e dd3e
000000b0: 64c7 2c3f 015f 6e3e 392c 7a3f ed8d 3ac0
000000c0: 6259 033f e658 e73d 3634 ddbf a932 1abd
000000d0: 7140 7c3f db52 10be 6eb5 9dbf 67b9 aebf
000000e0: bc47 8a3f e61d 923f 7f97 bf3f 190e 133f
000000f0: 5893 1f3f 23fd 0bbc 1b03 3a3f 362d 28c0
00000100: 746e 203d 4332 89c0 7c86 f8bd f19e 74be
00000110: 18cd 5e3b 4377 15c0 223a dbbb 64b0 693f
00000120: 5c29 16c0 f73f b63f a1d6 5dc0 60c5 11bf
00000130: 91bc 48bf e5e8 eabd fe9d b7bf 5a79 4dbf
00000140: 007b 263e 6401 c43d 8e7d c7be d1f8 92bf
00000150: 4748 933e 6576 763f fad1 cabd 0587 f7bd
00000160: bb66 3fbf 7b15 08c0 f4e6 93bf 58b0 923f
00000170: dc33 72bf 3478 5bbf f333 953e 2d10 bcbe
00000180: 1bd9 c7be f058 10bd 791e c2bf 4f36 bb3e
00000190: a6b1 873d 5e42 c3bd b013 53bf 526f 4d3f
000001a0: 88da 673f acb3 adbf 5d05 0740 107a 913f
000001b0: 9fb8 efbf 79b9 00c0 34c5 eb3e 4be1 82c0
000001c0: 9c5f 13bc e08d 6fbf 4bfc a1bf 7420 863f
000001d0: c96d 0abe accf 3a3e 92d7 bdbf d59e 96bf
000001e0: b4bb e8bf 9553 bf3c 7e5e 9bbd 771e b2bd
000001f0: e3af dabe a6fe 51c0 7285 05c0 821c 173f
00000200: a03a 2c3b 7a84 a4bd e6d6 0f3c 2a4f 75bd
00000210: 001f 0bba aed3 81bd a63e 143d 710a e0bd
00000220: da56 373d b03e 2a3c a5a0 ba39 9a03 ffbd
00000230: 583f 0abc 7340 c03b b0b0 04be da9c 693d
00000240: 0732 af3d 2e1c 93bc 7fc3 e73c e94b ebb9
00000250: f24a 3f3d 584b 99bd 9f72 4ebd 1950 15bd
00000260: dfcf a33d de91 d9bc 6cf0 70bd 0849 9fbc
00000270: 2495 68bd 153a 0fbd 09d0 d8bd 9c32 47bd
00000280: a4b5 dbbd 78f3 8abc c131 54bd fe77 323d
00000290: 96d8 d9bd 4a3f b4bd 4ce5 0c3c 432a d23c
000002a0: 28bd 283c ba79 67bc f181 253d 2b0b fabc
000002b0: 3b49 d63c 4128 c73b f1ba 9dbd 5742 06bd
000002c0: c4cd e9bc bac0 27bd a981 c2bc a3ad 18bb
000002d0: 2ff3 c6bd 91cb 88bd b385 af3c 42d0 58bd
000002e0: 44ba cc3c dd27 28bd 3466 afbc 2156 fbbc
000002f0: 16c9 efbd 0063 8bbd c219 adbd f6a2 6b3d
00000300: 3318 eabd 5748 cc3c dea5 3f3d 8cba 7dbd
00000310: 6ad7 353d cf37 d5bd bc26 88bd 3d31 e73c
00000320: 2874 ae3b f4da d4bd a4bb 2bbc 2462 ff3c
00000330: 3f8a 80bd 6976 1fbd d3fb 723c 5a71 8bbd
00000340: 7bc5 45bd bc05 f2bc e4f4 1e3d f31a 6ebb
00000350: 06e4 37bd 6635 8b3a c186 bcbc 5f9d 38bd
00000360: 0ce2 ea3c 0c4b bbbc 7573 943c 3014 62bc
00000370: 00ab a13c 083a 1cbd 1d50 97bd 9368 36bd
00000380: 6c5d a6bd 24ec 37bd ac16 d6bd 807d faba
00000390: 5de0 b23d 80ea de3b 8ae1 b3bd 4ecd 063a
000003a0: 1c55 77bd 9b81 913d 6961 7cbd 579f 443b
000003b0: 0089 6c3c 2741 853b 8428 a3bd eb54 1abd
000003c0: 88ec 43bc 0641 d5bc 1061 40bd 5e65 06bd
000003d0: db51 5bbd 4ae9 a8bd bf00 9e3c 18bd 21bc
000003e0: 0033 49ba 3c37 a73c 16d4 f8bd 102d 77bd
000003f0: 6017 343b 6d2b a9bd 167f 3c3d 2b8d b23d

net.2.bias f4 [128]
0.7884189 -0.054443967 -0.1171285 -0.08319903 0.9962864 0.56575584 0.6647126 0.6352502
1.2730601 1.6632808 -0.01236729 0.77878845 0.4857211 1.0750073 1.7946382 -0.10467368
1.1356432 0.007968794 -0.08603919 0.018476931 -0.12226435 0.6463871 0.04789832 0.94870585
0.35011983 0.25499487 -0.0854037 0.4800121 0.0363983 0.22178054 1.1664137 1.8227316
0.37794116 0.4680036 0.45120686 -0.09666867 0.649686 -0.073055364 0.41019493 -0.04345371
0.6849423 -0.010359342 0.059483223 1.1170703 1.753852 -0.07866362 -0.10306545 -0.061105836
-0.0538129 1.2725443 0.5947399 0.22393271 -0.06634183 1.5747943 0.5683734 0.7969957
-0.06237502 0.84050924 0.8330874 0.53787434 -0.031942807 -0.026851052 0.2418131 0.55782974
-0.04915713 0.56994283 -0.022243742 1.0151764 0.42009997 0.5403548 1.7055017 0.9504477
-0.05971035 -0.017161068 -0.11077175 -0.03419357 0.85432506 1.4386657 1.0286342 0.41218233
0.2134495 -0.10104236 0.027488586 1.599554 -0.020529363 0.6164207 1.7333668 0.89915
0.2807791 -0.08635314 1.6591094 -0.13120452 -0.013097557 -0.046338387 1.0303655 -0.13291752
0.61669904 -0.13332787 -0.10858587 0.7220831 -0.087162994 0.87697124 0.9381495 1.7327726
1.6753603 1.8757203 0.6305542 0.9098806 1.401401 0.38824576 0.9715421 0.98887104
-0.113906264 1.8518586 -0.04478015 0.8097986 -0.0860425 -0.07611609 0.028720804 -0.023034835
0.8130669 1.0851146 -0.07597163 -0.11092258 -0.066072695 0.6711045 -0.6416064 0.2950314
00000000: d2d5 493f a300 5fbd 11e1 efbd 4164 aabd
00000010: a00c 7f3f 60d5 103f 9b2a 2a3f c29f 223f
00000020: a2f3 a23f 63e6 d43f 2da0 4abc ae5e 473f
00000030: 70b0 f83e d799 893f b4b6 e53f 285f d6bd
00000040: c25c 913f 8b8f 023c 5135 b0bd ef5c 973c
00000050: bb65 fabd a079 253f 0731 443d 63de 723f
00000060: e842 b33e b08e 823e 23e8 aebd 25c4 f53e
00000070: 6216 153d 701a 633e 0b4d 953f 454f e93f
00000080: 8181 c13e 2b9e ef3e 9604 e73e 39fa c5bd
00000090: d251 263f 0d9e 95bd 1205 d23e 84fc 31bd
000000a0: 6158 2f3f 3bba 29bc aea4 733d 29fc 8e3f
000000b0: 397e e03f 641a a1bd fb13 d3bd 1d4a 7abd
000000c0: ea6a 5cbd bbe2 a23f e040 183f 9e4e 653e
000000d0: 3ade 87bd dc92 c93f eb80 113f e907 4c3f
000000e0: f37c 7fbd 9d2b 573f 3745 553f 22b2 093f
000000f0: 76d6 02bd bdf6 dbbc da9d 773e eecd 0e3f
00000100: fd58 49bd c6e7 113f 8238 b6bc 4df1 813f
00000110: 5817 d73e b154 0a3f e14d da3f 8a50 733f
00000120: d792 74bd 5e95 8cbc 4ddc e2bd 8f0e 0cbd
00000130: 0cb5 5a3f 3326 b83f 49aa 833f 9009 d33e
00000140: 8192 5a3e 4cef cebd be2f e13c 2fbe cc3f
00000150: 322d a8bc bfcd 1d3f f7de dd3f b22e 663f
00000160: 47c2 8f3e ead9 b0bd b25d d43f 7a5a 06be
00000170: 2397 56bc 52cd 3dbd 04e3 833f 881b 08be
00000180: fddf 1d3f 1a87 08be 4562 debd 70da 383f
00000190: 8382 b2bd 3081 603f 912a 703f 7ecb dd3f
000001a0: 3572 d63f 9a17 f03f 006c 213f efed 683f
000001b0: 1c61 b33f 26c8 c63e fcb6 783f a726 7d3f
000001c0: b047 e9bd b409 ed3f 646b 37bd f64e 4f3f
000001d0: 0d37 b0bd c1e2 9bbd e447 eb3c 8db3 bcbc
000001e0: 2725 503f 09e5 8a3f 0497 9bbd 612b e3bd
000001f0: 1f51 87bd 81cd 2b3f 5140 24bf 5b0e 973e

net.4.weight f4 [13, 128]
2.1926372 -0.05625907 -0.01836852 -0.00065523386 3.562895 2.9145572 3.2609515 1.7934089
1.3403709 0.6234574 -0.011321388 3.1704211 2.6357841 3.3504894 0.6529067 0.023568654
0.93313503 0.022850323 -1.6192669 2.091297 -0.07283315 1.6430358 -0.03951741 2.4696
2.1754808 2.2195497 0.040329047 2.1201863 2.1207557 3.2952075 1.2501484 0.6973318
2.4687374 2.75003 1.826871 0.45848557 2.1472921 4.0290623 3.5374172 -0.02004458
2.6758847 0.07990914 1.2128605 1.3655673 0.54675764 -0.06289531 -0.053397123 0.067973696
0.047723353 0.9308293 2.1404946 1.4528892 0.05078832 0.30592898 2.3926473 1.6786224
-0.0029151381 3.1317666 1.8529537 2.446839 -0.021046668 -0.04815037 1.6460918 1.4676297
0.05280476 2.5619214 -0.0020040367 2.6024165 2.4474647 3.7102618 0.63098305 1.7972132
0.04680443 0.019645307 -0.00970526 -0.068256475 2.9975152 1.3011311 1.5904176 2.7074604
2.2329156 0.05641439 -0.058089092 0.488451 -0.025194997 3.246728 0.7648849 1.3610147
3.2324498 0.0020022274 0.6653298 -0.03701908 0.013624348 0.13369866 1.9794888 0.034227297
2.769663 0.020413559 -0.10385489 2.5316148 -0.08859188 1.5101916 2.8259237 0.6736208
0.5893405 0.6273728 2.7063842 3.0466695 3.4399498 2.8475149 2.7804694 1.6985497
0.09048546 0.64849305 -0.06410157 2.3077211 0.023369197 -0.0039904057 0.06414669 0.0018865019
2.4624205 2.5745344 0.02318011 0.007808707 0.0007686965 2.3256333 0.64257455 3.4298878
2.225326 -0.040464748 -0.0053990143 -0.00926771 3.9649658 3.4779556 3.355267 1.5596621
1.321832 0.5966978 -0.024243003 3.2109232 3.16944 3.279891 0.65841967 0.036459964
0.9186145 0.031509988 -1.6266222 1.9345706 0.0345444 1.8324083 -0.052706383 2.3569748
2.3775468 2.5376205 0.05606395 2.4409616 3.467965 3.0391452 1.1241468 0.5797775
2.4367754 2.4267287 2.4670694 -1.0293345 1.9865427 3.8985763 3.1224046 0.08485917
3.4616246 -0.059388846 0.91049355 1.8620317 0.54669136 0.05474443 -0.04006279 -0.0138676
0.044474777 1.0039486 2.2311525 1.5723058 0.07856756 0.7573929 2.0817003 1.7093005
0.07381767 3.6911159 1.9629185 2.8701227 0.07312294 0.0017875254 1.2560267 1.8169537
0.00820615 2.634598 0.028738309 2.4604762 2.4671254 3.448631 0.6217107 2.0262885
-0.02928581 0.058737837 0.015962616 0.053198893 2.8562546 1.0964983 1.5117131 3.535469
2.2497928 -0.04459972 -0.08488942 0.5197789 -0.07378844 3.1053236 0.50099176 1.214977
3.2580593 -0.056909114 0.5661655 0.035741672 0.014473799 -0.02719765 1.6306355 -0.0069521475
2.7169025 -0.027943023 -0.018934157 2.9772363 -0.055899125 1.6835449 3.1191242 0.60357106
0.641596 0.81310743 2.7494838 2.8942435 2.7878525 2.5697076 2.8302681 0.83149016
0.0068693156 0.56670505 0.08611657 2.7992797 0.0176327 0.08326207 0.054760315 0.07532491
2.5255795 2.452815 0.085379116 -0.04827719 -0.027692944 2.312883 0.8063904 3.5220985
00000000: 2b54 0c40 e96f 66bd 9479 96bc 00c4 2bba
00000010: 7906 6440 1b88 3a40 6eb3 5040 6c8e e53f
00000020: 4691 ab3f e79a 1f3f 587d 39bc 2ee8 4a40
00000030: b0b0 2840 6b6e 5640 e524 273f 0d13 c13c
00000040: f0e1 6e3f 9a30 bb3c 2344 cfbf cfd7 0540
00000050: 8c29 95bd ff4e d23f 02dd 21bd ed0d 1e40
00000060: 143b 0b40 1a0d 0e40 1230 253d 22b1 0740
00000070: 76ba 0740 aee4 5240 dd04 a03f 5684 323f
00000080: cbff 1d40 7e00 3040 e9d6 e93f 9fbe ea3e
00000090: 3c6d 0940 14ee 8040 0b65 6240 8834 a4bc
000000a0: b241 2b40 67a7 a33d 033f 9b3f e9ca ae3f
000000b0: 4ff8 0b3f 42cf 80bd f1b6 5abd cb35 8b3d
000000c0: 9079 433d d44a 6e3f ddfd 0840 46f8 b93f
000000d0: 6a07 503d b9a2 9c3e 2221 1940 19dd d63f
000000e0: e70b 3fbb dd6e 4840 962d ed3f 0399 1c40
000000f0: 106a acbc 5339 45bd 23b3 d23f 4adb bb3f
00000100: ce49 583d 85f6 2340 2856 03bb fe8d 2640
00000110: 43a3 1c40 ee74 6d40 1b88 213f 150b e63f
00000120: 01b6 3f3d 32ef a03c d002 1fbc 0dca 8bbd
00000130: 4ad7 3f40 778b a63f ce92 cb3f 0847 2d40
00000140: 17e8 0e40 c712 673d d4ee 6dbd 4016 fa3e
00000150: bd65 cebc 64ca 4f40 7fcf 433f bb35 ae3f
00000160: 75e0 4e40 cd37 033b 0e53 2a3f 52a1 17bd
00000170: a838 5f3c 4de8 083e e45f fd3f ec31 0c3d
00000180: 2942 3140 563a a73c dfb1 d4bd fa05 2240
00000190: a96f b5bd f54d c13f efdb 3440 6a72 2c3f
000001a0: 05df 163f 819b 203f 6635 2d40 a2fc 4240
000001b0: 2328 5c40 af3d 3640 36f3 3140 146a d93f
000001c0: 7150 b93d a403 263f af47 83bd b4b1 1340
000001d0: c270 bf3c f3c1 82bb 575f 833d 8044 f73a
000001e0: 4c98 1d40 2cc5 2440 37e4 bd3c 2fe0 ff3b
000001f0: 5982 493a 2dd7 1440 c47f 243f 4883 5b40
00000200: be6b 0e40 5dbe 25bd 37ea b0bb 98d7 17bc
00000210: 00c2 7d40 d396 5e40 b2bc 5640 02a3 c73f
00000220: ca31 a93f 30c1 183f 4399 c6bc c47f 4d40
00000230: 1bd8 4a40 bce9 5140 318e 283f 0b57 153d
00000240: 522a 6b3f 9e10 013d 2835 d0bf 02a0 f73f
00000250: 6e7e 0d3d 5b8c ea3f a6e2 57bd add8 1640
00000260: ba29 1840 6068 2240 50a3 653d b738 1c40
00000270: 23f3 5d40 5b81 4240 0be4 8f3f 4c6c 143f
00000280: 21f4 1b40 864f 1b40 77e4 1d40 3cc1 83bf
00000290: 0847 fe3f 4682 7940 7ad5 4740 a5ca ad3d
000002a0: 428b 5d40 b841 73bd 1b16 693f 0e57 ee3f
000002b0: f7f3 0b3f b23b 603d e118 24bd ee34 63bc
000002c0: 2f2b 363d 6381 803f 34cb 0e40 5141 c93f
000002d0: 07e8 a03d 80e4 413f 943a 0540 5cca da3f
000002e0: b82d 973d 3e3b 6c40 ea40 fb3f 17b0 3740
000002f0: 7bc1 953d 664b ea3a 7cc5 a03f f091 e83f
00000300: 1673 063c 419d 2840 9a6c eb3c 7178 1d40
00000310: 62e5 1d40 5fb6 5c40 6f28 1f3f b6ae 0140
00000320: cce8 efbc 1697 703d 08c4 823c 15e7 593d
00000330: e0cc 3640 0e5a 8c3f d17f c13f 2045 6240
00000340: 9bfc 0f40 32ae 36bd 81da adbd 3b10 053f
00000350: 651e 97bd 9fbd 4640 ff40 003f 5e84 9b3f
00000360: 0b84 5040 8819 69bd 39f0 103f dc65 123d
00000370: 8323 6d3c 9bcd debc aab8 d03f d7ce e3bb
00000380: bbe1 2d40 c4e8 e4bc ce1b 9bbc 0a8b 3e40
00000390: 7bf6 64bd 667e d73f bb9f 4740 a283 1a3f
000003a0: a33f 243f cf27 503f 8bf7 2f40 493b 3940
000003b0: 2d6c 3240 1776 2440 1d23 3540 8adc 543f
000003c0: ff17 e13b 9513 113f e25d b03d 6627 3340
000003d0: 7472 903c 4e85 aa3d 5a4c 603d f243 9a3d
000003e0: 18a3 2140 ecfa 1c40 3fdb ae3d 4ebe 45bd
000003f0: 50dc e2bc 4606 1440 9a6f 4e3f 106a 6140

net.4.bias f4 [13]
0.9903977 1.9372927 1.3296673 1.1933223 1.1420902 1.1295466 1.3986708 1.3300651
0.7186277 0.85846585 0.9843319 1.041265 1.1068695
00000000: b48a 7d3f 35f9 f73f 8a32 aa3f c9be 983f
00000010: 0330 923f fc94 903f a507 b33f 933f aa3f
00000020: fcf7 373f 6bc4 5b3f 2dfd 7b3f 2c48 853f
00000030: e6ad 8d3f

net.0.weight f4 [128, 53]
-0.03610943 -1.0414855 -0.099518366 -1.7434554 0.65083766 0.37079 0.23226136 0.6343295
0.77440464 0.1472435 0.016887482 -0.11407127 0.6373811 1.558174 -1.6554534 1.9017218
0.5117343 -0.28027663 2.1708026 0.6528953 0.042243082 0.23896058 0.5230919 1.3882726
-0.03725019 0.92001814 -0.27803412 1.0135295 -0.33898866 -0.9241596 0.8740039 0.354592
0.52261513 0.8327061 1.2737656 -0.057809424 1.2079206 -0.96540713 0.7179274 2.1356978
-0.73125076 -1.0713197 -0.56858945 -0.47433197 -0.42819777 -0.6386767 0.019098815 -0.13028395
0.7389691 0.0067544533 0.64939165 -0.5198865 0.6742057 -0.03246264 -0.07961129 -0.044448156
-0.10034115 0.08545487 -0.095017314 -0.11486292 -0.14539483 -0.08287654 -0.07415549 0.10079074
0.14064339 0.081250295 -0.03104955 0.035348594 -0.020479165 0.066624284 -0.025256693 -0.078275464
-0.042192653 0.13483691 0.031053906 -0.051266108 -0.032590266 -0.10262618 -0.045156654 0.094907224
0.08900874 0.007335432 0.047846437 0.09982579 -0.034383006 -0.12685823 -0.019009288 0.031930283
0.014947533 -0.060453776 -0.17895569 0.060233764 -0.11492307 -0.2475748 -0.055576693 0.10751896
-0.007421322 0.042286474 -0.16545923 0.22962387 -0.067756 -0.123909906 0.23986848 0.060657483
0.018343266 -0.038386595 0.24692284 0.3915686 0.38496408 1.1004391 0.31213617 0.4491764
0.7916944 -0.70325965 0.5002751 0.11169776 0.35507375 -0.61269915 -1.6662906 -0.59567857
-1.2046504 0.5888446 0.5101158 -0.65561056 -0.14899889 -0.39498147 0.14493904 0.8667106
-0.2791534 0.32396507 0.063968 0.6979812 1.9937621 0.1478543 0.9285964 0.070844874
0.35939747 0.24949273 -1.4600918 -0.25206757 0.018902425 -0.10592711 0.13926044 0.09035232
-0.13523524 -1.306957 0.53505564 0.61904913 0.2667448 0.42016193 -0.50883186 1.4708961
-0.5933554 0.8479485 0.5974559 -0.2961783 0.41848934 -1.1679542 -0.29139736 0.60584176
0.8093241 0.17412093 0.52195406 0.2422189 0.58304465 -0.2080933 -0.034852527 0.043864947
0.452822 -0.69207764 -0.87237746 -0.059983853 -0.28795427 0.21877971 0.5558646 -0.5533848
0.315769 -0.12643757 0.10085247 -0.44351646 -0.25520468 -0.17021166 -0.10725736 -0.10846597
-0.41941267 -0.21237594 0.030756256 0.29123124 -0.019798297 0.06206211 0.18294638 0.1805634
0.15135902 -0.4308728 0.18840103 0.16359386 0.029324748 0.07577812 0.26499486 0.38892853
0.612577 -0.78495824 -0.5608252 -0.036419287 0.7786862 -0.69888586 1.103111 0.16109842
-0.6964183 0.040649418 0.093204506 0.053268682 -0.14914742 -0.21232748 -1.2872673 -0.28329197
0.06600363 -0.22497562 0.9387255 0.9529135 1.240731 -0.050930787 0.31933895 -0.1206144
1.3632736 -0.32333174 -0.31220454 0.13679726 -0.5533473 -2.7665145 -0.6371307 0.3132011
0.17656623 0.97023165 0.8158071 0.939151 0.0049137026 0.8706968 0.67766726 1.6034373
-1.2211274 -0.75599384 -0.34528482 0.10360179 1.3278749 0.04494837 -1.2272332 0.74793327
1.116335 -0.31088415 -1.2341378 -0.6363334 1.4677931 0.9743428 2.8796258 1.8548799
00000000: 7be7 13bd 664f 85bf 49d0 cbbd 8c29 dfbf
00000010: 4c9d 263f 30d8 bd3e ecd5 6d3e 6b63 223f
00000020: 623f 463f 00c7 163e 9e57 8a3c 339e e9bd
00000030: 682b 233f 3f72 c73f e6e5 d3bf 9f6b f33f
00000040: 0501 033f 6b80 8fbe 6eee 0a40 2524 273f
00000050: 1507 2d3d 15b2 743e 5ae9 053f ebb2 b13f
00000060: a893 18bd 4f86 6b3f 7d5a 8ebe 56bb 813f
00000070: ec8f adbe b995 6cbf b8be 5f3f 158d b53e
00000080: 1bca 053f 3a2c 553f c00a a33f 93c9 6cbd
00000090: 249d 9a3f ec24 77bf 17ca 373f 46af 0840
000000a0: 4033 3bbf 0121 89bf 148f 11bf a4db f2be
000000b0: bd3c dbbe 5180 23bf 1e75 9c3c 2869 05be
000000c0: 142d 3d3f 7654 dd3b 883e 263f 4817 05bf
000000d0: bf98 2c3f 8cf7 04bd 3e0b a3bd 450f 36bd
000000e0: a97f cdbd f602 af3d 7098 c2bd 403d ebbd
000000f0: 62e2 14be 2dbb a9bd d5de 97bd 606b ce3d
00000100: d204 103e 8e66 a63d a05b febc b0c9 103d
00000110: ecc3 a7bc 5072 883d 20e7 cebc e34e a0bd
00000120: 34d2 2cbd b012 0a3e c364 fe3c 69fc 51bd
00000130: 5f7d 05bd ad2d d2bd 2ff6 38bd b85e c23d
00000140: 374a b63d 105e f03b a0fa 433d 7771 cc3d
00000150: 32d5 0cbd 20e7 01be 5eb9 9bbc 54c9 023d
00000160: 7fe6 743c 619e 77bd 2940 37be aeb7 763d
00000170: c95c ebbd 4084 7dbe 63a4 63bd e732 dc3d
00000180: 902e f3bb 9534 2d3d 256e 29be 8522 6b3e
00000190: a8c3 8abd 7ac4 fdbd 15a0 753e fb73 783d
000001a0: 9e44 963c 433b 1dbd 57d9 7c3e ae7b c83e
000001b0: 031a c53e 30db 8c3f 50d0 9f3e 73fa e53e
000001c0: 7cac 4a3f d308 34bf 0712 003f ccc1 e43d
000001d0: 3acc b53e dad9 1cbf 0349 d5bf 647e 18bf
000001e0: fc31 9abf 85be 163f f396 023f 18d6 27bf
000001f0: 2a93 18be 033b cabe e66a 143e bfe0 5d3f
00000200: 32ed 8ebe c0de a53e a801 833d e5ae 323f
00000210: 9933 ff3f 1e67 173e 7eb8 6d3f 1e17 913d
00000220: f202 b83e 067b 7f3e 4ae4 babf 000f 81be
00000230: 42d9 9a3c 50f0 d8bd 4a9a 0e3e a30a b93d
00000240: 1b7b 0abe 5e4a a7bf 68f9 083f 017a 1e3f
00000250: c692 883e 771f d73e ce42 02bf 5346 bc3f
00000260: 24e6 17bf 2713 593f dff2 183f afa4 97be
00000270: 3c44 d63e 867f 95bf 0932 95be 7218 1b3f
00000280: dd2f 4f3f c24c 323e c89e 053f 3b08 783e
00000290: 6a42 153f 6916 55be 86c1 0ebd bbab 333d
000002a0: 49d8 e73e 002c 31bf 2154 5fbf a1b1 75bd
000002b0: be6e 93be ca07 603e 244d 0e3f a0aa 0dbf
000002c0: 79ac a13e da78 01be bd8b ce3d 9714 e3be
000002d0: 30aa 82be f74b 2ebe bfa9 dbbd 6823 debd
000002e0: 42bd d6be 1479 59be 8bf4 fb3c 431c 953e
000002f0: 0a30 a2bc d734 7e3d 4c56 3b3e 9de5 383e
00000300: dcfd 1a3e 5c9b dcbe 33ec 403e 2685 273e
00000310: 743a f03c 8f31 9b3d 68ad 873e a421 c73e
00000320: d9d1 1c3f 06f3 48bf 3e92 0fbf 642c 15bd
00000330: fb57 473f 2fea 32bf be32 8d3f fcf6 243e
00000340: 7848 32bf 0180 263d 01e2 be3d 4330 5a3d
00000350: 1aba 18be 606c 59be 2dc5 a4bf a50b 91be
00000360: e92c 873d 0260 66be 5050 703f 24f2 733f
00000370: 46d0 9e3f cd9c 50bd 6580 a33e af04 f7bd
00000380: c07f ae3f bd8b a5be 46d9 9fbe 9514 0c3e
00000390: 2ba8 0dbf 930e 31c0 ff1a 23bf e55b a03e
000003a0: c7cd 343e 1a61 783f bcd8 503f 336c 703f
000003b0: 2003 a13b fce5 5e3f 9a7b 2d3f 6f3d cd3f
000003c0: e74d 9cbf d088 41bf 2cc9 b0be 2d2d d43d
000003d0: cef7 a93f c81b 383d fa15 9dbf 8e78 3f3f
000003e0: 11e4 8e3f 352c 9fbe 3af8 9dbf bfe6 22bf
000003f0: a5e0 bb3f 886e 793f ca4b 3840 b46c ed3f

net.0.bias f4 [128]
-0.0069368836 -0.16436322 0.38556173 0.7222156 -0.20352815 0.41831693 0.07437169 0.10186002
0.4074371 -0.18262848 0.08155509 0.8174343 -0.14222337 0.10557139 0.07164283 -0.10538622
-0.19536518 0.2622963 0.23529921 -0.0055111432 0.35064623 -0.17540796 0.18383943 0.12626132
-0.1553397 -0.11343581 0.089749634 0.8283396 0.024038719 -0.04709927 0.13579671 0.5776841
-0.14144234 -0.013588935 -0.06615197 0.28217784 -0.057578865 0.098953225 0.26694614 0.06127856
-0.14318529 -0.028409876 0.09443802 0.44002122 0.20421553 -0.35942894 0.6866566 -0.23280387
0.16863602 0.3042111 0.26633596 0.3081884 0.2854437 0.47953752 0.32257384 -0.17014517
0.27501932 0.35225457 0.7358233 0.49770522 0.090573944 -0.17216799 0.31176516 0.024643488
0.18476556 -0.5375344 0.06746542 -0.051795047 -0.059433956 -0.22274153 -0.0061906 -0.2972223
-0.21051525 -0.08894242 0.10334055 -0.16414085 -0.07128939 0.68829733 -0.1037744 0.32774934
0.36072275 -0.029926313 0.48073968 0.038881667 0.3858284 0.45811027 0.21524473 0.006815645
-0.11364444 0.06498269 0.54005134 0.23375998 -0.08592826 -0.42622972 0.8130054 0.8020759
0.32532054 -0.1454452 0.1729226 -0.049188714 -0.180784 0.14635469 -0.26178628 0.088853665
0.24953057 0.02854053 0.8596599 -0.002460341 -0.03287156 0.14519049 0.46634775 -0.14831439
-0.04694631 -0.23451705 0.18558224 0.3303345 -0.054837212 0.3234138 0.15852886 -0.34236023
0.1539919 -0.16735302 0.5350288 -0.1534144 -0.00095843803 0.07932164 -0.26950136 0.6023293
00000000: cc4e e3bb d54e 28be 5968 c53e 1fe3 383f
00000010: af69 50be a32d d63e 2f50 983d fc9b d03d
00000020: 989b d03e f602 3bbe 5b06 a73d 6043 513f
00000030: 01a3 11be d035 d83d 7ab9 923d bbd4 d7bd
00000040: cf0d 48be b34b 863e 47f2 703e d296 b4bb
00000050: e787 b33e 259e 33be 6740 3c3e a64a 013e
00000060: 5f11 1fbe 0951 e8bd a8ce b73d 100e 543f
00000070: d9ec c43c 2aeb 40bd 4b0e 0b3e 1be3 133f
00000080: 43d6 10be 20a4 5ebc af7a 87bd 9d79 903e
00000090: d1d7 6bbd fda7 ca3d 2aad 883e 3aff 7a3d
000000a0: 2a9f 12be d4bb e8bc b868 c13d 764a e13e
000000b0: e01d 513e 1207 b8be bac8 2f3f 2364 6ebe
000000c0: ecae 2c3e 8fc1 9b3e 305d 883e dfca 9d3e
000000d0: ad25 923e f185 f53e 6628 a53e 893a 2ebe
000000e0: 55cf 8c3e b65a b43e ea5e 3c3f 38d3 fe3e
000000f0: d57e b93d ce4c 30be af9f 9f3e 24e1 c93c
00000100: 2f33 3d3e db9b 09bf 4f2b 8a3d 0b27 54bd
00000110: 0571 73bd 5b16 64be 84da cabb 852d 98be
00000120: 4f91 57be 7227 b6bd 36a4 d33d 8a14 28be
00000130: 2c00 92bd 4134 303f ac87 d4bd c3ce a73e
00000140: a7b0 b83e 0728 f5bc 8323 f63e 6242 1f3d
00000150: 4d8b c53e 6e8d ea3e 1d69 5c3e c655 df3b
00000160: 6bbe e8bd a515 853d ce40 0a3f c75e 6f3e
00000170: 28fb afbd c83a dabe 1f21 503f d954 4d3f
00000180: 6a90 a63e 96ef 14be 9f12 313e 1b7a 49bd
00000190: 711f 39be 01de 153e da08 86be e9f8 b53d
000001a0: f184 7f3e d4cd e93c ac12 5c3f ac3d 21bb
000001b0: 54a4 06bd d1ac 143e 22c5 ee3e badf 17be
000001c0: c64a 40bd 3d25 70be 4509 3e3e 9b21 a93e
000001d0: fc9c 60bd 7e96 a53e 6455 223e d749 afbe
000001e0: 0db0 1d3e 975e 2bbe a6f7 083f aa18 1dbe
000001f0: b03f 7bba 6273 a23d 15fc 89be 4132 1a3f

net.2.weight f4 [128, 128]
0.017753875 -0.04720778 0.20939238 -0.036131773 2.049513 1.285613 -2.232321 -0.8983853
-1.757296 -0.022459771 0.57699496 0.14195363 -1.1705275 -0.78126395 -3.0945036 -0.37696066
-0.0028352705 -0.4004746 -0.5849313 -2.8736165 0.50763494 0.06335192 -0.5441938 -0.8329685
-0.3312557 0.4802776 0.92270446 -0.049303547 -0.69234693 -0.09811056 -2.2098918 -0.25902283
1.2404598 -1.2313341 -1.5187547 -1.0866355 0.9167418 0.22710934 -1.2223314 -3.6972356
-1.1503544 -2.610243 1.9866469 0.433122 0.673077 0.23278429 0.97939265 -2.9139829
0.5134005 0.11509107 -1.7259243 -0.034123756 0.9914845 -0.13418354 -1.2390409 -1.363343
1.080507 1.1447408 1.4974579 0.57527345 0.62675995 -0.008544239 0.7236148 -2.6263173
0.041232307 -4.278261 -0.119382426 -0.23060444 0.0033996757 -2.3291862 -0.0066902796 0.9180712
-2.344597 1.4238315 -3.463671 -0.5652123 -0.78232074 -0.11101806 -1.4325113 -0.79964185
0.1644792 0.09570578 -0.3891213 -1.1479613 0.29370707 0.963932 -0.09662952 -0.112455405
-0.7463514 -2.1303525 -1.1546183 1.1491866 -0.94760746 -0.85897577 0.29201066 -0.3672459
-0.39644969 -0.035241067 -1.5121105 0.36115727 0.066256806 -0.0977422 -0.8179217 0.80663323
0.90660906 -1.3480266 2.112854 1.132353 -1.8795621 -2.0146842 0.46058527 -4.091729
-0.008994963 -0.93301725 -1.2707734 1.0539641 -0.1352102 0.18535277 -1.4807546 -1.1786596
-1.812534 0.023355285 -0.07230863 -0.08697217 -0.4226606 -3.278885 -2.0818756 0.59089357
0.002628006 -0.080330804 0.008779263 -0.05988995 -0.00053070486 -0.06339203 0.03619256 -0.109394915
0.044760562 0.010390922 0.00035596374 -0.12451859 -0.008437954 0.005867058 -0.12958026 0.05703435
0.08554464 -0.017957773 0.028291462 -0.0004487925 0.046702333 -0.07485074 -0.05040228 -0.03645334
0.07998633 -0.026558813 -0.058823034 -0.019444004 -0.056782857 -0.0349675 -0.105865546 -0.04863225
-0.107280046 -0.016961798 -0.05180526 0.043571465 -0.106370136 -0.08801134 0.0085995905 0.025654918
0.010299005 -0.014128143 0.040407125 -0.030522903 0.026157966 0.0060777967 -0.07701672 -0.03277811
-0.0285405 -0.040955283 -0.023743467 -0.0023296855 -0.09714352 -0.06679452 0.021426057 -0.052932985
0.024991162 -0.04105364 -0.021411039 -0.030680718 -0.11708276 -0.06805992 -0.084521785 0.05752846
-0.11430397 0.024936838 0.046789043 -0.061945483 0.044394888 -0.10411035 -0.06648013 0.02822172
0.0053239055 -0.103933245 -0.010481749 0.031174727 -0.06276368 -0.038931284 0.014830547 -0.068087295
-0.048284035 -0.02954375 0.038807765 -0.003633198 -0.044895194 0.0010620772 -0.023013474 -0.045071956
0.02867224 -0.022862934 0.01812146 -0.013798758 0.01973486 -0.03814128 -0.07388327 -0.044533323
-0.081232876 -0.044902936 -0.10453543 -0.0019110888 0.087342 0.006802857 -0.087832525 0.0005142287
-0.0603839 0.071047984 -0.061616335 0.00300022 0.01443696 0.0040666047 -0.07966712 -0.03767864
-0.011958249 -0.026031982 -0.046967566 -0.032811515 -0.05354486 -0.08247621 0.019287465 -0.009871744
-0.0007675141 0.02041208 -0.12149827 -0.06034571 0.0027479753 -0.08260236 0.046019636 0.08718332
00000000: 9370 913c f25c 41bd f56a 563e e9fe 13bd
00000010: 392b 0340 f78e a43f 59de 0ec0 94fc 65bf
00000020: 13ef e0bf 8efd b7bc f1b5 133f 4b5c 113e
00000030: d8d3 95bf ea00 48bf 590c 46c0 fd00 c1be
00000040: f2cf 39bb 020b cdbe 0fbe 15bf 55e9 37c0
00000050: 5df4 013f a7be 813d 4950 0bbf 6c3d 55bf
00000060: 599a a9be f2e6 f53e 5c36 6c3f 84f2 49bd
00000070: a63d 31bf 30ee c8bd de6e 0dc0 a49e 84be
00000080: 63c7 9e3f 5b9c 9dbf 8e66 c2bf df16 8bbf
00000090: 97af 6a3f 5a8f 683e 5b75 9cbf 829f 6cc0
000000a0: d03e 93bf 390e 27c0 724a fe3f 2bc2 dd3e
000000b0: c64e 2c3f 015f 6e3e 7ab9 7a3f b27e 3ac0
000000c0: 376e 033f deb4 eb3d 16eb dcbf 5ac5 0bbd
000000d0: eed1 7d3f 6967 09be e498 9ebf 0682 aebf
000000e0: 0e4e 8a3f de86 923f b3ac bf3f 1f45 133f
000000f0: 5773 203f 23fd 0bbc d23e 393f 9515 28c0
00000100: 35e3 283d 84e7 88c0 c67e f4bd 9223 6cbe
00000110: 18cd 5e3b 6311 15c0 223a dbbb b706 6b3f
00000120: e10d 16c0 1c40 b63f c9ac 5dc0 c1b1 10bf
00000130: 2c46 48bf 705d e3bd 885c b7bf 54b5 4cbf
00000140: 3c6d 283e 6401 c43d e83a c7be 65f0 92bf
00000150: c660 963e 3fc4 763f b3e5 c5bd 054f e6bd
00000160: e310 3fbf b257 08c0 88ca 93bf 8c18 933f
00000170: 6796 72bf d6e5 5bbf 6c82 953e a807 bcbe
00000180: 74fb cabe f058 10bd d68c c1bf 9be9 b83e
00000190: a6b1 873d 102d c8bd 5163 51bf 847f 4e3f
000001a0: 8817 683f 238c acbf 0039 0740 f1f0 903f
000001b0: 7e95 f0bf 96f0 00c0 d5d1 eb3e 72ef 82c0
000001c0: 9c5f 13bc 38da 6ebf b4a8 a2bf 4ce8 863f
000001d0: 8b74 0abe 1ecd 3d3e 5e89 bdbf 51de 96bf
000001e0: 1d01 e8bf 9553 bf3c 8c16 94bd 771e b2bd
000001f0: f866 d8be 40d9 51c0 733d 05c0 cd44 173f
00000200: a03a 2c3b 7a84 a4bd e6d6 0f3c 2a4f 75bd
00000210: 001f 0bba aed3 81bd a63e 143d 710a e0bd
00000220: da56 373d b03e 2a3c a5a0 ba39 9a03 ffbd
00000230: 583f 0abc 7340 c03b b0b0 04be da9c 693d
00000240: 0732 af3d 2e1c 93bc 7fc3 e73c e94b ebb9
00000250: f24a 3f3d 584b 99bd 9f72 4ebd 1950 15bd
00000260: dfcf a33d de91 d9bc 6cf0 70bd 0849 9fbc
00000270: 2495 68bd 153a 0fbd 09d0 d8bd 9c32 47bd
00000280: a4b5 dbbd 78f3 8abc c131 54bd fe77 323d
00000290: 96d8 d9bd 4a3f b4bd 4ce5 0c3c 432a d23c
000002a0: 28bd 283c ba79 67bc f181 253d 2b0b fabc
000002b0: 3b49 d63c 4128 c73b f1ba 9dbd 5742 06bd
000002c0: c4cd e9bc bac0 27bd a981 c2bc a3ad 18bb
000002d0: 2ff3 c6bd 91cb 88bd b385 af3c 42d0 58bd
000002e0: 44ba cc3c dd27 28bd 3466 afbc 2156 fbbc
000002f0: 16c9 efbd 0063 8bbd c219 adbd f6a2 6b3d
00000300: 3318 eabd 5748 cc3c dea5 3f3d 8cba 7dbd
00000310: 6ad7 353d cf37 d5bd bc26 88bd 3d31 e73c
00000320: 2874 ae3b f4da d4bd a4bb 2bbc 2462 ff3c
00000330: 3f8a 80bd 6976 1fbd d3fb 723c 5a71 8bbd
00000340: 7bc5 45bd bc05 f2bc e4f4 1e3d f31a 6ebb
00000350: 06e4 37bd 6635 8b3a c186 bcbc 5f9d 38bd
00000360: 0ce2 ea3c 0c4b bbbc 7573 943c 3014 62bc
00000370: 00ab a13c 083a 1cbd 1d50 97bd 9368 36bd
00000380: 6c5d a6bd 24ec 37bd ac16 d6bd 807d faba
00000390: 5de0 b23d 80ea de3b 8ae1 b3bd 4ecd 063a
000003a0: 1c55 77bd 9b81 913d 6961 7cbd 579f 443b
000003b0: 0089 6c3c 2741 853b 8428 a3bd eb54 1abd
000003c0: 88ec 43bc 0641 d5bc 1061 40bd 5e65 06bd
000003d0: db51 5bbd 4ae9 a8bd bf00 9e3c 18bd 21bc
000003e0: 0033 49ba 3c37 a73c 16d4 f8bd 102d 77bd
000003f0: 6017 343b 6d2b a9bd 167f 3c3d 2b8d b23d

net.2.bias f4 [128]
0.7916588 -0.054443967 -0.1171285 -0.08319903 0.9967295 0.56659114 0.66126996 0.63756514
1.2751477 1.6629109 -0.01236729 0.78237796 0.48389325 1.0788053 1.7948053 -0.10467368
1.1372287 0.007968794 -0.08334447 0.017963793 -0.12226435 0.65077645 0.04789832 0.94622463
0.34918985 0.26120847 -0.0854037 0.4800121 0.032485537 0.22135417 1.1650224 1.8232062
0.37580898 0.4680036 0.4495593 -0.09666867 0.6485541 -0.07540039 0.41129857 -0.04345371
0.68619365 -0.010359342 0.057645533 1.1164051 1.7536571 -0.07866362 -0.10306545 -0.061105836
-0.0538129 1.2702345 0.59110373 0.22684282 -0.06634183 1.5748411 0.5713439 0.7984235
-0.06237502 0.8370196 0.8281307 0.5352334 -0.031942807 -0.026851052 0.24443859 0.5600642
-0.04915713 0.56528085 -0.022243742 1.0131009 0.42118087 0.54051447 1.7044326 0.9470814
-0.05971035 -0.017161068 -0.11077175 -0.03419357 0.85479635 1.4400166 1.0311236 0.41260633
0.21487749 -0.10104236 0.027488586 1.6001507 -0.020529363 0.62207264 1.7332705 0.89793074
0.2805624 -0.08635314 1.658688 -0.13120452 -0.013097557 -0.046338387 1.026229 -0.13291752
0.61252457 -0.13332787 -0.10858587 0.72073305 -0.087162994 0.8746963 0.93846446 1.7327646
1.6747421 1.8752195 0.6250711 0.90948683 1.4010363 0.39117122 0.9682418 0.9826733
-0.113906264 1.8518187 -0.04478015 0.80669117 -0.0860425 -0.07611609 0.028720804 -0.023034835
0.8106773 1.0872328 -0.07597163 -0.11092258 -0.066072695 0.6713695 -0.6416064 0.29576528
00000000: 27aa 4a3f a300 5fbd 11e1 efbd 4164 aabd
00000010: aa29 7f3f 1e0c 113f fd48 293f 7837 233f
00000020: 0a38 a33f 44da d43f 2da0 4abc ec49 483f
00000030: dbc0 f73e 4b16 8a3f 2ebc e53f 285f d6bd
00000040: b690 913f 8b8f 023c 81b0 aabd ce28 933c
00000050: bb65 fabd 4999 263f 0731 443d c73b 723f
00000060: 03c9 b23e 1ebd 853e 23e8 aebd 25c4 f53e
00000070: 8e0f 053d abaa 623e 741f 953f d25e e93f
00000080: 096a c03e 2b9e ef3e a32c e63e 39fa c5bd
00000090: a407 263f 856b 9abd ba95 d23e 84fc 31bd
000000a0: 63aa 2f3f 3bba 29bc b91d 6c3d 5de6 8e3f
000000b0: d677 e03f 641a a1bd fb13 d3bd 1d4a 7abd
000000c0: ea6a 5cbd 0b97 a23f 9352 173f 7c49 683e
000000d0: 3ade 87bd 6594 c93f 9843 123f 7c65 4c3f
000000e0: f37c 7fbd eb46 563f 6000 543f 0e05 093f
000000f0: 76d6 02bd bdf6 dbbc 1c4e 7a3e 5e60 0f3f
00000100: fd58 49bd 3fb6 103f 8238 b6bc 4aad 813f
00000110: 05a5 d73e 285f 0a3f d92a da3f ed73 723f
00000120: d792 74bd 5e95 8cbc 4ddc e2bd 8f0e 0cbd
00000130: efd3 5a3f 7752 b83f dcfb 833f 2341 d33e
00000140: d808 5c3e 4cef cebd be2f e13c bdd1 cc3f
00000150: 322d a8bc 2740 1f3f cfdb dd3f cade 653f
00000160: e0a5 8f3e ead9 b0bd e34f d43f 7a5a 06be
00000170: 2397 56bc 52cd 3dbd 795b 833f 881b 08be
00000180: 69ce 1c3f 1a87 08be 4562 debd f681 383f
00000190: 8382 b2bd 19ec 5f3f 353f 703f 3bcb dd3f
000001a0: f35d d63f 3107 f03f a904 203f 21d4 683f
000001b0: 2855 b33f 9847 c83e b2de 773f 7a90 7b3f
000001c0: b047 e9bd 6508 ed3f 646b 37bd 5083 4e3f
000001d0: 0d37 b0bd c1e2 9bbd e447 eb3c 8db3 bcbc
000001e0: 8c88 4f3f 722a 8b3f 0497 9bbd 612b e3bd
000001f0: 1f51 87bd dfde 2b3f 5140 24bf 8c6e 973e

net.4.weight f4 [13, 128]
2.194848 -0.05625907 -0.01836852 -0.00065523386 3.5598915 2.9192483 3.2634597 1.793835
1.3393914 0.62296075 -0.011321388 3.1705515 2.6358397 3.3495624 0.6525198 0.023568654
0.9335597 0.022850323 -1.6239587 2.091297 -0.07283315 1.6422428 -0.03951741 2.4670074
2.1788282 2.2195497 0.040329047 2.1201863 2.12075 3.2983184 1.2478244 0.69715595
2.4712865 2.75003 1.823062 0.45848557 2.1467533 4.0273585 3.5379415 -0.02004458
2.6834543 0.07990914 1.2128481 1.3597387 0.5466654 -0.06289531 -0.053397123 0.067973696
0.047723353 0.92956626 2.1402817 1.452861 0.05078832 0.30486146 2.392038 1.6814965
-0.0029151381 3.1309438 1.8525727 2.44016 -0.021046668 -0.04815037 1.6464629 1.4677479
0.05280476 2.5568385 -0.0020040367 2.6024075 2.4458063 3.7110147 0.6306429 1.7975017
0.04680443 0.019645307 -0.00970526 -0.068256475 2.9975152 1.2998573 1.591019 2.7143643
2.2336316 0.05641439 -0.058089092 0.48773414 -0.025194997 3.2467632 0.76492196 1.3632157
3.2326372 0.0020022274 0.6651736 -0.03701908 0.013624348 0.13369866 1.9765435 0.034227297
2.7689054 0.020413559 -0.10385489 2.5316148 -0.08859188 1.5096673 2.8256288 0.67352307
0.58923876 0.62706846 2.7073088 3.0474105 3.440691 2.848923 2.7786164 1.696327
0.09048546 0.6485036 -0.06410157 2.3085845 0.023369197 -0.0039904057 0.06414669 0.0018865019
2.4635453 2.5789042 0.02318011 0.007808707 0.0007686965 2.3249943 0.64257455 3.4299164
2.2188995 -0.040464748 -0.0053990143 -0.00926771 3.9734046 3.478232 3.3538682 1.5618913
1.328041 0.59983575 -0.024243003 3.216021 3.1761985 3.2827172 0.66204786 0.036459964
0.92037714 0.031509988 -1.6303389 1.9346077 0.0345444 1.8376945 -0.052706383 2.3515856
2.3818562 2.5376205 0.05606395 2.4409616 3.4627526 3.0414984 1.1251354 0.5835775
2.4365025 2.4267287 2.4735217 -1.0293345 1.984751 3.9006433 3.131042 0.08485917
3.4668748 -0.059388846 0.9081414 1.8653027 0.55032235 0.05474443 -0.04006279 -0.0138676
0.044474777 1.00576 2.2364166 1.5736079 0.07856756 0.7603001 2.0751941 1.7103817
0.07381767 3.6955051 1.9695334 2.8723204 0.07312294 0.0017875254 1.2572131 1.8240842
0.00820615 2.621093 0.028738309 2.4684863 2.4655704 3.4423285 0.62483865 2.0299835
-0.02928581 0.058737837 0.015962616 0.053198893 2.86578 1.0980483 1.5070717 3.5383184
2.2518325 -0.04459972 -0.08488942 0.52265817 -0.07378844 3.1028383 0.50480044 1.22003
3.2677896 -0.056909114 0.5696692 0.035741672 0.014473799 -0.02719765 1.632286 -0.0069521475
2.725524 -0.027943023 -0.018934157 2.9703424 -0.055899125 1.6946234 3.1282878 0.6072652
0.64507604 0.8168819 2.7570531 2.8975737 2.7948024 2.5789616 2.8362968 0.8342115
0.0068693156 0.5704838 0.08611657 2.8055336 0.0176327 0.08326207 0.054760315 0.07532491
2.5285625 2.4527967 0.085379116 -0.04827719 -0.027692944 2.3078604 0.8063904 3.5279725
00000000: 6478 0c40 e96f 66bd 9479 96bc 00c4 2bba
00000010: 43d5 6340 f7d4 3a40 86dc 5040 639c e53f
00000020: 2d71 ab3f 5b7a 1f3f 587d 39bc 51ea 4a40
00000030: 99b1 2840 3b5f 5640 8a0b 273f 0d13 c13c
00000040: c5fd 6e3f 9a30 bb3c e1dd cfbf cfd7 0540
00000050: 8c29 95bd 0335 d23f 02dd 21bd 73e3 1d40
00000060: ec71 0b40 1a0d 0e40 1230 253d 22b1 0740
00000070: 5eba 0740 a617 5340 b6b8 9f3f d078 323f
00000080: 8f29 1e40 7e00 3040 185a e93f 9fbe ea3e
00000090: 6864 0940 1fe0 8040 a26d 6240 8834 a4bc
000000a0: b7bd 2b40 67a7 a33d 9b3e 9b3f eb0b ae3f
000000b0: 43f2 0b3f 42cf 80bd f1b6 5abd cb35 8b3d
000000c0: 9079 433d 0ef8 6d3f 60fa 0840 59f7 b93f
000000d0: 6a07 503d cd16 9c3e 2717 1940 473b d73f
000000e0: e70b 3fbb 6261 4840 1a21 ed3f 952b 1c40
000000f0: 106a acbc 5339 45bd 4cbf d23f 2adf bb3f
00000100: ce49 583d 3ea3 2340 2856 03bb d88d 2640
00000110: 1788 1c40 4481 6d40 d071 213f 8914 e63f
00000120: 01b6 3f3d 32ef a03c d002 1fbc 0dca 8bbd
00000130: 4ad7 3f40 b961 a63f 83a6 cb3f 25b8 2d40
00000140: d2f3 0e40 c712 673d d4ee 6dbd 4ab8 f93e
00000150: bd65 cebc f8ca 4f40 edd1 433f da7d ae3f
00000160: 87e3 4e40 cd37 033b d148 2a3f 52a1 17bd
00000170: a838 5f3c 4de8 083e 61ff fc3f ec31 0c3d
00000180: bf35 3140 563a a73c dfb1 d4bd fa05 2240
00000190: a96f b5bd c73c c13f 1ad7 3440 026c 2c3f
000001a0: 5ad8 163f 8f87 203f 8c44 2d40 c608 4340
000001b0: 4834 5c40 c154 3640 dad4 3140 3e21 d93f
000001c0: 7150 b93d 5504 263f af47 83bd d9bf 1340
000001d0: c270 bf3c f3c1 82bb 575f 833d 8044 f73a
000001e0: baaa 1d40 c40c 2540 37e4 bd3c 2fe0 ff3b
000001f0: 5982 493a b5cc 1440 c47f 243f c083 5b40
00000200: 7302 0e40 5dbe 25bd 37ea b0bb 98d7 17bc
00000210: 434c 7e40 5a9b 5e40 c7a5 5640 0eec c73f
00000220: 3ffd a93f d68e 193f 4399 c6bc 4ad3 4d40
00000230: d646 4b40 0a18 5240 f87b 293f 0b57 153d
00000240: d69d 6b3f 9e10 013d f2ae d0bf 3aa1 f73f
00000250: 6e7e 0d3d 9339 eb3f a6e2 57bd 6180 1640
00000260: 5570 1840 6068 2240 50a3 653d b738 1c40
00000270: bd9d 5d40 e9a7 4240 7004 903f 5665 153f
00000280: a8ef 1b40 864f 1b40 2e4e 1e40 3cc1 83bf
00000290: 520c fe3f 24a4 7940 fe62 4840 a5ca ad3d
000002a0: 47e1 5d40 b841 73bd f47b 683f 3dc2 ee3f
000002b0: ede1 0c3f b23b 603d e118 24bd ee34 63bc
000002c0: 2f2b 363d bebc 803f 7321 0f40 fc6b c93f
000002d0: 07e8 a03d 07a3 423f fbcf 0440 caed da3f
000002e0: b82d 973d 2883 6c40 ac19 fc3f 19d4 3740
000002f0: 7bc1 953d 664b ea3a 5cec a03f 977b e93f
00000300: 1673 063c fdbf 2740 9a6c eb3c aefb 1d40
00000310: e8cb 1d40 1c4f 5c40 6df5 1f3f 40eb 0140
00000320: cce8 efbc 1697 703d 08c4 823c 15e7 593d
00000330: f168 3740 d98c 8c3f bae7 c03f cf73 6240
00000340: 061e 1040 32ae 36bd 81da adbd edcc 053f
00000350: 651e 97bd e794 4640 9a3a 013f f129 9c3f
00000360: 7723 5140 8819 69bd d7d5 113f dc65 123d
00000370: 8323 6d3c 9bcd debc bfee d03f d7ce e3bb
00000380: fc6e 2e40 c4e8 e4bc ce1b 9bbc 171a 3e40
00000390: 7bf6 64bd 6be9 d83f de35 4840 bb75 1b3f
000003a0: b423 253f 2c1f 513f 8f73 3040 d971 3940
000003b0: 0bde 3240 b50d 2540 e385 3540 e38e 553f
000003c0: ff17 e13b 3a0b 123f e25d b03d dd8d 3340
000003d0: 7472 903c 4e85 aa3d 5a4c 603d f243 9a3d
000003e0: f8d3 2140 9ffa 1c40 3fdb ae3d 4ebe 45bd
000003f0: 50dc e2bc fcb3 1340 9a6f 4e3f 4dca 6140

net.4.bias f4 [13]
0.9897976 1.9412231 1.3386097 1.1950101 1.1429117 1.1303256 1.3968617 1.3238477
0.7122978 0.8570844 0.9820611 1.0401796 1.1082542
00000000: 6063 7d3f 007a f83f 9057 ab3f 17f6 983f
00000010: ee4a 923f 82ae 903f 5dcc b23f d773 a93f
00000020: 2659 363f e269 5b3f 5b68 7b3f 9b24 853f
00000030: 46db 8d3f
