checkpoints3/team1_agent_2.pt (torch, 411297 bytes, 24 tensors)

net.0.weight f4 [128, 53]
000000 9e d0 2f bf b8 ca c0 be df cc 27 bf 61 83 34 bf
       -0.686777 -0.37654662 -0.65546983 -0.7051297
000010 b5 03 8b be a1 0e 85 3f 4b 4a 27 bf 96 f5 f4 3d
       -0.27151266 1.0395089 -0.6534774 0.11960904
000020 4a 5b 00 bf 94 1c 14 3d 5b 83 41 40 81 df 3a 40
       -0.50139296 0.036160067 3.0236423 2.9198916
000030 77 42 33 40 6c 50 a6 3f b1 a2 b5 3f 8a ea 1a c0
       2.8009317 1.2993293 1.4190274 -2.4205651
000040 69 d7 dd be 14 8f f5 bf 5a 9b 6b 3f 61 61 a3 3f
       -0.43328407 -1.9184289 0.9203392 1.2764093
000050 3e b2 7f 3e 2e df 1e bf 6f 4a 8e 3e f2 63 94 be
       0.24970338 -0.62059295 0.27791163 -0.28982502
000060 98 67 d2 3e ee 8d 8c bc 9a 54 9e 3e 7a 9f 84 bf
       0.4109466 -0.017157521 0.3092392 -1.0361168
000070 15 62 36 bf 19 6e 91 3e b6 27 a0 bd 87 37 f3 be
       -0.7124341 0.2840431 -0.07820074 -0.47503302
000080 d7 80 9c bf ae 06 9c 3f 3d ce 9c be b8 46 14 bf
       -1.2226819 1.2189538 -0.30626097 -0.5792041
000090 cc fc 00 be 24 ba c6 3d 66 38 1c bf cc f5 0b c0
       -0.12596434 0.09703472 -0.6102356 -2.1868773
0000a0 2f 59 f2 bd 3e 15 f7 be f4 10 bf 3e a3 61 c6 be
       -0.11833417 -0.48258394 0.37317622 -0.38746366
0000b0 d3 9b bf 3e 5b f1 5f 3e 0e f6 ad 3c 3a d4 38 3f
       0.37423572 0.21869414 0.021235492 0.7219883
0000c0 de a6 98 3f cc aa 57 3e 34 da a8 3f 73 62 89 3f
       1.1925924 0.21061248 1.319159 1.0733169
0000d0 7d e2 5e bf 39 46 32 3f b7 de 8f bd 52 c2 50 3f
       -0.87064344 0.696384 -0.07024901 0.8154651
0000e0 b5 aa 9a 3f 2f 4e 24 be 0c e4 7b bf 5d ad 2d 3d
       1.2083346 -0.1604545 -0.98394847 0.04240166
0000f0 b4 8f dc be 96 44 39 bf ca 5e 1d bd 18 96 93 be
       -0.43078387 -0.7237028 -0.038420476 -0.2882545
000100 50 8c 4b be 79 26 cc be 04 58 19 3f 0f 17 18 40
       -0.19877744 -0.39873102 0.59899926 2.3764074
000110 b8 a8 a2 be 4d 52 12 c0 55 88 93 bf 25 1b 1a c0
       -0.31769347 -2.2862732 -1.152598 -2.4079068
000120 fa 5b 66 bf fe db de be 45 67 d7 bc d5 04 69 bf
       -0.89984095 -0.43527216 -0.02629436 -0.91023
000130 d4 70 a9 be 51 ba 73 3f 25 73 9d 3e 2e 18 df 3d
       -0.33093894 0.9520617 0.3075191 0.10893284
000140 2a 73 ba 3f fb 83 e1 bf 18 98 56 3f 6c c0 79 bf
       1.4566395 -1.7618402 0.83825827 -0.9755924
000150 56 c7 7a bf dd 0f 08 bf 4e 9c d8 bf 46 0d 2f bf
       -0.9796041 -0.53149205 -1.69227 -0.6837963
000160 58 b8 3d bf 66 e6 37 be f5 b5 3d bf 8c 8f 6e c0
       -0.7410941 -0.17958984 -0.7410577 -3.7275114
000170 34 f5 b7 3e af 05 20 bf 82 a4 a3 bf b1 8b 52 bf
       0.35929263 -0.6250867 -1.2784579 -0.822444
000180 cb 46 bf bf a9 85 7c bf 8b a7 ac bf d0 da 84 be
       -1.4943479 -0.9864145 -1.348863 -0.2594819
000190 7d 0d 23 bf 79 78 d5 bc 30 9e 92 be cb 65 d0 bd
       -0.63692456 -0.026058422 -0.28636312 -0.101756655
0001a0 e9 1a 30 3f 02 4f 38 3d 2d af 20 3e da 43 7e bc
       0.6879106 0.044997223 0.15691824 -0.015519107
0001b0 32 69 87 be cf cc 2b bf 2f b7 14 40 71 f0 cd bd
       -0.26447445 -0.6710939 2.3236806 -0.10055626
0001c0 7d 99 20 be 4b e1 04 bf 63 4f 75 3f c8 41 da 3d
       -0.15683551 -0.5190627 0.9582426 0.10657078
0001d0 91 b6 a0 bf 6c 14 a6 bf 5e 87 99 3f 60 f9 59 be
       -1.2555715 -1.2974982 1.1994436 -0.21286535
0001e0 d8 0d 3a 3e 53 1d 14 3f 9c 96 0a be 84 d6 d6 be
       0.18169343 0.57857245 -0.13534015 -0.41960537
0001f0 be 64 69 3f a2 22 19 40 b1 b1 38 3e 29 ee f5 bd
       0.91169345 2.3927388 0.18036534 -0.12008316
000200 e2 d6 22 be 84 40 7e 3f 5a d8 4b 3e 83 e6 f0 be
       -0.15902284 0.99317193 0.1990675 -0.47050866
000210 aa 7c 00 c0 96 fe 4b 3f 05 f1 a0 3f 30 82 e7 3f
       -2.007609 0.7968534 1.2573553 1.8086605
000220 8b eb 85 3e 62 a0 85 bf af 45 0b bc 78 28 f7 3f
       0.26156268 -1.043957 -0.008500501 1.9309225
000230 20 29 b0 3f 1a ed 6c 3f 8c 63 d3 3f 72 10 24 3f
       1.376255 0.9254929 1.6514754 0.64087594
000240 c1 5c 1b 3e 6e 8b 09 be be 49 2e bf 46 eb 49 3c
       0.15172102 -0.13432094 -0.6808127 0.01232416
000250 c8 15 42 bf 40 a6 17 3f 56 31 a6 bd 5d e7 26 40
       -0.75814486 0.5923805 -0.08114879 2.6078713
000260 e4 fd 12 3d 4f 69 a9 bd 43 99 52 3f 1e bd 7f 3d
       0.03588666 -0.08272039 0.8226511 0.062436216
000270 6e 2a 86 3f e2 26 28 40 46 53 d4 3f 28 df 0a 3e
       1.0481699 2.6273732 1.6587913 0.1356169
000280 51 66 71 be b8 80 3a be d5 01 8a be 8f 19 53 3f
       -0.23574187 -0.18213165 -0.26954523 0.82460874
000290 75 2f 0c 3f 7d a3 3e 3f 03 d3 ca bd 9d 47 72 3e
       0.54759914 0.74468213 -0.099035285 0.23660131
0002a0 40 98 ef bb d0 9b 42 40 af c0 88 be 39 93 9e 3f
       -0.007311851 3.04076 -0.26709506 1.2388679
0002b0 48 35 49 bf d1 de a5 3e f1 ba 5c bf 67 02 1e 3f
       -0.78596926 0.32396558 -0.8622275 0.61722416
0002c0 26 eb f3 bf 28 f3 52 bd 3e 26 0b 40 19 9c 52 3e
       -1.9056137 -0.051501423 2.174209 0.20567359
0002d0 5b d3 61 3f f1 92 19 3e 58 f8 ef bc ae 70 9a 3e
       0.8821313 0.1499746 -0.029293224 0.30164093
0002e0 df 60 87 3d e7 e1 24 bf 94 da 87 3e 1f 1a a6 3f
       0.066102736 -0.644072 0.2653395 1.2976722
0002f0 12 aa e0 be 0f 83 a2 bf e3 03 04 c0 fb ed da bf
       -0.43879753 -1.2696246 -2.0627372 -1.7103876
000300 2c 8a 98 bf 8b c0 db 3f 81 a7 66 bf a2 c9 86 bf
       -1.1917167 1.7168134 -0.9009934 -1.0530283
000310 45 89 ec bc 21 da 03 3e d4 8c 22 bf e9 b2 a7 bf
       -0.028874049 0.12876178 -0.63496137 -1.3101474
000320 f2 a0 86 bd 99 22 27 c0 46 a0 68 3e 0e 03 be bf
       -0.06573667 -2.6114867 0.2271739 -1.4844682
000330 e7 d2 a6 bf 19 e2 4f 3e 6b 74 3d be ea ce a2 3f
       -1.3033112 0.20301093 -0.18501441 1.2719395
000340 ed d2 c2 3e b6 e3 b4 3f fa 24 a5 3f 94 94 5a 3e
       0.3805155 1.4131992 1.2901909 0.2134574
000350 84 0f a7 b9 c9 53 64 bc 69 86 7b bd 9b a7 62 be
       -0.00031864282 -0.013935992 -0.06140748 -0.22134249
000360 67 42 0b 3d 53 ae 2d 3e 58 80 db 3c 9c d1 83 3b
       0.033998873 0.1696103 0.026794598 0.00402279
000370 8c 57 84 3d 3e 84 b5 3d 6c cf ed 3d 4b f0 79 bc
       0.06462011 0.08863114 0.11611828 -0.015255044
000380 3c e2 1c 3e e4 d2 0b bd ce 73 b4 bd 7a 88 8a bd
       0.15320677 -0.034136668 -0.088111505 -0.06764312
000390 3a d2 0e 3d 97 54 90 bd fe 6b 57 3d 2e 06 f7 3d
       0.034868456 -0.07047384 0.052593224 0.120617256
0003a0 f2 77 8a bd 5b fa 34 3e b0 b8 a8 bd 40 3f 4f bc
       -0.06761159 0.17673628 -0.08238351 -0.012649357
0003b0 50 95 de 3c 5b bd b7 bd 33 a0 59 3c 3f f1 ae 3d
       0.027170807 -0.089716636 0.013282823 0.08542108
0003c0 1b da b8 3d 69 b8 44 be 39 4f 38 be b0 ad 01 3e
       0.09025975 -0.19210972 -0.17998971 0.12663913
0003d0 89 e7 70 be db 20 8f bb b4 d7 85 3d 2e b1 a8 3c
       -0.23525824 -0.0043679303 0.06535283 0.020592298
0003e0 f7 43 0b bd 24 28 03 bd ea c3 84 3d 59 e2 d2 3d
       -0.034000363 -0.032020703 0.0648268 0.10297079
0003f0 ac 67 28 be 90 b6 ee bd 00 5d ac bd 78 3a 1a be
       -0.16445798 -0.11655915 -0.08416176 -0.15061367

net.0.bias f4 [128]
000000 c6 a9 26 3e 72 1a 7d be d6 dd b4 bd dd 02 a9 3e
       0.16275701 -0.2471712 -0.08831374 0.33009997
000010 f6 4a 09 be f5 89 ff 3e cf d4 c4 bd e1 8b 9f be
       -0.13407502 0.4990994 -0.096109025 -0.31161407
000020 e0 d7 5b 3c f2 83 b3 bd 78 02 0b 3e b4 09 17 bf
       0.013418168 -0.08765401 0.1357516 -0.5899918
000030 4d c7 02 3e cb 90 1a 3f 06 01 2f 3c 00 ea ab 3d
       0.1277134 0.60377187 0.010681396 0.08394241
000040 56 32 07 be 01 ab 82 bd db 11 0a 3f c1 6a 03 3e
       -0.13202795 -0.06380273 0.53933495 0.12833692
000050 4b ec 29 be e7 d1 5e 3e 7c bb 90 be 36 bc db 3e
       -0.16594045 0.21759759 -0.2826804 0.4291703
000060 d8 80 0f 3f ca bd a6 3e 8f ec b1 3e 72 7a 79 3e
       0.56055975 0.32566673 0.34750792 0.24363115
000070 4a 7a 7a 3e 93 8e 40 3f f8 12 c6 3e c5 0c ec 3e
       0.24460712 0.7521755 0.38686347 0.46103492
000080 f0 33 c5 3c ff cf 13 3f 36 88 b4 be 7e 95 12 bd
       0.024072617 0.5773925 -0.3526017 -0.035787098
000090 e5 e5 b5 be 09 1f 2e bf e3 2a 84 3c 59 68 a0 3e
       -0.35526958 -0.68016106 0.016133731 0.3132961
0000a0 94 d5 10 bf 6a 21 50 3f 2d 46 ed 3e 80 e0 1a 3f
       -0.56575894 0.81300986 0.46342602 0.6049881
0000b0 c5 54 e3 bd 0e 44 90 3d 28 64 59 3e ff 2c 02 be
       -0.11100153 0.070442304 0.21229613 -0.12712477
0000c0 00 0c 2f 3e 40 a4 c6 3c 64 4d 04 3f 12 ec ba 3e
       0.17094421 0.024248242 0.5168059 0.36508232
0000d0 ff 6c 8d 3e 88 14 32 3e 8c e8 0a be d3 79 32 3e
       0.2762222 0.17390645 -0.13565272 0.17429285
0000e0 dd 75 18 be 74 10 36 be 4f 47 b2 3e 71 2e 98 3d
       -0.14888711 -0.17779714 0.3482003 0.07430733
0000f0 55 ed 05 3f d0 45 da be 1e 44 0f be b6 f6 66 3e
       0.52315265 -0.42631388 -0.13990828 0.2255505
000100 a5 06 b9 3e 03 ae e7 3b d1 67 8d be 4e e9 72 be
       0.36137882 0.0070703044 -0.27618268 -0.23721811
000110 76 3c ec 3e 10 72 5d 3f b8 23 0a 3e de f4 95 bd
       0.46139878 0.8650217 0.13490188 -0.07322095
000120 c6 e1 88 be a9 c0 f4 3e c5 46 dd 3d b6 8a dd be
       -0.2673475 0.47803238 0.10804514 -0.4326989
000130 8b fd c1 be 6f 62 14 be 44 90 c0 bd eb 09 04 be
       -0.3788875 -0.14490674 -0.094025165 -0.12894408
000140 55 9d c7 3e cf 3f 2d 3e 99 b8 8c 3e 72 5f 5f be
       0.38987222 0.16918872 0.27484587 -0.21813753
000150 66 d0 a4 be 51 11 fa 3d 19 16 14 3f bf 48 d8 3d
       -0.32190245 0.12210334 0.5784622 0.1056075
000160 44 7c 11 3f b8 b5 2e 3f 3f 57 c3 3e 5a b8 1a be
       0.5683024 0.6824603 0.381525 -0.15109387
000170 4a 02 35 bd 2a 4e 20 3d 73 a6 22 be 25 3d 93 be
       -0.044191636 0.039137043 -0.15883808 -0.28757587
000180 dc 1d 79 be 7b 9a 16 3f 23 a5 73 3d 6d 79 d1 bc
       -0.24327797 0.5882947 0.05948366 -0.025570596
000190 0a 5d 17 3e ac 88 32 be d9 37 9d be 08 39 54 3e
       0.14781585 -0.17434949 -0.3070667 0.2072488
0001a0 98 8f e9 3e 13 3c 31 3f 27 a6 78 bc 42 d9 10 be
       0.45617366 0.6923229 -0.015176333 -0.14145377
0001b0 40 e7 1f be be 56 38 3f a4 99 f5 3e 1a 74 6a bd
       -0.15615559 0.7200736 0.4796878 -0.05723963
0001c0 2e a0 36 3e 75 3d e0 3e ed 67 d4 bd 97 5d 40 3f
       0.17834541 0.43796888 -0.10371385 0.75142807
0001d0 2b 92 3f bc 4c 2f ee bd 8b 75 58 be 29 4a 04 3f
       -0.011692564 -0.11630115 -0.21138589 0.5167566
0001e0 5c ce aa 3e cf af f7 3e 88 14 52 3e 45 e8 3c 3e
       0.33360565 0.4837632 0.20515645 0.18447979
0001f0 85 50 91 be 27 6e a0 bd 93 6c c2 3d 88 cc f5 bd
       -0.28381744 -0.0783351 0.09493365 -0.12001902

net.2.weight f4 [128, 128]
000000 ae 56 e2 be 21 84 cb bf 57 c1 00 3c 3e 8a fe be
       -0.44206756 -1.5899698 0.007858596 -0.49714845
000010 dd ca ee 3d 37 31 81 bf 94 f8 0b c0 08 6d 95 bf
       0.11659787 -1.0093144 -2.187047 -1.1673899
000020 60 72 8b bf af 9c 84 bd 71 f4 8e bf 60 f5 c7 be
       -1.089428 -0.064751975 -1.1168348 -0.39054394
000030 f2 96 27 be 85 88 5a be 0e 4f af bf ee 46 e8 bf
       -0.16366175 -0.2134114 -1.3696 -1.8146646
000040 c4 c4 7b bd 24 74 d1 be 11 58 e9 bf eb 3c 8f be
       -0.061466947 -0.4090892 -1.8230001 -0.27976164
000050 15 03 59 bd ca 9b df bf f3 db 27 3f 5e e7 fb bd
       -0.052981455 -1.7469418 0.6556999 -0.12299989
000060 97 fd 85 3e 26 f0 a9 be df 0e 2c bf 09 b1 f2 3f
       0.26170036 -0.3319103 -0.6721019 1.8960277
000070 6d a2 0a bf 4a 2d 6c be bc d0 42 c0 5f 7c 84 be
       -0.5415409 -0.23064151 -3.0439901 -0.25876138
000080 c0 d3 85 c0 93 22 cc be fa ee 43 c0 bb 46 85 be
       -4.1820984 -0.39870128 -3.061461 -0.26030526
000090 5a 80 49 bf d4 c6 02 bf 67 b2 f8 3b c5 40 56 bf
       -0.78711474 -0.5108464 0.0075896266 -0.8369258
0000a0 9e e1 cf bf 53 67 6b be ad 2c d0 be d2 85 28 3d
       -1.6240728 -0.22988634 -0.40659085 0.041143246
0000b0 89 7c 19 3d 0c e9 52 bd ee a1 a7 3e 83 54 91 bd
       0.03747228 -0.051491782 0.3274073 -0.070961975
0000c0 3a cc 2a bf 72 42 c4 be 95 f1 8b c0 06 d5 59 be
       -0.66717875 -0.38331944 -4.37324 -0.21272668
0000d0 5b 8e 69 3f 56 e7 07 bf 30 62 8c 3b 8c 87 40 c0
       0.9123284 -0.53087366 0.004284166 -3.0082731
0000e0 40 1f 6f 3b 5f 02 10 bd 94 17 b9 3e 22 a0 4d bf
       0.0036487132 -0.03515851 0.361508 -0.8032247
0000f0 da e1 28 bf 04 2c 97 3f 58 f6 1f c0 f5 47 89 3e
       -0.6596962 1.1810308 -2.4994106 0.2681271
000100 ae 3a 13 c0 ec 15 92 be 37 11 89 be bc 01 e0 bc
       -2.3004565 -0.2853235 -0.26770946 -0.027344577
000110 52 95 1f be 41 b6 51 be a5 cd a6 bf 5c ad 4d 3f
       -0.15584305 -0.2047968 -1.3031508 0.8034265
000120 58 c6 35 3f c8 39 16 bf b7 45 8c be 0a 2e 6d 3f
       0.71005774 -0.5868192 -0.27396938 0.92648375
000130 85 96 bc bf 60 67 3b bb 8c 09 3d 3e 26 c7 ac bd
       -1.4733435 -0.0028595552 0.18460673 -0.08436422
000140 ae fa 23 3e 11 2f 3d be 3d 39 52 bf 3e 48 9f 3d
       0.16013595 -0.18474986 -0.8211859 0.07777451
000150 63 2c ed 3f b2 a8 ca bd 14 80 13 3f 27 91 72 be
       1.8529171 -0.09895457 0.57617307 -0.23688184
000160 f0 e7 ae bf 19 60 01 3f 22 ef cb bf 00 6d c9 3a
       -1.3664532 0.5053726 -1.5932353 0.0015367568
000170 22 0d cf 3c fe 89 4b bf 51 06 38 bf b0 cc d5 3e
       0.025274817 -0.79507434 -0.7188464 0.41757727
000180 2b c3 29 3f 1b 90 ca bd d3 ef 9a 3e 52 a6 91 bf
       0.6631343 -0.09890767 0.30261096 -1.1378882
000190 1e 7b 8a 3f bf 18 6e bf 7d 40 bc bf 81 b7 88 3e
       1.0818822 -0.9300651 -1.470718 0.26702502
0001a0 76 25 02 3f af d3 a0 be 0a 6e 8e c0 60 da 3f c0
       0.5083841 -0.31411502 -4.4509325 -2.9977036
0001b0 86 6c 20 3d 7c 35 b8 be 1a 49 4e 3e 97 8e 9e 3e
       0.039165996 -0.35978305 0.20145074 0.30968162
0001c0 dd d8 3b bc 24 d3 6d be 3c b1 fa 3e 36 7d 2a bc
       -0.011465278 -0.23225075 0.48963344 -0.010405829
0001d0 9e 37 1e bd c1 a8 58 3d 2f 90 59 3d 08 7d b0 3d
       -0.03862726 0.05289531 0.05311602 0.08617598
0001e0 6c fc 4b be c9 86 c1 3e f0 bd bc bf 02 93 f3 bf
       -0.1992051 0.37798145 -1.4745464 -1.9029238
0001f0 58 48 33 be bf 40 1a 3d e0 f7 14 c0 ba ff 61 3d
       -0.17508066 0.037659403 -2.327629 0.05517552
000200 b3 d1 2b 3e 0a b2 23 3f fb 15 dc 3d 0a 65 eb be
       0.16779213 0.6394354 0.1074638 -0.45975524
000210 84 c5 03 bd 75 c2 16 3f 25 d2 21 bf 5b 29 fc bf
       -0.032170787 0.5889047 -0.6321128 -1.9700121
000220 c2 02 4c bf 54 96 cd bd 3a 47 06 3f f9 f8 0e c0
       -0.7969171 -0.100384384 0.52452433 -2.233946
000230 e1 47 98 3f 52 e0 af bd 70 b4 51 c0 75 6c 4c bb
       1.1896936 -0.085877076 -3.276638 -0.0031192575
000240 99 aa 74 bd 21 da aa 3e ed 0b 9d 3e 2a 8e 0a 3f
       -0.059733007 0.33369544 0.3067316 0.54123175
000250 30 0f 2c bd 90 20 9b 3b 0e b4 0b bf 0c 93 25 3e
       -0.04200667 0.0047341064 -0.54571617 0.16169375
000260 a8 91 4d be 68 d0 8e be a7 22 c3 bf 16 f5 a2 3e
       -0.20075095 -0.27893376 -1.524495 0.3182761
000270 67 07 a7 3f 12 a3 80 bd 11 b1 3c bf 9a e1 0d 3f
       1.3049134 -0.06281103 -0.7370768 0.55422366
000280 33 a8 f3 bf 33 14 e0 be 67 46 2a 3f ae e5 60 c0
       -1.9035705 -0.4376541 0.66513675 -3.5140185
000290 c5 4d de be a9 39 78 c0 7d 06 fe bc 56 13 1c bf
       -0.43418708 -3.8785193 -0.031008953 -0.60967004
0002a0 70 d4 01 3f 61 2d 9f bf 72 8f ad bd 82 53 4d 3e
       0.5071478 -1.2435724 -0.08474626 0.20051387
0002b0 85 17 32 3d 5e db 88 3d 97 16 8b bf ad f1 22 be
       0.04347946 0.06682466 -1.0866269 -0.15912504
0002c0 1b 8b f5 bf 98 23 86 bf 66 11 8a 3f 05 6e 7b 3f
       -1.9183077 -1.0479612 1.078656 0.9821475
0002d0 3b fb 3f bf 3d 58 4b 3f 50 ba cf 3c 59 55 92 3f
       -0.7499272 0.79431516 0.025357395 1.1432296
0002e0 d4 c9 8b 3d a2 16 f1 3d 20 63 6e be 00 04 a3 bb
       0.06825605 0.11771895 -0.2328 -0.004974842
0002f0 e0 28 c0 be 0d 10 fe 3f a9 02 23 c0 02 27 e7 3f
       -0.37531185 1.9848648 -2.5470374 1.8058779
000300 97 e8 41 c0 63 52 18 c0 6f 81 d1 3d 8f ca 54 3f
       -3.0298212 -2.3800285 0.102297656 0.8312158
000310 ca 94 12 3e 20 95 af 3e dd 3e f6 bf b4 d1 df 3e
       0.14314571 0.3429346 -1.9237934 0.43714678
000320 6e 1f 8c 40 f2 fa 5d bd 0f e8 50 3f ad e8 4f 40
       4.3788366 -0.0541944 0.81604093 3.2485764
000330 03 28 d1 bf 00 5f c4 bd d8 08 17 40 8d ad 3d 3b
       -1.6340336 -0.09588432 2.3599148 0.0028942556
000340 b1 bd 51 be f0 9f e3 bf 4c 62 19 3f 09 89 a3 bd
       -0.20482518 -1.7783184 0.59915614 -0.07985122
000350 b3 a0 10 3f 88 54 7c bf 18 cf d7 bf b2 ae c3 3e
       0.5649521 -0.98566484 -1.6860075 0.3821922
000360 8d b2 b1 3f b5 1a 0b 3e ab 89 98 3e a6 ec 0e 3d
       1.3882614 0.13584407 0.29792532 0.034893654
000370 02 93 b5 3d 2f d5 55 be 64 82 a8 3e 0f 05 86 bf
       0.0886593 -0.20882104 0.3291198 -1.0470294
000380 44 1e 9d bd fd 29 c6 bf d4 54 18 bf c1 13 0d bf
       -0.07671788 -1.5481564 -0.5950444 -0.5510827
000390 01 9b 09 bf 59 5b 33 c0 35 ce 89 3f be 4f 28 bf
       -0.5375214 -2.8024504 1.0766054 -0.65746677
0003a0 17 dd 0b be 2e 36 b0 3d a8 e8 87 3f c0 59 39 c0
       -0.13658558 0.08604084 1.0617876 -2.896103
0003b0 ef 15 80 bd 18 f7 03 3e 4f 7d 4e 3e b4 35 da 3f
       -0.062541835 0.12887228 0.20164989 1.7047639
0003c0 97 5f d1 3d 10 03 ae bd 3c d3 88 bf b4 ec 77 be
       0.102233104 -0.08496678 -1.0689464 -0.24211389
0003d0 1b 1b a6 3c c0 b3 7a bd a6 7f 8c bc 1e 8f a7 3d
       0.020276597 -0.06120658 -0.017150711 0.08181594
0003e0 a2 ad 49 3f aa 17 2f 3d b9 11 30 be ad e3 52 c0
       0.7878057 0.042747177 -0.1719426 -3.2951462
0003f0 f6 81 1d be 32 0a da bc b7 4f 02 3f 97 9e d8 bc
       -0.15381607 -0.02661619 0.50902885 -0.026442809

net.2.bias f4 [128]
000000 f7 b5 80 be b3 f4 39 3f 58 74 2d be 2e db 2c bd
       -0.25138828 0.72639006 -0.16938913 -0.042201214
000010 c4 43 7e 3d c4 95 96 bd a8 73 a6 bd e4 bd 0c 3f
       0.062076345 -0.07352784 -0.081275284 0.5497725
000020 f6 86 74 3f 39 86 82 bd 2d ea c2 3e 6b 7b 49 3f
       0.95518434 -0.06373257 0.38069287 0.78703946
000030 fb 9b fe bc 84 2c 60 3f e3 37 a1 3f da c1 31 bd
       -0.031080237 0.87567925 1.259518 -0.043397762
000040 c0 93 28 3f ce 8d c7 bd ac 94 32 3f e5 fd a4 3c
       0.6585045 -0.09743844 0.69758105 0.020140598
000050 8b 8d 55 3f cb 8c 36 3f 07 68 c3 3f cb ef c0 3f
       0.834191 0.71308583 1.5266122 1.5073179
000060 fa 6d 52 bf f5 8b 70 3f 41 80 4d 3f 05 95 c0 3f
       -0.8219906 0.9396356 0.80273825 1.5045477
000070 67 3c b7 3f 74 dc d7 bd 37 74 4e bc 88 48 3c 3f
       1.4315308 -0.10540095 -0.01260095 0.73548174
000080 4e 5f f5 3b fe 6b 22 3f ad 18 07 3f 39 55 ee 3f
       0.007488168 0.63446033 0.5277203 1.8619758
000090 4c a1 d7 3e 1d e7 6e bd 5f 3d 99 bd 3b dd da bd
       0.42115247 -0.058325876 -0.07482409 -0.106867276
0000a0 27 83 07 be a9 43 34 3f d0 d8 46 3e df 2c a9 3f
       -0.13233624 0.7041574 0.19418645 1.3216819
0000b0 87 ec bf 3c 93 28 d7 3f 43 d5 68 3f 15 9f d4 bd
       0.023428215 1.6809257 0.9095041 -0.10381905
0000c0 22 ba 49 3f 57 47 c5 3f e6 2c c3 3e 36 7f fb bd
       0.7879964 1.5412396 0.38120192 -0.12280123
0000d0 91 2d 1a 3f 46 ff 59 3f 81 e4 b4 3f ed c0 0e 3c
       0.6022578 0.8515514 1.4132234 0.008712989
0000e0 40 01 1c bd bf 4f 60 3f 59 11 9a 3f 7e ec a1 bd
       -0.03808713 0.8762168 1.2036544 -0.079064354
0000f0 c4 a8 9c 3f 64 93 b2 3f 07 89 ff bd bb 8a 84 bd
       1.2239003 1.395123 -0.12477308 -0.06471773
000100 ba 58 37 3f 90 38 cf bd 15 be ed bd d8 b9 54 3f
       0.7161976 -0.1011821 -0.11608521 0.83096075
000110 cf b2 01 3f 53 ab f8 bd 20 8d 06 bc 71 97 11 3d
       0.50663465 -0.121420525 -0.008212358 0.035544816
000120 63 bf 97 bd a9 d7 2a 3f 9c 4f 00 be cc 10 c9 bd
       -0.07409551 0.6673532 -0.12530369 -0.09817657
000130 0e f2 0f 3f b0 5b 42 3f ba bf 73 3c dd 88 13 be
       0.5622872 0.75921154 0.014877254 -0.14407678
000140 fc 54 9b bc 6f 5f f4 bd 48 a1 a8 3f 59 50 c9 bd
       -0.018961422 -0.11932265 1.3174219 -0.09829778
000150 1b 2a b9 3f 58 57 a8 bd 72 4f ae 3f ad 99 da 3f
       1.4465975 -0.082197845 1.3617995 1.7078148
000160 08 66 de bd a2 7d dd 3c d8 57 b4 bd 1a 24 c8 bd
       -0.10859305 0.027037445 -0.08805817 -0.09772511
000170 9d ef c6 3f df 00 e9 bd 13 73 24 be dd 1c d3 bd
       1.5541874 -0.11377119 -0.16059522 -0.103082396
000180 81 50 8d bd ea 50 d3 bb 19 b3 59 3f c4 d4 bf bc
       -0.069001205 -0.0064488547 0.85038906 -0.023416884
000190 c9 6e 04 bd a0 2f 7b bd 91 b8 7b 3f 4e 5d a4 3f
       -0.032332215 -0.061324716 0.983285 1.2840974
0001a0 97 1e 0f be 6a 75 7a 3f 5e b2 ff bd e2 17 3d 3f
       -0.13976513 0.9783541 -0.12485193 0.7386457
0001b0 8a c0 35 bf 6a 74 af 3f 9c 82 07 3f de 21 83 3f
       -0.70996916 1.3707402 0.5293367 1.024471
0001c0 06 3a 0e be cf 99 51 bd 0f a3 bc 3f 4a aa 44 bd
       -0.13889322 -0.051172074 1.4737262 -0.048013963
0001d0 3b 3a c0 bd 7e 35 3b 3f 88 79 51 3e 82 c9 4e bd
       -0.093861066 0.731285 0.20456517 -0.05048514
0001e0 92 e8 79 3f 48 65 3f 3f 35 4e 34 3f 6a ed db 3f
       0.976205 0.7476392 0.70431834 1.7181828
0001f0 36 b4 ab be 1b 36 95 3f d7 74 bb 3f 13 62 ef bd
       -0.33535928 1.1657137 1.4645032 -0.11688628

net.4.weight f4 [13, 128]
000000 ca 38 48 3f 99 21 eb 3f 92 96 f0 3f e7 b0 2f bd
       0.78211653 1.8369628 1.879595 -0.042893317
000010 ea 53 65 40 00 94 11 ba 00 ae d7 3a 75 14 58 40
       3.5832467 -0.0005553365 0.0016455054 3.3762486
000020 e3 d4 46 40 d6 6d 11 bd 0c 65 0f 40 bf 64 8b 3f
       3.1067436 -0.03550514 2.2405424 1.089012
000030 5d 92 61 bc d6 30 4a 40 04 f2 ce 3e 7d 29 30 3d
       -0.013767806 3.1592307 0.40419018 0.043008316
000040 61 2c 44 40 f0 a8 7a 3c 20 f6 56 40 be f7 03 bd
       3.0652087 0.015299067 3.3587723 -0.032218687
000050 19 af ec 3f da 48 4b 40 5e 9c 0c 3f 14 c8 f4 3e
       1.8490936 3.1763215 0.549261 0.47808897
000060 62 7a a0 bf 68 65 1f 40 75 7a 5b 40 6f b1 2f 3f
       -1.2537348 2.4905643 3.4293492 0.6863012
000070 54 68 0e 3f 40 5c 99 ba 47 a6 6f bd 37 8e 5c 40
       0.5562794 -0.0011700466 -0.058508184 3.44618
000080 92 4c af 3c 96 79 75 40 a9 e3 4d 40 74 1d 8b 3f
       0.021398816 3.835546 3.2170203 1.0868363
000090 20 8b 14 40 4c 3e 84 3f e5 5e af bc ce ad 6e 3d
       2.3209915 1.0331511 -0.021407554 0.05827122
0000a0 6e e8 99 3c 7a ff 28 40 72 d8 4c 40 8a df e4 3e
       0.018787589 2.640593 3.2007108 0.44701797
0000b0 2b 70 47 3c 40 2a 21 3f 38 4b 0d 40 81 68 a6 bd
       0.012172739 0.62955093 2.207716 -0.08125401
0000c0 84 b8 2a 40 06 47 f2 3e 75 b7 ac 3f dd 3a 67 bc
       2.667512 0.47319812 1.3493487 -0.014113155
0000d0 82 7a 4e 40 8a c2 85 3f 03 30 02 3f d9 56 b2 3d
       3.2262273 1.0449994 0.5085451 0.08707971
0000e0 9c ff 4e 3d f9 0f dd 3f 84 30 cb 3f 99 64 21 bd
       0.050536737 1.72705 1.5874181 -0.039402578
0000f0 36 30 c6 3e 85 20 1b 3f e8 65 8b 3b 72 d1 02 bd
       0.38708657 0.60596496 0.0042540915 -0.031938024
000100 3f 8d 4c 40 46 a6 53 3d b2 0c 10 bd fa 83 2c 40
       3.196121 0.051672243 -0.035168357 2.6955552
000110 0a d5 86 40 28 d8 9f bc 14 c5 a7 3d 9f 95 e0 bc
       4.2135057 -0.019512251 0.081918865 -0.027415095
000120 af 50 28 bc 11 79 1a 40 be ce 9e bd 7d 53 87 bd
       -0.010273143 2.4136393 -0.07754277 -0.06607721
000130 60 46 bf 3f 1f b4 00 40 f6 55 dc 3f 9e 21 7b 3d
       1.4943352 2.0109937 1.7213733 0.061311357
000140 e7 0e 67 bd e2 61 f1 bb 6e 29 f0 3e e7 d8 92 3d
       -0.056410696 -0.007366405 0.46906608 0.07170277
000150 8a 02 e8 3e 91 b5 21 3c 26 d8 ef 3e 4a 11 1a 3f
       0.45314437 0.009869949 0.46844596 0.6018263
000160 16 7a 32 3d f9 36 51 bd 3b aa 7d bc e2 b5 07 bc
       0.04357346 -0.051077817 -0.015482481 -0.00828311
000170 90 45 d0 3e 3f 50 e9 bc 65 66 eb bb 4a ed 56 bd
       0.40678072 -0.028480647 -0.0071838372 -0.05247239
000180 32 eb 91 ba d9 17 6f bd b1 e9 11 40 a3 ee 15 bd
       -0.0011132716 -0.058372352 2.2798884 -0.036604535
000190 03 1b ed bb 6b ee 12 3c d2 5a 4f 40 3c 6b 11 3f
       -0.007235886 0.008967976 3.2399182 0.5680425
0001a0 d7 e1 aa 3d 34 48 71 40 93 c2 94 3d d0 90 26 40
       0.08343857 3.770032 0.072636746 2.6025887
0001b0 a8 f2 d0 3f 37 c0 17 3f 8e ba 1e 40 bb 8f 62 40
       1.6324053 0.5927767 2.4801364 3.5400226
0001c0 53 e8 18 bd de 0b 35 bd 75 1f ff 3e 3a f3 76 3d
       -0.037330937 -0.04420077 0.49828687 0.060290553
0001d0 54 d2 e7 3c 85 6c 42 40 80 3f 10 40 2d 16 8e 3d
       0.028298534 3.0378735 2.2538757 0.069378234
0001e0 54 d4 3b 40 76 5f 52 40 eb fe 30 40 2a 5d 31 3f
       2.9348345 3.2870765 2.765559 0.6928278
0001f0 a2 a8 19 40 07 b4 f8 3e 6b a1 08 3f 99 e4 aa bd
       2.4009175 0.4857485 0.53371304 -0.08344383
000200 ef 96 a5 3f 8b 61 fb 3f e8 1b 84 3f 66 02 a7 3d
       1.2936686 1.9639143 1.0321016 0.08154754
000210 aa f1 23 40 2a 24 7e 3d 1b 32 82 3d 60 bb 45 40
       2.561625 0.062046207 0.06357213 3.0895615
000220 63 5c 62 40 cc 42 9a bd bc cb 39 40 e2 dc c3 3f
       3.5368888 -0.07532272 2.90306 1.5301783
000230 0b 2a d0 ba 36 9e 53 40 d3 c7 09 3f 9c ba 13 bc
       -0.001588167 3.3065314 0.5382053 -0.009016659
000240 0c 8e 62 40 ee 9d 25 3d 86 83 54 40 da 05 a1 3c
       3.5399199 0.040433817 3.3205276 0.01965611
000250 0b 74 07 40 93 9a 31 40 b1 ff 07 3f 7d 6f 2e 3f
       2.1164577 2.7750595 0.5312453 0.6813887
000260 4c 5e 9f bf eb 64 14 40 47 f2 63 40 09 ab 05 3f
       -1.2450652 2.3186595 3.5616624 0.52214104
000270 8f eb fc 3e 98 6b ad 3c 47 c1 68 3d a4 84 43 40
       0.49398467 0.021169469 0.05682495 3.0549707
000280 02 28 0f 3d 01 3b 6e 40 a9 7b 6b 40 78 a0 8e 3f
       0.034950264 3.7223513 3.6794226 1.1142721
000290 59 21 0f 40 3d e1 98 3f 23 d8 a1 3d ab 53 bb 3c
       2.2364104 1.1943737 0.07902553 0.022867044
0002a0 bc 29 b0 ba 82 4e 3d 40 e2 5a 29 40 57 9c c2 3e
       -0.0013440172 2.9579167 2.646172 0.38009903
0002b0 6d 77 f7 3c dc 93 2e 3f d4 d0 d4 3f 13 32 08 bd
       0.030208314 0.68194366 1.6626229 -0.03325088
0002c0 29 b6 1b 40 87 27 1c 3f cd 3f b2 3f ab 87 38 3b
       2.4329932 0.60997814 1.392572 0.0028157036
0002d0 90 23 3c 40 9f 26 ec 3f 44 bd b6 3e 12 84 0e bb
       2.9396706 1.8449286 0.35691273 -0.00217462
0002e0 3d 62 23 3d 8a c0 ff 3f d3 d7 c4 3f d5 09 8e bd
       0.03988861 1.9980633 1.5378364 -0.06935469
0002f0 b6 06 f1 3e e0 16 db 3e 70 1f 6a 3c d5 9d 13 3b
       0.47075433 0.4279089 0.014289722 0.0022524495
000300 38 e2 42 40 fe ac 61 bd 3a 35 76 3d 46 1d 74 40
       3.0450573 -0.05509662 0.060109355 3.8142867
000310 8d d8 81 40 44 f8 bf bd 11 ca 47 bc a0 e5 f6 3c
       4.0576844 -0.09373525 -0.0121941725 0.03013879
000320 77 ee 92 bd 28 a6 32 40 7c fa e0 bc c7 6d ad 3d
       -0.0717439 2.7913914 -0.02746319 0.08468204
000330 26 f3 05 40 6c c4 f1 3f c2 3b d8 3f e1 33 a4 bd
       2.0929656 1.8888068 1.6893237 -0.080177076
000340 d4 43 87 bd fe 6c 8a 3d d8 7e da 3e 24 78 cd 3c
       -0.06604734 0.0675907 0.426749 0.025081702
000350 14 f8 14 3f 78 4d 2b bd a4 ad f2 3e 0e d8 06 3f
       0.5819104 -0.041821927 0.47398102 0.52673423
000360 e3 2d 86 3d ce a2 72 3c 10 bb 5d 3d 54 e3 ef bd
       0.06551721 0.0148093235 0.054133475 -0.11713281
000370 21 74 17 3f ed a2 95 3c fe 7f 5b bd a0 8a 11 bc
       0.59161574 0.018266166 -0.05358886 -0.008883148
000380 af 0c 81 3c 5c e5 1a bd 86 c8 07 40 65 a6 32 bd
       0.015753118 -0.03781639 2.121614 -0.043615717
000390 14 49 00 bb d7 33 db 3a 48 9c 48 40 45 70 00 3f
       -0.0019574808 0.0016723824 3.1345387 0.5017131
0003a0 aa 1d 07 bd 6f 9d 49 40 db bf 3d bd 0b 54 41 40
       -0.032987274 3.150234 -0.046325546 3.0207546
0003b0 cf dc 91 3f a7 3d b2 3e 19 a0 20 40 9e 94 2d 40
       1.139551 0.34812662 2.5097716 2.7121959
0003c0 ec 26 aa bc 9f 3c 91 bd 8b 03 1a 3f 26 48 60 3d
       -0.020770513 -0.07091641 0.60161656 0.054756306
0003d0 58 ca 47 3c da 82 2d 40 fd 8c 0b 40 d8 da f9 3c
       0.012194239 2.7111115 2.1804802 0.03049986
0003e0 a9 2e 6e 40 51 87 70 40 9d f3 40 40 77 d3 2f 3f
       3.721598 3.758259 3.014869 0.68682045
0003f0 b1 c7 12 40 57 ee a0 3e d5 aa 1a 3f b8 35 78 3c
       2.2934382 0.3143184 0.6041692 0.015149526

net.4.bias f4 [13]
000000 ce 62 a2 3f 5d 9a 6d 3f 21 64 86 3f e3 83 a2 3f
       1.2686403 0.92813665 1.0499307 1.2696499
000010 d4 bc 77 3f 72 93 de 3f 8d 98 a8 3f ab a6 b6 3f
       0.96772504 1.7388747 1.3171555 1.4269613
000020 a3 92 0d 3f b8 3a 8c 3f 45 82 90 3f 8d f8 2e 3f
       0.55301875 1.095542 1.1289755 0.6834801
000030 f1 2c 1b 3f
       0.6061545

net.0.weight f4 [128, 53]
000000 c4 49 2e bf 8c 2a c0 be 03 42 28 bf 1a 59 33 bf
       -0.6808131 -0.3753246 -0.65725726 -0.70057833
000010 51 c4 8d be ff 6c 84 3f 35 2a 27 bf 56 af f7 3d
       -0.2768884 1.0345763 -0.6529878 0.120939896
000020 b1 03 02 bf 94 1c 14 3d 23 b1 41 40 a3 67 3b 40
       -0.5078688 0.036160067 3.0264366 2.9282005
000030 46 30 33 40 08 0e a6 3f d5 f5 b4 3f 5b e0 1a c0
       2.7998214 1.2973032 1.4137522 -2.4199436
000040 ff 27 d9 be 3c 07 f5 bf 64 fa 6a 3f e3 ef a3 3f
       -0.42413327 -1.9142833 0.91788316 1.2807583
000050 6d c6 81 3e 6c c7 1e bf 45 3f 90 3e dd 30 97 be
       0.253467 -0.62023044 0.2817327 -0.29529467
000060 98 67 d2 3e f4 f2 38 bc a1 a9 9f 3e d2 4c 84 bf
       0.4109466 -0.011288393 0.31184104 -1.0335944
000070 b4 f3 36 bf b0 1f 91 3e d3 0d 97 bd 6b 51 f5 be
       -0.7146561 0.28344488 -0.07375684 -0.4791368
000080 4d b0 9c bf 03 3a 9b 3f c5 f0 9f be 72 95 14 bf
       -1.2241303 1.2127079 -0.3123838 -0.58040535
000090 a4 38 fe bd 3b 0c c2 3d 50 bb 1c bf b6 04 0c c0
       -0.12413147 0.09474989 -0.61223316 -2.1877875
0000a0 2c 53 e3 bd 72 c1 f6 be 1f 9f c2 3e 69 98 c6 be
       -0.11099848 -0.48194462 0.38012025 -0.38788155
0000b0 40 4c c1 3e f9 c6 5c 3e b3 8f d1 3c 60 4d 37 3f
       0.37753487 0.21560277 0.025581216 0.7160244
0000c0 80 73 99 3f 0c 89 5b 3e d6 a6 a9 3f c4 37 89 3f
       1.1988373 0.21438998 1.3254039 1.0720143
0000d0 01 77 5f bf 15 9a 32 3f 60 06 8d bd da 32 51 3f
       -0.8729096 0.6976636 -0.068859816 0.8171822
0000e0 20 70 9a 3f ff 6d 24 be e9 f3 7b bf e5 a9 25 3d
       1.2065468 -0.16057585 -0.9841905 0.040445227
0000f0 1a 4a dc be 1b a4 38 bf ca 5e 1d bd 53 41 93 be
       -0.43025285 -0.72125405 -0.038420476 -0.28760776
000100 9f 5e 49 be 6b a7 d1 be be 37 1a 3f b3 86 17 40
       -0.19665001 -0.40948042 0.60241306 2.3675964
000110 c3 0b a2 be 5c 57 12 c0 36 a9 93 bf b7 09 1a c0
       -0.31649598 -2.286582 -1.1536014 -2.406843
000120 cc e1 66 bf 6a d5 dd be 94 82 e8 bc 4e 88 69 bf
       -0.9018829 -0.43326885 -0.028382577 -0.9122361
000130 3d b6 a6 be 51 ba 73 3f e6 77 9f 3e d0 cc e1 3d
       -0.32560912 0.9520617 0.31146163 0.11025393
000140 4c f0 ba 3f b4 59 e0 bf cf 38 55 3f 61 37 7a bf
       1.4604583 -1.7527375 0.8328981 -0.9774075
000150 fe 7f 7a bf 87 cc 07 bf 72 da d8 bf 0a c6 2e bf
       -0.9785155 -0.5304646 -1.6941664 -0.68270934
000160 f3 af 3c bf 91 d5 37 be 23 5b 3e bf 9f ad 6e c0
       -0.7370598 -0.17952563 -0.74357814 -3.729347
000170 2e 69 b9 3e 42 77 1f bf 68 90 a3 bf 21 02 52 bf
       0.36213058 -0.6229135 -1.2778444 -0.820345
000180 0c 7e bf bf c6 f4 7c bf 1a 03 ac bf a6 d6 83 be
       -1.4960341 -0.98810995 -1.3438447 -0.257497
000190 59 61 23 bf 27 4d d8 bc 79 96 91 be f4 1a d1 bd
       -0.63820416 -0.026403977 -0.28435114 -0.10210219
0001a0 84 4e 2f 3f 49 61 36 3d bc 4f 1f 3e e1 37 76 bc
       0.6847918 0.044526372 0.1555776 -0.015027971
0001b0 84 f6 88 be 22 05 2c bf df 47 15 40 c9 b6 cd bd
       -0.26750576 -0.6719533 2.3325117 -0.10044629
0001c0 05 c1 26 be 9f 07 04 bf 8e 82 76 3f c8 41 da 3d
       -0.16284569 -0.5157413 0.9629296 0.10657078
0001d0 98 30 a1 bf 20 40 a6 bf cd fe 99 3f ae c5 57 be
       -1.2592955 -1.2988319 1.2030884 -0.21071503
0001e0 38 b9 3a 3e bf a2 13 3f 87 ec 09 be 2f 26 d7 be
       0.18234718 0.57670206 -0.13469134 -0.4202132
0001f0 ca ff 68 3f 71 e3 18 40 ed f2 36 3e 5e ff 00 be
       0.91015303 2.388882 0.17866106 -0.12597415
000200 b6 44 1f be 12 9d 7f 3f a6 d8 4b 3e 42 68 f3 be
       -0.15553555 0.99849045 0.19906864 -0.4754048
000210 6a 7f 00 c0 b8 73 4c 3f 81 cd a0 3f 90 2a e7 3f
       -2.0077767 0.7986407 1.2562715 1.8059864
000220 da 38 84 3e 62 a8 85 bf 3d 2f ff bb ae d7 f6 3f
       0.25824624 -1.0442011 -0.0077876137 1.928457
000230 61 75 b0 3f d9 78 6c 3f 23 a5 d3 3f bc c8 23 3f
       1.3785821 0.923719 1.6534771 0.6397817
000240 de 6e 1f 3e 41 ed 0a be f4 c0 2e bf 89 30 23 3c
       0.15569636 -0.13567068 -0.68263173 0.009960302
000250 c3 7f 42 bf 8b 76 16 3f b4 01 b4 bd dd b3 26 40
       -0.759762 0.5877463 -0.08789387 2.604728
000260 58 8e 0b 3d 6c aa a6 bd c6 86 51 3f 54 7c 78 3d
       0.034071296 -0.08137974 0.8184627 0.060665444
000270 2e a1 85 3f 3f 0c 28 40 0b 49 d4 3f 55 36 06 3e
       1.0439813 2.6257474 1.6584791 0.13106664
000280 a3 cd 6d be 2a 7f 35 be 86 92 88 be 6a d3 55 3f
       -0.23222975 -0.1772429 -0.2667429 0.8352572
000290 c1 5e 0e 3f ca e5 3e 3f 39 7a d5 bd ed b0 75 3e
       0.55613333 0.7456938 -0.10423703 0.23993273
0002a0 40 98 ef bb 63 3d 43 40 20 7a 85 be fb 99 9e 3f
       -0.007311851 3.0506217 -0.26069736 1.2390741
0002b0 de 47 4b bf 64 42 a6 3e 9c de 5a bf dc 87 1f 3f
       -0.79406536 0.32472527 -0.85495925 0.6231668
0002c0 db bb f4 bf b1 f4 6a bd 11 32 0b 40 fc 38 57 3e
       -1.9119829 -0.057362262 2.1749308 0.21017832
0002d0 ee 0c 62 3f 1f da 18 3e 4f 7d e7 bc ae 70 9a 3e
       0.8830098 0.14926957 -0.028257994 0.30164093
0002e0 d8 42 8b 3d 4a 55 24 bf 9b ea 89 3e 7d 88 a6 3f
       0.06799859 -0.6419264 0.26936802 1.3010403
0002f0 73 80 df be f0 d5 a1 bf 5e ee 03 c0 a6 6d db bf
       -0.43652686 -1.2643414 -2.0614238 -1.7142837
000300 96 10 98 bf 4d 92 db 3f 63 7a 65 bf 05 96 86 bf
       -1.1880062 1.7154022 -0.8963987 -1.0514532
000310 94 cf f3 bc cf 37 ff 3d 8f 69 23 bf 3d 19 a7 bf
       -0.029762067 0.124618165 -0.63832945 -1.3054577
000320 03 bb 7b bd 90 a9 26 c0 72 9a 6b 3e 49 da bd bf
       -0.061457645 -2.6040993 0.23008135 -1.483224
000330 0f 32 a7 bf 86 17 53 3e 98 cb 38 be 3d b0 a2 3f
       -1.3062152 0.20614442 -0.18046415 1.2710034
000340 15 04 c5 3e 09 c5 b4 3f 0b b3 a5 3f 20 bd 59 3e
       0.38479677 1.412263 1.2945265 0.21263552
000350 84 0f a7 b9 c9 53 64 bc 69 86 7b bd 9b a7 62 be
       -0.00031864282 -0.013935992 -0.06140748 -0.22134249
000360 67 42 0b 3d 53 ae 2d 3e 58 80 db 3c 9c d1 83 3b
       0.033998873 0.1696103 0.026794598 0.00402279
000370 8c 57 84 3d 3e 84 b5 3d 6c cf ed 3d 4b f0 79 bc
       0.06462011 0.08863114 0.11611828 -0.015255044
000380 3c e2 1c 3e e4 d2 0b bd ce 73 b4 bd 7a 88 8a bd
       0.15320677 -0.034136668 -0.088111505 -0.06764312
000390 3a d2 0e 3d 97 54 90 bd fe 6b 57 3d 2e 06 f7 3d
       0.034868456 -0.07047384 0.052593224 0.120617256
0003a0 f2 77 8a bd 5b fa 34 3e b0 b8 a8 bd 40 3f 4f bc
       -0.06761159 0.17673628 -0.08238351 -0.012649357
0003b0 50 95 de 3c 5b bd b7 bd 33 a0 59 3c 3f f1 ae 3d
       0.027170807 -0.089716636 0.013282823 0.08542108
0003c0 1b da b8 3d 69 b8 44 be 39 4f 38 be b0 ad 01 3e
       0.09025975 -0.19210972 -0.17998971 0.12663913
0003d0 89 e7 70 be db 20 8f bb b4 d7 85 3d 2e b1 a8 3c
       -0.23525824 -0.0043679303 0.06535283 0.020592298
0003e0 f7 43 0b bd 24 28 03 bd ea c3 84 3d 59 e2 d2 3d
       -0.034000363 -0.032020703 0.0648268 0.10297079
0003f0 ac 67 28 be 90 b6 ee bd 00 5d ac bd 78 3a 1a be
       -0.16445798 -0.11655915 -0.08416176 -0.15061367

net.0.bias f4 [128]
000000 fb 1c 2b 3e 1c 12 7b be 9d 95 b8 bd 97 9d aa 3e
       0.16710274 -0.24518627 -0.090129115 0.33323357
000010 f6 4a 09 be 81 a9 fe 3e 88 9a c5 bd 56 f6 9d be
       -0.13407502 0.49738696 -0.09648615 -0.30852002
000020 ed 61 e8 3b f2 83 b3 bd 82 65 0b 3e 74 64 16 bf
       0.007091752 -0.08765401 0.13612941 -0.5874703
000030 ea a9 f9 3d 32 96 1a 3f 9d 08 9f 3b 09 be ac 3d
       0.12190612 0.6038543 0.0048533217 0.08434684
000040 56 32 07 be 62 58 87 bd 2d 13 0a 3f 47 84 06 3e
       -0.13202795 -0.066086546 0.5393551 0.13136397
000050 4b ec 29 be 0c c4 60 3e c6 24 91 be 39 91 db 3e
       -0.16594045 0.21949786 -0.28348368 0.42884234
000060 49 b2 0f 3f 7d b8 a5 3e 9d 7f b3 3e 0a 08 7a 3e
       0.56131417 0.32367316 0.350583 0.24417129
000070 5a 2c 7e 3e 98 9f 40 3f 89 dc c5 3e b6 86 ea 3e
       0.24821606 0.7524352 0.38644817 0.458059
000080 e3 59 a2 3c ee 01 14 3f cf ac b2 be ea ad f9 bc
       0.019818252 0.57815444 -0.34897467 -0.030478436
000090 68 6a b6 be 71 8e 2d bf e3 2a 84 3c af ee 9e 3e
       -0.35628057 -0.67795473 0.016133731 0.31041476
0000a0 11 b8 11 bf 58 9f 4f 3f b6 94 ed 3e 7d f5 1a 3f
       -0.5692149 0.81102514 0.4640252 0.60530835
0000b0 c5 54 e3 bd 0e 44 90 3d 5b f7 59 3e 0e cb fd bd
       -0.11100153 0.070442304 0.21285765 -0.12392245
0000c0 5f e9 30 3e 07 94 d9 3c 9b e4 04 3f 39 8a bb 3e
       0.17276524 0.026559843 0.51911324 0.36628893
0000d0 e9 db 8c 3e 71 51 30 3e 8c e8 0a be 06 62 32 3e
       0.27511528 0.17218567 -0.13565272 0.17420205
0000e0 dd 75 18 be 74 10 36 be 21 5a b3 3e bd 19 94 3d
       -0.14888711 -0.17779714 0.350297 0.07231472
0000f0 2e 01 05 3f 47 05 d8 be ab c7 0e be c2 18 67 3e
       0.51954925 -0.42191526 -0.13943355 0.22568038
000100 04 e3 b6 3e 14 1f f4 3b a1 1c 8b be bd 6e 79 be
       0.35720074 0.007449994 -0.2717028 -0.2435865
000110 3d cc ec 3e 00 7b 5d 3f 20 66 07 3e 5a 82 8b bd
       0.4624957 0.8651581 0.13222551 -0.06811972
000120 16 70 88 be 8d de f2 3e ee f0 de 3d de 59 df be
       -0.26648015 0.47435418 0.108857974 -0.4362325
000130 ae 99 c2 be 6f 62 14 be d3 71 bc bd eb 09 04 be
       -0.38007873 -0.14490674 -0.09201398 -0.12894408
000140 84 5d c9 3e ab 69 28 3e 6c d9 8d 3e 72 5f 5f be
       0.3932916 0.16446559 0.27704942 -0.21813753
000150 7f 8d a5 be b2 d8 fa 3d a2 10 14 3f e9 b8 d7 3d
       -0.32334515 0.122483626 0.5783788 0.10533316
000160 ab 28 11 3f e1 de 2e 3f ca 26 c3 3e 5a b8 1a be
       0.5670268 0.68308836 0.3811553 -0.15109387
000170 4a 02 35 bd 38 6d 26 3d ed de 25 be 6b 46 92 be
       -0.044191636 0.040631503 -0.1619832 -0.2856935
000180 4a 58 77 be 46 79 16 3f e2 ac 75 3d b8 48 ca bc
       -0.24154773 0.587788 0.059979327 -0.024692878
000190 26 2b 16 3e 7a 6b 34 be 6b d5 9c be fa 5a 59 3e
       0.14664897 -0.17619124 -0.30631575 0.21226111
0001a0 f5 8d ea 3e 5e 59 31 3f f9 54 87 bc 54 25 0f be
       0.4581143 0.6927699 -0.01652001 -0.13979083
0001b0 40 e7 1f be fa 56 38 3f 06 91 f5 3e 91 32 69 bd
       -0.15615559 0.72007716 0.47962207 -0.05693299
0001c0 43 57 38 3e f7 38 df 3e 04 1c d7 bd 26 70 40 3f
       0.18002038 0.43598148 -0.105033904 0.75171125
0001d0 2b 92 3f bc 4c 2f ee bd 3c ed 58 be 4b 43 04 3f
       -0.011692564 -0.11630115 -0.21184248 0.5166518
0001e0 39 a8 a9 3e 75 cf f7 3e 88 d9 58 3e 3a c2 37 3e
       0.33136156 0.48400465 0.21176732 0.17945185
0001f0 24 41 92 be 27 6e a0 bd 7a 95 c8 3d 88 cc f5 bd
       -0.28565323 -0.0783351 0.097941354 -0.12001902

net.2.weight f4 [128, 128]
000000 ae 56 e2 be 21 84 cb bf 57 c1 00 3c 3e 8a fe be
       -0.44206756 -1.5899698 0.007858596 -0.49714845
000010 dd ca ee 3d 37 31 81 bf 94 f8 0b c0 08 6d 95 bf
       0.11659787 -1.0093144 -2.187047 -1.1673899
000020 60 72 8b bf af 9c 84 bd 71 f4 8e bf 60 f5 c7 be
       -1.089428 -0.064751975 -1.1168348 -0.39054394
000030 f2 96 27 be 85 88 5a be 0e 4f af bf ee 46 e8 bf
       -0.16366175 -0.2134114 -1.3696 -1.8146646
000040 c4 c4 7b bd 24 74 d1 be 11 58 e9 bf eb 3c 8f be
       -0.061466947 -0.4090892 -1.8230001 -0.27976164
000050 15 03 59 bd ca 9b df bf f3 db 27 3f 5e e7 fb bd
       -0.052981455 -1.7469418 0.6556999 -0.12299989
000060 97 fd 85 3e 26 f0 a9 be df 0e 2c bf 09 b1 f2 3f
       0.26170036 -0.3319103 -0.6721019 1.8960277
000070 6d a2 0a bf 4a 2d 6c be bc d0 42 c0 5f 7c 84 be
       -0.5415409 -0.23064151 -3.0439901 -0.25876138
000080 c0 d3 85 c0 93 22 cc be fa ee 43 c0 bb 46 85 be
       -4.1820984 -0.39870128 -3.061461 -0.26030526
000090 5a 80 49 bf d4 c6 02 bf 67 b2 f8 3b c5 40 56 bf
       -0.78711474 -0.5108464 0.0075896266 -0.8369258
0000a0 9e e1 cf bf 53 67 6b be ad 2c d0 be d2 85 28 3d
       -1.6240728 -0.22988634 -0.40659085 0.041143246
0000b0 89 7c 19 3d 0c e9 52 bd ee a1 a7 3e 83 54 91 bd
       0.03747228 -0.051491782 0.3274073 -0.070961975
0000c0 3a cc 2a bf 72 42 c4 be 95 f1 8b c0 06 d5 59 be
       -0.66717875 -0.38331944 -4.37324 -0.21272668
0000d0 5b 8e 69 3f 56 e7 07 bf 30 62 8c 3b 8c 87 40 c0
       0.9123284 -0.53087366 0.004284166 -3.0082731
0000e0 40 1f 6f 3b 5f 02 10 bd 94 17 b9 3e 22 a0 4d bf
       0.0036487132 -0.03515851 0.361508 -0.8032247
0000f0 da e1 28 bf 04 2c 97 3f 58 f6 1f c0 f5 47 89 3e
       -0.6596962 1.1810308 -2.4994106 0.2681271
000100 ae 3a 13 c0 ec 15 92 be 37 11 89 be bc 01 e0 bc
       -2.3004565 -0.2853235 -0.26770946 -0.027344577
000110 52 95 1f be 41 b6 51 be a5 cd a6 bf 5c ad 4d 3f
       -0.15584305 -0.2047968 -1.3031508 0.8034265
000120 58 c6 35 3f c8 39 16 bf b7 45 8c be 0a 2e 6d 3f
       0.71005774 -0.5868192 -0.27396938 0.92648375
000130 85 96 bc bf 60 67 3b bb 8c 09 3d 3e 26 c7 ac bd
       -1.4733435 -0.0028595552 0.18460673 -0.08436422
000140 ae fa 23 3e 11 2f 3d be 3d 39 52 bf 3e 48 9f 3d
       0.16013595 -0.18474986 -0.8211859 0.07777451
000150 63 2c ed 3f b2 a8 ca bd 14 80 13 3f 27 91 72 be
       1.8529171 -0.09895457 0.57617307 -0.23688184
000160 f0 e7 ae bf 19 60 01 3f 22 ef cb bf 00 6d c9 3a
       -1.3664532 0.5053726 -1.5932353 0.0015367568
000170 22 0d cf 3c fe 89 4b bf 51 06 38 bf b0 cc d5 3e
       0.025274817 -0.79507434 -0.7188464 0.41757727
000180 2b c3 29 3f 1b 90 ca bd d3 ef 9a 3e 52 a6 91 bf
       0.6631343 -0.09890767 0.30261096 -1.1378882
000190 1e 7b 8a 3f bf 18 6e bf 7d 40 bc bf 81 b7 88 3e
       1.0818822 -0.9300651 -1.470718 0.26702502
0001a0 76 25 02 3f af d3 a0 be 0a 6e 8e c0 60 da 3f c0
       0.5083841 -0.31411502 -4.4509325 -2.9977036
0001b0 86 6c 20 3d 7c 35 b8 be 1a 49 4e 3e 97 8e 9e 3e
       0.039165996 -0.35978305 0.20145074 0.30968162
0001c0 dd d8 3b bc 24 d3 6d be 3c b1 fa 3e 36 7d 2a bc
       -0.011465278 -0.23225075 0.48963344 -0.010405829
0001d0 9e 37 1e bd c1 a8 58 3d 2f 90 59 3d 08 7d b0 3d
       -0.03862726 0.05289531 0.05311602 0.08617598
0001e0 6c fc 4b be c9 86 c1 3e f0 bd bc bf 02 93 f3 bf
       -0.1992051 0.37798145 -1.4745464 -1.9029238
0001f0 58 48 33 be bf 40 1a 3d e0 f7 14 c0 ba ff 61 3d
       -0.17508066 0.037659403 -2.327629 0.05517552
000200 a2 7d 29 3e 08 9d 23 3f 2d cc d4 3d c6 35 ec be
       0.16551831 0.63911486 0.10390506 -0.46134776
000210 84 c5 03 bd 66 2d 16 3f 8d ec 22 bf 1f c7 fb bf
       -0.032170787 0.5866302 -0.636422 -1.9670142
000220 f6 d8 4b bf 54 96 cd bd b5 b4 05 3f 98 26 0f c0
       -0.7962793 -0.100384384 0.5222886 -2.2367306
000230 c4 23 98 3f 92 91 b6 bd ce f6 51 c0 6f ca 01 bb
       1.1885915 -0.08914484 -3.2806888 -0.0019804498
000240 99 aa 74 bd 88 4e a8 3e 39 eb 9b 3e 46 bd 0a 3f
       -0.059733007 0.32872415 0.30452898 0.5419506
000250 30 0f 2c bd 54 2d f4 39 a0 5e 0d bf 79 cb 1e 3e
       -0.04200667 0.0004657308 -0.5522251 0.15507306
000260 95 24 4e be 93 03 93 be bf 62 c3 bf 9d b7 9f 3e
       -0.20131142 -0.28713664 -1.526451 0.31194773
000270 1f 8f a6 3f 58 8f 86 bd 8d 60 3c bf 92 7c 0d 3f
       1.3012427 -0.065703094 -0.73584825 0.55268204
000280 6c ba f3 bf 9c ab e1 be c3 30 29 3f 9b 14 61 c0
       -1.9041266 -0.4407624 0.6609003 -3.5168827
000290 ef 92 dd be 99 8b 78 c0 7d 06 fe bc 23 52 1c bf
       -0.43276164 -3.8835204 -0.031008953 -0.6106283
0002a0 c7 2e 00 3f 32 ad 9f bf ef 0a b9 bd d7 27 4b 3e
       0.50071377 -1.247473 -0.090352885 0.19839416
0002b0 85 17 32 3d 5e db 88 3d 0b b3 8a bf 46 df 26 be
       0.04347946 0.06682466 -1.083589 -0.1629611
0002c0 da d7 f5 bf c2 fd 86 bf 2b 6b 89 3f b0 68 7b 3f
       -1.9206498 -1.0546191 1.073583 0.98206615
0002d0 21 6f 41 bf 90 57 4c 3f 50 ba cf 3c dd cd 91 3f
       -0.75560194 0.7982111 0.025357395 1.139095
0002e0 d4 c9 8b 3d a2 16 f1 3d e9 41 70 be 41 3c f7 bb
       0.06825605 0.11771895 -0.23462643 -0.0075450246
0002f0 5c d6 c2 be 4a 27 fe 3f e8 da 22 c0 7d f5 e6 3f
       -0.38054168 1.985574 -2.544611 1.8043667
000300 4a e5 41 c0 ca 4c 18 c0 9f 59 c6 3d d2 92 54 3f
       -3.0296197 -2.3796868 0.096850626 0.8303653
000310 a4 97 0f 3e cc 69 ae 3e c1 96 f6 bf 53 6e e0 3e
       0.1402269 0.34065092 -1.9264756 0.4383417
000320 33 ed 8b 40 6d 04 68 bd 64 65 50 3f 0c be 4f 40
       4.372705 -0.056644846 0.8140471 3.2459745
000330 c4 50 d1 bf 00 5f c4 bd 0b d9 16 40 8d ad 3d 3b
       -1.6352773 -0.09588432 2.3569973 0.0028942556
000340 20 b3 51 be 1d 33 e3 bf f7 27 19 3f 09 89 a3 bd
       -0.20478487 -1.7749974 0.59826607 -0.07985122
000350 ab ba 10 3f 64 39 7d bf af 2a d8 bf 48 a6 c4 3e
       0.5653483 -0.98915696 -1.6888026 0.38408113
000360 21 3e b1 3f 7c 68 0a 3e 65 d7 97 3e a6 ec 0e 3d
       1.3847085 0.1351642 0.2965652 0.034893654
000370 02 93 b5 3d 5d 13 59 be 84 53 a8 3e 4e db 85 bf
       0.0886593 -0.21198793 0.32876217 -1.0457551
000380 14 25 98 bd ed 52 c6 bf 1e 84 18 bf 0c cf 0d bf
       -0.07428947 -1.5494057 -0.59576595 -0.55394053
000390 be 62 09 bf 92 3f 33 c0 7d bd 89 3f 14 91 28 bf
       -0.53666294 -2.800755 1.0760952 -0.6584637
0003a0 4d 3c 0b be 11 17 ab 3d cc ab 87 3f 61 20 3a c0
       -0.13597222 0.08354009 1.0599303 -2.9082263
0003b0 ef 15 80 bd 42 a9 00 3e 30 6c 4b 3e 04 47 d9 3f
       -0.062541835 0.12564567 0.19865489 1.6974797
0003c0 dc b9 cc 3d a7 b4 b6 bd f7 13 89 bf 73 a6 7a be
       0.09996387 -0.089211755 -1.0709218 -0.24477558
0003d0 1b 1b a6 3c c0 b3 7a bd 05 dc a3 bc 1e b8 a0 3d
       0.020276597 -0.06120658 -0.020002374 0.078476176
0003e0 4b e7 48 3f 3b 7e 2e 3d d4 78 35 be dd 99 53 c0
       0.78477925 0.04260085 -0.17721874 -3.306266
0003f0 62 2f 1e be 32 0a da bc f6 fd 00 3f 97 9e d8 bc
       -0.15447763 -0.02661619 0.50387514 -0.026442809

net.2.bias f4 [128]
000000 f7 b5 80 be ae 54 39 3f 6f 6c 30 be 2e db 2c bd
       -0.25138828 0.72394836 -0.17228864 -0.042201214
000010 b5 d4 5e 3d c4 95 96 bd a8 73 a6 bd 12 c2 0b 3f
       0.054402072 -0.07352784 -0.081275284 0.54593
000020 42 0e 75 3f 39 86 82 bd a3 2e c5 3e 85 66 49 3f
       0.9572488 -0.06373257 0.38512143 0.7867206
000030 fb 9b fe bc 93 cb 5f 3f be 4f a1 3f da c1 31 bd
       -0.031080237 0.87420005 1.260246 -0.043397762
000040 b7 f8 27 3f ce 8d c7 bd 50 58 33 3f e5 fd a4 3c
       0.65613884 -0.09743844 0.7005663 0.020140598
000050 c9 10 55 3f c9 89 37 3f bd 64 c3 3f 6a f9 c0 3f
       0.8322874 0.7169462 1.5265118 1.5076115
000060 0b a8 52 bf 48 ca 70 3f 6f cb 4c 3f 7f 97 c0 3f
       -0.82287663 0.94058657 0.79997915 1.5046233
000070 e6 3d b7 3f 74 dc d7 bd 37 74 4e bc 8e 4d 3c 3f
       1.4315765 -0.10540095 -0.01260095 0.7355584
000080 4e 5f f5 3b a2 2f 21 3f 2e 07 07 3f 3a 5e ee 3f
       0.007488168 0.62963307 0.5274533 1.8622506
000090 8c b4 d6 3e 1d e7 6e bd 5f 3d 99 bd 3b dd da bd
       0.4193462 -0.058325876 -0.07482409 -0.106867276
0000a0 27 83 07 be 1a 03 33 3f 36 ea 44 3e 96 2d a9 3f
       -0.13233624 0.6992661 0.1922997 1.3217037
0000b0 87 ec bf 3c f0 29 d7 3f f6 98 69 3f 15 9f d4 bd
       0.023428215 1.6809673 0.91249025 -0.10381905
0000c0 28 32 4a 3f 8b 56 c5 3f e6 2c c3 3e 36 7f fb bd
       0.7898278 1.5417036 0.38120192 -0.12280123
0000d0 0f 48 1a 3f 68 5d 5b 3f 18 ef b4 3f ed c0 0e 3c
       0.602662 0.856894 1.4135466 0.008712989
0000e0 40 01 1c bd 61 9a 5f 3f db 48 9a 3f 7e ec a1 bd
       -0.03808713 0.8734494 1.2053484 -0.079064354
0000f0 72 79 9c 3f 24 9a b2 3f 07 89 ff bd bb 8a 84 bd
       1.2224562 1.395329 -0.12477308 -0.06471773
000100 d6 6f 36 3f 90 38 cf bd 15 be ed bd 38 04 56 3f
       0.712644 -0.1011821 -0.11608521 0.8360019
000110 13 b4 00 3f 53 ab f8 bd 20 8d 06 bc 71 97 11 3d
       0.5027477 -0.121420525 -0.008212358 0.035544816
000120 63 bf 97 bd 0f 4e 2b 3f 9c 4f 00 be cc 10 c9 bd
       -0.07409551 0.6691598 -0.12530369 -0.09817657
000130 b6 c5 0f 3f 24 34 43 3f 29 2b 79 3c dd 88 13 be
       0.5616106 0.76251435 0.015208044 -0.14407678
000140 fc 54 9b bc 6f 5f f4 bd 7a a8 a8 3f 59 50 c9 bd
       -0.018961422 -0.11932265 1.3176415 -0.09829778
000150 4c 60 b9 3f 58 57 a8 bd 4d 5c ae 3f 4a a7 da 3f
       1.4482512 -0.082197845 1.3621918 1.7082303
000160 08 66 de bd a2 7d dd 3c d8 57 b4 bd 1a 24 c8 bd
       -0.10859305 0.027037445 -0.08805817 -0.09772511
000170 72 23 c7 3f df 00 e9 bd 13 73 24 be dd 1c d3 bd
       1.5557692 -0.11377119 -0.16059522 -0.103082396
000180 81 50 8d bd ea 50 d3 bb ec 13 59 3f c4 d4 bf bc
       -0.069001205 -0.0064488547 0.84796023 -0.023416884
000190 c9 6e 04 bd a0 2f 7b bd 0e c2 7b 3f 43 5c a4 3f
       -0.032332215 -0.061324716 0.9834298 1.2840656
0001a0 97 1e 0f be c6 f6 7a 3f 5e b2 ff bd 55 3d 3d 3f
       -0.13976513 0.98032796 -0.12485193 0.7392171
0001b0 8a c0 35 bf 7f 72 af 3f a3 b5 08 3f 5d 16 83 3f
       -0.70996916 1.3706816 0.53402156 1.02412
0001c0 06 3a 0e be cf 99 51 bd 01 a1 bc 3f 4a aa 44 bd
       -0.13889322 -0.051172074 1.4736634 -0.048013963
0001d0 3b 3a c0 bd 4f 04 3b 3f 44 f6 52 3e 82 c9 4e bd
       -0.093861066 0.7305345 0.20601755 -0.05048514
0001e0 b2 06 79 3f 69 b7 3e 3f 58 ce 33 3f ad ea db 3f
       0.9727584 0.7449861 0.7023673 1.7180992
0001f0 76 a0 ab be ca 22 95 3f dd 8b bb 3f 13 62 ef bd
       -0.3352086 1.1651242 1.4652058 -0.11688628
