checkpoints3/team1_agent_0.pt (torch, 411297 bytes, 24 tensors)

net.0.weight f4 [128, 53]
00000000: 87c6 0bbf d77e 02be 7d30 8fbe 0c9d 01bf
00000010: 471a 083e 73e7 54bf 69b9 863d 79c8 61bf
00000020: 3f17 a93e f832 cd3c 810c 4d3f 53c0 0e3f
00000030: c4cd 1b3f a520 093f 29b7 1d3f 6b59 bd3e
00000040: 7280 46bf ffb1 e13d 9aa7 8cbf 4221 e6bf
00000050: 7198 96bd 6841 18bf de50 c4bd 7a9f 64bd
00000060: 69a7 ab3d 7c90 ca3d a607 1ebe ab6f 1bbe
00000070: 2e57 34be 02ab c53f 3b33 92be ae8f 073f
00000080: bda6 f73d bb39 07be 1bc6 febd ee46 49be
00000090: 0906 51bf d7a0 78bc 656c 003d 0551 56bf
000000a0: 5e7a c0be e3ce 96bd 3883 7dbe ca8d 603e
000000b0: 53fe 6dbf e80f 93be 27a8 e1bd f596 283f
000000c0: f1af 623e c88d 1c3d 553d 843e 9bff cd3e
000000d0: c3a6 303f d4f1 1d3e b16f 8e3e c27c 873d
000000e0: 9a9b 5c3e 12b5 00bd fbb5 253e c933 023e
000000f0: 3c76 c93d c174 c8bd 56b7 a83d 4de2 aabc
00000100: ff00 a8bb c41f 403d 8a15 313e 5e57 c33d
00000110: 82c6 1fbd fd4b 0b3e 57d6 2bbe 0e0f 84bd
00000120: aa1b 3dbd 3f24 033f f83a cc3e 5ab8 df3d
00000130: 99a4 5ebd 463d cf3d 1bdb 173e c2d0 7abd
00000140: 7e5f 683d 1287 6e3d e9d0 083e 322a 283d
00000150: 4c38 6c3e 21a8 6b3d 7ebe 093e 95c3 3d3d
00000160: 6013 283e 5adc a1bd 0d24 963d 1ec0 b13d
00000170: ea89 1bbd 9443 e53d 2a9e 993e 8e5c a2bc
00000180: e73e 093e ebcb a03d bcd6 5d3e ae88 f33e
00000190: 27da b6be 6547 97bd 5f37 e33e e574 a6bd
000001a0: 45b1 603d 3e57 0c3d af66 febe 0fcb 79be
000001b0: 9801 97be fb6c a93e ac57 d3bc b0fc b73e
000001c0: 0859 c43f 9bd0 88be 64e3 b8bd ddc8 cdbd
000001d0: cb4d 6b3f c452 323f 620d 423e fc73 653f
000001e0: 9594 fabe 139c ecbe 3c5c 87be 58da 2e3e
000001f0: bf1c 57bf 9425 dd3e 8217 abbe b5be dcbe
00000200: 13a3 113f 81b5 d1bd 3fd7 babe c386 8bbb
00000210: 884b a6bf ef56 a8be 794c 39be 069a 093f
00000220: 7c49 bb3d 7d19 a73f 4081 ebbe b88c 3b3d
00000230: b5ec 9ebe 15b6 da3d 858a 883f b045 4cbe
00000240: d50c 703f 8e19 12bf e5ee 723d ec5e 06be
00000250: 4242 453e af1c 6ebf 5145 7bbf cdb7 ac3e
00000260: 758f 9dbe 6337 123f dc29 b0bf 1c36 aabe
00000270: b6a1 96bf ca46 593d 3ffd 883e 5895 38be
00000280: 7412 40be c75e 783c 52b3 cabd 0092 cb3a
00000290: 01a0 5ebe ac62 9abd 62a3 77bd 3922 0abd
000002a0: 3880 523d 2b7f 90bd 24ee cabc 998d 75bd
000002b0: 786d 0e3d d20f 43bd 7962 243d bb2e a63d
000002c0: 1ce6 e4bc 3a89 123e 1cf3 3e3d 7784 06be
000002d0: 9b74 713d 0b23 c23d be74 113d 589d cc3c
000002e0: 26aa 79bc b1bc 253e 850b 133d 4e79 103d
000002f0: 2606 893d 11e5 24be cc6a dc3d 8180 8b3d
00000300: ef7f 173e 08bf 153d e527 f03c 472f 3c3d
00000310: 6ea0 a33d d48e 4cbd f2ae 633d 33bb 573c
00000320: 5285 88bd 4b3f 0abe 0a90 473e 3611 f9bd
00000330: c3ae 3e3e e37c 4dbe a461 503e d820 16bd
00000340: fcca 5abd d01c 7bbd d6ba f4bd 78ff 04be
00000350: 9feb 77bf 9369 73be c62a 393f c6a4 40be
00000360: 0093 23bd 2b0c f33e 56cd 293f ca00 29be
00000370: 9d1c 4b3f 79ae 323e 1b64 ac3d cca1 8a3f
00000380: 7e5b 893e dd13 ba3f 1870 18bf 032a a13e
00000390: 8d50 963e 1a15 5a3f 588c c23d 6aed 27bf
000003a0: 031b 39be a55a 75be da30 0b3e b6f6 99bf
000003b0: 5d47 86be d488 c03e 01de ac3e 0e00 c6bd
000003c0: 2484 07bc 1086 04bf 58f4 0cbf 1a00 8d3f
000003d0: c8ec f7be 9e86 813d 8983 8e3f 9cf9 0e3f
000003e0: 0348 0d3f afd7 753e 8949 c2be cd50 59bf
000003f0: 8575 e93e 781f 02bf 6761 3d3f 0668 aa3d
-0.54599804 -0.12743698 -0.2796668 -0.5063026 0.13291274 -0.83165663 0.06578333 -0.8819652
0.33025548 0.025048718 0.80097204 0.55762213 0.6086085 0.53565437 0.61607605 0.36982283
-0.7753974 0.11020278 -1.0988648 -1.79789 -0.07353295 -0.594748 -0.09585737 -0.05581615
0.0838154 0.098908395 -0.15432605 -0.15179317 -0.17611381 1.5442812 -0.2855471 0.5295361
0.1209235 -0.13205616 -0.12440129 -0.19655964 -0.81649834 -0.015175066 0.031353373 -0.83717376
-0.3759336 -0.07363679 -0.24757087 0.21929088 -0.9296619 -0.28723073 -0.11018401 0.6585534
0.22137429 0.03822115 0.25828043 0.40234074 0.6900446 0.15424281 0.2781959 0.066155925
0.21543732 -0.031422682 0.16182701 0.12715067 0.098370045 -0.09787894 0.082380936 -0.020859862
-0.005127072 0.046905294 0.17293373 0.09538148 -0.03900767 0.13603206 -0.16780983 -0.06448184
-0.04616896 0.5122718 0.3988874 0.10923834 -0.05435619 0.10119109 0.14829676 -0.061234243
0.056731693 0.05823428 0.13360943 0.041055866 0.2306835 0.057533387 0.13451573 0.0463291
0.16413641 -0.07903357 0.07331095 0.086792216 -0.037973322 0.1119453 0.30003482 -0.019819524
0.13402902 0.07851394 0.21663946 0.47565216 -0.35713312 -0.07386664 0.44378182 -0.081277646
0.054856557 0.034262888 -0.49687716 -0.24393867 -0.29493403 0.33090958 -0.025798641 0.35934973
1.533967 -0.26721653 -0.09027746 -0.10048077 0.9191558 0.6965754 0.18950418 0.89630103
-0.48941484 -0.46212825 -0.26437557 0.17075479 -0.8402824 0.43192732 -0.33416373 -0.43114248
0.56889457 -0.10239697 -0.36492345 -0.004258008 -1.29918 -0.32878825 -0.18095578 0.53750646
0.091448754 1.3054653 -0.45997047 0.045788497 -0.31039968 0.10679261 1.0667273 -0.19948459
0.9376958 -0.57070243 0.05930986 -0.13122147 0.19263557 -0.9301252 -0.98152643 0.3373398
-0.30773512 0.57115763 -1.3762774 -0.33244407 -1.17681 0.053046025 0.2675571 -0.1802572
-0.1875704 0.015159315 -0.09897484 0.0015531182 -0.21740724 -0.075383514 -0.06045855 -0.033724044
0.05139181 -0.07055505 -0.024771757 -0.05994949 0.034772366 -0.04762251 0.040132973 0.08114382
-0.027941756 0.1431016 0.046618566 -0.13136469 0.058949094 0.0947934 0.035511725 0.024977371
-0.01523832 0.16185261 0.035899658 0.035271935 0.06690626 -0.16103007 0.107625574 0.068116195
0.14794897 0.036559135 0.029315898 0.045943525 0.07989584 -0.0499409 0.055586763 0.01316719
-0.06666054 -0.13500707 0.1948854 -0.12161486 0.18621354 -0.20067172 0.20349747 -0.036652416
-0.053416237 -0.061306775 -0.119496986 -0.12988079 -0.96843904 -0.23770742 0.7233089 -0.18812856
-0.039935112 0.4747022 0.6632894 -0.16504207 0.79340535 0.17449369 0.08417531 1.0830626
0.26827615 1.4537312 -0.5954604 0.31477365 0.2935833 0.8518845 0.09499425 -0.6559664
-0.1807671 -0.2396036 0.13592854 -1.2028415 -0.2622632 0.37604392 0.33763126 -0.09667979
-0.008271251 -0.51767063 -0.5506034 1.1015656 -0.48422837 0.06324504 1.1133891 0.55849624
0.55188006 0.24008058 -0.37946728 -0.8488892 0.45597473 -0.5082927 0.7397675 0.08320622

net.0.bias f4 [128]
00000000: 7e15 16be 9b0c d23e 8a86 f0be 2108 babd
00000010: 9ff4 1bbf 8c6c efbd 6508 043e 3ccc afbd
00000020: 611c 23be 216c a6bd f779 ecbc 2a87 71be
00000030: 7931 16be 721c 81bd 75f8 213e 1c42 1ebe
00000040: dad1 6ebd 36ae 27be 5b95 14bf 49b6 363e
00000050: 42bd adbd c9d9 e3bc f0a8 c93e de6c e43d
00000060: 20e3 1bbe 5c19 f7bd d029 1cbc ec30 53bd
00000070: ed0d 29be 3674 d3bd 7f4c 9dbd 06bf a4be
00000080: c396 18bd 0199 8dbe 181b 74be e707 8a3d
00000090: 5332 8ebe 0f77 f1bd 57ef 12be 3c2f 6e3e
000000a0: 527a 40bc 23c7 ef3e 5bc8 d7be 9a1f 163e
000000b0: 783a 623e 2f89 a2be 6a9e 0a3e 9274 43be
000000c0: 955d 12bd ca30 a53d b40a 84be 2fe4 c4bd
000000d0: 7547 f23d 1943 373d 8a84 6dbe c436 3cbd
000000e0: 67c0 c8bd d99d d8bd 0f37 0a3d 98b8 99be
000000f0: f752 35be 8c17 14be 48ba a2be c994 96be
00000100: e680 02be fd3e 433e a85c b0bc 57dc 4e3c
00000110: a94a ddbd d733 75bd 397d c1bd db9a c93d
00000120: 7b16 3fbe 83e2 b33d 8045 4ebd ed3c 1fbe
00000130: 4d8a 573e ed4c e3bd 7f2c 6cbd 532c a6bd
00000140: 3e82 a2bc f222 513d f6ca c13d 06ed b2bd
00000150: 475c 8a3d b690 c53d cb01 ad3d b589 bd3e
00000160: d1d1 3b3e ac52 92be 1528 36be d310 1dbe
00000170: cf31 18be 0aa9 f23d fc6d 39be 55d4 59be
00000180: 772a eabe 415f a83e 958b d4be 5b6e 41bc
00000190: d505 c9bc b966 74bd 1b16 e63e cdd3 9ebd
000001a0: 739f 88bd bb15 c4bd 8360 273d 0d68 ca3d
000001b0: e796 ebbc 4d73 213c 50f8 2a3e 2563 07be
000001c0: 3e8d 16be 4d6c 473e 23cd 063f b15b dd3e
000001d0: bea9 c43d dd35 67be 3bae 0dbe 8961 b4be
000001e0: cd0b 923d 427d e73d 4d17 bdbe 25d3 01bd
000001f0: 03f4 bcbd 4759 1dbe 5776 38be b566 fe3c
-0.14656636 0.41025242 -0.46977645 -0.09083582 -0.6092014 -0.116906255 0.12893827 -0.085838765
-0.15928794 -0.08126093 -0.028866751 -0.23586717 -0.1466731 -0.06304254 0.15817435 -0.15454906
-0.0583056 -0.1637505 -0.580404 0.17842974 -0.08483364 -0.027813809 0.39386702 0.11153577
-0.1522336 -0.12065384 -0.009531453 -0.051560327 -0.16509219 -0.103249 -0.07680606 -0.3217699
-0.037253153 -0.27655795 -0.2383846 0.067397885 -0.2777277 -0.11790287 -0.14349113 0.23260206
-0.011747913 0.46831617 -0.42145047 0.14660493 0.22092617 -0.31745288 0.13536993 -0.19087437
-0.035733778 0.080659464 -0.25789416 -0.09613835 0.118300356 0.044741724 -0.23195091 -0.045950666
-0.09802323 -0.10576982 0.033743914 -0.30023646 -0.1770743 -0.14462107 -0.31782746 -0.2941039
-0.12744483 0.19066997 -0.021528557 0.012625775 -0.10805256 -0.05986389 -0.094477125 0.098439895
-0.1866092 0.08783438 -0.05035925 -0.15550585 0.21048851 -0.11098657 -0.057659622 -0.08113923
-0.019837495 0.051058717 0.0946254 -0.08736615 0.06755882 0.09646742 0.084476076 0.37019125
0.18341757 -0.285787 -0.17788728 -0.15338449 -0.1486275 0.11848648 -0.18108362 -0.21272404
-0.45735523 0.32885173 -0.41512743 -0.011806096 -0.024538914 -0.059668276 0.4493874 -0.077552415
-0.066710375 -0.09574457 0.040863525 0.09883127 -0.02875848 0.00985415 0.16696286 -0.13221414
-0.14702317 0.19474907 0.52656764 0.43234017 0.09602688 -0.22579141 -0.13835995 -0.35230663
0.07131157 0.11303188 -0.3693184 -0.031695504 -0.09226229 -0.15366088 -0.18013893 0.031054834

net.2.weight f4 [128, 128]
00000000: 5e7b 193e a8c1 48bd 3e31 89bd c50a 8bbd
00000010: 3410 e83d a3c1 323d 4975 d33e 2dc6 46bd
00000020: 0014 4bbc bff2 d03d 40e5 b9bd b3eb 7e3d
00000030: fb1a 793d b756 1ebf 9961 3abe f64f c53c
00000040: 4a9e e1bd b25b 9fbd d063 9fbe d0db 40be
00000050: cc66 fabd 3699 70bd c475 e2bd 443b 76be
00000060: a3f2 a4bd 3bc9 823d ff5d afbd 0b12 573e
00000070: b01b dbbc c346 3bbd 9d3a ae3e 5b8e 92bd
00000080: 0379 d5be edda 623d f405 49be d235 04be
00000090: 08fd 89be 5bc3 7dbe 4292 19be 24b8 75be
000000a0: 2fa9 40be 0abd 72bd 447b 093e 9889 0f3d
000000b0: 063b 7fbe 6b93 d9bd 7ba9 043e 2298 273e
000000c0: f117 cebe 72b8 76be 63ee 53be dd0e 9f3d
000000d0: 4296 64bd ac17 a8be 332b 0dbd a17c 423d
000000e0: a6d4 02be 8bf2 c1bc 1bca 88be efc9 4dbe
000000f0: 263a b2bc c061 31bb e05f 2dbe 8e6d a5bc
00000100: 9576 8b3b 5dc9 c0be 8fd8 16bc de68 b93d
00000110: 4625 4d3e 3840 5bbc 25f1 a53d 90f6 163b
00000120: f44a 093d b8e2 31be d729 dcbe b305 4c3d
00000130: 36f7 9abe a3a9 06bf c714 933c 676d a13e
00000140: a8ed 033d 3825 4bbe 9c35 c9bd fba4 0abe
00000150: 310a 4abe 1b4f 5dbe ab10 9cbd 3005 1dbd
00000160: 70d5 5f3d 11fc 8a3c 8dc6 b8be e240 323c
00000170: 5fc1 6a3d 03be 44be 56c7 27be 1443 ccbc
00000180: 4b01 5cbe a93c 15be 13b8 91bd b83a 4e3d
00000190: dca0 a6bd 3275 253d d80d b6bd 2ec5 df3d
000001a0: 64c4 8b3d fbcc 613c da48 dbbd 5d81 b33d
000001b0: 9f65 ae3d f61b a6be 1f54 0abd 101f 1e3d
000001c0: 5d11 24bd c9e4 20ba ff00 bebd bdd5 19be
000001d0: 4587 88bd d501 d9bc c609 013c 28ea d63e
000001e0: 1ac9 5f3e d329 273d 132b 19bb b99c ff3d
000001f0: 2f94 e2bc b5db 55bd 73b0 303d a544 9bbe
00000200: 9fc7 3bbc c07d a73c dd48 d0bc 5642 bb3b
00000210: b886 193c f77b 8bbc 5868 7bbd 1031 23bd
00000220: 81a5 afbd 2eb6 423d 9dbc 3e3d a25f 1e3d
00000230: 773a 933d 0582 163c b9b0 e6bc dae5 20bd
00000240: 3649 acbc 719d 7abc 260e 15bd 2bcb 143b
00000250: f0e0 313d 24b6 46bd 509a b13b f089 c8bd
00000260: 332e 8a3d af40 e63c eb07 3a3d 2e0a 8fbd
00000270: 1f9b 26bd 62c5 7f3d e364 a5bd d800 89bd
00000280: 0a4d abbd e94f 20bd f288 823c cc52 e4bd
00000290: 9cee 96bc ce51 c5bd 0430 3c3b d32b 68bc
000002a0: 73ed 0fbc 6b8a e6bd e8df 8e3d 13c9 913b
000002b0: 5c38 9bbd 7e79 8f3d b4fd 8dbd c032 d2ba
000002c0: 842c 99bd feb2 2cbc 5dc8 453d e21d 7e3d
000002d0: 3125 f6bc 11b1 cebc 703b 8abd 2422 8f3c
000002e0: f97e 44bd d021 683c ee00 52bd 7a5b 77bb
000002f0: 90d3 5cbd de0d 1d3d bfb8 85bd 5d68 a2bd
00000300: 9add a4bd 58f2 e4bd 2f43 2c3d ec67 ebbc
00000310: 0d13 ebbc 00f3 95bb 1c24 19bd 7fd4 5dbd
00000320: ed56 a73c a546 9cbc ca5e 823d 1aac ffbc
00000330: f514 aabd 33a6 b0b9 1d26 003d 8d71 b6bc
00000340: 4487 84bd ae8d 8fbd f72f 263b d90c 47bc
00000350: 1025 d3bd 3550 62bd 79a7 2bbd 665d 063d
00000360: 003e 5d3d 95d6 86bd 38f5 18bd 53e8 773c
00000370: a3ac f1bb fb32 8abd aa8b 133d 1c2b d83c
00000380: 2acc 953d 2412 1bbd 8971 89bd 8fd1 1f3a
00000390: 4ebc 65bd 3e42 29bd ccf4 b9bd eef8 27bd
000003a0: c41f 45bc 6319 a23c e497 8ebd dedc 99bd
000003b0: 70e0 96bd d42c 113c 4925 763d 52fc 953d
000003c0: ec23 f53c c847 b0bd 4445 bcbd bdc0 22bd
000003d0: 7798 34bd 52c7 12bd 0dcb 01bd a50f 1c3d
000003e0: ea8b 2cbd 577b 9d3c 01c1 d23c 54c7 a43c
000003f0: c791 373d 2c81 f5bc 577a 613d 46b1 113d
0.14988467 -0.04901281 -0.06698845 -0.067891635 0.113312155 0.043641698 0.4130042 -0.04852884
-0.012394905 0.1020255 -0.09076929 0.0622365 0.060816746 -0.61851066 -0.18201293 0.02408598
-0.11016519 -0.07781161 -0.31130838 -0.18833852 -0.12226638 -0.058739863 -0.11057618 -0.24046046
-0.08054092 0.06386038 -0.0856285 0.21002977 -0.0267466 -0.04572178 0.34029093 -0.071560584
-0.41693887 0.055384565 -0.19631177 -0.12911156 -0.2695086 -0.24781553 -0.14997199 -0.23996025
-0.18814538 -0.059262313 0.13425928 0.03504333 -0.2492486 -0.10623821 0.12955277 0.16366628
-0.4025264 -0.24093798 -0.20696406 0.07766507 -0.05580736 -0.3283056 -0.034465026 0.047482137
-0.12776431 -0.023675224 -0.26716694 -0.20096563 -0.021756243 -0.002706632 -0.16931105 -0.020193841
0.0042560794 -0.37653628 -0.009206905 0.09053205 0.2003375 -0.01338201 0.08102635 0.0023035146
0.033518746 -0.17371643 -0.4300067 0.049810123 -0.30266732 -0.52602595 0.017954243 0.3152878
0.03220907 -0.19838417 -0.09824678 -0.13539498 -0.1973045 -0.21612208 -0.07620367 -0.038335025
0.05464691 0.016965898 -0.36088982 0.010879727 0.05731332 -0.19213109 -0.16384634 -0.02493433
-0.21484868 -0.14573921 -0.071151875 0.050348967 -0.0813615 0.04039497 -0.08889359 0.10926281
0.06824568 0.013781781 -0.10707255 0.087649085 0.085154764 -0.32443208 -0.03377163 0.038603842
-0.04005562 -0.0006137607 -0.09277534 -0.15022941 -0.066664256 -0.026490131 0.007875865 0.41975522
0.21854058 0.04081137 -0.0023371622 0.12481064 -0.02765855 -0.052211482 0.043137025 -0.3032581
-0.011461168 0.020445704 -0.025425369 0.005714695 0.009370498 -0.017026884 -0.061378807 -0.03984171
-0.08576489 0.04753702 0.046566594 0.03866542 0.07188886 0.0091862725 -0.02816044 -0.039281704
-0.021031003 -0.015296326 -0.036390446 0.0022704105 0.043427408 -0.048513547 0.005420007 -0.097919345
0.06747093 0.028107015 0.045417707 -0.069843635 -0.04067528 0.0624441 -0.08075883 -0.06689614
-0.083643034 -0.03913871 0.015934441 -0.11148605 -0.018424325 -0.09634744 0.0028715143 -0.014170605
-0.00878464 -0.1125687 0.069763005 0.0044490187 -0.07579109 0.07005595 -0.06933156 -0.0016036853
-0.07479194 -0.010540722 0.048286784 0.062040217 -0.030047031 -0.025230916 -0.06749618 0.017472334
-0.047972653 0.014168218 -0.051270418 -0.0037743733 -0.0539127 0.038343303 -0.06529378 -0.07930062
-0.0805008 -0.11179036 0.04205626 -0.028736077 -0.028695608 -0.004576087 -0.037387952 -0.05415773
0.020427192 -0.019076655 0.06365736 -0.031209994 -0.083047785 -0.00033693164 0.031286348 -0.022270942
-0.06471112 -0.07009445 0.002535818 -0.012149059 -0.103098035 -0.055252273 -0.04190776 0.032803915
0.054014206 -0.06583897 -0.037343234 0.015131074 -0.007375316 -0.06748005 0.036021866 0.026387744
0.07314332 -0.037859097 -0.06711108 0.00060965953 -0.056087784 -0.04132294 -0.090798944 -0.041008882
-0.012031499 0.019787496 -0.069625646 -0.0751283 -0.07367027 0.0088607855 0.06009415 0.07323517
0.029924355 -0.08607441 -0.09192899 -0.03973459 -0.044090714 -0.035834618 -0.031687785 0.038100857
-0.04212562 0.019223852 0.025726797 0.020114578 0.04481676 -0.02996882 0.055048313 0.03556945

net.2.bias f4 [128]
00000000: cead 853e fcab bfbc 3101 8f3c b983 703e
00000010: 1764 9abd 4f33 b23e 9f7e 24bd 3068 f53e
00000020: df15 423f d013 453f e005 633f 9143 e4bd
00000030: 08c7 cf3c e8aa b3bc b178 573f 696f cabd
00000040: aef8 2b3d d3d6 f6bd 31fd 09be a5be f9bd
00000050: 4337 df3e 1889 6d3f 7ccf 0ebd 8437 42bd
00000060: 172e e33e 9682 bebd 6244 01be f33a 593f
00000070: 9e69 77bd df8d f1bd cd37 a4bc fa18 713f
00000080: d29f cb3b 66bc 7fbd 7004 94bd 9b52 343f
00000090: 2a7e 94bd 7d16 00bd 306a bebd 545f ca3c
000000a0: e85e e43c 660d e4bc 2ba9 253f 2b55 1e3c
000000b0: 0d27 d2bd 3980 613c 9ff4 ccbd ef53 b33e
000000c0: 1c6b 593f eb31 3b3f 04b8 2dbd 6884 3a3d
000000d0: b278 82bd 2e33 1a3f 63b9 cebd d670 903e
000000e0: 971a f2bd 5958 2ebd 10d3 e8be bc7a fb3e
000000f0: b395 17bd 6b91 443f 52f0 8cbc f293 ffbd
00000100: 5702 153f 0fef 8bbd 6ea6 463f 7e80 063d
00000110: dcef 54be 58ae 10be d1b3 ddbd dab7 893d
00000120: a319 243f e0ce 35be 6f9a 0e3d 8a26 b8bd
00000130: 633a 353f bda3 38bd dcac 28bd 4613 1c3f
00000140: ed08 d6bb dc70 86bd 33c6 cfbd 824b e43c
00000150: 3e52 d6bd 3af5 f0bd 6419 c4bc a3a8 cc3c
00000160: e798 573f f9da a7bd 0316 b1bd 24d9 c93e
00000170: e5de e3bb e355 0cbe 3f3f bfbc 7789 9fbd
00000180: 4876 29bd 35b2 21bd 05fb 27bd 4d49 75be
00000190: ee68 c5bc 7396 773b af6b 2cbd 9270 4d3e
000001a0: 80a2 50bd 731e fd3e ae64 383f 84fe d5bd
000001b0: b067 263d 9f75 86bd 5cc9 8fbc 276a ac3e
000001c0: a1ad f2bd 11d1 343c ed8d 0f3e 2791 ddbd
000001d0: a7cb b6bd 868a 15bd ba71 f63e 297d ecbd
000001e0: 5fc6 193f 4078 b3bd 76d1 203f ff77 79bc
000001f0: 71cf 303c b700 04bc 38be c4bd 0dcf 403d
0.26109165 -0.023397438 0.017456623 0.23487748 -0.07538622 0.3480477 -0.040159818 0.4793105
0.7581462 0.76983356 0.8868084 -0.111457 0.02536346 -0.02193208 0.84168535 -0.09884531
0.041985206 -0.12052693 -0.13475491 -0.12194566 0.4359685 0.92787313 -0.03486584 -0.047416225
0.443711 -0.09302251 -0.12623742 0.84855574 -0.06040346 -0.11794638 -0.02004614 0.94178736
0.0062141204 -0.06243553 -0.07227409 0.70438546 -0.072506264 -0.031271446 -0.092975974 0.02470366
0.027877286 -0.02783842 0.64711255 0.00966386 -0.102613546 0.013763481 -0.10007595 0.35024974
0.8492906 0.73123044 -0.04241182 0.04553643 -0.06370677 0.60234344 -0.100939535 0.28211087
-0.11821478 -0.042564724 -0.45473528 0.49117076 -0.037008 0.7678439 -0.017204437 -0.1247939
0.58206695 -0.06832706 0.775977 0.032837383 -0.20794624 -0.14129007 -0.10825313 0.0672452
0.6410162 -0.17754698 0.034815248 -0.08991726 0.70792216 -0.045078028 -0.041180477 0.6096691
-0.0065318258 -0.06564495 -0.101452254 0.027868036 -0.10464905 -0.11765523 -0.023937888 0.024982756
0.84217685 -0.081960626 -0.086467765 0.39423478 -0.0069540613 -0.13704638 -0.023345588 -0.07789891
-0.041372567 -0.039476592 -0.041010875 -0.23953743 -0.024097886 0.0037778884 -0.042094883 0.20062473
-0.050936222 0.49437293 0.72028625 -0.10448936 0.040626228 -0.06565403 -0.01755207 0.33674738
-0.11849523 0.011036173 0.14018984 -0.10818701 -0.08925562 -0.03650906 0.4813364 -0.1154731
0.60068315 -0.0876317 0.6281961 -0.015226363 0.010791645 -0.008056811 -0.09606594 0.04707246

net.4.weight f4 [13, 128]
00000000: 01b7 4a3c ec9d e03a c935 67bb 4e1f e0bc
00000010: 405b 3b3d 0029 d33e 1c78 14bd 528a 0a3e
00000020: 3e6b ce3d bbd6 9b3d 363c 333e 7df4 d5bc
00000030: bdc7 51bc 519b fbbb 1c2a 3d3e 6e8f 79bb
00000040: 966d 213c 4f22 0abc 4605 9fbc 3e7c 12bb
00000050: ac7b b53e 2039 133e 8ab4 edbc 8f50 32bd
00000060: 7fbf de3e a56b 8dbc e6e4 ab3c acc6 dd3d
00000070: 5e1d 103d a66c e73c 3707 35bd 6032 363e
00000080: 036f 98b9 7540 383d ed1f 163b 2a8c 983c
00000090: 9193 a9bb d257 403d 7bec 833b e3f6 cebc
000000a0: b04c 23bd 42a6 29bc 68ce bf3c 242c b4bc
000000b0: 8d0e 9f3a 8ca8 033d eba6 2dbb e8c7 e3bc
000000c0: 4def 9a3d f0fb ad3d 024b 9cbc edc9 593a
000000d0: 0939 6d3b 3495 903e a2dc ce3c 69ab e53e
000000e0: 8a1b d4bc abe7 10bd b1e8 d4be c411 febe
000000f0: 563e 0dbd d8ce 663e 2345 b9bc c3cd 41bc
00000100: 237a a73e 9203 cf3b 9c71 8e3d ba3a f13c
00000110: 67ef c8be 744b 9bbc 4039 973c 515d 0e3d
00000120: c35c e33d 6015 8bbe 1bd1 debc 4b30 553d
00000130: 3a2f ce3d 79af 4e3c 0ba0 a9bc 586a 833e
00000140: 2793 a5be aa37 bdbc 591b 86bc f01f 32bc
00000150: 78c0 b5bb cc83 c03c 86b5 45bc 3777 fbbc
00000160: 1414 743e af4a 2bbb 4511 383a a626 5f3e
00000170: 3468 613c 4070 91bc 0b1a a03b c06e c83b
00000180: 42cc 3ebc 5af5 a63c 9af0 52bd d4ab a4bf
00000190: 38cb 0d3c d64d 3cbc c016 1ebd 5f30 a4be
000001a0: 376f b1bb d63d 9f3e 75af 973d 0f1d 44b9
000001b0: f7c8 9ebc 608a 353c d183 9ebc c6e9 a939
000001c0: 3eb1 1abd d31c f7bc c461 84bc 8a48 c3bb
000001d0: cd83 9cbc 8cb8 abbc bb18 9c3e ad55 b4bc
000001e0: d5c1 343e bb13 933c 7ddf 4d3e 2b67 74bd
000001f0: 1072 1b3c aec3 a0bc cd4a 93bc 11e0 2cbd
00000200: 5623 5c3d 284f 25bd 1095 ae3c 3916 a23d
00000210: c337 3bbd 96dd 363d 6348 9e3d d403 b8bc
00000220: 808b 47ba 79fc 32bd e8d2 61bd 96ce 1b3d
00000230: f2cd 61bd ccaf 5ebd bdc9 52bd 622f 653d
00000240: da97 773d 808c 71bc 4469 98bd 4d43 8e3d
00000250: e0ec 433b d86e a2bc a25c 113d fa89 6d3d
00000260: 371e 973d 7f8d b23d b489 8dbd b5fe 62bd
00000270: 6836 9cbc ff97 ae3d 342a 75bd 80bc 533a
00000280: dc1e d53c 102f 4fbc 60b2 e63c 2d63 833d
00000290: 9f6a 9c3d 6030 bdbb ea68 5a3d 21c0 843d
000002a0: 5498 e9bc bc80 aabd 4bf2 a33d deea 013d
000002b0: 8dd5 38bd a209 403d a22a 9bbd d062 23bc
000002c0: a04f 78bc 40a4 b13b 2a8f 59bd a0a6 853b
000002d0: 548f 97bc 4b2e 893d d898 b1bc f9f8 0cbd
000002e0: 12f1 553d 91fd b13d cb88 8a3d 8e09 213d
000002f0: 884b 673c c34e a6bd 18fa 2bbc 908f 0d3d
00000300: ba1e 9ebd 98fa 29bc dde2 8d3d 7e9a 553d
00000310: 0d9f 62bd 7d1d 813d 8ce0 cebc c5b9 31bd
00000320: a442 c33c e279 683d 4d59 893d 4447 30bd
00000330: 4e29 6e3d 62e7 19bd 6d26 4ebd 0053 e23a
00000340: dada 04bd 2ad1 343d b78c 00bd 90f5 bebc
00000350: 1a5d 4bbd 96c7 47bd d677 0f3d 206c 2e3c
00000360: 6ae8 79bd 1e32 253d 812c 873d 861a 95bd
00000370: 5cdf 8abd 80bd 7c3b 2c41 b1bd f855 60bc
00000380: 5dd5 863d 782e 7dbc 200b 57bd 7476 9bbd
00000390: daea 1a3d e24d f6bc f89b f7bc 927a 0bbd
000003a0: 3a3c 6e3d 94ef bc3c 90f5 d23b 2d55 98bd
000003b0: 84e6 a83c 1f3e a03d a861 b03c 0887 a0bd
000003c0: 2cd8 81bd f284 783d 36eb 03bd e0c9 613c
000003d0: 5420 72bd bdc0 9e3d d0f0 b03c 6915 a0bd
000003e0: b8f7 01bc 0721 b23d 727e 3b3d 2e42 663d
000003f0: f978 a33d 6639 6a3d ec33 0c3d 80fb 293b
0.012372733 0.0017136908 -0.0035279861 -0.027358677 0.04574132 0.41242218 -0.036247358 0.13529328
0.100790486 0.07609316 0.17503437 -0.026117558 -0.012803969 -0.0076784273 0.18473095 -0.0038079876
0.0098527875 -0.008431031 -0.019411694 -0.0022351886 0.35445917 0.1437726 -0.029016752 -0.043533858
0.43505475 -0.017263243 0.02098317 0.10828909 0.035184257 0.02825005 -0.044196334 0.17792654
-0.0002907441 0.044983346 0.0022907213 0.018621523 -0.005175062 0.046958752 0.0040259934 -0.02526421
-0.039868057 -0.01035458 0.023413852 -0.021993704 0.0012135074 0.03214316 -0.0026497196 -0.027805284
0.07565174 0.08495319 -0.019078735 0.00083079824 0.0036197326 0.28238833 0.02525169 0.44857338
-0.025892038 -0.035377186 -0.4158378 -0.4962293 -0.034483276 0.22539842 -0.022615975 -0.011828843
0.3271037 0.0063175643 0.06955263 0.029446948 -0.3924515 -0.018956877 0.018459916 0.034756962
0.11101677 -0.27164745 -0.027199319 0.05204801 0.100676015 0.012615078 -0.020706197 0.2566707
-0.3233883 -0.023097832 -0.016370462 -0.010871872 -0.0055466257 0.023500346 -0.012067204 -0.030696495
0.23835784 -0.0026137044 0.00070216163 0.21792087 0.013757754 -0.01775372 0.004885917 0.006116718
-0.011645379 0.020380665 -0.051498987 -1.2864938 0.008654408 -0.011493167 -0.038595915 -0.32068154
-0.005414869 0.31101865 0.07406513 -0.00018702842 -0.019382937 0.011080354 -0.019349964 0.00032408367
-0.037766688 -0.030165112 -0.0161599 -0.005959575 -0.019105816 -0.020962022 0.30487618 -0.02201351
0.17652066 0.017953744 0.20104785 -0.0596687 0.009487644 -0.019624557 -0.017980004 -0.042205874
0.053744636 -0.040358692 0.021311313 0.07914395 -0.045707475 0.044644915 0.077286504 -0.022462763
-0.00076120347 -0.043697808 -0.055132776 0.038038813 -0.055128045 -0.05436687 -0.051461924 0.05595339
0.06044755 -0.0147429705 -0.07441953 0.0694643 0.0029895827 -0.019828245 0.035488732 0.057992913
0.0737881 0.087183945 -0.069110304 -0.05541869 -0.019068912 0.08525085 -0.0598547 0.00080771
0.026015691 -0.012645498 0.028161228 0.06415401 0.07637524 -0.005773589 0.05332271 0.06481958
-0.028515019 -0.083253354 0.08005198 0.031718127 -0.045125533 0.046884187 -0.07576491 -0.009972289
-0.015155703 0.0054211915 -0.053115048 0.004078701 -0.018500961 0.06698283 -0.021679327 -0.034417126
0.052231856 0.08690942 0.067643724 0.039315753 0.014117129 -0.08120491 -0.010496639 0.03456074
-0.077207044 -0.010374688 0.06928036 0.05214929 -0.055327464 0.063044526 -0.025253557 -0.043390054
0.023835488 0.05675686 0.06706486 -0.043036714 0.05814486 -0.03757418 -0.050329614 0.0017267168
-0.032435276 0.044144787 -0.031384196 -0.023310453 -0.049649335 -0.048774324 0.035026394 0.010645896
-0.061012663 0.040331 0.06600285 -0.072804496 -0.06780884 0.00385651 -0.08655009 -0.013692372
0.065836646 -0.015452974 -0.052500844 -0.075909525 0.03782163 -0.030066434 -0.030225739 -0.03405244
0.058162905 0.023063459 0.0064379647 -0.07438121 0.02061773 0.07824349 0.021530941 -0.07838255
-0.0634006 0.06067366 -0.032206737 0.013781041 -0.05911286 0.07751606 0.021599203 -0.07816584
-0.007932596 0.08697706 0.045774885 0.056215458 0.07982058 0.057183646 0.034229204 0.002593726

net.4.bias f4 [13]
00000000: 7dc4 873f a89c a33c 1a2d efbc 2e98 b0bd
00000010: 83bd 62bd 5dfb b0bd 72be 673d 8435 2fbd
00000020: d284 38bd 07a7 b23d d403 853c 6b42 8cbd
00000030: 38d4 6cbc
1.0606838 0.01997216 -0.02919631 -0.08622776 -0.055356514 -0.08641694 0.056578107 -0.042775646
-0.045048542 0.08723264 0.016237177 -0.06848606 -0.014454894

net.0.weight f4 [128, 53]
00000000: 3b1b 0cbf eb3f 04be a609 8ebe a2d5 01bf
00000010: 471a 083e b008 56bf 7d9a 7e3d d5f5 62bf
00000020: 83ad ab3e 8479 9f3c 6ed2 4d3f 3956 0d3f
00000030: 2e13 1c3f 37b4 083f d735 1e3f 7c92 bc3e
00000040: 7c45 46bf 5c16 de3d ce61 8cbf fc9e e6bf
00000050: 4360 9abd ab07 18bf 4a5c c5bd d4b1 74bd
00000060: 0116 ac3d ecba c83d 7d20 1ebe 772c 15be
00000070: 7486 32be 0c03 c53f f2a6 91be a894 053f
00000080: 9676 003e b3ba 06be 80ea ffbd 980f 4abe
00000090: 7d2d 52bf 983d b3bc 6f24 0a3d fc50 55bf
000000a0: f046 c2be dff0 9bbd 6fc8 80be b63e 5c3e
000000b0: 89d2 6dbf c853 95be 215c e5bd a9eb 283f
000000c0: da81 623e 7bf2 143d 4b26 843e 34c3 cd3e
000000d0: 7ca3 2f3f 7fe8 1d3e 647f 8e3e 78d0 893d
000000e0: 0777 5a3e 12b5 00bd 6e4e 253e eda1 013e
000000f0: 92d2 c53d 164a bfbd 6b6f a63d 441f adbc
00000100: e3d2 b2bb 3958 383d cb26 333e e71d cf3d
00000110: 3d84 1dbd 43c3 0a3e a19d 28be e50f 86bd
00000120: a916 33bd e328 033f 49f6 c93e 10ce e43d
00000130: d87c 5dbd f9d0 cf3d 453a 183e b515 7cbd
00000140: cc1e 713d 5b81 7d3d a28f 073e 9dba 263d
00000150: 1c67 6c3e 657e 6f3d 1d8c 0d3e 1311 3d3d
00000160: 47f7 273e f376 a1bd 66ef 943d 3a5b b53d
00000170: b83d 20bd f0cd e33d 21ad 993e 6b7e a9bc
00000180: e83a 093e f6d3 a03d ae25 5f3e 268c f33e
00000190: 79d5 b6be 9e98 98bd b43b e33e 1ec6 a7bd
000001a0: 3bbd 723d 29a1 063d 839b ffbe 8c28 7cbe
000001b0: 3cf3 96be 1cd3 a63e ac57 d3bc bd88 b73e
000001c0: 3b73 c43f 4f5b 88be 4114 bfbd 0f04 cbbd
000001d0: 0d52 6a3f b7fe 323f 5362 413e 9b2c 663f
000001e0: 9594 fabe 06b6 edbe ea80 88be 36bf 2e3e
000001f0: 645f 56bf dfd6 db3e bf5e acbe a0a6 ddbe
00000200: f7af 113f 3bea d2bd 3fd7 babe 399c 08bc
00000210: 9ffd a5bf d2f4 a8be 574d 33be 34f5 0a3f
00000220: 7b4c b83d faee a63f 6770 ecbe 6710 3f3d
00000230: 206c 9fbe 116a d13d cf1e 883f 73b9 4cbe
00000240: fa91 6f3f dc6d 13bf ac8b 6c3d 3107 08be
00000250: b0fc 433e 203d 6dbf 42e0 7abf 5f5f ae3e
00000260: c4d3 9ebe cdd1 123f a938 b0bf a57b abbe
00000270: 83b0 96bf 1a14 533d 2d51 893e 5895 38be
00000280: 7412 40be c75e 783c 52b3 cabd 0092 cb3a
00000290: 01a0 5ebe ac62 9abd 62a3 77bd 3922 0abd
000002a0: 3880 523d 2b7f 90bd 24ee cabc 998d 75bd
000002b0: 786d 0e3d d20f 43bd 7962 243d bb2e a63d
000002c0: 1ce6 e4bc 3a89 123e 1cf3 3e3d 7784 06be
000002d0: 9b74 713d 0b23 c23d be74 113d 589d cc3c
000002e0: 26aa 79bc b1bc 253e 850b 133d 4e79 103d
000002f0: 2606 893d 11e5 24be cc6a dc3d 8180 8b3d
00000300: ef7f 173e 08bf 153d e527 f03c 472f 3c3d
00000310: 6ea0 a33d d48e 4cbd f2ae 633d 33bb 573c
00000320: 5285 88bd 4b3f 0abe 0a90 473e 3611 f9bd
00000330: c3ae 3e3e e37c 4dbe a461 503e d820 16bd
00000340: fcca 5abd d01c 7bbd d6ba f4bd 78ff 04be
00000350: 538b 77bf 1f30 6fbe f86e 393f 88e2 44be
00000360: 0093 23bd b312 f23e d1cb 283f efaa 2abe
00000370: ae4f 4c3f 79ae 323e 2953 ad3d cd14 8b3f
00000380: 604c 883e f528 ba3f 1870 18bf 6638 a13e
00000390: 9d3a 933e 1685 593f 758c c83d 6aed 27bf
000003a0: 7021 36be bcab 7bbe ef83 0a3e 3b2f 99bf
000003b0: 5d47 86be 730b c13e 94a5 ab3e 1175 c3bd
000003c0: c4b5 b8bb f8eb 03bf 60a3 0cbf 4045 8d3f
000003d0: d936 f6be fbf6 6f3d 6037 8f3f ccf3 0f3f
000003e0: 92b2 0e3f 50b6 723e 5fa8 c0be 9189 58bf
000003f0: db9b ea3e 2f32 01bf 4efb 3d3f f6fe a43d
-0.5472905 -0.12915008 -0.27741736 -0.507166 0.13291274 -0.83607006 0.06215905 -0.8865636
0.33530816 0.019467123 0.80399215 0.5520969 0.60966766 0.53399986 0.61800903 0.3683051
-0.77449775 0.108441085 -1.0967348 -1.8017268 -0.07537892 -0.593867 -0.09636743 -0.059739903
0.084026344 0.098012775 -0.15442081 -0.14567743 -0.17434102 1.5391555 -0.28447682 0.52179956
0.12545237 -0.13157158 -0.12495899 -0.19732511 -0.8210066 -0.021879956 0.033726152 -0.833267
-0.37944746 -0.07614302 -0.2515292 0.21508297 -0.92899376 -0.29165483 -0.11199213 0.6598459
0.22119847 0.03636406 0.25810465 0.4018799 0.6860883 0.15420721 0.27831566 0.067292154
0.21334468 -0.031422682 0.161432 0.12659426 0.09659304 -0.09340303 0.0812672 -0.021133073
-0.0054572686 0.04500601 0.17495267 0.10113125 -0.03845619 0.13551049 -0.1646638 -0.065460004
-0.043722782 0.51234263 0.39445713 0.11172116 -0.05407414 0.1014728 0.14865978 -0.06154414
0.05886726 0.06189094 0.13238385 0.040705312 0.23086208 0.05847015 0.1382298 0.04615886
0.16402923 -0.07884016 0.07272224 0.08855291 -0.03912136 0.11123264 0.300149 -0.020690164
0.13401377 0.07852928 0.21791717 0.47567862 -0.35709742 -0.074509844 0.44381487 -0.08192085
0.059262495 0.032868538 -0.49923334 -0.24624842 -0.29482448 0.3258294 -0.025798641 0.3584651
1.5347666 -0.26632163 -0.09330035 -0.099128835 0.9153145 0.69919914 0.18885164 0.8991181
-0.48941484 -0.46427935 -0.26660854 0.17065129 -0.83739305 0.4293737 -0.33666036 -0.43291187
0.56909126 -0.10298582 -0.36492345 -0.008338028 -1.2968024 -0.32999283 -0.17509972 0.542804
0.089989625 1.304168 -0.46179506 0.046646502 -0.3113718 0.10225309 1.0634402 -0.19992618
0.9358212 -0.5758951 0.05775039 -0.13283993 0.19139361 -0.92671394 -0.9799844 0.34057137
-0.3102094 0.5735138 -1.3767291 -0.3349277 -1.1772617 0.051532842 0.26819745 -0.1802572
-0.1875704 0.015159315 -0.09897484 0.0015531182 -0.21740724 -0.075383514 -0.06045855 -0.033724044
0.05139181 -0.07055505 -0.024771757 -0.05994949 0.034772366 -0.04762251 0.040132973 0.08114382
-0.027941756 0.1431016 0.046618566 -0.13136469 0.058949094 0.0947934 0.035511725 0.024977371
-0.01523832 0.16185261 0.035899658 0.035271935 0.06690626 -0.16103007 0.107625574 0.068116195
0.14794897 0.036559135 0.029315898 0.045943525 0.07989584 -0.0499409 0.055586763 0.01316719
-0.06666054 -0.13500707 0.1948854 -0.12161486 0.18621354 -0.20067172 0.20349747 -0.036652416
-0.053416237 -0.061306775 -0.119496986 -0.12988079 -0.96696967 -0.233582 0.7243495 -0.1922704
-0.039935112 0.4727989 0.65936 -0.16666768 0.7980908 0.17449369 0.08463127 1.0865723
0.2662077 1.4543749 -0.5954604 0.3148834 0.28755656 0.849687 0.09792415 -0.6559664
-0.17786193 -0.2457723 0.13526891 -1.1967539 -0.2622632 0.37704048 0.33524764 -0.09543813
-0.0056369025 -0.51531935 -0.5493679 1.1036758 -0.4808872 0.05858515 1.1188774 0.5623138
0.55741227 0.23702359 -0.37628457 -0.8458491 0.45822033 -0.504672 0.74211586 0.080564424

net.0.bias f4 [128]
00000000: 7bef 17be 1310 d23e d9ca f1be 2108 babd
00000010: 8a40 1bbf 8c6c efbd 9d66 043e 3ccc afbd
00000020: 611c 23be 216c a6bd f779 ecbc 2a87 71be
00000030: 7931 16be 52dc 80bd 6244 223e 1c42 1ebe
00000040: 53f1 65bd 8bd5 26be 72ab 14bf 585b 353e
00000050: 93dd aabd 8d0c 09bd afb3 c93e 2bca ea3d
00000060: 20e3 1bbe 5c19 f7bd d029 1cbc b187 55bd
00000070: ed0d 29be 3674 d3bd 1fa5 9cbd 36fd a4be
00000080: 73c0 27bd 1521 8dbe 03b3 72be ff29 893d
00000090: e837 8ebe 7045 fabd e5d9 0ebe 156b 6c3e
000000a0: 69ad 4dbc acd0 ef3e 3920 d6be 5684 133e
000000b0: b3fc 5f3e 9ad0 a2be 4235 0a3e 2643 43be
000000c0: 212b 22bd f930 a93d 55d7 84be 2fe4 c4bd
000000d0: 5257 f23d 793b 363d ab13 6bbe 1ab4 31bd
000000e0: 2ce9 c8bd f7ae d6bd 3e0b 0a3d b123 9abe
000000f0: f752 35be 8c17 14be 737b a3be c753 97be
00000100: e680 02be b1f8 3e3e bd50 d1bc 57dc 4e3c
00000110: e4f2 ddbd d733 75bd 1b9c bdbd d7f4 cb3d
00000120: 2f7a 43be 2fea ab3d 9a54 50bd ed3c 1fbe
00000130: e482 583e a94f e5bd 7f2c 6cbd 96c7 a8bd
00000140: 4559 94bc f213 543d f84b c23d 69fa b0bd
00000150: 414d 883d 041b c83d 61fb af3d 1ab1 bd3e
00000160: 61c3 3c3e 53bc 93be 227d 38be d310 1dbe
00000170: cf31 18be 71a6 f43d 4894 39be 55d4 59be
00000180: a288 ebbe 4b93 a83e 60bc d3be d835 33bc
00000190: e957 d7bc b966 74bd a111 e63e 4185 9dbd
000001a0: e992 8abd bb15 c4bd 8360 273d d290 ca3d
000001b0: e796 ebbc 9dda 0b3c 0786 293e 66c7 06be
000001c0: 3e8d 16be e788 463e 25d2 063f b467 dd3e
000001d0: 323f c33d dd35 67be 3bae 0dbe 8961 b4be
000001e0: 5a97 903d 69a1 e63d eccc bdbe 4666 04bd
000001f0: d48b b7bd 1ec4 1dbe 5776 38be 4ae1 003d
-0.14837448 0.4102789 -0.47225073 -0.09083582 -0.60645354 -0.116906255 0.12929769 -0.085838765
-0.15928794 -0.08126093 -0.028866751 -0.23586717 -0.1466731 -0.06292023 0.15846398 -0.15454906
-0.056138348 -0.16292398 -0.58074105 0.17710626 -0.08343043 -0.033459235 0.393949 0.11464342
-0.1522336 -0.12065384 -0.009531453 -0.05213136 -0.16509219 -0.103249 -0.07648682 -0.32224435
-0.04095502 -0.27564302 -0.237011 0.06697463 -0.27777028 -0.122202754 -0.13950308 0.23087724
-0.012553551 0.46838892 -0.4182146 0.14405951 0.21873741 -0.31799775 0.13496879 -0.19068584
-0.039591912 0.08261294 -0.25945535 -0.09613835 0.11833061 0.04449031 -0.22956721 -0.04338465
-0.09810099 -0.10482591 0.033702128 -0.30105355 -0.1770743 -0.14462107 -0.31930122 -0.29556105
-0.12744483 0.18649556 -0.025551194 0.012625775 -0.10837343 -0.05986389 -0.092582904 0.09958809
-0.19089578 0.08394276 -0.050861932 -0.15550585 0.21143681 -0.111968346 -0.057659622 -0.08241193
-0.018108973 0.051776834 0.09487146 -0.08641512 0.0665536 0.09770778 0.085928686 0.3704918
0.18433906 -0.28854617 -0.18016484 -0.15338449 -0.1486275 0.11945809 -0.18122971 -0.21272404
-0.4600268 0.32924876 -0.41354656 -0.01093813 -0.026287036 -0.059668276 0.44935325 -0.07691432
-0.06766302 -0.09574457 0.040863525 0.098909035 -0.02875848 0.008536008 0.16555034 -0.13162002
-0.14702317 0.19388162 0.52664405 0.43243182 0.09533538 -0.22579141 -0.13835995 -0.35230663
0.07060118 0.11261255 -0.37070405 -0.032324098 -0.08962217 -0.15406844 -0.18013893 0.031464852

net.2.weight f4 [128, 128]
00000000: 5e7b 193e a8c1 48bd 3e31 89bd c50a 8bbd
00000010: 3410 e83d a3c1 323d 4975 d33e 2dc6 46bd
00000020: 0014 4bbc bff2 d03d 40e5 b9bd b3eb 7e3d
00000030: fb1a 793d b756 1ebf 9961 3abe f64f c53c
00000040: 4a9e e1bd b25b 9fbd d063 9fbe d0db 40be
00000050: cc66 fabd 3699 70bd c475 e2bd 443b 76be
00000060: a3f2 a4bd 3bc9 823d ff5d afbd 0b12 573e
00000070: b01b dbbc c346 3bbd 9d3a ae3e 5b8e 92bd
00000080: 0379 d5be edda 623d f405 49be d235 04be
00000090: 08fd 89be 5bc3 7dbe 4292 19be 24b8 75be
000000a0: 2fa9 40be 0abd 72bd 447b 093e 9889 0f3d
000000b0: 063b 7fbe 6b93 d9bd 7ba9 043e 2298 273e
000000c0: f117 cebe 72b8 76be 63ee 53be dd0e 9f3d
000000d0: 4296 64bd ac17 a8be 332b 0dbd a17c 423d
000000e0: a6d4 02be 8bf2 c1bc 1bca 88be efc9 4dbe
000000f0: 263a b2bc c061 31bb e05f 2dbe 8e6d a5bc
00000100: 9576 8b3b 5dc9 c0be 8fd8 16bc de68 b93d
00000110: 4625 4d3e 3840 5bbc 25f1 a53d 90f6 163b
00000120: f44a 093d b8e2 31be d729 dcbe b305 4c3d
00000130: 36f7 9abe a3a9 06bf c714 933c 676d a13e
00000140: a8ed 033d 3825 4bbe 9c35 c9bd fba4 0abe
00000150: 310a 4abe 1b4f 5dbe ab10 9cbd 3005 1dbd
00000160: 70d5 5f3d 11fc 8a3c 8dc6 b8be e240 323c
00000170: 5fc1 6a3d 03be 44be 56c7 27be 1443 ccbc
00000180: 4b01 5cbe a93c 15be 13b8 91bd b83a 4e3d
00000190: dca0 a6bd 3275 253d d80d b6bd 2ec5 df3d
000001a0: 64c4 8b3d fbcc 613c da48 dbbd 5d81 b33d
000001b0: 9f65 ae3d f61b a6be 1f54 0abd 101f 1e3d
000001c0: 5d11 24bd c9e4 20ba ff00 bebd bdd5 19be
000001d0: 4587 88bd d501 d9bc c609 013c 28ea d63e
000001e0: 1ac9 5f3e d329 273d 132b 19bb b99c ff3d
000001f0: 2f94 e2bc b5db 55bd 73b0 303d a544 9bbe
00000200: 9fc7 3bbc c07d a73c dd48 d0bc 5642 bb3b
00000210: b886 193c f77b 8bbc 5868 7bbd 1031 23bd
00000220: 81a5 afbd 2eb6 423d 9dbc 3e3d a25f 1e3d
00000230: 773a 933d 0582 163c b9b0 e6bc dae5 20bd
00000240: 3649 acbc 719d 7abc 260e 15bd 2bcb 143b
00000250: f0e0 313d 24b6 46bd 509a b13b f089 c8bd
00000260: 332e 8a3d af40 e63c eb07 3a3d 2e0a 8fbd
00000270: 1f9b 26bd 62c5 7f3d e364 a5bd d800 89bd
00000280: 0a4d abbd e94f 20bd f288 823c cc52 e4bd
00000290: 9cee 96bc ce51 c5bd 0430 3c3b d32b 68bc
000002a0: 73ed 0fbc 6b8a e6bd e8df 8e3d 13c9 913b
000002b0: 5c38 9bbd 7e79 8f3d b4fd 8dbd c032 d2ba
000002c0: 842c 99bd feb2 2cbc 5dc8 453d e21d 7e3d
000002d0: 3125 f6bc 11b1 cebc 703b 8abd 2422 8f3c
000002e0: f97e 44bd d021 683c ee00 52bd 7a5b 77bb
000002f0: 90d3 5cbd de0d 1d3d bfb8 85bd 5d68 a2bd
00000300: 9add a4bd 58f2 e4bd 2f43 2c3d ec67 ebbc
00000310: 0d13 ebbc 00f3 95bb 1c24 19bd 7fd4 5dbd
00000320: ed56 a73c a546 9cbc ca5e 823d 1aac ffbc
00000330: f514 aabd 33a6 b0b9 1d26 003d 8d71 b6bc
00000340: 4487 84bd ae8d 8fbd f72f 263b d90c 47bc
00000350: 1025 d3bd 3550 62bd 79a7 2bbd 665d 063d
00000360: 003e 5d3d 95d6 86bd 38f5 18bd 53e8 773c
00000370: a3ac f1bb fb32 8abd aa8b 133d 1c2b d83c
00000380: 2acc 953d 2412 1bbd 8971 89bd 8fd1 1f3a
00000390: 4ebc 65bd 3e42 29bd ccf4 b9bd eef8 27bd
000003a0: c41f 45bc 6319 a23c e497 8ebd dedc 99bd
000003b0: 70e0 96bd d42c 113c 4925 763d 52fc 953d
000003c0: ec23 f53c c847 b0bd 4445 bcbd bdc0 22bd
000003d0: 7798 34bd 52c7 12bd 0dcb 01bd a50f 1c3d
000003e0: ea8b 2cbd 577b 9d3c 01c1 d23c 54c7 a43c
000003f0: c791 373d 2c81 f5bc 577a 613d 46b1 113d
0.14988467 -0.04901281 -0.06698845 -0.067891635 0.113312155 0.043641698 0.4130042 -0.04852884
-0.012394905 0.1020255 -0.09076929 0.0622365 0.060816746 -0.61851066 -0.18201293 0.02408598
-0.11016519 -0.07781161 -0.31130838 -0.18833852 -0.12226638 -0.058739863 -0.11057618 -0.24046046
-0.08054092 0.06386038 -0.0856285 0.21002977 -0.0267466 -0.04572178 0.34029093 -0.071560584
-0.41693887 0.055384565 -0.19631177 -0.12911156 -0.2695086 -0.24781553 -0.14997199 -0.23996025
-0.18814538 -0.059262313 0.13425928 0.03504333 -0.2492486 -0.10623821 0.12955277 0.16366628
-0.4025264 -0.24093798 -0.20696406 0.07766507 -0.05580736 -0.3283056 -0.034465026 0.047482137
-0.12776431 -0.023675224 -0.26716694 -0.20096563 -0.021756243 -0.002706632 -0.16931105 -0.020193841
0.0042560794 -0.37653628 -0.009206905 0.09053205 0.2003375 -0.01338201 0.08102635 0.0023035146
0.033518746 -0.17371643 -0.4300067 0.049810123 -0.30266732 -0.52602595 0.017954243 0.3152878
0.03220907 -0.19838417 -0.09824678 -0.13539498 -0.1973045 -0.21612208 -0.07620367 -0.038335025
0.05464691 0.016965898 -0.36088982 0.010879727 0.05731332 -0.19213109 -0.16384634 -0.02493433
-0.21484868 -0.14573921 -0.071151875 0.050348967 -0.0813615 0.04039497 -0.08889359 0.10926281
0.06824568 0.013781781 -0.10707255 0.087649085 0.085154764 -0.32443208 -0.03377163 0.038603842
-0.04005562 -0.0006137607 -0.09277534 -0.15022941 -0.066664256 -0.026490131 0.007875865 0.41975522
0.21854058 0.04081137 -0.0023371622 0.12481064 -0.02765855 -0.052211482 0.043137025 -0.3032581
-0.011461168 0.020445704 -0.025425369 0.005714695 0.009370498 -0.017026884 -0.061378807 -0.03984171
-0.08576489 0.04753702 0.046566594 0.03866542 0.07188886 0.0091862725 -0.02816044 -0.039281704
-0.021031003 -0.015296326 -0.036390446 0.0022704105 0.043427408 -0.048513547 0.005420007 -0.097919345
0.06747093 0.028107015 0.045417707 -0.069843635 -0.04067528 0.0624441 -0.08075883 -0.06689614
-0.083643034 -0.03913871 0.015934441 -0.11148605 -0.018424325 -0.09634744 0.0028715143 -0.014170605
-0.00878464 -0.1125687 0.069763005 0.0044490187 -0.07579109 0.07005595 -0.06933156 -0.0016036853
-0.07479194 -0.010540722 0.048286784 0.062040217 -0.030047031 -0.025230916 -0.06749618 0.017472334
-0.047972653 0.014168218 -0.051270418 -0.0037743733 -0.0539127 0.038343303 -0.06529378 -0.07930062
-0.0805008 -0.11179036 0.04205626 -0.028736077 -0.028695608 -0.004576087 -0.037387952 -0.05415773
0.020427192 -0.019076655 0.06365736 -0.031209994 -0.083047785 -0.00033693164 0.031286348 -0.022270942
-0.06471112 -0.07009445 0.002535818 -0.012149059 -0.103098035 -0.055252273 -0.04190776 0.032803915
0.054014206 -0.06583897 -0.037343234 0.015131074 -0.007375316 -0.06748005 0.036021866 0.026387744
0.07314332 -0.037859097 -0.06711108 0.00060965953 -0.056087784 -0.04132294 -0.090798944 -0.041008882
-0.012031499 0.019787496 -0.069625646 -0.0751283 -0.07367027 0.0088607855 0.06009415 0.07323517
0.029924355 -0.08607441 -0.09192899 -0.03973459 -0.044090714 -0.035834618 -0.031687785 0.038100857
-0.04212562 0.019223852 0.025726797 0.020114578 0.04481676 -0.02996882 0.055048313 0.03556945

net.2.bias f4 [128]
00000000: cead 853e fcab bfbc 3101 8f3c b983 703e
00000010: 1764 9abd 83a3 b13e 9f7e 24bd 45ae f43e
00000020: ac21 423f ec1f 453f 2611 633f 9143 e4bd
00000030: 08c7 cf3c e8aa b3bc f083 573f 696f cabd
00000040: aef8 2b3d d3d6 f6bd 31fd 09be a5be f9bd
00000050: 5db0 e03e 8594 6d3f 7ccf 0ebd 8437 42bd
00000060: 0a25 e03e 9682 bebd 6244 01be 9f46 593f
00000070: 9e69 77bd df8d f1bd cd37 a4bc 4124 713f
00000080: d29f cb3b 66bc 7fbd 7004 94bd fb60 343f
00000090: 2a7e 94bd 7d16 00bd 306a bebd 545f ca3c
000000a0: e85e e43c 660d e4bc e39f 253f 2b55 1e3c
000000b0: 0d27 d2bd 3980 613c 9ff4 ccbd ef53 b33e
000000c0: 3a77 593f e53d 3b3f 04b8 2dbd 6884 3a3d
000000d0: b278 82bd 7b18 1a3f 63b9 cebd d670 903e
000000e0: 971a f2bd 5958 2ebd 3ce1 e8be 15f1 fb3e
000000f0: b395 17bd b28e 443f 52f0 8cbc f293 ffbd
00000100: 1b9f 143f 0fef 8bbd 9cb2 463f 7e80 063d
00000110: 7769 56be 58ae 10be d1b3 ddbd dab7 893d
00000120: 7a2d 243f da10 33be 6f9a 0e3d 8a26 b8bd
00000130: 7a22 353f bda3 38bd dcac 28bd d84e 1c3f
00000140: ed08 d6bb dc70 86bd 33c6 cfbd 824b e43c
00000150: 3e52 d6bd 3af5 f0bd 6419 c4bc a3a8 cc3c
00000160: d481 573f f9da a7bd 0316 b1bd 072f c83e
00000170: e5de e3bb e355 0cbe 3f3f bfbc 7789 9fbd
00000180: 4876 29bd 35b2 21bd 05fb 27bd 4d49 75be
00000190: ee68 c5bc 7396 773b af6b 2cbd 7c98 4d3e
000001a0: 80a2 50bd cd30 fd3e cb70 383f 84fe d5bd
000001b0: b067 263d 9f75 86bd 5cc9 8fbc 276a ac3e
000001c0: a1ad f2bd 11d1 343c ed8d 0f3e 2791 ddbd
000001d0: a7cb b6bd 868a 15bd b884 f53e 297d ecbd
000001e0: 7cb8 193f 4078 b3bd 4d64 203f ff77 79bc
000001f0: 71cf 303c b700 04bc 38be c4bd 0dcf 403d
0.26109165 -0.023397438 0.017456623 0.23487748 -0.07538622 0.34695062 -0.040159818 0.47789207
0.7583263 0.77001834 0.8869804 -0.111457 0.02536346 -0.02193208 0.84185696 -0.09884531
0.041985206 -0.12052693 -0.13475491 -0.12194566 0.43884555 0.9280475 -0.03486584 -0.047416225
0.4377826 -0.09302251 -0.12623742 0.84873384 -0.06040346 -0.11794638 -0.02004614 0.94195944
0.0062141204 -0.06243553 -0.07227409 0.7046048 -0.072506264 -0.031271446 -0.092975974 0.02470366
0.027877286 -0.02783842 0.6469709 0.00966386 -0.102613546 0.013763481 -0.10007595 0.35024974
0.8494755 0.7314132 -0.04241182 0.04553643 -0.06370677 0.60193604 -0.100939535 0.28211087
-0.11821478 -0.042564724 -0.4548434 0.49207368 -0.037008 0.76780236 -0.017204437 -0.1247939
0.58055276 -0.06832706 0.77616286 0.032837383 -0.20938669 -0.14129007 -0.10825313 0.0672452
0.6413189 -0.17486897 0.034815248 -0.08991726 0.7075573 -0.045078028 -0.041180477 0.61057806
-0.0065318258 -0.06564495 -0.101452254 0.027868036 -0.10464905 -0.11765523 -0.023937888 0.024982756
0.84182477 -0.081960626 -0.086467765 0.3909838 -0.0069540613 -0.13704638 -0.023345588 -0.07789891
-0.041372567 -0.039476592 -0.041010875 -0.23953743 -0.024097886 0.0037778884 -0.042094883 0.200777
-0.050936222 0.49451295 0.7204711 -0.10448936 0.040626228 -0.06565403 -0.01755207 0.33674738
-0.11849523 0.011036173 0.14018984 -0.10818701 -0.08925562 -0.03650906 0.4795282 -0.1154731
0.60047126 -0.0876317 0.62653047 -0.015226363 0.010791645 -0.008056811 -0.09606594 0.04707246
