checkpoints3/team2_agent_0.pt (torch, 411297 bytes, 24 tensors)

net.0.weight f4 [128, 53]
-0.10235732 -0.017894007 -0.05621351 -0.9694981 -0.0694556 0.60580844 0.2896872 0.1455174
-0.31014398 1.2458512 -0.7726433 -0.47698727 -0.2697354 -0.5371648 0.9258797 -0.10644663
0.7870012 0.2926011 -0.2919252 -1.0514551 0.23099704 0.61948293 -0.2493869 -0.08840418
-0.09965871 -0.07840024 -0.2552147 -0.5519223 -0.35620636 0.81070536 0.8256054 -1.1797731
-0.06304026 -0.31050688 1.186984 0.42875016 0.87211907 0.67409396 0.44494247 -0.93089455
-0.2811486 0.33748817 -0.08305053 0.5338162 -0.05045056 -0.58529496 0.3459079 -0.3382254
-1.2751772 0.27101 -1.2112458 0.48210675 0.11717113 0.022432478 0.2582772 -0.03850578
1.0430074 -0.10000376 0.6628158 0.07421385 0.49475583 -0.13563055 0.53634363 0.64175236
0.8657122 -0.2006675 0.061529726 0.9221993 0.01769918 -1.2642025 -0.2637815 -0.17475514
0.32245356 0.07901586 0.4045303 0.10348544 -0.2759819 0.10536876 -0.021315768 1.1843197
0.97833204 1.4552374 -0.6976898 0.2221774 0.66231036 -0.19388407 0.058765035 0.9339853
-0.010466235 -2.0679336 0.11328768 -0.5933434 0.081181146 0.30810967 0.19983098 0.7154062
-0.12979929 0.923788 -0.31772074 -0.10521026 0.46858153 -0.92012805 0.0057810093 -0.9800419
0.23326913 0.67523926 -0.22047013 -0.042827144 -0.8509732 -0.05740173 -0.12820375 0.73040575
-0.5703941 -0.1733937 -0.24474387 0.7358317 0.35769132 0.59193474 0.74795645 -0.59450936
0.26954404 0.82161915 0.78585935 -1.1111647 0.51070327 -0.87572986 0.1897349 -0.86136454
0.6165042 -0.5221152 -0.06964619 -0.07622815 -0.48969373 -0.7871918 -0.6060936 -0.86030823
0.22863138 0.20721936 -0.12757568 -0.05280773 -0.3477077 0.24724263 0.10251163 0.40445867
0.42622745 0.26375443 0.3281312 0.08515146 0.8078404 0.31431088 0.4164911 1.1797465
0.070729025 0.79454255 0.14481698 0.15747684 0.13088693 0.4893741 0.17870633 0.022297008
0.0068187593 0.06790451 0.042109475 0.07678105 0.03880897 -0.009764662 -0.15489234 0.10381513
0.07464804 0.1858242 0.018404162 -0.054156307 0.043627314 -0.06432978 0.078178994 -0.14881879
0.111773536 0.05626463 0.0018341541 0.18684773 -0.032241367 -0.0035350667 -0.17355779 0.112895325
0.0490027 -0.00016509376 0.10806476 -0.04873654 0.0765319 0.1440557 0.09337741 0.07404779
-0.08207903 0.15422675 0.10959963 0.0114679225 -0.12880927 -0.09509984 0.08107693 -0.11524952
-0.01244209 -0.03074231 -0.0779597 0.0500473 0.0037969577 0.12574004 0.042828687 -0.06879995
0.17719539 -0.04003143 -0.0024080873 0.026893446 -0.33952633 -0.1909876 -0.19689198 0.009241399
0.0051896423 1.1047443 0.42196366 0.13681743 0.15352936 -0.06992379 -0.06560597 -0.067072585
-0.75302905 -0.09923574 0.038852524 0.109847605 0.36991227 -0.33060664 0.10985695 -0.028551139
0.14694802 -0.48212853 0.15196586 -0.03436475 0.023207963 0.24741416 -0.68824464 -0.23574726
-0.23750998 -0.07321871 0.3474045 0.6879264 0.5911548 0.22753042 -0.13573721 0.36416027
-0.020939365 0.063788764 -0.07560721 0.16114078 -0.07865075 -0.044679962 0.2283142 0.39617082
00000000: b7a0 d1bd 7496 92bc 2340 66bd 0731 78bf
00000010: bd3e 8ebd 4316 1b3f e151 943e 8302 153e
00000020: 31cb 9ebe 0d78 9f3f f4cb 45bf ad37 f4be
00000030: c21a 8abe a283 09bf 7406 6d3f b100 dabd
00000040: e978 493f d0cf 953e 3877 95be 1596 86bf
00000050: 7d8a 6c3e 6f96 1e3f 485f 7fbe 400d b5bd
00000060: de19 ccbd 4e90 a0bd 80ab 82be c84a 0dbf
00000070: ae60 b6be 638a 4f3f e05a 533f ce02 97bf
00000080: 401b 81bd c2fa 9ebe 17ef 973f 2485 db3e
00000090: 3243 5f3f 6c91 2c3f 80cf e33e 1b4f 6ebf
000000a0: b6f2 8fbe 40cb ac3e 6516 aabd 2ea8 083f
000000b0: 3fa5 4ebd e4d5 15bf d71a b13e e12b adbe
000000c0: 0239 a3bf d3c1 8a3e 1a0a 9bbf b2d6 f63e
000000d0: 6bf7 ef3d 51c4 b73c e93c 843e 3db8 1dbd
000000e0: 4481 853f c5ce ccbd 4cae 293f 6efd 973d
000000f0: a350 fd3e bce2 0abe d14d 093f e249 243f
00000100: 519f 5d3f c87b 4dbe 9806 7c3d 4115 6c3f
00000110: dffd 903c 63d1 a1bf 5e0e 87be 03f3 32be
00000120: a218 a53e 11d3 a13d 981e cf3e 2df0 d33d
00000130: 804d 8dbe 94cb d73d 689e aebc ca97 973f
00000140: f873 7a3f 3845 ba3f cc9b 32bf 7982 633e
00000150: 2c8d 293f 8c89 46be 9bb3 703d a919 6f3f
00000160: 927a 2bbc 0659 04c0 5f03 e83d 5ae5 17bf
00000170: 4d42 a63d 8dc0 9d3e 7ea0 4c3e dc24 373f
00000180: 1bea 04be 5f7d 6c3f 4bac a2be 7a78 d7bd
00000190: ebe9 ef3e 838d 6bbf 9f6e bd3b 07e4 7abf
000001a0: 1ade 6e3e 7bdc 2c3f ecc2 61be 846b 2fbd
000001b0: 61d9 59bf 141e 6bbd d847 03be dffb 3a3f
000001c0: 5905 12bf 1e8e 31be 239e 7abe 775f 3c3f
000001d0: 5123 b73e 0989 173f 137a 3f3f c431 18bf
000001e0: ad01 8a3e a255 523f 142e 493f a53a 8ebf
000001f0: 73bd 023f d52f 60bf de49 423e 6382 5cbf
00000200: 38d3 1d3f 57a9 05bf a9a2 8ebd 811d 9cbd
00000210: 23b9 fabe 6785 49bf f328 1bbf 293d 5cbf
00000220: 581e 6a3e 5031 543e 33a3 02be eb4c 58bd
00000230: be06 b2be 2c2d 7d3e 9ef1 d13d 3515 cf3e
00000240: 7c3a da3e d20a 873e d000 a83e e363 ae3d
00000250: a1ce 4e3f 5bed a03e 523e d53e ef01 973f
00000260: 61da 903d 2467 4b3f e74a 143e 9c41 213e
00000270: 3907 063e 3e8f fa3e cbfe 363e 37a8 b63c
00000280: e66f df3b 8511 8b3d fc7a 2c3d 623f 9d3d
00000290: 28f6 1e3d f6fb 1fbc 199c 1ebe 079d d43d
000002a0: 12e1 983d b348 3e3e 53c4 963c 01d3 5dbd
000002b0: 8eb2 323d 55bf 83bd 4f1c a03d f463 18be
000002c0: 86e9 e43d be75 663d 0068 f03a 0355 3f3e
000002d0: 860f 04bd 94ac 67bb 22b9 31be aa35 e73d
000002e0: 0eb7 483d 051d 2db9 0f51 dd3d f79f 47bd
000002f0: c2bc 9c3d 5683 133e a83c bf3d 5ea6 973d
00000300: 0d19 a8bd 9eed 1d3e c575 e03d f4e3 3b3c
00000310: 94e6 03be b4c3 c2bd a90b a63d f107 ecbd
00000320: e8d9 4bbc 4cd7 fbbc 56a9 9fbd 66fe 4c3d
00000330: 61d6 783b ffc1 003e 226d 2f3d fde6 8cbd
00000340: b572 353e fff7 23bd 00d1 1dbb a54f dc3c
00000350: 65d6 adbe 4192 43be 0d9e 49be 3d69 173c
00000360: e00d aa3b 4368 8d3f 9f0b d83e de19 0c3e
00000370: cd36 1d3e 3434 8fbd 6c5c 86bd 5a5d 89bd
00000380: 83c6 40bf 1c3c cbbd d323 1f3d c8f7 e03d
00000390: 2465 bd3e 4645 a9be aefc e03d 14e4 e9bc
000003a0: 8b79 163e 8dd9 f6be f09c 1b3e 0dc2 0cbd
000003b0: a01e be3c 235a 7d3e cd30 30bf bb67 71be
000003c0: d135 73be b1f3 95bd 01df b13e f21b 303f
000003d0: ec55 173f bcfd 683e b2fe 0abe 3773 ba3e
000003e0: 0889 abbc afa3 823d f4d7 9abd 1702 253e
000003f0: a513 a1bd 5602 37bd 33cb 693e e7d6 ca3e

net.0.bias f4 [128]
-0.2930177 -0.1283642 -0.15600045 -0.16970065 -0.2051786 -0.113231614 -0.08988318 -0.12032913
-0.06795783 -0.121394835 -0.081015825 -0.08752361 -0.34818643 -0.003914646 -0.11421524 -0.18361084
0.02321359 0.16845173 0.03512862 -0.009771329 0.0070761354 -0.24418955 -0.0695393 -0.16118404
0.19019443 -0.524032 -0.08466848 -0.084483206 0.067494236 -0.006716836 -0.1549442 -0.20834127
-0.020296898 -0.124817714 0.04055285 -0.064978346 -0.12127592 -0.07736314 -0.2423422 0.038656067
-0.12687768 -0.2604485 0.06961043 -0.07795961 -0.43934265 -0.022254236 -0.22840479 -0.09094538
0.38868454 -0.15792716 0.057790913 0.33188316 -0.17953612 -0.09911062 -0.13282785 -0.15513876
-0.16757672 0.30218902 0.13183843 -0.009882909 -0.08762207 -0.08609493 -0.12188638 0.2983056
-0.22118662 -0.050732877 0.14879693 -0.24329165 -0.08606811 -0.08781477 0.32960275 0.06715984
-0.24673651 0.033409916 -0.13005222 -0.10697881 -0.12560934 -0.28751847 0.029994112 -0.04554229
-0.1587186 -0.33290818 -0.029866174 -0.045881484 0.037910916 0.008908422 -0.057508655 -0.07168226
-0.08706854 -0.23273952 -0.18236299 -0.14047918 0.16512518 0.22245896 -0.101298265 -0.3232233
0.080107845 -0.15029481 -0.13480985 -0.012755616 0.135011 -0.14312795 -0.38169277 -0.17302734
0.07128112 -0.18704407 -0.0373423 -0.12636429 0.06085703 0.3628714 -0.12189879 -0.21992381
0.48799613 -0.19432047 0.15262565 0.0762404 -0.10328866 -0.07372986 0.18421595 -0.48775038
0.004863678 -0.06751468 -0.109298415 -0.3036648 -0.114483275 -0.0931575 0.031041501 -0.01814409
00000000: 6a06 96be e871 03be 95be 1fbe 02c6 2dbe
00000010: 571a 52be fae5 e7bd ac14 b8bd 1e6f f6bd
00000020: 7a2d 8bbd db9d f8bd a0eb a5bd 943f b3bd
00000030: 7e45 b2be 6e46 80bb aee9 e9bd 7b04 3cbe
00000040: 6d2a be3c 9c7e 2c3e 07e3 0f3d ed17 20bc
00000050: edde e73b d30c 7abe 9f6a 8ebd 6e0d 25be
00000060: 54c2 423e f626 06bf ab66 adbd 8805 adbd
00000070: 6b3a 8a3d e718 dcbb b1a9 1ebe 6a57 55be
00000080: ae45 a6bc 6ea0 ffbd bf1a 263d 5e13 85bd
00000090: 825f f8bd 9170 9ebd 8e28 78be d355 1e3d
000000a0: 39ec 01be 8159 85be ea8f 8e3d 4aa9 9fbd
000000b0: 85f1 e0be 844e b6bc f2e2 69be 9241 babd
000000c0: a901 c73e a8b7 21be 2ab6 6c3d 97ec a93e
000000d0: 51d8 37be 82fa cabd 0604 08be b2dc 1ebe
000000e0: 3b99 2bbe 85b8 9a3e a700 073e edeb 21bc
000000f0: 3373 b3bd 8a52 b0bd 919f f9bd 83bb 983e
00000100: bf7e 62be 47cd 4fbd 395e 183e 7221 79be
00000110: 7a44 b0bd 3bd8 b3bd b1c1 a83e 198b 893d
00000120: 7fa8 7cbe d6d8 083d 692c 05be b517 dbbd
00000130: bc9f 00be 9f35 93be 36b6 f53c 8d8a 3abd
00000140: 2187 22be f172 aabe e8a9 f4bc 39ee 3bbd
00000150: 7a48 1b3d a1f4 113c 328e 6bbd 26ce 92bd
00000160: fe50 b2bd 4553 6ebe 5dbd 3abe c6d9 0fbe
00000170: 9316 293e 48cc 633e 7775 cfbd 867d a5be
00000180: 950f a43d e2e6 19be 980b 0abe eefc 50bc
00000190: 5340 0a3e 2290 12be 3c6d c3be 142e 31be
000001a0: d6fb 913d 7b88 3fbe 3df4 18bd a465 01be
000001b0: 3945 793d 48ca b93e 13a6 f9bd b533 61be
000001c0: a1da f93e f2fb 46be e649 1c3e ed23 9c3d
000001d0: 0189 d3bd aeff 96bd 1ba3 3c3e 6bba f9be
000001e0: 7d5f 9f3b 2345 8abd d9d7 dfbd f479 9bbe
000001f0: 3576 eabd 5cc9 bebd bf4a fe3c eaa2 94bc

net.2.weight f4 [128, 128]
1.2951833 -0.8671062 -1.2855086 0.079633504 0.18946394 -1.5140071 -0.9886049 -0.9089752
-0.060879216 -0.83755505 0.04394544 -0.014326523 0.21375108 -0.3629549 -0.4519349 -0.003244077
-0.56688094 0.20661011 0.3397448 -0.004607294 -0.23812348 0.19493085 0.046187103 -0.09790597
-0.28271726 -0.3513713 0.7041594 -0.7190637 0.48497096 -0.07314566 0.05223355 0.012552594
0.49925458 -0.1399868 -1.4685496 0.082673766 -0.64173704 -0.37010002 0.31964114 -0.09293728
0.14962678 -1.069141 -1.7397211 0.7251898 -0.98867047 0.0066562686 0.023687568 -0.361043
-0.11715737 -0.36431274 -0.02862292 0.07462972 0.18961735 0.051152263 0.00038211953 -0.06666363
0.652453 0.05173805 -1.2601013 -0.54592323 0.07561792 0.07067372 0.7036838 -0.0028356344
0.042346925 0.899362 0.4469889 -0.64971685 0.038023192 0.044757403 -0.23490699 0.17970458
0.71294194 0.010905182 0.055991497 0.010643072 0.026050514 -0.63418347 -0.2455965 0.6498837
0.005000296 0.47992736 -0.42500368 0.008732731 0.56206846 0.055321936 -0.009991698 0.8924425
0.056556482 -0.4421938 -1.16271 -0.033881806 0.4765348 0.039374214 -0.027065603 0.12873664
-0.609968 -0.112870425 -0.051330294 0.07565735 0.15400727 -0.20313543 -0.32717064 -0.13203692
0.5889229 -0.35175732 -0.029972563 0.0357064 0.018832114 -0.03348079 -0.72506833 -0.8646018
0.15593776 0.042445134 0.045711815 -1.1460799 -0.093695246 1.061298 -0.10224518 -0.034232084
-3.4349225 0.04167734 -0.010225156 0.50443465 -0.3315369 0.030306607 -1.3213577 -0.7092235
0.07722442 -0.11066372 -0.07080959 0.005199401 0.093648575 0.076952964 -0.065901354 -0.043085553
0.008508189 -0.03258311 0.05515661 0.07745762 -0.05276698 -0.0423542 0.045902696 -0.021960434
-0.0019036365 0.02811932 -0.033904564 0.041899644 -0.12003217 -0.03185833 0.087077565 -0.037029747
0.051267788 -0.051058803 0.015015849 -0.08676158 0.011249589 0.017491616 -0.031102825 -0.03623769
-0.027753169 0.0121811945 -0.023267267 0.055566855 0.056947313 0.011300012 -0.0360975 0.02362727
0.00029031635 0.023742609 0.01731775 0.0136186015 -0.04866189 -0.049290925 -0.032630764 0.0015085719
-0.0481026 -0.055696607 0.037669513 -0.03511912 -0.0087811565 -0.059005197 0.03357969 0.0027861404
-0.009836189 0.03625049 -0.088254444 -0.035339758 -0.04698756 0.026787024 0.07094361 0.012611308
0.048396066 0.038141325 0.018027637 0.0011302554 -0.053947184 -0.03913084 0.050469752 0.035430793
-0.039932232 0.034188636 0.0669645 -0.014777325 0.014624818 0.04306955 -0.0052038166 -0.01950591
-0.0038334355 -0.10080266 -0.029929828 0.03414231 -0.07695655 -0.013238435 0.015194729 -0.082196355
-0.05657976 -0.06671952 -0.07803234 0.018191472 0.012139128 0.029417485 -0.054042976 -0.056318074
-0.105001114 0.06926027 -0.044020448 -0.0130123915 0.0046471646 -0.02074369 0.057130832 -0.0644138
-0.06193649 0.056490067 -0.072823994 -0.09009746 -0.093083516 -0.08139669 -0.02285531 -0.079319894
-0.12100695 0.059968993 -0.0059314645 -0.008874676 -0.03727204 0.01635275 0.02727077 -0.042378213
-0.08453911 -0.041783024 -0.022222482 -0.021990126 -0.047272976 -0.07359903 -0.012069505 -0.008048256
00000000: 91c8 a53f acfa 5dbf 8c8b a4bf e416 a33d
00000010: d602 423e fcca c1bf 3615 7dbf 99b2 68bf
00000020: 7c5c 79bd 026a 56bf 2200 343d cbb9 6abc
00000030: 90e1 5a3e 3ad5 b9be 0364 e7be 959a 54bb
00000040: 1c1f 11bf 9a91 533e 08f3 ad3e c9f8 96bb
00000050: a4d6 73be f49b 473e b02e 3d3d ed82 c8bd
00000060: 51c0 90be f0e6 b3be ca43 343f 8f14 38bf
00000070: 1d4e f83e 64cd 95bd d9f2 553d 65a9 4d3c
00000080: 4c9e ff3e b358 0fbe 6ff9 bbbf dd50 a93d
00000090: e148 24bf c07d bdbe 01a8 a33e e755 bebd
000000a0: c337 193e 9dd9 88bf 2eaf debf 0aa6 393f
000000b0: 8219 7dbf d41c da3b 6e0c c23c a1da b8be
000000c0: 34f0 efbd 3387 babe 9d7a eabc 77d7 983d
000000d0: 0d2b 423e 0985 513d 3757 c839 f186 88bd
000000e0: 2907 273f 47eb 533d 004b a1bf a0c1 0bbf
000000f0: 91dd 9a3d 62bd 903d 9f24 343f 0dd6 39bb
00000100: f873 2d3d 973c 663f bbdb e43e d853 26bf
00000110: 35be 1b3d 8a53 373d 758b 70be 7a04 383e
00000120: 5d83 363f a6ab 323c 5757 653d 4860 2e3c
00000130: e367 d53c d959 22bf a67d 7bbe c75e 263f
00000140: 86d9 a33b 0ab9 f53e 159a d9be bb13 0f3c
00000150: b8e3 0f3f 4199 623d 38b4 23bc 1d77 643f
00000160: c5a7 673d 3a67 e2be aed3 94bf a6c7 0abd
00000170: 5ffc f33e db46 213d afb8 ddbc 8ad3 033e
00000180: dd26 1cbf 9c28 e7bd b73f 52bd 3ef2 9a3d
00000190: 15b4 1d3e bc02 50be e982 a7be b034 07be
000001a0: a7c3 163f 8919 b4be 0589 f5bc e040 123d
000001b0: ce45 9a3c 2723 09bd 149e 39bf 8b56 5dbf
000001c0: 26ae 1f3e f3da 2d3d 503c 3b3d bfb2 92bf
000001d0: 4be3 bfbd 9dd8 873f ec65 d1bd f136 0cbd
000001e0: c5d5 5bc0 dcb5 2a3d 6a87 27bc a122 013f
000001f0: 34bf a9be 9045 f83c 4022 a9bf ac8f 35bf
00000200: d627 9e3d a9a3 e2bd 9e04 91bd bd5f aa3b
00000210: d3ca bf3d 8499 9d3d 4af7 86bd 7a7a 30bd
00000220: ee65 0b3c de75 05bd e6eb 613d 1aa2 9e3d
00000230: 3022 58bd 997b 2dbd 7704 3c3d 5ee6 b3bc
00000240: 7183 f9ba 7d5a e63c 83df 0abd f69e 2b3d
00000250: 6dd3 f5bd e17d 02bd b955 b23d 81ac 17bd
00000260: 2cfe 513d 0923 51bd 0905 763c 0eb0 b1bd
00000270: 3250 383c 944a 8f3c 5acb febc f96d 14bd
00000280: 9d5a e3bc a293 473c ff9a bebc 129a 633d
00000290: 9641 693d af23 393c f9da 13bd fa8d c13c
000002a0: 9a35 9839 dc7f c23c f4dd 8d3c 8e20 5f3c
000002b0: b151 47bd 48e5 49bd d6a7 05bd 46bb c53a
000002c0: 3b07 45bd 2022 64bd 594b 1a3d 11d9 0fbd
000002d0: d7de 0fbc 6faf 71bd db8a 093d ae97 363b
000002e0: f827 21bc 657b 143d bfbe b4bd 6cc0 10bd
000002f0: 0776 40bd 7670 db3c e24a 913d a99f 4e3c
00000300: f43a 463d 143a 1c3d b2ae 933c 1425 943a
00000310: b9f7 5cbd a947 20bd 5fb9 4e3d e11f 113d
00000320: fb8f 23bd 6209 0c3d af24 893d 981c 72bc
00000330: ef9c 6f3c b269 303d c784 aabb dcca 9fbc
00000340: 603a 7bbb a071 cebd 662f f5bc cfd8 0b3d
00000350: 659b 9dbd 05e6 58bc 50f3 783c 9056 a8bd
00000360: 2ec0 67bd 3ea4 88bd 6bcf 9fbd 4806 953c
00000370: 31e3 463c f0fc f03c 2b5c 5dbd c8ad 66bd
00000380: d30a d7bd 54d8 8d3d c94e 34bd ed31 55bc
00000390: 3e47 983b acee a9bc 0502 6a3d 62eb 83bd
000003a0: 1eb1 7dbd 2162 673d bf24 95bd 0485 b8bd
000003b0: 92a2 bebd 4fb3 a6bd 0f3b bbbc 7872 a2bd
000003c0: 7ed2 f7bd 0ca2 753d bb5c c2bb 1767 11bc
000003d0: 91aa 18bd 34f6 853c f366 df3c c794 2dbd
000003e0: d722 adbd ad24 2bbd ec0b b6bc a324 b4bc
000003f0: 4fa1 41bd 17bb 96bd 2cbf 45bc d5dc 03bc

net.2.bias f4 [128]
0.44309902 -0.08343535 -0.055925287 -0.3042774 -0.07385888 -0.122552276 0.5220098 -0.038168408
-0.044031084 -0.058097817 -0.04643351 0.0196178 -0.3199605 -0.19904216 0.67402667 -0.0704966
-0.1982511 0.92309386 -0.028751476 0.38047546 0.050513208 -0.074148074 0.98138297 0.7179775
0.34853172 -0.03408873 -0.054778278 0.16904695 0.03506537 -0.07312652 -0.038679935 -0.086979784
-0.14567015 -0.028100755 0.67361253 -0.07665546 0.44937122 -0.14187403 -0.111046486 0.032660037
0.025912821 0.7983733 -0.0150783975 0.57534957 0.6925185 -0.040259615 0.3846538 0.46804968
0.14526257 -0.14091639 -0.0012550118 -0.13827147 0.6043208 -0.1152011 0.3625822 0.8497668
0.021739917 -0.054157574 0.025595639 0.6267854 0.047426578 -0.050494943 0.51062673 -0.0847233
0.025873927 0.46016356 -0.056010365 0.10652549 -0.026950816 0.8915633 -0.052365832 -0.0016369243
0.016268037 0.16190572 -0.12118098 -0.0073113707 -0.11265614 -0.022729732 0.19890565 0.0014215752
0.5746558 0.738587 0.632466 0.014022913 0.56643593 0.02293159 0.028524084 -0.11700348
-0.02050241 0.553389 -0.12947598 -0.079672664 0.33170363 -0.056054402 -0.077836655 -0.10803487
0.6802739 0.972614 -0.10019099 0.17408563 -0.1137338 -0.081371926 0.17231482 0.38932896
-0.17481682 0.049474034 0.5676611 0.77480716 -0.0204336 -0.14764793 0.0027791555 0.0132929
0.68843555 -0.064688876 0.018905701 -0.027032297 -0.11413699 0.49575156 0.44895753 -0.10370191
-0.061538108 0.021390146 0.025629118 0.50087523 -0.08395428 0.92512155 0.0012562193 0.64233255
00000000: e0dd e23e 27e0 aabd ea11 65bd 3fca 9bbe
00000010: 5343 97bd b0fc fabd 6fa2 053f 7a56 1cbd
00000020: f059 34bd faf7 6dbd 1031 3ebd 82b5 a03c
00000030: ddd1 a3be b5d1 4bbe 038d 2c3f 8560 90bd
00000040: 5602 4bbe e14f 6c3f 3788 ebbc aecd c23e
00000050: f0e6 4e3d f2da 97bd ea3b 7b3f 60cd 373f
00000060: c072 b23e a0a0 0bbd 305f 60bd a51a 2d3e
00000070: b5a0 0f3d 5bc3 95bd da6e 1ebd 7522 b2bd
00000080: 8e2a 15be 8e33 e6bc df71 2c3f 8afd 9cbd
00000090: fc13 e63e 6d47 11be 576c e3bd 88c6 053d
000000a0: 2047 d43c 3162 4c3f 620b 77bc 1c4a 133f
000000b0: e448 313f 44e7 24bd 58f1 c43e 35a4 ef3e
000000c0: b6bf 143e 634c 10be 357f a4ba 0997 0dbe
000000d0: c5b4 1a3f 8eee ebbd 60a4 b93e 518a 593f
000000e0: e917 b23c 55d4 5dbd f2ad d13c 0275 203f
000000f0: 5f42 423d c9d3 4ebd 6fb8 023f 6983 adbd
00000100: 8ff5 d33c 8f9a eb3e 206b 65bd 092a da3d
00000110: f5c7 dcbc 7e3d 643f 8e7d 56bd 118e d6ba
00000120: 8c44 853c 9dca 253e bc2d f8bd 3994 efbb
00000130: 43b8 e6bd b433 babc ecad 4b3e 2654 ba3a
00000140: a41c 133f 0a14 3d3f 4be9 213f 5cc0 653c
00000150: f201 113f 08db bb3c 57ab e93c 859f efbd
00000160: acf4 a7bc e7aa 0d3f 5a95 04be 6c2b a3bd
00000170: 0fd5 a93e 4d99 65bd d368 9fbd 6341 ddbd
00000180: 6e26 2e3f 3bfd 783f ef30 cdbd 8143 323e
00000190: 44ed e8bd 53a6 a6bd 4c73 303e 2056 c73e
000001a0: 2e03 33be 49a5 4a3d 3d52 113f c359 463f
000001b0: 5d64 a7bc 0531 17be 7e22 363b 77ca 593c
000001c0: 503d 303f 9a7b 84bd 21e0 9a3c d672 ddbc
000001d0: a7c0 e9bd 26d3 fd3e c3dd e53e ab61 d4bd
000001e0: 620f 7cbd 633a af3c 28f4 d13c 5c39 003f
000001f0: 39f0 abbd c4d4 6c3f baa7 a43a e86f 243f

net.4.weight f4 [13, 128]
0.11469634 0.0094443755 -0.024912627 -0.8890686 -0.0539842 -0.007745217 0.14416093 -0.013879576
-0.40993726 -0.04135084 -0.0006780542 -0.027250655 -0.9448054 -0.5212651 0.16204965 -0.06334593
-0.155799 0.15574324 -0.019725908 0.22654545 0.00524968 -0.009127886 0.19818266 0.052020203
0.16630168 0.02552292 0.019832227 0.01037962 0.045039732 -0.009120783 0.014630132 0.014768985
0.25262415 0.0072862767 0.19685534 -0.032234117 0.4320844 -0.0017403417 0.013063336 -0.02074427
-0.016316414 0.088671304 0.023953935 0.35088563 0.029850498 0.0020384926 0.20045175 0.22068247
-0.031289387 0.027471285 -0.024877528 0.017581355 0.2087641 -0.0063520293 0.1885904 0.15108821
0.022023067 0.00034044514 0.047314093 0.08518838 -0.047198527 -0.008884377 0.11765601 -0.004127386
-0.042299367 0.1598619 0.0041011786 0.0074464586 -0.020241885 0.1784482 -0.018961499 0.005706497
-0.02385997 0.0066098697 -0.022242228 -0.060254633 -0.0118331835 -0.019650023 0.016160827 -0.019920137
0.20472541 0.17433405 0.22352745 -0.025382848 0.20117195 -0.012248962 -0.5023542 0.046125863
0.017773619 0.07694838 0.013618779 -0.015717184 0.33612922 -0.010890237 0.019247698 -0.02018038
0.046118546 0.17521653 -0.025052976 -1.0650098 0.016496332 0.0136042265 0.015949007 0.1504958
-0.010566582 -0.030128175 0.24663445 0.08208273 -0.048155997 -0.17897366 -0.012582718 0.5365408
0.061133992 0.024899479 -0.05722246 0.0042576375 -0.028235028 0.36235306 0.07839602 -0.03898168
-0.02473491 -0.026352696 -0.019455535 0.29667932 0.06491881 0.16996618 -0.021478496 0.31369755
-0.0086886585 -0.03376761 0.08707415 -0.0076448023 -0.082634374 0.0005926937 -0.04206918 -0.0065692887
-0.061308756 0.045119144 0.04491233 -0.02121409 -0.0332623 0.045748465 -0.064670056 -0.057376
-0.046409737 0.07229345 -0.047156747 0.05331319 0.053565837 -0.04733523 -0.030492328 0.078028716
-0.069671996 -0.0678897 0.041869022 -0.044360884 0.06775906 0.027023502 0.045694016 0.02186615
-0.04648183 0.030424759 -0.05791509 0.05470141 -0.04324397 -0.028684806 0.04610189 0.036948778
-0.042971767 0.01837597 0.04547479 0.0023926124 0.073603 0.016305186 -0.035205726 0.07257373
0.048433013 0.05151718 -0.040702697 -0.003868647 0.041778736 0.051092945 0.07861709 -0.040326346
0.07491168 0.08822138 -0.048775494 -0.033499915 0.03456577 -0.01085566 -0.038585976 -0.0771048
-0.05083623 0.07683372 0.006824672 -0.022982836 0.08190524 0.017097652 0.056597166 -0.080959804
0.081286915 0.030103952 -0.048107803 0.013511017 -0.054966442 -0.04346301 0.07162935 -0.082604684
0.06962431 0.05553282 0.0006515905 -0.078904696 -0.04811106 -0.07945685 0.030474603 -0.072029844
0.04434713 -0.08029289 0.028680474 0.039575048 0.074657165 -0.045290254 0.047750793 -0.047545575
0.05579906 0.0500466 0.08096809 0.063003846 0.053406022 0.038430937 0.06944095 -0.08360041
0.047394864 0.052801855 -0.032900788 -0.06373147 0.07458297 0.059584625 0.067877494 0.024692513
-0.028565165 0.08739639 -0.08505359 -0.07880567 -0.08067537 -0.07949324 0.08797688 0.013814494
-0.058098808 0.0040750206 -0.03902328 0.04724919 -0.07745911 0.029576235 -0.074930474 -0.0044631287
00000000: eae5 ea3d 95bc 1a3c 9115 ccbc 009a 63bf
00000010: 891e 5dbd 97cb fdbb ec9e 133e 2967 63bc
00000020: 4ce3 d1be 805f 29bd 72bf 31ba c43c dfbc
00000030: c4de 71bf a171 05bf 58f0 253e 83bb 81bd
00000040: c689 1fbe 287b 1f3e 3a98 a1bc 88fb 673e
00000050: 8205 ac3b 218d 15bc 65f0 4a3e 2313 553d
00000060: fd4a 2a3e 7115 d13c 3277 a23c 480f 2a3c
00000070: 957b 383d 566f 15bc 39b3 6f3c 9df9 713c
00000080: f457 813e b8c1 ee3b 7294 493e ec07 04bd
00000090: 2b3a dd3e 2d1c e4ba 9a07 563c e3ef a9bc
000000a0: 00aa 85bc 4d99 b53d 0b3b c43c 48a7 b33e
000000b0: 0889 f43c 3b98 053b 3943 4d3e 96fa 613e
000000c0: 4d29 00bd 760b e13c f5cb cbbc c606 903c
000000d0: 42c6 553e af24 d0bb d81d 413e deb6 1a3e
000000e0: b869 b43c c67d b239 6ccc 413d 3f77 ae3d
000000f0: 3e53 41bd c78f 11bc a2f5 f03d 063f 87bb
00000100: 1a42 2dbd d7b2 233e 2e63 863b 6c01 f43b
00000110: 4fd2 a5bc 20bb 363e 2555 9bbc 91fd ba3b
00000120: fc75 c3bc 9b97 d83b 5535 b6bc 90cd 76bd
00000130: f8df 41bc 16f9 a0bc b663 843c 8e2f a3bc
00000140: 8aa3 513e a084 323e 61e4 643e b1ef cfbc
00000150: 0500 4e3e dfaf 48bc 499a 00bf 79ee 3c3d
00000160: fb99 913c 1d97 9d3d 4d21 5f3c 53c1 80bc
00000170: 2119 ac3e f76c 32bc 59ad 9d3c 5351 a5bc
00000180: cde6 3c3d f66b 333e e63b cdbc 3e52 88bf
00000190: 5123 873c 43e4 5e3c 7ea7 823c 921b 1a3e
000001a0: 751f 2dbc 5dcf f6bc be8d 7c3e fe1a a83d
000001b0: 393f 45bd df44 37be bf27 4ebc bd5a 093f
000001c0: a367 7a3d fef9 cb3c 1962 6abd a783 8b3b
000001d0: 254d e7bc 5786 b93e 188e a03d 41ab 1fbd
000001e0: dea0 cabc 9ce1 d7bc 3761 9fbc 5ae6 973e
000001f0: 27f4 843d 9d0b 2e3e acf3 afbc f79c a03e
00000200: e05a 0ebc e84f 0abd ef53 b23d 4081 fabb
00000210: 363c a9bd 005f 1b3a bc50 2cbd 3043 d7bb
00000220: e41e 7bbd dace 383d fef5 373d 2cc9 adbc
00000230: 0d3e 08bd be62 3b3d bc71 84bd 1903 6bbd
00000240: 2318 3ebd 970e 943d 6f27 41bd ee5e 5a3d
00000250: da67 5b3d 96e2 41bd 0ccb f9bc 85cd 9f3d
00000260: 31b0 8ebd c109 8bbd da7e 2b3d c2b3 35bd
00000270: 43c5 8a3d 6460 dd3c a629 3b3d a420 b33c
00000280: bb63 3ebd 583d f93c 6038 6dbd 960e 603d
00000290: 9720 31bd 66fc eabc 56d5 3c3d 9a57 173d
000002a0: 2a03 30bd 3489 963c c643 3a3d 60cd 1c3b
000002b0: 2bbd 963d 7492 853c e133 10bd 89a1 943d
000002c0: b261 463d ae03 533d dfb7 26bd 2089 7dbb
000002d0: 2e20 2b3d d646 513d ff01 a13d 3d2d 25bd
000002e0: 4b6b 993d 69ad b43d d0c8 47bd 3537 09bd
000002f0: d694 0d3d f0db 31bc 540c 1ebd 1fe9 9dbd
00000300: a739 50bd ff5a 9d3d 80a1 df3b 8046 bcbc
00000310: efbd a73d 6010 8c3c 6ed2 673d 41ce a5bd
00000320: c179 a63d 909c f63c b00c 45bd 505d 5d3c
00000330: 7e24 61bd 4506 32bd 69b2 923d a52c a9bd
00000340: 3197 8e3d 6276 633d 80cf 2a3a c998 a1bd
00000350: 1a10 45bd 46ba a2bd e0a5 f93c 6284 93bd
00000360: 56a5 353d 9970 a4bd 50f3 ea3c 7219 223d
00000370: dbe5 983d 4682 39bd 5696 433d 26bf 42bd
00000380: 8e8d 643d aafd 4c3d 99d2 a53d 2908 813d
00000390: 46c0 5a3d c269 1d3d 0f37 8e3d b136 abbd
000003a0: 1e21 423d c246 583d fac2 06bd a585 82bd
000003b0: f5be 983d 020f 743d 5b03 8b3d f447 ca3c
000003c0: 7e01 eabc e1fc b23d 9430 aebd de64 a1bd
000003d0: 2139 a5bd 5acd a2bd 392d b43d 3056 623c
000003e0: 04f9 6dbd c087 853b e0d6 1fbd 5e88 413d
000003f0: e2a2 9ebd dc49 f23c 2675 99bd 703f 92bb

net.4.bias f4 [13]
1.1605325 -0.06429074 -0.025979653 -0.021365955 0.042747505 0.0071192384 0.06090518 -0.009846874
-0.04162876 0.0014813468 -0.03275928 -0.048560873 -0.086587235
00000000: 548c 943f ddaa 83bd 48d3 d4bc a807 afbc
00000010: 0218 2f3d 8048 e93b b677 793d c854 21bc
00000020: eb82 2abd c029 c23a 982e 06bd c4e7 46bd
00000030: a654 b1bd

net.0.weight f4 [128, 53]
-0.10077686 -0.015352169 -0.05924018 -0.9671885 -0.0694556 0.605959 0.28401327 0.14704262
-0.30996904 1.2456968 -0.7712162 -0.48463866 -0.27342388 -0.53877807 0.928297 -0.107310094
0.7837193 0.29438204 -0.29149055 -1.0442209 0.22948892 0.62379426 -0.24371782 -0.0929239
-0.09965871 -0.07778833 -0.25354692 -0.553542 -0.35430503 0.8123783 0.8242491 -1.1804817
-0.06396018 -0.31391907 1.1852031 0.4297227 0.8734427 0.6791336 0.44000998 -0.9288231
-0.27710733 0.34074396 -0.08299268 0.5388728 -0.050733846 -0.5861987 0.3443172 -0.33654782
-1.2797766 0.2694295 -1.2158451 0.4839634 0.11744882 0.024380073 0.2608749 -0.043998986
1.0427265 -0.10000376 0.6588858 0.073728755 0.49344885 -0.13462658 0.53149885 0.6414748
0.8680106 -0.20457225 0.05926433 0.92383957 0.017166011 -1.2596006 -0.26045954 -0.17674744
0.32096085 0.07698012 0.4015776 0.107883215 -0.2766767 0.10536876 -0.022527784 1.1831933
0.98517686 1.4608644 -0.6956924 0.22028963 0.67028576 -0.19329333 0.06272068 0.9342164
-0.011499709 -2.0741878 0.1178567 -0.5931135 0.0834943 0.30822918 0.20251387 0.71128225
-0.12807561 0.92038476 -0.31778884 -0.10714698 0.4704052 -0.9242319 0.0038334078 -0.98414576
0.23252988 0.6771805 -0.2204146 -0.041263152 -0.848837 -0.05836944 -0.12820375 0.73431635
-0.5710649 -0.17502567 -0.24454528 0.7388086 0.35683155 0.5821986 0.74491787 -0.59444016
0.26893786 0.8277235 0.7779589 -1.1099482 0.5061266 -0.876955 0.18965212 -0.8607054
0.6130546 -0.52122176 -0.06964619 -0.0756879 -0.49317122 -0.7858799 -0.6061144 -0.86030823
0.22785608 0.19723396 -0.13048348 -0.050240565 -0.34247866 0.24793877 0.09354434 0.40428302
0.425631 0.26222754 0.33013198 0.08762051 0.81402904 0.31727484 0.41816825 1.1766511
0.070676394 0.79456466 0.13840969 0.1574213 0.124479644 0.49184522 0.17717947 0.022297008
0.0068187593 0.06790451 0.042109475 0.07678105 0.03880897 -0.009764662 -0.15489234 0.10381513
0.07464804 0.1858242 0.018404162 -0.054156307 0.043627314 -0.06432978 0.078178994 -0.14881879
0.111773536 0.05626463 0.0018341541 0.18684773 -0.032241367 -0.0035350667 -0.17355779 0.112895325
0.0490027 -0.00016509376 0.10806476 -0.04873654 0.0765319 0.1440557 0.09337741 0.07404779
-0.08207903 0.15422675 0.10959963 0.0114679225 -0.12880927 -0.09509984 0.08107693 -0.11524952
-0.01244209 -0.03074231 -0.0779597 0.0500473 0.0037969577 0.12574004 0.042828687 -0.06879995
0.17719539 -0.04003143 -0.0024080873 0.026893446 -0.33952633 -0.1909876 -0.19689198 0.009241399
0.0051896423 1.1047443 0.42196366 0.13681743 0.15352936 -0.06992379 -0.06560597 -0.067072585
-0.75302905 -0.09923574 0.038852524 0.109847605 0.36991227 -0.33060664 0.10985695 -0.028551139
0.14694802 -0.48212853 0.15196586 -0.03436475 0.023207963 0.24741416 -0.68824464 -0.23574726
-0.23750998 -0.07321871 0.3474045 0.6879264 0.5911548 0.22753042 -0.13573721 0.36416027
-0.020939365 0.063788764 -0.07560721 0.16114078 -0.07865075 -0.044679962 0.2283142 0.39617082
00000000: 1964 cebd aa87 7bbc d5a5 72bd aa99 77bf
00000010: bd3e 8ebd 2120 1b3f 306a 913e 5792 163e
00000020: 43b4 9ebe fe72 9f3f 6d6e 45bf 8f22 f8be
00000030: 37fe 8bbe 5ced 09bf dfa4 6d3f 65c5 dbbd
00000040: d4a1 483f 3eb9 963e 403e 95be 08a9 85bf
00000050: 25ff 6a3e fbb0 1f3f 2a91 79be e34e bebd
00000060: de19 ccbd 7d4f 9fbd e7d0 81be eeb4 0dbf
00000070: 7867 b5be 06f8 4f3f fd01 533f 061a 97bf
00000080: 8efd 82bd 00ba a0be bcb4 973f 9d04 dc3e
00000090: f199 5f3f b3db 2d3f fd48 e13e 5ac7 6dbf
000000a0: 03e1 8dbe fe75 ae3e 11f8 a9bd 91f3 093f
000000b0: 4bce 4fbd 1e11 16bf 584a b03e ff4f acbe
000000c0: b8cf a3bf aaf2 893e d0a0 9bbf 0dca f73e
000000d0: 0289 f03d b8b8 c73c 6591 853e 4838 34bd
000000e0: 1078 853f c5ce ccbd bdac 283f 1aff 963d
000000f0: 54a5 fc3e 8ddb 09be 4f10 083f b137 243f
00000100: f135 5e3f 637b 51be 27bf 723d c080 6c3f
00000110: bc9f 8c3c 983a a1bf f45a 85be 48fd 34be
00000120: fb54 a43e c1a7 9d3d 949b cd3e e0f1 dc3d
00000130: 92a8 8dbe 94cb d73d 308c b8bc e172 973f
00000140: 8d34 7c3f 9bfd ba3f e618 32bf 9b93 613e
00000150: d997 2b3f b0ee 45be b373 803d ce28 6f3f
00000160: 4769 3cbc 7ebf 04c0 db5e f13d 49d6 17bf
00000170: 0fff aa3d 37d0 9d3e cc5f 4f3e 9816 363f
00000180: 4126 03be 569e 6b3f 38b5 a2be e06f dbbd
00000190: f3d8 f03e 769a 6cbf e939 7b3b faf0 7bbf
000001a0: 501c 6e3e b45b 2d3f 5db4 61be 8d03 29bd
000001b0: 624d 59bf cb14 6fbd d847 03be 28fc 3b3f
000001c0: 4f31 12bf ee39 33be 146a 7abe 8f22 3d3f
000001d0: a0b2 b63e f80a 153f f0b2 3e3f 3b2d 18bf
000001e0: 39b2 893e b0e5 533f 5128 473f c812 8ebf
000001f0: 8391 013f 1f80 60bf 2a34 423e 3057 5cbf
00000200: 25f1 1c3f ca6e 05bf a9a2 8ebd 4202 9bbd
00000210: f080 fcbe 6d2f 49bf 502a 1bbf 293d 5cbf
00000220: 1b53 693e b3f7 493e 769d 05be 0dc9 4dbd
00000230: 5d59 afbe a9e3 7d3e 2d94 bf3d 2ffe ce3e
00000240: 4eec d93e b042 863e 0f07 a93e 6272 b33d
00000250: 3564 503f d971 a23e 261a d63e 819c 963f
00000260: c9be 903d 9768 4b3f 45bb 0d3e 0d33 213e
00000270: 2fef fe3d 23d3 fb3e 896e 353e 37a8 b63c
00000280: e66f df3b 8511 8b3d fc7a 2c3d 623f 9d3d
00000290: 28f6 1e3d f6fb 1fbc 199c 1ebe 079d d43d
000002a0: 12e1 983d b348 3e3e 53c4 963c 01d3 5dbd
000002b0: 8eb2 323d 55bf 83bd 4f1c a03d f463 18be
000002c0: 86e9 e43d be75 663d 0068 f03a 0355 3f3e
000002d0: 860f 04bd 94ac 67bb 22b9 31be aa35 e73d
000002e0: 0eb7 483d 051d 2db9 0f51 dd3d f79f 47bd
000002f0: c2bc 9c3d 5683 133e a83c bf3d 5ea6 973d
00000300: 0d19 a8bd 9eed 1d3e c575 e03d f4e3 3b3c
00000310: 94e6 03be b4c3 c2bd a90b a63d f107 ecbd
00000320: e8d9 4bbc 4cd7 fbbc 56a9 9fbd 66fe 4c3d
00000330: 61d6 783b ffc1 003e 226d 2f3d fde6 8cbd
00000340: b572 353e fff7 23bd 00d1 1dbb a54f dc3c
00000350: 65d6 adbe 4192 43be 0d9e 49be 3d69 173c
00000360: e00d aa3b 4368 8d3f 9f0b d83e de19 0c3e
00000370: cd36 1d3e 3434 8fbd 6c5c 86bd 5a5d 89bd
00000380: 83c6 40bf 1c3c cbbd d323 1f3d c8f7 e03d
00000390: 2465 bd3e 4645 a9be aefc e03d 14e4 e9bc
000003a0: 8b79 163e 8dd9 f6be f09c 1b3e 0dc2 0cbd
000003b0: a01e be3c 235a 7d3e cd30 30bf bb67 71be
000003c0: d135 73be b1f3 95bd 01df b13e f21b 303f
000003d0: ec55 173f bcfd 683e b2fe 0abe 3773 ba3e
000003e0: 0889 abbc afa3 823d f4d7 9abd 1702 253e
000003f0: a513 a1bd 5602 37bd 33cb 693e e7d6 ca3e

net.0.bias f4 [128]
-0.291427 -0.12642746 -0.15594786 -0.16970065 -0.2051786 -0.11398383 -0.08971083 -0.12210091
-0.06795783 -0.12289913 -0.081015825 -0.08752361 -0.34551635 -0.0013119085 -0.11280358 -0.18361084
0.023456164 0.16910984 0.034779802 -0.009771329 0.0047717304 -0.24418955 -0.0695393 -0.16118404
0.19154255 -0.524032 -0.08031295 -0.08432775 0.06806387 -0.007199316 -0.1549442 -0.20834127
-0.021702148 -0.124817714 0.04189153 -0.064978346 -0.12497953 -0.07599783 -0.2423422 0.038639475
-0.126104 -0.2577911 0.06859675 -0.08102165 -0.4375091 -0.020211374 -0.22832482 -0.089287885
0.38875487 -0.15448228 0.057790913 0.3318393 -0.17805086 -0.09911062 -0.13315113 -0.15513876
-0.16781002 0.3016255 0.1314618 -0.00694132 -0.08762207 -0.08609493 -0.122446984 0.29833475
-0.22080314 -0.049901024 0.15114565 -0.24329165 -0.08606811 -0.08781477 0.3296018 0.069497764
-0.24462213 0.033409916 -0.13005222 -0.10697881 -0.12560934 -0.2920244 0.033542998 -0.045196634
-0.1587186 -0.3341805 -0.027903989 -0.045881484 0.032677077 0.008908422 -0.057508655 -0.07396963
-0.08706854 -0.23187618 -0.18232307 -0.14047918 0.16802877 0.2212823 -0.101298265 -0.32359344
0.083006 -0.15029481 -0.13480985 -0.011910551 0.1350963 -0.14238526 -0.37975678 -0.17302734
0.072501525 -0.19093938 -0.0373423 -0.12636429 0.06085703 0.362813 -0.12616453 -0.22124606
0.4878988 -0.19432047 0.15126836 0.07158936 -0.10328866 -0.07569951 0.18420617 -0.48775038
0.0043141525 -0.06751468 -0.109298415 -0.3034143 -0.11546378 -0.0931575 0.030667474 -0.017219758
00000000: eb35 95be 3376 01be ccb0 1fbe 02c6 2dbe
00000010: 571a 52be 5b70 e9bd 50ba b7bd 0b10 fabd
00000020: 7a2d 8bbd 8ab2 fbbd a0eb a5bd 943f b3bd
00000030: 85e7 b0be 58f4 abba 9005 e7bd 7b04 3cbe
00000040: 2427 c03c 212b 2d3e 4475 0e3d ed17 20bc
00000050: 2d5c 9c3b d30c 7abe 9f6a 8ebd 6e0d 25be
00000060: bb23 443e f626 06bf 1e7b a4bd 07b4 acbd
00000070: 1265 8b3d 3de8 ebbb b1a9 1ebe 6a57 55be
00000080: b4c8 b1bc 6ea0 ffbd 7496 2b3d 5e13 85bd
00000090: 45f5 ffbd c0a4 9bbd 8e28 78be 6d44 1e3d
000000a0: 6821 01be 32fd 83be 747c 8c3d aeee a5bd
000000b0: 3101 e0be 5392 a5bc fbcd 69be 91dc b6bd
000000c0: e10a c73e 9a30 1ebe 2ab6 6c3d d7e6 a93e
000000d0: f752 36be 82fa cabd c558 08be b2dc 1ebe
000000e0: 64d6 2bbe a86e 9a3e ec9d 063e 0374 e3bb
000000f0: 3373 b3bd 8a52 b0bd 7cc5 fabd 55bf 983e
00000100: 381a 62be 0465 4cbd edc5 1a3e 7221 79be
00000110: 7a44 b0bd 3bd8 b3bd 91c1 a83e d854 8e3d
00000120: 397e 7abe d6d8 083d 692c 05be b517 dbbd
00000130: bc9f 00be 3984 95be 6264 093d 1b20 39bd
00000140: 2187 22be b519 abbe e896 e4bc 39ee 3bbd
00000150: 66d8 053d a1f4 113c 328e 6bbd 647d 97bd
00000160: fe50 b2bd f370 6dbe e6b2 3abe c6d9 0fbe
00000170: bc0f 2c3e d497 623e 7775 cfbd 0aae a5be
00000180: 0dff a93d e2e6 19be 980b 0abe 7924 43bc
00000190: af56 0a3e 71cd 11be 7b6f c2be 142e 31be
000001a0: ae7b 943d 9d85 43be 3df4 18bd a465 01be
000001b0: 3945 793d a0c2 b93e 4631 01be 548e 62be
000001c0: dfcd f93e f2fb 46be 18e6 1a3e 719d 923d
000001d0: 0189 d3bd 5808 9bbd 8ba0 3c3e 6bba f9be
000001e0: bc5d 8d3b 2345 8abd d9d7 dfbd 1e59 9bbe
000001f0: 4678 ecbd 5cc9 bebd 5b3a fb3c 7310 8dbc

net.2.weight f4 [128, 128]
1.2959248 -0.86721885 -1.2820803 0.079633504 0.18946394 -1.5140765 -0.9883274 -0.90751314
-0.060879216 -0.8374447 0.04394544 -0.014326523 0.21503629 -0.36802706 -0.45309484 -0.003244077
-0.56239855 0.20818488 0.34679964 -0.004607294 -0.2378033 0.19493085 0.046187103 -0.09790597
-0.28183082 -0.3513713 0.69958067 -0.72166026 0.4834611 -0.07281172 0.05223355 0.012552594
0.49655768 -0.1399868 -1.4672682 0.082673766 -0.64736265 -0.37295905 0.31964114 -0.094506435
0.14650714 -1.0693014 -1.7432066 0.7227438 -0.98861414 0.008892324 0.02148492 -0.35870716
-0.116791256 -0.364297 -0.02862292 0.07461284 0.18961735 0.051152263 -0.00043663982 -0.06666363
0.65012276 0.049557537 -1.2620755 -0.5450104 0.07561792 0.07067372 0.70231265 -0.0029277657
0.043268617 0.8978547 0.44929382 -0.64971685 0.038023192 0.044757403 -0.23465484 0.17735058
0.7106059 0.010905182 0.055991497 0.010643072 0.026050514 -0.63418347 -0.24009159 0.6532008
0.005000296 0.48009685 -0.42979303 0.008732731 0.5561252 0.055321936 -0.009991698 0.893318
0.056556482 -0.44550705 -1.1623278 -0.033881806 0.4827308 0.039343502 -0.027065603 0.12873664
-0.6143703 -0.112870425 -0.051330294 0.07489684 0.15271331 -0.20111373 -0.32717064 -0.13203692
0.5891331 -0.3551617 -0.029972563 0.0357064 0.018832114 -0.033120077 -0.72520363 -0.8694022
0.15619792 0.042445134 0.04648488 -1.1461426 -0.093695246 1.0614994 -0.102088735 -0.034232084
-3.434778 0.04167734 -0.010225156 0.5029871 -0.33270377 0.030306607 -1.3172637 -0.7116617
0.07722442 -0.11066372 -0.07080959 0.005199401 0.093648575 0.076952964 -0.065901354 -0.043085553
0.008508189 -0.03258311 0.05515661 0.07745762 -0.05276698 -0.0423542 0.045902696 -0.021960434
-0.0019036365 0.02811932 -0.033904564 0.041899644 -0.12003217 -0.03185833 0.087077565 -0.037029747
0.051267788 -0.051058803 0.015015849 -0.08676158 0.011249589 0.017491616 -0.031102825 -0.03623769
-0.027753169 0.0121811945 -0.023267267 0.055566855 0.056947313 0.011300012 -0.0360975 0.02362727
0.00029031635 0.023742609 0.01731775 0.0136186015 -0.04866189 -0.049290925 -0.032630764 0.0015085719
-0.0481026 -0.055696607 0.037669513 -0.03511912 -0.0087811565 -0.059005197 0.03357969 0.0027861404
-0.009836189 0.03625049 -0.088254444 -0.035339758 -0.04698756 0.026787024 0.07094361 0.012611308
0.048396066 0.038141325 0.018027637 0.0011302554 -0.053947184 -0.03913084 0.050469752 0.035430793
-0.039932232 0.034188636 0.0669645 -0.014777325 0.014624818 0.04306955 -0.0052038166 -0.01950591
-0.0038334355 -0.10080266 -0.029929828 0.03414231 -0.07695655 -0.013238435 0.015194729 -0.082196355
-0.05657976 -0.06671952 -0.07803234 0.018191472 0.012139128 0.029417485 -0.054042976 -0.056318074
-0.105001114 0.06926027 -0.044020448 -0.0130123915 0.0046471646 -0.02074369 0.057130832 -0.0644138
-0.06193649 0.056490067 -0.072823994 -0.09009746 -0.093083516 -0.08139669 -0.02285531 -0.079319894
-0.12100695 0.059968993 -0.0059314645 -0.008874676 -0.03727204 0.01635275 0.02727077 -0.042378213
-0.08453911 -0.041783024 -0.022222482 -0.021990126 -0.047272976 -0.07359903 -0.012069505 -0.008048256
00000000: dde0 a53f 0e02 5ebf 351b a4bf e416 a33d
00000010: d602 423e 42cd c1bf 0603 7dbf c852 68bf
00000020: 7c5c 79bd c762 56bf 2200 343d cbb9 6abc
00000030: 7932 5c3e 0b6e bcbe 0cfc e7be 959a 54bb
00000040: 5af9 0fbf 6b2e 553e b98f b13e c9f8 96bb
00000050: b582 73be f49b 473e b02e 3d3d ed82 c8bd
00000060: 214c 90be f0e6 b3be b817 333f babe 38bf
00000070: 3788 f73e 501e 95bd d9f2 553d 65a9 4d3c
00000080: cf3c fe3e b358 0fbe 72cf bbbf dd50 a93d
00000090: 8fb9 25bf 7df4 bebe 01a8 a33e 978c c1bd
000000a0: f805 163e dede 88bf 6521 dfbf bd05 393f
000000b0: d115 7dbf 1cb1 113c 2501 b03c 77a8 b7be
000000c0: 4130 efbd 2385 babe 9d7a eabc 9ece 983d
000000d0: 0d2b 423e 0985 513d ceec e4b9 f186 88bd
000000e0: 726e 263f d8fc 4a3d b18b a1bf cd85 0bbf
000000f0: 91dd 9a3d 62bd 903d c3ca 333f c2df 3fbb
00000100: 6f3a 313d ced9 653f d709 e63e d853 26bf
00000110: 35be 1b3d 8a53 373d 5c49 70be 649b 353e
00000120: 45ea 353f a6ab 323c 5757 653d 4860 2e3c
00000130: e367 d53c d959 22bf 92da 75be 2b38 273f
00000140: 86d9 a33b 41cf f53e d50d dcbe bb13 0f3c
00000150: 395e 0e3f 4199 623d 38b4 23bc 7db0 643f
00000160: c5a7 673d 8019 e4be 28c7 94bf a6c7 0abd
00000170: 7e28 f73e a726 213d afb8 ddbc 8ad3 033e
00000180: 5f47 1dbf 9c28 e7bd b73f 52bd 8463 993d
00000190: e160 1c3e c2f0 4dbe e982 a7be b034 07be
000001a0: 6dd1 163f c1d7 b5be 0589 f5bc e040 123d
000001b0: ce45 9a3c eba8 07bd f2a6 39bf 2591 5ebf
000001c0: 59f2 1f3e f3da 2d3d ee66 3e3d cdb4 92bf
000001d0: 4be3 bfbd 36df 873f e613 d1bd f136 0cbd
000001e0: 67d3 5bc0 dcb5 2a3d 6a87 27bc c3c3 003f
000001f0: 2658 aabe 9045 f83c 199c a8bf 762f 36bf
00000200: d627 9e3d a9a3 e2bd 9e04 91bd bd5f aa3b
00000210: d3ca bf3d 8499 9d3d 4af7 86bd 7a7a 30bd
00000220: ee65 0b3c de75 05bd e6eb 613d 1aa2 9e3d
00000230: 3022 58bd 997b 2dbd 7704 3c3d 5ee6 b3bc
00000240: 7183 f9ba 7d5a e63c 83df 0abd f69e 2b3d
00000250: 6dd3 f5bd e17d 02bd b955 b23d 81ac 17bd
00000260: 2cfe 513d 0923 51bd 0905 763c 0eb0 b1bd
00000270: 3250 383c 944a 8f3c 5acb febc f96d 14bd
00000280: 9d5a e3bc a293 473c ff9a bebc 129a 633d
00000290: 9641 693d af23 393c f9da 13bd fa8d c13c
000002a0: 9a35 9839 dc7f c23c f4dd 8d3c 8e20 5f3c
000002b0: b151 47bd 48e5 49bd d6a7 05bd 46bb c53a
000002c0: 3b07 45bd 2022 64bd 594b 1a3d 11d9 0fbd
000002d0: d7de 0fbc 6faf 71bd db8a 093d ae97 363b
000002e0: f827 21bc 657b 143d bfbe b4bd 6cc0 10bd
000002f0: 0776 40bd 7670 db3c e24a 913d a99f 4e3c
00000300: f43a 463d 143a 1c3d b2ae 933c 1425 943a
00000310: b9f7 5cbd a947 20bd 5fb9 4e3d e11f 113d
00000320: fb8f 23bd 6209 0c3d af24 893d 981c 72bc
00000330: ef9c 6f3c b269 303d c784 aabb dcca 9fbc
00000340: 603a 7bbb a071 cebd 662f f5bc cfd8 0b3d
00000350: 659b 9dbd 05e6 58bc 50f3 783c 9056 a8bd
00000360: 2ec0 67bd 3ea4 88bd 6bcf 9fbd 4806 953c
00000370: 31e3 463c f0fc f03c 2b5c 5dbd c8ad 66bd
00000380: d30a d7bd 54d8 8d3d c94e 34bd ed31 55bc
00000390: 3e47 983b acee a9bc 0502 6a3d 62eb 83bd
000003a0: 1eb1 7dbd 2162 673d bf24 95bd 0485 b8bd
000003b0: 92a2 bebd 4fb3 a6bd 0f3b bbbc 7872 a2bd
000003c0: 7ed2 f7bd 0ca2 753d bb5c c2bb 1767 11bc
000003d0: 91aa 18bd 34f6 853c f366 df3c c794 2dbd
000003e0: d722 adbd ad24 2bbd ec0b b6bc a324 b4bc
000003f0: 4fa1 41bd 17bb 96bd 2cbf 45bc d5dc 03bc

net.2.bias f4 [128]
0.44370833 -0.08343535 -0.055925287 -0.3042774 -0.07385888 -0.122552276 0.523567 -0.038168408
-0.04283044 -0.058097817 -0.04643351 0.0196178 -0.3199605 -0.19912077 0.6761015 -0.0704966
-0.19850118 0.92305136 -0.028751476 0.37801695 0.050513208 -0.074148074 0.9813384 0.7179525
0.3459895 -0.03408873 -0.054778278 0.16904695 0.03506537 -0.07312652 -0.038679935 -0.086979784
-0.1485385 -0.028100755 0.6725782 -0.07665546 0.44853964 -0.14187403 -0.111046486 0.032660037
0.025912821 0.7983375 -0.0150783975 0.57502383 0.6924187 -0.040259615 0.38241884 0.46862268
0.14526257 -0.14091639 -0.0012550118 -0.13827147 0.60447013 -0.1152011 0.36158243 0.8497242
0.021739917 -0.054157574 0.025595639 0.62689847 0.047426578 -0.050494943 0.5103485 -0.0847233
0.025873927 0.45939073 -0.056010365 0.10652549 -0.026950816 0.89151967 -0.052365832 -0.0016369243
0.016268037 0.16190572 -0.12118098 -0.0073113707 -0.11265614 -0.022729732 0.19890565 0.0014215752
0.574164 0.73839575 0.63245726 0.014022913 0.564042 0.02293159 0.031481635 -0.11700348
-0.02050241 0.55311364 -0.12947598 -0.079672664 0.32911158 -0.056054402 -0.077836655 -0.10803487
0.6802524 0.9725703 -0.10019099 0.174296 -0.1137338 -0.081371926 0.17231482 0.38958466
-0.17481682 0.049474034 0.5668518 0.77477247 -0.0204336 -0.14967623 0.0027791555 0.010574802
0.6884873 -0.064688876 0.018905701 -0.027032297 -0.11413699 0.49703795 0.44938102 -0.10370191
-0.061538108 0.021390146 0.025629118 0.501049 -0.08395428 0.92507815 0.0012562193 0.6414917
00000000: bd2d e33e 27e0 aabd ea11 65bd 3fca 9bbe
00000010: 5343 97bd b0fc fabd 7d08 063f 7a56 1cbd
00000020: f96e 2fbd faf7 6dbd 1031 3ebd 82b5 a03c
00000030: ddd1 a3be 51e6 4bbe fd14 2d3f 8560 90bd
00000040: e543 4bbe 184d 6c3f 3788 ebbc 708b c13e
00000050: f0e6 4e3d f2da 97bd fe38 7b3f bccb 373f
00000060: 8925 b13e a0a0 0bbd 305f 60bd a51a 2d3e
00000070: b5a0 0f3d 5bc3 95bd da6e 1ebd 7522 b2bd
00000080: 7a1a 18be 8e33 e6bc 162e 2c3f 8afd 9cbd
00000090: fda6 e53e 6d47 11be 576c e3bd 88c6 053d
000000a0: 2047 d43c d95f 4c3f 620b 77bc c334 133f
000000b0: 5a42 313f 44e7 24bd 67cc c33e 50ef ef3e
000000c0: b6bf 143e 634c 10be 357f a4ba 0997 0dbe
000000d0: 8ebe 1a3f 8eee ebbd 5521 b93e 8687 593f
000000e0: e917 b23c 55d4 5dbd f2ad d13c 6b7c 203f
000000f0: 5f42 423d c9d3 4ebd 33a6 023f 6983 adbd
00000100: 8ff5 d33c 4335 eb3e 206b 65bd 092a da3d
00000110: f5c7 dcbc a23a 643f 8e7d 56bd 118e d6ba
00000120: 8c44 853c 9dca 253e bc2d f8bd 3994 efbb
00000130: 43b8 e6bd b433 babc ecad 4b3e 2654 ba3a
00000140: 69fc 123f 8107 3d3f b8e8 213f 5cc0 653c
00000150: 0e65 103f 08db bb3c e3f2 003d 859f efbd
00000160: acf4 a7bc db98 0d3f 5a95 04be 6c2b a3bd
00000170: 5081 a83e 4d99 65bd d368 9fbd 6341 ddbd
00000180: 0525 2e3f 5efa 783f ef30 cdbd a77a 323e
00000190: 44ed e8bd 53a6 a6bd 4c73 303e a477 c73e
000001a0: 2e03 33be 49a5 4a3d 331d 113f 7d57 463f
000001b0: 5d64 a7bc ba44 19be 7e22 363b ef41 2d3c
000001c0: b440 303f 9a7b 84bd 21e0 9a3c d672 ddbc
000001d0: a7c0 e9bd c27b fe3e 4515 e63e ab61 d4bd
000001e0: 620f 7cbd 633a af3c 28f4 d13c bf44 003f
000001f0: 39f0 abbd ecd1 6c3f baa7 a43a cd38 243f

net.4.weight f4 [13, 128]
0.11123787 0.0094443755 -0.024912627 -0.8890686 -0.0539842 -0.007745217 0.14445788 -0.013879576
-0.41135642 -0.04135084 -0.0006780542 -0.027250655 -0.9448054 -0.51653177 0.16146466 -0.06334593
-0.15771456 0.15579088 -0.019725908 0.22603633 0.00524968 -0.009127886 0.19818519 0.052067664
0.16589065 0.02552292 0.019832227 0.01037962 0.045039732 -0.009120783 0.014630132 0.014768985
0.25171512 0.0072862767 0.19677353 -0.032234117 0.43386716 -0.0017403417 0.013063336 -0.02074427
-0.016316414 0.08881972 0.023953935 0.35094163 0.030012384 0.0020384926 0.20080823 0.21977189
-0.031289387 0.027471285 -0.024877528 0.017581355 0.2060239 -0.0063520293 0.18871239 0.15111805
0.022023067 0.00034044514 0.047314093 0.08644202 -0.047198527 -0.008884377 0.117255054 -0.004127386
-0.042299367 0.1615227 0.0041011786 0.0074464586 -0.020241885 0.17845607 -0.018961499 0.005706497
-0.02385997 0.0066098697 -0.022242228 -0.060254633 -0.0118331835 -0.019650023 0.016160827 -0.019920137
0.20365472 0.17461017 0.22296399 -0.025382848 0.19907913 -0.012248962 -0.50980455 0.046125863
0.017773619 0.07635158 0.013618779 -0.015717184 0.33764097 -0.010890237 0.019247698 -0.02018038
0.046258725 0.1752598 -0.025052976 -1.064623 0.016496332 0.0136042265 0.015949007 0.1499698
-0.010566582 -0.030128175 0.24696258 0.082166605 -0.048155997 -0.17788084 -0.012582718 0.5312185
0.06199408 0.024899479 -0.05722246 0.0042576375 -0.028235028 0.36331508 0.08100669 -0.03898168
-0.02473491 -0.026352696 -0.019455535 0.29587266 0.06491881 0.16998811 -0.021478496 0.3141382
-0.0086886585 -0.03376761 0.08707415 -0.0076448023 -0.082634374 0.0005926937 -0.04206918 -0.0065692887
-0.061308756 0.045119144 0.04491233 -0.02121409 -0.0332623 0.045748465 -0.064670056 -0.057376
-0.046409737 0.07229345 -0.047156747 0.05331319 0.053565837 -0.04733523 -0.030492328 0.078028716
-0.069671996 -0.0678897 0.041869022 -0.044360884 0.06775906 0.027023502 0.045694016 0.02186615
-0.04648183 0.030424759 -0.05791509 0.05470141 -0.04324397 -0.028684806 0.04610189 0.036948778
-0.042971767 0.01837597 0.04547479 0.0023926124 0.073603 0.016305186 -0.035205726 0.07257373
0.048433013 0.05151718 -0.040702697 -0.003868647 0.041778736 0.051092945 0.07861709 -0.040326346
0.07491168 0.08822138 -0.048775494 -0.033499915 0.03456577 -0.01085566 -0.038585976 -0.0771048
-0.05083623 0.07683372 0.006824672 -0.022982836 0.08190524 0.017097652 0.056597166 -0.080959804
0.081286915 0.030103952 -0.048107803 0.013511017 -0.054966442 -0.04346301 0.07162935 -0.082604684
0.06962431 0.05553282 0.0006515905 -0.078904696 -0.04811106 -0.07945685 0.030474603 -0.072029844
0.04434713 -0.08029289 0.028680474 0.039575048 0.074657165 -0.045290254 0.047750793 -0.047545575
0.05579906 0.0500466 0.08096809 0.063003846 0.053406022 0.038430937 0.06944095 -0.08360041
0.047394864 0.052801855 -0.032900788 -0.06373147 0.07458297 0.059584625 0.067877494 0.024692513
-0.028565165 0.08739639 -0.08505359 -0.07880567 -0.08067537 -0.07949324 0.08797688 0.013814494
-0.058098808 0.0040750206 -0.03902328 0.04724919 -0.07745911 0.029576235 -0.074930474 -0.0044631287
00000000: aed0 e33d 95bc 1a3c 9115 ccbc 009a 63bf
00000010: 891e 5dbd 97cb fdbb c4ec 133e 2967 63bc
00000020: 4f9d d2be 805f 29bd 72bf 31ba c43c dfbc
00000030: c4de 71bf 6d3b 04bf fe56 253e 83bb 81bd
00000040: ed7f 21be a587 1f3e 3a98 a1bc 1176 673e
00000050: 8205 ac3b 218d 15bc 0ff1 4a3e e744 553d
00000060: 3ddf 293e 7115 d13c 3277 a23c 480f 2a3c
00000070: 957b 383d 566f 15bc 39b3 6f3c 9df9 713c
00000080: cee0 803e b8c1 ee3b 007f 493e ec07 04bd
00000090: d623 de3e 2d1c e4ba 9a07 563c e3ef a9bc
000000a0: 00aa 85bc 1de7 b53d 0b3b c43c 9fae b33e
000000b0: 88dc f53c 3b98 053b aca0 4d3e e20b 613e
000000c0: 4d29 00bd 760b e13c f5cb cbbc c606 903c
000000d0: eef7 523e af24 d0bb d23d 413e b1be 1a3e
000000e0: b869 b43c c67d b239 6ccc 413d 8408 b13d
000000f0: 3e53 41bd c78f 11bc 6b23 f03d 063f 87bb
00000100: 1a42 2dbd 3566 253e 2e63 863b 6c01 f43b
00000110: 4fd2 a5bc 30bd 363e 2555 9bbc 91fd ba3b
00000120: fc75 c3bc 9b97 d83b 5535 b6bc 90cd 76bd
00000130: f8df 41bc 16f9 a0bc b663 843c 8e2f a3bc
00000140: dd8a 503e 02cd 323e ac50 643e b1ef cfbc
00000150: 66db 4b3e dfaf 48bc 8d82 02bf 79ee 3c3d
00000160: fb99 913c 385e 9c3d 4d21 5f3c 53c1 80bc
00000170: 47df ac3e f76c 32bc 59ad 9d3c 5351 a5bc
00000180: ca79 3d3d 4e77 333e e63b cdbc 9145 88bf
00000190: 5123 873c 43e4 5e3c 7ea7 823c af91 193e
000001a0: 751f 2dbc 5dcf f6bc c2e3 7c3e f746 a83d
000001b0: 393f 45bd 6526 36be bf27 4ebc f0fd 073f
000001c0: 81ed 7d3d fef9 cb3c 1962 6abd a783 8b3b
000001d0: 254d e7bc 6f04 ba3e d6e6 a53d 41ab 1fbd
000001e0: dea0 cabc 9ce1 d7bc 3761 9fbc 9f7c 973e
000001f0: 27f4 843d 5d11 2e3e acf3 afbc b9d6 a03e
00000200: e05a 0ebc e84f 0abd ef53 b23d 4081 fabb
00000210: 363c a9bd 005f 1b3a bc50 2cbd 3043 d7bb
00000220: e41e 7bbd dace 383d fef5 373d 2cc9 adbc
00000230: 0d3e 08bd be62 3b3d bc71 84bd 1903 6bbd
00000240: 2318 3ebd 970e 943d 6f27 41bd ee5e 5a3d
00000250: da67 5b3d 96e2 41bd 0ccb f9bc 85cd 9f3d
00000260: 31b0 8ebd c109 8bbd da7e 2b3d c2b3 35bd
00000270: 43c5 8a3d 6460 dd3c a629 3b3d a420 b33c
00000280: bb63 3ebd 583d f93c 6038 6dbd 960e 603d
00000290: 9720 31bd 66fc eabc 56d5 3c3d 9a57 173d
000002a0: 2a03 30bd 3489 963c c643 3a3d 60cd 1c3b
000002b0: 2bbd 963d 7492 853c e133 10bd 89a1 943d
000002c0: b261 463d ae03 533d dfb7 26bd 2089 7dbb
000002d0: 2e20 2b3d d646 513d ff01 a13d 3d2d 25bd
000002e0: 4b6b 993d 69ad b43d d0c8 47bd 3537 09bd
000002f0: d694 0d3d f0db 31bc 540c 1ebd 1fe9 9dbd
00000300: a739 50bd ff5a 9d3d 80a1 df3b 8046 bcbc
00000310: efbd a73d 6010 8c3c 6ed2 673d 41ce a5bd
00000320: c179 a63d 909c f63c b00c 45bd 505d 5d3c
00000330: 7e24 61bd 4506 32bd 69b2 923d a52c a9bd
00000340: 3197 8e3d 6276 633d 80cf 2a3a c998 a1bd
00000350: 1a10 45bd 46ba a2bd e0a5 f93c 6284 93bd
00000360: 56a5 353d 9970 a4bd 50f3 ea3c 7219 223d
00000370: dbe5 983d 4682 39bd 5696 433d 26bf 42bd
00000380: 8e8d 643d aafd 4c3d 99d2 a53d 2908 813d
00000390: 46c0 5a3d c269 1d3d 0f37 8e3d b136 abbd
000003a0: 1e21 423d c246 583d fac2 06bd a585 82bd
000003b0: f5be 983d 020f 743d 5b03 8b3d f447 ca3c
000003c0: 7e01 eabc e1fc b23d 9430 aebd de64 a1bd
000003d0: 2139 a5bd 5acd a2bd 392d b43d 3056 623c
000003e0: 04f9 6dbd c087 853b e0d6 1fbd 5e88 413d
000003f0: e2a2 9ebd dc49 f23c 2675 99bd 703f 92bb
