checkpoints2/team2_agent_3.pt (torch, 411297 bytes, 24 tensors)

net.0.weight f4 [128, 53]
-0.19909158 -0.027283464 -0.013526529 -0.022620313 0.0785674 -0.22223674 0.029260663 -0.15766905
-0.031761732 -0.06370168 -0.07401669 0.051397517 -0.055045657 -0.087995835 -0.022446655 -0.00773831
0.007121549 -0.061703976 0.022644654 -0.02037231 0.16543017 0.026201341 0.049100507 -0.19756044
0.10683781 0.04533307 -0.0016319506 0.04499507 0.14014374 0.07865505 0.117961615 -0.08309473
-0.027132645 -0.12529594 -0.0362378 0.13394013 -0.02878955 0.05997715 -0.022116762 0.10499868
-0.1635458 -0.099836655 -0.041172806 -0.0026088085 0.06534547 -0.17899992 0.2101098 0.00017866645
-0.09076621 0.073529094 0.09398679 -0.027423222 -0.16685618 -0.63785064 0.7324454 0.50191677
-0.30534345 -1.0964533 0.03465679 -0.5874555 1.703995 -0.5566086 2.3145716 -1.1440233
-0.30928695 0.5367579 -1.4216001 0.8194655 0.74602634 0.11053206 0.90660787 0.18238342
-1.2379453 0.818603 0.8741872 -0.49550912 -0.93989277 -0.6016101 -0.2699211 0.9146827
1.9106078 0.7136138 -1.7268137 1.1958096 1.2757622 -0.29481226 -0.16512372 0.8448039
0.7222232 -0.024519699 0.5049108 -1.164192 -0.07027867 0.46195564 0.47681788 1.2019998
0.022094494 -1.4931157 -0.7290832 -0.029586505 1.5167991 0.004000802 0.6243162 0.15000647
0.18544759 0.6548276 0.051610403 0.10078724 0.5500969 -0.5068428 -0.15929794 -0.4346611
-1.9613776 0.28437054 -1.557358 1.4588971 -0.5182632 1.5125258 0.17966522 1.6087449
-1.6146976 0.23568264 0.2727806 0.61674374 -1.5679921 1.2300427 0.22067654 0.34856844
0.5515278 1.5356739 -1.2125962 -0.8914158 -0.8096321 -0.24822542 0.1269276 -0.1427942
-0.9201991 -0.6910173 -0.92910737 0.38438547 0.33261594 -0.10983809 -0.63554054 0.6000185
-2.4724908 0.11115702 0.58294004 -0.7165469 0.49526733 -0.88593566 0.8165276 -1.2927947
0.27810338 -1.0270246 -0.75495625 -0.22164312 -0.69356346 0.77266675 -0.4807201 -0.16146268
-0.015031824 0.46255234 0.28169292 -2.507367 -0.28431964 2.8702207 -0.40446296 0.5674048
-0.41313794 3.609759 0.58711475 0.2819356 0.31734475 -1.5096776 -2.56381 0.29586387
-1.1133642 -0.3950937 0.56021214 -1.0114918 -1.0812454 -0.020762203 0.057101436 0.72353363
0.046413977 -0.21115035 0.73524565 -0.64230037 -1.5735399 0.7917254 -1.0386078 1.1726992
-0.26626003 0.2742924 0.4978268 1.2250717 0.23208028 0.026858598 0.6804909 0.66540855
0.19470014 1.7140406 0.10754614 -0.50164133 -0.7168276 0.07746126 0.014969233 -0.002009026
0.21313085 0.09238896 -0.52055067 0.199143 0.086515576 -0.2478025 -0.23237127 -0.3677242
0.2373561 -0.058254242 -0.03760396 -0.5571735 -2.35751 0.2167329 -0.39880067 -0.46314394
-0.84869015 0.75719786 0.3199378 -1.378146 -0.14753939 -1.3319999 -0.5517439 -0.574824
0.020454008 -1.8744286 0.05706747 0.08706847 1.7911454 -0.38034785 -1.1115577 0.28955916
-0.9581257 0.18196005 -0.62033755 0.67361134 -1.7238636 0.36065075 0.08894145 -0.5072902
-0.7432371 -0.049153104 2.0029926 -2.6470528 -0.32693654 -0.4425768 -0.74497896 0.3302695
00000000: aade 4bbe 9281 dfbc 609e 5dbc 3c4e b9bc
00000010: f2e7 a03d 0792 63be 0fb4 ef3c ff73 21be
00000020: 9718 02bd 0776 82bd 1096 97bd 3486 523d
00000030: 8e77 61bd 2937 b4bd 0ce2 b7bc a691 fdbb
00000040: e25b e93b 4fbd 7cbd 4881 b93c d5e3 a6bc
00000050: 8766 293e 32a4 d63c 9d1d 493d 494d 4abe
00000060: c8cd da3d 2baf 393d 2de7 d5ba c04c 383d
00000070: d781 0f3e e615 a13d dc95 f13d 922d aabd
00000080: 4845 debc 944d 00be 166e 14bd 9a27 093e
00000090: 10d8 ebbc 9aaa 753d 362e b5bc 8c09 d73d
000000a0: 8d78 27be 2977 ccbd d1a4 28bd 8bf8 2abb
000000b0: d9d3 853d c14b 37be 0627 573e 6958 3b39
000000c0: a2e3 b9bd 6c96 963d 257c c03d aaa6 e0bc
000000d0: 59dc 2abe 2e4a 23bf 8b81 3b3f 9e7d 003f
000000e0: fa55 9cbe 9558 8cbf 47f4 0d3d 7c63 16bf
000000f0: 821c da3f e77d 0ebf f121 1440 5b6f 92bf
00000100: dc5a 9ebe f768 093f fef6 b5bf 7ec8 513f
00000110: 95fb 3e3f a25e e23d 7417 683f b8c2 3a3e
00000120: fe74 9ebf f78f 513f bbca 5f3f 5fb3 fdbe
00000130: d09c 70bf 1f03 1abf 1933 8abe a528 6a3f
00000140: cc8e f43f 65af 363f 3b08 ddbf 4a10 993f
00000150: 2d4c a33f a2f1 96be 3116 29be 1245 583f
00000160: 9fe3 383f 89dd c8bc d641 013f 3e04 95bf
00000170: 43ee 8fbd 7385 ec3e 7921 f43e 21db 993f
00000180: 83ff b43c 6a1e bfbf 32a5 3abf 665f f2bc
00000190: 7926 c23f 2919 833b 30d3 1f3f 4c9b 193e
000001a0: f9e5 3d3e c8a2 273f 6e65 533d 8a69 ce3d
000001b0: 27d3 0c3f 73c0 01bf 001f 23be e68b debe
000001c0: 6c0e fbbf 0499 913e 8257 c7bf 24bd ba3f
000001d0: e6ac 04bf 729a c13f 29fa 373e 5aeb cd3f
000001e0: 69ae cebf ca56 713e e6a9 8b3e ebe2 1d3f
000001f0: f7b3 c8bf 0a72 9d3f 08f9 613e 9077 b23e
00000200: ed30 0d3f f690 c43f 5a36 9bbf d333 64bf
00000210: 0d44 4fbf ce2e 7ebe 4ff9 013e a538 12be
00000220: 2b92 6bbf 83e6 30bf fbd9 6dbf 2cce c43e
00000230: a34c aa3e cbf2 e0bd c9b2 22bf d09a 193f
00000240: 4a3d 1ec0 4ba6 e33d 8f3b 153f 9e6f 37bf
00000250: ae93 fd3e aecc 62bf f407 513f 4c7a a5bf
00000260: 9163 8e3e 8b75 83bf d044 41bf 6af6 62be
00000270: 608d 31bf 7dcd 453f f220 f6be 7956 25be
00000280: 0a48 76bc a9d3 ec3e 0e3a 903e b378 20c0
00000290: 5892 91be b2b1 3740 c515 cfbe 7141 113f
000002a0: d186 d3be 4b06 6740 274d 163f dd59 903e
000002b0: 037b a23e 1e3d c1bf 7715 24c0 787b 973e
000002c0: b882 8ebf b949 cabe 106a 0f3f 9078 81bf
000002d0: 4066 8abf 7f15 aabc 32e3 693d 8039 393f
000002e0: 951c 3e3d cc37 58be 0f39 3c3f cc6d 24bf
000002f0: c169 c9bf 84ae 4a3f 1af1 84bf 021b 963f
00000300: 3c53 88be 0e70 8c3e 28e3 fe3e 26cf 9c3f
00000310: 74a6 6d3e 9006 dc3c a734 2e3f 3758 2a3f
00000320: 795f 473e af65 db3f 2741 dc3d 916b 00bf
00000330: 0382 37bf 02a4 9e3d 8441 753c dda9 03bb
00000340: f93e 5a3e 6c36 bd3d cf42 05bf 25ec 4b3e
00000350: 142f b13d f0bf 7dbe bcf2 6dbe 5946 bcbe
00000360: 7a0d 733e 009c 6ebd 9c06 1abd eca2 0ebf
00000370: 72e1 16c0 3bef 5d3e 9a2f ccbe 3421 edbe
00000380: c243 59bf b8d7 413f e3ce a33e 1767 b0bf
00000390: 9114 17be f97e aabf 173f 0dbf aa27 13bf
000003a0: 2a8f a73c 47ed efbf 94bf 693d f450 b23d
000003b0: 4144 e53f f4bc c2be 8647 8ebf 1941 943e
000003c0: ba47 75bf bc53 3a3e 71ce 1ebf cb71 2c3f
000003d0: 90a7 dcbf 37a7 b83e ef26 b63d c5dd 01bf
000003e0: c944 3ebf c454 49bd 0831 0040 5069 29c0
000003f0: 3a64 a7be 6d99 e2be f1b6 3ebf 1519 a93e

net.0.bias f4 [128]
-0.12562343 0.17737927 -0.30572683 -0.03823317 0.064834096 0.18160823 0.115831636 -0.0813164
-0.07513786 0.37260836 -0.2230806 -0.21537644 0.1765875 0.34708267 0.04683529 0.5718643
-0.18376598 -0.124101594 -0.05561056 -0.119579606 0.32325372 -0.12196764 0.058182564 0.41901433
0.18356626 -0.17658342 0.03819264 0.059774034 -0.008629081 0.5737642 0.3134282 0.2877324
0.5233717 0.1462193 0.70332116 0.46415877 0.45844203 -0.21646357 0.118903846 0.06540808
0.2158212 0.50465333 0.111379094 0.5376566 -0.2366779 0.14102976 0.16937937 -0.021881895
-0.01928691 -0.05078335 0.09253687 -0.1280068 -0.050598305 0.131354 0.19951247 0.113924846
0.038579583 -0.04422448 -0.056057747 -0.019874508 -0.13100663 -0.14357644 -0.057824712 -0.11449795
0.8115659 0.27982718 -0.17695197 -0.25735465 0.57968295 -0.23721725 0.1963012 -0.155228
0.13119 0.115809545 0.35197544 0.09689393 0.42443058 -0.18010247 0.2260139 -0.10480089
-0.12015571 0.2946816 0.39139947 0.72931856 0.4285995 -0.1510203 -0.0939088 -0.23527364
0.37719396 0.36858785 -0.18660145 0.16840029 0.13358402 0.7054449 -0.22525525 0.28135535
-0.20753884 -0.31187788 0.08199352 0.16373485 -0.2093732 0.19685152 0.26415038 0.18225475
-0.42249912 0.018120298 -0.19871254 0.15603733 0.7142718 0.024987523 0.3967731 -0.034449194
0.42940784 0.02562089 0.058860052 0.3999154 -0.18984999 0.47411284 -0.17435424 0.21844953
0.13243584 -0.019050328 -0.16936226 0.577491 -0.08866922 -0.08721835 0.06175555 0.29221958
00000000: 6ea3 00be e9a2 353e 3a88 9cbe 629a 1cbd
00000010: bdc7 843d 82f7 393e 2339 ed3d 3689 a6bd
00000020: e1e1 99bd 86c6 be3e 3e6f 64be a48b 5cbe
00000030: 5bd3 343e d2b4 b13e 5cd6 3f3d b365 123f
00000040: 262d 3cbe fa28 febd e6c7 63bd 27e6 f4bd
00000050: 8381 a53e 2cca f9bd d750 6e3d 0c89 d63e
00000060: cbf8 3b3e 49d2 34be e36f 1c3d 9ed5 743d
00000070: fd60 0dbc 36e2 123f a979 a03e a951 933e
00000080: b0fb 053f 83ba 153e db0c 343f 38a6 ed3e
00000090: eab8 ea3e a0a8 5dbe dc83 f33d acf4 853d
000000a0: 3c00 5d3e f630 013f b91a e43d dda3 093f
000000b0: b15b 72be 1b6a 103e c971 2d3e a941 b3bc
000000c0: 95ff 9dbc 3402 50bd f883 bd3d 3714 03be
000000d0: 2b40 4fbd aa81 063e ff4c 4c3e 6e51 e93d
000000e0: a005 1e3d ba24 35bd cf9c 65bd ddcf a2bc
000000f0: 9a26 06be b405 13be 9bd9 6cbd e77d eabd
00000100: c8c2 4f3f 8245 8f3e e632 35be fdc3 83be
00000110: 1a66 143f 14e9 72be 2f03 493e 17f4 1ebe
00000120: ac56 063e 8e2d ed3d 2036 b43e 5370 c63d
00000130: f74e d93e c86c 38be 3070 673e d9a1 d6bd
00000140: 3214 f6bd 82e0 963e 8365 c83e 9fb4 3a3f
00000150: 6571 db3e 11a5 1abe 4253 c0bd 93eb 70be
00000160: 911f c13e 8cb7 bc3e 7314 3fbe 2071 2c3e
00000170: 40ca 083e 0998 343f 50a9 66be cf0d 903e
00000180: 1085 54be 75ae 9fbe 38ec a73d 1caa 273e
00000190: ee65 56be 7293 493e b83e 873e fda0 3a3e
000001a0: ce51 d8be 0571 943c 4d7b 4bbe 40c8 1f3e
000001b0: 84da 363f a2b2 cc3c d825 cb3e 991a 0dbd
000001c0: 58db db3e e7e2 d13c 3d17 713d b6c1 cc3e
000001d0: 0968 42be ebbe f23e eb89 32be 3cb1 5f3e
000001e0: 439d 073e 6f0f 9cbc 4d6d 2dbe 73d6 133f
000001f0: 3598 b5bd 899f b2bd 63f3 7c3d ce9d 953e

net.2.weight f4 [128, 128]
-0.028916057 0.0072205365 -0.06899937 -0.12809062 -0.10426762 0.009762206 -0.04069584 0.016661622
-0.022041904 0.013254172 -0.027412914 0.053665668 0.023898045 0.06303991 -0.033429496 -0.032477286
0.026279658 -0.0586312 -0.03696225 0.02930326 0.0035111983 -0.006953943 0.020881223 0.04381945
-0.08741663 -0.05900089 0.08515064 -0.026729923 0.08613666 -0.07516014 -0.0178463 -0.08667539
0.029012553 -0.06152214 -0.04703406 -0.02052854 -0.09383033 0.015068691 -0.057680354 -0.044017162
-0.019596828 -0.06720143 -0.111185215 -0.014825103 0.07044868 0.030922309 0.00846475 -0.037531428
-0.04245118 0.03269892 -0.05022801 -0.12594399 -0.008684324 0.0027812757 -0.06541421 -0.03697747
-0.041766126 -0.030853916 -0.069986954 -0.07970564 -0.053442914 -0.09816868 0.03666064 0.05385048
-0.104974724 -0.12289744 -0.059729103 -0.038016703 0.04621317 -0.065227695 -0.02444089 0.08097426
-0.11985196 -0.06510954 0.06613368 0.034563642 -0.07950063 -0.06012117 0.022599313 -0.016355254
-0.061754532 -0.12884851 0.028243955 0.004987328 -0.1316617 -0.0753857 -0.036914703 -0.07814371
0.02406352 -0.03202998 0.027231187 -0.03317413 0.016966628 -0.06285925 -0.1020605 -0.10950551
-0.045453794 0.027287463 -0.12971966 -0.028260387 0.07669454 -0.10231386 0.008047222 -0.070611045
0.02036063 -0.021945028 0.021042617 -0.008258921 -0.0054169404 0.00585039 -0.028770868 -0.031420812
-0.07632106 -0.041398153 0.015577826 0.03123372 -0.0783282 -0.056881078 -0.037650958 -0.111387275
-0.028702125 -0.10588294 0.037968762 -0.04385491 0.07320076 0.04124781 -0.0834945 -0.009267315
-0.017269649 0.06179329 -0.060131755 -0.06502472 -0.08516149 0.011552885 0.04956419 0.0047583655
-0.02592745 -0.013402765 0.041300707 -0.037016217 -0.0501358 0.036256973 -0.10873458 -0.10488325
-0.060497135 0.002337787 -0.03236257 -0.056087803 -0.058143362 -0.07832427 -0.023948306 -0.122907445
-0.011505487 -0.0012527585 -0.027833104 -0.013267036 -0.022161983 0.047408547 -0.03611669 -0.09964094
-0.0348714 0.04840935 -0.0011154348 -0.10053711 0.021556618 -0.020106092 0.019847246 -0.102811426
-0.1357313 -0.078136235 0.0039143595 -0.031055832 0.03736169 -0.0030100644 0.01914739 -0.07085531
0.011329482 0.017020214 0.035059325 -0.012119427 -0.052558832 -0.038125258 -0.021599099 -0.011705347
-0.10501823 -0.011317057 -0.0115148425 -0.11775158 3.97861e-05 -0.02010779 0.0469782 -0.042057846
-0.024484139 -0.017357014 -0.02248387 0.04433418 0.085839994 0.038319446 -0.05779868 -0.08783883
-0.11531194 -0.0020354167 -0.02109178 -0.08064088 0.0691394 0.012044586 -0.02306258 -0.042643495
-0.0338862 0.05705766 0.023667196 0.0015881972 -0.08903178 -0.010605909 0.011730246 -0.09184937
-0.07830784 -0.06355323 -0.08029785 -0.11932582 0.004441065 -0.056399852 -0.01709971 -0.10030984
-0.07076705 -0.055688314 -0.079460375 0.05635443 -0.06878765 -0.09233719 -0.0053355787 0.027514983
-0.02633199 -0.08662274 0.05397625 -0.09598343 0.03497575 -0.032652874 -0.06586349 -0.025297321
-0.11403596 0.06933116 -0.10821909 0.07383562 -0.041887783 0.040751263 -0.03528007 0.021018192
-0.058886915 0.0064488207 -0.016106047 0.020281568 -0.101687066 -0.09246353 -0.02890422 -0.08276996
00000000: 5ee1 ecbc 409a ec3b 8b4f 8dbd 302a 03be
00000010: 438a d5bd a9f1 1f3c aeb0 26bd f47d 883c
00000020: 3991 b4bc 0728 593c 0c91 e0bc 88d0 5b3d
00000030: d5c5 c33c 111b 813d 5eed 08bd e706 05bd
00000040: 7048 d73c 4527 70bd ba65 17bd 640d f03c
00000050: 221c 663b e7dd e3bb 190f ab3c 067c 333d
00000060: 7d07 b3bd ebaa 71bd 7563 ae3d b6f8 dabc
00000070: 6b68 b03d 8fed 99bd 6732 92bc de82 b1bd
00000080: bcab ed3c a4fe 7bbd c9a6 40bd 782b a8bc
00000090: 1e2a c0bd ace2 763c 3c42 6cbd 574b 34bd
000000a0: 8789 a0bc e7a0 89bd 13b5 e3bd fde4 72bc
000000b0: 6647 903d c850 fd3c bcaf 0a3c 8eba 19bd
000000c0: 4ae1 2dbd 4eef 053d e3bb 4dbd 76f7 00be
000000d0: b248 0ebc 1046 363b e3f7 85bd b075 17bd
000000e0: f512 2bbd 5ac1 fcbc 5255 8fbd b63c a3bd
000000f0: f5e6 5abd a90c c9bd 7829 163d 5292 5c3d
00000100: fdfc d6bd a7b1 fbbd 81a6 74bd 67b7 1bbd
00000110: 054a 3d3d 1996 85bd 4338 c8bc d5d5 a53d
00000120: f274 f5bd 2758 85bd 1871 873d 9b92 0d3d
00000130: 3ad1 a2bd 9e41 76bd 3222 b93c 74fb 85bc
00000140: 52f2 7cbd ddf0 03be de5f e73c bd6c a33b
00000150: 53d2 06be d163 9abd df33 17bd cf09 a0bd
00000160: dc20 c53c de31 03bd f013 df3c 99e1 07bd
00000170: 99fd 8a3c 5abc 80bd 1805 d1bd 6d44 e0bd
00000180: c22d 3abd f589 df3c 3bd5 04be 5482 e7bc
00000190: 0712 9d3d ee89 d1bd 7fd8 033c 869c 90bd
000001a0: 56cb a63c 0fc6 b3bc 9161 ac3c 6d50 07bc
000001b0: 9780 b1bb a1b4 bf3b e2b0 ebbc 1cb3 00bd
000001c0: 374e 9cbd 1c91 29bd 233a 7f3c dcdd ff3c
000001d0: 896a a0bd 22fc 68bd e437 1abd 031f e4bd
000001e0: b820 ebbc 28d9 d8bd 2285 1b3d 35a1 33bd
000001f0: 48ea 953d 77f3 283d 2aff aabd f0d5 17bc
00000200: 1479 8dbc f61a 7d3d b74c 76bd ae2b 85bd
00000210: 2669 aebd 5048 3d3c d203 4b3d 10ec 9b3b
00000220: ce65 d4bc 4597 5bbc ee2a 293d 519e 17bd
00000230: 325b 4dbd 3182 143d 3cb0 debd 08cd d6bd
00000240: d8cb 77bd 8f35 193b 9d8e 04bd 53bc 65bd
00000250: bc27 6ebd 7a68 a0bd 3d2f c4bc e6b6 fbbd
00000260: 8381 3cbc 9a33 a4ba 4002 e4bc fb5d 59bc
00000270: 0c8d b5bc 772f 423d 18ef 13bd 8d10 ccbd
00000280: 50d5 0ebd e248 463d c833 92ba 66e6 cdbd
00000290: 8197 b03c 88b5 a4bc b196 a23c cc8e d2bd
000002a0: 25fd 0abe e405 a0bd 0744 803b cd68 febc
000002b0: 9208 193d 8044 45bb fdda 9c3c 971c 91bd
000002c0: 4b9f 393c fa6d 8b3c 5e9a 0f3d 9090 46bc
000002d0: ee47 57bd 3b29 1cbd 98f0 b0bc c9c7 3fbc
000002e0: cc13 d7bd 2d6b 39bc c0a8 3cbc be27 f1bd
000002f0: 00e0 2638 18b9 a4bc 376c 403d d944 2cbd
00000300: f692 c8bc 4c30 8ebc 1830 b8bc c297 353d
00000310: e1cc af3d daf4 1c3d 4fbe 6cbd d8e4 b3bd
00000320: ab28 ecbd a064 05bb abc8 acbc 0c27 a5bd
00000330: f598 8d3d a856 453c bced bcbc f2aa 2ebd
00000340: 42cc 0abd 4bb5 693d b5e1 c13c 0e2b d03a
00000350: 4b56 b6bd 68c4 2dbc 3830 403c 861b bcbd
00000360: dc5f a0bd 3228 82bd 3373 a4bd 1861 f4bd
00000370: 5a86 913b 8803 67bd b114 8cbc 3f6f cdbd
00000380: 51ee 90bd 6e19 64bd 1fbc a2bd e7d3 663d
00000390: 8ae0 8cbd 481b bdbd 14d6 aebb 1a67 e13c
000003a0: 2fb6 d7bc 4367 b1bd 3316 5d3d f692 c4bd
000003b0: bb42 0f3d 05bf 05bd 70e3 86bd 543c cfbc
000003c0: af8b e9bd 7ffd 8d3d f8a1 ddbd 2137 973d
000003d0: 8692 2bbd ccea 263d d681 10bd 582e ac3c
000003e0: 6833 71bd a150 d33b d4f0 83bc 8825 a63c
000003f0: 4f41 d0bd 855d bdbd 8bc8 ecbc 4c83 a9bd

net.2.bias f4 [128]
-0.031826314 -0.12715276 0.55652994 1.2103605 0.887291 1.2066346 0.17815982 -0.030524673
0.8639755 0.77560884 -0.06036037 -0.043455187 -0.12046687 -0.026939565 -0.13594583 -0.021758296
0.8044829 -0.06957293 -0.030832358 1.604086 0.41636497 -0.022033853 0.4908019 -0.05894555
-0.087809555 -0.13250096 -0.07592866 0.45525724 0.55141395 0.26805001 1.2378716 0.9325362
0.94314444 0.9055233 0.40673426 0.568831 0.2901773 0.61547947 -0.08241815 0.007366296
0.61582273 0.73398477 0.035350766 -0.018812371 -0.13648218 0.56004393 -0.04054542 1.1835562
0.6021803 -0.02370508 0.9080404 1.475689 0.96334165 -0.08154132 1.2660819 0.11955599
0.884607 -0.08555769 -0.10462137 -0.1407615 -0.14364937 -0.037562903 0.43766725 -0.037437595
-0.078507334 -0.06671275 -0.0673685 -0.086047746 0.60135263 -0.11539712 0.56003654 -0.05614571
1.606456 0.8222405 0.7910944 0.63868815 0.8665575 0.67646223 -0.14242825 1.5562192
-0.0072070635 1.3293473 0.73548806 -0.13741934 1.4482701 -0.103218324 -0.065162 0.0033688284
-0.14105451 -0.08179591 1.3149792 0.15042391 -0.07923184 -0.08141771 -0.060798895 -0.12704223
-0.10197475 -0.109198794 -0.08341931 0.51939934 1.4342719 0.035994053 -0.06170695 -0.055517823
-0.056264922 1.4783876 0.49561992 -0.13629887 -0.116200544 -0.11817053 0.81773674 1.4211984
-0.10058929 1.7840782 -0.08159867 1.555975 -0.034859 1.3901424 0.02184466 -0.07003669
0.45092282 -0.085952625 0.82506496 0.010257835 -0.11200501 0.41142553 0.33047062 1.5009674
00000000: 4f5c 02bd 5534 02be bf78 0e3f 18ed 9a3f
00000010: 8125 633f 0173 9a3f 876f 363e e10e fabc
00000020: 802d 5d3f 4d8e 463f 6f3c 77bd 11fe 31bd
00000030: 56b7 f6bd 5db0 dcbc 6235 0bbe 743e b2bc
00000040: 97f2 4d3f 417c 8ebd 2494 fcbc b152 cd3f
00000050: ca2d d53e 5780 b4bc 634a fb3e e470 71bd
00000060: 7fd5 b3bd 55ae 07be 7c80 9bbd 7a17 e93e
00000070: 7729 0d3f da3d 893e 9472 9e3f b1ba 6e3f
00000080: ea71 713f 60d0 673f 793f d03e e99e 113f
00000090: 1e92 943e 1090 1d3f d9ca a8bd f860 f13b
000000a0: 8fa6 1d3f 6de6 3b3f f7cb 103d 671c 9abc
000000b0: fcc1 0bbe 0a5f 0f3f f412 26bd c57e 973f
000000c0: 7d28 1a3f 2831 c2bc 5675 683f 61e3 bc3f
000000d0: 8f9d 763f 23ff a6bd f90e a23f c5d9 f43d
000000e0: 9b75 623f df38 afbd bb43 d6bd c823 10be
000000f0: d218 13be 8fdb 19bd ec15 e03e 2a58 19bd
00000100: 74c8 a0bd b2a0 88bd 7ff8 89bd cd39 b0bd
00000110: 3ff2 193f 5355 ecbd 8e5e 0f3f 0bf9 65bd
00000120: 5aa0 cd3f 5a7e 523f 2a85 4a3f 1181 233f
00000130: b6d6 5d3f a12c 2d3f b6d8 11be 3132 c73f
00000140: 3b29 ecbb 0d28 aa3f f248 3c3f a8b7 0cbe
00000150: ea60 b93f 2164 d3bd a873 85bd 90c7 5c3b
00000160: 9870 10be 9d84 a7bd 3d51 a83f ba08 1a3e
00000170: 4e44 a2bd 54be a6bd 4308 79bd 5c17 02be
00000180: 23d8 d0bd 9ea3 dfbd bed7 aabd 5bf7 043f
00000190: 3996 b73f 806e 133d 6dc0 7cbd a866 63bd
000001a0: 0c76 66bd ce3b bd3f e5c1 fd3e ee91 0bbe
000001b0: 8dfa edbd 6403 f2bd 3257 513f d4e9 b53f
000001c0: c201 cebd ad5c e43f 341d a7bd 302a c73f
000001d0: 50c8 0ebd 30f0 b13f 93f3 b23c 656f 8fbd
000001e0: 5bdf e63e ee07 b0bd 7537 533f 7a10 283c
000001f0: e262 e5bd 5ea6 d23e 7233 a93e b31f c03f

net.4.weight f4 [13, 128]
-0.06751629 -0.06630035 2.4153552 0.617851 2.0303564 0.4561897 3.8453321 0.09664629
2.3868785 1.66586 0.019831771 0.035117332 0.0012519296 -0.06521867 0.041284073 -0.07644497
2.2054243 -0.076242365 0.13127281 0.9766487 3.5829866 0.07181174 3.8056874 -0.039787177
-0.025578372 -0.01605054 0.021995235 1.7329689 2.1259258 2.093212 0.46100748 1.8474588
2.2765117 0.92592496 3.705439 3.748642 2.5643878 1.9911857 0.0030880496 2.6869226
3.1979632 2.5092635 0.026809867 -0.023872036 -0.034997787 4.077242 0.05761574 0.41768956
2.3443553 -0.08012513 1.2455815 0.6071508 0.63353086 -0.06408167 0.48499498 2.5997255
1.9561336 -0.034381732 -0.047979355 -0.01607982 -0.0013738386 -0.10182046 2.8903372 0.05676278
0.047169715 -0.079866506 0.25004336 -0.0070131645 3.1798015 0.042943023 2.676195 0.05507455
0.71587455 1.6333032 2.0524344 2.923175 1.2475688 3.2024026 0.06314997 0.746643
0.15116102 0.6163228 3.091556 0.05533353 1.0826546 -0.06847734 -0.03471729 -0.011610503
0.024249189 0.07107004 0.58629805 2.6708462 0.06818506 0.031065641 0.007904292 -0.0597947
0.019918017 0.07576256 0.011959337 3.6651843 0.60077345 1.9780732 -0.104579985 -0.6536186
0.039653204 0.616095 3.2258294 0.014797741 -0.019961856 0.08787123 4.14149 0.5709326
-0.01979168 0.7664596 -0.7618311 0.73437047 -0.015635591 1.0780953 0.017734446 -0.05287391
2.8084226 0.038370818 0.89495045 -0.03400101 0.062817164 3.4593804 3.7635984 0.62150323
0.055351496 0.0352831 2.345303 0.67322445 2.230908 0.4867371 4.015695 -0.010260051
2.3580332 1.5192821 0.05040867 -0.056759924 0.031188482 0.03797146 0.007633528 -0.0244104
2.3708267 -0.025918301 -0.53410065 0.5440618 3.5327258 -0.06842719 3.744816 0.02857133
-0.03222378 0.03048564 0.07440195 1.7206733 1.4861108 2.4102564 0.4633092 1.4739904
2.3759208 1.3080323 4.0347195 3.595974 3.7980802 1.9490548 -0.029724024 2.6754193
2.4926932 2.3981802 0.062544525 -0.036285076 0.013164505 3.5674925 0.0050223568 0.57650685
3.1063788 -0.019933216 0.9147148 0.67091006 0.6928057 0.0033145845 0.6270844 1.9584363
1.7361875 0.024352849 -0.03496619 0.069268875 0.0562113 -0.026403947 2.4478831 0.01217029
-0.006449578 0.04111994 0.40349898 0.057859637 3.1204479 0.025519127 2.7553868 0.019993091
0.6370633 1.8992743 1.8916181 3.181222 1.7881209 2.1590366 0.01148589 0.8309081
0.010980561 0.48234427 3.2155554 -0.09670676 1.0550449 -0.0028417173 0.034410812 -0.0012467138
-0.05494102 -0.00328286 0.42618367 2.3675275 0.0064584315 0.016682299 0.056332067 0.036289424
0.060749598 -0.06988435 -0.016123153 4.2479405 0.59419805 -1.6075499 0.05520412 -0.5988656
-0.08936637 0.6823161 3.3185234 0.045860395 0.07330961 -0.069106765 4.0411634 0.59152836
0.09152475 0.90675694 0.10134555 0.7000272 -0.059723657 1.1287621 -0.051944684 0.039853714
1.876514 0.010614424 1.4453489 0.0041423487 0.072136305 4.008995 3.8196006 0.66258746
00000000: fb45 8abd 7ac8 87bd 2e95 1a40 7c2b 1e3f
00000010: 5cf1 0140 b291 e93e ec19 7640 7dee c53d
00000020: 9ec2 1840 e73a d53f 3d76 a23c 31d7 0f3d
00000030: c917 a43a 5e91 85bd 7d19 293d 2e8f 9cbd
00000040: ac25 0d40 f524 9cbd 616c 063e a605 7a3f
00000050: a74f 6540 0912 933d 6290 7340 e1f7 22bd
00000060: bc89 d1bc 6c7c 83bc 5a2f b43c edd1 dd3f
00000070: 2b0f 0840 2ff7 0540 2c09 ec3e 8879 ec3f
00000080: 5eb2 1140 6b09 6d3f ea25 6d40 c0e9 6f40
00000090: ee1e 2440 2cdf fe3f e060 4a3b 8af6 2b40
000000a0: 6eab 4c40 c697 2040 5ea0 db3c 4a8f c3bc
000000b0: d759 0fbd c478 8240 7bfe 6b3d 68db d53e
000000c0: eb09 1640 a518 a4bd 376f 9f3f 3c6e 1b3f
000000d0: 142f 223f 403d 83bd 4351 f83e e761 2640
000000e0: 9662 fa3f dcd3 0cbd 0086 44bd d4b9 83bc
000000f0: 6012 b4ba 3f87 d0bd 49fb 3840 1780 683d
00000100: 0835 413d 0d91 a3bd af05 803e b0ce e5bb
00000110: de81 4b40 06e5 2f3d c746 2b40 da95 613d
00000120: 8e43 373f 1410 d13f 165b 0340 4d15 3b40
00000130: 56b0 9f3f 2af4 4c40 c554 813d ff23 3f3f
00000140: f4c9 1a3e 55c7 1d3f 0edc 4540 69a5 623d
00000150: 6d94 8a3f d93d 8cbd b833 0ebd fb39 3ebc
00000160: 3ca6 c63c 2b8d 913d a117 163f 25ef 2a40
00000170: 9ca4 8b3d 5f7d fe3c 0181 013c 4aeb 74bd
00000180: 1c2b a33c 6729 9b3d 18f1 433c 6192 6a40
00000190: 4acc 193f 8131 fd3f 082e d6bd 8c53 27bf
000001a0: 666b 223d 67b8 1d3f fd73 4e40 3972 723c
000001b0: 0c87 a3bc d5f5 b33d 1687 8440 a428 123f
000001c0: 2922 a2bc b236 443f 5d07 43bf b4ff 3b3f
000001d0: 3616 80bc 07ff 893f d447 913c 5092 58bd
000001e0: 32bd 3340 b82a 1d3d 791b 653f a544 0bbd
000001f0: 49a6 803d 7d66 5d40 ccde 7040 d61a 1f3f
00000200: 40b8 623d 0385 103d 7219 1640 7058 2c3f
00000210: 32c7 0e40 9b35 f93e 9380 8040 c619 28bc
00000220: 04ea 1640 d677 c23f 5279 4e3d 187d 68bd
00000230: fd7e ff3c f687 1b3d ad22 fa3b 52f8 c7bc
00000240: a0bb 1740 9e52 d4bc d2ba 08bf a247 0b3f
00000250: 2e18 6240 8e23 8cbd 11ab 6f40 6c0e ea3c
00000260: 15fd 03bd 05bd f93c 0d60 983d 063f dc3f
00000270: e138 be3f a441 1a40 dd36 ed3e b8ab bc3f
00000280: 160f 1840 9a6d a73f 6c1c 8140 7024 6640
00000290: bf13 7340 a17a f93f cc7f f3bc 123a 2b40
000002a0: 4988 1f40 c97b 1940 5817 803d a99f 14bd
000002b0: f0af 573c cc51 6440 9592 a43b f495 133f
000002c0: e9ce 4640 fc4a a3bc c02a 6a3f c3c0 2b3f
000002d0: b75b 313f 8039 593b 9a88 203f 0aae fa3f
000002e0: 643b de3f a07f c73c b538 0fbd d7dc 8d3d
000002f0: d23d 663d 174d d8bc 1eaa 1c40 e565 473c
00000300: fb56 d3bb 626d 283d 6b97 ce3e 3afe 6c3d
00000310: 6bb5 4740 7d0d d13c 4258 3040 8dc8 a33c
00000320: 9516 233f 6c1b f33f 8b20 f23f 2499 4b40
00000330: 25e1 e43f a82d 0a40 502f 3c3c 65b6 543f
00000340: d0e7 333c d4f5 f63e a9cb 4d40 320e c6bd
00000350: b60b 873f 1b3c 3abb 5af2 0c3d c668 a3ba
00000360: d609 61bd 4025 57bb bf34 da3e 9285 1740
00000370: 40a1 d33b 51a9 883c 74bc 663d 38a4 143d
00000380: 92d4 783d 871f 8fbd b414 84bc 21ef 8740
00000390: 5d1d 183f 32c4 cdbf b71d 623d 424f 19bf
000003a0: b705 b7bd 45ac 2e3f b062 5440 1cd8 3b3d
000003b0: 5923 963d d987 8dbd 3651 8140 676e 173f
000003c0: 5471 bb3d 3921 683f 418e cf3d fc34 333f
000003d0: cba0 74bd 477b 903f f3c3 54bd a63d 233d
000003e0: 9c31 f03f 1fe8 2d3c 3101 b93f 8abc 873b
000003f0: 33bc 933d b049 8040 5674 7440 559f 293f

net.4.bias f4 [13]
1.4858847 0.8499419 1.0594568 1.5542686 1.2474262 1.2027136 0.87909144 1.3025601
0.61245626 1.1596006 0.64899284 0.7771888 0.7237912
00000000: 7831 be3f cb95 593f 489c 873f 46f2 c63f
00000010: a9ab 9f3f 85f2 993f 230c 613f 4aba a63f
00000020: efc9 1c3f cb6d 943f 6524 263f d8f5 463f
00000030: 614a 393f

net.0.weight f4 [128, 53]
-0.19909158 -0.027283464 -0.013526529 -0.022620313 0.0785674 -0.22223674 0.029260663 -0.15766905
-0.031761732 -0.06370168 -0.07401669 0.051397517 -0.055045657 -0.087995835 -0.022446655 -0.00773831
0.007121549 -0.061703976 0.022644654 -0.02037231 0.16543017 0.026201341 0.049100507 -0.19756044
0.10683781 0.04533307 -0.0016319506 0.04499507 0.14014374 0.07865505 0.117961615 -0.08309473
-0.027132645 -0.12529594 -0.0362378 0.13394013 -0.02878955 0.05997715 -0.022116762 0.10499868
-0.1635458 -0.099836655 -0.041172806 -0.0026088085 0.06534547 -0.17899992 0.2101098 0.00017866645
-0.09076621 0.073529094 0.09398679 -0.027423222 -0.16685618 -0.6359289 0.73403794 0.50499415
-0.30172667 -1.0967911 0.03215686 -0.5870652 1.6958597 -0.55971265 2.3200393 -1.1455092
-0.3095602 0.52923787 -1.4238628 0.8201843 0.74153954 0.10931988 0.90202683 0.17590834
-1.2401464 0.81625485 0.8743631 -0.498067 -0.9391661 -0.6000146 -0.27132225 0.91469175
1.900529 0.71122265 -1.7308798 1.1939393 1.2744396 -0.29858118 -0.16186263 0.84276587
0.7206962 -0.023272714 0.50343835 -1.1647947 -0.06866607 0.46432257 0.47905785 1.2007092
0.02286609 -1.4978151 -0.7257913 -0.030891623 1.5161824 0.0041239224 0.6223945 0.15012959
0.18814331 0.6550766 0.04992915 0.10114533 0.56207025 -0.50038534 -0.1574195 -0.42847568
-1.9603093 0.2806281 -1.5566915 1.453015 -0.5139757 1.510188 0.18029988 1.6038393
-1.6203225 0.235535 0.27376577 0.61633563 -1.5662792 1.2308334 0.22196771 0.3473487
0.5406844 1.5316867 -1.2159507 -0.88852525 -0.81335455 -0.24407801 0.1171537 -0.14744063
-0.91746145 -0.6880192 -0.9313936 0.37682164 0.3476887 -0.1069769 -0.6352915 0.59487695
-2.4700148 0.11085576 0.58638823 -0.7183589 0.50028574 -0.8891958 0.832951 -1.2951802
0.2788125 -1.0219752 -0.75697654 -0.21996179 -0.69558376 0.76708674 -0.47869253 -0.15880132
-0.012528488 0.4667997 0.2785316 -2.507367 -0.28699702 2.8682249 -0.40727532 0.5676557
-0.41199946 3.6060598 0.58287656 0.27605093 0.31880268 -1.5109613 -2.565635 0.2931992
-1.1169024 -0.39576432 0.55779195 -1.0144321 -1.0815496 -0.024985353 0.06497239 0.72305477
0.04369156 -0.21434371 0.73254573 -0.6420341 -1.5967042 0.7888253 -1.0387574 1.1757529
-0.26452222 0.27185014 0.49583808 1.2281145 0.23242395 0.033800732 0.67710567 0.66900194
0.19562034 1.7128532 0.104983926 -0.5040238 -0.7180097 0.074985996 0.016039116 -0.002167799
0.21046948 0.09223021 -0.5230309 0.19447404 0.08542794 -0.24525926 -0.2286977 -0.36583352
0.2370134 -0.05329386 -0.040161513 -0.5585475 -2.3527548 0.2110553 -0.39615864 -0.47006416
-0.8501654 0.7544073 0.32109317 -1.3781565 -0.15077376 -1.3306926 -0.5501728 -0.5755947
0.021238837 -1.8794137 0.055392485 0.0854959 1.7909725 -0.37875664 -1.1141953 0.29636106
-0.967344 0.17893806 -0.61865616 0.67019564 -1.723879 0.35955077 0.09487131 -0.5059933
-0.74605846 -0.05322086 2.0010965 -2.6476963 -0.32282153 -0.4455066 -0.74131775 0.32304093
00000000: aade 4bbe 9281 dfbc 609e 5dbc 3c4e b9bc
00000010: f2e7 a03d 0792 63be 0fb4 ef3c ff73 21be
00000020: 9718 02bd 0776 82bd 1096 97bd 3486 523d
00000030: 8e77 61bd 2937 b4bd 0ce2 b7bc a691 fdbb
00000040: e25b e93b 4fbd 7cbd 4881 b93c d5e3 a6bc
00000050: 8766 293e 32a4 d63c 9d1d 493d 494d 4abe
00000060: c8cd da3d 2baf 393d 2de7 d5ba c04c 383d
00000070: d781 0f3e e615 a13d dc95 f13d 922d aabd
00000080: 4845 debc 944d 00be 166e 14bd 9a27 093e
00000090: 10d8 ebbc 9aaa 753d 362e b5bc 8c09 d73d
000000a0: 8d78 27be 2977 ccbd d1a4 28bd 8bf8 2abb
000000b0: d9d3 853d c14b 37be 0627 573e 6958 3b39
000000c0: a2e3 b9bd 6c96 963d 257c c03d aaa6 e0bc
000000d0: 59dc 2abe 3dcc 22bf e9e9 3b3f 4c47 013f
000000e0: eb7b 9abe a763 8cbf e9b6 033d e849 16bf
000000f0: ee11 d93f 5449 0fbf 867b 1440 0ca0 92bf
00000100: ad7e 9ebe 227c 073f 2341 b6bf 99f7 513f
00000110: 89d5 3d3f 1ae3 df3d 3beb 663f 5121 343e
00000120: 1ebd 9ebf 14f6 503f 43d6 5f3f a302 ffbe
00000130: 316d 70bf 8f9a 19bf c0ea 8abe 3d29 6a3f
00000140: 8944 f33f b012 363f 788d ddbf 01d3 983f
00000150: d620 a33f a2df 98be 51bf 25be 81bf 573f
00000160: 8c7f 383f 6ba6 bebc 56e1 003f fe17 95bf
00000170: cca0 8cbd b0bb ed3e 1247 f53e d7b0 993f
00000180: ab51 bb3c 68b8 bfbf 75cd 39bf 6e10 fdbc
00000190: 4412 c23f f821 873b 3f55 1f3f 92bb 193e
000001a0: a4a8 403e 1ab3 273f 8282 4c3d 4825 cf3d
000001b0: d6e3 0f3f 4119 00bf 9432 21be 2a61 dbbe
000001c0: 6aeb fabf 7cae 8f3e ab41 c7bf 65fc b93f
000001d0: e993 03bf d74d c13f 88a0 383e 9b4a cd3f
000001e0: ba66 cfbf 1630 713e 072b 8c3e 2cc8 1d3f
000001f0: d67b c8bf f38b 9d3f 814b 633e b0d7 b13e
00000200: 4b6a 0a3f 4f0e c43f 46a4 9bbf 6476 63bf
00000210: 0138 50bf 96ef 79be 47ee ef3d adfa 16be
00000220: c1de 6abf 0722 30bf d06f 6ebf c4ee c03e
00000230: 4104 b23e b416 dbbd 77a2 22bf db49 183f
00000240: b914 1ec0 5808 e33d 8a1d 163f 5ee6 37bf
00000250: ba12 003f 56a2 63bf 473c 553f 77c8 a5bf
00000260: 83c0 8e3e 15d0 82bf 37c9 41bf aa3d 61be
00000270: c711 32bf cc5f 443f 3017 f5be d09c 22be
00000280: 4a44 4dbc 5f00 ef3e b29b 8e3e b378 20c0
00000290: 46f1 92be ff90 3740 6486 d0be e251 113f
000002a0: 98f1 d2be afc9 6640 6637 153f 8c56 8d3e
000002b0: 1b3a a33e 2e67 c1bf 5d33 24c0 351e 963e
000002c0: a8f6 8ebf 9fa1 cabe 74cb 0e3f e9d8 81bf
000002d0: 3870 8abf 15ae ccbc 3f10 853d 1e1a 393f
000002e0: ecf5 323d eb7c 5bbe 1e88 3b3f 595c 24bf
000002f0: ce60 ccbf 74f0 493f 01f6 84bf 127f 963f
00000300: 756f 87be f12f 8b3e 7dde fd3e db32 9d3f
00000310: 8b00 6e3e a372 0a3d cc56 2d3f b643 2b3f
00000320: b350 483e c63e db3f d001 d73d b407 01bf
00000330: 7ccf 37bf 4292 993d 7764 833c a211 0ebb
00000340: 5085 573e 31e3 bc3d 5ae5 05bf 3424 473e
00000350: d8f4 ae3d 3e25 7bbe bb2f 6abe 884e bbbe
00000360: a4b3 723e aa4a 5abd 6680 24bd f8fc 0ebf
00000370: 8993 16c0 e11e 583e 4ed5 cabe 40ac f0be
00000380: 71a4 59bf d620 413f 5366 a43e 6f67 b0bf
00000390: 7064 1abe 2354 aabf 20d8 0cbf 2d5a 13bf
000003a0: 12fd ad3c a190 f0bf 3be3 623d 7918 af3d
000003b0: 963e e53f 64ec c1be f49d 8ebf a3bc 973e
000003c0: dba3 77bf 8a3b 373e 4060 1ebf f191 2b3f
000003d0: 11a8 dcbf 0a17 b83e e44b c23d c788 01bf
000003e0: b0fd 3ebf 1efe 59bd f711 0040 db73 29c0
000003f0: dd48 a5be 7119 e4be 00c7 3dbf 9f65 a53e

net.0.bias f4 [128]
-0.12562343 0.1786844 -0.30643594 -0.035757914 0.06386012 0.18530764 0.116037525 -0.0813164
-0.07357668 0.36941764 -0.2230806 -0.21592867 0.17502216 0.34661978 0.047719277 0.5739593
-0.18376598 -0.12524937 -0.05559727 -0.119579606 0.32292047 -0.12444228 0.05822431 0.41960227
0.18604392 -0.17881742 0.04146402 0.06098987 -0.009292448 0.57515377 0.31302148 0.2856098
0.52233297 0.14716737 0.7033664 0.46391916 0.4601095 -0.21440476 0.117554225 0.0581924
0.2162421 0.50126743 0.11012402 0.53876954 -0.2366779 0.14145064 0.16803117 -0.021881895
-0.019985758 -0.047697745 0.092677064 -0.1306846 -0.05555432 0.12938829 0.19900852 0.11188783
0.033915862 -0.040124793 -0.056057747 -0.011988212 -0.13100663 -0.14872207 -0.057593413 -0.11449795
0.8115631 0.28363147 -0.17272629 -0.252397 0.57817304 -0.23563679 0.19752291 -0.155228
0.1313196 0.115500495 0.35141474 0.10563321 0.42494723 -0.18010247 0.22466458 -0.1062789
-0.12015571 0.2944079 0.39266813 0.7296954 0.4264724 -0.1510203 -0.0939088 -0.23448513
0.37658286 0.36981252 -0.18660145 0.16766882 0.13066614 0.70340663 -0.22736783 0.28427818
-0.20753884 -0.31238288 0.08469973 0.15997843 -0.2093732 0.1983746 0.2644028 0.18130784
-0.42152065 0.018120931 -0.1992069 0.15293305 0.7157104 0.023995427 0.39370963 -0.034449194
0.43286124 0.02562089 0.060726877 0.39878777 -0.18984999 0.47671583 -0.17435424 0.21941325
0.13308021 -0.018116359 -0.16936226 0.5765035 -0.08884797 -0.08844445 0.061279703 0.29100877
00000000: 6ea3 00be 0bf9 363e 2ce5 9cbe e476 12bd
00000010: 18c9 823d 49c1 3d3e 15a5 ed3d 3689 a6bd
00000020: 5faf 96bd 4f24 bd3e 3e6f 64be 681c 5dbe
00000030: 0239 333e 2678 b13e 4a75 433d ffee 123f
00000040: 262d 3cbe 5f41 00be f7b9 63bd 27e6 f4bd
00000050: d555 a53e 98db febd 9d7c 6e3d 1cd6 d63e
00000060: 4c82 3e3e ea1b 37be 2dd6 293d 84d0 793d
00000070: 5a3f 18bc 473d 133f 5a44 a03e 733b 923e
00000080: 9db7 053f 0bb3 163e d20f 343f d086 ed3e
00000090: 7993 eb3e ec8c 5bbe 45c0 f03d 275b 6e3d
000000a0: 926e 5d3e 1053 003f b488 e13d cdec 093f
000000b0: b15b 72be 70d8 103e 5d10 2c3e a941 b3bc
000000c0: 2cb9 a3bc b65e 43bd 79cd bd3d 2fd2 05be
000000d0: ed8c 63bd 5d7e 043e e4c8 4b3e 7225 e53d
000000e0: 5ceb 0a3d e559 24bd cf9c 65bd 356a 44bc
000000f0: 9a26 06be 994a 18be 12e7 6bbd e77d eabd
00000100: 99c2 4f3f 2538 913e 29df 30be 2e3a 81be
00000110: 2603 143f c54a 71be 7243 4a3e 17f4 1ebe
00000120: a578 063e 868b ec3d a2ec b33e 3956 d83d
00000130: af92 d93e c86c 38be 790e 663e c0a8 d9bd
00000140: 3214 f6bd a2bc 963e cc0b c93e 51cd 3a3f
00000150: 975a da3e 11a5 1abe 4253 c0bd df1c 70be
00000160: 78cf c03e 1158 bd3e 7314 3fbe 60b1 2b3e
00000170: 58cd 053e 7512 343f 1dd3 68be e98c 913e
00000180: 1085 54be a6f0 9fbe 0d77 ad3d 63d1 233e
00000190: ee65 56be b622 4b3e ce5f 873e c3a8 393e
000001a0: 8ed1 d7be 5972 943c e5fc 4bbe 7b9a 1c3e
000001b0: cc38 373f 0f92 c43c 4f94 c93e 991a 0dbd
000001c0: fd9f dd3e e7e2 d13c bfbc 783d e92d cc3e
000001d0: 0968 42be 1914 f43e eb89 32be dead 603e
000001e0: 2e46 083e c268 94bc 4d6d 2dbe bc95 133f
000001f0: edf5 b5bd 5d22 b5bd 6d00 7b3d 1aff 943e

net.2.weight f4 [128, 128]
-0.028916057 0.0072205365 -0.06899937 -0.12809062 -0.10426762 0.009762206 -0.04069584 0.016661622
-0.022041904 0.013254172 -0.027412914 0.053665668 0.023898045 0.06303991 -0.033429496 -0.032477286
0.026279658 -0.0586312 -0.03696225 0.02930326 0.0035111983 -0.006953943 0.020881223 0.04381945
-0.08741663 -0.05900089 0.08515064 -0.026729923 0.08613666 -0.07516014 -0.0178463 -0.08667539
0.029012553 -0.06152214 -0.04703406 -0.02052854 -0.09383033 0.015068691 -0.057680354 -0.044017162
-0.019596828 -0.06720143 -0.111185215 -0.014825103 0.07044868 0.030922309 0.00846475 -0.037531428
-0.04245118 0.03269892 -0.05022801 -0.12594399 -0.008684324 0.0027812757 -0.06541421 -0.03697747
-0.041766126 -0.030853916 -0.069986954 -0.07970564 -0.053442914 -0.09816868 0.03666064 0.05385048
-0.104974724 -0.12289744 -0.059729103 -0.038016703 0.04621317 -0.065227695 -0.02444089 0.08097426
-0.11985196 -0.06510954 0.06613368 0.034563642 -0.07950063 -0.06012117 0.022599313 -0.016355254
-0.061754532 -0.12884851 0.028243955 0.004987328 -0.1316617 -0.0753857 -0.036914703 -0.07814371
0.02406352 -0.03202998 0.027231187 -0.03317413 0.016966628 -0.06285925 -0.1020605 -0.10950551
-0.045453794 0.027287463 -0.12971966 -0.028260387 0.07669454 -0.10231386 0.008047222 -0.070611045
0.02036063 -0.021945028 0.021042617 -0.008258921 -0.0054169404 0.00585039 -0.028770868 -0.031420812
-0.07632106 -0.041398153 0.015577826 0.03123372 -0.0783282 -0.056881078 -0.037650958 -0.111387275
-0.028702125 -0.10588294 0.037968762 -0.04385491 0.07320076 0.04124781 -0.0834945 -0.009267315
-0.017269649 0.06179329 -0.060131755 -0.06502472 -0.08516149 0.011552885 0.04956419 0.0047583655
-0.02592745 -0.013402765 0.041300707 -0.037016217 -0.0501358 0.036256973 -0.10873458 -0.10488325
-0.060497135 0.002337787 -0.03236257 -0.056087803 -0.058143362 -0.07832427 -0.023948306 -0.122907445
-0.011505487 -0.0012527585 -0.027833104 -0.013267036 -0.022161983 0.047408547 -0.03611669 -0.09964094
-0.0348714 0.04840935 -0.0011154348 -0.10053711 0.021556618 -0.020106092 0.019847246 -0.102811426
-0.1357313 -0.078136235 0.0039143595 -0.031055832 0.03736169 -0.0030100644 0.01914739 -0.07085531
0.011329482 0.017020214 0.035059325 -0.012119427 -0.052558832 -0.038125258 -0.021599099 -0.011705347
-0.10501823 -0.011317057 -0.0115148425 -0.11775158 3.97861e-05 -0.02010779 0.0469782 -0.042057846
-0.024484139 -0.017357014 -0.02248387 0.04433418 0.085839994 0.038319446 -0.05779868 -0.08783883
-0.11531194 -0.0020354167 -0.02109178 -0.08064088 0.0691394 0.012044586 -0.02306258 -0.042643495
-0.0338862 0.05705766 0.023667196 0.0015881972 -0.08903178 -0.010605909 0.011730246 -0.09184937
-0.07830784 -0.06355323 -0.08029785 -0.11932582 0.004441065 -0.056399852 -0.01709971 -0.10030984
-0.07076705 -0.055688314 -0.079460375 0.05635443 -0.06878765 -0.09233719 -0.0053355787 0.027514983
-0.02633199 -0.08662274 0.05397625 -0.09598343 0.03497575 -0.032652874 -0.06586349 -0.025297321
-0.11403596 0.06933116 -0.10821909 0.07383562 -0.041887783 0.040751263 -0.03528007 0.021018192
-0.058886915 0.0064488207 -0.016106047 0.020281568 -0.101687066 -0.09246353 -0.02890422 -0.08276996
00000000: 5ee1 ecbc 409a ec3b 8b4f 8dbd 302a 03be
00000010: 438a d5bd a9f1 1f3c aeb0 26bd f47d 883c
00000020: 3991 b4bc 0728 593c 0c91 e0bc 88d0 5b3d
00000030: d5c5 c33c 111b 813d 5eed 08bd e706 05bd
00000040: 7048 d73c 4527 70bd ba65 17bd 640d f03c
00000050: 221c 663b e7dd e3bb 190f ab3c 067c 333d
00000060: 7d07 b3bd ebaa 71bd 7563 ae3d b6f8 dabc
00000070: 6b68 b03d 8fed 99bd 6732 92bc de82 b1bd
00000080: bcab ed3c a4fe 7bbd c9a6 40bd 782b a8bc
00000090: 1e2a c0bd ace2 763c 3c42 6cbd 574b 34bd
000000a0: 8789 a0bc e7a0 89bd 13b5 e3bd fde4 72bc
000000b0: 6647 903d c850 fd3c bcaf 0a3c 8eba 19bd
000000c0: 4ae1 2dbd 4eef 053d e3bb 4dbd 76f7 00be
000000d0: b248 0ebc 1046 363b e3f7 85bd b075 17bd
000000e0: f512 2bbd 5ac1 fcbc 5255 8fbd b63c a3bd
000000f0: f5e6 5abd a90c c9bd 7829 163d 5292 5c3d
00000100: fdfc d6bd a7b1 fbbd 81a6 74bd 67b7 1bbd
00000110: 054a 3d3d 1996 85bd 4338 c8bc d5d5 a53d
00000120: f274 f5bd 2758 85bd 1871 873d 9b92 0d3d
00000130: 3ad1 a2bd 9e41 76bd 3222 b93c 74fb 85bc
00000140: 52f2 7cbd ddf0 03be de5f e73c bd6c a33b
00000150: 53d2 06be d163 9abd df33 17bd cf09 a0bd
00000160: dc20 c53c de31 03bd f013 df3c 99e1 07bd
00000170: 99fd 8a3c 5abc 80bd 1805 d1bd 6d44 e0bd
00000180: c22d 3abd f589 df3c 3bd5 04be 5482 e7bc
00000190: 0712 9d3d ee89 d1bd 7fd8 033c 869c 90bd
000001a0: 56cb a63c 0fc6 b3bc 9161 ac3c 6d50 07bc
000001b0: 9780 b1bb a1b4 bf3b e2b0 ebbc 1cb3 00bd
000001c0: 374e 9cbd 1c91 29bd 233a 7f3c dcdd ff3c
000001d0: 896a a0bd 22fc 68bd e437 1abd 031f e4bd
000001e0: b820 ebbc 28d9 d8bd 2285 1b3d 35a1 33bd
000001f0: 48ea 953d 77f3 283d 2aff aabd f0d5 17bc
00000200: 1479 8dbc f61a 7d3d b74c 76bd ae2b 85bd
00000210: 2669 aebd 5048 3d3c d203 4b3d 10ec 9b3b
00000220: ce65 d4bc 4597 5bbc ee2a 293d 519e 17bd
00000230: 325b 4dbd 3182 143d 3cb0 debd 08cd d6bd
00000240: d8cb 77bd 8f35 193b 9d8e 04bd 53bc 65bd
00000250: bc27 6ebd 7a68 a0bd 3d2f c4bc e6b6 fbbd
00000260: 8381 3cbc 9a33 a4ba 4002 e4bc fb5d 59bc
00000270: 0c8d b5bc 772f 423d 18ef 13bd 8d10 ccbd
00000280: 50d5 0ebd e248 463d c833 92ba 66e6 cdbd
00000290: 8197 b03c 88b5 a4bc b196 a23c cc8e d2bd
000002a0: 25fd 0abe e405 a0bd 0744 803b cd68 febc
000002b0: 9208 193d 8044 45bb fdda 9c3c 971c 91bd
000002c0: 4b9f 393c fa6d 8b3c 5e9a 0f3d 9090 46bc
000002d0: ee47 57bd 3b29 1cbd 98f0 b0bc c9c7 3fbc
000002e0: cc13 d7bd 2d6b 39bc c0a8 3cbc be27 f1bd
000002f0: 00e0 2638 18b9 a4bc 376c 403d d944 2cbd
00000300: f692 c8bc 4c30 8ebc 1830 b8bc c297 353d
00000310: e1cc af3d daf4 1c3d 4fbe 6cbd d8e4 b3bd
00000320: ab28 ecbd a064 05bb abc8 acbc 0c27 a5bd
00000330: f598 8d3d a856 453c bced bcbc f2aa 2ebd
00000340: 42cc 0abd 4bb5 693d b5e1 c13c 0e2b d03a
00000350: 4b56 b6bd 68c4 2dbc 3830 403c 861b bcbd
00000360: dc5f a0bd 3228 82bd 3373 a4bd 1861 f4bd
00000370: 5a86 913b 8803 67bd b114 8cbc 3f6f cdbd
00000380: 51ee 90bd 6e19 64bd 1fbc a2bd e7d3 663d
00000390: 8ae0 8cbd 481b bdbd 14d6 aebb 1a67 e13c
000003a0: 2fb6 d7bc 4367 b1bd 3316 5d3d f692 c4bd
000003b0: bb42 0f3d 05bf 05bd 70e3 86bd 543c cfbc
000003c0: af8b e9bd 7ffd 8d3d f8a1 ddbd 2137 973d
000003d0: 8692 2bbd ccea 263d d681 10bd 582e ac3c
000003e0: 6833 71bd a150 d33b d4f0 83bc 8825 a63c
000003f0: 4f41 d0bd 855d bdbd 8bc8 ecbc 4c83 a9bd

net.2.bias f4 [128]
-0.031826314 -0.12715276 0.5539143 1.2109786 0.8875567 1.2079341 0.1754664 -0.030524673
0.8659855 0.7759949 -0.06036037 -0.043455187 -0.12046687 -0.026939565 -0.13594583 -0.021758296
0.8000532 -0.06957293 -0.030832358 1.604736 0.42133433 -0.022033853 0.49003527 -0.05894555
-0.087809555 -0.13250096 -0.07592866 0.45124486 0.5506527 0.26456937 1.2392741 0.93191457
0.94364226 0.9040285 0.40570724 0.5653308 0.28605175 0.6192175 -0.08241815 0.008564723
0.61529464 0.73765945 0.035350766 -0.018812371 -0.13648218 0.5603714 -0.04054542 1.1842302
0.60039866 -0.02370508 0.905381 1.4765793 0.9616363 -0.08154132 1.2672682 0.114211366
0.883756 -0.08555769 -0.10462137 -0.1407615 -0.14364937 -0.037562903 0.43673658 -0.037437595
-0.078507334 -0.06671275 -0.0673685 -0.086047746 0.59943503 -0.11539712 0.56005025 -0.05614571
1.6078397 0.8218278 0.7917528 0.63341165 0.8680617 0.66918147 -0.14242825 1.5572463
-0.0072070635 1.3300493 0.73055965 -0.13741934 1.4491651 -0.103218324 -0.065162 0.0033688284
-0.14105451 -0.08179591 1.3161465 0.15059774 -0.07923184 -0.08141771 -0.060798895 -0.12704223
-0.10197475 -0.109198794 -0.08341931 0.52161205 1.4351178 0.044125713 -0.06170695 -0.055517823
-0.056264922 1.4797046 0.4947773 -0.13629887 -0.116200544 -0.11817053 0.8202924 1.4221435
-0.10058929 1.7850943 -0.08614062 1.5569681 -0.034859 1.3920442 0.02184466 -0.07003669
0.4513416 -0.085952625 0.82123244 0.010257835 -0.11200501 0.41169518 0.3296439 1.5020454
00000000: 4f5c 02bd 5534 02be 54cd 0d3f 5901 9b3f
00000010: ea36 633f 969d 9a3f 77ad 333e e10e fabc
00000020: 3ab1 5d3f 9aa7 463f 6f3c 77bd 11fe 31bd
00000030: 56b7 f6bd 5db0 dcbc 6235 0bbe 743e b2bc
00000040: 49d0 4c3f 417c 8ebd 2494 fcbc fd67 cd3f
00000050: 22b9 d73e 5780 b4bc e7e5 fa3e e470 71bd
00000060: 7fd5 b3bd 55ae 07be 7c80 9bbd 9109 e73e
00000070: 93f7 0c3f a375 873e 89a0 9e3f f491 6e3f
00000080: 8a92 713f 696e 673f dcb8 cf3e 85b9 103f
00000090: 6075 923e 0a85 1e3f d9ca a8bd 0d53 0c3c
000000a0: f383 1d3f 40d7 3c3f f7cb 103d 671c 9abc
000000b0: fcc1 0bbe 8074 0f3f f412 26bd db94 973f
000000c0: bab3 193f 2831 c2bc 0dc7 673f 8d00 bd3f
000000d0: cc2d 763f 23ff a6bd d835 a23f a6e7 e93d
000000e0: d53d 623f df38 afbd bb43 d6bd c823 10be
000000f0: d218 13be 8fdb 19bd f09b df3e 2a58 19bd
00000100: 74c8 a0bd b2a0 88bd 7ff8 89bd cd39 b0bd
00000110: 9374 193f 5355 ecbd 745f 0f3f 0bf9 65bd
00000120: b1cd cd3f 4f63 523f 50b0 4a3f 4427 223f
00000130: 4b39 5e3f 7a4f 2b3f b6d8 11be d953 c73f
00000140: 3b29 ecbb 0e3f aa3f f505 3b3f a8b7 0cbe
00000150: 3e7e b93f 2164 d3bd a873 85bd 90c7 5c3b
00000160: 9870 10be 9d84 a7bd 7d77 a83f 4b36 1a3e
00000170: 4e44 a2bd 54be a6bd 4308 79bd 5c17 02be
00000180: 23d8 d0bd 9ea3 dfbd bed7 aabd 5e88 053f
00000190: f1b1 b73f 2abd 343d 6dc0 7cbd a866 63bd
000001a0: 0c76 66bd f666 bd3f 7353 fd3e ee91 0bbe
000001b0: 8dfa edbd 6403 f2bd affe 513f cc08 b63f
000001c0: c201 cebd f87d e43f 7e6a b0bd bb4a c73f
000001d0: 50c8 0ebd 812e b23f 93f3 b23c 656f 8fbd
000001e0: 3f16 e73e ee07 b0bd 4a3c 523f 7a10 283c
000001f0: e262 e5bd b6c9 d23e 16c7 a83e 0643 c03f

net.4.weight f4 [13, 128]
-0.06751629 -0.06630035 2.410395 0.6143981 2.0243683 0.45405826 3.8449314 0.09664629
2.3789027 1.6587192 0.019831771 0.035117332 0.0012519296 -0.06521867 0.041284073 -0.07644497
2.1989503 -0.076242365 0.13127281 0.9754605 3.5766003 0.07181174 3.8065157 -0.039787177
-0.025578372 -0.01605054 0.021995235 1.7274287 2.1201744 2.0864758 0.45820343 1.8411149
2.2708302 0.91823125 3.7017348 3.747475 2.5643878 1.9859942 0.0030880496 2.6848621
3.201977 2.5036614 0.026809867 -0.023872036 -0.034997787 4.0779395 0.05761574 0.41456616
2.3383412 -0.08012513 1.2382774 0.6058901 0.62712467 -0.06408167 0.4828634 2.5990932
1.9507564 -0.034381732 -0.047979355 -0.01607982 -0.0013738386 -0.10182046 2.8869529 0.05676278
0.047169715 -0.079866506 0.25004336 -0.0070131645 3.175028 0.042943023 2.673849 0.05507455
0.71475494 1.6265309 2.0451152 2.9185731 1.2405136 3.1945333 0.06314997 0.74508566
0.15116102 0.6145794 3.0903735 0.05533353 1.0822157 -0.06847734 -0.03471729 -0.011610503
0.024249189 0.07107004 0.58394635 2.680116 0.06818506 0.031065641 0.007904292 -0.0597947
0.019918017 0.07576256 0.011959337 3.6647751 0.59879273 1.9783491 -0.104579985 -0.6536186
0.039653204 0.6148549 3.223714 0.014797741 -0.019961856 0.08787123 4.140144 0.56938255
-0.01979168 0.7651476 -0.76012295 0.7330655 -0.015635591 1.0762433 0.017734446 -0.05287391
2.802979 0.038370818 0.8876717 -0.03400101 0.062817164 3.4591706 3.7613976 0.6203142
0.055351496 0.0352831 2.3444605 0.6712319 2.2269037 0.48461032 4.015509 -0.010260051
2.3568192 1.5182099 0.05040867 -0.056759924 0.031188482 0.03797146 0.007633528 -0.0244104
2.3689802 -0.025918301 -0.53410065 0.5412449 3.5339203 -0.06842719 3.744911 0.02857133
-0.03222378 0.03048564 0.07440195 1.7189018 1.486315 2.4107397 0.46131 1.4715625
2.374923 1.3023891 4.0345125 3.5957294 3.7978752 1.9480733 -0.029724024 2.6752214
2.4927497 2.4012172 0.062544525 -0.036285076 0.013164505 3.567362 0.0050223568 0.57452434
3.1068685 -0.019933216 0.91234446 0.66793495 0.6925093 0.0033145845 0.6243653 1.9583658
1.735211 0.024352849 -0.03496619 0.069268875 0.0562113 -0.026403947 2.448058 0.01217029
-0.006449578 0.04111994 0.40349898 0.057859637 3.1194081 0.025519127 2.7552805 0.019993091
0.6342813 1.8971301 1.889423 3.1817605 1.7852902 2.158687 0.01148589 0.8282514
0.010980561 0.47963345 3.2163775 -0.09670676 1.0514504 -0.0028417173 0.034410812 -0.0012467138
-0.05494102 -0.00328286 0.42377517 2.367741 0.0064584315 0.016682299 0.056332067 0.036289424
0.060749598 -0.06988435 -0.016123153 4.2479196 0.59152436 -1.6087061 0.05520412 -0.5988656
-0.08936637 0.67950225 3.3182023 0.045860395 0.07330961 -0.069106765 4.0409813 0.58895916
0.09152475 0.9037839 0.10272233 0.69734114 -0.059723657 1.1271193 -0.051944684 0.039853714
1.8751342 0.010614424 1.442623 0.0041423487 0.072136305 4.0087576 3.8183196 0.6597764
00000000: fb45 8abd 7ac8 87bd e943 1a40 3249 1d3f
00000010: 408f 0140 537a e83e 5b13 7640 7dee c53d
00000020: f13f 1840 e950 d43f 3d76 a23c 31d7 0f3d
00000030: c917 a43a 5e91 85bd 7d19 293d 2e8f 9cbd
00000040: 9abb 0c40 f524 9cbd 616c 063e c8b7 793f
00000050: 05e7 6440 0912 933d f49d 7340 e1f7 22bd
00000060: bc89 d1bc 6c7c 83bc 5a2f b43c 621c dd3f
00000070: f0b0 0740 d288 0540 a499 ea3e a7a9 eb3f
00000080: 4855 1140 3411 6b3f 39e9 6c40 a1d6 6f40
00000090: ee1e 2440 0f35 fe3f e060 4a3b c8d4 2b40
000000a0: 31ed 4c40 fd3b 2040 5ea0 db3c 4a8f c3bc
000000b0: d759 0fbd 7b7e 8240 7bfe 6b3d 0442 d43e
000000c0: 62a7 1540 a518 a4bd e07f 9e3f 9d1b 1b3f
000000d0: 3e8b 203f 403d 83bd df39 f73e 8b57 2640
000000e0: 63b2 f93f dcd3 0cbd 0086 44bd d4b9 83bc
000000f0: 6012 b4ba 3f87 d0bd d6c3 3840 1780 683d
00000100: 0835 413d 0d91 a3bd af05 803e b0ce e5bb
00000110: a933 4b40 06e5 2f3d 5820 2b40 da95 613d
00000120: 2efa 363f 2a32 d03f 2be3 0240 e7c9 3a40
00000130: 26c9 9e3f 3c73 4c40 c554 813d efbd 3e3f
00000140: f4c9 1a3e 1355 1d3f aec8 4540 69a5 623d
00000150: 0b86 8a3f d93d 8cbd b833 0ebd fb39 3ebc
00000160: 3ca6 c63c 2b8d 913d 827d 153f 0587 2b40
00000170: 9ca4 8b3d 5f7d fe3c 0181 013c 4aeb 74bd
00000180: 1c2b a33c 6729 9b3d 18f1 433c ad8b 6a40
00000190: 7b4a 193f 8b3a fd3f 082e d6bd 8c53 27bf
000001a0: 666b 223d 2167 1d3f 5551 4e40 3972 723c
000001b0: 0c87 a3bc d5f5 b33d 0f7c 8440 0ec3 113f
000001c0: 2922 a2bc b7e0 433f 6b97 42bf 2eaa 3b3f
000001d0: 3616 80bc 57c2 893f d447 913c 5092 58bd
000001e0: 0264 3340 b82a 1d3d 743e 633f a544 0bbd
000001f0: 49a6 803d 0d63 5d40 bdba 7040 e9cc 1e3f
00000200: 40b8 623d 0385 103d a40b 1640 dbd5 2b3f
00000210: 9785 0e40 d81e f83e 0d7f 8040 c619 28bc
00000220: 20d6 1640 b454 c23f 5279 4e3d 187d 68bd
00000230: fd7e ff3c f687 1b3d ad22 fa3b 52f8 c7bc
00000240: 5f9d 1740 9e52 d4bc d2ba 08bf 078f 0a3f
00000250: c02b 6240 8e23 8cbd 9fac 6f40 6c0e ea3c
00000260: 15fd 03bd 05bd f93c 0d60 983d f904 dc3f
00000270: 923f be3f 8f49 1a40 d330 ec3e 295c bc3f
00000280: bdfe 1740 b0b4 a63f ba1a 8140 6e20 6640
00000290: 6310 7340 775a f93f cc7f f3bc d436 2b40
000002a0: 3689 1f40 8bad 1940 5817 803d a99f 14bd
000002b0: f0af 573c a94f 6440 9592 a43b 0714 133f
000002c0: efd6 4640 fc4a a3bc 688f 693f c9fd 2a3f
000002d0: 4a48 313f 8039 593b 68d6 1f3f bbab fa3f
000002e0: 651b de3f a07f c73c b538 0fbd d7dc 8d3d
000002f0: d23d 663d 174d d8bc fbac 1c40 e565 473c
00000300: fb56 d3bb 626d 283d 6b97 ce3e 3afe 6c3d
00000310: 62a4 4740 7d0d d13c 8456 3040 8dc8 a33c
00000320: 4260 223f 29d5 f23f 9dd8 f13f f7a1 4b40
00000330: 6484 e43f ee27 0a40 502f 3c3c 4908 543f
00000340: d0e7 333c 8492 f53e 21d9 4d40 320e c6bd
00000350: ed95 863f 1b3c 3abb 5af2 0c3d c668 a3ba
00000360: d609 61bd 4025 57bb 0ff9 d83e 1289 1740
00000370: 40a1 d33b 51a9 883c 74bc 663d 38a4 143d
00000380: 92d4 783d 871f 8fbd b414 84bc f5ee 8740
00000390: 246e 173f 15ea cdbf b71d 623d 424f 19bf
000003a0: b705 b7bd dcf3 2d3f 6d5d 5440 1cd8 3b3d
000003b0: 5923 963d d987 8dbd b84f 8140 07c6 163f
000003c0: 5471 bb3d 625e 673f 1660 d23d f384 323f
000003d0: cba0 74bd 7245 903f f3c3 54bd a63d 233d
000003e0: 6604 f03f 1fe8 2d3c dfa7 b83f 8abc 873b
000003f0: 33bc 933d be47 8040 595f 7440 1be7 283f

net.4.bias f4 [13]
1.4853853 0.8467669 1.0550405 1.5633317 1.2434835 1.2014015 0.8826903 1.2950548
0.61149967 1.1600232 0.6549055 0.7797165 0.7305797
00000000: 1b21 be3f b7c5 583f 910b 873f 411b c83f
00000010: 782a 9f3f 86c7 993f fef7 613f 5bc4 a53f
00000020: 3e8b 1c3f a47b 943f e3a7 273f 809b 473f
00000030: 4507 3b3f
