checkpoints2/team2_agent_1.pt (torch, 411297 bytes, 24 tensors)

net.0.weight f4 [128, 53]
000000 5d 28 ab 3e d8 c8 8c 3e 05 dc c6 3e c6 61 00 40
       0.33429232 0.27496982 0.38839737 2.0059676
000010 2e 64 88 3e 29 b1 30 bf 6f 7c a4 bf 3b fd 72 bf
       0.2663893 -0.69020325 -1.2850474 -0.9491765
000020 21 a4 8c 3f 6e 90 88 3f ec 83 8c 3f 1d b3 a8 bf
       1.0987588 1.0669076 1.0977759 -1.3179661
000030 06 20 88 3f 6e 77 a6 bf dc cb d8 be 8d 64 96 bf
       1.0634773 -1.3005197 -0.42343032 -1.1749436
000040 07 6e 12 3c e7 fd da 3e 54 9a 6c 3f a6 49 d1 3f
       0.008937365 0.42771837 0.92422986 1.6350601
000050 58 6b 22 bf 4c c4 c7 bd 81 37 5b bf a9 16 1f c0
       -0.63445044 -0.097542375 -0.8563157 -2.485758
000060 8a 2b 4e be ed fb 5d bf 53 3d 5c 3f fb fe ff 3d
       -0.20133796 -0.86712533 0.86031073 0.124998055
000070 61 36 8a bf eb 8a 12 bf d7 91 d3 be e5 99 ea 3e
       -1.0797845 -0.5724322 -0.41322204 0.45820537
000080 a9 22 29 3f d2 b8 c5 bf 92 f8 23 bf b6 d6 95 bf
       0.6606851 -1.5447028 -0.64051163 -1.170615
000090 6c 38 b9 bf 3f 11 e8 be 50 8f b7 3f d3 de cd bf
       -1.4470344 -0.45325658 1.434061 -1.6083626
0000a0 fb f8 02 3f 6c 91 a9 be 84 95 ba 3e 4c 2e e7 bf
       0.51161164 -0.3311876 0.36442196 -1.8061004
0000b0 e4 ae af be d7 92 b3 3e 89 1c a4 3d c6 cf dc be
       -0.34313118 0.35072967 0.08013255 -0.4312727
0000c0 83 e6 1d bf c7 ce 35 be d1 2e 1d bf 8f 46 87 3f
       -0.6167986 -0.1775466 -0.6139956 1.0568408
0000d0 3c de f5 be 3d 2e c9 3e f3 40 ab 3e 86 fc 10 3f
       -0.48021114 0.3929309 0.3344799 0.5663532
0000e0 db a2 23 3f 6c 82 ef 3d 54 c9 2e 3f 49 66 13 3f
       0.6392037 0.11694798 0.6827595 0.5757795
0000f0 3f 2c 53 3e c5 52 9d 3f f8 96 bf be ec 1d 56 3e
       0.20622347 1.2290884 -0.37419868 0.20909852
000100 f8 94 27 bd b8 3e cc 3c fb 6d c2 3b 78 31 e4 bd
       -0.040913552 0.02493225 0.005933521 -0.11142248
000110 10 98 14 3d e6 1d b8 3e 42 9b 8a be 46 33 41 3f
       0.03627783 0.3596031 -0.27071577 0.7546886
000120 3a e2 fb 3e 0a 47 6b bf cb 8b 26 3f 60 58 09 bf
       0.49196035 -0.9190527 0.6505706 -0.53650475
000130 68 37 02 3d 73 1b b3 3e 32 38 a7 3e ea 98 ac be
       0.03179112 0.3498188 0.3266006 -0.33710414
000140 ac 95 fa 3e c3 b0 8e be b6 d0 0c 3f b8 69 11 bf
       0.48942316 -0.27869233 0.5500597 -0.5680194
000150 20 d8 8a be 1a 96 11 be d0 ad d9 3c 68 fd 8e be
       -0.27118015 -0.14217415 0.026572138 -0.2792771
000160 33 4e 60 3c 48 91 64 3f 50 86 6e be c3 77 de 3d
       0.013690519 0.8928418 -0.23293424 0.108626865
000170 41 39 49 bf 06 1f e6 3e 63 be 67 3e 14 3b 8f be
       -0.7860299 0.44945544 0.2263122 -0.2797476
000180 5d 04 bf be 4b f6 a3 be 52 06 df be 28 da 0f bf
       -0.37308016 -0.32023844 -0.4355951 -0.56192255
000190 ee 54 2a 3f 8f 89 cd 3e 91 47 d1 be 9f 18 d4 3e
       0.6653584 0.4014401 -0.40874913 0.41425034
0001a0 bd 26 0b 3e 0c 26 c4 bd 48 81 f0 3e 70 6a b7 3e
       0.13588996 -0.09577569 0.46973634 0.35823393
0001b0 65 62 f0 3e b4 82 d0 3e d8 84 ab bd 7b 34 4a 3f
       0.4695007 0.4072472 -0.08374947 0.7898633
0001c0 22 a3 22 3f 3b f4 33 be f9 cf 92 3f 51 5b e4 bc
       0.6353017 -0.17573635 1.1469718 -0.027875574
0001d0 89 9d dd 3e 96 e6 b5 3b 0a 6b 07 3f 98 57 c1 bd
       0.43284252 0.0055511696 0.52897704 -0.09440535
0001e0 86 7b d9 bd 58 a1 c4 bd 81 23 89 3e 0e 61 6f be
       -0.10619263 -0.096010864 0.267849 -0.23376867
0001f0 cc df 54 3f 27 ce b9 3e bb 23 76 bf 65 f4 12 3f
       0.83153987 0.36290094 -0.9614827 0.57404166
000200 61 d4 46 bf cd 0f ae 3e 13 73 50 bd 33 4f 83 3e
       -0.77667814 0.3399643 -0.050890993 0.25646362
000210 ed 03 dc be 71 aa 93 3e 3b c4 90 be 1c da eb 3e
       -0.42971745 0.28840974 -0.28274712 0.46064842
000220 b6 6d 21 bf eb 4e a1 bd c1 81 83 bd 2e 9e 69 3e
       -0.6305803 -0.078763805 -0.06421233 0.22814247
000230 ae d2 1b be ec cf 92 3c 49 55 35 3f 65 a8 a7 bd
       -0.15217087 0.01792141 0.7083326 -0.081864156
000240 5a 84 72 3e df af 24 be 86 36 91 3e 66 ad d1 3e
       0.236833 -0.16082714 0.2836191 0.40952605
000250 d6 fc 1a bf 3b 2c 06 3d c0 61 8c be 71 7b bb be
       -0.6054205 0.032757025 -0.27418327 -0.36617616
000260 07 4b 29 bf 13 bf 53 3f b4 05 1d 3f 3f c3 b9 be
       -0.6613011 0.8271343 0.6133683 -0.36281773
000270 2c b9 40 3f a5 10 78 3e 0f ff e4 bc fe 2c db 3d
       0.7528255 0.242251 -0.027953653 0.10701941
000280 3b ce 36 3e 5f dc ed 3f 6e e0 e5 3f 41 99 0c 3e
       0.17852108 1.8582877 1.7959116 0.13730337
000290 44 2e d5 be 2e 97 b4 3e a3 66 da 3e 33 a2 b4 bf
       -0.4163686 0.3527159 0.4265643 -1.4111999
0002a0 24 64 12 3f 1f 22 ce bf ac 48 10 3f 03 b3 aa bf
       0.5718405 -1.6104163 0.5636089 -1.333588
0002b0 6a 4d a1 bf 97 47 25 bf af 7f 77 3e d4 c9 2a 3e
       -1.260175 -0.6456236 0.24169801 0.16678554
0002c0 f3 6c b6 bf 6f e2 07 c0 1a eb be 3c 29 1e b9 3e
       -1.4251999 -2.1231954 0.023305465 0.36155823
0002d0 1d 37 0a bf 50 5c 3d be 4d 59 22 bf 3e 83 fb 3e
       -0.53990346 -0.18492246 -0.6341751 0.49123567
0002e0 15 e7 0d bf 40 22 16 be 12 74 0d bf aa ca bd be
       -0.5543073 -0.14661503 -0.55255234 -0.37068683
0002f0 31 d0 21 3e 96 d0 2e bc 92 0f 1c 3e 43 09 e0 3e
       0.15802075 -0.010669848 0.15240315 0.43757066
000300 9c d5 13 bf cb 27 f2 be 57 43 2b bf 64 1f d4 3e
       -0.5774782 -0.47295985 -0.6689963 0.414302
000310 8f 86 c4 bf 04 5d 08 bf 1e 5f df bb 00 9e 9d 3e
       -1.5353564 -0.5326693 -0.006816759 0.30784607
000320 7d 8a 08 be ed 3f 98 bc 2e a5 61 bf 11 5d c3 3f
       -0.13334079 -0.01858517 -0.8814267 1.5262777
000330 4b 60 4c 3f 44 12 c8 3e 5a e4 ba bf e7 62 9a bf
       0.7983443 0.39076436 -1.4600937 -1.2061433
000340 b4 db 21 3d 93 4a 9d bf 6c 0d 2b bd ce 03 ce bd
       0.039516166 -1.2288383 -0.041760847 -0.100593194
000350 f6 39 2f bc 54 09 de 3e 6c fd 33 3f e3 0d 00 be
       -0.010694971 0.43366492 0.70308566 -0.12505297
000360 88 a0 c9 be 18 8c c2 3e fe f3 52 bf 66 a3 e1 3d
       -0.39380288 0.37997508 -0.8240355 0.11017494
000370 a2 58 8e bf f6 58 3c 3e ad 18 5f 3e f3 a6 06 be
       -1.1120799 0.18393311 0.21786757 -0.13149624
000380 e4 ff e9 bd b9 cb ec be a6 eb 33 be c3 dd 8a bf
       -0.114257604 -0.46249178 -0.17570361 -1.0848926
000390 9b 5a c0 be 97 7c 00 bf 87 50 db be 02 06 8c bf
       -0.37569126 -0.5019011 -0.42834875 -1.0939333
0003a0 bf 0a 80 3e eb c8 14 3e 89 b9 ad be 78 8a 81 be
       0.250082 0.14529769 -0.33930615 -0.25300956
0003b0 2b 2c 84 3e 3c 71 13 3f 8c 5f 73 3e de 84 58 3e
       0.25814947 0.57594657 0.23766917 0.21144435
0003c0 08 cb b5 bf 47 3b 05 3f 2b 4d 89 bf 19 c6 bb be
       -1.4202585 0.52043575 -1.0726675 -0.36674574
0003d0 d4 23 86 3d bd 5f aa 3e 83 46 1b be 39 5e d0 3f
       0.065498024 0.33276168 -0.15163617 1.6278754
0003e0 6d 9d c7 3d 2e 09 64 3f 22 5b 25 3e 69 46 be be
       0.097468235 0.8907651 0.16148046 -0.37163094
0003f0 26 54 97 be 05 a5 ce 3e c1 14 27 bf 7e a4 a7 3e
       -0.29556388 0.40360275 -0.6526604 0.32742685

net.0.bias f4 [128]
000000 0e 58 06 3d 51 73 18 3f 2f f4 28 3f 32 d5 8f be
       0.03279882 0.5955096 0.65997595 -0.28092343
000010 ed 72 97 3e d5 bd 50 bd 32 a4 c2 3e 07 08 01 3e
       0.2957987 -0.050962288 0.38015896 0.12600718
000020 cc 75 c3 bd 36 c8 88 3e f2 77 cb 3e fe 3c 6e 3d
       -0.09543952 0.2671525 0.3973995 0.058163635
000030 ad 87 a5 bd 39 68 0d bf 02 04 07 be 55 7d 0c 3c
       -0.08082519 -0.55237156 -0.13185123 0.008574803
000040 9c 4c 05 bf 1a 3b 30 be 3c 55 e8 bc d5 e4 8c 3e
       -0.5207002 -0.17210045 -0.028360955 0.27518335
000050 7e 0b 72 be f3 04 d0 3e 02 30 bb bd 8e e1 0d be
       -0.23637196 0.40628776 -0.09140016 -0.13855574
000060 21 42 63 be ac ac ff 3d 8f a4 db 3e 9f 06 a6 be
       -0.22193195 0.124841064 0.42898986 -0.32426926
000070 00 72 8b be 7a f4 a6 3e 84 c1 b5 3e e0 ae 8d 3e
       -0.27235413 0.32608396 0.35499203 0.27672482
000080 06 05 55 be a8 8e cd bd 08 5c 65 be 19 49 8b be
       -0.20802698 -0.10036975 -0.22398388 -0.27204207
000090 1c a5 80 3d cb d8 de bd b4 0f b1 3e 37 27 02 3e
       0.06281492 -0.10881194 0.34582293 0.12710272
0000a0 92 8c 10 be 79 5d 84 be 46 53 d3 3e 98 66 02 3f
       -0.14116123 -0.25852564 0.4127447 0.50937796
0000b0 86 d1 95 be 0e 69 f1 be 41 f7 bf bd 37 16 3f 3c
       -0.29261416 -0.47150463 -0.09373332 0.011663011
0000c0 8d d3 8d 3d ec ea a3 3e fd ed 38 3e f8 57 b1 3e
       0.06925116 0.3201517 0.18059535 0.34637427
0000d0 e6 aa 07 bf 61 3d 76 be f8 72 2b 3e 26 33 fd 3d
       -0.52995145 -0.24046852 0.16743076 0.123632714
0000e0 b2 de 61 3e 59 65 69 be da ee ac 3e 16 3e aa be
       0.22057608 -0.22792567 0.3377598 -0.33250493
0000f0 b4 6b 1d 3f 98 49 b4 3d 90 3f 96 3e ab 13 52 be
       0.61492467 0.088030994 0.2934537 -0.20515315
000100 93 d5 71 3f 53 27 a6 3e 53 19 a3 be ac 07 35 3e
       0.94466513 0.32451877 -0.31855258 0.17678708
000110 6f af f8 3d 9c 4e a6 bd 79 47 08 bf b5 8a 2f be
       0.12142836 -0.08120462 -0.5323406 -0.17142756
000120 df a3 44 3d 2f 20 2c 3f 63 0f 3e 3d 21 c7 09 3f
       0.048007842 0.6723661 0.046401393 0.5381947
000130 a5 38 07 bf d8 a2 26 be 76 9c 11 3d b8 35 09 be
       -0.5282081 -0.16273057 0.035549603 -0.13399398
000140 99 55 48 3d 80 99 dd 3e f4 27 4e 3e 2f 06 68 bc
       0.048909757 0.43281174 0.20132428 -0.0141616305
000150 9a 2c 96 3e 4b 09 18 be 12 bc e0 bd 3a 9c 5f 3e
       0.29330903 -0.14847295 -0.109733716 0.2183694
000160 9c 57 24 3f 1e af 80 be fb f2 8b 3e 27 29 bc 3b
       0.6419618 -0.25133604 0.27333817 0.0057422104
000170 66 e6 a2 3d c3 84 41 3f 75 b6 4e 3e 1d 16 09 3f
       0.07954101 0.75593203 0.2018679 0.5354937
000180 fb 99 a7 be 6b 86 e7 3c a3 00 a9 3e 53 4d 6c 3e
       -0.32734665 0.028262338 0.33008298 0.23076372
000190 c3 83 a0 bd 46 26 03 be 82 2a 51 3f 01 de 2a be
       -0.078376316 -0.12807569 0.81705487 -0.1668625
0001a0 4f fe 20 bf 53 67 22 3e 8c 3e 4c 3f 83 a5 69 be
       -0.62888044 0.15859728 0.7978294 -0.22817044
0001b0 3e e7 51 3e a5 69 15 3f 70 41 e4 3d c7 e4 16 bd
       0.20498368 0.58364326 0.11145294 -0.036839273
0001c0 33 13 8d 3e 1f 49 19 be 87 ad 79 be 95 b4 42 be
       0.2755371 -0.149693 -0.24382602 -0.19014199
0001d0 3b 18 90 3e 25 80 0c 3e da da a9 3e ff 2b 5f 3f
       0.28143486 0.13720758 0.33174783 0.8717651
0001e0 13 38 e9 be f2 a4 84 3d 9a db 23 3e 0c 9e 61 3e
       -0.45550594 0.06476773 0.1600174 0.22032946
0001f0 7b 8d 60 be 55 a0 8d 3d 6a 01 3f 3e 6a 86 3a 3e
       -0.2192897 0.069153465 0.18652883 0.18215337

net.2.weight f4 [128, 128]
000000 0e e6 54 3f f9 da 71 bd 33 7a e3 3d f7 96 8d bf
       0.83163536 -0.05904672 0.11107292 -1.1061696
000010 e3 fb 06 40 9f ab 8b bf 89 e0 c2 3f 94 b3 d4 be
       2.109124 -1.091175 1.5224773 -0.41543257
000020 d1 6b 9e 3f 87 73 34 3f 66 c6 0e c0 43 02 dc bf
       1.2376653 0.7048878 -2.2308593 -1.718819
000030 02 cd e5 bf 05 0e 17 40 2e c4 90 3c 1d 64 43 bf
       -1.7953188 2.3602307 0.01767167 -0.76324636
000040 d0 00 ac 3f e6 90 b9 bd a4 16 ae 3f 88 5a af bf
       1.3437748 -0.0906084 1.3600659 -1.3699503
000050 36 ed fd bc b1 95 db 3f fc a9 35 3f 7f 20 af 3f
       -0.0309969 1.7155057 0.709625 1.3681792
000060 f5 d2 21 bc 1e ae e4 bf aa e5 00 3e 59 7d e4 3f
       -0.009876956 -1.7865636 0.1258761 1.7850753
000070 52 93 75 3f 01 1c 9d be 34 63 e4 bf 1d 28 79 bf
       0.9592792 -0.30685428 -1.7842774 -0.97326833
000080 a3 dd ea 3c a7 f4 46 3f f6 48 90 bf e3 ee 1b 40
       0.028670138 0.7771706 -1.1272266 2.4364555
000090 b9 c4 e2 bd 31 83 8b 3f e8 df 58 bf 56 89 60 3f
       -0.11072678 1.0899411 -0.84716654 0.8770956
0000a0 c0 93 e3 3d 58 7c 1b bf 13 54 1d 3f 3d 79 52 c0
       0.111121655 -0.6073661 0.6145641 -3.2886498
0000b0 c2 73 51 bf 15 09 7a 40 e6 79 04 3f 8c a0 8a 3f
       -0.8181726 3.9068043 0.517485 1.0830245
0000c0 ea e7 b0 bf cd 44 91 3f 14 b5 e7 3f 7f 3c 88 bf
       -1.3820775 1.1349121 1.8102136 -1.0643462
0000d0 62 21 df 3f a2 48 87 bf cc b3 e8 bf 8e a5 35 3f
       1.7432063 -1.0569041 -1.817987 0.7095574
0000e0 54 ff 8e bf 1e c3 91 3f 93 5d a7 bf 36 04 59 3f
       -1.117167 1.138767 -1.3075432 0.8477205
0000f0 fe c4 bf 3f 1d 0b 17 c0 1e 4c fa 3f a0 d2 ee 3f
       1.4981992 -2.3600533 1.9554479 1.8658028
000100 66 48 87 3f 10 a4 b0 3f 13 be ee bf 3b 3a 1f 40
       1.0568969 1.3800068 -1.8651756 2.487929
000110 a5 04 ed bf a2 25 84 3d ab 2c d4 bf a1 15 a8 3d
       -1.8517042 0.064524904 -1.6576132 0.082072504
000120 23 94 9d bf c3 84 2d be 08 42 24 3f b8 a9 94 bf
       -1.2310833 -0.16945176 0.64163256 -1.1614294
000130 ed ee 48 40 cf ac 3b c0 e8 69 c2 3d 3e 10 ce bf
       3.1395829 -2.9324224 0.09492856 -1.6098707
000140 a0 07 b8 3f af ba d5 bf 4a 54 39 bf f2 db 64 3f
       1.4377327 -1.6697596 -0.7239424 0.8939811
000150 7f f9 31 3e 93 3d dd bd 06 32 67 3f cb a8 10 bf
       0.17380331 -0.1080276 0.90310705 -0.5650756
000160 42 cf e5 bd 16 04 22 3d 88 dc 0d be 0e 3b 0e 3f
       -0.11221172 0.039554678 -0.13853657 0.5555886
000170 49 c5 b0 3e 1c 41 f7 3d 8b 09 21 40 c9 8e 9a be
       0.34525517 0.120729655 2.5162075 -0.3018706
000180 fb 8f b4 bf 1a b8 ae 3e 4d 22 94 bf 5a e9 b4 3f
       -1.4106439 0.34124833 -1.1572968 1.4133713
000190 8a 0c bb 3f 2b bc 04 3b cf 24 46 3d 0f 66 a8 3f
       1.4613202 0.0020253758 0.048374947 1.3156146
0001a0 6c 63 31 3d cc 6b 21 c0 27 b5 9d 3f 7e 75 cf 3f
       0.043307707 -2.5222044 1.2320908 1.6207731
0001b0 e5 80 ff 3f b4 c7 3f be 3f 53 31 3e b9 28 c1 bd
       1.996121 -0.18728524 0.17316912 -0.09431595
0001c0 21 05 d4 bf 97 91 7d 3d 55 95 44 40 79 18 22 3c
       -1.6564065 0.061906423 3.0716145 0.00989353
0001d0 b7 61 e0 3e c0 3e b1 bf 8c 54 fd bf 84 fb a4 3d
       0.4382455 -1.3847275 -1.9791427 0.08055785
0001e0 fa 06 8d bf 2a 28 d7 be f2 be f2 3f ba 19 bb bf
       -1.1017754 -0.4202283 1.8964522 -1.4617226
0001f0 5f cf 62 bd a1 51 ca 3d 8e 46 a5 bf b2 2a e1 bf
       -0.055373546 0.09878851 -1.2912157 -1.7591155
000200 d5 28 c7 bd ae 5d 05 3d 5a 90 e9 bd 96 21 3c 3d
       -0.09724585 0.032560043 -0.11404486 0.045930468
000210 80 c9 a2 bb c7 39 31 bd 99 c6 9b 3d e8 5e 08 bd
       -0.0049678683 -0.04326799 0.07606239 -0.033293635
000220 61 1e 88 3c 03 38 b1 bd e1 d3 e6 3b e8 a3 cc 3c
       0.016616048 -0.086532615 0.007044301 0.0249805
000230 f2 7f 9a 3c f0 15 19 3d 56 5c 4a 3d d4 84 08 be
       0.018859837 0.037374437 0.049404465 -0.1333192
000240 e4 ed cc 3c 1a 4e 53 3d 18 d3 35 bb da ad 1e 3d
       0.025015779 0.051588155 -0.002774423 0.038740017
000250 b7 22 a9 bd b9 04 c0 3c fc 67 a2 bc e9 17 8c 3d
       -0.082585745 0.023439752 -0.019824974 0.06840498
000260 d0 3a c7 bb 74 91 af 3c 96 bb 98 bd b5 99 c2 bd
       -0.006080009 0.021431662 -0.07457654 -0.095019735
000270 53 cc 8f bd 51 4a 63 bd 8d 40 d0 bb 54 50 40 3c
       -0.070213936 -0.055490796 -0.0063553513 0.011737902
000280 43 ae 87 bd 17 7f 4c bd 78 53 0b bd 5a e8 d3 3b
       -0.06625035 -0.04992589 -0.03401515 0.0064669074
000290 e2 c1 e5 bd ab f7 03 bd b8 42 0e be 30 a2 1d bc
       -0.11218621 -0.032218616 -0.13892639 -0.009621188
0002a0 80 b1 ac ba f0 71 ac bd ef b7 0c be 90 3c b8 bd
       -0.0013175458 -0.08420169 -0.1374204 -0.089959264
0002b0 79 20 44 bd 40 78 2a 3d f6 c5 69 3d 56 05 82 3d
       -0.04788253 0.041618586 0.057073556 0.06348674
0002c0 86 b3 6e bd 5c fe 75 bd 90 67 af bd fc 66 78 3c
       -0.058276676 -0.06005703 -0.08564675 0.015161272
0002d0 85 09 7a bd 71 a5 00 bd 12 0a a3 bd 0b f7 9e bd
       -0.061044235 -0.031407777 -0.07960905 -0.077619635
0002e0 8e 83 a8 bd 60 f1 0e bd 2b 8f 53 bd e0 29 e8 bb
       -0.08228217 -0.034898162 -0.051650207 -0.00708507
0002f0 97 6c e7 3c db c5 d2 bc 58 0c c7 bd d7 45 58 bd
       0.028250022 -0.02572911 -0.09719151 -0.05280098
000300 be 46 a9 bc 1c aa e6 bd 9e d1 18 bd 4f 04 5f bd
       -0.020663615 -0.112629145 -0.03730928 -0.05444747
000310 b8 57 9b bd 75 02 1d bd 76 73 41 3c 10 b8 4e bc
       -0.075850904 -0.03833242 0.011807313 -0.012617126
000320 42 e8 94 bd f3 07 3e 3c 02 6b d5 3b 14 84 0d bd
       -0.07270862 0.011598575 0.0065130005 -0.034549788
000330 c0 46 85 bd a1 96 d5 bc 8d f8 c3 bd fe 49 66 3d
       -0.06507635 -0.026072802 -0.09568892 0.05622291
000340 f0 21 75 bd 07 0b 8f bc 3c 63 a2 bd d6 7e 82 3d
       -0.05984682 -0.017461313 -0.07929084 0.06371848
000350 47 e2 99 3c af b7 7c bd aa 1b 6c bc 5a c7 46 3d
       0.018784655 -0.06169861 -0.0144108925 0.04852996
000360 e4 3d 2f bd fb 77 93 3d 67 32 c5 bc c2 83 02 3d
       -0.042783633 0.07200619 -0.024071885 0.031863935
000370 c9 eb 97 bd c8 a8 cc bd bf f4 b4 bd 8b b4 f1 bd
       -0.07418019 -0.0999313 -0.08835744 -0.11802014
000380 a4 48 ed ba 10 f0 f8 3c 43 48 41 bd 12 85 9b bd
       -0.0018103314 0.030387908 -0.047188055 -0.075937405
000390 01 e9 be bd 9a 7b 91 bd f6 8e 38 bc 61 43 b4 bd
       -0.09321786 -0.07103653 -0.011264553 -0.08801914
0003a0 1a 39 c5 3c 94 97 e0 3c 0c aa a1 bd 66 a7 1d 3d
       0.02407508 0.027416028 -0.07893762 0.03848972
0003b0 8c 13 1f 3d a7 ed 6e bd 5c 04 df bd 79 2d 48 3d
       0.038837 -0.05833211 -0.10889503 0.04887149
0003c0 30 70 34 3c bc 80 98 bd 43 0b b6 bd 08 1f 97 3c
       0.011013076 -0.07446429 -0.08888867 0.018447414
0003d0 89 e0 bc bd 16 e4 73 3d f5 e5 5c bd 9c eb b4 bc
       -0.09222514 0.05954369 -0.05393024 -0.022085004
0003e0 d3 c9 51 bc 5e d9 a7 3c 8f d7 63 bd 04 ac f3 3c
       -0.012804466 0.020489391 -0.055625495 0.02974511
0003f0 36 04 3f bd 14 52 7d bd 32 b1 54 3d 14 2e aa bc
       -0.046634875 -0.061845854 0.0519268 -0.020773925

net.2.bias f4 [128]
000000 69 79 46 3f 17 72 b4 bd 97 82 23 3f d5 d7 19 3f
       0.7752901 -0.088108234 0.6387114 0.6009496
000010 bb 02 8a be b8 d4 0b 3c 57 d3 4a 3f 40 25 05 40
       -0.26955208 0.008534603 0.7922873 2.0803986
000020 73 c2 0e 3f 7f 44 02 be 9b 85 ad bd 28 28 a1 bd
       0.55765456 -0.12721442 -0.08472749 -0.07868987
000030 94 5e 90 bd 93 4b 36 bd 97 d7 1c 3f 40 24 c1 3f
       -0.07049289 -0.044505667 0.61266464 1.5089188
000040 ee db e4 bd 42 74 c7 3f 40 a0 08 be 7f e3 d5 bd
       -0.11174761 1.5582354 -0.1334238 -0.10443782
000050 c7 5a 15 3f c0 50 d7 3f 66 ed 0c be 65 0b 5a 3f
       0.5834164 1.6821518 -0.13762435 0.85173637
000060 05 b9 ec 3e 73 78 00 3e 42 f1 0c 3f 16 85 7e bd
       0.4623491 0.12545948 0.5505563 -0.06213864
000070 55 5b 7c 3f 42 8f 51 3f 4c b4 b9 3f ce 9a 03 3e
       0.9857686 0.8185922 1.4508147 0.12852022
000080 34 1a 05 3f 6d 65 50 3f 10 98 7f bd ee 90 ed 3e
       0.5199311 0.81404763 -0.062400877 0.46399635
000090 8e 45 d1 3e 45 73 3b 3f 35 4d 1b 3f 00 9c c4 bc
       0.4087338 0.7322276 0.60664684 -0.024000168
0000a0 43 a5 4e bd 99 58 5a 3f 5c 55 2a 3f 99 14 88 3f
       -0.050450575 0.8529144 0.665365 1.0631286
0000b0 45 67 12 3f 25 28 ef bd 38 ed 13 3f 80 96 bd 3f
       0.57188827 -0.11677579 0.5778384 1.4811554
0000c0 af 4c 8d 3e 26 ca a1 3f 70 6e 35 3f 5d f6 bd bd
       0.27597567 1.2639816 0.7087164 -0.09275506
0000d0 a4 0b 18 be d2 49 88 3b a5 d8 bf 3f e7 1d 96 bc
       -0.1484819 0.0041591907 1.498799 -0.018324805
0000e0 21 90 ec bd 52 40 35 3f 7a 86 95 bc 6b 14 3e 3f
       -0.11550928 0.7080127 -0.0182526 0.74249905
0000f0 3f 27 b2 3f 91 9b 00 3f 16 74 2b bd c3 b9 2a bd
       1.3918227 0.50237375 -0.041858755 -0.041681062
000100 3c 2f ca bd 13 f9 90 bd f3 61 4f be 1e 01 d6 bd
       -0.098722905 -0.07078757 -0.20252208 -0.10449432
000110 90 2f d5 3e a5 86 ac bd 63 60 8e bc 37 af 43 3c
       0.4163785 -0.08424119 -0.017379945 0.01194363
000120 ce da 26 3f 11 3d cf 3f 71 dc 4c 3f 54 21 b8 bd
       0.6517762 1.6190511 0.80023867 -0.08990732
000130 b6 60 2e be 87 e8 a9 3f 32 f5 25 3f a7 ff d5 3f
       -0.1702908 1.3274087 0.64827263 1.6718644
000140 7e fc a6 bd 36 e7 99 bd 87 46 d5 3f 50 4a a7 3e
       -0.08153628 -0.07514803 1.6662148 0.32673883
000150 c0 40 4c 3f 67 66 a2 bd 8b 6e 12 3f e6 0b b2 3e
       0.797863 -0.07929688 0.57199925 0.34774703
000160 b2 7d 22 3f 22 eb ec 3e e5 ad 65 3f e3 5e 1c 3f
       0.63473046 0.46273142 0.89718467 0.61082286
000170 9d 34 d4 3f f5 f7 1e 3f 9f 30 88 bd 64 22 90 bd
       1.6578556 0.620971 -0.06649899 -0.070378095
000180 e6 17 2a 3f b7 44 bc 3c 16 31 4e 3f b8 8d 66 be
       0.66442716 0.022981985 0.8054365 -0.22514999
000190 5d 76 b1 3f 56 55 02 be 4c d9 1f 3f 5b 20 7d 3f
       1.3864247 -0.12727866 0.62440944 0.98877496
0001a0 e5 22 89 3f 35 3d c9 bd 93 59 81 3e 81 27 5a bd
       1.0713774 -0.098261274 0.25263652 -0.05326033
0001b0 87 94 a9 3f 3b 58 f4 bd 14 bc 10 bc a1 e7 52 3f
       1.3248452 -0.11930891 -0.008833904 0.8238469
0001c0 1d f0 61 bd f7 26 29 3f ae 79 f0 3e a8 15 d0 3f
       -0.05516063 0.6607508 0.46967834 1.6256609
0001d0 31 22 a4 bd c0 79 1d 3f ce e5 3d 3f f1 14 b7 3f
       -0.08014334 0.615139 0.7417878 1.4303266
0001e0 bc cd 10 bd 64 7e 24 3f 15 48 aa 3d 16 da d1 3b
       -0.035352454 0.64255357 0.0831453 0.0064041717
0001f0 ef ce 32 bd 32 1b d6 bd d8 03 1d 3f e0 0b 3c bd
       -0.04365438 -0.10454406 0.6133399 -0.045909762

net.4.weight f4 [13, 128]
000000 1c 29 a2 3f 09 c6 62 3d 45 42 86 40 6f e4 ca 3f
       1.2668796 0.055364642 4.1955895 1.5850962
000010 64 2b 52 3f 16 92 99 bd 4b b0 bd 3f 63 b7 0f 40
       0.8209746 -0.07498567 1.4819425 2.245568
000020 32 27 83 40 5d f8 14 bd 72 87 f5 3d 21 a5 9f 3d
       4.0985346 -0.03636967 0.11988725 0.07795168
000030 b8 26 2a bd 90 7d 63 40 a9 31 19 40 9b 71 27 3f
       -0.04154083 3.5545387 2.393656 0.65407723
000040 2a a6 4e 3d f8 8b f7 3f 77 ba 6e bd 1e fd 47 bd
       0.050451435 1.933959 -0.058283295 -0.048825376
000050 93 71 e0 3f 26 b3 4b 3f e1 a8 4e 40 39 b6 e7 3f
       1.753466 0.79570234 3.2290576 1.8102485
000060 a8 af 2a 40 b4 b5 71 c0 b3 73 6e 40 ab 92 a1 bd
       2.6669712 -3.7767153 3.7258117 -0.07889303
000070 5f 3a 17 3f 8b 2e 6f 3f d4 4c 46 3f ad 41 d0 3f
       0.5907344 0.93430394 0.7746098 1.6270043
000080 15 dd eb 3f ee 13 5e 3f 4b 80 92 40 60 d2 3d 40
       1.8426844 0.8674916 4.578161 2.9659653
000090 89 55 88 40 2a f9 83 3f 2f aa 8b 3f 55 85 dd 3c
       4.2604413 1.0310414 1.0911311 0.027041117
0000a0 a2 29 42 3d 9a 34 11 3f 89 85 5b 40 65 82 24 3f
       0.047402985 0.5672089 3.4300253 0.64261466
0000b0 1f 02 63 40 35 38 54 bd 9e 4a 65 40 cc 5f 3d 3f
       3.5470045 -0.051811416 3.5826793 0.739743
0000c0 e0 e7 22 40 7b ec 6b 3f eb 9b 27 40 f2 18 19 3d
       2.5454025 0.92157716 2.6188915 0.037377305
0000d0 5d 50 f3 bc eb a2 85 bd d5 0b 47 3f 7a 1e 6d bd
       -0.029701406 -0.06525215 0.7775243 -0.057890393
0000e0 8b cf 97 3d 8a 14 27 40 e5 8c 9e 3d 2d e6 d6 3f
       0.074126326 2.6106286 0.07741717 1.6788994
0000f0 63 0c 1a 3f 34 89 00 40 64 d6 ae 3d 86 89 a0 bd
       0.6017515 2.0083742 0.085369855 -0.078387305
000100 ca 7c a4 bb cd 77 ab bd 4f 7a 13 40 19 51 b3 3d
       -0.005019759 -0.083724596 2.3043401 0.087557025
000110 13 5d ab 3f 83 78 e2 bc 9b 7d 5c bd 23 3b 9b 3c
       1.3387779 -0.027645355 -0.053830724 0.018949097
000120 4f a4 ad 3f 80 5f 43 3f 7c e4 d8 3f 20 6e af bc
       1.3565768 0.76317596 1.6944728 -0.021414816
000130 f8 57 0c bc 68 dc da 3f eb 80 4d 40 f3 4d 00 3f
       -0.008565895 1.7098513 3.2109935 0.5011894
000140 16 7f 44 3d 2d c0 ee bd f5 43 34 3f bc 3b 22 40
       0.04797276 -0.11657748 0.70416194 2.534896
000150 69 6b 58 3f 70 03 94 3d c6 38 d0 3f 8d 94 5f 40
       0.84538895 0.07227218 1.6267326 3.4934418
000160 b3 45 9f 3f 8d 72 43 40 d4 ea 53 3f 26 71 17 40
       1.2443146 3.0538666 0.82780194 2.366281
000170 7f 4f 27 3f 97 de 68 40 5f f2 29 3d 68 6e 1b bc
       0.65355676 3.6385858 0.04149091 -0.009486772
000180 9f 0c 1a 40 5c f0 81 3c 41 42 38 40 fe 17 67 40
       2.4070203 0.015861683 2.8790438 3.6108394
000190 b4 44 42 3f 39 17 60 bd 0d d3 81 40 c4 17 95 3f
       0.7588608 -0.054709647 4.057013 1.1647878
0001a0 52 bf 12 3f a7 5f ff 3f 7a 53 0b 40 ba 07 96 3c
       0.5732318 1.9951066 2.17697 0.018314231
0001b0 36 e8 3d 3f 01 81 ae 3d c7 28 be bc a5 09 6b 40
       0.7418245 0.08520699 -0.023212804 3.6724637
0001c0 f3 ad 8d 3d 58 a6 f5 3f b2 c8 d9 3f 2d dd 48 3f
       0.06917944 1.9191389 1.7014372 0.7846249
0001d0 28 40 31 3c 23 6c 6a 40 1b 70 44 40 fb 4a 5b 3f
       0.010818519 3.6628501 3.0693424 0.85661286
0001e0 bc 2f 76 bd b6 53 92 3f 1e ec 5c 40 41 6b 08 3d
       -0.060104117 1.1431797 3.4519114 0.03330541
0001f0 1f 8c 1d bd 68 7a 1d bc 15 e4 01 40 3a d8 6e bc
       -0.038463708 -0.009611703 2.029546 -0.01457792
000200 99 de 34 3f 9a b0 cc 3d 44 3d 57 40 f4 cd 1b 40
       0.7065216 0.099946216 3.3631144 2.4344454
000210 f0 04 6c 3e 2b 20 34 3c f7 59 93 3f eb a7 10 40
       0.23048759 0.010993998 1.151183 2.260249
000220 7c 30 3c 40 86 48 7c 3d 03 f9 11 b9 08 fe 56 bc
       2.9404593 0.0615926 -0.00013921042 -0.013122089
000230 98 f3 e9 bc 37 d6 54 40 a6 5e 36 40 09 00 03 3f
       -0.028558537 3.3255746 2.849527 0.5117193
000240 14 0d 75 bd 1c 2e eb 3f 45 65 cf bc 66 28 8c bc
       -0.059826925 1.8373446 -0.025316844 -0.017109107
000250 9b f6 bf 3f 57 01 2d 3f ca b5 2f 40 0e c2 09 40
       1.4997133 0.6758017 2.7454705 2.1524692
000260 a6 11 40 3f 72 c6 08 c0 7a 77 29 40 fa 30 6b 3d
       0.7502693 -2.1371121 2.6479173 0.057419755
000270 7a 9a 74 3f 52 c7 04 3f 43 c8 a7 3f bc b9 e5 3f
       0.9554821 0.5186664 1.310799 1.7947307
000280 a6 c7 19 40 55 86 df 3f 59 4e 4c 40 de 11 48 40
       2.4028106 1.746287 3.192282 3.1260905
000290 21 c6 70 40 d7 ec e0 3f 77 ac ad 3f 1e 51 27 3d
       3.7620928 1.7572278 1.3568257 0.040848844
0002a0 80 d1 b1 3b a7 61 e5 3f 6a c7 74 40 b5 e9 6c 3f
       0.0054265857 1.7920426 3.8246713 0.9254411
0002b0 7a 0a 5a 40 6f a0 b9 3d 00 64 90 40 52 5a 2a 3f
       3.4068894 0.090638034 4.512207 0.6654407
0002c0 14 9b 4d 40 d3 66 54 3f bf 09 6c 40 44 a5 87 bc
       3.2125902 0.829694 3.6880949 -0.016558297
0002d0 a3 e3 43 3d 02 e7 97 bc 30 31 16 3f ad bf 45 3d
       0.047824513 -0.01854277 0.58668804 0.0482785
0002e0 b0 da 2d 3d 5e 67 3b 40 b7 5d 8f bc 0b 8a 8b 3f
       0.042444885 2.928184 -0.017500741 1.0901502
0002f0 fe 9b 54 3f ce 92 59 3f 5c 2e b0 3d 97 93 1f bc
       0.83050525 0.8498963 0.08602592 -0.009739778
000300 ae d8 8a bc 4c bd c6 bc e3 3d 65 40 c8 fc 84 bd
       -0.016949024 -0.024260186 3.5819023 -0.06493527
000310 c5 7d c1 3f 24 e7 0a 3b 83 f8 e9 3c ce 83 67 bd
       1.5116507 0.00211949 0.028560882 -0.056522183
000320 fe e1 b1 3f 1d 21 18 3f 85 e5 f7 3f 88 45 a1 bc
       1.3897092 0.59425527 1.9366919 -0.019686475
000330 da 12 6b bc f9 b1 d3 3f b1 f2 3a 40 31 75 24 3f
       -0.014347756 1.6538688 2.9210627 0.6424132
000340 0f ae 3b bd 8e 6b 89 3d 12 1d 75 3f ad 93 01 40
       -0.045820292 0.067099676 0.9574748 2.0246384
000350 2b 98 d8 3e f7 55 40 3c 6d 09 dc 3f f5 a9 3f 40
       0.42303595 0.011739246 1.7190377 2.9947484
000360 3b 1a cf 3f 15 7e 08 40 fb 03 26 3f cb ab 36 40
       1.617988 2.1326954 0.64849824 2.8542354
000370 43 5c 48 3f ad 3b 62 40 51 52 96 3d 62 70 fb 3c
       0.7826578 3.5348923 0.07339919 0.030693237
000380 ca 12 02 40 d3 69 54 3c 1c 39 0f 40 fa ed 48 40
       2.0323968 0.012964684 2.2378607 3.139525
000390 d2 f7 4d 3f 4c 7f e8 bc ea 23 8d 40 43 a0 c6 3f
       0.8045627 -0.028381012 4.410634 1.5517658
0003a0 ec b6 33 3f ee 76 10 40 51 7c 61 40 53 9e 98 bd
       0.7020099 2.257259 3.5232127 -0.07452073
0003b0 1a e0 28 3f ba 7e a7 bd 13 3d 6e 3c ca f1 70 40
       0.6596695 -0.08178468 0.014540928 3.7647576
0003c0 5c 2d d4 3c f5 1d 07 40 4e af 9d 3f f5 80 16 3f
       0.025900535 2.1112034 1.2319124 0.5879052
0003d0 ee bd 91 bd 1b bb 60 40 ee 80 50 40 34 1d 0f 3f
       -0.07116304 3.51142 3.2578692 0.55903935
0003e0 c7 1f 35 3b 8a 90 6f 3f 72 12 ed bf 33 88 4a 3c
       0.002763735 0.93579924 -1.8521254 0.012361574
0003f0 67 8c 71 bb f6 b4 2c 3d 7e ab 20 40 1b 8c 36 bd
       -0.0036857368 0.042164765 2.510467 -0.04456721

net.4.bias f4 [13]
000000 67 25 40 3f c3 b8 b2 3f de 83 3e 3f e4 37 4d 3f
       0.7505707 1.3962635 0.74419963 0.8016341
000010 f3 c2 c7 3f 66 7f 54 3f dc 99 96 3f 81 1f 3e 3f
       1.5606369 0.83006895 1.1765704 0.7426682
000020 b8 d8 71 3f c7 b6 42 3f e0 8f f2 3e cc a4 85 3f
       0.9447131 0.76060146 0.47375393 1.0440917
000030 d8 f2 52 3f
       0.824018

net.0.weight f4 [128, 53]
000000 1f 2b a9 3e e2 32 8b 3e d3 2b c9 3e 6e 3f 00 40
       0.3304071 0.27187258 0.39291248 2.0038714
000010 db 3a 88 3e b9 7f 30 bf 7a 0a a4 bf 78 52 73 bf
       0.26607403 -0.6894489 -1.2815697 -0.9504771
000020 bf 98 8c 3f 6f 97 88 3f b1 f7 8c 3f da df a8 bf
       1.0984114 1.0671214 1.101309 -1.3193314
000030 ba aa 87 3f a7 9f a6 bf 5a 93 de be fc 5f 96 bf
       1.0598977 -1.3017472 -0.43471795 -1.1748042
000040 b8 61 3c 3c 80 f4 d8 3e 0b ee 6d 3f 98 f2 d0 3f
       0.011497907 0.4237404 0.9294135 1.6324034
000050 69 74 21 bf 9d b1 c3 bd ea 05 5c bf 78 0a 1f c0
       -0.6306825 -0.095553614 -0.85946524 -2.485014
000060 d5 e4 44 be 46 b1 5c bf 10 cb 5c 3f d1 f3 f7 3d
       -0.19227917 -0.86208 0.8624735 0.12107051
000070 25 e5 89 bf a5 9e 12 bf 4f 93 d1 be 0c b7 eb 3e
       -1.0773054 -0.5727332 -0.409327 0.4603809
000080 6e a7 28 3f 75 d5 c5 bf c4 4c 26 bf 78 5f 95 bf
       0.6588048 -1.5455767 -0.64960885 -1.166976
000090 34 b4 b9 bf bc 6f e9 be 1e 78 b7 3f e0 84 cd bf
       -1.4508119 -0.4559306 1.4333532 -1.6056175
0000a0 8e e1 01 3f 64 9e aa be 49 4d bb 3e b7 04 e7 bf
       0.50734794 -0.33323967 0.365824 -1.8048314
0000b0 e2 e0 ae be 2b 9b b6 3e 15 97 a9 3d 04 fd dc be
       -0.34155947 0.3566526 0.0828077 -0.43161786
0000c0 f9 fd 1d bf 4e d4 31 be 47 46 1d bf f6 a8 86 3f
       -0.61715657 -0.17366144 -0.6143536 1.0520313
0000d0 d6 97 f6 be 22 8f c9 3e 31 0e ac 3e 5a 89 10 3f
       -0.48162717 0.39367014 0.33604577 0.5645958
0000e0 fb ac 23 3f a8 2c ef 3d 46 dc 2e 3f 6f 0c 14 3f
       0.6393582 0.116784394 0.6830486 0.5783147
0000f0 c6 54 54 3e fc 2a 9d 3f a6 a7 bf be e3 9e 59 3e
       0.20735464 1.2278743 -0.37432593 0.21252017
000100 e0 7e 26 bd 68 ec d9 3c 5a 42 31 3c 04 57 e4 bd
       -0.04064834 0.026601985 0.010819042 -0.111494094
000110 6d 38 16 3d ff f8 b9 3e f4 50 8b be d5 e3 40 3f
       0.036674906 0.3632278 -0.272102 0.75347644
000120 f5 9a fa 3e 39 54 6b bf 12 a8 27 3f 26 02 09 bf
       0.48946348 -0.9192539 0.6549083 -0.53518903
000130 cb b0 08 3d c2 04 b2 3e bb bc a7 3e 93 86 ae be
       0.033371728 0.34769255 0.32761177 -0.34087047
000140 45 e6 f9 3e 6a be 8d be 3a 61 0d 3f 84 e8 11 bf
       0.48808494 -0.27684337 0.5522648 -0.56995416
000150 b9 ae 8b be 3a 88 0f be ed d8 b0 3c 35 12 90 be
       -0.2728174 -0.1401681 0.021587813 -0.2813889
000160 73 0b 50 3c ff bb 64 3f a1 ab 6f be 25 95 db 3d
       0.012698042 0.8934936 -0.23405315 0.107218064
000170 bb 4f 49 bf 77 44 e6 3e 95 6a 67 3e 57 c6 8f be
       -0.78637284 0.4497411 0.22599252 -0.2808101
000180 67 73 c0 be bf dc a2 be cd d9 de be c5 2c 10 bf
       -0.37588045 -0.3180904 -0.43525544 -0.5631831
000190 56 c8 2a 3f bf 6b cd 3e 76 a8 d1 be cf fa d3 3e
       0.6671194 0.40121266 -0.40948838 0.4140229
0001a0 da 10 0a 3e 91 52 c6 bd e6 d2 f0 3e 50 3e b8 3e
       0.13482991 -0.09683717 0.47035903 0.3598504
0001b0 47 b2 ef 3e 91 bf d0 3e ed 4c ab bd 95 4a 4a 3f
       0.46815702 0.40771154 -0.08364282 0.79020053
0001c0 61 39 23 3f 5f b4 33 be 19 8e 92 3f 16 60 e5 bc
       0.6375943 -0.17549275 1.1449615 -0.027999919
0001d0 71 60 df 3e b0 72 c4 3b 98 a9 07 3f 8d 4a b8 bd
       0.43628266 0.005995117 0.52993155 -0.089985944
0001e0 70 59 d9 bd 37 1f c4 bd 19 ff 8a 3e 5a f7 70 be
       -0.10612762 -0.09576266 0.2714775 -0.23531857
0001f0 d3 82 54 3f 86 7f b8 3e a4 27 76 bf 11 f5 13 3f
       0.8301212 0.36034793 -0.96154237 0.57795817
000200 99 a1 46 bf 9f db ae 3e d7 e8 56 bd d2 e8 83 3e
       -0.7759033 0.34151933 -0.052468147 0.25763565
000210 66 9a dd be 9a d8 92 3e 33 da 8f be ef 3e ed 3e
       -0.4328186 0.2868088 -0.2809616 0.46337077
000220 9c ea 21 bf c2 a3 a4 bd 20 58 80 bd 86 3e 64 3e
       -0.6324861 -0.08039047 -0.062668085 0.22289476
000230 83 aa 1e be d1 d7 8c 3c 8c 69 35 3f 7a 8f ab bd
       -0.15494733 0.017192753 0.70864177 -0.08376975
000240 37 a6 70 3e 62 0c 25 be 44 45 91 3e eb 93 d1 3e
       0.23500906 -0.16118005 0.28373158 0.40933165
000250 b9 44 1b bf fc 2b f7 3c ad 75 8b be 49 d8 ba be
       -0.6065174 0.03017234 -0.27238217 -0.36493137
000260 86 9e 29 bf 6e 3d 54 3f 6b f2 1c 3f dd 14 ba be
       -0.6625751 0.82906234 0.613074 -0.36344042
000270 e3 a5 40 3f cf 38 77 3e 5f 4a ec bc f7 00 e3 3d
       0.75253123 0.24142765 -0.028844057 0.110841684
000280 75 5d 39 3e 4b e0 ec 3f 6e a2 e5 3f 2d ed 11 3e
       0.18102057 1.8505949 1.7940195 0.14250632
000290 7f 0a d5 be 16 6f b6 3e e8 33 dd 3e d6 fa b3 bf
       -0.4160957 0.35631627 0.43203664 -1.4060924
0002a0 b1 21 10 3f 17 30 cf bf cc f0 11 3f 1a 71 aa bf
       0.5630141 -1.6186551 0.5700805 -1.3315766
0002b0 ef fd a0 bf f5 06 27 bf 77 77 6e 3e d7 d7 26 3e
       -1.2577494 -0.6524499 0.2328776 0.16293274
0002c0 5b b7 b5 bf 8a 4b 08 c0 98 66 b6 3c 95 e5 b7 3e
       -1.4196581 -2.1296105 0.022265717 0.35917345
0002d0 6a f0 0c bf 08 f0 3e be c6 27 21 bf 27 c0 fb 3e
       -0.5505434 -0.18646252 -0.62951314 0.49170038
0002e0 77 fe 0e bf 31 90 0f be fe 4c 0b bf 5d e3 bb be
       -0.5585703 -0.14019848 -0.54414356 -0.36696902
0002f0 2e 06 25 3e 74 33 72 bc dc 5b 1a 3e 5f 02 e0 3e
       0.16115639 -0.014782775 0.15074104 0.4375181
000300 81 05 14 bf c7 8c ee be f5 17 2c bf 3f 7e d4 3e
       -0.578209 -0.4659178 -0.67224056 0.41502568
000310 c5 a1 c4 bf f3 67 07 bf 4e 69 32 bb e5 65 9e 3e
       -1.5361868 -0.5289299 -0.002722341 0.30937114
000320 8d 00 02 be f2 1a c8 bc 3e 4d 60 bf 92 49 c3 3f
       -0.12695523 -0.024426911 -0.8761786 1.5256827
000330 24 b4 4c 3f 72 e0 c6 3e 40 e9 ba bf cb 81 9a bf
       0.7996237 0.38843113 -1.4602432 -1.207086
000340 c6 33 12 3d 77 69 9d bf 73 a1 3b bd dd 9e c0 bd
       0.035693906 -1.229781 -0.045808267 -0.09405301
000350 dc 80 30 bc d0 b4 de 3e 8f d2 32 3f 8b 0c fe bd
       -0.01077291 0.43497324 0.69852537 -0.12404736
000360 4d 33 c7 be 6d f5 c3 3e b8 27 52 bf 34 31 dd 3d
       -0.38906327 0.38273183 -0.82091856 0.108004004
000370 1c 1c 8f bf d8 2b 3a 3e 80 0c 62 3e f0 6f 04 be
       -1.1180453 0.18180788 0.22075081 -0.12933326
000380 4a 38 ef bd 18 75 eb be a5 11 2d be 6a 8a 8a bf
       -0.11680658 -0.45987773 -0.16901262 -1.0823491
000390 6e 9a be be 48 89 00 bf d1 8d dc be 36 88 8b bf
       -0.37227196 -0.50209475 -0.43076947 -1.0900943
0003a0 4d 11 80 3e 0e 28 19 3e 6b e8 ab be 43 72 7f be
       0.250132 0.14956686 -0.33575758 -0.24945931
0003b0 62 a5 84 3e 9f 41 14 3f 71 13 77 3e 6f d1 5a 3e
       0.25907427 0.5791263 0.2412851 0.21368955
0003c0 ec d7 b5 bf 95 0b 06 3f 5f 8d 89 bf ec e1 ba be
       -1.4206519 0.5236142 -1.0746268 -0.3650049
0003d0 db 77 95 3d 43 58 a9 3e f1 b2 25 be 75 73 d0 3f
       0.07298251 0.3307515 -0.16181542 1.6285235
0003e0 c0 a1 cc 3d 53 73 64 3f 10 17 27 3e 1d 17 bf be
       0.09991789 0.8923847 0.16317391 -0.37322322
0003f0 0e 71 96 be 1e 5c cf 3e ad 70 26 bf 80 09 a8 3e
       -0.2938313 0.40499967 -0.6501568 0.32819748

net.0.bias f4 [128]
000000 e9 c5 f6 3c ee c5 18 3f ae 47 29 3f 60 a3 8e be
       0.030123668 0.59677017 0.66125 -0.2785902
000010 49 87 98 3e d7 d6 55 bd b6 a0 c3 3e 32 3b 00 3e
       0.29790714 -0.05220684 0.3820855 0.12522581
000020 15 0f c1 bd fc 10 89 3e 61 e7 cb 3e 63 5f 65 3d
       -0.09426705 0.2677077 0.39824966 0.05599917
000030 4a aa a5 bd 7e 41 0d bf 02 04 07 be c8 a3 19 3c
       -0.08089121 -0.5517806 -0.13185123 0.009377427
000040 7d 65 05 bf 1a 3b 30 be 90 14 0a bd 36 85 8f 3e
       -0.52107984 -0.17210045 -0.033711016 0.2803132
000050 7e 0b 72 be 07 f9 cf 3e 6a 7d b9 bd a3 d6 0e be
       -0.23637196 0.4061968 -0.09057124 -0.13949065
000060 21 42 63 be 2b 98 fe 3d 93 11 de 3e 1c 99 a9 be
       -0.22193195 0.124313675 0.43372783 -0.33124626
000070 ce 75 8a be df 85 a6 3e 38 7d b7 3e e3 0c 8f 3e
       -0.27043003 0.3252401 0.35837722 0.2793952
000080 06 05 55 be 5b 15 d0 bd 55 f8 63 be 35 59 8b be
       -0.20802698 -0.10160323 -0.222627 -0.27216497
000090 93 7d 86 3d 52 60 de bd 78 ec ae 3e 90 04 03 3e
       0.0656692 -0.108582154 0.34164786 0.12794709
0000a0 92 8c 10 be 7b 73 83 be eb f2 d2 3e d3 5f 03 3f
       -0.14116123 -0.25674042 0.41200957 0.5131809
0000b0 db ef 94 be 6e 50 f3 be 75 00 c2 bd cf 33 31 3c
       -0.29089245 -0.475223 -0.094727434 0.010815575
0000c0 5e a8 90 3d 43 ac a2 3e 6a 62 3c 3e bc 01 b0 3e
       0.070633635 0.3177205 0.18396917 0.34376323
0000d0 38 8e 06 bf 95 57 6b be d6 52 28 3e 37 a9 fc 3d
       -0.5256076 -0.22982629 0.1643785 0.12336963
0000e0 d5 98 61 3e a4 47 66 be f0 81 ac 3e f5 94 a9 be
       0.22030957 -0.22488266 0.33692884 -0.33121458
0000f0 d6 83 1e 3f 4f 5d a9 3d c2 d2 93 3e d0 c1 53 be
       0.61919916 0.0826975 0.28871733 -0.20679402
000100 94 fb 71 3f 0a f4 a5 3e fc 55 a1 be f1 b3 33 3e
       0.945245 0.3241275 -0.31510913 0.17549111
000110 14 63 01 3e 9c 4e a6 bd 94 38 09 bf b5 8a 2f be
       0.12635452 -0.08120462 -0.53601956 -0.17142756
000120 99 03 35 3d b8 5b 2c 3f 55 8d 3d 3d e2 fb 08 3f
       0.044192884 0.6732745 0.046277363 0.5350934
000130 53 62 06 bf 6c 8e 22 be 90 c8 11 3d 47 90 09 be
       -0.5249378 -0.15874642 0.035591662 -0.13433944
000140 2a 85 52 3d 8c 88 db 3e af 47 4c 3e b3 3c 30 bc
       0.051396526 0.42877614 0.1994922 -0.010756659
000150 37 56 96 3e 4b 09 18 be 64 44 df bd 61 23 62 3e
       0.29362652 -0.14847295 -0.10901716 0.22083808
000160 ed b9 24 3f 1e af 80 be d5 50 8c 3e 2c bc 0f 3c
       0.643462 -0.25133604 0.2740542 0.008772891
000170 6a b1 ab 3d fa b4 41 3f 85 62 51 3e 95 b9 09 3f
       0.083834484 0.75666773 0.20447738 0.537988
000180 e6 4b a9 be 22 fc ac 3c d3 24 a9 3e 31 9f 6a 3e
       -0.33065718 0.02111632 0.33035907 0.22912289
000190 77 2c 9f bd 46 26 03 be e8 5b 51 3f 47 d0 32 be
       -0.07772153 -0.12807569 0.8178086 -0.17462264
0001a0 76 3c 21 bf a7 9c 22 3e de 66 4c 3f ae 82 67 be
       -0.6298288 0.1588007 0.7984446 -0.22608444
0001b0 5b 41 55 3e c9 f3 15 3f 73 5a e5 3d 9c 10 15 bd
       0.20825712 0.5857511 0.111988924 -0.036392793
0001c0 b7 9d 8c 3e 1f 49 19 be f8 ee 7a be 95 b4 42 be
       0.27464077 -0.149693 -0.24505222 -0.19014199
0001d0 90 c8 91 3e 0e 68 0d 3e d0 b5 a7 3e 58 c8 5e 3f
       0.2847333 0.13809225 0.327559 0.8702445
0001e0 af 52 e9 be 27 dd 8b 3d 0c 7c 1d 3e 82 7e 61 3e
       -0.45570895 0.06829291 0.15379351 0.22020915
0001f0 7b 8d 60 be c1 de 90 3d a4 9e 3f 3e 60 75 39 3e
       -0.2192897 0.07073737 0.1871286 0.18111181

net.2.weight f4 [128, 128]
000000 3a b3 53 3f c3 f8 7b bd e9 c0 de 3d 72 6c 8e bf
       0.82695353 -0.061516535 0.108766384 -1.1126845
000010 82 d6 06 40 10 41 8b bf 41 9b c2 3f 1f c9 d6 be
       2.1068425 -1.087923 1.520363 -0.41950318
000020 74 5f 9e 3f d8 84 34 3f ae 38 0f c0 d9 6d dc bf
       1.237288 0.70515203 -2.2378345 -1.7221023
000030 1e 5d e6 bf a3 6c 17 40 2e c4 90 3c a5 ca 43 bf
       -1.7997167 2.3660057 0.01767167 -0.76481086
000040 85 f1 ab 3f e6 90 b9 bd 73 ad ad 3f 02 fa af bf
       1.3433081 -0.0906084 1.3568558 -1.3748171
000050 36 ed fd bc e3 5c db 3f 5a 2c 35 3f 5d 68 af 3f
       -0.0309969 1.7137722 0.707708 1.3703724
000060 f5 d2 21 bc a2 78 e4 bf 40 cc fc 3d c9 90 e3 3f
       -0.009876956 -1.7849314 0.12343645 1.777856
000070 a6 f9 74 3f c2 bb 9f be 2a 84 e4 bf 41 38 7a bf
       0.95693433 -0.31197935 -1.7852833 -0.97742087
000080 a3 dd ea 3c 3c ed 47 3f 1e 75 8f bf c6 f7 1b 40
       0.028670138 0.78096366 -1.1207616 2.436998
000090 6b cf e3 bd b5 e4 8a 3f ad a0 58 bf 1c e6 5f 3f
       -0.11123546 1.0851046 -0.8462017 0.87460494
0000a0 c0 93 e3 3d 4f 3a 1c bf f6 81 1d 3f d4 6e 52 c0
       0.111121655 -0.6102647 0.6152643 -3.2880144
0000b0 c5 1c 50 bf 78 fd 79 40 70 3e 03 3f 50 78 8a 3f
       -0.812939 3.9060955 0.5126715 1.0817966
0000c0 2c fd b0 bf 2d fd 90 3f 7a 48 e7 3f ce 10 88 bf
       -1.3827262 1.1327263 1.8068993 -1.0630128
0000d0 1e 67 df 3f 4f ea 87 bf a6 3c e8 bf 31 ca 34 3f
       1.7453344 -1.061838 -1.8143508 0.7062102
0000e0 f7 09 8f bf a8 0a 92 3f c0 a4 a7 bf 99 db 59 3f
       -1.1174916 1.1409502 -1.3097153 0.85100704
0000f0 67 5d bf 3f 36 95 16 c0 f6 67 f9 3f 1b f6 ee 3f
       1.4950379 -2.352857 1.9484851 1.8668855
000100 07 f6 86 3f bf b6 b0 3f f7 7c ee bf 02 33 1f 40
       1.0543832 1.380577 -1.8631886 2.4874883
000110 be ee ec bf a2 25 84 3d 45 14 d4 bf a1 15 a8 3d
       -1.8510358 0.064524904 -1.6568686 0.082072504
000120 2b 23 9e bf 47 57 30 be 6c 6e 24 3f 22 b6 94 bf
       -1.2354482 -0.17220794 0.6423099 -1.1618083
000130 48 27 49 40 34 ae 3b c0 40 36 c2 3d b1 e2 cd bf
       3.1430225 -2.9325075 0.094830036 -1.6084806
000140 d8 58 b8 3f 2d 03 d6 bf 3e ff 39 bf 2f 66 65 3f
       1.4402113 -1.6719719 -0.72655094 0.89609045
000150 83 7e 30 3e 93 3d dd bd ce df 67 3f 48 cd 11 bf
       0.1723576 -0.1080276 0.90575874 -0.5695386
000160 e7 58 eb bd 16 04 22 3d eb d4 0f be 4a 2e 0e 3f
       -0.11491566 0.039554678 -0.14046066 0.5553938
000170 88 52 b2 3e e2 5f f2 3d e1 0f 21 40 3f dc 9b be
       0.3482859 0.118346944 2.5165942 -0.30441472
000180 63 0a b5 bf 85 30 ac 3e 95 a1 94 bf 6f e4 b4 3f
       -1.4143795 0.33630767 -1.1611811 1.4132212
000190 4e 0a bb 3f 2b bc 04 3b 61 14 3b 3d be 7b a8 3f
       1.461252 0.0020253758 0.04567373 1.3162763
0001a0 6e ab 2e 3d e4 4b 21 c0 b9 66 9d 3f 2a de cf 3f
       0.042643957 -2.520257 1.2296973 1.6239674
0001b0 1e 47 ff 3f 78 03 42 be 00 84 2f 3e 9c c6 c7 bd
       1.9943578 -0.18946636 0.17140198 -0.097546786
0001c0 1a ff d3 bf 97 91 7d 3d f5 ae 44 40 79 18 22 3c
       -1.6562226 0.061906423 3.0731785 0.00989353
0001d0 0d 96 e0 3e 87 d2 b0 bf 1f 0d fd bf 43 12 9f 3d
       0.4386448 -1.3814248 -1.9769629 0.07767155
0001e0 cd 36 8d bf e9 2d d9 be 89 1d f2 3f 9f f8 bb bf
       -1.1032349 -0.4241784 1.8915263 -1.4685248
0001f0 5f cf 62 bd cf 93 d3 3d d0 98 a5 bf bb 4d e1 bf
       -0.055373546 0.103309266 -1.293726 -1.7601846
000200 d5 28 c7 bd ae 5d 05 3d 5a 90 e9 bd 96 21 3c 3d
       -0.09724585 0.032560043 -0.11404486 0.045930468
000210 80 c9 a2 bb c7 39 31 bd 99 c6 9b 3d e8 5e 08 bd
       -0.0049678683 -0.04326799 0.07606239 -0.033293635
000220 61 1e 88 3c 03 38 b1 bd e1 d3 e6 3b e8 a3 cc 3c
       0.016616048 -0.086532615 0.007044301 0.0249805
000230 f2 7f 9a 3c f0 15 19 3d 56 5c 4a 3d d4 84 08 be
       0.018859837 0.037374437 0.049404465 -0.1333192
000240 e4 ed cc 3c 1a 4e 53 3d 18 d3 35 bb da ad 1e 3d
       0.025015779 0.051588155 -0.002774423 0.038740017
000250 b7 22 a9 bd b9 04 c0 3c fc 67 a2 bc e9 17 8c 3d
       -0.082585745 0.023439752 -0.019824974 0.06840498
000260 d0 3a c7 bb 74 91 af 3c 96 bb 98 bd b5 99 c2 bd
       -0.006080009 0.021431662 -0.07457654 -0.095019735
000270 53 cc 8f bd 51 4a 63 bd 8d 40 d0 bb 54 50 40 3c
       -0.070213936 -0.055490796 -0.0063553513 0.011737902
000280 43 ae 87 bd 17 7f 4c bd 78 53 0b bd 5a e8 d3 3b
       -0.06625035 -0.04992589 -0.03401515 0.0064669074
000290 e2 c1 e5 bd ab f7 03 bd b8 42 0e be 30 a2 1d bc
       -0.11218621 -0.032218616 -0.13892639 -0.009621188
0002a0 80 b1 ac ba f0 71 ac bd ef b7 0c be 90 3c b8 bd
       -0.0013175458 -0.08420169 -0.1374204 -0.089959264
0002b0 79 20 44 bd 40 78 2a 3d f6 c5 69 3d 56 05 82 3d
       -0.04788253 0.041618586 0.057073556 0.06348674
0002c0 86 b3 6e bd 5c fe 75 bd 90 67 af bd fc 66 78 3c
       -0.058276676 -0.06005703 -0.08564675 0.015161272
0002d0 85 09 7a bd 71 a5 00 bd 12 0a a3 bd 0b f7 9e bd
       -0.061044235 -0.031407777 -0.07960905 -0.077619635
0002e0 8e 83 a8 bd 60 f1 0e bd 2b 8f 53 bd e0 29 e8 bb
       -0.08228217 -0.034898162 -0.051650207 -0.00708507
0002f0 97 6c e7 3c db c5 d2 bc 58 0c c7 bd d7 45 58 bd
       0.028250022 -0.02572911 -0.09719151 -0.05280098
000300 be 46 a9 bc 1c aa e6 bd 9e d1 18 bd 4f 04 5f bd
       -0.020663615 -0.112629145 -0.03730928 -0.05444747
000310 b8 57 9b bd 75 02 1d bd 76 73 41 3c 10 b8 4e bc
       -0.075850904 -0.03833242 0.011807313 -0.012617126
000320 42 e8 94 bd f3 07 3e 3c 02 6b d5 3b 14 84 0d bd
       -0.07270862 0.011598575 0.0065130005 -0.034549788
000330 c0 46 85 bd a1 96 d5 bc 8d f8 c3 bd fe 49 66 3d
       -0.06507635 -0.026072802 -0.09568892 0.05622291
000340 f0 21 75 bd 07 0b 8f bc 3c 63 a2 bd d6 7e 82 3d
       -0.05984682 -0.017461313 -0.07929084 0.06371848
000350 47 e2 99 3c af b7 7c bd aa 1b 6c bc 5a c7 46 3d
       0.018784655 -0.06169861 -0.0144108925 0.04852996
000360 e4 3d 2f bd fb 77 93 3d 67 32 c5 bc c2 83 02 3d
       -0.042783633 0.07200619 -0.024071885 0.031863935
000370 c9 eb 97 bd c8 a8 cc bd bf f4 b4 bd 8b b4 f1 bd
       -0.07418019 -0.0999313 -0.08835744 -0.11802014
000380 a4 48 ed ba 10 f0 f8 3c 43 48 41 bd 12 85 9b bd
       -0.0018103314 0.030387908 -0.047188055 -0.075937405
000390 01 e9 be bd 9a 7b 91 bd f6 8e 38 bc 61 43 b4 bd
       -0.09321786 -0.07103653 -0.011264553 -0.08801914
0003a0 1a 39 c5 3c 94 97 e0 3c 0c aa a1 bd 66 a7 1d 3d
       0.02407508 0.027416028 -0.07893762 0.03848972
0003b0 8c 13 1f 3d a7 ed 6e bd 5c 04 df bd 79 2d 48 3d
       0.038837 -0.05833211 -0.10889503 0.04887149
0003c0 30 70 34 3c bc 80 98 bd 43 0b b6 bd 08 1f 97 3c
       0.011013076 -0.07446429 -0.08888867 0.018447414
0003d0 89 e0 bc bd 16 e4 73 3d f5 e5 5c bd 9c eb b4 bc
       -0.09222514 0.05954369 -0.05393024 -0.022085004
0003e0 d3 c9 51 bc 5e d9 a7 3c 8f d7 63 bd 04 ac f3 3c
       -0.012804466 0.020489391 -0.055625495 0.02974511
0003f0 36 04 3f bd 14 52 7d bd 32 b1 54 3d 14 2e aa bc
       -0.046634875 -0.061845854 0.0519268 -0.020773925

net.2.bias f4 [128]
000000 bb 9d 45 3f 17 72 b4 bd 1c cc 23 3f ad 4c 18 3f
       0.771938 -0.088108234 0.6398332 0.59492
000010 bb 02 8a be b8 d4 0b 3c e9 2a 4b 3f 3c 27 05 40
       -0.26955208 0.008534603 0.7936235 2.0805197
000020 bf f4 0d 3f 7f 44 02 be 9b 85 ad bd 28 28 a1 bd
       0.5545158 -0.12721442 -0.08472749 -0.07868987
000030 94 5e 90 bd de b5 3c bd db 7a 1d 3f 3f 34 c1 3f
       -0.07049289 -0.04607188 0.6151559 1.5094069
000040 ee db e4 bd 50 6e c7 3f 40 a0 08 be 7f e3 d5 bd
       -0.11174761 1.558054 -0.1334238 -0.10443782
000050 fd e7 15 3f 24 42 d7 3f 50 ed 0c be 02 f1 5a 3f
       0.5855711 1.681706 -0.13762403 0.85524
000060 dd 86 eb 3e 4d 6d 03 3e e2 e1 0c 3f 16 85 7e bd
       0.4600133 0.12834664 0.5503217 -0.06213864
000070 8b a1 7b 3f 77 cc 51 3f 71 c4 b9 3f ef fa 07 3e
       0.9829337 0.81952614 1.4513074 0.13279317
000080 84 5c 05 3f 9c 5a 50 3f 41 4b 7c bd 1e 36 eb 3e
       0.5209429 0.8138826 -0.061595205 0.45939726
000090 7c 5c d2 3e e3 4b 3b 3f cc db 1a 3f 00 9c c4 bc
       0.41086185 0.7316267 0.60491633 -0.024000168
0000a0 43 a5 4e bd c7 05 5b 3f d7 23 2a 3f 3c 27 88 3f
       -0.050450575 0.8555569 0.6646094 1.0636973
0000b0 76 fc 13 3f 25 28 ef bd 4a 6d 14 3f af 7f bd 3f
       0.578071 -0.11677579 0.5797926 1.4804591
0000c0 af 4c 8d 3e 05 b7 a1 3f cf 52 38 3f 5d f6 bd bd
       0.27597567 1.2633978 0.72001356 -0.09275506
0000d0 a4 0b 18 be d2 49 88 3b 68 d0 bf 3f e7 1d 96 bc
       -0.1484819 0.0041591907 1.4985476 -0.018324805
0000e0 21 90 ec bd c5 fa 34 3f 7a 86 95 bc ba 38 3d 3f
       -0.11550928 0.70695144 -0.0182526 0.7391468
0000f0 21 0e b2 3f e4 43 00 3f 16 74 2b bd c3 b9 2a bd
       1.3910562 0.5010359 -0.041858755 -0.041681062
000100 3c 2f ca bd 13 f9 90 bd 46 2a 4f be 1e 01 d6 bd
       -0.098722905 -0.07078757 -0.2023097 -0.10449432
000110 a7 1e da 3e a5 86 ac bd 63 60 8e bc 37 af 43 3c
       0.4260151 -0.08424119 -0.017379945 0.01194363
000120 7f 82 27 3f e9 34 cf 3f ce 92 4c 3f 54 21 b8 bd
       0.65433496 1.6188022 0.79911506 -0.08990732
000130 b6 60 2e be bf f9 a9 3f 6a 83 25 3f 10 13 d6 3f
       -0.1702908 1.3279341 0.64653647 1.6724567
000140 7e fc a6 bd 36 e7 99 bd 89 34 d5 3f a1 ba a5 3e
       -0.08153628 -0.07514803 1.6656657 0.3236895
000150 17 ce 4c 3f 67 66 a2 bd ac a0 11 3f 6d ef b2 3e
       0.8000197 -0.07929688 0.5688579 0.34948292
000160 74 00 23 3f 55 51 ed 3e 44 18 66 3f e3 5e 1c 3f
       0.63672566 0.46351114 0.89880776 0.61082286
000170 05 2f d4 3f 8a 8c 1e 3f 9f 30 88 bd 64 22 90 bd
       1.6576849 0.61933196 -0.06649899 -0.070378095
000180 2f f0 2a 3f b7 44 bc 3c 50 29 4f 3f b8 8d 66 be
       0.6677274 0.022981985 0.8092241 -0.22514999
000190 65 6b b1 3f 56 55 02 be 54 73 1d 3f b8 e0 7c 3f
       1.3860899 -0.12727866 0.615041 0.98780394
0001a0 d0 27 89 3f 45 1a bc bd 51 f2 7f 3e 81 27 5a bd
       1.0715275 -0.09184698 0.2499478 -0.05326033
0001b0 f9 84 a9 3f 3b 58 f4 bd 14 bc 10 bc 3a 86 53 3f
       1.3243705 -0.11930891 -0.008833904 0.8262669
0001c0 1d f0 61 bd aa 04 2a 3f 4f ce f0 3e 3f 1d d0 3f
       -0.05516063 0.66413367 0.470324 1.6258925
0001d0 31 22 a4 bd 25 ca 1d 3f f2 50 3b 3f 6a 06 b7 3f
       -0.08014334 0.61636573 0.7317039 1.4298832
0001e0 bc cd 10 bd 50 f1 25 3f ff 44 ae 3d 16 da d1 3b
       -0.035352454 0.6482134 0.08509254 0.0064041717
0001f0 ef ce 32 bd 32 1b d6 bd 61 61 1d 3f e0 0b 3c bd
       -0.04365438 -0.10454406 0.61476713 -0.045909762
