checkpoints2/team1_agent_0.pt (torch, 411297 bytes, 24 tensors)

net.0.weight f4 [128, 53]
-0.21582913 -0.01677843 0.41476154 -0.072667316 0.15547374 0.098133855 -0.46237588 -0.2597619
-1.461209 0.2898016 0.6643287 0.48717126 -0.12233497 0.28176367 -0.03714763 -1.3906827
-0.077618025 -0.6576421 1.0362811 -0.6504637 0.06253995 -0.16010395 -0.16892752 0.6535231
-1.4728909 0.28862172 -0.6768882 0.11774717 -1.7796305 0.21564357 0.20624784 -0.73493814
1.0299587 -0.7089274 -0.11361111 0.5198161 -0.874758 0.047015328 -0.7189799 0.57814807
-0.0006597112 0.27190778 0.49426416 0.5080911 0.52272445 -0.6797877 -0.3734147 0.3724522
-0.38754925 -0.32053053 -0.42776325 -0.010624089 0.1953483 -0.12471953 -0.07747055 0.0297613
0.06706246 -0.0013274997 -0.035118494 -0.08061001 -0.03043018 0.0035876501 -0.0082384795 -0.087485634
0.065148436 0.1434241 -0.047904465 -0.08172628 0.074027665 -0.059515093 0.106870554 -0.07252232
-0.11743879 -0.10447779 0.045339867 0.036776964 0.107492596 0.013104275 -0.03352691 -0.053894483
-0.02992184 0.11586066 0.05354844 -0.063971676 -0.06899638 -0.0630946 -0.094673745 -0.041309766
0.13940085 -0.056966454 0.11018733 0.06077974 0.012858331 -0.068168096 -0.13293797 -0.06404934
0.116348654 -0.120261595 -0.05537788 -0.1981748 0.019293722 0.07237897 -0.10228996 0.049237605
0.00025582314 -0.12596571 -0.013887498 -0.0646175 0.06829012 0.08726004 -0.09261205 0.06859449
-0.021820707 0.017548747 -0.049698275 -0.12659614 0.046244755 -0.036859334 -0.00012812951 -0.13706559
-0.05997238 -0.1273548 -0.118614554 -0.13126567 -0.08496108 0.0025856786 0.05242721 0.07416302
0.042201 -0.25283706 -0.021326184 -0.008934608 0.08329054 0.12131235 0.046919744 0.12886573
0.044032324 0.02661486 0.10868654 -0.089502126 -0.045303285 -0.0742672 0.031147918 0.088406146
0.05168631 0.034764905 -0.18883185 -0.06288154 -0.02007929 0.08568717 -0.051113393 -0.105807096
-0.18916292 0.22605154 -0.03543755 -0.22215098 0.086664245 -0.11406991 -0.13018277 1.1502244
-0.09809575 0.4885051 -1.9506723 1.6707684 2.007458 -0.26006782 1.1092975 -0.805302
0.24068086 1.1045575 -0.7612985 0.02314274 -0.06938193 -1.787649 -0.902269 -1.5492455
0.026567772 -0.11402228 0.5051198 -0.17464247 -1.7868744 -0.19413157 0.24601308 0.30106357
-0.67131746 -0.8198252 0.35270023 0.3275933 0.9736813 0.11953981 -0.24183047 -0.48373055
-1.0316875 -0.45213324 -0.75311977 -0.12601906 -2.271975 1.1766766 0.05289729 -1.6916649
-1.8678147 -2.8132706 -1.313466 -1.3312097 -0.16886288 0.019851433 -1.027831 0.22235748
-0.07850055 0.12956354 -0.07289414 0.4304502 -1.6616597 0.5255183 -1.6711628 2.146942
-1.131148 -0.57131606 0.006952591 1.7406961 -1.0359467 0.78463584 0.6415024 0.26132613
1.3921663 -0.4190718 0.14213976 -1.08554 1.0754399 -1.5096371 0.47491977 0.21259694
-0.071550675 2.13886 0.28966308 -0.73323894 -0.41197574 0.66659284 -0.0029987027 0.5203846
-0.5531537 0.24546629 -0.008049037 0.6697366 -0.45948207 -0.79837924 -0.029566815 -0.6702903
-0.38487318 -1.3908936 0.4165403 -0.15702246 0.0452872 0.11205468 0.5926645 0.77080506
00000000: 5002 5dbe eb72 89bc a05b d43e 9ad2 94bd
00000010: 8234 1f3e 67fa c83d 88bc ecbe 83ff 84be
00000020: e608 bbbf e060 943e 7211 2a3f 836e f93e
00000030: c28a fabd 5443 903e 1d28 18bd e401 b2bf
00000040: 33f6 9ebd 3c5b 28bf dca4 843f ca84 26bf
00000050: f214 803d 4af2 23be 56fb 2cbe 4a4d 273f
00000060: b087 bcbf 3ac6 933e 8c48 2dbf 6e25 f13d
00000070: efca e3bf abd1 5c3e a232 533e e824 3cbf
00000080: b0d5 833f 447c 35bf f1ac e8bd ab12 053f
00000090: 24f0 5fbf 2593 403d 110f 38bf 8301 143f
000000a0: 78f0 2cba 7f37 8b3e 3110 fd3e 4212 023f
000000b0: 45d1 053f 9106 2ebf 3630 bfbe 0eb2 be3e
000000c0: db6c c6be 941c a4be c903 dbbe a910 2ebc
000000d0: 6209 483e f46c ffbd e1a8 9ebd f8cd f33c
000000e0: 0b58 893d 80ff adba 69d8 0fbd dc16 a5bd
000000f0: b648 f9bc c81e 6b3b b0fa 06bc ab2b b3bd
00000100: 8b6c 853d c4dd 123e 7937 44bd 1c60 a7bd
00000110: d19b 973d 19c6 73bd f3de da3d 9586 94bd
00000120: c083 f0bd 74f8 d5bd 4cb6 393d 71a3 163d
00000130: 1425 dc3d 50b3 563c 8353 09bd 76c0 5cbd
00000140: a61e f5bc 5b48 ed3d 9c55 5b3d 9503 83bd
00000150: f94d 8dbd be37 81bd 4fe4 c1bd 6e34 29bd
00000160: 19bf 0e3e a855 69bd e5a9 e13d 2df4 783d
00000170: c0ab 523c b79b 8bbd e420 08be 4d2c 83bd
00000180: 3448 ee3d b64b f6bd ead3 62bd 56ee 4abe
00000190: de0d 9e3c 6d3b 943d 667d d1bd 5fad 493d
000001a0: 0020 8639 28fd 00be 6388 63bc 2e56 84bd
000001b0: b1db 8b3d 64b5 b23d 63ab bdbd 457b 8c3d
000001c0: 57c1 b2bc 64c2 8f3c 6b90 4bbd 6ba2 01be
000001d0: 246b 3d3d d0f9 16bd 815a 06b9 ec5a 0cbe
000001e0: 99a5 75bd 4c69 02be 30ec f2bd 826a 06be
000001f0: 1300 aebd 7d74 293b eabd 563d c8e2 973d
00000200: f5da 2c3d dc73 81be 40b4 aebc 7662 12bc
00000210: 3b94 aa3d 9c72 f83d eb2e 403d 61f5 033e
00000220: 3d5b 343d 6807 da3c 0c97 de3d e44c b7bd
00000230: f08f 39bd 6719 98bd eb29 ff3c 480e b53d
00000240: 06b5 533d a565 0e3d 235d 41be 09c8 80bd
00000250: 537d a4bc c17c af3d 475c 51bd 64b1 d8bd
00000260: edb3 41be 0e7a 673e f726 11bd 8c7b 63be
00000270: 067d b13d 7c9d e9bd a24e 05be 8e3a 933f
00000280: 6de6 c8bd 571d fa3e a1af f9bf bddb d53f
00000290: 317a 0040 9c27 85be 76fd 8d3f 4628 4ebf
000002a0: 0b75 763e 2462 8d3f 75e4 42bf d895 bd3c
000002b0: 1d18 8ebd afd1 e4bf 1afb 66bf ad4d c6bf
000002c0: a8a4 d93c 8384 e9bd 884f 013f 7ad5 32be
000002d0: 4db8 e4bf 6dca 46be daea 7b3e 0125 9a3e
000002e0: 76db 2bbf 10e0 51bf 2095 b43e 4fba a73e
000002f0: 2d43 793f 4ad1 f43d 68a2 77be 88ab f7be
00000300: 560e 84bf 027e e7be 75cc 40bf 240b 01be
00000310: 0a68 11c0 579d 963f d4aa 583d 7a88 d8bf
00000320: 8d14 efbf a00c 34c0 a71f a8bf 1465 aabf
00000330: 64ea 2cbe 799f a23c f78f 83bf aeb1 633e
00000340: e5c4 a0bd 4eac 043e 8649 95bd f863 dc3e
00000350: 44b1 d4bf 5e88 063f aae8 d5bf 7f67 0940
00000360: 75c9 90bf c541 12bf 8fd2 e33b 21cf de3f
00000370: e799 84bf e5dd 483f 8039 243f 8acc 853e
00000380: 8132 b23f 9490 d6be 168d 113e faf2 8abf
00000390: 04a8 893f ca3b c1bf af28 f33e 03b3 593e
000003a0: 2989 92bd 15e3 0840 b84e 943e 8cb5 3bbf
000003b0: 7cee d2be d4a5 2a3f e285 44bb ed37 053f
000003c0: 7b9b 0dbf 845b 7b3e 1ce0 03bc dc73 2b3f
000003d0: 3c41 ebbe 9562 4cbf 1b36 f2bc 2598 2bbf
000003e0: 190e c5be cd08 b2bf c544 d53e 7fca 20be
000003f0: 127f 393d ed7c e53d dcb8 173f 7b53 453f

net.0.bias f4 [128]
-0.22192487 -0.1174118 -0.087755784 0.2145754 0.08967789 0.08862959 -0.07670923 -0.10574682
-0.01916982 -0.31817836 -0.06887601 -0.36306375 0.07793257 0.059095282 -0.19916241 -0.22637469
-0.13110967 0.4327127 -0.25653931 -0.097700916 -0.23324072 -0.33076254 0.1351971 -0.13044761
0.18897083 -0.47365472 0.19813365 0.25325134 -0.38243282 0.011258226 -0.39912623 -0.10918328
0.3539835 -0.104495116 -0.21345256 0.9285977 -0.5902727 0.20046882 -0.17278218 -0.09564153
-0.17017587 -0.21618654 -0.12010162 -0.58874863 -0.19409959 0.15001772 -0.3946454 0.54142505
0.19831014 0.02347524 -0.21654128 -0.10573098 0.35053784 0.6818626 0.07802563 0.29611644
0.17933223 0.4370251 0.1280475 -0.33115625 -0.26264518 -0.20422855 0.23621601 0.4130652
0.83467835 -0.15491864 -0.021301696 0.044306915 0.1690445 0.70699036 0.033360265 -0.32810676
0.0064074276 -0.036591843 0.39834243 -0.13178961 -0.22041218 -0.25256026 0.26173785 0.43928805
0.26202843 -0.522528 -0.14847079 -0.19652535 0.1443137 -0.297889 -0.30642343 -0.14380628
-0.011044977 -0.04143226 0.8548449 -0.17564951 -0.26540685 -0.19459337 -0.24871443 -0.20501688
0.17115362 0.2167074 -0.16951922 -0.090201594 0.34817994 -0.008352911 0.92419785 -0.24011856
0.4965572 0.47956198 -0.070539124 0.30454037 0.011368342 -0.090569735 -0.022816103 0.21199037
-0.19453482 -0.16719168 0.17730889 0.22286737 0.254704 -0.034445513 0.59352726 -0.6418136
-0.16607724 -0.23106757 -0.1822991 0.15141557 -0.609143 0.12275772 -0.094390996 -0.29205647
00000000: 4640 63be 9975 f0bd 4eb9 b3bd a7b9 5b3e
00000010: 0ba9 b73d 6e83 b53d bb19 9dbd ca91 d8bd
00000020: 070a 9dbc 46e8 a2be de0e 8dbd 7ee3 b9be
00000030: 1c9b 9f3d e50d 723d 3bf1 4bbe c4ce 67be
00000040: 9d41 06be 858c dd3e 1f59 83be 6b17 c8bd
00000050: a8d6 6ebe b559 a9be 1c71 0a3e 0f94 05be
00000060: 9281 413e df82 f2be 8ce3 4a3e 29aa 813e
00000070: 3cce c3be 6c74 383c 465a ccbe 7c9b dfbd
00000080: 533d b53e 8901 d6bd 4f93 5abe 94b8 6d3f
00000090: 1d1c 17bf b347 4d3e d0ed 30be b5df c3bd
000000a0: 9542 2ebe 0160 5dbe d7f7 f5bd 3bb8 16bf
000000b0: 0bc2 46be 3f9e 193e f60e cabe d59a 0a3f
000000c0: d011 4b3e 264f c03c ffbc 5dbe 7c89 d8bd
000000d0: b279 b33e 8c8e 2e3f e7cb 9f3d 939c 973e
000000e0: dea2 373e c1c1 df3e e21e 033e 508d a9be
000000f0: 6e79 86be 4a21 51be 9ce2 713e 487d d33e
00000100: 7bad 553f fea2 1ebe e580 aebc 2b7b 353d
00000110: 001a 2d3e 52fd 343f c6a4 083d 9cfd a7be
00000120: 66f5 d13b 54e1 15bd 8af3 cb3e dbf3 06be
00000130: bbb3 61be 944f 81be 8102 863e 5dea e03e
00000140: 9728 863e 65c4 05bf ba08 18be f13d 49be
00000150: f8c6 133e e884 98be 88e3 9cbe f441 13be
00000160: fef5 34bc e0b4 29bd 1ed7 5a3f 77dd 33be
00000170: 68e3 87be 7c43 47be ffae 7ebe f2ef 51be
00000180: e542 2f3e 8be8 5d3e 7296 2dbe 9dbb b8bd
00000190: a444 b23e a6da 08bc 3b98 6c3f a4e1 75be
000001a0: bf3c fe3e 2689 f53e d176 90bd b7ec 9b3e
000001b0: 4842 3a3c a07c b9bd d6e8 babc 0114 593e
000001c0: 2334 47be 4c34 2bbe 7690 353e 5837 643e
000001d0: 9068 823e bd16 0dbd 67f1 173f e54d 24bf
000001e0: 2710 2abe fa9c 6cbe 9eac 3abe af0c 1b3e
000001f0: ccf0 1bbf 6668 fb3d 1150 c1bd 6d88 95be

net.2.weight f4 [128, 128]
0.037462655 -0.0663484 -0.08958177 0.23068465 -1.0667014 -0.21231037 0.07049715 -0.026080776
0.07953716 0.65696746 -0.04385293 -2.360527 -0.27374342 -0.6398167 0.0018877977 -0.011497587
0.030829921 0.023052463 -0.063966066 -0.050266217 0.05130105 -0.26313087 0.07303839 -0.31470993
-0.5283041 -0.6121102 -0.49824807 0.37881327 -0.34088108 -0.42249462 0.0087815365 0.009544259
-0.04541241 -0.14795446 1.2081349 -0.54958653 -0.18381053 -0.3670774 0.036858983 -0.2656919
0.047699403 0.03566113 0.05329446 -1.4920878 0.3579845 -0.61337686 0.25884077 -0.0029625015
-0.56921166 1.2981243 0.053450644 -0.034141023 0.41758978 -0.44680825 0.5605723 -0.8035027
-0.52932906 -1.6836957 -2.0177329 0.20731205 -0.8388456 0.036318284 -0.7037141 0.51463306
-1.3416864 -0.04726105 -0.1559429 1.0966111 -1.9193268 -0.5922361 0.6038169 0.36294025
-0.4386659 0.07055663 -1.502477 -0.080603644 -0.531175 -0.030864066 -0.057379894 -1.114411
-0.8778552 0.5332404 -0.07371786 0.2737127 1.0928277 0.37945887 0.25996864 -0.030313056
-0.047421217 0.3576239 -0.45588785 0.08781459 -0.12349479 -0.07224645 0.7390501 -0.016336486
-0.21504904 -0.11478284 -0.8543457 0.107246496 0.07626243 -1.3103764 -0.5032458 -0.017073616
-0.653619 0.25965798 -0.7691234 -0.19969234 -0.0550102 -0.4203245 -0.038771234 0.31035605
-0.3835786 0.013598397 1.2077216 -0.10352412 -0.8741 -0.608026 0.22312547 0.11689546
-0.01951854 0.066673286 -0.077383325 -0.5930069 -0.007210612 -0.63081646 -0.021792367 0.161216
-0.06309832 -0.03084965 -0.013910179 -0.07006076 -0.10768765 0.06636883 -0.019214464 -0.06942752
-0.03644946 0.02358197 -0.033740364 0.00038058532 -0.012248823 -0.2370466 -0.00524386 -0.06822366
0.028951596 -0.049577463 -0.072284214 0.067910954 0.046475213 0.0657485 0.02283866 0.07008437
0.09082679 -0.16185531 0.064565696 -0.10277499 0.072046116 -0.0043191067 -0.03887816 0.05669009
-0.03369708 0.012814662 0.20712255 -0.091856726 0.029904883 -0.10942875 -0.035779785 -0.051302344
0.040178075 0.0070887655 0.027168414 0.03451467 -0.14938498 -0.14728469 -0.101108685 -0.15873195
-0.21078512 -0.04874093 0.043416396 -0.0042669484 0.049354244 -0.117575906 -0.20354386 -0.16006997
0.16642721 -0.07486556 0.07706962 0.008410973 -0.047392275 0.04898933 -0.10413888 -0.07201876
-0.15796535 -0.087416925 0.10443327 -0.14140603 -0.29984927 -0.034476787 0.063204445 -0.07450746
0.015295865 -0.03280644 -0.099515595 0.082061686 -0.096185334 0.01520776 -0.095238075 -0.10488109
0.047153883 0.032435037 0.06660733 0.06413278 0.038416326 0.021597905 -0.108916804 0.026456606
-0.071945906 0.04528334 -0.07385714 -0.037491553 0.08231942 0.060681634 -0.030315295 0.026464036
-0.035438348 -0.015198197 -0.08811859 -0.0052002626 -0.028147522 -0.039328452 -0.10575384 0.0026914626
-0.06012351 -0.1377429 -0.094069146 0.019176459 0.05827857 -0.06371058 0.081087716 0.06441468
-0.1524216 -0.03612026 -0.11970305 -0.05711881 -0.15294717 -0.002056158 0.16110598 0.14546491
0.04634305 -0.023178427 0.008469724 -0.061458122 -0.02930642 0.0385172 0.02042137 -0.05147161
00000000: 7172 193d ace1 87bd a676 b7bd 9938 6c3e
00000010: ac89 88bf e467 59be cf60 903d 5aa7 d5bc
00000020: 61e4 a23d 052f 283f 219f 33bd e012 17c0
00000030: 1928 8cbe 07cb 23bf fb6f f73a 6060 3cbc
00000040: 088f fc3c 85d8 bc3c a400 83bd f3e3 4dbd
00000050: 0d21 523d 17b9 86be 2795 953d a921 a1be
00000060: f03e 07bf 41b3 1cbf 5f1a ffbe d0f3 c13e
00000070: f787 aebe 3751 d8be 6fe0 0f3c 865f 1c3c
00000080: 5d02 3abd 6081 17be 2aa4 9a3f b4b1 0cbf
00000090: d438 3cbe 92f1 bbbe 72f9 163d c508 88be
000000a0: 7360 433d 6811 123d 4b4b 5a3d bcfc bebf
000000b0: bf49 b73e 4406 1dbf c786 843e 8726 42bb
000000c0: dbb7 11bf f028 a63f 10ef 5a3d 75d7 0bbd
000000d0: 54ce d53e 0dc4 e4be ab81 0f3f 5ab2 4dbf
000000e0: 1c82 07bf 5783 d7bf 8922 01c0 9c49 543e
000000f0: 96be 56bf 7bc2 143d 9b26 34bf febe 033f
00000100: 61bc abbf ce94 41bd 7faf 1fbe c15d 8c3f
00000110: 80ac f5bf c99c 17bf bf93 1a3f 4ed3 b93e
00000120: d198 e0be ff7f 903d 2b51 c0bf 8613 a5bd
00000130: 16fb 07bf a3d6 fcbc 2e07 6bbd 05a5 8ebf
00000140: 1ebb 60bf 7182 083f 64f9 96bd 1224 8c3e
00000150: c7e1 8b3f 6f48 c23e 9c1a 853e 1653 f8bc
00000160: c03c 42bd 7b1a b73e 226a e9be 23d8 b33d
00000170: d6ea fcbd f2f5 93bd 6332 3d3f 18d4 85bc
00000180: d135 5cbe 4413 ebbd 66b6 5abf 0da4 db3d
00000190: 7a2f 9c3d 6aba a7bf b7d4 00bf f8dd 8bbc
000001a0: 9353 27bf e4f1 843e 45e5 44bf 267c 4cbe
000001b0: 6052 61bd c634 d7be 96ce 1ebd fde6 9e3e
000001c0: 6a64 c4be d0cb 5e3c 9f96 9a3f 7404 d4bd
000001d0: 05c5 5fbf 98a7 1bbf 017b 643e e366 ef3d
000001e0: 58e5 9fbc 018c 883d 267b 9ebd 4dcf 17bf
000001f0: ff46 ecbb 307d 21bf e885 b2bc cf15 253e
00000200: b139 81bd 68b8 fcbc 85e7 63bc 047c 8fbd
00000210: 588b dcbd 62ec 873d a767 9dbc 0430 8ebd
00000220: 074c 15bd fa2e c13c 5633 0abd 4c89 c739
00000230: 4aaf 48bc 58bc 72be b0d4 abbb d9b8 8bbd
00000240: e62b ed3c bd11 4bbd bf09 94bd e614 8b3d
00000250: cb5c 3e3d 26a7 863d 2418 bb3c 6588 8f3d
00000260: 6503 ba3d 66bd 25be 053b 843d b27b d2bd
00000270: ea8c 933d 4b87 8dbb b53e 1fbd de33 683d
00000280: f305 0abd 97f4 513c ef17 543e 611f bcbd
00000290: 16fb f43c 2e1c e0bd d38d 12bd 6822 52bd
000002a0: c491 243d e048 e83b 4b90 de3c 415f 0d3d
000002b0: 60f8 18be ccd1 16be 1212 cfbd a18a 22be
000002c0: 0ed8 57be 92a4 47bd 64d5 313d c2d1 8bbb
000002d0: ad27 4a3d a3cb f0bd cd6d 50be 62e9 23be
000002e0: e56b 2a3e 1d53 99bd add6 9d3d 2dce 093c
000002f0: 671e 42bd 09a9 483d c446 d5bd 927e 93bd
00000300: abc1 21be a507 b3bd 1ce1 d53d becc 10be
00000310: d885 99be 8837 0dbd 5571 813d 5e97 98bd
00000320: 829b 7a3c 0c60 06bd d5ce cbbd f50f a83d
00000330: d1fc c4bd f829 793c 2e0c c3bd e6cb d6bd
00000340: 6e24 413d 9ada 043d 6d69 883d 0c58 833d
00000350: 705a 1d3d 17ee b03c c60f dfbd 86bb d83c
00000360: 6058 93bd 067b 393d 6a42 97bd be90 19bd
00000370: 1697 a83d 4e8d 783d c857 f8bc 1bcb d83c
00000380: cd27 11bd dc01 79bc 8577 b4bd f766 aabb
00000390: a295 e6bc df16 21bd 7895 d8bd 4063 303b
000003a0: 1244 76bd 7a0c 0dbe 53a7 c0bd f317 9d3c
000003b0: 83b5 6e3d b17a 82bd 5111 a63d d8eb 833d
000003c0: 6814 1cbe d6f2 13bd df26 f5bd 6af5 69bd
000003d0: 2f9e 1cbe 9bc0 06bb f7f8 243e c1f4 143e
000003e0: 36d2 3d3d afe0 bdbc 99c4 0a3c 83bb 7bbd
000003f0: 0414 f0bc 36c4 1d3d b84a a73c e5d3 52bd

net.2.bias f4 [128]
-0.3406409 -0.1441887 -0.012760054 -0.012068969 -0.11626521 -0.065679066 0.7568255 -0.049423065
0.75417024 -0.013245032 1.8092526 -0.04406439 0.8380906 -0.108241804 -0.08228044 0.38036418
-0.071924545 1.6428597 -0.0022788865 0.6633026 -0.18608421 -0.11729941 -0.14692675 0.5375735
-0.16639644 0.7174519 -0.0897017 -0.12693697 -0.06671959 1.7708865 0.41353068 -0.07038195
-0.07588762 1.5969452 -0.03220259 -0.10344253 -0.12046951 -0.12742436 -0.048752736 1.672841
0.6516231 0.03493661 1.7625129 0.7175224 -0.08729086 0.6671986 -0.10161924 0.5462351
-0.13445565 -0.1330209 -0.026683593 -0.030414568 -0.12268122 0.883435 -0.15494177 -0.12691355
0.04645603 0.47313 0.026103172 -0.1427393 -0.10792674 -0.09493517 1.6960946 0.67976487
-0.065639116 0.72985 0.6372565 0.7742383 0.6361996 1.9485769 -0.12142202 -0.079309724
0.0013907071 0.55675495 0.028663127 0.25106332 1.8803993 0.49707428 1.1957393 -0.05925451
-0.14474395 -0.06800829 -0.10139294 -0.17888041 0.5228922 -0.115624435 -0.10160337 -0.12090192
1.3613821 1.7560121 -0.12976424 -0.04181932 -0.13188256 -0.02106321 0.005205962 -0.14571837
-0.051762074 0.7817738 0.28022218 0.77334356 1.656599 0.5821052 0.6813856 0.04672792
-0.09450045 -0.09136639 1.6528426 -0.07917065 0.016667837 0.00019167218 -0.1337969 -0.12503919
-0.023836352 -0.0979413 -0.06645094 -0.07328455 -0.115416236 1.9271009 -0.063007995 -0.043485295
-0.01720447 -0.12004939 1.2370807 0.5113364 -0.11845371 0.4014447 1.5458976 0.7092938
00000000: 7c68 aebe 34a6 13be 8c0f 51bc edbc 45bc
00000010: 741c eebd bf82 86bd 51bf 413f d76f 4abd
00000020: 4d11 413f b101 59bc 9795 e73f dd7c 34bd
00000030: 1b8d 563f e1ad ddbd a682 a8bd 18bf c23e
00000040: 2d4d 93bd 3a49 d23f 5f59 15bb 33ce 293f
00000050: dc8c 3ebe ac3a f0bd f773 16be 6b9e 093f
00000060: d463 2abe edaa 373f 86b5 b7bd c4fb 01be
00000070: 48a4 88bd 69ac e23f 4bba d33e 6924 90bd
00000080: f86a 9bbd b368 cc3f dde6 03bd add9 d3bd
00000090: b8b8 f6bd 887b 02be f3b0 47bd a71f d63f
000000a0: c5d0 263f b119 0f3d 069a e13f 8caf 373f
000000b0: 8dc5 b2bd 87cd 2a3f c01d d0bd 10d6 0b3f
000000c0: beae 09be a136 08be 8d97 dabc f927 f9bc
000000d0: 4b40 fbbd cc28 623f 0ea9 1ebe a0f5 01be
000000e0: ae48 3e3d 183e f23e 52d6 d53c 402a 12be
000000f0: b208 ddbd 5f6d c2bd a119 d93f 1205 2e3f
00000100: cd6d 86bd 73d7 3a3f 3e23 233f 7b34 463f
00000110: fadd 223f f86a f93f 1cac f8bd 236d a2bd
00000120: 6348 b63a 7e87 0e3f efce ea3c 5f8b 803e
00000130: edb0 f03f 8580 fe3e fc0d 993f dbb4 72bd
00000140: c237 14be ee47 8bbd 1aa7 cfbd 6d2c 37be
00000150: 43dc 053f 81cc ecbd 6d15 d0bd 6d9b f7bd
00000160: c541 ae3f 01c5 e03f ebe0 04be bc4a 2bbd
00000170: 390c 07be c18c acbc c696 aa3b 3237 15be
00000180: 7804 54bd 5422 483f 4879 8f3e d8f9 453f
00000190: 700b d43f d904 153f 496f 2e3f c765 3f3d
000001a0: 7489 c1bd 4d1e bbbd 5990 d33f 3924 a2bd
000001b0: fd8a 883c 9cfb 4839 0e02 09be 460a 00be
000001c0: 7444 c3bc 7395 c8bd 6e17 88bd 3616 96bd
000001d0: 595f ecbd 3eab f63f 560a 81bd a31d 32bd
000001e0: 63f0 8cbc 74dc f5bd a958 9e3f f1e6 023f
000001f0: dc97 f2bd 298a cd3e f9df c53f 4794 353f

net.4.weight f4 [13, 128]
0.44792 0.029865025 -0.039772473 -0.08217447 -0.043466855 -0.006034152 2.5329893 0.08711652
3.196997 0.022657236 0.65650505 -0.0294892 1.9917156 0.054059874 -0.034575853 2.5127192
-0.006124826 0.6976988 0.11147826 1.4577596 1.0203604 -0.04894425 -0.0043167775 1.920427
-0.055578068 2.8051314 -0.052976247 -0.015729263 -0.050159413 0.66701823 1.9625906 -0.039386746
0.02359236 0.6823177 -0.02291967 -0.072973706 0.051960178 0.060441222 0.036522444 0.4875833
1.5530059 -0.03948866 0.5625165 3.092506 0.004252516 1.6460111 -0.05531478 1.883017
-0.003923901 0.057398874 -0.03978872 -0.057274923 -0.0032875778 2.0508723 -0.035894398 -0.049273625
0.011293851 1.670001 0.09443396 -0.07653165 0.06936768 -0.031436164 0.6471838 1.3500247
-0.007024226 1.48045 2.7869048 1.8102957 2.7215374 0.785833 -0.04010402 0.045037802
0.053138964 1.9662744 -0.07501428 2.9624772 0.4878725 2.8821564 0.85810757 0.006020136
0.24374948 0.0018084443 0.0368958 0.028025918 2.2125368 0.03223969 0.27661762 -0.0361665
0.8423368 0.64132863 0.047940318 -0.06924202 -0.09660238 0.008694988 0.032499753 0.07556341
-0.010977581 1.5104636 2.3991325 3.4622183 0.5199012 3.8297431 2.1897652 0.04958243
-0.067142546 0.016079236 0.4678428 -0.007728381 -0.023926724 -0.064695 -0.06342222 -0.0027116386
-0.028950494 0.08794571 -0.10975033 0.030821612 -0.010707708 0.70966643 -0.025169024 0.060550716
-0.10280067 0.025813712 0.94903296 3.4765427 -0.027797397 2.798573 0.49097878 1.5393454
-0.458975 -0.009855065 -0.0671489 -0.012571624 -0.021529622 -0.060239423 3.0804217 -0.034601092
3.6327562 0.055317085 0.5859986 -0.11492671 1.858719 -0.013959795 0.055299934 2.3341012
-0.048523154 0.541672 -0.0481854 0.88670176 1.0964866 -0.004959874 0.021407159 1.9256921
0.0027019097 2.8609998 0.031138562 0.057893958 0.058338713 0.5946675 1.9784975 -0.011531622
0.01819541 0.4507831 0.044661902 0.057500042 -0.056539237 0.018794872 0.020948792 0.4634536
1.6754963 -0.028072493 0.6725171 3.322797 -0.053240128 2.4518256 -0.05060808 2.3652384
-0.018673064 -0.032739684 -0.04032306 0.036162805 -0.037037574 1.7704135 -0.034759138 0.013090032
0.0037408397 1.7951651 0.028976802 0.053224117 -0.016437279 -0.013589315 0.59658355 1.4527295
0.050593954 1.1259595 2.6141798 2.115628 2.8769784 0.6988971 0.01812865 -0.09079552
-0.041852437 2.2732239 0.012556158 3.259897 0.6545762 2.573132 1.2175488 0.014614664
-0.19877844 0.024316026 0.041590516 0.021268368 2.38325 -0.021852322 0.13814013 0.004622118
0.8410441 0.6296864 0.032328732 -0.029001134 -0.019386675 -0.03934594 -0.08974078 0.06460916
0.07449355 1.4767274 2.199641 3.3727295 0.6483638 3.2834156 2.2831998 0.017134806
0.10427392 -0.10780924 0.5966976 -0.066864 -0.04599958 0.067461275 0.32956567 0.2798533
0.031997863 -0.055733155 0.08002757 0.025094626 -0.07873734 0.8098088 0.05844876 -0.03116107
-0.019433202 -0.038933378 0.76561576 3.1340804 0.04251407 2.6007001 0.67571366 1.6902821
00000000: c555 e53e 7fa7 f43c 76e8 22bd 174b a8bd
00000010: 4d0a 32bd 23ba c5bb 7f1c 2240 256a b23d
00000020: 999b 4c40 ab9b b93c b710 283f 5693 f1bc
00000030: 89f0 fe3f e36d 5d3d 699f 0dbd 64d0 2040
00000040: c4b2 c8bb 639c 323f b74e e43d de97 ba3f
00000050: 2b9b 823f c479 48bd c173 8dbb 8dd0 f53f
00000060: d4a5 63bd 4687 3340 9ffd 58bd a8da 80bc
00000070: f573 4dbd b5c1 2a3f 2b36 fb3f ff53 21bd
00000080: c444 c13c 5fac 2e3f 08c2 bbbc 3d73 95bd
00000090: 32d4 543d 3791 773d 8f98 153d 85a4 f93e
000000a0: e6c8 c63f dcbe 21bd 1501 103f 9eeb 4540
000000b0: b158 8b3b 7eb0 d23f c091 62bd b306 f13f
000000c0: 1194 80bb 151b 6b3d 7ff9 22bd 1c99 6abd
000000d0: 6774 57bb 7e41 0340 0106 13bd 24d3 49bd
000000e0: d809 393c 98c2 d53f 9866 c13d a0bc 9cbd
000000f0: a410 8e3d 35c3 00bd d6ad 253f 9ccd ac3f
00000100: 7a2b e6bb 637f bd3f a65c 3240 c5b7 e73f
00000110: ab2d 2e40 5a2c 493f 1d44 24bd 8f79 383d
00000120: 3ea8 593d e1ae fb3f 16a1 99bd 3a99 3d40
00000130: 6dca f93e 4075 3840 f0ac 5b3f 9044 c53b
00000140: 7799 793e 5209 ed3a 0d20 173d 9c96 e53c
00000150: 349a 0d40 c40d 043d d3a0 8d3e 5323 14bd
00000160: 62a3 573f 1d2e 243f 115d 443d c3ce 8dbd
00000170: 78d7 c5bd 6c75 0e3c 761e 053d fdc0 9a3d
00000180: 50db 33bc df56 c13f 638b 1940 fc94 5d40
00000190: 3f18 053f 831a 7540 1d25 0c40 f216 4b3d
000001a0: 0882 89bd 9ab8 833c 1789 ef3e 5c3e fdbb
000001b0: fa01 c4bc d07e 84bd 82e3 81bd bfb5 31bb
000001c0: 9629 edbc e11c b43d c8c4 e0bd 9b7d fc3c
000001d0: 626f 2fbc b3ac 353f 452f cebc 0704 783d
000001e0: 2889 d2bd 4777 d33c d3f3 723f ad7f 5e40
000001f0: 5eb7 e3bc d21b 3340 9261 fb3e 4509 c53f
00000200: c5fe eabe 2377 21bc 5d85 89bd 36f9 4dbc
00000210: e45e b0bc 9dbd 76bd a125 4540 e0b9 0dbd
00000220: 147f 6840 2b94 623d 0104 163f b25e ebbd
00000230: 81ea ed3f a0b7 64bc 2f82 623d ea61 1540
00000240: 37c0 46bd 04ab 0a3f 0e5e 45bd e3fe 623f
00000250: ac59 8c3f 7086 a2bb 115e af3c 147d f63f
00000260: 8612 313b 9f1a 3740 4c16 ff3c 3722 6d3d
00000270: 93f4 6e3d 213c 183f 683f fd3f 21ef 3cbc
00000280: 8a0e 953c 0bcd e63e 66ef 363d 2a85 6b3d
00000290: b095 67bd b4f7 993c cd9c ab3c ca49 ed3e
000002a0: aa76 d63f 49f8 e5bc 152a 2c3f b5a8 5440
000002b0: 5212 5abd b6ea 1c40 6b4a 4fbd 1160 1740
000002c0: 41f8 98bc 0c1a 06bd cb29 25bd 731f 143d
000002d0: b6b4 17bd e99c e23f 995f 0ebd 9377 563c
000002e0: e028 753b f8c7 e53f c260 ed3c 8801 5a3d
000002f0: 79a7 86bc b8a5 5ebc b3b9 183f 0af3 b93f
00000300: 9b3b 4f3d 711f 903f b94e 2740 7366 0740
00000310: 6a20 3840 ecea 323f 8982 943c 00f3 b9bd
00000320: 766d 2bbd 807c 1140 58b8 4d3c 27a2 5040
00000330: 4e92 273f 32ae 2440 a4d8 9b3f 5872 6f3c
00000340: 938c 4bbe 6732 c73c d15a 2a3d 003b ae3c
00000350: 2b87 1840 a403 b3bc 9b74 0d3e 2375 973b
00000360: ab4e 573f 2133 213f 226b 043d c993 edbc
00000370: ced0 9ebc 3529 21bd 04ca b7bd cf51 843d
00000380: 1390 983d 6705 bd3f ebc6 0c40 cdda 5740
00000390: 2cfb 253f 7b23 5240 f21f 1240 4b5e 8c3c
000003a0: 918d d53d 17cb dcbd 2dc1 183f feef 88bd
000003b0: 0e6a 3cbd 2329 8a3d d5bc a83e ef48 8f3e
000003c0: 3110 033d 7348 64bd 7fe5 a33d 3f93 cd3c
000003d0: 0b41 a1bd a14f 4f3f f867 6f3d 8045 ffbc
000003e0: 6132 9fbc 9b78 1fbd 65ff 433f c694 4840
000003f0: 3c23 2e3d df71 2640 92fb 2c3f 2a5b d83f

net.4.bias f4 [13]
1.0723199 1.4665256 1.0518879 1.0633302 0.8269581 1.1731498 1.714132 1.4841164
1.2444775 0.97664165 0.9052275 1.287 1.1170671
00000000: c741 893f 1cb7 bb3f 43a4 863f 341b 883f
00000010: 87b3 533f c629 963f ad68 db3f 87f7 bd3f
00000020: 0a4b 9f3f 3005 7a3f fdbc 673f 6abc a43f
00000030: 0efc 8e3f

net.0.weight f4 [128, 53]
-0.21713631 -0.017380157 0.4195645 -0.070928 0.158108 0.10043663 -0.45967904 -0.2680816
-1.4533409 0.2952571 0.6746569 0.49153653 -0.12279355 0.28000012 -0.04696351 -1.3895953
-0.07920902 -0.65061396 1.0434389 -0.65251404 0.06376735 -0.15942697 -0.1718603 0.65120715
-1.4694903 0.2921184 -0.6733913 0.11783502 -1.7757045 0.22021684 0.20585074 -0.73406816
1.0244035 -0.7101941 -0.116039805 0.52007693 -0.8747732 0.040118624 -0.7238893 0.57670355
0.002713223 0.27280757 0.4988536 0.51013416 0.522949 -0.6752042 -0.37315866 0.37375945
-0.38557506 -0.3199979 -0.42578906 -0.012967693 0.19657351 -0.12471953 -0.07747055 0.0297613
0.06706246 -0.0013274997 -0.035118494 -0.08061001 -0.03043018 0.0035876501 -0.0082384795 -0.087485634
0.065148436 0.1434241 -0.047904465 -0.08172628 0.074027665 -0.059515093 0.106870554 -0.07252232
-0.11743879 -0.10447779 0.045339867 0.036776964 0.107492596 0.013104275 -0.03352691 -0.053894483
-0.02992184 0.11586066 0.05354844 -0.063971676 -0.06899638 -0.0630946 -0.094673745 -0.041309766
0.13940085 -0.056966454 0.11018733 0.06077974 0.012858331 -0.068168096 -0.13293797 -0.06404934
0.116348654 -0.120261595 -0.05537788 -0.1981748 0.019293722 0.07237897 -0.10228996 0.049237605
0.00025582314 -0.12596571 -0.013887498 -0.0646175 0.06829012 0.08726004 -0.09261205 0.06859449
-0.021820707 0.017548747 -0.049698275 -0.12659614 0.046244755 -0.036859334 -0.00012812951 -0.13706559
-0.05997238 -0.1273548 -0.118614554 -0.13126567 -0.08496108 0.0025856786 0.05242721 0.07416302
0.042201 -0.25283706 -0.021326184 -0.008934608 0.08329054 0.12131235 0.046919744 0.12886573
0.044032324 0.02661486 0.10868654 -0.089502126 -0.045303285 -0.0742672 0.031147918 0.088406146
0.05168631 0.034764905 -0.18883185 -0.06288154 -0.02007929 0.08568717 -0.051113393 -0.105807096
-0.18916292 0.22605154 -0.03543755 -0.22215098 0.086664245 -0.11406991 -0.13018277 1.1432389
-0.10292964 0.48724678 -1.9551878 1.652908 2.01624 -0.26093447 1.1108195 -0.80217093
0.2428427 1.1109091 -0.7588366 0.022034332 -0.06445411 -1.7857393 -0.90332067 -1.5518912
0.02718145 -0.10880895 0.50461924 -0.17825304 -1.7790219 -0.19542854 0.25296128 0.30127496
-0.6723493 -0.8153353 0.35103005 0.3287277 0.9683233 0.11316515 -0.24219613 -0.48404986
-1.0265172 -0.45601845 -0.75561565 -0.12227074 -2.2683218 1.1751432 0.053625874 -1.6984484
-1.8745588 -2.8136234 -1.3094772 -1.3353193 -0.17021921 0.014893733 -1.0208454 0.22689788
-0.082290016 0.13410394 -0.07194601 0.4241086 -1.6660353 0.5190846 -1.6705056 2.1437385
-1.1296856 -0.5724086 0.01039269 1.7410339 -1.0355912 0.7802672 0.640308 0.2676736
1.3934587 -0.41678622 0.13541883 -1.08979 1.0732826 -1.5127892 0.470997 0.21233064
-0.07774706 2.140295 0.29006648 -0.7312903 -0.4138154 0.6611077 0.0021484878 0.51625973
-0.54984796 0.22966006 -0.013262758 0.67452276 -0.45708916 -0.7945921 -0.025977317 -0.6764479
-0.37864378 -1.3879446 0.41996172 -0.1600482 0.038706858 0.1063375 0.58659214 0.7730226
00000000: fb58 5ebe d560 8ebc 28d1 d63e b342 91bd
00000010: 10e7 213e b8b1 cd3d 0d5b ebbe fe41 89be
00000020: 1307 babf f02b 973e 51b6 2c3f adaa fb3e
00000030: 2f7b fbbd 2d5c 8f3e cf5c 40bd 42de b1bf
00000040: 5738 a2bd a38e 26bf 688f 853f 290b 27bf
00000050: 7598 823d d340 23be 25fc 2fbe 83b5 263f
00000060: 4218 bcbf 8b90 953e 5f63 2cbf 7d53 f13d
00000070: 494a e3bf 8680 613e 89ca 523e e4eb 3bbf
00000080: a71f 833f 48cf 35bf 47a6 edbd c323 053f
00000090: 23f1 5fbf 6d53 243d cf50 39bf d8a2 133f
000000a0: 54d0 313b 6fad 8b3e bd69 ff3e 2798 023f
000000b0: fcdf 053f 2fda 2cbf a70e bfbe 665d bf3e
000000c0: 186a c5be c4d6 a3be 0601 dabe 7276 54bc
000000d0: 914a 493e f46c ffbd e1a8 9ebd f8cd f33c
000000e0: 0b58 893d 80ff adba 69d8 0fbd dc16 a5bd
000000f0: b648 f9bc c81e 6b3b b0fa 06bc ab2b b3bd
00000100: 8b6c 853d c4dd 123e 7937 44bd 1c60 a7bd
00000110: d19b 973d 19c6 73bd f3de da3d 9586 94bd
00000120: c083 f0bd 74f8 d5bd 4cb6 393d 71a3 163d
00000130: 1425 dc3d 50b3 563c 8353 09bd 76c0 5cbd
00000140: a61e f5bc 5b48 ed3d 9c55 5b3d 9503 83bd
00000150: f94d 8dbd be37 81bd 4fe4 c1bd 6e34 29bd
00000160: 19bf 0e3e a855 69bd e5a9 e13d 2df4 783d
00000170: c0ab 523c b79b 8bbd e420 08be 4d2c 83bd
00000180: 3448 ee3d b64b f6bd ead3 62bd 56ee 4abe
00000190: de0d 9e3c 6d3b 943d 667d d1bd 5fad 493d
000001a0: 0020 8639 28fd 00be 6388 63bc 2e56 84bd
000001b0: b1db 8b3d 64b5 b23d 63ab bdbd 457b 8c3d
000001c0: 57c1 b2bc 64c2 8f3c 6b90 4bbd 6ba2 01be
000001d0: 246b 3d3d d0f9 16bd 815a 06b9 ec5a 0cbe
000001e0: 99a5 75bd 4c69 02be 30ec f2bd 826a 06be
000001f0: 1300 aebd 7d74 293b eabd 563d c8e2 973d
00000200: f5da 2c3d dc73 81be 40b4 aebc 7662 12bc
00000210: 3b94 aa3d 9c72 f83d eb2e 403d 61f5 033e
00000220: 3d5b 343d 6807 da3c 0c97 de3d e44c b7bd
00000230: f08f 39bd 6719 98bd eb29 ff3c 480e b53d
00000240: 06b5 533d a565 0e3d 235d 41be 09c8 80bd
00000250: 537d a4bc c17c af3d 475c 51bd 64b1 d8bd
00000260: edb3 41be 0e7a 673e f726 11bd 8c7b 63be
00000270: 067d b13d 7c9d e9bd a24e 05be a755 923f
00000280: c6cc d2bd 6978 f93e 9843 fabf 7d92 d33f
00000290: 130a 0140 3499 85be 552f 8e3f 135b 4dbf
000002a0: c2ab 783e 4532 8e3f 1e43 42bf 5881 b43c
000002b0: 8400 84bd 1b93 e4bf 0640 67bf 5fa4 c6bf
000002c0: a2ab de3c 3ad7 debd ba2e 013f f787 36be
000002d0: fdb6 e3bf 6b1e 48be 2484 813e b640 9a3e
000002e0: 151f 2cbf d0b9 50bf 36ba b33e ff4e a83e
000002f0: 09e4 773f 21c3 e73d 4302 78be 62d5 f7be
00000300: ea64 83bf 407b e9be 0770 41bf 1569 fabd
00000310: 2f2c 11c0 186b 963f cea6 5b3d c266 d9bf
00000320: 8bf1 efbf 6812 34c0 f39c a7bf beeb aabf
00000330: f24d 2ebe d804 743c 10ab 82bf eb57 683e
00000340: ab87 a8bd 8b52 093e 6e58 93bd c324 d93e
00000350: a540 d5bf bae2 043f 21d3 d5bf 0333 0940
00000360: 8a99 90bf 5f89 12bf 1a46 2a3c 33da de3f
00000370: 418e 84bf 97bf 473f 3aeb 233f 840c 893e
00000380: db5c b23f 0165 d5be 3cab 0a3e 3d7e 8bbf
00000390: 5361 893f 14a3 c1bf 8526 f13e 346d 593e
000003a0: da39 9fbd 98fa 0840 9883 943e d735 3bbf
000003b0: 9ddf d3be 5b3e 293f a5cd 0c3b 9929 043f
000003c0: d6c2 0cbf 022c 6b3e 0a4c 59bc 86ad 2c3f
000003d0: 9707 eabe 636a 4bbf 62ce d4bc b12b 2dbf
000003e0: 99dd c1be 2ba8 b1bf 3905 d73e ade3 23be
000003f0: 158b 1e3d 7ac7 d93d e72a 163f cfe4 453f

net.0.bias f4 [128]
-0.22166882 -0.1174118 -0.087755784 0.20961772 0.08372958 0.0859958 -0.07670923 -0.10574682
-0.01916982 -0.31817836 -0.06887601 -0.36082318 0.07589071 0.060897324 -0.19916241 -0.22637469
-0.13110967 0.43145835 -0.25653931 -0.097700916 -0.23324072 -0.33076254 0.13472235 -0.13353156
0.18845381 -0.46667582 0.20243502 0.25154674 -0.38147455 0.009017934 -0.39912623 -0.10918328
0.35288364 -0.105664976 -0.21243152 0.9278069 -0.5902727 0.20063508 -0.17278218 -0.0942032
-0.17017587 -0.21618654 -0.12010162 -0.58949876 -0.19080162 0.14528464 -0.3992935 0.5439837
0.19571128 0.028174516 -0.21654128 -0.10573098 0.3540972 0.6817672 0.08341219 0.2952467
0.17830038 0.43160507 0.12860914 -0.3297885 -0.26264518 -0.20422855 0.23654266 0.4104033
0.83168954 -0.15491864 -0.025336722 0.046038274 0.17012216 0.70652 0.029601661 -0.32585114
0.00031705498 -0.036591843 0.39500812 -0.13178961 -0.22593385 -0.25194967 0.2636765 0.43995896
0.26901037 -0.52510756 -0.14847079 -0.19605505 0.14531 -0.29726782 -0.3102064 -0.14380628
-0.011585034 -0.041768767 0.854186 -0.17564951 -0.26540685 -0.19459337 -0.24801704 -0.20501688
0.16643815 0.21587113 -0.17195308 -0.08922573 0.3489257 -0.007620307 0.9236219 -0.24011856
0.49279287 0.4785314 -0.07346577 0.3048776 0.011368342 -0.0849472 -0.022816103 0.21214667
-0.19162662 -0.16719168 0.17627995 0.22234116 0.2528736 -0.03571345 0.5939439 -0.6420866
-0.16607724 -0.23106757 -0.1822991 0.15058339 -0.609143 0.1280192 -0.094390996 -0.29583472
00000000: 27fd 62be 9975 f0bd 4eb9 b3bd 07a6 563e
00000010: 6a7a ab3d 911e b03d bb19 9dbd ca91 d8bd
00000020: 070a 9dbc 46e8 a2be de0e 8dbd d1bd b8be
00000030: 976c 9b3d 796f 793d 3bf1 4bbe c4ce 67be
00000040: 9d41 06be 1ce8 dc3e 1f59 83be 6b17 c8bd
00000050: a8d6 6ebe b559 a9be a8f4 093e 7fbc 08be
00000060: 09fa 403e 22f0 eebe 204b 4f3e bcca 803e
00000070: a250 c3be f5bf 133c 465a ccbe 7c9b dfbd
00000080: 2aad b43e e166 d8bd a687 59be c184 6d3f
00000090: 1d1c 17bf 4873 4d3e d0ed 30be 9bed c0bd
000000a0: 9542 2ebe 0160 5dbe d7f7 f5bd 64e9 16bf
000000b0: 8061 43be 7fc5 143e 3370 ccbe 8442 0b3f
000000c0: 8a68 483e 3ece e63c ffbc 5dbe 7c89 d8bd
000000d0: 3a4c b53e 4c88 2e3f 03d4 aa3d 932a 973e
000000e0: 6094 363e 57fb dc3e 1db2 033e 0ada a8be
000000f0: 6e79 86be 4a21 51be 3d38 723e 6220 d23e
00000100: 9be9 543f fea2 1ebe f58e cfbc a192 3c3d
00000110: 8134 2e3e 7fde 343f 2f7f f23c f6d5 a6be
00000120: 663a a639 54e1 15bd 813e ca3e dbf3 06be
00000130: 345b 67be 8cff 80be 9b00 873e 4d42 e13e
00000140: babb 893e 736d 06bf ba08 18be a8c2 48be
00000150: 25cc 143e 7d33 98be 60d3 9ebe f441 13be
00000160: 28cf 3dbc ba15 2bbd efab 5a3f 77dd 33be
00000170: 68e3 87be 7c43 47be 2ef8 7dbe f2ef 51be
00000180: c36e 2a3e 520d 5d3e 7814 30be fbbb b6bd
00000190: 64a6 b23e c5b3 f9bb 7c72 6c3f a4e1 75be
000001a0: 594f fc3e 1102 f53e 3975 96bd eb18 9c3e
000001b0: 4842 3a3c ccf8 adbd d6e8 babc fa3c 593e
000001c0: c539 44be 4c34 2bbe bb82 343e 67ad 633e
000001d0: a678 813e 4448 12bd b50c 183f ca5f 24bf
000001e0: 2710 2abe fa9c 6cbe 9eac 3abe 8832 1a3e
000001f0: ccf0 1bbf 7717 033e 1150 c1bd a677 97be

net.2.weight f4 [128, 128]
0.037462655 -0.0663484 -0.08958177 0.23068465 -1.0667014 -0.21231037 0.07049715 -0.026080776
0.07953716 0.65696746 -0.04385293 -2.360527 -0.27374342 -0.6398167 0.0018877977 -0.011497587
0.030829921 0.023052463 -0.063966066 -0.050266217 0.05130105 -0.26313087 0.07303839 -0.31470993
-0.5283041 -0.6121102 -0.49824807 0.37881327 -0.34088108 -0.42249462 0.0087815365 0.009544259
-0.04541241 -0.14795446 1.2081349 -0.54958653 -0.18381053 -0.3670774 0.036858983 -0.2656919
0.047699403 0.03566113 0.05329446 -1.4920878 0.3579845 -0.61337686 0.25884077 -0.0029625015
-0.56921166 1.2981243 0.053450644 -0.034141023 0.41758978 -0.44680825 0.5605723 -0.8035027
-0.52932906 -1.6836957 -2.0177329 0.20731205 -0.8388456 0.036318284 -0.7037141 0.51463306
-1.3416864 -0.04726105 -0.1559429 1.0966111 -1.9193268 -0.5922361 0.6038169 0.36294025
-0.4386659 0.07055663 -1.502477 -0.080603644 -0.531175 -0.030864066 -0.057379894 -1.114411
-0.8778552 0.5332404 -0.07371786 0.2737127 1.0928277 0.37945887 0.25996864 -0.030313056
-0.047421217 0.3576239 -0.45588785 0.08781459 -0.12349479 -0.07224645 0.7390501 -0.016336486
-0.21504904 -0.11478284 -0.8543457 0.107246496 0.07626243 -1.3103764 -0.5032458 -0.017073616
-0.653619 0.25965798 -0.7691234 -0.19969234 -0.0550102 -0.4203245 -0.038771234 0.31035605
-0.3835786 0.013598397 1.2077216 -0.10352412 -0.8741 -0.608026 0.22312547 0.11689546
-0.01951854 0.066673286 -0.077383325 -0.5930069 -0.007210612 -0.63081646 -0.021792367 0.161216
-0.06309832 -0.03084965 -0.013910179 -0.07006076 -0.10768765 0.06636883 -0.019214464 -0.06942752
-0.03644946 0.02358197 -0.033740364 0.00038058532 -0.012248823 -0.2370466 -0.00524386 -0.06822366
0.028951596 -0.049577463 -0.072284214 0.067910954 0.046475213 0.0657485 0.02283866 0.07008437
0.09082679 -0.16185531 0.064565696 -0.10277499 0.072046116 -0.0043191067 -0.03887816 0.05669009
-0.03369708 0.012814662 0.20712255 -0.091856726 0.029904883 -0.10942875 -0.035779785 -0.051302344
0.040178075 0.0070887655 0.027168414 0.03451467 -0.14938498 -0.14728469 -0.101108685 -0.15873195
-0.21078512 -0.04874093 0.043416396 -0.0042669484 0.049354244 -0.117575906 -0.20354386 -0.16006997
0.16642721 -0.07486556 0.07706962 0.008410973 -0.047392275 0.04898933 -0.10413888 -0.07201876
-0.15796535 -0.087416925 0.10443327 -0.14140603 -0.29984927 -0.034476787 0.063204445 -0.07450746
0.015295865 -0.03280644 -0.099515595 0.082061686 -0.096185334 0.01520776 -0.095238075 -0.10488109
0.047153883 0.032435037 0.06660733 0.06413278 0.038416326 0.021597905 -0.108916804 0.026456606
-0.071945906 0.04528334 -0.07385714 -0.037491553 0.08231942 0.060681634 -0.030315295 0.026464036
-0.035438348 -0.015198197 -0.08811859 -0.0052002626 -0.028147522 -0.039328452 -0.10575384 0.0026914626
-0.06012351 -0.1377429 -0.094069146 0.019176459 0.05827857 -0.06371058 0.081087716 0.06441468
-0.1524216 -0.03612026 -0.11970305 -0.05711881 -0.15294717 -0.002056158 0.16110598 0.14546491
0.04634305 -0.023178427 0.008469724 -0.061458122 -0.02930642 0.0385172 0.02042137 -0.05147161
00000000: 7172 193d ace1 87bd a676 b7bd 9938 6c3e
00000010: ac89 88bf e467 59be cf60 903d 5aa7 d5bc
00000020: 61e4 a23d 052f 283f 219f 33bd e012 17c0
00000030: 1928 8cbe 07cb 23bf fb6f f73a 6060 3cbc
00000040: 088f fc3c 85d8 bc3c a400 83bd f3e3 4dbd
00000050: 0d21 523d 17b9 86be 2795 953d a921 a1be
00000060: f03e 07bf 41b3 1cbf 5f1a ffbe d0f3 c13e
00000070: f787 aebe 3751 d8be 6fe0 0f3c 865f 1c3c
00000080: 5d02 3abd 6081 17be 2aa4 9a3f b4b1 0cbf
00000090: d438 3cbe 92f1 bbbe 72f9 163d c508 88be
000000a0: 7360 433d 6811 123d 4b4b 5a3d bcfc bebf
000000b0: bf49 b73e 4406 1dbf c786 843e 8726 42bb
000000c0: dbb7 11bf f028 a63f 10ef 5a3d 75d7 0bbd
000000d0: 54ce d53e 0dc4 e4be ab81 0f3f 5ab2 4dbf
000000e0: 1c82 07bf 5783 d7bf 8922 01c0 9c49 543e
000000f0: 96be 56bf 7bc2 143d 9b26 34bf febe 033f
00000100: 61bc abbf ce94 41bd 7faf 1fbe c15d 8c3f
00000110: 80ac f5bf c99c 17bf bf93 1a3f 4ed3 b93e
00000120: d198 e0be ff7f 903d 2b51 c0bf 8613 a5bd
00000130: 16fb 07bf a3d6 fcbc 2e07 6bbd 05a5 8ebf
00000140: 1ebb 60bf 7182 083f 64f9 96bd 1224 8c3e
00000150: c7e1 8b3f 6f48 c23e 9c1a 853e 1653 f8bc
00000160: c03c 42bd 7b1a b73e 226a e9be 23d8 b33d
00000170: d6ea fcbd f2f5 93bd 6332 3d3f 18d4 85bc
00000180: d135 5cbe 4413 ebbd 66b6 5abf 0da4 db3d
00000190: 7a2f 9c3d 6aba a7bf b7d4 00bf f8dd 8bbc
000001a0: 9353 27bf e4f1 843e 45e5 44bf 267c 4cbe
000001b0: 6052 61bd c634 d7be 96ce 1ebd fde6 9e3e
000001c0: 6a64 c4be d0cb 5e3c 9f96 9a3f 7404 d4bd
000001d0: 05c5 5fbf 98a7 1bbf 017b 643e e366 ef3d
000001e0: 58e5 9fbc 018c 883d 267b 9ebd 4dcf 17bf
000001f0: ff46 ecbb 307d 21bf e885 b2bc cf15 253e
00000200: b139 81bd 68b8 fcbc 85e7 63bc 047c 8fbd
00000210: 588b dcbd 62ec 873d a767 9dbc 0430 8ebd
00000220: 074c 15bd fa2e c13c 5633 0abd 4c89 c739
00000230: 4aaf 48bc 58bc 72be b0d4 abbb d9b8 8bbd
00000240: e62b ed3c bd11 4bbd bf09 94bd e614 8b3d
00000250: cb5c 3e3d 26a7 863d 2418 bb3c 6588 8f3d
00000260: 6503 ba3d 66bd 25be 053b 843d b27b d2bd
00000270: ea8c 933d 4b87 8dbb b53e 1fbd de33 683d
00000280: f305 0abd 97f4 513c ef17 543e 611f bcbd
00000290: 16fb f43c 2e1c e0bd d38d 12bd 6822 52bd
000002a0: c491 243d e048 e83b 4b90 de3c 415f 0d3d
000002b0: 60f8 18be ccd1 16be 1212 cfbd a18a 22be
000002c0: 0ed8 57be 92a4 47bd 64d5 313d c2d1 8bbb
000002d0: ad27 4a3d a3cb f0bd cd6d 50be 62e9 23be
000002e0: e56b 2a3e 1d53 99bd add6 9d3d 2dce 093c
000002f0: 671e 42bd 09a9 483d c446 d5bd 927e 93bd
00000300: abc1 21be a507 b3bd 1ce1 d53d becc 10be
00000310: d885 99be 8837 0dbd 5571 813d 5e97 98bd
00000320: 829b 7a3c 0c60 06bd d5ce cbbd f50f a83d
00000330: d1fc c4bd f829 793c 2e0c c3bd e6cb d6bd
00000340: 6e24 413d 9ada 043d 6d69 883d 0c58 833d
00000350: 705a 1d3d 17ee b03c c60f dfbd 86bb d83c
00000360: 6058 93bd 067b 393d 6a42 97bd be90 19bd
00000370: 1697 a83d 4e8d 783d c857 f8bc 1bcb d83c
00000380: cd27 11bd dc01 79bc 8577 b4bd f766 aabb
00000390: a295 e6bc df16 21bd 7895 d8bd 4063 303b
000003a0: 1244 76bd 7a0c 0dbe 53a7 c0bd f317 9d3c
000003b0: 83b5 6e3d b17a 82bd 5111 a63d d8eb 833d
000003c0: 6814 1cbe d6f2 13bd df26 f5bd 6af5 69bd
000003d0: 2f9e 1cbe 9bc0 06bb f7f8 243e c1f4 143e
000003e0: 36d2 3d3d afe0 bdbc 99c4 0a3c 83bb 7bbd
000003f0: 0414 f0bc 36c4 1d3d b84a a73c e5d3 52bd

net.2.bias f4 [128]
-0.3406409 -0.1441887 -0.012760054 -0.012068969 -0.11626521 -0.065679066 0.75669116 -0.049423065
0.7520559 -0.013245032 1.8085047 -0.04406439 0.83548325 -0.108241804 -0.08228044 0.38170978
-0.071924545 1.6433295 -0.0022788865 0.6622083 -0.18866876 -0.11729941 -0.14692675 0.5314774
-0.16639644 0.7200985 -0.0897017 -0.12693697 -0.06671959 1.7706674 0.41212553 -0.07038195
-0.07588762 1.5962625 -0.03220259 -0.10344253 -0.12046951 -0.12742436 -0.048752736 1.6719295
0.6512098 0.03493661 1.7614403 0.7127986 -0.08729086 0.66962063 -0.10161924 0.5424855
-0.13445565 -0.1330209 -0.026683593 -0.030414568 -0.12268122 0.88227195 -0.15494177 -0.12691355
0.04645603 0.47057414 0.026103172 -0.1427393 -0.10792674 -0.09493517 1.6952441 0.6800839
-0.065639116 0.72736514 0.63763714 0.77581555 0.63753235 1.9476087 -0.12142202 -0.079309724
0.0013907071 0.55666983 0.028663127 0.2465274 1.87926 0.4978038 1.1966115 -0.05925451
-0.14474395 -0.06800829 -0.10139294 -0.17888041 0.52191186 -0.115624435 -0.10160337 -0.12090192
1.361438 1.7551454 -0.12976424 -0.04181932 -0.13188256 -0.02106321 0.005205962 -0.14571837
-0.051762074 0.7850437 0.28123423 0.7719377 1.6552305 0.58677274 0.686899 0.04672792
-0.09450045 -0.09136639 1.6518855 -0.07917065 0.016667837 0.00019167218 -0.1337969 -0.12503919
-0.023836352 -0.0979413 -0.06645094 -0.07328455 -0.115416236 1.9258608 -0.063007995 -0.043485295
-0.01720447 -0.12004939 1.2381535 0.51395214 -0.11845371 0.39313006 1.5451709 0.7122666
00000000: 7c68 aebe 34a6 13be 8c0f 51bc edbc 45bc
00000010: 741c eebd bf82 86bd 83b6 413f d76f 4abd
00000020: bc86 403f b101 59bc 157d e73f dd7c 34bd
00000030: 3be2 553f e1ad ddbd a682 a8bd 776f c33e
00000040: 2d4d 93bd 9f58 d23f 5f59 15bb 7c86 293f
00000050: 6232 41be ac3a f0bd f773 16be e70e 083f
00000060: d463 2abe 6058 383f 86b5 b7bd c4fb 01be
00000070: 48a4 88bd 3ba5 e23f 1e02 d33e 6924 90bd
00000080: f86a 9bbd 5452 cc3f dde6 03bd add9 d3bd
00000090: b8b8 f6bd 887b 02be f3b0 47bd c901 d63f
000000a0: afb5 263f b119 0f3d e076 e13f f879 363f
000000b0: 8dc5 b2bd 426c 2b3f c01d d0bd 54e0 0a3f
000000c0: beae 09be a136 08be 8d97 dabc f927 f9bc
000000d0: 4b40 fbbd 93dc 613f 0ea9 1ebe a0f5 01be
000000e0: ae48 3e3d 18ef f03e 52d6 d53c 402a 12be
000000f0: b208 ddbd 5f6d c2bd c2fd d83f fa19 2e3f
00000100: cd6d 86bd 9a34 3a3f 303c 233f d99b 463f
00000110: 5235 233f 3e4b f93f 1cac f8bd 236d a2bd
00000120: 6348 b63a ea81 0e3f efce ea3c ae71 7c3e
00000130: 978b f03f 24e0 fe3e 912a 993f dbb4 72bd
00000140: c237 14be ee47 8bbd 1aa7 cfbd 6d2c 37be
00000150: 049c 053f 81cc ecbd 6d15 d0bd 6d9b f7bd
00000160: 9a43 ae3f 9ba8 e03f ebe0 04be bc4a 2bbd
00000170: 390c 07be c18c acbc c696 aa3b 3237 15be
00000180: 7804 54bd a0f8 483f effd 8f3e b69d 453f
00000190: 98de d33f bd36 163f 9dd8 2f3f c765 3f3d
000001a0: 7489 c1bd 4d1e bbbd fc70 d33f 3924 a2bd
000001b0: fd8a 883c 9cfb 4839 0e02 09be 460a 00be
000001c0: 7444 c3bc 7395 c8bd 6e17 88bd 3616 96bd
000001d0: 595f ecbd 9b82 f63f 560a 81bd a31d 32bd
000001e0: 63f0 8cbc 74dc f5bd d07b 9e3f 5e92 033f
000001f0: dc97 f2bd 5848 c93e 29c8 c53f 1b57 363f

net.4.weight f4 [13, 128]
0.44792 0.029865025 -0.039772473 -0.08217447 -0.043466855 -0.006034152 2.539086 0.08711652
3.1962376 0.022657236 0.66300046 -0.0294892 1.9902139 0.054059874 -0.034575853 2.5160685
-0.006124826 0.7040163 0.11147826 1.463854 1.0312386 -0.04894425 -0.0043167775 1.9205177
-0.055578068 2.8115847 -0.052976247 -0.015729263 -0.050159413 0.67290837 1.9601382 -0.039386746
0.02359236 0.68863386 -0.02291967 -0.072973706 0.051960178 0.060441222 0.036522444 0.49411798
1.5616145 -0.03948866 0.569182 3.0941217 0.004252516 1.6531037 -0.05531478 1.8883888
-0.003923901 0.057398874 -0.03978872 -0.057274923 -0.0032875778 2.0612788 -0.035894398 -0.049273625
0.011293851 1.6786065 0.09443396 -0.07653165 0.06936768 -0.031436164 0.65345216 1.3556676
-0.007024226 1.4879626 2.7934299 1.8096596 2.7264345 0.792018 -0.04010402 0.045037802
0.053138964 1.9736146 -0.07501428 2.9644628 0.49416834 2.888119 0.8673941 0.006020136
0.24374948 0.0018084443 0.0368958 0.028025918 2.2200959 0.03223969 0.27661762 -0.0361665
0.85249543 0.647664 0.047940318 -0.06924202 -0.09660238 0.008694988 0.032499753 0.07556341
-0.010977581 1.5161923 2.3991954 3.4677489 0.526415 3.8346071 2.199577 0.04958243
-0.067142546 0.016079236 0.47439328 -0.007728381 -0.023926724 -0.064695 -0.06342222 -0.0027116386
-0.028950494 0.08794571 -0.10975033 0.030821612 -0.010707708 0.71557647 -0.025169024 0.060550716
-0.10280067 0.025813712 0.9592483 3.480583 -0.027797397 2.8037298 0.4980988 1.5438836
-0.458975 -0.009855065 -0.0671489 -0.012571624 -0.021529622 -0.060239423 3.08228 -0.034601092
3.6355827 0.055317085 0.583849 -0.11492671 1.858716 -0.013959795 0.055299934 2.3303757
-0.048523154 0.53964984 -0.0481854 0.885677 1.0974209 -0.004959874 0.021407159 1.9239737
0.0027019097 2.8615713 0.031138562 0.057893958 0.058338713 0.59278363 1.9755188 -0.011531622
0.01819541 0.44918817 0.044661902 0.057500042 -0.056539237 0.018794872 0.020948792 0.46200153
1.6785301 -0.028072493 0.6706377 3.3262374 -0.053240128 2.4531705 -0.05060808 2.3689077
-0.018673064 -0.032739684 -0.04032306 0.036162805 -0.037037574 1.772768 -0.034759138 0.013090032
0.0037408397 1.7943004 0.028976802 0.053224117 -0.016437279 -0.013589315 0.59463066 1.4518896
0.050593954 1.1253545 2.616794 2.1187382 2.8789175 0.69691634 0.01812865 -0.09079552
-0.041852437 2.2755446 0.012556158 3.2613263 0.6525287 2.5740266 1.2189965 0.014614664
-0.19877844 0.024316026 0.041590516 0.021268368 2.385385 -0.021852322 0.13814013 0.004622118
0.8403268 0.6276729 0.032328732 -0.029001134 -0.019386675 -0.03934594 -0.08974078 0.06460916
0.07449355 1.4786729 2.1945472 3.3731034 0.6469402 3.2863748 2.286021 0.017134806
0.10427392 -0.10780924 0.5952482 -0.066864 -0.04599958 0.067461275 0.32956567 0.2798533
0.031997863 -0.055733155 0.08002757 0.025094626 -0.07873734 0.8077363 0.05844876 -0.03116107
-0.019433202 -0.038933378 0.76562995 3.1362152 0.04251407 2.6001537 0.6738885 1.691122
00000000: c555 e53e 7fa7 f43c 76e8 22bd 174b a8bd
00000010: 4d0a 32bd 23ba c5bb 6380 2240 256a b23d
00000020: 288f 4c40 ab9b b93c 66ba 293f 5693 f1bc
00000030: 54bf fe3f e36d 5d3d 699f 0dbd 4407 2140
00000040: c4b2 c8bb 6a3a 343f b74e e43d 915f bb3f
00000050: a0ff 833f c479 48bd c173 8dbb 86d3 f53f
00000060: d4a5 63bd 01f1 3340 9ffd 58bd a8da 80bc
00000070: f573 4dbd b943 2c3f cfe5 fa3f ff53 21bd
00000080: c444 c13c 4f4a 303f 08c2 bbbc 3d73 95bd
00000090: 32d4 543d 3791 773d 8f98 153d 08fd fc3e
000000a0: fce2 c73f dcbe 21bd e9b5 113f 1706 4640
000000b0: b158 8b3b e798 d33f c091 62bd b9b6 f13f
000000c0: 1194 80bb 151b 6b3d 7ff9 22bd 1c99 6abd
000000d0: 6774 57bb feeb 0340 0106 13bd 24d3 49bd
000000e0: d809 393c 94dc d63f 9866 c13d a0bc 9cbd
000000f0: a410 8e3d 35c3 00bd a448 273f 8486 ad3f
00000100: 7a2b e6bb 8f75 be3f 8ec7 3240 eda2 e73f
00000110: e77d 2e40 b1c1 4a3f 1d44 24bd 8f79 383d
00000120: 3ea8 593d 679f fc3f 16a1 99bd c2b9 3d40
00000130: a203 fd3e f1d6 3840 8a0d 5e3f 9044 c53b
00000140: 7799 793e 5209 ed3a 0d20 173d 9c96 e53c
00000150: 0d16 0e40 c40d 043d d3a0 8d3e 5323 14bd
00000160: 243d 5a3f 4fcd 253f 115d 443d c3ce 8dbd
00000170: 78d7 c5bd 6c75 0e3c 761e 053d fdc0 9a3d
00000180: 50db 33bc 9712 c23f 6b8c 1940 99ef 5d40
00000190: 22c3 063f 346a 7540 dfc5 0c40 f216 4b3d
000001a0: 0882 89bd 9ab8 833c ade3 f23e 5c3e fdbb
000001b0: fa01 c4bc d07e 84bd 82e3 81bd bfb5 31bb
000001c0: 9629 edbc e11c b43d c8c4 e0bd 9b7d fc3c
000001d0: 626f 2fbc 0530 373f 452f cebc 0704 783d
000001e0: 2889 d2bd 4777 d33c 4c91 753f dfc1 5e40
000001f0: 5eb7 e3bc 4f70 3340 ce06 ff3e fa9d c53f
00000200: c5fe eabe 2377 21bc 5d85 89bd 36f9 4dbc
00000210: e45e b0bc 9dbd 76bd 1344 4540 e0b9 0dbd
00000220: 63ad 6840 2b94 623d 2177 153f b25e ebbd
00000230: 68ea ed3f a0b7 64bc 2f82 623d e024 1540
00000240: 37c0 46bd 7e26 0a3f 0e5e 45bd babb 623f
00000250: 4a78 8c3f 7086 a2bb 115e af3c c544 f63f
00000260: 8612 313b fc23 3740 4c16 ff3c 3722 6d3d
00000270: 93f4 6e3d abc0 173f cddd fc3f 21ef 3cbc
00000280: 8a0e 953c fefb e53e 66ef 363d 2a85 6b3d
00000290: b095 67bd b4f7 993c cd9c ab3c 778b ec3e
000002a0: 13da d63f 49f8 e5bc eaae 2b3f 13e1 5440
000002b0: 5212 5abd bf00 1d40 6b4a 4fbd 2f9c 1740
000002c0: 41f8 98bc 0c1a 06bd cb29 25bd 731f 143d
000002d0: b6b4 17bd 10ea e23f 995f 0ebd 9377 563c
000002e0: e028 753b a3ab e53f c260 ed3c 8801 5a3d
000002f0: 79a7 86bc b8a5 5ebc b739 183f 85d7 b93f
00000300: 9b3b 4f3d 9e0b 903f 8e79 2740 6899 0740
00000310: 2f40 3840 1c69 323f 8982 943c 00f3 b9bd
00000320: 766d 2bbd 86a2 1140 58b8 4d3c 92b9 5040
00000330: 1f0c 273f dabc 2440 1408 9c3f 5872 6f3c
00000340: 938c 4bbe 6732 c73c d15a 2a3d 003b ae3c
00000350: 26aa 1840 a403 b3bc 9b74 0d3e 2375 973b
00000360: a81f 573f 2caf 203f 226b 043d c993 edbc
00000370: ced0 9ebc 3529 21bd 04ca b7bd cf51 843d
00000380: 1390 983d 2745 bd3f 7673 0c40 ede0 5740
00000390: df9d 253f f753 5240 2b4e 1240 4b5e 8c3c
000003a0: 918d d53d 17cb dcbd 3062 183f feef 88bd
000003b0: 0e6a 3cbd 2329 8a3d d5bc a83e ef48 8f3e
000003c0: 3110 033d 7348 64bd 7fe5 a33d 3f93 cd3c
000003d0: 0b41 a1bd cec7 4e3f f867 6f3d 8045 ffbc
000003e0: 6132 9fbc 9b78 1fbd 5300 443f c0b7 4840
000003f0: 3c23 2e3d eb68 2640 f583 2c3f b076 d83f

net.4.bias f4 [13]
1.0775094 1.4639115 1.0507253 1.0581198 0.826264 1.1764543 1.7160317 1.4799969
1.242599 0.9752558 0.913869 1.2890326 1.1092051
00000000: d4eb 893f 7461 bb3f 2b7e 863f 7870 873f
00000010: 0a86 533f 0e96 963f eda6 db3f 8a70 bd3f
00000020: 7c0d 9f3f 5daa 793f 52f3 693f 05ff a43f
00000030: 6ffa 8d3f
