checkpoints2/team2_agent_2.pt (torch, 411297 bytes, 24 tensors)

net.0.weight f4 [128, 53]
000000 53 50 c3 3d 59 d9 1d 3f 27 1f 82 be a5 62 a5 3e
       0.09536805 0.6165977 -0.25414392 0.32301822
000010 71 b3 9f 3e ac 6e f3 be 82 54 75 3f 90 82 63 bf
       0.3119159 -0.47545373 0.95832074 -0.888711
000020 36 30 b0 3f 29 3f 06 be c5 0c 1c be 1b 67 09 3f
       1.3764713 -0.13110031 -0.15239246 0.5367295
000030 63 8e dc 3d 03 da a8 3e 55 41 3a bf e5 cc 16 3f
       0.107693456 0.3297883 -0.7275594 0.58906394
000040 ae 9a 15 3f 1b 18 82 3e 29 3b 09 3f f1 08 02 bf
       0.5843915 0.25409016 0.53605896 -0.50794894
000050 37 1e 3f 3f e9 d7 81 bf 35 8b 83 3e 33 27 bf be
       0.7465548 -1.0144016 0.25692144 -0.37334594
000060 9d 96 6e be d6 11 b4 be ed aa c0 3e eb d6 24 bf
       -0.23299642 -0.35169858 0.37630406 -0.6439044
000070 35 ca 86 3e 25 d4 92 3e 40 4b 3c bd 87 e9 31 3f
       0.26326147 0.28677478 -0.0459702 0.6949696
000080 4c ec 9c 3d 71 87 99 3e fa 76 16 3e e7 f9 eb bc
       0.076622576 0.29986146 0.14693823 -0.028805686
000090 d3 0f 99 3e b2 85 df be ed 32 a6 be bd a6 ee 3d
       0.29894885 -0.4365669 -0.32460728 0.116528966
0000a0 75 8b 8a be cd 5a 9c 3e 99 85 82 be dd 15 d0 be
       -0.27059522 0.30538025 -0.25492552 -0.4064168
0000b0 1e be 0c 3e 2a de 88 be 43 0c 10 bf 0c a3 af 3f
       0.13744399 -0.26731998 -0.5626871 1.3721633
0000c0 64 32 07 3d d3 2a aa bd 3d d4 c2 3c 0a 8f 71 bd
       0.03300704 -0.08308949 0.023782844 -0.058974303
0000d0 86 36 fd 3d dc e3 21 3d c6 a1 e9 be a3 93 d3 be
       0.12363915 0.039523944 -0.45631236 -0.41323575
0000e0 6f 92 26 be 8b 6e f4 bd 7c 2b 62 3e b9 75 b9 3f
       -0.16266797 -0.11935147 0.220869 1.4489051
0000f0 65 ed ef 3c 48 f9 a3 3f 4c c4 84 3e 6a 2a d6 bf
       0.029288003 1.281045 0.25931013 -1.6731694
000100 cc c4 86 bf dd d1 94 3d 56 34 bc 3e 8c e0 83 3c
       -1.0528808 0.07266591 0.3675868 0.016098283
000110 33 e8 7e be 18 e3 85 3e ff 92 5c bf 0c 64 a3 be
       -0.24893264 0.2614982 -0.861618 -0.31912267
000120 77 84 08 c0 98 bb 34 be e3 02 c7 be b3 79 9d 3f
       -2.133085 -0.17649686 -0.3886939 1.2302765
000130 c8 0d 0d be 5f 8e e7 3e ac e2 5c 3e 35 fc 1a 3f
       -0.13774788 0.45225808 0.21570843 0.6054109
000140 26 ae b0 3f 1c cb 46 bf 2c b3 49 3f da 6e 1a be
       1.3803146 -0.7765367 0.7878902 -0.15081349
000150 b2 a5 bf bd 7b 61 c0 bf c3 a0 4d 3e 61 37 05 bf
       -0.09357776 -1.5029749 0.20080857 -0.52037627
000160 d5 49 5d ba 84 bd 21 40 11 30 6a bd 77 7e 3f 3f
       -0.0008441483 2.527192 -0.057174746 0.74802345
000170 71 d1 dc 3e 5e 36 0a c0 d5 9f c0 be 61 91 33 c0
       0.4312854 -2.1595683 -0.37621942 -2.8057482
000180 7d 65 e4 3e 66 d7 a3 bf 55 c4 ed 3f 96 64 4c 3e
       0.4460868 -1.2800109 1.8575541 0.19960245
000190 83 69 4d bf c3 9b c3 3e 9f 7b 11 be 37 9f 92 3e
       -0.80239123 0.38204774 -0.14207314 0.28637096
0001a0 3f 33 52 3e e8 d8 81 be 8f ce 57 be a3 4f 36 3f
       0.20527361 -0.253608 -0.2107489 0.71215266
0001b0 f9 ab 98 bf 86 66 e3 3d 76 82 ee 3e 09 f2 b7 bf
       -1.1927482 0.11103539 0.4658391 -1.4370738
0001c0 91 75 92 3f 49 f0 77 be 5d f7 74 3f 58 41 ea bd
       1.1442128 -0.24212755 0.95689946 -0.114382446
0001d0 39 b3 3a bf b4 de eb bd 90 de 85 bf 3d e7 0c bf
       -0.7292972 -0.115170866 -1.0458546 -0.5504034
0001e0 6f 8c 2a bf ed 02 b6 3e ef fc 8c 3d f8 4a 1b 3f
       -0.66620535 0.35549107 0.06884181 0.6066127
0001f0 03 26 48 bf 61 a5 e9 3e d5 44 d1 3f ff 76 e1 be
       -0.78183 0.45633987 1.6349131 -0.440361
000200 79 d2 b6 3f 27 4b 59 3e 89 8a d9 3d ed 47 22 3f
       1.4282981 0.21220075 0.106221266 0.63391
000210 ec 11 b9 3f 02 ef bb be cb e0 02 3f 10 9d 13 bd
       1.4458594 -0.36705786 0.51124257 -0.03603846
000220 20 da f8 be 2a 33 8a bf d2 77 df 3e a5 3b 37 bf
       -0.48603916 -1.0796864 0.43646103 -0.71575385
000230 50 d3 e8 3d 48 19 61 3f 3f 49 b4 3d 4e be 13 be
       0.1136843 0.879292 0.08803033 -0.14428064
000240 35 f6 34 bf dc ab 94 3e 3a a7 57 3e a5 e7 0f 3f
       -0.7068818 0.29037368 0.21059886 0.56212837
000250 90 03 0b 40 1a 6c e4 3e db 1f 6c 3f 19 5d e2 3e
       2.1720924 0.44613725 0.9223611 0.44211653
000260 ab 7e a6 be 44 54 21 3f be 2b 44 bf 87 17 11 3d
       -0.32518515 0.63019204 -0.76629245 0.035422828
000270 08 b6 3f bf 0d dc ca 3d 65 22 88 3e f3 4c 25 be
       -0.7488713 0.099052526 0.2658874 -0.16142635
000280 a9 77 8c bd f5 b4 dc bd ba 61 00 c0 ea 8f 96 be
       -0.06858761 -0.10776702 -2.0059648 -0.29406673
000290 ec 16 40 3f 48 29 f5 3d dd 86 d8 3f 89 07 aa 3e
       0.75034976 0.119707644 1.6916157 0.33208874
0002a0 5b e5 28 3f 97 66 89 3f c7 70 18 3f d6 a8 de be
       0.6597497 1.0734433 0.59547085 -0.43488187
0002b0 6c 13 be 3e 2e 1f cb 3e 34 fd 1f bf 71 08 cf 3c
       0.37124193 0.39672226 -0.6249573 0.02527258
0002c0 70 65 ad be f5 fa 11 bf 98 2f 2a bf 2c 60 9c bf
       -0.33866453 -0.57023555 -0.6647887 -1.2216849
0002d0 aa 3c e4 be 7f a2 5d be fe dc 25 bf dd c0 42 bf
       -0.44577533 -0.21644019 -0.6479033 -0.76075536
0002e0 2a 28 ba 3e 47 5e bf be a9 90 87 3e 41 c0 42 3f
       0.36358768 -0.37376615 0.26477554 0.76074606
0002f0 74 3d 1a 3e 4a c3 8d 3f d0 4f 11 3f c3 43 79 3f
       0.15062505 1.1075222 0.5676241 0.9736902
000300 9f ec 60 bd cb 58 0e c0 38 93 ac 3f 9a 6d df 3f
       -0.05491316 -2.2241695 1.3482428 1.7455323
000310 06 b6 b0 3f 5e 55 97 bf 32 db c9 3d 21 75 0b bf
       1.3805549 -1.1822927 0.09856261 -0.544756
000320 40 c7 b1 3e f7 39 3e bf fa 7d 15 3f 72 03 35 bf
       0.34722328 -0.743072 0.5839535 -0.7070838
000330 3f e2 5e 3f 31 38 15 3d 00 d4 60 be 5d 21 47 3e
       0.87063974 0.03643054 -0.21955872 0.19446321
000340 ea 9d 9f 3e 15 ea d2 3e 37 e0 35 be 46 88 83 bf
       0.31175166 0.41194215 -0.17761312 -1.0275962
000350 a8 3b 0b bf 2f 7c 1c 3e 35 b8 00 bf ce 31 64 3f
       -0.54387903 0.15281747 -0.5028108 0.89138496
000360 45 39 c8 3e 08 27 05 3e b1 35 bf 3e 91 67 0e 3f
       0.39106193 0.1300317 0.3734565 0.5562678
000370 6a fd 8b bf 48 5f f1 bd b3 2a 13 bf a5 7f 04 40
       -1.0936711 -0.117857516 -0.5748703 2.0702908
000380 c0 8f 46 be 02 1d f0 3d 03 db 6a 3f a4 80 34 3f
       -0.19390774 0.11724283 0.91740435 0.7050879
000390 5d 28 28 40 1b 89 82 3e 94 a0 b6 be 58 e3 1d c0
       2.6274636 0.25495228 -0.35669386 -2.467001
0003a0 6c 9c 1c bf f1 3b 89 bf 19 ab be bd 05 4a 28 c0
       -0.6117618 -1.0721418 -0.09309978 -2.6295178
0003b0 3a 25 6f bf 84 70 87 3f 71 9f 63 3e 28 17 b5 be
       -0.9341618 1.0581212 0.22228791 -0.3536923
0003c0 8a 03 99 3f 31 58 bd be 2a c1 3a 3f 27 7f a3 3f
       1.1954205 -0.36981347 0.72950995 1.2773179
0003d0 78 da 13 3e 8f 29 89 bf 26 50 3e be ca ba 70 3f
       0.14438808 -1.0715808 -0.18585262 0.9403502
0003e0 c5 ff 0b be 00 31 16 bf c7 07 55 bf f9 17 4c 3f
       -0.13671787 -0.5866852 -0.8321499 0.7972408
0003f0 ff 8d 0a bf 5d 4a b1 be 1f 15 11 be 8e c5 79 bf
       -0.5412292 -0.34627047 -0.14168213 -0.9756707

net.0.bias f4 [128]
000000 3a 45 34 3f fa 17 6f be ac 05 91 3e 56 8d 1d bc
       0.7041813 -0.2334899 0.2832464 -0.009616217
000010 bf 14 c0 3e 80 55 98 bd 2f 20 bb 3d 13 7e 19 3c
       0.37515828 -0.07438183 0.09136998 0.009368437
000020 ba 29 35 be 15 28 5e 3e d9 60 de 3e c0 3f 18 be
       -0.17691699 0.21694978 0.43433264 -0.14868069
000030 84 5c 6d be d3 51 11 be 05 b5 95 bd 56 6c 20 bd
       -0.23179823 -0.1419137 -0.07309917 -0.039165817
000040 11 6d c6 3e e5 d2 71 be 41 61 1f 3f ca ec 82 3f
       0.38755086 -0.23615606 0.6225777 1.0228512
000050 4b e0 f9 bd a4 ec 01 be b7 3e 98 be c8 86 e1 3d
       -0.122009836 -0.12687927 -0.29735348 0.110120356
000060 a8 32 d2 bd 5a b8 7f bd 94 6b 74 be e9 d1 c7 3e
       -0.10263568 -0.06243167 -0.23869163 0.39027336
000070 05 28 52 3e 46 81 77 be fa 86 b1 3b 60 25 90 3c
       0.20523079 -0.24170408 0.005417702 0.017595947
000080 91 75 2b 3c e9 92 63 3f f3 16 a4 be a1 96 0d be
       0.010465042 0.8889604 -0.3204876 -0.13826992
000090 23 04 23 be 84 1f 35 be 64 1f e1 bc d0 08 18 3f
       -0.15919547 -0.17687804 -0.027480789 0.59388447
0000a0 ba 54 9b 3e f1 f2 83 3c 93 0a a7 3e d7 eb 57 3f
       0.3033808 0.016107054 0.32625255 0.8434424
0000b0 0c 07 78 3e dc 60 c1 3c 95 31 b7 bd 3c ae 4f be
       0.24221438 0.023605756 -0.08945004 -0.20281309
0000c0 ab 68 44 be ef 3f 02 3e d7 62 d4 be 12 35 94 3e
       -0.19180553 0.12719701 -0.4148166 0.2894674
0000d0 36 6e 52 be 35 59 18 3d f6 54 18 3f aa 07 e1 be
       -0.20549855 0.03719445 0.5950464 -0.4395116
0000e0 da 44 b0 3e 43 48 e5 3d 3d a9 05 3d 82 71 8b 3d
       0.3442753 0.111954235 0.0326321 0.06808759
0000f0 dd ce 83 3e d6 e7 07 3f 2d 13 a9 3e 4b 27 61 3f
       0.25743762 0.5308813 0.33022442 0.8795058
000100 9f 70 bd 3e e0 26 0a 3e 06 9e 09 3f 4a b2 fb bb
       0.36999986 0.13491392 0.5375675 -0.007681166
000110 29 8f f0 3d d1 a7 69 be 8f 27 b6 bd 23 fc d7 3d
       0.11746056 -0.22817923 -0.08894264 0.10546138
000120 5f 94 ce 3c 4e 62 10 3f a4 af fe 3b 50 ed 1c be
       0.025217233 0.564 0.007772403 -0.15324903
000130 47 c9 dc be c2 41 92 bd 42 6a bd be 9e 9d e4 bd
       -0.43122312 -0.071414486 -0.3699513 -0.111628756
000140 a1 d7 3c 3f 63 d5 05 3f 08 48 2e 3b 76 0f 42 3f
       0.73766524 0.5227873 0.0026593227 0.7580484
000150 70 24 23 be 5d c0 00 3e 14 8f e3 3e 70 76 89 3e
       -0.15931869 0.12573381 0.44445097 0.26848173
000160 54 a5 3f 3f 90 ca 80 3f 9f 9d 53 3e 22 fb 78 3e
       0.74861646 1.0061817 0.20665596 0.2431455
000170 ca cf 8f 3e 2f ae f2 bc 39 77 30 be 4c a3 14 3e
       0.28088218 -0.029624073 -0.1723298 0.14515418
000180 ea 62 30 be 6b a0 2d 3e 90 cc c5 3e f2 68 3a bd
       -0.17225233 0.16955726 0.3863263 -0.04551024
000190 f7 08 0d bd 6b f2 e2 be 18 d6 80 3e 6e e0 58 be
       -0.034432378 -0.44325575 0.2516334 -0.21179363
0001a0 47 73 4a 3f 99 5c ec bb ad 6a 04 3e 94 2a c7 be
       0.7908215 -0.007213187 0.12931319 -0.38899672
0001b0 e0 7d 12 3f e3 26 03 3f 03 45 2b be ff f2 2e be
       0.5722332 0.5123121 -0.16725545 -0.17084883
0001c0 9e 1b c7 3e a1 52 1a be c0 75 d3 3b e6 1f 84 3d
       0.38888258 -0.15070583 0.006453246 0.06451397
0001d0 63 80 60 3e c1 b1 cb bd 89 80 b3 3c 42 b1 c2 3e
       0.21923976 -0.09946013 0.021911876 0.38025862
0001e0 dd c0 8f be 08 da 3b bd 4b 40 29 be 1f ab d3 bd
       -0.2807683 -0.045862228 -0.16528432 -0.10335373
0001f0 93 f4 8c 3e b7 f2 57 3f 51 40 b3 bd 41 21 71 be
       0.27530345 0.8435473 -0.08752502 -0.23547842

net.2.weight f4 [128, 128]
000000 bc 95 92 bd 9e 56 99 bd f0 b1 6c 3c 30 29 8c bb
       -0.07157466 -0.07487224 0.0144467205 -0.004277371
000010 28 c6 04 bc ac e2 5f 3d 30 ff fa bc 78 be 5f 3d
       -0.008103885 0.05465953 -0.030639261 0.054625005
000020 41 6b 60 bd a7 a1 80 bd c3 40 4f bd 11 65 4f 3d
       -0.054789785 -0.06280833 -0.05059887 0.050633494
000030 bd d4 aa 3d e0 6e 07 be 88 7d 1a bd af 49 37 bd
       0.08341358 -0.13225889 -0.037717372 -0.044748005
000040 fa c1 c5 bd 1f 8e 90 bd d8 00 a7 bb 1b 5f e4 bd
       -0.09656139 -0.070583574 -0.005096536 -0.111509524
000050 ed 0e 2f bd cd 78 99 3d 0b 90 b5 bc f8 57 23 3b
       -0.042738844 0.07493744 -0.022163412 0.002492426
000060 a0 35 bf 3b 0b d5 9c 3d af fe e4 3b 7a 0e 8a bd
       0.00583525 0.07657822 0.0069883685 -0.067410424
000070 67 8a 6b 3b 01 d8 1d bc f0 8b 84 bc 64 1d 4b bc
       0.0035940649 -0.009634019 -0.016180009 -0.012397144
000080 59 85 a2 bd 6a 12 dd bc 90 f4 38 3d ae 07 52 3d
       -0.0793559 -0.02698632 0.045155108 0.051276855
000090 ad 2c 93 3c 38 de cb 3c fd 07 bc bd 1c 44 0a bd
       0.017965639 0.024886236 -0.09181211 -0.03375636
0000a0 04 4f b5 3c 51 b6 01 3c eb c1 cc bc 11 81 c8 bd
       0.022132404 0.007917003 -0.024994811 -0.097902425
0000b0 18 49 ac bd 2b e7 15 bd 47 2f a1 bd 05 5b ca bd
       -0.08412379 -0.036597412 -0.078703456 -0.09880642
0000c0 04 5d fe bc f6 d4 9e bd 5b f6 e1 bd e5 f3 d5 bd
       -0.031050213 -0.07755463 -0.11033317 -0.1044691
0000d0 20 3f 7f 3c 02 13 43 bd 35 ae fa 3b 02 0d 8f bd
       0.015579015 -0.04762555 0.0076501616 -0.06984903
0000e0 ce 39 71 bd b6 8b da bd 5f 0b 41 3d fb 40 b2 bd
       -0.058893017 -0.10671179 0.047129985 -0.087038
0000f0 d7 d2 e2 bc 0c 8e a2 bc c0 da dc bd 75 b8 bb bc
       -0.027688427 -0.019843124 -0.10783911 -0.022915104
000100 ba 07 a0 bd 94 d7 92 bd c9 c3 9b bd 8f 1d 97 39
       -0.07813974 -0.071700245 -0.076057024 0.00028822987
000110 05 fe 34 3c 2c 6d e4 bd 48 91 50 3d 02 dd b3 bd
       0.011046891 -0.111536354 0.0509198 -0.08782388
000120 c9 fb c8 bd 42 dd ec ba 35 80 57 3d ba 73 ac bd
       -0.09813649 -0.0018071311 0.052612502 -0.084205106
000130 b9 0b 81 3c bb 9e 0e bd f0 5f aa 3b 50 30 d1 bb
       0.01575266 -0.034819346 0.005199425 -0.006383933
000140 35 29 35 bd 4c e9 1f 3c 99 cd 14 3c 49 8f a7 bd
       -0.04422875 0.009760212 0.009082221 -0.08181626
000150 07 0f 22 bd e9 34 1c bd 90 7a 98 3d 58 96 14 bc
       -0.039565112 -0.038136397 0.07445252 -0.009069048
000160 b9 65 87 bd 3d 77 e3 bd 5d 8a f5 bd 10 02 00 be
       -0.06611199 -0.11106727 -0.11989281 -0.12500787
000170 d7 69 9c bb 00 df bb bc e7 29 b1 3d 46 ef 17 3d
       -0.0047733593 -0.022933483 0.0865057 0.037093423
000180 ee 39 5d bd 64 a5 4e bd fe 55 cc bd 9f 4c 1c bc
       -0.054010324 -0.050450698 -0.09977339 -0.009539752
000190 fb 90 1f 3d 8f 94 4c bd 88 a4 61 3d 00 cb 0a 3d
       0.038956624 -0.049946364 0.05508855 0.033885002
0001a0 27 87 b0 bd b2 ee b2 3c ca d3 3b bd 84 64 27 3d
       -0.08619528 0.021842334 -0.045856275 0.040867344
0001b0 cb bb 54 bd fa 45 c7 bb 64 8c 2f bd 66 41 79 3d
       -0.051936906 -0.00608134 -0.042858496 0.060853384
0001c0 3a 32 e2 bd e5 f3 84 bd 10 3a 4c 3d da af 0d 3d
       -0.11044736 -0.06491832 0.04986006 0.034591533
0001d0 ab 36 43 bd 65 17 25 bd fe d9 24 bd 0f 01 61 bd
       -0.047659557 -0.040305514 -0.040246956 -0.05493265
0001e0 f3 d7 30 bd 4f 5e 3b bd 25 b7 80 3b d0 08 65 3d
       -0.043174695 -0.045744237 0.0039280825 0.055916607
0001f0 ed 49 32 bd 8f 5a 9a bd 6c 1f 47 3b 7e 15 2e 3d
       -0.043527532 -0.07536804 0.003038372 0.042500965
000200 18 7d 83 3f 94 9a 93 bf 4d c3 11 3d 1d 9c 13 bf
       1.027255 -1.1531549 0.035586644 -0.57660085
000210 dd 34 20 3f ab e2 ff bd bd 88 00 3f 68 8b f6 be
       0.6258066 -0.12494405 0.50208646 -0.48153234
000220 0b 77 94 bd 4a 73 04 c0 a2 19 eb 3e dc 3c 29 bf
       -0.07249268 -2.0695367 0.45917994 -0.6610849
000230 4c 3f 86 3d aa 5e 0d 3f 68 ff 19 3f 44 f1 39 bd
       0.06555042 0.5522257 0.60155344 -0.045396104
000240 e5 df 14 3b 27 3e 14 bf d9 f9 7f 3f 1f 6f cd 3f
       0.002271646 -0.57907337 0.9999061 1.6049536
000250 82 0a 01 3d b0 4c 5e bd 8b b9 52 c0 92 23 e0 3f
       0.03150416 -0.054272354 -3.2925746 1.7510855
000260 33 b2 cd 3f 92 36 55 be b2 c4 64 3f f3 93 c3 3f
       1.6070007 -0.20821598 0.89362633 1.5279526
000270 66 4d 06 3f 40 4c 6b bd 22 ed 75 bf f4 c0 95 3f
       0.5246185 -0.057445765 -0.9606496 1.169951
000280 67 74 58 3e 23 e7 8e 3f a0 a2 86 bf 24 96 46 bd
       0.21138154 1.1164287 -1.0518379 -0.04848303
000290 d3 f7 81 be 6b 7d b4 bd 59 8e 87 bf 3c aa 49 3f
       -0.25384387 -0.08812984 -1.0590316 0.7877538
0002a0 43 84 cd 3f 18 21 35 bf da 8d 27 3f d3 d6 7d 3f
       1.6055988 -0.7075362 0.65450823 0.9915592
0002b0 c6 84 96 3e ae 72 f6 3f 7b 35 5d bb 2a 83 03 3f
       0.29398173 1.9253747 -0.00337538 0.51372015
0002c0 48 7a 68 bf be 37 52 3f ca f4 bf 3e 38 30 86 3e
       -0.90811586 0.82116306 0.37491447 0.26208663
0002d0 4b ef ba 3f d6 5d 7b 3e 5c 06 fe 3d 09 38 88 bf
       1.4604276 0.24547514 0.12403557 -1.06421
0002e0 c0 0e 3e bd b7 ee 77 3f 1a 20 88 be 68 32 f5 be
       -0.046400785 0.96848625 -0.26586992 -0.4789002
0002f0 dd 49 5b 3f 27 b9 1e 3e 79 0a 96 3e 9d 3f 9d 3f
       0.8565958 0.15500318 0.29304865 1.2285038
000300 76 d2 2f 3f ca 28 33 3d 25 94 24 3f 71 35 0f 3f
       0.6868051 0.04374007 0.6428855 0.5594092
000310 7e 25 a3 3d 40 2e 8a bf 2e 63 79 3f 88 70 38 3f
       0.079661354 -1.0795364 0.9741696 0.7204671
000320 58 41 fc be 4d 98 5e 3f c4 8d 9a 3e 2b 38 64 3b
       -0.49268603 0.8695114 0.30186284 0.0034823518
000330 95 12 66 bf e9 55 98 bf 08 48 0d 3f a2 b8 b8 3d
       -0.89872104 -1.1901218 0.55188036 0.09019591
000340 1e de 81 3f 1f 26 35 3f d6 3d 53 3f 14 54 a2 3f
       1.014591 0.70761293 0.8251623 1.2681909
000350 23 12 83 bd 9c b1 e2 3e 81 df cf 3e e8 38 b2 3f
       -0.06399944 0.4427613 0.40600207 1.3923616
000360 b1 93 90 3f e3 02 00 40 22 15 9c be 27 7a d8 3e
       1.1295072 2.0001762 -0.30484873 0.42280695
000370 97 6e b0 be 1b cd c5 3d 0e fe 97 bd d1 9b 22 3e
       -0.34459373 0.096582614 -0.07421504 0.15879752
000380 ce ef 75 3f 9e 66 5e 3e 46 08 f4 3e cc 9d 2e bf
       0.9606904 0.21718833 0.47662562 -0.6820953
000390 6f dc 81 3f 2a 2d 5d bf e2 24 f5 3e a2 52 1c 3d
       1.0145396 -0.8639704 0.47879702 0.038164742
0003a0 8d 86 8e 3f 67 e5 61 3f d4 bb 7d 3f 8b 52 f0 bf
       1.1134812 0.88240665 0.9911473 -1.877519
0003b0 cb 63 5d 3f 06 13 09 3e 24 20 ed 3e 6f 3d 7a bb
       0.86480397 0.13386163 0.46313584 -0.003818359
0003c0 a6 2c 4b 3f a5 eb fb bc ca 5b 3a 3f 63 76 83 bf
       0.79365003 -0.030752013 0.7279631 -1.0270504
0003d0 c4 cd f4 3e 0b 22 a7 be 94 89 30 3f 2d 7c 87 3e
       0.47813237 -0.3264316 0.6895993 0.26461926
0003e0 a0 40 e7 3a c0 6e 34 bf 12 e0 6a bf 65 b4 e1 bf
       0.0017643161 -0.7048149 -0.91748154 -1.7633177
0003f0 d4 7f 8a 3d 29 ff bb 3f d8 bd 74 be 6a c3 b3 3e
       0.067626625 1.4687244 -0.23900545 0.35110027

net.2.bias f4 [128]
000000 50 27 c4 bd ef f0 07 40 c6 27 88 3f 9a 19 a6 bd
       -0.09577811 2.1240804 1.0637138 -0.08110352
000010 6c e7 14 3d eb 99 3b 3f 1d 6f c9 3a 92 b7 a2 bd
       0.036353514 0.73281735 0.0015368197 -0.079451695
000020 2d 8a dc bd 51 f6 d3 3e a5 ff 0b 3f 4f 16 aa 3f
       -0.107685424 0.41398862 0.5468696 1.3288058
000030 d1 cd 94 bd cb e5 ba be 0a 2b d4 bd 16 1f d3 3f
       -0.07265819 -0.36503443 -0.103597715 1.6493862
000040 6b 77 31 3f 1d 72 6b bc 39 2e f5 bd 25 77 63 3f
       0.6932284 -0.014370468 -0.11971707 0.88853675
000050 d2 63 8f 3d 2f e9 58 3f 1f 96 9e 3c 9d 04 53 3f
       0.07001461 0.8473081 0.019358693 0.82428914
000060 8e a7 de bd 19 3b a4 bd e0 a2 39 3f 29 ab 73 bd
       -0.10871802 -0.080190845 0.7251415 -0.059489403
000070 e1 ae bb bd 8c b7 97 3f 05 99 5c 3f d6 60 72 bc
       -0.09164215 1.1852889 0.8617099 -0.014793595
000080 14 53 8b 3f b0 35 5c 3f 5c 75 27 3f 23 54 4c 3f
       1.0884728 0.8601942 0.6541345 0.7981588
000090 bd 0a 06 bd 37 e8 4e 3f 7b 7a 3b 3f 8b 3f 93 bd
       -0.032725085 0.8082308 0.73233765 -0.07189854
0000a0 29 e8 4e 3f a9 25 36 bd d0 20 82 3f 62 04 b5 bd
       0.80823 -0.04446951 1.0166264 -0.088387266
0000b0 e6 87 5f 3f 26 b1 38 3f 69 84 d9 3e 0f 15 81 3f
       0.8731674 0.7214531 0.42483833 1.0084552
0000c0 cd 0b 9b bd 19 ee 14 3f 81 de be bd a9 77 5a bd
       -0.0757061 0.5817581 -0.09319783 -0.053336773
0000d0 ad cc 5b 3f 4f 88 75 3f 73 b0 ef bc c2 d8 ce 3e
       0.85859185 0.95911115 -0.029258942 0.40399748
0000e0 6b 3d ac bd 42 7f 69 bd ba f2 ef bd 8b 38 03 40
       -0.08410152 -0.057006128 -0.11716218 2.050326
0000f0 ee ed 0a 3d b4 b5 40 bd 12 bf b7 bd 12 7c 0b be
       0.033918314 -0.047048286 -0.08971991 -0.13621548
000100 3d f4 83 3f ae 53 fd bd 10 b3 9b bd 9f db fe 3f
       1.0308911 -0.12369476 -0.07602513 1.9910773
000110 b3 41 de bd 0e 15 05 bd 0e e3 3e 3f a2 c6 b8 bd
       -0.10852375 -0.032490782 0.7456521 -0.09022261
000120 4d d3 33 3f 01 55 5f 3f 73 66 bc bd fe 99 4c 3f
       0.70244294 0.8723908 -0.09199228 0.79922473
000130 b7 60 41 bd ac 50 da bc 32 6d 7a bd f2 7f c7 bb
       -0.047211375 -0.026649795 -0.061139293 -0.0060882503
000140 a3 d5 a3 bd ab 96 e4 bd 73 eb 60 3f e5 14 8f 3f
       -0.07999732 -0.1116155 0.87859267 1.1178252
000150 4f d3 82 3f 4e 0d e6 bd 91 34 c6 bd 1d 7c 8d 3f
       1.0220736 -0.112330064 -0.09677995 1.1053501
000160 2c e3 b6 3d c0 36 59 be 57 3a d9 bd 80 72 82 3f
       0.08930048 -0.21212292 -0.106068306 1.0191193
000170 bc 13 a3 bd 65 8d 0e be 07 2d 36 3c 98 b9 01 bd
       -0.079627484 -0.13921125 0.011119134 -0.031671137
000180 8f 4a 6a 3f 04 48 6c 3f 4f 87 31 3f 93 9d 19 be
       0.9152002 0.9229739 0.6934709 -0.15001516
000190 ce b4 d4 bc ab 8e 18 be 47 c5 75 3f 64 04 8f bd
       -0.02596512 -0.14898174 0.96004146 -0.06983259
0001a0 85 61 6b 3f 72 53 6e 3f e1 e6 77 3f 4c 7f e0 bd
       0.9194568 0.9309608 0.9683667 -0.1096178
0001b0 4b 8b 0e bd 0f 25 a6 3e 65 d2 7e 3f 88 a7 35 3f
       -0.03480081 0.32450148 0.99539787 0.7095876
0001c0 c1 72 a8 bd 00 10 b9 bd 59 c6 4d 3f 43 34 08 be
       -0.082250126 -0.09036255 0.8038078 -0.13301186
0001d0 32 3f 27 3f 5e 4f 8c 3c 25 b0 a5 3f eb 11 82 3f
       0.65330803 0.017127689 1.294438 1.0161718
0001e0 fb 5f 31 3f 30 6a c9 bd de 68 49 3c 5c 9d 5e 3f
       0.6928708 -0.09834707 0.012293069 0.8695886
0001f0 10 8c 02 3e 4b f2 43 3f 6d c5 d1 3f 5a 1a 7f bd
       0.12748742 0.76541585 1.6388375 -0.06228099

net.4.weight f4 [13, 128]
000000 3c 79 99 bd 81 de 87 3f 38 bf 30 3f 2d d9 c5 3e
       -0.07493827 1.0614778 0.69041777 0.38642254
000010 08 0c d6 3f 33 fe dc 3f 02 1d b9 3c 15 f4 89 bd
       1.6722422 1.7265075 0.02259684 -0.06736008
000020 99 21 42 bd c2 9c ce 3f b9 8c 07 40 a7 1a 29 3f
       -0.047395322 1.6141589 2.117964 0.66056293
000030 47 88 0c 3d b8 28 8d bf 92 aa 7e 3d 85 66 7d 3f
       0.03430965 -1.1028051 0.062174387 0.9898456
000040 b4 17 2e 40 98 fd 5b 3c c6 f5 d2 3c 9f 50 83 3f
       2.7201967 0.013427161 0.02575196 1.0258979
000050 5e 9c 0f 40 36 cc 1e 40 a0 76 6b 3f 1c 9b da 3f
       2.243919 2.481214 0.9197788 1.7078586
000060 31 d7 e1 3c 01 56 d2 bc 4e 04 b3 3f e9 f6 53 3d
       0.027568432 -0.025675775 1.3985689 0.051749144
000070 04 57 af bc c7 a2 13 40 c1 79 96 3f 68 aa 04 3f
       -0.021403797 2.3068101 1.1755906 0.5182252
000080 52 fc e1 3f d4 49 1e 40 c3 41 e3 3f 61 ee 4e 40
       1.7655127 2.473256 1.7754444 3.2332995
000090 6d c9 31 bd e0 c3 06 40 b4 55 45 40 bc 24 99 3c
       -0.043404985 2.1057053 3.083356 0.018694274
0000a0 e7 13 ce 3f 70 ae 8f bb 15 f5 0a 40 23 1f 7b 3d
       1.6099824 -0.0043848082 2.1712086 0.06130899
0000b0 c4 35 0f 40 b3 b8 1d 40 85 5a 34 40 a8 bb 3c 3f
       2.2376566 2.4643981 2.8180249 0.7372384
0000c0 e3 bf 5b 3d 24 b8 2a 40 f2 d4 6c bd 34 36 f0 bc
       0.053649794 2.667489 -0.057820268 -0.029322721
0000d0 78 87 d1 3f e0 62 bc 3f d2 6f c5 3d 8e 70 5e 40
       1.6369467 1.4717674 0.09640469 3.4756198
0000e0 b3 c0 95 bd 38 ca 2a 3d 88 73 85 3f 78 6b 9a 3f
       -0.07312145 0.041696757 1.0425882 1.2064047
0000f0 80 1d 99 bd 97 62 91 bd b2 f5 b1 bd 22 ab 46 3d
       -0.0747633 -0.07098883 -0.08689441 0.04850305
000100 9e a9 96 3f 58 68 5c bc 85 ce 92 bd f4 97 93 3f
       1.1770513 -0.013452612 -0.07168297 1.1530747
000110 e3 e1 4a bd 29 a1 7c 3b a0 e3 02 40 54 6c 18 bb
       -0.04953183 0.0038548207 2.0451431 -0.0023257928
000120 76 bd 13 40 a8 32 04 40 a5 87 ab 3d a2 09 14 40
       2.3084388 2.0655918 0.083754815 2.313088
000130 6f a2 74 3d 99 b7 34 bd 98 27 a3 3d 0d 10 ee bb
       0.05972522 -0.044120405 0.07966536 -0.007265097
000140 7d 12 55 3f a0 7e 2a bc f6 4e ca 3f 2d ab 88 3f
       0.83231336 -0.010406166 1.5805347 1.0677239
000150 fb d7 5e 3f 90 ca c2 3e e7 db 9a 3d 76 51 ef 3f
       0.8704831 0.38045168 0.07561474 1.8696735
000160 f7 d0 f4 bf 00 2b 19 3e bb 49 80 3d a3 d4 07 40
       -1.9126271 0.1495781 0.06264063 2.1223533
000170 b4 69 c6 3a 86 f6 20 3d 29 cd 1b bd 4a e7 98 3d
       0.0015137703 0.039297603 -0.038037453 0.0746599
000180 c9 a2 5c 40 6a 4a fa 3f db cf f5 3f 9b 90 e6 bc
       3.4474356 1.9553959 1.9204057 -0.028145125
000190 5b cd 01 be bd a9 00 be 05 3b 12 40 7c ec 04 bb
       -0.12675993 -0.1256475 2.2848523 -0.0020282557
0001a0 ff 06 50 40 6d 3e d1 3f f0 24 d0 3f 03 00 85 bc
       3.250427 1.6347176 1.6261272 -0.016235357
0001b0 1f 3f b2 3c 83 af b2 3f 11 b5 ae 3f e8 f1 34 40
       0.021758614 1.3959812 1.3649007 2.8272648
0001c0 55 08 a8 bc f8 f1 cb 3f c0 cd ab 3f e0 4f 2e bb
       -0.020511786 1.5933218 1.3422165 -0.0026597902
0001d0 47 f4 00 40 62 82 ba 3d 4a 02 32 3f 86 a4 22 3f
       2.0149095 0.091069 0.6953474 0.6353229
0001e0 9b 9a 01 40 76 a9 ae bd a7 ad 67 bd a3 76 d2 3f
       2.0250614 -0.08528416 -0.056562092 1.6442455
0001f0 88 44 26 40 ea 6c d6 3f 41 6b 0f 3f a8 28 0a bd
       2.5979328 1.6751988 0.5602303 -0.03373018
000200 57 c7 39 bd 2d 60 93 3f 74 16 49 3f f6 dd df bc
       -0.04535612 1.1513726 0.78549886 -0.027327519
000210 b8 9a 09 40 79 dd c1 3f 02 90 99 bd 47 ee 83 3d
       2.1500683 1.5145713 -0.074981704 0.06441932
000220 b6 a0 a9 bd 72 71 c8 3f c9 1d 90 3f 5f 13 36 3f
       -0.08282606 1.5659621 1.125909 0.7112331
000230 3e ec 1b bd 4f 4b e5 bf f2 10 bc bc 04 2a 55 3f
       -0.038067095 -1.7913607 -0.022957299 0.83267236
000240 d9 d2 4f 40 15 87 0f bd 4b 3d 22 bb f8 ce 8d 3f
       3.2472441 -0.035040934 -0.0024755772 1.1078787
000250 3a 91 22 40 91 aa 16 40 b0 dc a5 bd c0 df cc 3f
       2.540114 2.3541605 -0.080987334 1.6005783
000260 a0 df 26 3d 13 7d 8a 3d fb 5b 5f 3f bb 3e ae 3b
       0.04074061 0.06762137 0.87249726 0.0053175366
000270 cd e4 b3 3d b3 5a 0d 40 2d 2a a8 3f 1e 5e 6d 3f
       0.08783875 2.2086608 1.3137871 0.92721736
000280 7a ac f4 3f 2c 2e 32 40 98 d7 04 40 5b c8 0f 40
       1.9115136 2.784068 2.0756588 2.2466037
000290 b0 86 a1 3d d9 ab ce 3f 54 cf 2d 40 b5 48 95 3d
       0.07887018 1.6146194 2.7157793 0.072892584
0002a0 ce 0b a0 3f 0c 3d 19 bd 84 f4 03 40 9b 53 21 bc
       1.2503603 -0.037411734 2.061799 -0.009846593
0002b0 d1 45 19 40 78 7c 32 40 cc 5c 34 40 1c c7 3b 3f
       2.3948863 2.788847 2.8181639 0.7335069
0002c0 8c aa a7 3b 71 23 1d 40 19 db 9b 3c b8 d4 39 bd
       0.0051167663 2.4552882 0.019025372 -0.04536888
0002d0 2b 4e d8 3f 63 ee c4 3f 21 a3 96 3c 53 89 36 40
       1.6898855 1.538525 0.018388333 2.8521316
0002e0 dc 52 b1 bd d6 09 3b 3d 97 7d 58 bf d5 f0 a4 3f
       -0.08658382 0.045663677 -0.84566635 1.2885996
0002f0 a0 03 09 3d ab 05 00 3a d0 d1 17 bc 40 ed e4 3a
       0.033450723 0.0004883657 -0.009266332 0.0017465726
000300 c1 2f 9f 3f e7 95 55 bd 2b dd 0c 3c a6 9c 70 3f
       1.2436448 -0.05214491 0.008597652 0.93989027
000310 5d e9 bf 3d 87 be c9 ba 7f 34 2c 40 24 7b 93 bd
       0.093706824 -0.0015391865 2.690704 -0.072012216
000320 8d b8 1a 40 3b 39 2e 40 3e 75 85 3d 21 40 1b 40
       2.417514 2.722243 0.06516503 2.425789
000330 7f ae 72 bd 13 7b 43 3b a9 ab a5 3e 4b e5 94 3d
       -0.059248444 0.0029827997 0.3235753 0.07270297
000340 12 08 62 3f 70 4d 9f 3c ea dc b6 3f 65 24 1b 3f
       0.88293564 0.019446105 1.4286168 0.6060241
000350 ac 92 81 3f 9e 79 f1 bb aa ca 27 3d ef 51 14 40
       1.0122886 -0.007369234 0.04096476 2.3175008
000360 2f a0 ab 3f 96 8a 55 bd 77 e6 5b bb 3f 22 25 40
       1.3408259 -0.05213412 -0.0033554116 2.5802152
000370 13 17 de 3d 30 9c e3 3b a9 2f 1e 3d df 4a a2 3b
       0.10844245 0.0069461092 0.03861967 0.004952773
000380 d0 c3 39 40 b3 fd d4 3f bb 06 1c 40 0b e5 cf 3d
       2.9025764 1.6639923 2.4379108 0.10151108
000390 58 9e 03 3e 9a ee 97 3c 53 3f 13 40 6e da 06 bc
       0.12853372 0.018546391 2.30074 -0.008230789
0003a0 23 65 23 40 04 0e df 3f da 36 b3 3f bd 09 8c bd
       2.553048 1.7426152 1.4001114 -0.06837795
0003b0 e2 22 57 3c f3 e2 ad 3f f1 df c6 3f da 0b 28 40
       0.013130875 1.3584884 1.5537091 2.6257234
0003c0 4d 1e 03 bd 8b b5 d7 3f 2e 23 eb 3f 0e f5 d0 3c
       -0.03201132 1.6852278 1.8370111 0.025507476
0003d0 f8 42 db 3f b2 99 88 bd b3 8a 3b 3f 84 6e c7 3e
       1.7129812 -0.0666994 0.73258513 0.38951504
0003e0 04 54 d9 3f da 17 83 bd 94 e6 86 bc 4a d0 de 3f
       1.6978765 -0.06401034 -0.01646737 1.7407315
0003f0 71 32 14 40 9f c6 b9 3f 01 e8 5d 3f aa fa cd 3d
       2.3155787 1.4513739 0.86682135 0.10057576

net.4.bias f4 [13]
000000 ea 60 54 3f 63 09 cb 3f 7e c7 3c 3f 6e e0 ac 3f
       0.8296038 1.586224 0.737419 1.350599
000010 60 9a 3d 3f 1c ab a0 3f 42 33 9f 3f 5f c9 a9 3f
       0.7406368 1.2552218 1.2437518 1.3264579
000020 ee db 8b 3f 27 c0 8c 3f 15 c9 5c 3f 57 f4 51 3f
       1.0926492 1.099614 0.86244327 0.8201346
000030 fa 7d 9b 3f
       1.214782

net.0.weight f4 [128, 53]
000000 7e 86 c4 3d ca cc 1d 3f f9 b8 80 be 0e 6e a5 3e
       0.09595965 0.6164061 -0.25141123 0.32310528
000010 a3 85 a0 3e 0b b2 f2 be 3b 2f 75 3f 21 66 63 bf
       0.31351957 -0.4740146 0.9577519 -0.8882771
000020 d3 c4 af 3f 23 20 08 be 75 99 16 be 7d 53 09 3f
       1.3731941 -0.13293509 -0.14706977 0.5364302
000030 85 a1 d8 3d f3 74 a5 3e 59 c4 39 bf cc e4 15 3f
       0.105776824 0.32315788 -0.7256523 0.5855224
000040 99 62 15 3f 38 a5 81 3e 18 f1 08 3f 68 d2 01 bf
       0.58353573 0.25321364 0.5349288 -0.5071168
000050 7d 68 3e 3f d5 41 82 bf b0 81 82 3e 00 94 c1 be
       0.74378186 -1.017634 0.2548957 -0.37808228
000060 c8 89 73 be 5f 8f b4 be 07 24 c0 3e 3d c5 25 bf
       -0.23783028 -0.35265633 0.37527487 -0.64754087
000070 d8 40 82 3e 36 58 92 3e d4 91 3f bd ac 59 32 3f
       0.25440097 0.28582925 -0.046769932 0.6966808
000080 fb c2 99 3d 3a 70 99 3e 55 38 15 3e 19 d1 f2 bc
       0.07507893 0.29968435 0.1457227 -0.029640721
000090 ae f0 98 3e e9 15 de be c4 b6 a7 be e8 61 f2 3d
       0.29871124 -0.4337609 -0.32756627 0.118350804
0000a0 7c ac 89 be 34 50 9c 3e a3 dc 81 be 19 e7 cf be
       -0.26889408 0.3052994 -0.25363645 -0.40606
0000b0 39 2d 09 3e 71 cc 88 be 11 07 10 bf 29 86 af 3f
       0.13396157 -0.26718476 -0.5626078 1.3712817
0000c0 ea af 08 3d fe 60 ab bd 4c cf c5 3c 04 f0 69 bd
       0.03337089 -0.08368109 0.024146698 -0.057113662
0000d0 fa 88 f9 3d 48 fc 2c 3d 37 9d e8 be d6 1f d7 be
       0.12184329 0.04223278 -0.45432445 -0.42016476
0000e0 b1 15 25 be 17 6a e1 bd 3f 3a 60 3e 0c 4c b9 3f
       -0.16121556 -0.11006563 0.21897219 1.4476333
0000f0 0d a3 04 3d 0b 5a a4 3f a6 c3 84 3e 08 3e d7 bf
       0.03238206 1.2839979 0.25930518 -1.6815805
000100 60 23 87 bf 88 9c a6 3d 18 ea bb 3e 18 bc 4a 3c
       -1.055767 0.08135325 0.36702037 0.012373947
000110 4f 3c 7d be c5 43 86 3e e9 49 5b bf 2b 12 a4 be
       -0.24730037 0.2622358 -0.8565965 -0.3204511
000120 77 84 08 c0 ab f7 35 be d6 46 c7 be 2d 5d 9e 3f
       -2.133085 -0.17770259 -0.3892123 1.2372185
000130 3f 53 0c be 3f 56 e9 3e 2e a9 59 3e 9a ba 1b 3f
       -0.13703631 0.45573613 0.21255943 0.60831606
000140 64 90 b1 3f cb 09 47 bf 54 0d 4a 3f 16 c1 1e be
       1.387219 -0.7774932 0.7892659 -0.15503344
000150 10 1a c5 bd 28 a4 bf bf 69 a3 4d 3e 22 3c 05 bf
       -0.09624112 -1.4971972 0.20081867 -0.5204488
000160 78 2a 3c bb 2e c0 21 40 1e bb 5c bd 15 e2 3e 3f
       -0.0028711837 2.5273547 -0.053889386 0.74563724
000170 22 0e e0 3e 71 36 0a c0 71 df bf be 1e dc 33 c0
       0.43760782 -2.1595728 -0.3747516 -2.81031
000180 9a ce e3 3e 6e a0 a3 bf 45 e1 ed 3f fe 67 4a 3e
       0.44493562 -1.2783334 1.8584372 0.19766232
000190 1d 3b 4d bf 7d a9 c3 3e b9 41 14 be f1 ac 92 3e
       -0.80168325 0.38215247 -0.14478196 0.2864757
0001a0 1d 67 50 3e e9 a9 7e be 3c ac 56 be 3c 1b 36 3f
       0.20351835 -0.24869503 -0.2096414 0.71135306
0001b0 01 c2 98 bf ff 67 ed 3d c6 d4 ed 3e 63 d2 b7 bf
       -1.1934205 0.11592101 0.46451396 -1.436108
0001c0 cf df 92 3f 8d 2c 75 be a6 b3 73 3f 46 43 ee bd
       1.1474551 -0.23942776 0.95195997 -0.11633925
0001d0 b5 65 3a bf a0 82 eb bd 02 37 86 bf f2 86 10 bf
       -0.7281144 -0.11499524 -1.0485537 -0.5645591
0001e0 77 fb 29 bf 4b 11 b4 3e f6 4f 93 3d 2e 75 1b 3f
       -0.6639933 0.35169443 0.07192986 0.60725677
0001f0 2b 65 4a bf f3 1c ec 3e 4b d3 d0 3f 31 d2 e1 be
       -0.7906062 0.46115837 1.6314481 -0.44105676
000200 c8 c3 b6 3f f3 c7 4c 3e b1 df d0 3d b3 3b 21 3f
       1.4278498 0.1999815 0.10198916 0.6298172
000210 63 09 b9 3f c0 a3 bd be b0 05 fc 3e 7a fa 0c bd
       1.445599 -0.37038994 0.4922309 -0.03441856
000220 9d aa f9 be de f1 89 bf 32 f2 de 3e d2 41 38 bf
       -0.4876298 -1.0776937 0.43544155 -0.71975434
000230 00 64 e9 3d bc b3 60 3f af 93 b6 3d 5e 3a 10 be
       0.113960266 0.8777425 0.08914887 -0.14084765
000240 82 31 36 bf b6 25 97 3e a5 4f 59 3e 78 97 0f 3f
       -0.7116929 0.2952096 0.21221788 0.560905
000250 d7 15 0b 40 1a fe e3 3e 50 4d 6b 3f b9 ed e0 3e
       2.173208 0.44529802 0.91914845 0.43931368
000260 52 7f a6 be fc 12 21 3f 3e a9 43 bf 3a 8e 0c 3d
       -0.32519013 0.6291959 -0.7643012 0.034315325
000270 88 33 3f bf a0 f4 ca 3d 1a 7d 89 3e 00 52 28 be
       -0.74688005 0.0990994 0.26853257 -0.1643753
000280 6b 68 8f bd 81 68 e7 bd 60 63 00 c0 33 5a 98 be
       -0.07002338 -0.112992294 -2.0060654 -0.29756317
000290 59 c5 3f 3f 30 8b fc 3d 67 a6 d9 3f f6 cd ac 3e
       0.74910504 0.123312354 1.7003907 0.33750886
0002a0 a9 8f 29 3f b3 d9 88 3f 68 12 17 3f 21 61 da be
       0.66234833 1.0691437 0.5901246 -0.42652228
0002b0 b7 ef be 3e 71 79 c9 3e 12 b1 1f bf c8 f7 bb 3c
       0.37292263 0.39350465 -0.6237956 0.0229453
0002c0 5a 15 ad be 68 b9 11 bf e1 19 2a bf 38 4d 9c bf
       -0.33805352 -0.5692353 -0.6644574 -1.2211065
0002d0 8b 49 e4 be ae 9c 57 be ab 57 24 bf a6 df 42 bf
       -0.4458736 -0.21055862 -0.6419627 -0.7612251
0002e0 d3 b6 ba 3e e4 e7 bf be 51 c2 88 3e 32 f1 41 3f
       0.3646761 -0.37481606 0.26710752 0.7575866
0002f0 ea 7a 1c 3e 1f 2b 8e 3f 20 fd 10 3f f2 43 7a 3f
       0.15281263 1.110691 0.5663624 0.97759926
000300 03 a3 62 bd db 56 0e c0 63 4a ac 3f 1f 3a df 3f
       -0.05533124 -2.2240512 1.3460201 1.7439612
000310 8f d4 b0 3f 03 d7 96 bf e6 cb c8 3d 36 c5 0c bf
       1.3814868 -1.1784366 0.098045155 -0.5498842
000320 df 89 b0 3e 96 b7 3e bf b4 f9 14 3f 75 ff 34 bf
       0.34480187 -0.7449888 0.58193517 -0.70702296
000330 6d 8b 5d 3f 61 24 1f 3d 39 79 62 be 91 12 45 3e
       0.8654087 0.038853053 -0.22116555 0.19245364
000340 6f 20 a1 3e ae e2 d1 3e 98 eb 39 be bf 4f 83 bf
       0.31470057 0.40993255 -0.18156278 -1.0258712
000350 b8 b4 0b bf 8c 9d 19 3e 02 d8 fe be f1 d0 63 3f
       -0.5457263 0.15001506 -0.49774176 0.88990694
000360 30 b5 c6 3e e4 19 07 3e 9f c3 be 3e 2c 09 0e 3f
       0.3881011 0.1319347 0.37258622 0.55482745
000370 bd 92 8b bf 8e d7 f6 bd ad 8c 12 bf 97 91 04 40
       -1.0904156 -0.120528325 -0.57245904 2.071386
000380 00 bb 4e be 3c 38 e6 3d c4 99 6a 3f 2b 64 33 3f
       -0.20188522 0.112411946 0.9164088 0.7007472
000390 78 1f 28 40 38 ae 81 3e 7b 85 b7 be 58 e3 1d c0
       2.6269207 0.2532823 -0.35844025 -2.467001
0003a0 41 0f 1c bf 5e 8b 89 bf 63 ef c7 bd 35 b0 28 c0
       -0.60960776 -1.0745656 -0.09762456 -2.6357548
0003b0 e0 eb 6e bf 7a 1b 87 3f a0 06 66 3e d9 f7 b8 be
       -0.93328667 1.055526 0.22463465 -0.36126593
0003c0 37 6f 97 3f ca 76 bd be 04 de 3a 3f db 8e a3 3f
       1.1830815 -0.3700469 0.7299502 1.2777971
0003d0 4d 2d 14 3e 16 cf 89 bf 44 1d 3d be 3c fe 71 3f
       0.14470406 -1.0766323 -0.18468195 0.94528556
0003e0 1d ff 0e be 3c 6f 16 bf 4c d3 56 bf 34 ee 4d 3f
       -0.13964505 -0.5876348 -0.83916163 0.80441594
0003f0 95 e8 0a bf 21 02 b3 be d5 4e 0f be 00 de 79 bf
       -0.5426114 -0.34962562 -0.13994916 -0.9760437

net.0.bias f4 [128]
000000 08 40 34 3f 62 1b 6d be 53 06 91 3e 0b 3e 45 bc
       0.70410204 -0.23154977 0.28325137 -0.012038718
000010 84 2c bf 3e 9e 87 8e bd b9 b5 bc 3d d8 36 5f 3c
       0.3733865 -0.06959461 0.09214348 0.013623916
000020 ba 29 35 be 1f 6f 5e 3e 5f 64 de 3e 09 69 19 be
       -0.17691699 0.21722077 0.43435952 -0.14981474
000030 84 5c 6d be 62 34 10 be 72 de 94 bd 56 6c 20 bd
       -0.23179823 -0.14082482 -0.072689906 -0.039165817
000040 2e 13 c6 3e 72 74 70 be 2c 68 1f 3f 5a 3f 82 3f
       0.38686508 -0.2348192 0.6226833 1.0175583
000050 4b e0 f9 bd a4 ec 01 be 08 fe 96 be 4d d1 e1 3d
       -0.122009836 -0.12687927 -0.29490685 0.11026249
000060 ba f8 da bd a0 30 81 bd 23 ef 72 be e4 94 c7 3e
       -0.10691972 -0.063081026 -0.23724036 0.38980782
000070 92 e3 56 3e 9b 5b 78 be 6c 33 58 3b e4 92 61 3c
       0.20985249 -0.24253695 0.0032989634 0.013767932
000080 67 50 31 3c 33 8a 63 3f 9b 38 a3 be a1 96 0d be
       0.010822392 0.8888275 -0.31879124 -0.13826992
000090 41 e0 22 be 84 1f 35 be 54 92 df bc af 26 18 3f
       -0.15905859 -0.17687804 -0.027291454 0.59434026
0000a0 16 95 99 3e 4f 63 85 3c 6e 4c a6 3e fe cf 57 3f
       0.29996556 0.016282706 0.32480186 0.84301746
0000b0 2b a2 76 3e d3 64 ad 3c 95 31 b7 bd 66 bb 4d be
       0.240853 0.02116624 -0.08945004 -0.20091018
0000c0 4e 45 40 be 7a b1 fc 3d 63 f1 d4 be 8b fa 92 3e
       -0.18776438 0.123385385 -0.41590413 0.28706774
0000d0 36 17 54 be fc 55 17 3d 35 f8 17 3f bb b5 de be
       -0.2071198 0.036947235 0.5936311 -0.43498024
0000e0 f5 e8 af 3e da 34 e3 3d 62 84 f5 3c 9e 6e 8a 3d
       0.3435742 0.11094065 0.029970352 0.0675938
0000f0 84 b3 82 3e 1b 90 08 3f bf 5e a9 3e b3 10 61 3f
       0.25527585 0.5334489 0.33080098 0.87916106
000100 82 cb bd 3e d2 b5 0a 3e 30 49 09 3f b5 c9 11 bc
       0.37069327 0.13545921 0.536273 -0.008898188
000110 40 f4 f1 3d da 48 6c be 95 f5 b4 bd dd 7f d7 3d
       0.11814165 -0.23074666 -0.088359036 0.10522435
000120 4d ef dc 3c b7 a3 10 3f f5 b5 e8 3b 50 ed 1c be
       0.026969576 0.5649981 0.007101769 -0.15324903
000130 8b 46 dd be 86 9c 94 bd bb 09 bc be 9e 9d e4 bd
       -0.43217883 -0.07256417 -0.36726174 -0.111628756
000140 c1 d6 3c 3f 2a c6 05 3f d4 04 ba 3b f1 c4 41 3f
       0.7376519 0.522555 0.005676845 0.75691134
000150 70 24 23 be 9c d0 fc 3d fc 44 e4 3e 5c ec 89 3e
       -0.15931869 0.123444766 0.4458388 0.2693814
000160 6b 3f 3f 3f b1 a7 80 3f 00 67 53 3e 98 89 78 3e
       0.74706143 1.0051175 0.2064476 0.24271238
000170 ec 8b 90 3e 2f ae f2 bc 39 77 30 be 7d 11 14 3e
       0.28231752 -0.029624073 -0.1723298 0.14459796
000180 ba 23 34 be 0d 73 2f 3e 42 37 c8 3e ae 94 40 bd
       -0.17591754 0.17133732 0.39104658 -0.047016792
000190 25 2d 07 bd b5 06 e3 be 67 39 80 3e 6e e0 58 be
       -0.033002038 -0.44341055 0.25043795 -0.21179363
0001a0 68 7c 4a 3f 45 87 9e bb 9d 6a 01 3e 4f e9 c5 be
       0.7909608 -0.0048379027 0.12638326 -0.38654563
0001b0 ff a3 12 3f 2f 2b 03 3f c6 89 2d be ff f2 2e be
       0.5728149 0.5123777 -0.16947088 -0.17084883
0001c0 6f d7 c7 3e a1 52 1a be 7e bc 2f 3a f5 54 7e 3d
       0.3903155 -0.15070583 0.0006703808 0.06209274
0001d0 b0 7d 62 3e 11 09 c8 bd 3c 1c bb 3c 16 18 c2 3e
       0.22118258 -0.09767354 0.022840612 0.37909
0001e0 dd c0 8f be 56 da 36 bd 40 e8 28 be 51 e8 d6 bd
       -0.2807683 -0.044641815 -0.16494846 -0.104935296
0001f0 a5 e7 8b 3e b6 78 57 3f 8c 64 b9 bd 79 ef 70 be
       0.27325168 0.84168565 -0.09052381 -0.23528852

net.2.weight f4 [128, 128]
000000 bc 95 92 bd 9e 56 99 bd f0 b1 6c 3c 30 29 8c bb
       -0.07157466 -0.07487224 0.0144467205 -0.004277371
000010 28 c6 04 bc ac e2 5f 3d 30 ff fa bc 78 be 5f 3d
       -0.008103885 0.05465953 -0.030639261 0.054625005
000020 41 6b 60 bd a7 a1 80 bd c3 40 4f bd 11 65 4f 3d
       -0.054789785 -0.06280833 -0.05059887 0.050633494
000030 bd d4 aa 3d e0 6e 07 be 88 7d 1a bd af 49 37 bd
       0.08341358 -0.13225889 -0.037717372 -0.044748005
000040 fa c1 c5 bd 1f 8e 90 bd d8 00 a7 bb 1b 5f e4 bd
       -0.09656139 -0.070583574 -0.005096536 -0.111509524
000050 ed 0e 2f bd cd 78 99 3d 0b 90 b5 bc f8 57 23 3b
       -0.042738844 0.07493744 -0.022163412 0.002492426
000060 a0 35 bf 3b 0b d5 9c 3d af fe e4 3b 7a 0e 8a bd
       0.00583525 0.07657822 0.0069883685 -0.067410424
000070 67 8a 6b 3b 01 d8 1d bc f0 8b 84 bc 64 1d 4b bc
       0.0035940649 -0.009634019 -0.016180009 -0.012397144
000080 59 85 a2 bd 6a 12 dd bc 90 f4 38 3d ae 07 52 3d
       -0.0793559 -0.02698632 0.045155108 0.051276855
000090 ad 2c 93 3c 38 de cb 3c fd 07 bc bd 1c 44 0a bd
       0.017965639 0.024886236 -0.09181211 -0.03375636
0000a0 04 4f b5 3c 51 b6 01 3c eb c1 cc bc 11 81 c8 bd
       0.022132404 0.007917003 -0.024994811 -0.097902425
0000b0 18 49 ac bd 2b e7 15 bd 47 2f a1 bd 05 5b ca bd
       -0.08412379 -0.036597412 -0.078703456 -0.09880642
0000c0 04 5d fe bc f6 d4 9e bd 5b f6 e1 bd e5 f3 d5 bd
       -0.031050213 -0.07755463 -0.11033317 -0.1044691
0000d0 20 3f 7f 3c 02 13 43 bd 35 ae fa 3b 02 0d 8f bd
       0.015579015 -0.04762555 0.0076501616 -0.06984903
0000e0 ce 39 71 bd b6 8b da bd 5f 0b 41 3d fb 40 b2 bd
       -0.058893017 -0.10671179 0.047129985 -0.087038
0000f0 d7 d2 e2 bc 0c 8e a2 bc c0 da dc bd 75 b8 bb bc
       -0.027688427 -0.019843124 -0.10783911 -0.022915104
000100 ba 07 a0 bd 94 d7 92 bd c9 c3 9b bd 8f 1d 97 39
       -0.07813974 -0.071700245 -0.076057024 0.00028822987
000110 05 fe 34 3c 2c 6d e4 bd 48 91 50 3d 02 dd b3 bd
       0.011046891 -0.111536354 0.0509198 -0.08782388
000120 c9 fb c8 bd 42 dd ec ba 35 80 57 3d ba 73 ac bd
       -0.09813649 -0.0018071311 0.052612502 -0.084205106
000130 b9 0b 81 3c bb 9e 0e bd f0 5f aa 3b 50 30 d1 bb
       0.01575266 -0.034819346 0.005199425 -0.006383933
000140 35 29 35 bd 4c e9 1f 3c 99 cd 14 3c 49 8f a7 bd
       -0.04422875 0.009760212 0.009082221 -0.08181626
000150 07 0f 22 bd e9 34 1c bd 90 7a 98 3d 58 96 14 bc
       -0.039565112 -0.038136397 0.07445252 -0.009069048
000160 b9 65 87 bd 3d 77 e3 bd 5d 8a f5 bd 10 02 00 be
       -0.06611199 -0.11106727 -0.11989281 -0.12500787
000170 d7 69 9c bb 00 df bb bc e7 29 b1 3d 46 ef 17 3d
       -0.0047733593 -0.022933483 0.0865057 0.037093423
000180 ee 39 5d bd 64 a5 4e bd fe 55 cc bd 9f 4c 1c bc
       -0.054010324 -0.050450698 -0.09977339 -0.009539752
000190 fb 90 1f 3d 8f 94 4c bd 88 a4 61 3d 00 cb 0a 3d
       0.038956624 -0.049946364 0.05508855 0.033885002
0001a0 27 87 b0 bd b2 ee b2 3c ca d3 3b bd 84 64 27 3d
       -0.08619528 0.021842334 -0.045856275 0.040867344
0001b0 cb bb 54 bd fa 45 c7 bb 64 8c 2f bd 66 41 79 3d
       -0.051936906 -0.00608134 -0.042858496 0.060853384
0001c0 3a 32 e2 bd e5 f3 84 bd 10 3a 4c 3d da af 0d 3d
       -0.11044736 -0.06491832 0.04986006 0.034591533
0001d0 ab 36 43 bd 65 17 25 bd fe d9 24 bd 0f 01 61 bd
       -0.047659557 -0.040305514 -0.040246956 -0.05493265
0001e0 f3 d7 30 bd 4f 5e 3b bd 25 b7 80 3b d0 08 65 3d
       -0.043174695 -0.045744237 0.0039280825 0.055916607
0001f0 ed 49 32 bd 8f 5a 9a bd 6c 1f 47 3b 7e 15 2e 3d
       -0.043527532 -0.07536804 0.003038372 0.042500965
000200 64 5b 83 3f 1d 03 95 bf f1 7f 13 3d fd 36 13 bf
       1.0262265 -1.1641575 0.036010686 -0.5750578
000210 c4 ae 20 3f 63 cc fc bd b6 4b fe 3e 59 c1 fa be
       0.6276667 -0.12343671 0.49667138 -0.48975638
000220 0b 77 94 bd 19 99 04 c0 18 0b ec 3e 6b a1 27 bf
       -0.07249268 -2.0718443 0.46102214 -0.6548068
000230 4c 3f 86 3d 38 2c 0e 3f ea 3c 1a 3f 44 f1 39 bd
       0.06555042 0.5553622 0.602492 -0.045396104
000240 80 20 1a 3b 56 4e 15 bf 75 dc 7f 3f 6c 37 cd 3f
       0.0023517907 -0.58322656 0.99945766 1.6032538
000250 82 0a 01 3d b0 4c 5e bd e5 b7 52 c0 50 17 e0 3f
       0.03150416 -0.054272354 -3.292474 1.7507114
000260 92 78 cd 3f e7 37 55 be c9 02 64 3f 59 84 c3 3f
       1.605242 -0.20822106 0.8906675 1.5274764
000270 64 af 06 3f 6f 59 63 bd 39 3e 76 bf 9b 64 96 3f
       0.52611375 -0.055505212 -0.96188694 1.1749452
000280 59 65 58 3e 8e d2 8e 3f ee 21 87 bf 24 96 46 bd
       0.21132411 1.1158006 -1.055723 -0.04848303
000290 49 f8 83 be 6b 7d b4 bd 04 7d 87 bf 35 90 49 3f
       -0.25775364 -0.08812984 -1.0585027 0.7873567
0002a0 31 48 cd 3f b7 f4 35 bf 77 c8 26 3f 53 ac 7d 3f
       1.6037656 -0.7107653 0.65149635 0.9909107
0002b0 de b2 96 3e 5c 25 f7 3f 7b 35 5d bb 0e 1c 04 3f
       0.2943334 1.9308276 -0.00337538 0.5160531
0002c0 df 02 69 bf ee f4 52 3f 9d 7a c2 3e 8e d7 84 3e
       -0.91020006 0.82404983 0.37984172 0.25945705
0002d0 dd 1c bc 3f 2d c4 78 3e ff 90 f8 3d bc 10 88 bf
       1.4696308 0.24293585 0.12137031 -1.0630107
0002e0 5c bf 40 bd 2a 23 78 3f 61 a2 88 be 84 ee f4 be
       -0.047057495 0.96928656 -0.26686385 -0.47838223
0002f0 15 a9 5b 3f 0d de 1d 3e df 6a 96 3e cc 28 9d 3f
       0.85804874 0.15416737 0.2937841 1.2278075
000300 1a 5e 2f 3f 78 66 32 3d 22 49 24 3f 7d aa 0e 3f
       0.6850296 0.043554753 0.6417409 0.55728894
000310 a7 95 96 3d ea f0 8a bf e7 5f 79 3f a7 95 38 3f
       0.07352763 -1.0854771 0.9741196 0.7210335
000320 48 a7 fe be fa e3 5d 3f eb 74 9a 3e 2b 38 64 3b
       -0.49737 0.8667599 0.30167326 0.0034823518
000330 36 b9 65 bf f3 e9 98 bf ba 3c 0c 3f a2 b8 b8 3d
       -0.89735734 -1.1946396 0.5478016 0.09019591
000340 c3 ca 81 3f 8f 3d 35 3f bd 51 53 3f 68 2e a2 3f
       1.0140003 0.70797056 0.825466 1.2670412
000350 23 12 83 bd c6 67 e3 3e 57 32 d0 3e 0a 45 b2 3f
       -0.06399944 0.4441511 0.40663406 1.3927319
000360 f4 91 90 3f 27 f6 ff 3f 9e 10 9d be c4 0b d7 3e
       1.1294541 1.9996995 -0.3067674 0.42001164
000370 1e 6e b2 be 1b cd c5 3d 0e fe 97 bd ac f3 1d 3e
       -0.34849638 0.096582614 -0.07421504 0.15424985
000380 99 0e 75 3f d5 0e 62 3e ea d7 f2 3e cc 57 2e bf
       0.957254 0.2207597 0.47430354 -0.6810272
000390 0c 5e 81 3f d1 4d 5d bf cb e8 f6 3e a2 52 1c 3d
       1.0106826 -0.86446863 0.48224482 0.038164742
0003a0 a9 77 8e 3f 91 10 62 3f 4b 74 7c 3f 4a 4f f0 bf
       1.1130267 0.8830653 0.9861495 -1.8774197
0003b0 68 55 5d 3f c7 8c 09 3e 25 50 ef 3e 6f 3d 7a bb
       0.86458445 0.13432609 0.46740833 -0.003818359
0003c0 9a e7 4a 3f a5 eb fb bc 70 1a 3a 3f 28 57 83 bf
       0.79259646 -0.030752013 0.7269659 -1.0260973
0003d0 72 4d f4 3e 50 7d a4 be 1b e7 30 3f 05 e0 84 3e
       0.47715336 -0.32126856 0.6910264 0.25952163
0003e0 a0 40 e7 3a 10 6f 34 bf 5f b7 6a bf 89 7e e1 bf
       0.0017643161 -0.7048197 -0.9168605 -1.761674
0003f0 08 5e 8b 3d 91 ce bb 3f f7 0d 6f be 28 30 b2 3e
       0.068050444 1.4672414 -0.23345171 0.34802365

net.2.bias f4 [128]
000000 50 27 c4 bd ea df 07 40 4c 24 88 3f 9a 19 a6 bd
       -0.09577811 2.1230416 1.0636077 -0.08110352
000010 d5 3e 08 3d 32 a0 3a 3f 1d 6f c9 3a 92 b7 a2 bd
       0.033263046 0.7290069 0.0015368197 -0.079451695
000020 2d 8a dc bd 78 f4 d4 3e 5b af 0b 3f d0 17 aa 3f
       -0.107685424 0.41592765 0.54564446 1.3288517
000030 d1 cd 94 bd 29 7a b8 be 0a 2b d4 bd af 00 d3 3f
       -0.07265819 -0.360307 -0.103597715 1.6484584
000040 82 a8 32 3f 1d 72 6b bc 39 2e f5 bd 85 81 63 3f
       0.6978837 -0.014370468 -0.11971707 0.88869506
000050 d2 63 8f 3d 23 aa 58 3f 1f 96 9e 3c bc 71 53 3f
       0.07001461 0.8463461 0.019358693 0.8259542
000060 8e a7 de bd 19 3b a4 bd bb cf 38 3f 29 ab 73 bd
       -0.10871802 -0.080190845 0.7219197 -0.059489403
000070 e1 ae bb bd 14 80 97 3f 32 35 5c 3f d6 60 72 bc
       -0.09164215 1.1835961 0.8601867 -0.014793595
000080 46 e1 8b 3f ca aa 5b 3f fc 64 26 3f e0 50 4d 3f
       1.0928123 0.8580748 0.6499784 0.8020153
000090 bd 0a 06 bd 51 76 4e 3f 5d d7 3b 3f 8b 3f 93 bd
       -0.032725085 0.80649287 0.73375493 -0.07189854
0000a0 dd 98 4e 3f a9 25 36 bd e4 ed 81 3f 62 04 b5 bd
       0.80702 -0.04446951 1.0150723 -0.088387266
0000b0 24 9b 60 3f ab 58 38 3f 86 30 d6 3e c5 81 80 3f
       0.87736726 0.72010297 0.41833895 1.0039603
0000c0 cd 0b 9b bd f2 a6 15 3f 81 de be bd a9 77 5a bd
       -0.0757061 0.58457863 -0.09319783 -0.053336773
0000d0 6c 4b 5c 3f 8a a3 75 3f 73 b0 ef bc c2 d8 ce 3e
       0.86052585 0.95952666 -0.029258942 0.40399748
0000e0 6b 3d ac bd 42 7f 69 bd 60 bf e2 bd d5 24 03 40
       -0.08410152 -0.057006128 -0.11071658 2.049123
0000f0 ee ed 0a 3d b4 b5 40 bd 12 bf b7 bd 12 7c 0b be
       0.033918314 -0.047048286 -0.08971991 -0.13621548
000100 8f c9 83 3f ae 53 fd bd 10 b3 9b bd 1d c1 fe 3f
       1.0295886 -0.12369476 -0.07602513 1.9902683
000110 b3 41 de bd 0e 15 05 bd bb d7 3f 3f a2 c6 b8 bd
       -0.10852375 -0.032490782 0.74938554 -0.09022261
000120 39 0f 34 3f 43 8b 5d 3f 73 66 bc bd 88 26 4d 3f
       0.7033573 0.8654062 -0.09199228 0.8013692
000130 b7 60 41 bd ac 50 da bc 32 6d 7a bd f2 7f c7 bb
       -0.047211375 -0.026649795 -0.061139293 -0.0060882503
000140 a3 d5 a3 bd ab 96 e4 bd de 7c 61 3f 46 2f 8f 3f
       -0.07999732 -0.1116155 0.8808116 1.1186302
000150 7d cf 82 3f 4e 0d e6 bd 91 34 c6 bd 47 7e 8d 3f
       1.021957 -0.112330064 -0.09677995 1.1054162
000160 c1 10 a9 3d c0 36 59 be 57 3a d9 bd 6a cf 82 3f
       0.08255149 -0.21212292 -0.106068306 1.0219548
000170 bc 13 a3 bd 65 8d 0e be 07 2d 36 3c 98 b9 01 bd
       -0.079627484 -0.13921125 0.011119134 -0.031671137
000180 cc cc 6a 3f ca fa 6b 3f a2 84 31 3f 93 9d 19 be
       0.91718745 0.9217955 0.69343007 -0.15001516
000190 ce b4 d4 bc ab 8e 18 be ec 30 76 3f 64 04 8f bd
       -0.02596512 -0.14898174 0.961684 -0.06983259
0001a0 b2 6e 6a 3f 8c 6c 6e 3f da a7 78 3f 4c 7f e0 bd
       0.9157516 0.9313438 0.9713112 -0.1096178
0001b0 4b 8b 0e bd 44 03 a7 3e 85 bb 7e 3f da f8 36 3f
       -0.03480081 0.3261968 0.9950488 0.7147347
0001c0 c1 72 a8 bd 20 3d b0 bd 27 dc 4c 3f 43 34 08 be
       -0.082250126 -0.08605409 0.80023426 -0.13301186
0001d0 92 6f 27 3f 5e 4f 8c 3c 41 9f a5 3f b6 02 82 3f
       0.6540462 0.017127689 1.2939225 1.0157077
0001e0 2f ff 30 3f 30 6a c9 bd de 68 49 3c d8 e2 5d 3f
       0.6913938 -0.09834707 0.012293069 0.8667426
0001f0 10 8c 02 3e 43 90 43 3f 4e 9f d1 3f 5a 1a 7f bd
       0.12748742 0.76392 1.6376741 -0.06228099
