checkpoints2/team1_agent_1.pt (torch, 411297 bytes, 24 tensors)

net.0.weight f4 [128, 53]
-0.92148507 -0.03476107 -0.18455763 0.3060919 0.32444748 -0.005797569 -0.45540085 -0.28846365
1.1637374 0.1537532 -1.5231915 -0.9725173 0.17710043 -0.5610086 0.4148766 -0.18315513
1.174223 -0.5699366 0.9467014 -0.030928368 0.53361005 1.0456343 1.8707079 -0.015602184
0.16468886 -0.95664203 -2.7310514 -0.7668535 -0.3910181 -1.0886457 -1.1649798 1.1857964
-1.1238123 -0.09192348 -0.29604402 -1.2870905 -0.57395685 0.6590064 -1.1024536 0.08593974
-0.6731473 -0.10869811 -0.25402647 0.35237148 -0.012489322 -0.1480965 -0.1800315 0.88228464
-0.43023455 -0.20039845 -0.45027298 0.5571871 -0.3546649 -0.35617226 0.5755566 -0.3608342
2.0181453 0.35859576 0.20295629 -0.20471862 0.64792913 0.47478288 0.21500775 0.8114673
0.38908792 0.34745738 0.09528628 -0.5475729 -0.7007504 1.0059536 -1.6927946 -0.23199756
0.84298253 -0.68508244 0.6551271 0.23404855 -0.7030989 -1.4263936 -0.44383374 -0.5871293
0.43154413 0.73263943 -0.29924497 -0.6729768 1.3882805 1.1981589 0.6091093 -0.10239877
0.90095663 -0.8000195 -0.5320686 -0.3184415 -0.1955595 -2.1869454 0.9978602 -2.1435618
1.2484219 -1.1895043 0.089290395 0.2629491 0.31971037 -0.91807944 0.31882536 -0.8199484
0.4567049 -0.522775 -0.16962993 -0.015559366 0.070309244 -0.9685035 0.5426622 0.3465722
0.11102038 -0.09239519 0.36014608 -0.0029518234 -0.7872943 0.00745153 -0.50683784 0.6899078
-0.15135038 0.46905914 -0.53504276 0.8991889 0.7406971 0.1950602 0.25496307 -0.10467992
-0.23471875 0.1015852 -0.0075538657 -0.10708671 0.6611492 -0.6461635 0.34709004 0.08348172
-0.098292865 -0.34701583 -0.6231281 0.5490838 -0.5219668 0.4142674 -0.25348946 0.35109538
1.30721 -0.06119093 0.36158568 -0.6913693 0.64661604 -0.62807316 -0.4442889 -0.38111046
0.0072211665 -0.07920732 -0.030637354 -0.05967093 0.06536812 0.25827205 -0.15578493 -0.93894005
0.3462966 -0.07878734 1.7901589 0.099024214 -0.17991555 1.4282722 -0.18944563 0.32249546
-0.011498156 -0.3110587 -0.45814878 -0.38056755 -0.85211444 -0.37094826 0.024962623 0.43206978
0.1719087 1.3588909 -0.1297564 0.93350273 -0.4731623 0.9536883 0.1785852 0.32525524
-0.66776454 -1.9325141 -0.34090778 -1.1732588 -1.166541 -0.6266526 0.56629837 0.17461535
1.7585055 0.3685497 -0.45306885 0.035902373 -0.8112234 -1.479464 0.2945483 -0.4466317
0.46066397 -0.19430937 0.36892492 0.057521205 0.24717884 0.0879874 1.0662247 -0.10000489
0.32539243 -0.042224992 -0.5446782 0.17444965 0.07549718 -0.14152002 -0.82453114 -1.2516085
0.19991438 -0.62970436 -0.057782732 -0.21112135 1.2062093 -0.5519959 0.8585411 -0.9567979
-1.3533928 0.08799134 0.3006927 -0.7330075 1.0858517 0.19192128 2.2503254 0.3648065
0.4687291 0.20334351 0.5245433 1.7982101 -0.46776527 0.067179196 -0.7279315 0.09271316
1.4982619 0.016611159 0.30295315 0.8792133 -0.96527463 0.7218879 -0.3982536 -1.0954663
-0.3071295 0.85260665 -0.8105107 0.16228092 -0.67894983 0.5798801 -0.91105235 0.9361375
00000000: 72e6 6bbf a061 0ebd adfc 3cbe 14b8 9c3e
00000010: fb1d a63e 89f9 bdbb 4d2a e9be 82b1 93be
00000020: 59f5 943f 7b71 1d3e f0f7 c2bf e5f6 78bf
00000030: d159 353e 429e 0fbf b56a d43e 058d 3bbe
00000040: f04c 963f 5de7 11bf 065b 723f 7d5d fdbc
00000050: ab9a 083f 58d7 853f 5b73 ef3f 4ea0 7fbc
00000060: 32a4 283e 7ee6 74bf 8cc9 2ec0 8350 44bf
00000070: 8633 c8be be58 8bbf 0f1e 95bf 2dc8 973f
00000080: 15d9 8fbf 6142 bcbd 1593 97be 62bf a4bf
00000090: d6ee 12bf a5b4 283f 331d 8dbf 2d01 b03d
000000a0: 6253 2cbf 1d9d debd c20f 82be 096a b43e
000000b0: 03a0 4cbc 9ca6 17be 2d5a 38be 68dd 613f
000000c0: b447 dcbe 4035 4dbe 2e8a e6be d0a3 0e3f
000000d0: a396 b5be 365c b6be ad57 133f 43bf b8be
000000e0: 4b29 0140 dd99 b73e c6d3 4f3e c2a1 51be
000000f0: afde 253f be16 f33e fe2a 5c3e 52bc 4f3f
00000100: 8836 c73e efe5 b13e 7425 c33d bd2d 0cbf
00000110: 6164 33bf 16c3 803f 7ead d8bf c590 6dbe
00000120: b4cd 573f 9061 2fbf 69b6 273f 6caa 6f3e
00000130: 4afe 33bf 1194 b6bf 2d3e e3be 1b4e 16bf
00000140: 5af3 dc3e 428e 3b3f a336 99be 3548 2cbf
00000150: 2db3 b13f 455d 993f 96ee 1b3f 72b6 d1bd
00000160: 18a5 663f 14ce 4cbf a635 08bf c40a a3be
00000170: c040 48be eaf6 0bc0 c473 7f3f 1e30 09c0
00000180: 4acc 9f3f ad41 98bf e2dd b63d 44a1 863e
00000190: 14b1 a33e 4107 6bbf 143d a33e 23e8 51bf
000001a0: 3ad5 e93e 95d4 05bf 78b3 2dbe b6ec 7ebc
000001b0: 4bfe 8f3d d8ef 77bf e9eb 0a3f e971 b13e
000001c0: a75e e33d b039 bdbd 1165 b83e 6173 41bb
000001d0: 1f8c 49bf f72b f43b 20c0 01bf cc9d 303f
000001e0: 98fb 1abe 8528 f03e 90f8 08bf 3e31 663f
000001f0: 539e 3d3f dcbd 473e 858a 823e 6d62 d6bd
00000200: 1d5a 70be e70b d03d 6b86 f7bb 4750 dbbd
00000210: 1341 293f f96a 25bf c9b5 b13e 77f8 aa3d
00000220: c54d c9bd 0fac b1be 5385 1fbf c290 0c3f
00000230: 9e9f 05bf db1a d43e 5fc9 81be c6c2 b33e
00000240: a852 a73f 57a3 7abd c221 b93e 94fd 30bf
00000250: a188 253f 67c9 20bf d679 e3be e920 c3be
00000260: 899f ec3b 7337 a2bd 30fb fabc 8169 74bd
00000270: b9df 853d 3c3c 843e 1686 1fbe 605e 70bf
00000280: ca4d b13e 425b a1bd ed23 e53f 35cd ca3d
00000290: c83b 38be a0d1 b63f 09fe 41be 201e a53e
000002a0: c362 3cbc 1643 9fbe 7a92 eabe c0d9 c2be
000002b0: 2c24 5abf eeec bdbe 6a7e cc3c 4038 dd3e
000002c0: d608 303e 23f0 ad3f ddde 04be 09fa 6e3f
000002d0: 5442 f2be eb24 743f 0adf 363e db87 a63e
000002e0: 9ef2 2abf 9f5c f7bf 778b aebe 582d 96bf
000002f0: 3751 95bf 4e6c 20bf eef8 103f 5ece 323e
00000300: b516 e13f 8cb2 bc3e a4f8 e7be 5e0e 133d
00000310: 56ac 4fbf 145f bdbf 09cf 963e e9ac e4be
00000320: 26dc eb3e 09f9 46be bae3 bc3e 5b9b 6b3d
00000330: 731c 7d3e bd32 b43d 0d7a 883f 5dcf ccbd
00000340: d699 a63e 1df4 2cbd 0870 0bbf eea2 323e
00000350: 449e 9a3d a0ea 10be 7914 53bf b534 a0bf
00000360: 5bb6 4c3e 4e34 21bf 96ad 6cbd 3230 58be
00000370: 1165 9a3f 9a4f 0dbf 59c9 5b3f b5f0 74bf
00000380: fa3b adbf ce34 b43d 65f4 993e 61a6 3bbf
00000390: 30fd 8a3f 0387 443e 5505 1040 ebc7 ba3e
000003a0: 43fd ef3e 4839 503e 7848 063f c02b e63f
000003b0: ee7e efbe 3f95 893d b859 3abf 66e0 bd3d
000003c0: 0cc7 bf3f 2014 883c ad1c 9b3e 1f14 613f
000003d0: 3d1c 77bf a5cd 383f e5e7 cbbe 3d38 8cbf
000003e0: 1440 9dbe 6e44 5a3f a17d 4fbf f82c 263e
000003f0: a8cf 2dbf 0673 143f ba3a 69bf b5a6 6f3f

net.0.bias f4 [128]
-0.39716074 0.08194249 -0.10632624 0.27943453 -0.14883764 -0.016154109 -0.049545437 0.35031125
0.0286964 -0.18160237 -0.25266692 -0.08579854 0.07918321 -0.070725404 0.35352254 -0.037529066
-0.17796788 0.15745513 -0.03027974 -0.24132328 -0.15037721 -0.18844034 0.22283106 -0.09784753
-0.35034838 0.06681505 0.55221546 0.3330563 0.05891402 -0.15864135 -0.0024747308 0.42684826
-0.17165342 -0.19274096 0.06922915 -0.12760746 0.3406696 0.3336879 -0.19319852 0.11027372
0.13105716 0.418438 -0.10664321 0.2713323 0.005048465 -0.1222961 -0.00925655 -0.084662996
-0.01876219 0.31955302 0.80908674 -0.21198249 -0.17461674 0.47673577 0.3234331 -0.124497116
0.16423011 0.24244328 -0.42733786 -0.22896606 0.017974852 -0.2374461 0.2499636 0.5168406
0.0925768 -0.18247816 0.13247141 -0.11023579 0.30682853 0.5208488 0.25199288 -0.012509869
0.18307826 -0.18095805 0.03337481 0.31608656 0.23271349 0.33169967 0.27344573 0.08894298
-0.099687874 -0.0656364 0.580234 0.11723988 0.2837523 -0.059633173 -0.1570932 0.6287626
0.2440129 0.14156581 -0.092354655 0.19990608 0.05067502 -0.03327211 -0.086505264 -0.106216155
-0.20815365 -0.027181773 0.050135445 0.15912156 -0.18951325 0.08133973 0.33777264 0.16422524
0.14853936 -0.2484249 0.26772904 0.17757769 0.15410194 -0.10770582 -0.25488493 -0.13077003
0.035668414 0.09507388 0.3653509 -0.011057043 0.041822154 0.27385253 0.1763681 0.2712969
0.13851838 0.112138145 0.059434716 -0.0735232 0.35845438 -0.039895933 -0.21016517 0.45453104
00000000: a758 cbbe 77d1 a73d 92c1 d9bd 0b12 8f3e
00000010: e568 18be 9f55 84bc 28f0 4abd ff5b b33e
00000020: b614 eb3c f9f5 39be 8f5d 81be 25b7 afbd
00000030: cf2a a23d 7bd8 90bd e800 b53e 14b8 19bd
00000040: 363d 36be eb3b 213e 380d f8bc 731d 77be
00000050: 7cfc 19be 81f6 40be d32d 643e 4964 c8bd
00000060: dd60 b3be 54d6 883d fe5d 0d3f 5b86 aa3e
00000070: d44f 713d e172 22be 182f 22bb db8b da3e
00000080: eac5 2fbe e35d 45be 03c8 8d3d 88ab 02be
00000090: 3f6c ae3e 24d9 aa3e d5d5 45be 30d7 e13d
000000a0: d933 063e 813d d63e c167 dabd 11ec 8a3e
000000b0: 986d a53b 6176 fabd c9a8 17bc cb63 adbd
000000c0: 2ab3 99bc 749c a33e 4f20 4f3f f011 59be
000000d0: bbce 32be b616 f43e 0699 a53e 58f8 febd
000000e0: f02b 283e 0d43 783e 07cc dabe 1476 6abe
000000f0: ff3f 933c 1225 73be 75f6 7f3e aa4f 043f
00000100: e898 bd3d 8edb 3abe 96a6 073e 4dc3 e1bd
00000110: a118 9d3e 5956 053f 3605 813e 32f6 4cbc
00000120: de78 3b3e 114d 39be 06b4 083d 19d6 a13e
00000130: 724c 6e3e 8ad4 a93e 1401 8c3e bd27 b63d
00000140: 2829 ccbd 606c 86bd 378a 143f 761b f03d
00000150: fb47 913e ea41 74bd 0add 20be 96f6 203f
00000160: 85de 793e a1f6 103e 7024 bdbd 2eb4 4c3e
00000170: 9c90 4f3d 5648 08bd ac29 b1bd db87 d9bd
00000180: 3b26 55be 4fac debc d35a 4d3d c3f0 223e
00000190: c30f 42be 7295 a63d 89f0 ac3e a92a 283e
000001a0: b41a 183e 1963 7ebe c813 893e edd6 353e
000001b0: e6cc 1d3e de94 dcbd 4780 82be 94e8 05be
000001c0: 0b19 123d 18b6 c23d 460f bb3e 9a28 35bc
000001d0: b54d 2b3d 6636 8c3e d799 343e 6de7 8a3e
000001e0: c3d7 0d3e afa8 e53d d171 733d 5593 96bd
000001f0: 5587 b73e eb69 23bd 8a35 57be 4bb8 e83e

net.2.weight f4 [128, 128]
0.058570687 -0.07954026 -0.08751288 0.0051184893 -0.046816297 -0.04388433 -0.010949887 -0.104235984
0.03497612 -0.043545004 0.07334224 -0.11165142 -0.04165058 -0.0021821633 0.026812568 0.06791148
-0.007337639 -0.025490656 -0.012894985 -0.034159765 -0.003940709 0.007285334 0.0085258335 0.01168088
0.03983717 -0.032451168 -0.13527194 0.011567421 -0.03303971 0.055885457 -0.0543876 -0.0072642416
0.02867989 0.050049648 -0.11651993 -0.03642589 -0.08101821 -0.101012416 -0.033035383 0.011344132
-0.11708328 -0.043612506 0.042169888 0.003233197 0.04825499 0.086358644 -0.0008075392 -0.08538355
-0.085407786 -0.0881648 -0.08732188 0.008212492 0.04590714 -0.085516736 -0.06041438 -0.042764217
0.06520531 -0.004378616 0.0043284 0.07265892 -0.017459882 0.014482319 -0.042278375 -0.09759396
0.038522072 0.07070138 -0.027410202 -0.022429898 0.07716178 0.022974446 0.0053680763 0.013530433
0.008247476 0.00013497472 -0.07207922 -0.0015046226 0.00964349 -0.057449833 0.019418513 0.051114175
-0.08560176 -0.10938083 -0.08112227 0.0026315302 -0.02650365 -0.12238556 -0.003690116 -0.11759912
0.08366207 0.05693219 -0.08672924 -0.14587942 -0.09982636 -0.06084787 0.059220456 0.032540664
0.03791494 -0.08659764 -0.07010228 -0.0053318576 0.06786623 -0.019750575 -0.101863906 0.0055245827
-0.038220238 -0.03879252 -0.096870966 -0.09648532 0.052816235 -0.042748768 -0.068763055 0.006748452
-0.02786798 0.054785892 0.008283368 -0.04134787 0.011615812 -0.058232937 -0.039547868 -0.05864168
-0.06624325 -0.03745657 -0.097376704 0.044024028 -0.058427356 -0.054711517 0.07987925 0.027473293
0.03873422 -0.117237404 0.056938075 -0.013838939 -0.09397459 0.040853985 0.06570261 -0.04691863
0.033897426 -0.017673582 -0.04040664 0.018567422 -0.06327444 0.05463019 -0.055680964 -0.074468926
-0.111812696 -0.04597552 0.023748944 0.07946246 -0.010985488 -0.00344792 0.0071295025 0.059002142
-0.010169428 -0.014767097 -0.06882853 -0.024354134 -0.106781065 0.014673069 -0.019612748 -0.062285524
0.005480689 -0.11811272 -0.10313542 0.0305477 -0.12345919 -0.12932517 0.008151081 0.0485584
0.034379818 -0.07394196 0.004935329 0.0061294804 -0.042533617 -0.005947277 -0.10927517 -0.1097229
-0.0057688714 -0.08384516 -0.03436002 0.014966904 0.01820076 -0.059446022 -0.023599016 0.078630485
-0.020925974 -0.051398613 -0.15564854 0.0025588423 0.020108528 -0.018681824 -0.05697523 -0.02618444
-0.05683635 0.020777132 0.0050238236 -0.06826323 -0.02710547 -0.015276048 -0.021111757 0.0031430777
-0.10084835 0.08924175 -0.10588331 0.028988559 -0.038776886 -0.02618907 -0.05050742 0.03707094
-0.034773268 -0.0016990433 -0.11889168 -0.027182931 0.056987163 -0.055593003 -0.0661429 -0.0050866585
-0.059824176 0.007822868 -0.07182668 -0.08556944 -0.07278605 -0.037147067 -0.06231988 0.023445025
0.035267994 -0.032913335 -0.08661187 0.004060424 0.08393627 -0.0818429 0.028631534 0.04007611
0.004341149 -0.0130691435 0.024450881 -0.085710764 -0.05499651 -0.02818986 0.04635218 0.002061845
0.002448661 -0.046004474 -0.0034533336 0.0120515935 -0.013195573 -0.048386693 -0.1276657 -0.07406881
-0.036717508 0.01690017 0.05720858 -0.0872006 -0.048447575 -0.022071578 0.0022780313 -0.09663121
00000000: d1e7 6f3d 01e6 a2bd f439 b3bd 00b9 a73b
00000010: 72c2 3fbd 0ec0 33bd 2867 33bc ad79 d5bd
00000020: 1f43 0f3d 3f5c 32bd 7534 963d 80a9 e4bd
00000030: cc99 2abd a002 0fbb 08a6 db3c 2d15 8b3d
00000040: 9470 f0bb c8d1 d0bc 7d45 53bc 1ceb 0bbd
00000050: 1021 81bb d0b9 ee3b f0af 0b3c 2961 3f3c
00000060: 4d2c 233d 84eb 04bd ba84 0abe 4885 3d3c
00000070: a654 07bd 26e8 643d 88c5 5ebd e008 eebb
00000080: 17f2 ea3c dc00 4d3d 00a2 eebd 5033 15bd
00000090: e0ec a5bd 99df cebd 1c50 07bd bddc 393c
000000a0: 5cc9 efbd 07a3 32bd 55ba 2c3d 0be4 533b
000000b0: 06a7 453d cddc b03d 0ab1 53ba 92dd aebd
000000c0: 47ea aebd bf8f b4bd d0d5 b2bd b08d 063c
000000d0: 2009 3c3d 6623 afbd 1275 77bd 8829 2fbd
000000e0: 5d8a 853d 7e7a 8fbb 40d5 8d3b 33ce 943d
000000f0: 0708 8fbc 4047 6d3c 172c 2dbd 58df c7bd
00000100: 52c9 1d3d e3cb 903d 5c8b e0bc e8be b7bc
00000110: ff06 9e3d e834 bc3c b0e6 af3b c0ae 5d3c
00000120: 6c20 073c 0088 0d39 459e 93bd c236 c5ba
00000130: bbff 1d3c 8450 6bbd 9313 9f3c 195d 513d
00000140: fa4f afbd 0e03 e0bd 6f23 a6bd c075 2c3b
00000150: 2f1e d9bc 48a5 fabd e0d5 71bb cfd7 f0bd
00000160: 0557 ab3d ba31 693d 1a9f b1bd 6a61 15be
00000170: c371 ccbd 9e3b 79bd 2691 723d 5c49 053d
00000180: b24c 1b3d 1a5a b1bd c991 8fbd ddb6 aebb
00000190: 73fd 8a3d f5cb a1bc 069e d0bd 8f07 b53b
000001a0: d38c 1cbd e8e4 1ebd 4964 c6bd 189a c5bd
000001b0: d655 583d 5519 2fbd a5d3 8cbd 1e22 dd3b
000001c0: 644b e4bc 2c67 603d f7b6 073c 625c 29bd
000001d0: 3f50 3e3c a985 6ebd f2fc 21bd 4232 70bd
000001e0: 8baa 87bd 0f6c 19bd 706d c7bd 8a52 343d
000001f0: 8651 6fbd 2f19 60bd bb97 a33d ac0f e13c
00000200: c6a7 1e3d 2a1a f0bd e637 693d b8bc 62bc
00000210: c075 c0bd 8256 273d 178f 863d c02d 40bd
00000220: 07d8 0a3d 30c8 90bc 6f81 25bd b51a 983c
00000230: 0896 81bd e8c3 5f3d b911 64bd 2a83 98bd
00000240: 0efe e4bd d450 3cbd 258d c23c 37bd a23d
00000250: 7afc 33bc 80f6 61bb 9a9e e93b 3bac 713d
00000260: ac9d 26bc b2f1 71bc f9f5 8cbd 5282 c7bc
00000270: 08b0 dabd 5067 703c eaaa a0bc 1b1f 7fbd
00000280: 5a97 b33b 15e5 f1bd aa38 d3bd 2c3f fa3c
00000290: 2cd8 fcbd d16d 04be 1d8c 053c 2ce5 463d
000002a0: dad1 0c3d e26e 97bd 8ab8 a13b cfd9 c83b
000002b0: bb37 2ebd 60e1 c2bb a9cb dfbd 66b6 e0bd
000002c0: cd08 bdbb 03b7 abbd 18bd 0cbd bf37 753c
000002d0: c319 953c ac7d 73bd b952 c1bc 0509 a13d
000002e0: f36c abbc 5a87 52bd 5562 1fbe 40b2 273b
000002f0: a4ba a43c a00a 99bc dc5e 69bd c080 d6bc
00000300: 3ccd 68bd ce34 aa3c e39e a43b 98cd 8bbd
00000310: 4a0c debc 6448 7abc 90f2 acbc 18fc 4d3b
00000320: 9489 cebd 61c4 b63d 59d9 d8bd 6a79 ed3c
00000330: 83d4 1ebd 768a d6bc dee0 4ebd b3d7 173d
00000340: 6a6e 0ebd 6fb2 deba 7b7d f3bd bdae debc
00000350: 5f6b 693d 7db5 63bd ee75 87bd fcad a6bb
00000360: 320a 75bd 7d2b 003c de19 93bd 083f afbd
00000370: da10 95bd 8627 18bd 2143 7fbd c80f c03c
00000380: 2c75 103d 22d0 06bd 9061 b1bd 4e0d 853b
00000390: c7e6 ab3d 409d a7bd ae8c ea3c d926 243d
000003a0: 3240 8e3b f61f 56bc 374d c83c 2089 afbd
000003b0: 0544 61bd 6cee e6bc c9db 3d3d 0520 073b
000003c0: b779 203b 306f 3cbd 5351 62bb 0c74 453c
000003d0: 3f32 58bc 2031 46bd ccba 02be 63b1 97bd
000003e0: 1965 16bd 3a72 8a3c 8b53 6a3d 3a96 b2bd
000003f0: f770 46bd 74cf b4bc 064b 153b 95e6 c5bd

net.2.bias f4 [128]
-0.10628247 -0.044025905 -0.13019028 -0.070353255 0.21627307 0.84001166 0.13382137 -0.11191829
-0.1138168 -0.6136582 -0.054914206 0.024064813 -0.038778123 -0.07070505 -0.12702863 0.7073793
0.56407243 -0.14187758 0.5498618 -0.24023554 -0.08751678 0.5091313 -0.07227208 -0.15977249
0.84292674 1.3836203 0.28002375 0.9505446 -0.10576481 -0.09929036 -0.11326934 -0.06911677
0.48695916 0.47480708 1.4707791 -0.1197778 -0.28241864 -0.02225075 0.9604879 1.1612957
-0.028130569 -0.019999584 1.4142873 -0.105813205 0.8103912 0.6417533 1.1239654 -0.0287607
-0.0028035685 0.69366264 1.0088414 -0.0458385 0.45984486 0.46421334 0.044032037 -0.06413099
-0.09761391 0.2553968 0.56780094 0.48269472 0.5982169 -0.10837188 0.80001736 -0.08123868
-0.026094152 1.2124711 -0.02896566 -0.10026239 -0.08347604 0.56425214 1.3093449 -0.07136774
1.3461322 -0.058761816 -0.042437356 -0.5479262 1.5043726 0.4105966 -0.008987418 0.06334238
-0.3616792 -0.12619424 0.115945846 -0.09282251 0.0064739375 0.74317676 -0.08931606 0.03361156
0.27310386 -0.097656496 0.273159 0.013953621 0.5450445 0.86794984 -0.16503082 -0.12917805
-0.18429348 1.7161744 -0.12190697 -0.08509772 1.254485 1.477578 -0.018250726 -0.081502594
-0.00483776 0.34282982 -0.08026232 -0.11197482 0.58990157 -0.096436605 -0.12096919 -0.091984734
0.5499748 0.26956236 0.752386 -0.016046459 0.021418246 -0.12188914 -0.1379533 0.4776443
0.8236784 1.5387357 0.03404622 0.4670672 -0.037441347 0.81582284 -0.51463866 0.46919706
00000000: a0aa d9bd 8254 34bd 9a50 05be 5e15 90bd
00000010: b076 5d3e 010b 573f 7808 093e 6b35 e5bd
00000020: c818 e9bd b418 1dbf b8ed 60bd 9223 c53c
00000030: cfd5 1ebd cfcd 90bd cb13 02be cf16 353f
00000040: 0d67 103f 5b48 11be bec3 0c3f 4e00 76be
00000050: ff3b b3bd 6e56 023f 6203 94bd 669b 23be
00000060: 0cca 573f 781a b13f 465f 8f3e e456 733f
00000070: 399b d8bd bf58 cbbd c1f9 e7bd 188d 8dbd
00000080: b652 f93e ea19 f33e 7d42 bc3f 104e f5bd
00000090: 2d99 90be 3447 b6bc 89e2 753f 56a5 943f
000000a0: 1472 e6bc 2bd6 a3bc 5e07 b53f 98b4 d8bd
000000b0: cc75 4f3f f249 243f 19de 8f3f 8f9b ebbc
000000c0: 13bc 37bb e093 313f b721 813f 27c1 3bbd
000000d0: c970 eb3e 5fad ed3e f05a 343d 1c57 83bd
000000e0: cde9 c7bd 5fc3 823e 675b 113f c323 f73e
000000f0: be24 193f 14f2 ddbd f0cd 4c3f 7760 a6bd
00000100: 67c3 d5bc 4132 9b3f 6449 edbc 5e56 cdbd
00000110: 7cf5 aabd d472 103f 9d98 a73f 4029 92bd
00000120: 0f4e ac3f 3bb0 70bd cbd2 2dbd e444 0cbf
00000130: 488f c03f b839 d23e f73f 13bc a6b9 813d
00000140: 042e b9be 1039 01be 0475 ed3d ba19 bebd
00000150: 5323 d43b d540 3e3f 57eb b6bd 46ac 093d
00000160: 45d4 8b3e 2100 c8bd 7fdb 8b3e ba9d 643c
00000170: 0988 0b3f f631 5e3f d7fd 28be 4047 04be
00000180: 6eb7 3cbe 9aab db3f 5daa f9bd b747 aebd
00000190: f792 a03f 4721 bd3f 8c82 95bc d5ea a6bd
000001a0: 1286 9ebb 6487 af3e 9260 a4bd 0e53 e5bd
000001b0: ca03 173f 8e80 c5bd b2be f7bd 7e62 bcbd
000001c0: 26cb 0c3f 1404 8a3e 5e9c 403f dd73 83bc
000001d0: 5175 af3c 03a1 f9bd a143 0dbe cb8d f43e
000001e0: 96dc 523f 4bf5 c43f 0d74 0b3d 6f23 ef3e
000001f0: 195c 19bd c4d9 503f 5cbf 03bf 993a f03e

net.4.weight f4 [13, 128]
0.08779054 0.09224556 0.0024999038 -0.014023069 2.7208624 2.216226 1.5998411 0.023587989
-0.07232309 -1.0033828 0.07787834 -0.04754981 -0.051035743 0.07064933 -0.03013549 1.4649061
2.0948105 0.10691954 2.4172008 0.08415091 0.029375548 2.159286 -0.08127269 -0.06861572
0.7708508 0.4681925 1.6563301 0.5748346 0.050143994 0.037201516 -0.012421195 -0.022715107
1.7145598 2.7776604 0.46196383 0.025540002 0.12681328 -0.04820741 1.5118462 0.6269021
0.04329788 -0.07748723 0.49055463 0.06330652 1.1060066 2.568835 0.31889775 -0.061578568
-0.051926292 1.1193166 0.32090107 -0.0055661495 1.7098289 1.7547587 -0.14187299 0.0065582143
-0.21234617 1.8499327 2.073998 2.0653172 1.3186139 -0.024081333 0.77899 -0.49519613
-0.055317454 0.5022391 -0.024253383 0.06752027 0.052350566 2.346393 0.38853008 -0.24381799
0.46894374 0.030753978 0.07098758 -0.92193824 0.51363665 2.74733 0.0062289084 0.0013842846
-1.419444 -0.07385582 2.2318933 -0.010897487 0.059280567 1.6277456 0.0004930104 0.07746714
2.2147424 0.0108699305 1.5095198 -0.005219925 1.1803535 0.47835046 0.16936877 -0.030020531
0.76114804 0.74398226 0.008327156 0.00853861 0.48639196 0.49107853 -0.075542055 -0.052479126
-0.024521697 2.2601452 -0.0363895 -0.0150744915 2.2425032 -0.05471213 -0.06310478 0.04179284
2.5035355 1.5365183 2.0647957 0.031015363 -0.012070839 -0.030408757 0.032256227 1.5864872
1.5494955 0.5899904 -1.459305 1.6862626 -0.07325942 3.0348845 -0.79549813 1.9835278
-0.038653094 -0.024319304 -0.05812137 -0.01684556 2.504226 3.1480129 1.6463325 0.06670548
-0.07328729 -0.8590273 0.049764715 -0.0065977853 0.06329689 0.027033716 0.0624809 1.5119425
1.9206393 0.28490856 2.2421825 0.33813947 -0.008021701 2.30791 0.06657482 0.009926346
1.4245654 0.50819004 1.4637437 0.6916466 0.042702027 -0.03589069 -0.039671768 -0.05129649
1.5928293 2.7291203 0.53806263 -0.07278907 0.553601 0.0022144767 1.3153981 0.41077006
-0.058385488 0.04743506 0.43409708 0.05992966 0.8557764 2.6380398 0.6238572 -0.06669447
-0.03710043 1.4778357 0.58721477 0.061464105 1.624916 2.1611161 0.0027836612 0.08601787
0.18415588 2.1223977 2.0049622 1.9407054 1.654673 -0.011771708 0.71557754 -0.702481
0.017721705 0.45280844 -0.06271493 0.018611053 -0.031342655 2.0688448 0.4545061 0.04330246
0.48230764 -0.016132759 -0.05589342 -1.5223527 0.6257884 2.4441707 0.020059815 0.017117314
-1.1485444 -0.05959215 2.0084412 -0.066778235 0.06740544 1.5913289 0.03375311 -0.040938683
2.2850897 0.015302174 1.7575626 -0.08095368 1.5555149 0.6325207 0.049303528 0.007671965
0.6508791 0.72597224 -0.051301174 -0.0027297167 0.4875437 0.39931345 -0.09316364 -0.09653365
0.08801677 2.6570513 0.07989664 -0.060861208 1.9878523 -0.06444784 -0.117724776 0.047086418
2.381717 1.942373 1.6772438 0.04054073 0.014894179 -0.06432678 0.06385257 1.5397189
1.7490885 0.46916756 -1.1411151 2.0834394 -0.03211439 2.5875087 -1.1287177 1.6541613
00000000: 87cb b33d 3deb bc3d 6dd5 233b 04c1 65bc
00000010: 9c22 2e40 a6d6 0d40 98c7 cc3f 993b c13c
00000020: 211e 94bd d96e 80bf ae7e 9f3d 97c3 42bd
00000030: db0a 51bd 99b0 903d b4de f6bc 0b82 bb3f
00000040: 6011 0640 a2f8 da3d 6bb3 1a40 5057 ac3d
00000050: fda4 f03c be31 0a40 4c72 a6bd 6686 8cbd
00000060: 7a56 453f edb6 ef3e a002 d43f 5c28 133f
00000070: ca63 4d3d 9e60 183d 4582 4bbc 0815 babc
00000080: b276 db3f 30c5 3140 8686 ec3e 4439 d13c
00000090: 57db 013e 2275 45bd 2d84 c13f a87c 203f
000000a0: 1e59 313d a0b1 9ebd fa29 fb3e d9a6 813d
000000b0: a091 8d3f cb67 2440 9146 a33e cf39 7cbd
000000c0: aab0 54bd c445 8f3f 254d a43e 3f64 b6bb
000000d0: acdb da3f ef9b e03f 2747 11be 4ae6 d63b
000000e0: 4671 59be 98ca ec3f 62bc 0440 282e 0440
000000f0: 57c8 a83f 3746 c5bc e36b 473f 598a fdbe
00000100: 8e94 62bd be92 003f 08af c6bc 1148 8a3d
00000110: 8c6d 563d 4e2b 1640 6aed c63e 6cab 79be
00000120: 6519 f03e c4ef fb3c f061 913d 2504 6cbf
00000130: b17d 033f 41d4 2f40 df1b cc3b e270 b53a
00000140: 57b0 b5bf b841 97bd 57d7 0e40 608b 32bc
00000150: 2ed0 723d f859 d03f 5e3d 013a 18a7 9e3d
00000160: 57be 0d40 cb17 323c f237 c13f e80b abbb
00000170: d315 973f 5aea f43e 026f 2d3e 9eed f5bc
00000180: 99da 423f 9f75 3e3f a06e 083c 87e5 0b3c
00000190: 5e08 f93e a56e fb3e cbb5 9abd 5af4 56bd
000001a0: bae1 c8bc 38a6 1040 280d 15bd 00fb 76bc
000001b0: 2c85 0f40 d419 60bd 143d 81bd f82e 2b3d
000001c0: ed39 2040 a2ac c43f 9d25 0440 ee13 fe3c
000001d0: c5c4 45bc c91b f9bc 1b1f 043d 0312 cb3f
000001e0: de55 c63f 9c09 173f 82ca babf 74d7 d73f
000001f0: 0909 96bd 8c3b 4240 c4a5 4bbf 3de4 fd3f
00000200: b552 1ebd 4739 c7bc ac10 6ebd b3ff 89bc
00000210: 3d45 2040 0b79 4940 06bb d23f e29c 883d
00000220: a617 96bd 37e9 5bbf 16d6 4b3d 3c32 d8bb
00000230: cda1 813d d075 dd3c f9eb 7f3d 5587 c13f
00000240: 82d7 f53f 89df 913e eb7f 0f40 9e20 ad3e
00000250: 746d 03bc ccb4 1340 6158 883d 1da2 223c
00000260: 2958 b63f be18 023f f45b bb3f c00f 313f
00000270: 52e8 2e3d 1e02 13bd dd7e 22bd 451c 52bd
00000280: d5e1 cb3f e8a9 2e40 79be 093f 7012 95bd
00000290: ccb8 0d3f c120 113b f75e a83f 7450 d23e
000002a0: 9f25 6fbd 444b 423d f941 de3e ce78 753d
000002b0: 2a14 5b3f a5d5 2840 1bb5 1f3f 1c97 88bd
000002c0: 9ff6 17bd b829 bd3f b553 163f c9c1 7b3d
000002d0: 3ffd cf3f ba4f 0a40 166e 363b 232a b03d
000002e0: 5c93 3c3e 5dd5 0740 4d51 0040 0969 f83f
000002f0: 53cc d33f 1fde 40bc 1730 373f cbd5 33bf
00000300: 1c2d 913c 82d6 e73e af70 80bd 3576 983c
00000310: 2861 00bd f467 0440 06b5 e83e ec5d 313d
00000320: 07f1 f63e d928 84bc 80f0 64bd 74dc c2bf
00000330: ab33 203f 4b6d 1c40 7b54 a43c 9c39 8c3c
00000340: 8103 93bf e616 74bd 4d8a 0040 07c3 88bd
00000350: dd0b 8a3d aab0 cb3f b340 0a3d 52af 27bd
00000360: e93e 1240 f8b5 7a3c d0f7 e03f 0bcb a5bd
00000370: 1d1b c73f e0ec 213f 7ff2 493d 1b65 fb3b
00000380: 03a0 263f 51d9 393f 2e21 52bd 0ce5 32bb
00000390: 549f f93e d072 cc3e 94cc bebd 6fb3 c5bd
000003a0: 2342 b43d 210d 2a40 d9a0 a33d 9a49 79bd
000003b0: f271 fe3f 3bfd 83bd b019 f1bd b0dd 403d
000003c0: 0d6e 1840 ae9f f83f edaf d63f 090e 263d
000003d0: b706 743c c2bd 83bd 23c5 823d 8215 c53f
000003e0: 22e2 df3f bb36 f03e 0f10 92bf 1257 0540
000003f0: 618a 03bd be99 2540 d279 90bf 8fbb d33f

net.4.bias f4 [13]
1.1221594 1.1698035 1.0074079 1.042355 1.3038551 0.965457 1.4498124 1.1860396
0.8532579 0.90401244 0.6767939 1.107944 0.8820494
00000000: eba2 8f3f 1fbc 953f bef2 803f e36b 853f
00000010: b9e4 a63f 3128 773f 7493 b93f 25d0 973f
00000020: 1c6f 5a3f 5c6d 673f 5d42 2d3f 1cd1 8d3f
00000030: fdcd 613f

net.0.weight f4 [128, 53]
-0.92005026 -0.032680802 -0.18446943 0.3044666 0.32216993 -0.009323743 -0.45882207 -0.28706014
1.1611582 0.15305437 -1.520303 -0.97233146 0.17960317 -0.5615195 0.42276344 -0.18454346
1.174317 -0.56505 0.95106375 -0.0340461 0.53610635 1.0458378 1.871945 -0.0145735135
0.16469519 -0.95158046 -2.732416 -0.76814353 -0.38841435 -1.0886457 -1.1631389 1.1847535
-1.1230129 -0.09140518 -0.29454365 -1.2833327 -0.575288 0.6578061 -1.1032051 0.0863453
-0.67109054 -0.106309526 -0.25218046 0.35217598 -0.008345891 -0.14612561 -0.17784101 0.88084984
-0.43207723 -0.19813533 -0.45211565 0.55908567 -0.35339206 -0.35618618 0.5733818 -0.35803583
2.0183659 0.35337797 0.20326309 -0.2022821 0.64760786 0.47262374 0.2140521 0.81703067
0.39208755 0.34618 0.09415206 -0.54381794 -0.6928494 1.0051311 -1.6928473 -0.23660724
0.8394741 -0.6839377 0.660621 0.24052516 -0.7078081 -1.4263936 -0.442167 -0.5805012
0.4328154 0.73482513 -0.3018513 -0.6752458 1.393497 1.1972711 0.5997755 -0.10327244
0.9019727 -0.799211 -0.5360978 -0.3173046 -0.19569245 -2.185984 0.9972264 -2.1413445
1.2532061 -1.1924245 0.07956728 0.26249385 0.3197243 -0.9135432 0.31822336 -0.81541216
0.45214248 -0.5245347 -0.16928372 -0.018812113 0.06936291 -0.9623407 0.5468542 0.34462848
0.111378565 -0.09356354 0.35565418 -0.0005298854 -0.7925308 0.011552573 -0.50735575 0.6952364
-0.14733566 0.46362716 -0.53734356 0.8917866 0.73843616 0.19115026 0.250347 -0.098799385
-0.22922064 0.09770528 -0.008768788 -0.11222577 0.6635168 -0.64157045 0.33863866 0.087107696
-0.10374212 -0.34074467 -0.6264747 0.53808117 -0.53284013 0.40685403 -0.25306025 0.35294157
1.299459 -0.068857 0.3573915 -0.69441724 0.64114493 -0.6258336 -0.44617632 -0.3823956
0.0025088976 -0.07955357 -0.02993362 -0.06528406 0.06607182 0.2589902 -0.16374137 -0.93950367
0.34843644 -0.08340096 1.7954401 0.09334448 -0.17678843 1.4236246 -0.184598 0.3222844
-0.01060788 -0.30754834 -0.46114236 -0.3713358 -0.86470264 -0.36951777 0.026735246 0.42551804
0.17521463 1.354724 -0.13338278 0.9339249 -0.47642884 0.9564069 0.16843037 0.325149
-0.6672594 -1.9328089 -0.3354491 -1.1753122 -1.169243 -0.6275977 0.5627506 0.1783281
1.7410642 0.37318602 -0.45175296 0.030997686 -0.8115583 -1.4820323 0.2954305 -0.4459486
0.46286675 -0.19295606 0.36891693 0.05859699 0.23874818 0.0881676 1.0667887 -0.105466396
0.32577458 -0.047686506 -0.54905915 0.17812237 0.07331429 -0.14072387 -0.82476026 -1.2510448
0.20271796 -0.6247802 -0.059912805 -0.21068995 1.2102749 -0.5525528 0.8590186 -0.9643489
-1.3559107 0.088928394 0.30308938 -0.7328038 1.0815972 0.18534146 2.2474737 0.36220554
0.46716094 0.20081054 0.523341 1.7967861 -0.4713488 0.06265955 -0.72855765 0.09457694
1.5033065 0.014862583 0.29994637 0.875657 -0.964959 0.7131117 -0.39165923 -1.0956639
-0.31170204 0.85649586 -0.812085 0.15435107 -0.6815338 0.5801176 -0.913356 0.93479747
00000000: 6a88 6bbf 4edc 05bd 8ee5 3cbe 0ce3 9b3e
00000010: 75f3 a43e 9dc2 18bc baea eabe 8cf9 92be
00000020: d5a0 943f 49ba 1c3e 4a99 c2bf b7ea 78bf
00000030: e5e9 373e bebf 0fbf 7374 d83e f6f8 3cbe
00000040: 0550 963f 1ea7 10bf ea78 733f ec73 0bbd
00000050: 443e 093f 03de 853f e59b ef3f bfc5 6ebc
00000060: dba5 283e c79a 73bf e7df 2ec0 0ea5 44bf
00000070: 3fde c6be be58 8bbf bce1 94bf 01a6 973f
00000080: e3be 8fbf a432 bbbd 6dce 96be 3f44 a4bf
00000090: 1346 13bf fb65 283f d335 8dbf ced5 b03d
000000a0: 97cc 2bbf cfb8 d9bd cc1d 81be 6950 b43e
000000b0: 34bd 08bc f4a1 15be f41b 36be 607f 613f
000000c0: 3a39 ddbe fde3 4abe b47b e7be 3d20 0f3f
000000d0: ceef b4be 095e b6be 26c9 123f 7950 b7be
000000e0: e82c 0140 f5ed b43e 3324 503e 0a23 4fbe
000000f0: a1c9 253f bdfb f13e 7930 5b3e ec28 513f
00000100: b3bf c83e 813e b13e ccd2 c03d a737 0bbf
00000110: 945e 31bf 23a8 803f 38af d8bf 2b49 72be
00000120: c6e7 563f 8b16 2fbf 751e 293f 3a4c 763e
00000130: e932 35bf 1194 b6bf b763 e2be ba9b 14bf
00000140: fb99 dd3e 801d 3c3f 418c 9abe e9dc 2cbf
00000150: 1c5e b23f 2e40 993f e38a 193f 8080 d3bd
00000160: afe7 663f 1899 4cbf b53d 09bf c075 a2be
00000170: 9a63 48be 29e7 0bc0 3b4a 7f3f ca0b 09c0
00000180: 0f69 a03f 5ea1 98bf 2cf4 a23d 9865 863e
00000190: e7b2 a33e f8dd 69bf 2cee a23e dabe 50bf
000001a0: 387f e73e e847 06bf b658 2dbe dc1b 9abc
000001b0: 240e 8e3d f65b 76bf a3fe 0b3f 2573 b03e
000001c0: 721a e43d 3e9e bfbd 4e18 b63e 02e8 0aba
000001d0: 4ce3 4abf 0147 3d3c 11e2 01bf 03fb 313f
000001e0: 29df 16be 8a60 ed3e 598f 09bf 204c 643f
000001f0: 270a 3d3f e5bc 433e 7b2d 803e 5557 cabd
00000200: d1b8 6abe b519 c83d f6aa 0fbc a0d6 e5bd
00000210: 3ddc 293f f63d 24bf 0c62 ad3e 8565 b23d
00000220: c076 d4bd 1676 aebe a560 20bf b0bf 093f
00000230: 3668 08bf 2c4f d03e 1d91 81be c2b4 b43e
00000240: ac54 a63f e604 8dbd 05fc b63e 54c5 31bf
00000250: 1322 243f a136 20bf 3971 e4be 5bc9 c3be
00000260: 516c 243b fbec a2bd 5a37 f5bc a6b3 85bd
00000270: aa50 873d 5d9a 843e d1ab 27be 5083 70bf
00000280: 4366 b23e 1fce aabd fbd0 e53f 642b bf3d
00000290: 0708 35be 5539 b63f 4207 3dbe 7602 a53e
000002a0: accc 2dbc fa76 9dbe da1a ecbe ba1f bebe
000002b0: 275d 5dbf 6f31 bdbe e003 db3c 80dd d93e
000002c0: 776b 333e 9967 ad3f 7f95 08be b415 6f3f
000002d0: 7bee f3be 15d7 743f 0379 2c3e ee79 a63e
000002e0: 83d1 2abf 4866 f7bf fcbf abbe a170 96bf
000002f0: c1a9 95bf 3eaa 20bf 6c10 103f a49b 363e
00000300: 31db de3f 3d12 bf3e 2a4c e7be dcee fd3c
00000310: 49c2 4fbf 3cb3 bdbf ab42 973e 6053 e4be
00000320: dffc ec3e 4696 45be aee2 bc3e 6603 703d
00000330: 677a 743e 3791 b43d 888c 883f c4fe d7bd
00000340: edcb a63e ed52 43bd 248f 0cbf b665 363e
00000350: cd25 963d eb19 10be 7d23 53bf 3c22 a0bf
00000360: 4c95 4f3e 98f1 1fbf 2167 75bd 1bbf 57be
00000370: 4aea 9a3f 1a74 0dbf a5e8 5b3f 92df 76bf
00000380: 7b8e adbf 1720 b63d 882e 9b3e 0899 3bbf
00000390: c771 8a3f 27ca 3d3e 9cd6 0f40 0173 b93e
000003a0: b82f ef3e 47a1 4d3e adf9 053f 16fd e53f
000003b0: a154 f1be a653 803d c182 3abf 8eb1 c13d
000003c0: 596c c03f 3182 733c 9292 993e 0f2b 603f
000003d0: 8e07 77bf 7d8e 363f 8f87 c8be b73e 8cbf
000003e0: 6997 9fbe 5043 5b3f cde4 4fbf 350e 1e3e
000003f0: 0079 2ebf 9682 143f b3d1 69bf e34e 6f3f

net.0.bias f4 [128]
-0.39497024 0.08148721 -0.1110385 0.27961463 -0.15041085 -0.016154109 -0.05183409 0.34674752
0.026559 -0.18570247 -0.25266692 -0.084537596 0.07458117 -0.0723356 0.353155 -0.037529066
-0.17678551 0.15639527 -0.030082881 -0.24315745 -0.15033919 -0.18844034 0.22650936 -0.09850268
-0.34841368 0.06948778 0.5510677 0.32643312 0.057435315 -0.15864135 0.0023219278 0.42682773
-0.17514963 -0.19560824 0.06795795 -0.12725331 0.34077668 0.33323047 -0.19319852 0.107244976
0.13050722 0.41663373 -0.103790365 0.26788905 0.003686076 -0.1222961 -0.01093638 -0.08779957
-0.020643972 0.31908432 0.80885077 -0.21198249 -0.17613184 0.47697794 0.32381356 -0.124497116
0.1636182 0.24380763 -0.42520967 -0.22896606 0.01679452 -0.2374461 0.25091973 0.516727
0.09325354 -0.17807932 0.13220851 -0.11165715 0.3067471 0.5197594 0.2526253 -0.008739189
0.18256226 -0.1827559 0.032548904 0.3149312 0.23320332 0.3282796 0.27324525 0.08927752
-0.099687874 -0.07010485 0.5794468 0.11758058 0.28327248 -0.05885992 -0.15758157 0.6281742
0.24546464 0.14264695 -0.089370824 0.20148955 0.049865484 -0.032483317 -0.08346967 -0.106216155
-0.20815365 -0.021323023 0.050773166 0.16370235 -0.18951325 0.08420965 0.33743483 0.16494182
0.1410533 -0.25006977 0.26809812 0.1760335 0.14915635 -0.10747152 -0.25488493 -0.12955244
0.034450155 0.09308804 0.36699992 -0.010987438 0.042883053 0.27538896 0.17680486 0.27223882
0.14047688 0.11336069 0.056359306 -0.07268948 0.35999963 -0.03619107 -0.20675223 0.4548515
00000000: 8a39 cabe c4e2 a63d 2768 e3bd a629 8f3e
00000010: 4d05 1abe 9f55 84bc fc4f 54bd e488 b13e
00000020: 4392 d93c ca28 3ebe 8f5d 81be 0c22 adbd
00000030: 03be 983d b024 94bd bbd0 b43e 14b8 19bd
00000040: 4307 35be 1526 203e 6070 f6bc 44fe 78be
00000050: 84f2 19be 81f6 40be 12f2 673e c6bb c9bd
00000060: 4763 b2be 9c4f 8e3d c612 0d3f 3e22 a73e
00000070: 4b41 6b3d e172 22be 7c2b 183b 2a89 da3e
00000080: 6d5a 33be 874d 48be 8a2d 8b3d b14e 02be
00000090: 487a ae3e 2f9d aa3e d5d5 45be 41a3 db3d
000000a0: afa3 053e 0451 d53e 0b90 d4bd c128 893e
000000b0: 1892 713b 6176 fabd 812e 33bc 43d0 b3bd
000000c0: 8c1d a9bc 055f a33e d810 4f3f f011 59be
000000d0: e85b 34be 7436 f43e e4ca a53e 58f8 febd
000000e0: 888b 273e b5a8 793e 15b5 d9be 1476 6abe
000000f0: a994 893c 1225 73be 8d78 803e 3848 043f
00000100: b6fb be3d 6d5a 36be ab61 073e 81ac e4bd
00000110: f50d 9d3e f40e 053f 1a58 813e d12e 0fbc
00000120: 9af1 3a3e 5d24 3bbe 0052 053d aa3e a13e
00000130: dacc 6e3e 4414 a83e cde6 8b3e 22d7 b63d
00000140: 2829 ccbd 2293 8fbd a056 143f 16ce f03d
00000150: 1709 913e 1917 71bd 105d 21be 06d0 203f
00000160: 155b 7b3e 0b12 123e 0d08 b7bd 4753 4e3e
00000170: c03f 4c3d 3a0d 05bd 25f2 aabd db87 d9bd
00000180: 3b26 55be 9fad aebc 86f7 4f3d 97a1 273e
00000190: c30f 42be 1c76 ac3d 42c4 ac3e 82e6 283e
000001a0: 4770 103e 2509 80be 2844 893e 2042 343e
000001b0: 71bc 183e 071a dcbd 4780 82be 65a9 04be
000001c0: 9b1b 0d3d f1a4 be3d 6ae7 bb3e a804 34bc
000001d0: 24a6 2f3d c8ff 8c3e 550c 353e e362 8b3e
000001e0: 2cd9 0f3e a629 e83d 04d9 663d 39de 94bd
000001f0: df51 b83e 163d 14bd dbb6 53be 4ce2 e83e

net.2.weight f4 [128, 128]
0.058570687 -0.07954026 -0.08751288 0.0051184893 -0.046816297 -0.04388433 -0.010949887 -0.104235984
0.03497612 -0.043545004 0.07334224 -0.11165142 -0.04165058 -0.0021821633 0.026812568 0.06791148
-0.007337639 -0.025490656 -0.012894985 -0.034159765 -0.003940709 0.007285334 0.0085258335 0.01168088
0.03983717 -0.032451168 -0.13527194 0.011567421 -0.03303971 0.055885457 -0.0543876 -0.0072642416
0.02867989 0.050049648 -0.11651993 -0.03642589 -0.08101821 -0.101012416 -0.033035383 0.011344132
-0.11708328 -0.043612506 0.042169888 0.003233197 0.04825499 0.086358644 -0.0008075392 -0.08538355
-0.085407786 -0.0881648 -0.08732188 0.008212492 0.04590714 -0.085516736 -0.06041438 -0.042764217
0.06520531 -0.004378616 0.0043284 0.07265892 -0.017459882 0.014482319 -0.042278375 -0.09759396
0.038522072 0.07070138 -0.027410202 -0.022429898 0.07716178 0.022974446 0.0053680763 0.013530433
0.008247476 0.00013497472 -0.07207922 -0.0015046226 0.00964349 -0.057449833 0.019418513 0.051114175
-0.08560176 -0.10938083 -0.08112227 0.0026315302 -0.02650365 -0.12238556 -0.003690116 -0.11759912
0.08366207 0.05693219 -0.08672924 -0.14587942 -0.09982636 -0.06084787 0.059220456 0.032540664
0.03791494 -0.08659764 -0.07010228 -0.0053318576 0.06786623 -0.019750575 -0.101863906 0.0055245827
-0.038220238 -0.03879252 -0.096870966 -0.09648532 0.052816235 -0.042748768 -0.068763055 0.006748452
-0.02786798 0.054785892 0.008283368 -0.04134787 0.011615812 -0.058232937 -0.039547868 -0.05864168
-0.06624325 -0.03745657 -0.097376704 0.044024028 -0.058427356 -0.054711517 0.07987925 0.027473293
0.03873422 -0.117237404 0.056938075 -0.013838939 -0.09397459 0.040853985 0.06570261 -0.04691863
0.033897426 -0.017673582 -0.04040664 0.018567422 -0.06327444 0.05463019 -0.055680964 -0.074468926
-0.111812696 -0.04597552 0.023748944 0.07946246 -0.010985488 -0.00344792 0.0071295025 0.059002142
-0.010169428 -0.014767097 -0.06882853 -0.024354134 -0.106781065 0.014673069 -0.019612748 -0.062285524
0.005480689 -0.11811272 -0.10313542 0.0305477 -0.12345919 -0.12932517 0.008151081 0.0485584
0.034379818 -0.07394196 0.004935329 0.0061294804 -0.042533617 -0.005947277 -0.10927517 -0.1097229
-0.0057688714 -0.08384516 -0.03436002 0.014966904 0.01820076 -0.059446022 -0.023599016 0.078630485
-0.020925974 -0.051398613 -0.15564854 0.0025588423 0.020108528 -0.018681824 -0.05697523 -0.02618444
-0.05683635 0.020777132 0.0050238236 -0.06826323 -0.02710547 -0.015276048 -0.021111757 0.0031430777
-0.10084835 0.08924175 -0.10588331 0.028988559 -0.038776886 -0.02618907 -0.05050742 0.03707094
-0.034773268 -0.0016990433 -0.11889168 -0.027182931 0.056987163 -0.055593003 -0.0661429 -0.0050866585
-0.059824176 0.007822868 -0.07182668 -0.08556944 -0.07278605 -0.037147067 -0.06231988 0.023445025
0.035267994 -0.032913335 -0.08661187 0.004060424 0.08393627 -0.0818429 0.028631534 0.04007611
0.004341149 -0.0130691435 0.024450881 -0.085710764 -0.05499651 -0.02818986 0.04635218 0.002061845
0.002448661 -0.046004474 -0.0034533336 0.0120515935 -0.013195573 -0.048386693 -0.1276657 -0.07406881
-0.036717508 0.01690017 0.05720858 -0.0872006 -0.048447575 -0.022071578 0.0022780313 -0.09663121
00000000: d1e7 6f3d 01e6 a2bd f439 b3bd 00b9 a73b
00000010: 72c2 3fbd 0ec0 33bd 2867 33bc ad79 d5bd
00000020: 1f43 0f3d 3f5c 32bd 7534 963d 80a9 e4bd
00000030: cc99 2abd a002 0fbb 08a6 db3c 2d15 8b3d
00000040: 9470 f0bb c8d1 d0bc 7d45 53bc 1ceb 0bbd
00000050: 1021 81bb d0b9 ee3b f0af 0b3c 2961 3f3c
00000060: 4d2c 233d 84eb 04bd ba84 0abe 4885 3d3c
00000070: a654 07bd 26e8 643d 88c5 5ebd e008 eebb
00000080: 17f2 ea3c dc00 4d3d 00a2 eebd 5033 15bd
00000090: e0ec a5bd 99df cebd 1c50 07bd bddc 393c
000000a0: 5cc9 efbd 07a3 32bd 55ba 2c3d 0be4 533b
000000b0: 06a7 453d cddc b03d 0ab1 53ba 92dd aebd
000000c0: 47ea aebd bf8f b4bd d0d5 b2bd b08d 063c
000000d0: 2009 3c3d 6623 afbd 1275 77bd 8829 2fbd
000000e0: 5d8a 853d 7e7a 8fbb 40d5 8d3b 33ce 943d
000000f0: 0708 8fbc 4047 6d3c 172c 2dbd 58df c7bd
00000100: 52c9 1d3d e3cb 903d 5c8b e0bc e8be b7bc
00000110: ff06 9e3d e834 bc3c b0e6 af3b c0ae 5d3c
00000120: 6c20 073c 0088 0d39 459e 93bd c236 c5ba
00000130: bbff 1d3c 8450 6bbd 9313 9f3c 195d 513d
00000140: fa4f afbd 0e03 e0bd 6f23 a6bd c075 2c3b
00000150: 2f1e d9bc 48a5 fabd e0d5 71bb cfd7 f0bd
00000160: 0557 ab3d ba31 693d 1a9f b1bd 6a61 15be
00000170: c371 ccbd 9e3b 79bd 2691 723d 5c49 053d
00000180: b24c 1b3d 1a5a b1bd c991 8fbd ddb6 aebb
00000190: 73fd 8a3d f5cb a1bc 069e d0bd 8f07 b53b
000001a0: d38c 1cbd e8e4 1ebd 4964 c6bd 189a c5bd
000001b0: d655 583d 5519 2fbd a5d3 8cbd 1e22 dd3b
000001c0: 644b e4bc 2c67 603d f7b6 073c 625c 29bd
000001d0: 3f50 3e3c a985 6ebd f2fc 21bd 4232 70bd
000001e0: 8baa 87bd 0f6c 19bd 706d c7bd 8a52 343d
000001f0: 8651 6fbd 2f19 60bd bb97 a33d ac0f e13c
00000200: c6a7 1e3d 2a1a f0bd e637 693d b8bc 62bc
00000210: c075 c0bd 8256 273d 178f 863d c02d 40bd
00000220: 07d8 0a3d 30c8 90bc 6f81 25bd b51a 983c
00000230: 0896 81bd e8c3 5f3d b911 64bd 2a83 98bd
00000240: 0efe e4bd d450 3cbd 258d c23c 37bd a23d
00000250: 7afc 33bc 80f6 61bb 9a9e e93b 3bac 713d
00000260: ac9d 26bc b2f1 71bc f9f5 8cbd 5282 c7bc
00000270: 08b0 dabd 5067 703c eaaa a0bc 1b1f 7fbd
00000280: 5a97 b33b 15e5 f1bd aa38 d3bd 2c3f fa3c
00000290: 2cd8 fcbd d16d 04be 1d8c 053c 2ce5 463d
000002a0: dad1 0c3d e26e 97bd 8ab8 a13b cfd9 c83b
000002b0: bb37 2ebd 60e1 c2bb a9cb dfbd 66b6 e0bd
000002c0: cd08 bdbb 03b7 abbd 18bd 0cbd bf37 753c
000002d0: c319 953c ac7d 73bd b952 c1bc 0509 a13d
000002e0: f36c abbc 5a87 52bd 5562 1fbe 40b2 273b
000002f0: a4ba a43c a00a 99bc dc5e 69bd c080 d6bc
00000300: 3ccd 68bd ce34 aa3c e39e a43b 98cd 8bbd
00000310: 4a0c debc 6448 7abc 90f2 acbc 18fc 4d3b
00000320: 9489 cebd 61c4 b63d 59d9 d8bd 6a79 ed3c
00000330: 83d4 1ebd 768a d6bc dee0 4ebd b3d7 173d
00000340: 6a6e 0ebd 6fb2 deba 7b7d f3bd bdae debc
00000350: 5f6b 693d 7db5 63bd ee75 87bd fcad a6bb
00000360: 320a 75bd 7d2b 003c de19 93bd 083f afbd
00000370: da10 95bd 8627 18bd 2143 7fbd c80f c03c
00000380: 2c75 103d 22d0 06bd 9061 b1bd 4e0d 853b
00000390: c7e6 ab3d 409d a7bd ae8c ea3c d926 243d
000003a0: 3240 8e3b f61f 56bc 374d c83c 2089 afbd
000003b0: 0544 61bd 6cee e6bc c9db 3d3d 0520 073b
000003c0: b779 203b 306f 3cbd 5351 62bb 0c74 453c
000003d0: 3f32 58bc 2031 46bd ccba 02be 63b1 97bd
000003e0: 1965 16bd 3a72 8a3c 8b53 6a3d 3a96 b2bd
000003f0: f770 46bd 74cf b4bc 064b 153b 95e6 c5bd

net.2.bias f4 [128]
-0.10628247 -0.044025905 -0.13019028 -0.070353255 0.21766657 0.8405292 0.13293186 -0.11191829
-0.1138168 -0.6187039 -0.054914206 0.024064813 -0.038778123 -0.07070505 -0.12702863 0.7044883
0.5628721 -0.14187758 0.54780364 -0.24246255 -0.08751678 0.5095281 -0.07227208 -0.15977249
0.8439478 1.3822536 0.27738693 0.94741446 -0.10576481 -0.09929036 -0.11326934 -0.06911677
0.48740745 0.47245085 1.4690256 -0.1197778 -0.28241864 -0.02225075 0.9610181 1.1600828
-0.028130569 -0.019999584 1.4134 -0.105813205 0.8074383 0.6343764 1.1258141 -0.0287607
-0.0028035685 0.6942619 1.0095413 -0.0458385 0.46250698 0.4625396 0.044032037 -0.06413099
-0.09761391 0.25578925 0.56879294 0.48187277 0.600407 -0.10837188 0.80030376 -0.07986742
-0.026094152 1.2107067 -0.02896566 -0.10026239 -0.08347604 0.56407857 1.3073997 -0.07136774
1.3445162 -0.058761816 -0.042437356 -0.54394317 1.5024467 0.4106705 -0.008987418 0.06334238
-0.36324912 -0.12619424 0.10748305 -0.09282251 0.0064739375 0.7444056 -0.08931606 0.03361156
0.2740971 -0.097656496 0.27083603 0.013953621 0.54552805 0.8692599 -0.16503082 -0.12917805
-0.18429348 1.7146149 -0.12190697 -0.08509772 1.2529762 1.4758911 -0.018250726 -0.081502594
-0.00483776 0.3450056 -0.08026232 -0.11197482 0.59168476 -0.096436605 -0.12096919 -0.091984734
0.5529745 0.26802632 0.74762166 -0.016046459 0.021418246 -0.12188914 -0.1379533 0.4783313
0.82590646 1.5362877 0.03918491 0.470988 -0.037441347 0.81812835 -0.5175422 0.46833134
00000000: a0aa d9bd 8254 34bd 9a50 05be 5e15 90bd
00000010: fce3 5e3e ec2c 573f 4a1f 083e 6b35 e5bd
00000020: c818 e9bd 6163 1ebf b8ed 60bd 9223 c53c
00000030: cfd5 1ebd cfcd 90bd cb13 02be 5859 343f
00000040: 6318 103f 5b48 11be dc3c 0c3f 1a48 78be
00000050: ff3b b3bd 6f70 023f 6203 94bd 669b 23be
00000060: f70c 583f b0ed b03f a905 8e3e c189 723f
00000070: 399b d8bd bf58 cbbd c1f9 e7bd 188d 8dbd
00000080: 788d f93e 14e5 f13e 0809 bc3f 104e f5bd
00000090: 2d99 90be 3447 b6bc 4805 763f 987d 943f
000000a0: 1472 e6bc 2bd6 a3bc 4bea b43f 98b4 d8bd
000000b0: 47b4 4e3f 7e66 223f ad1a 903f 8f9b ebbc
000000c0: 13bc 37bb 26bb 313f a638 813f 27c1 3bbd
000000d0: b7cd ec3e fed1 ec3e f05a 343d 1c57 83bd
000000e0: cde9 c7bd cff6 823e 6a9c 113f 07b8 f63e
000000f0: 46b4 193f 14f2 ddbd b5e0 4c3f 8891 a3bd
00000100: 67c3 d5bc 70f8 9a3f 6449 edbc 5e56 cdbd
00000110: 7cf5 aabd 7467 103f e058 a73f 4029 92bd
00000120: 1b19 ac3f 3bb0 70bd cbd2 2dbd dc3f 0bbf
00000130: 2c50 c03f 6743 d23e f73f 13bc a6b9 813d
00000140: cafb b9be 1039 01be 1320 dc3d ba19 bebd
00000150: 5323 d43b 5e91 3e3f 57eb b6bd 46ac 093d
00000160: 7556 8c3e 2100 c8bd 05ab 8a3e ba9d 643c
00000170: baa7 0b3f d187 5e3f d7fd 28be 4047 04be
00000180: 6eb7 3cbe 8078 db3f 5daa f9bd b747 aebd
00000190: 8661 a03f 00ea bc3f 8c82 95bc d5ea a6bd
000001a0: 1286 9ebb 93a4 b03e 9260 a4bd 0e53 e5bd
000001b0: a778 173f 8e80 c5bd b2be f7bd 7e62 bcbd
000001c0: bd8f 0d3f bf3a 893e 2264 3f3f dd73 83bc
000001d0: 5175 af3c 03a1 f9bd a143 0dbe d7e7 f43e
000001e0: 9b6e 533f 13a5 c43f 5b80 203d 5725 f13e
000001f0: 195c 19bd dc70 513f a57d 04bf 20c9 ef3e

net.4.weight f4 [13, 128]
0.08779054 0.09224556 0.0024999038 -0.014023069 2.7208624 2.2167232 1.61027 0.023587989
-0.07232309 -1.0079081 0.07787834 -0.04754981 -0.051035743 0.07064933 -0.03013549 1.4608066
2.1001832 0.10691954 2.415595 0.085013084 0.029375548 2.171274 -0.08127269 -0.06861572
0.7790537 0.4678475 1.6514306 0.57815725 0.050143994 0.037201516 -0.012421195 -0.022715107
1.7186743 2.7783115 0.46174994 0.025540002 0.12681328 -0.04820741 1.5180416 0.6350587
0.04329788 -0.07748723 0.49057248 0.06330652 1.1102252 2.5756404 0.32890588 -0.061578568
-0.051926292 1.1231753 0.32828382 -0.0055661495 1.7091491 1.7561795 -0.14187299 0.0065582143
-0.21234617 1.8544793 2.0796006 2.0750291 1.3203914 -0.024081333 0.7800477 -0.49882063
-0.055317454 0.5052458 -0.024253383 0.06752027 0.052350566 2.3423834 0.39208627 -0.24381799
0.46890956 0.030753978 0.07098758 -0.9351407 0.5132182 2.7518659 0.0062289084 0.0013842846
-1.4155589 -0.07385582 2.232348 -0.010897487 0.059280567 1.6175406 0.0004930104 0.07746714
2.224013 0.0108699305 1.5208209 -0.005219925 1.1832513 0.48826405 0.16936877 -0.030020531
0.76114804 0.74354756 0.008327156 0.00853861 0.48517266 0.49076524 -0.075542055 -0.052479126
-0.024521697 2.259051 -0.0363895 -0.0150744915 2.25072 -0.05471213 -0.06310478 0.04179284
2.516286 1.5415925 2.0690691 0.031015363 -0.012070839 -0.030408757 0.032256227 1.5892311
1.5654507 0.589419 -1.4744623 1.6967689 -0.07325942 3.0360212 -0.7927894 1.9789349
-0.038653094 -0.024319304 -0.05812137 -0.01684556 2.5041556 3.1463406 1.6484156 0.06670548
-0.07328729 -0.86073714 0.049764715 -0.0065977853 0.06329689 0.027033716 0.0624809 1.5069965
1.9190774 0.28490856 2.24065 0.33113426 -0.008021701 2.307954 0.06657482 0.009926346
1.4286577 0.507921 1.4601568 0.6939155 0.042702027 -0.03589069 -0.039671768 -0.05129649
1.5908965 2.7266378 0.5377105 -0.07278907 0.553601 0.0022144767 1.3221711 0.41080564
-0.058385488 0.04743506 0.43391946 0.05992966 0.8561292 2.6344135 0.62520885 -0.06669447
-0.03710043 1.4786215 0.58793193 0.061464105 1.6268125 2.1643412 0.0027836612 0.08601787
0.18415588 2.1247094 2.0072513 1.9431146 1.6534415 -0.011771708 0.71334827 -0.7029559
0.017721705 0.4527805 -0.06271493 0.018611053 -0.031342655 2.0666902 0.45415398 0.04330246
0.48252288 -0.016132759 -0.05589342 -1.5254765 0.6253425 2.4444842 0.020059815 0.017117314
-1.1589856 -0.05959215 2.0028515 -0.066778235 0.06740544 1.5855845 0.03375311 -0.040938683
2.2840564 0.015302174 1.7613349 -0.08095368 1.5556476 0.6303231 0.049303528 0.007671965
0.6508791 0.7253783 -0.051301174 -0.0027297167 0.4870003 0.39883697 -0.09316364 -0.09653365
0.08801677 2.6548855 0.07989664 -0.060861208 1.989177 -0.06444784 -0.117724776 0.047086418
2.382362 1.9476764 1.6661457 0.04054073 0.014894179 -0.06432678 0.06385257 1.5421604
1.7496245 0.46837914 -1.1567025 2.0816686 -0.03211439 2.58735 -1.1286439 1.6590692
00000000: 87cb b33d 3deb bc3d 6dd5 233b 04c1 65bc
00000010: 9c22 2e40 cbde 0d40 541d ce3f 993b c13c
00000020: 211e 94bd 2203 81bf ae7e 9f3d 97c3 42bd
00000030: db0a 51bd 99b0 903d b4de f6bc b6fb ba3f
00000040: 6769 0640 a2f8 da3d 1c99 1a40 571b ae3d
00000050: fda4 f03c 27f6 0a40 4c72 a6bd 6686 8cbd
00000060: 1070 473f b589 ef3e 1462 d33f 1d02 143f
00000070: ca63 4d3d 9e60 183d 4582 4bbc 0815 babc
00000080: 85fd db3f dbcf 3140 7d6a ec3e 4439 d13c
00000090: 57db 013e 2275 45bd 304f c23f 3593 223f
000000a0: 1e59 313d a0b1 9ebd 512c fb3e d9a6 813d
000000b0: dc1b 8e3f 4bd7 2440 5a66 a83e cf39 7cbd
000000c0: aab0 54bd 35c4 8f3f d114 a83e 3f64 b6bb
000000d0: 66c5 da3f 7dca e03f 2747 11be 4ae6 d63b
000000e0: 4671 59be 945f ed3f 2d18 0540 47cd 0440
000000f0: 9602 a93f 3746 c5bc 35b1 473f 6b65 ffbe
00000100: 8e94 62bd ca57 013f 08af c6bc 1148 8a3d
00000110: 8c6d 563d 9ce9 1540 88bf c83e 6cab 79be
00000120: ea14 f03e c4ef fb3c f061 913d 6265 6fbf
00000130: 4562 033f 921e 3040 df1b cc3b e270 b53a
00000140: 0931 b5bf b841 97bd cade 0e40 608b 32bc
00000150: 2ed0 723d 920b cf3f 5e3d 013a 18a7 9e3d
00000160: 3b56 0e40 cb17 323c 42aa c23f e80b abbb
00000170: c774 973f bffd f93e 026f 2d3e 9eed f5bc
00000180: 99da 423f 2259 3e3f a06e 083c 87e5 0b3c
00000190: 8d68 f83e 9545 fb3e cbb5 9abd 5af4 56bd
000001a0: bae1 c8bc 4b94 1040 280d 15bd 00fb 76bc
000001b0: cc0b 1040 d419 60bd 143d 81bd f82e 2b3d
000001c0: d40a 2140 e752 c53f a16b 0440 ee13 fe3c
000001d0: c5c4 45bc c91b f9bc 1b1f 043d ed6b cb3f
000001e0: b060 c83f 2ae4 163f 2ebb bcbf b92f d93f
000001f0: 0909 96bd 2c4e 4240 3ff4 4abf bd4d fd3f
00000200: b552 1ebd 4739 c7bc ac10 6ebd b3ff 89bc
00000210: 1644 2040 a55d 4940 48ff d23f e29c 883d
00000220: a617 96bd 4559 5cbf 16d6 4b3d 3c32 d8bb
00000230: cda1 813d d075 dd3c f9eb 7f3d 43e5 c03f
00000240: 54a4 f53f 89df 913e cf66 0f40 6e8a a93e
00000250: 746d 03bc 85b5 1340 6158 883d 1da2 223c
00000260: 41de b63f 1c07 023f 6be6 ba3f 72a4 313f
00000270: 52e8 2e3d 1e02 13bd dd7e 22bd 451c 52bd
00000280: 7fa2 cb3f 3c81 2e40 65a7 093f 7012 95bd
00000290: ccb8 0d3f c120 113b e73c a93f 1e55 d23e
000002a0: 9f25 6fbd 444b 423d b12a de3e ce78 753d
000002b0: 492b 5b3f 3b9a 2840 b00d 203f 1c97 88bd
000002c0: 9ff6 17bd 7843 bd3f b582 163f c9c1 7b3d
000002d0: 643b d03f 9184 0a40 166e 363b 232a b03d
000002e0: 5c93 3c3e 3dfb 0740 ce76 0040 fbb7 f83f
000002f0: f9a3 d33f 1fde 40bc fe9d 363f ebf4 33bf
00000300: 1c2d 913c d8d2 e73e af70 80bd 3576 983c
00000310: 2861 00bd a744 0440 df86 e83e ec5d 313d
00000320: 3d0d f73e d928 84bc 80f0 64bd d042 c3bf
00000330: 7216 203f 6e72 1c40 7b54 a43c 9c39 8c3c
00000340: a459 94bf e616 74bd b82e 0040 07c3 88bd
00000350: dd0b 8a3d 6ff4 ca3f b340 0a3d 52af 27bd
00000360: fb2d 1240 f8b5 7a3c 6c73 e13f 0bcb a5bd
00000370: 761f c73f db5c 213f 7ff2 493d 1b65 fb3b
00000380: 03a0 263f 64b2 393f 2e21 52bd 0ce5 32bb
00000390: 1a58 f93e 5c34 cc3e 94cc bebd 6fb3 c5bd
000003a0: 2342 b43d a5e9 2940 d9a0 a33d 9a49 79bd
000003b0: 5a9d fe3f 3bfd 83bd b019 f1bd b0dd 403d
000003c0: 9e78 1840 764d f93f 4344 d53f 090e 263d
000003d0: b706 743c c2bd 83bd 23c5 823d 8365 c53f
000003e0: b2f3 df3f 64cf ef3e d40e 94bf 0f3a 0540
000003f0: 618a 03bd 2497 2540 6777 90bf 615c d43f

net.4.bias f4 [13]
1.1199749 1.167924 1.0050514 1.0462178 1.3030483 0.9669692 1.4479935 1.1914183
0.8481112 0.90592664 0.67127854 1.1117272 0.8784607
00000000: 565b 8f3f 897e 953f 86a5 803f 77ea 853f
00000010: 49ca a63f 4b8b 773f da57 b93f 6580 983f
00000020: d11d 593f cfea 673f e9d8 2b3f 144d 8e3f
00000030: cde2 603f
