checkpoints2/team1_agent_3.pt (torch, 411297 bytes, 24 tensors)

net.0.weight f4 [128, 53]
-0.15639864 -0.18703315 0.008758861 -0.027604656 -0.065677695 0.071049616 0.10374784 0.042075794
-0.0683721 0.070196524 -0.020724189 0.116806634 0.087279156 0.013223732 0.11719398 0.038386393
0.046685066 0.041046396 -0.020618591 -0.054868452 -0.13705319 0.0033819128 -0.009091606 0.1094909
0.030161262 -0.12503782 -0.06048094 0.03676137 -0.05258084 0.071552485 0.050934818 -0.057881873
-0.068658784 -0.19592987 -0.020597726 -0.02898654 -0.021653106 0.100065716 0.0048288014 0.1096039
-0.16112654 -0.112235405 -0.039133467 -0.06949013 0.0023238258 -0.10935425 -0.06754711 0.09524704
-0.09416967 -0.1640308 0.036221333 -0.07595013 0.023697305 -1.1331486 0.114011325 0.009060825
0.48462188 0.25984988 1.1930511 1.214104 0.77704215 -1.5646398 0.8301572 -0.8287864
-1.1404717 0.088986196 -0.45807138 -0.12537935 0.12848446 1.5995055 0.5015242 -0.22014898
-0.06890193 0.6713462 -2.066137 -0.1045014 0.4483516 1.4019921 1.5421633 1.6492976
0.8669386 -1.1727729 0.5016192 -0.20504645 0.10427326 0.7341675 -0.4404974 -0.51425266
-0.38656163 -1.8589138 1.4517181 -1.7402706 -0.96491754 -1.3902243 -0.63512707 -0.98227173
-1.1864777 -0.9081752 -0.88981545 -0.16837013 1.0000192 -0.37793413 0.27638558 -0.3637235
0.12967803 0.46858203 0.6139854 0.4023571 0.618994 -0.30215803 0.15326951 -0.23975094
0.23455366 0.46595594 -0.13740522 0.51447093 1.3151938 0.59287924 0.031685326 -0.015873339
0.1183215 -0.6221334 0.10354063 -0.0672663 0.29819396 -0.059661124 0.25602812 -1.1058074
0.23155658 -0.06307867 -0.21103275 -0.7293448 -0.15760335 0.4325873 -0.06502363 0.09397967
0.27136922 1.6724432 0.78844327 0.19441873 0.041430306 0.019325051 0.8579238 -0.21073104
0.20802869 0.25938398 0.7359833 -0.04223879 0.74534464 -0.804562 1.064519 -0.970589
0.37363014 -0.6453171 0.8631065 0.45164958 1.0190023 0.046882838 0.13931215 0.587152
-0.28000894 1.2300898 -0.18486856 -0.08264655 -1.3309559 -0.7255548 0.19810608 0.5664307
0.85997397 -1.1969178 -0.9698068 0.09544531 -1.9366498 -1.3376831 -0.81301916 -2.7585416
-0.6133267 -0.3691794 0.63395935 -0.5102764 -0.14037138 -2.161921 -0.98788184 1.3237133
1.27658 1.5015823 -0.10324959 0.94957125 -1.696199 -0.635421 -0.6286528 -1.1037161
-0.9444191 0.55355 -0.6733787 0.7868002 -0.18537217 -0.5708451 0.5670421 0.11069562
-0.14873514 -0.45868364 -0.05071803 0.3403284 -0.9984024 -0.0019158537 -0.6054368 0.34866372
-0.6284428 0.360496 0.29174334 0.13440618 -0.07747715 -0.17226696 -0.011789575 0.06682605
-0.00024142861 0.09803091 0.0022183529 0.13701229 0.04249523 -0.12926134 -0.013763414 -0.0915175
-0.044900868 0.016644469 -0.017760472 -0.023430107 0.11478903 0.06738993 -0.1139907 -0.009915769
-0.08666238 0.09898012 -0.012923988 0.08328948 -0.06536995 0.12139923 -0.04854579 0.09305839
0.024475418 0.08213045 0.010297806 0.04624721 -0.03477936 0.03535101 0.005538923 -0.039197154
-0.012075814 0.1778806 0.024552945 0.08934246 -0.08338268 -0.1701645 -0.11965727 -0.035880685
00000000: f726 20be 9e85 3fbe 5381 0f3c 2923 e2bc
00000010: 0782 86bd 7682 913d bf79 d43d ab57 2c3d
00000020: ac06 8cbd 32c3 8f3d c6c5 a9bc 5138 ef3d
00000030: 6abf b23d 5aa8 583c 6603 f03d 0d3b 1d3d
00000040: d738 3f3d 4420 283d 52e8 a8bc bebd 60bd
00000050: ac57 0cbe 15a3 5d3b f6f4 14bc c43c e03d
00000060: c014 f73c ea09 00be ddba 77bd 1793 163d
00000070: 025f 57bd 1c8a 923d 07a1 503d 8b15 6dbd
00000080: fa9c 8cbd d7a1 48be 90bc a8bc 2e75 edbc
00000090: db61 b1bc 41ef cc3d ec3a 9e3b 0278 e03d
000000a0: 5bfe 24be addb e5bd 6a4a 20bd d750 8ebd
000000b0: 544b 183b 1ff5 dfbd 2456 8abd e110 c33d
000000c0: 07dc c0bd b1f7 27be d25c 143d be8b 9bbd
000000d0: da20 c23c 030b 91bf c57e e93d db73 143c
000000e0: 5c20 f83e 0b0b 853e e6b5 983f c367 9b3f
000000f0: 3cec 463f 1e46 c8bf 2f85 543f 582b 54bf
00000100: fafa 91bf 653e b63d 5588 eabe 7263 00be
00000110: 6e91 033e 99bc cc3f e463 003f bc6e 61be
00000120: 741c 8dbd 58dd 2b3f 973b 04c0 d404 d6bd
00000130: 578e e53e 7a74 b33f 9b65 c53f 2f1c d33f
00000140: b0ef 5d3f 6c1d 96bf 1e6a 003f b2f7 51be
00000150: 388d d53d 67f2 3b3f e088 e1be 10a6 03bf
00000160: 68eb c5be e3f0 edbf e6d1 b93f 30c1 debf
00000170: d604 77bf dff2 b1bf b097 22bf 2976 7bbf
00000180: 80de 97bf 2b7e 68bf f2ca 63bf 3869 2cbe
00000190: a100 803f 9580 c1be 6982 8d3e f739 babe
000001a0: 51ca 043e fce9 ef3e 262e 1d3f c001 ce3e
000001b0: 6476 1e3f 75b4 9abe aff2 1c3e 4581 75be
000001c0: d62e 703e c791 ee3e f4b3 0cbe 5eb4 033f
000001d0: 4558 a83f efc6 173f 79c8 013d ce08 82bc
000001e0: 8b52 f23d 2244 1fbf 1c0d d43d eac2 89bd
000001f0: e1ac 983e 395f 74bd 1e16 833e 198b 8dbf
00000200: 2b1d 6d3e 642f 81bd f818 58be 57b6 3abf
00000210: c662 21be 157c dd3e 1c2b 85bd 6a78 c03d
00000220: e8f0 8a3e 9e12 d63f 6bd7 493f b415 473e
00000230: d3b2 293d 924f 9e3c e5a0 5b3f e1c9 57be
00000240: 7905 553e facd 843e 6769 3c3f 9502 2dbd
00000250: e8ce 3e3f c6f7 4dbf 2942 883f 8578 78bf
00000260: 734c bf3e 8033 25bf 8cf4 5c3f 9d3e e73e
00000270: ab6e 823f 3808 403d d8a7 0e3e 984f 163f
00000280: 555d 8fbe 9573 9d3f 2f4e 3dbe 9842 a9bd
00000290: c35c aabf f6bd 39bf 52dc 4a3e 9a01 113f
000002a0: 4127 5c3f 9a34 99bf 4245 78bf d578 c33d
000002b0: 24e4 f7bf 3339 abbf 0622 50bf f28b 30c0
000002c0: fb02 1dbf 1505 bdbe 294b 223f 79a1 02bf
000002d0: 84bd 0fbe ea5c 0ac0 d3e5 7cbf 706f a93f
000002e0: f966 a33f d933 c03f 8574 d3bd 1a17 733f
000002f0: 0d1d d9bf f3aa 22bf 64ef 20bf 9246 8dbf
00000300: 73c5 71bf 74b5 0d3f 8c62 2cbf bd6b 493f
00000310: 34d2 3dbe e822 12bf ac29 113f 63b4 e23d
00000320: 064e 18be 95d8 eabe b6bd 4fbd 863f ae3e
00000330: 4d97 7fbf 621d fbba e8fd 1abf 0d84 b23e
00000340: a1e1 20bf ef92 b83e 625f 953e c6a1 093e
00000350: 57ac 9ebd c066 30be 1029 41bc 19dc 883d
00000360: 0028 7db9 6ec4 c83d c961 113b f34c 0c3e
00000370: 7a0f 2e3d 165d 04be f17f 61bc 876d bbbd
00000380: f9e9 37bd fb59 883c 697e 91bc 7ff0 bfbc
00000390: 8316 eb3d bb03 8a3d f573 e9bd c075 22bc
000003a0: 0c7c b1bd 17b6 ca3d 22bf 53bc ad93 aa3d
000003b0: aee0 85bd 29a0 f83d f3d7 46bd 6695 be3d
000003c0: ac80 c83c 0234 a83d 21b8 283c b76d 3d3d
000003d0: cd74 0ebd 38cc 103d db7f b53b 328d 20bd
000003e0: a3d9 45bc 5526 363e 4223 c93c 2ef9 b63d
000003f0: 8ac4 aabd 9a3f 2ebe df0e f5bd a0f7 12bd

net.0.bias f4 [128]
-0.15177275 -0.07057961 0.62337387 -0.09727588 0.04572589 0.1804343 -0.20564298 0.3339138
-0.21340448 0.105323404 -0.10611171 -0.5974438 -0.50986475 -0.14784952 -0.13929957 -0.17616467
0.7983322 -0.097424954 0.34586602 -0.15901525 -0.010903541 0.49411553 0.32380143 -0.16276579
-0.038442615 -0.1864216 0.14202379 0.5082374 -0.32972303 -0.05887525 0.5065418 0.22692394
-0.08714689 -0.015324795 -0.096748285 0.14244547 0.715375 -0.1219505 -0.092476696 0.07249475
-0.40030795 0.22860883 0.04660798 0.12710612 -0.1398747 -0.09011322 -0.20103264 0.038110048
-0.023854187 -0.05325765 0.5130386 0.39551523 -0.107867986 0.5010454 -0.042151563 0.08303294
-0.34757474 0.36724767 0.62876725 0.7552268 0.6138558 0.29303715 -0.17416672 -0.22110862
0.07204699 0.30984548 -0.09658803 -0.04554712 0.026550647 -0.43473098 1.1627188 -0.031632025
-0.005520338 -0.14039479 0.18125063 0.04488528 -0.19282441 -0.16481519 -0.1835856 -0.14466041
0.2805706 -0.020577408 0.8317909 -0.04640377 -0.20365147 0.2992091 -0.27924514 -0.117079735
0.16441044 -0.15316926 0.43326104 0.16932406 -0.1939868 0.1442474 -0.23422635 -0.14098573
0.27695054 -0.1656814 -0.112015106 0.67586434 0.54011786 -0.05600526 0.30451778 0.20887363
-0.11792954 0.19919708 -0.26462233 -0.0730965 0.30467436 0.023100542 0.44571188 -0.06633795
0.08859859 -0.2866715 -0.13691536 -0.24811196 0.8612206 -0.025066057 0.19492927 -0.0022252195
0.51025206 0.6042871 0.074566945 0.18347383 0.21518537 -0.35895514 0.011576108 -0.25311065
00000000: 516a 1bbe 0b8c 90bd 6e95 1f3f 9438 c7bd
00000010: 124b 3b3d c5c3 383e 1394 52be c0f6 aa3e
00000020: b486 5abe ccb3 d73d 1951 d9bd 14f2 18bf
00000030: 7f86 02bf dd65 17be 8ca4 0ebe 8364 34be
00000040: 805f 4c3f bc86 c7bd 5a15 b13e e5d4 22be
00000050: c4a4 32bc b6fc fc3e 4dc9 a53e 13ac 26be
00000060: 0176 1dbd 4ee5 3ebe af6e 113e d91b 023f
00000070: 75d1 a8be 2d27 71bd b9ac 013f c05e 683e
00000080: 127a b2bd d914 7bbc f723 c6bd 3add 113e
00000090: d122 373f 2fc1 f9bd 6c64 bdbd 2178 943d
000000a0: 2af5 ccbe 6f18 6a3e 02e8 3e3d 1b28 023e
000000b0: 503b 0fbe 488d b8bd 80db 4dbe 4819 1c3d
000000c0: db69 c3bc b224 5abd 7f56 033f f980 ca3e
000000d0: e4e9 dcbd 8344 003f 1ea7 2cbd 2d0d aa3d
000000e0: 51f5 b1be e307 bc3e e4f6 203f 8b56 413f
000000f0: a725 1d3f f708 963e c358 32be 4c6a 62be
00000100: 5f8d 933d 11a4 9e3e f2cf c5bd 9e8f 3abd
00000110: be80 d93c 0f95 debe f8d3 943f 9590 01bd
00000120: f4e3 b4bb a7c3 0fbe c499 393e a1d9 373d
00000130: c373 45be 50c5 28be ddfd 3bbe dc21 14be
00000140: f3a6 8f3e f491 a8bc 40f0 543f e111 3ebd
00000150: 038a 50be ef31 993e 38f9 8ebe 80c7 efbd
00000160: 365b 283e 67d8 1cbe 64d4 dd3e 4963 2d3e
00000170: 7aa4 46be 97b5 133e 08d9 6fbe 905e 10be
00000180: 76cc 8d3e 63a8 29be 2d68 e5bd 7205 2d3f
00000190: 2a45 0a3f c665 65bd c1e9 9b3e f8e2 553e
000001a0: 0b85 f1bd 52fa 4b3e 947c 87be 9eb3 95bd
000001b0: 47fe 9b3e 593d bd3c 5934 e43e 31dc 87bd
000001c0: 2d73 b53d 9bc6 92be 8a33 0cbe 1011 7ebe
000001d0: f478 5c3f 5557 cdbc 8a9b 473e fdd4 11bb
000001e0: e19f 023f 8fb2 1a3f 8eb6 983d 90e0 3b3e
000001f0: 8e59 5c3e f8c8 b7be b7a9 3d3c b897 81be

net.2.weight f4 [128, 128]
0.0002731532 -0.0026696809 0.0065842536 0.0033546388 0.080683745 0.042903934 -0.04681714 0.07385527
-0.029113166 0.017174242 0.06423502 -0.02091089 0.049756058 -0.03532241 -0.04647857 0.08057946
0.01730494 0.01529259 -0.08381579 -0.07189831 -0.04299359 0.06561236 -0.053793877 -0.06006974
0.042468328 0.04585287 -0.050420064 0.05584959 0.046281144 0.023567222 0.018473163 -0.1055035
-0.024595983 0.053434484 -0.010160477 0.012722434 -0.06913059 -0.0030527953 -0.06435126 -0.12904492
-0.060033463 -0.04998453 0.02762155 0.0056832395 -0.072338074 -0.083908975 0.036198534 -0.059375793
-0.07530005 0.028845914 -0.000112236536 -0.050654154 0.05470232 0.07323968 -0.0072655682 -0.017957756
0.03032028 -0.09097164 -0.10032548 -0.01712028 -0.10480274 0.040598627 -0.03152474 0.03481966
-0.09609062 -0.037289053 0.05305811 -0.04975961 -0.085142426 -0.06799792 -0.092934735 0.0497401
-0.015984647 -0.07108908 -0.06536789 -0.05843637 0.0127807 -0.04138517 -0.0033659637 -0.047987673
0.02733532 0.04938414 0.0028551468 -0.026307855 0.054777108 -0.088886514 0.0003945554 0.03851592
-0.05489966 -0.052314375 -0.028949786 -0.12046203 0.064445294 -0.04771494 0.024284877 -0.08826645
-0.02425312 0.0810271 -0.07874803 -0.013663898 0.04448202 0.008604281 0.024226071 0.0200742
-0.05199221 -0.06729601 -0.04612932 -0.062515885 0.008085442 -0.02056847 -0.11164068 0.0016121754
-0.01238253 -0.06874315 0.111148275 -0.018677944 -0.13262545 -0.015077538 -0.020284424 -0.002514489
-0.08692125 -0.07870063 -0.019328488 -0.044063598 -0.02193209 -0.06315073 0.053338133 0.075091325
0.0509259 -0.3449543 0.9078955 -0.7905062 -0.04454555 -0.8132708 0.065396 1.2889148
0.019729136 0.75422454 0.41089037 2.0714457 0.21916445 1.194152 1.5761535 -0.08389976
-0.013539961 -0.06029053 0.07053111 -0.10107075 2.253734 0.51138 0.5779691 -0.031466026
0.51485837 -0.7096836 -1.4560302 0.13173199 1.7248589 0.910094 0.94864476 0.07788385
0.058880422 -0.025183983 0.72641724 -0.66240627 0.18369016 -0.01599168 0.759473 0.9612024
0.27333593 -1.4161499 -0.30785373 0.415579 -0.04208342 1.0619967 0.024895325 -0.16661127
-3.4304864 2.6816175 0.6314737 -0.46730682 -0.83493924 0.43395233 -0.3623425 -0.54073393
-0.24895975 1.322257 0.89561003 0.5110265 0.0060974862 -1.2234195 -0.23657994 2.2082756
-0.631616 0.7254235 -3.4088817 0.682962 0.013326272 1.2521279 -0.13568008 0.07801085
-2.3014984 -0.9524852 -1.499279 0.6650007 -2.1058683 0.056123964 -0.056862988 0.013619181
-0.789152 0.050357305 -0.14739107 0.7253023 0.039816063 -1.8736142 -1.4009228 0.08347166
0.7314466 0.012956525 -1.1239797 0.30533263 0.07592595 -0.8045057 -0.025144879 0.08545958
0.33316422 0.054294635 -1.3101487 -0.075052544 -0.10174105 0.037627015 0.16364393 -0.79726243
-0.67544395 -0.67458594 0.43457934 -1.3115199 0.54637 2.0092926 -0.10005746 -1.020373
-0.8057428 1.3982955 -0.07787486 -0.24824269 -0.030340161 0.07540014 -1.4050813 0.03863787
-0.54659307 -1.3058078 1.1828761 -2.2028062 1.3994745 -1.4007475 -0.062002208 -0.04487294
00000000: 0036 8f39 d0f5 2ebb b9c0 d73b 80d9 5b3b
00000010: 853d a53d 09bc 2f3d 54c3 3fbd 6f41 973d
00000020: bc7e eebc ffb0 8c3c a68d 833d 514d abbc
00000030: 02cd 4b3d 3bae 10bd 5060 3ebd d806 a53d
00000040: 17c3 8d3c c58d 7a3c 9da7 abbd 6c3f 93bd
00000050: 0c1a 30bd c65f 863d f856 5cbd b00b 76bd
00000060: 45f3 2d3d 38d0 3b3d 4585 4ebd 8ac2 643d
00000070: 4c91 3d3d 0c10 c13c 0855 973c 3812 d8bd
00000080: 847d c9bc 1ede 5a3d 2178 26bc c171 503c
00000090: 5794 8dbd 6811 48bb 98ca 83bd 5a24 04be
000000a0: a6e5 75bd 94bc 4cbd 9746 e23c 783a ba3b
000000b0: fc25 94bd 78d8 abbd ea44 143d 0834 73bd
000000c0: ea36 9abd 444e ec3c 8860 ebb8 bb7a 4fbd
000000d0: 8a0f 603d affe 953d 0114 eebb 251c 93bc
000000e0: 3c62 f83c 574f babd 7277 cdbd d43f 8cbc
000000f0: d2a2 d6bd bf4a 263d 1620 01bd 0f9f 0e3d
00000100: 29cb c4bd 68bc 18bd 7653 593d bcd0 4bbd
00000110: 275f aebd 7e42 8bbd 9154 bebd 46bc 4b3d
00000120: 3cf2 82bc 2797 91bd 9adf 85bd fa5a 6fbd
00000130: 2466 513c 7f83 29bd 8097 5cbb b98e 44bd
00000140: 52ee df3c 0647 4a3d 6a1d 3b3b 9283 d7bc
00000150: f65d 603d 220a b6bd 54dc ce39 dfc2 1d3d
00000160: 77de 60bd 9947 56bd 1a28 edbc ccb4 f6bd
00000170: e5fb 833d be70 43bd 14f1 c63c 0ac5 b4bd
00000180: 7bae c6bc 89f1 a53d a646 a1bd 8bde 5fbc
00000190: c732 363d f8f8 0c3c c175 c63c a672 a43c
000001a0: c9f5 54bd 7ed2 89bd 19f2 3cbd 5408 80bd
000001b0: cd78 043c 357f a8bc dea3 e4bd a14f d33a
000001c0: 18e0 4abc 35c9 8cbd b5a1 e33d 7d02 99bc
000001d0: f7ce 07be c707 77bc 852b a6bc 20ca 24bb
000001e0: c503 b2bd cc2d a1bd c756 9ebc 087c 34bd
000001f0: edaa b3bc 2c55 81bd 1679 5a3d 7bc9 993d
00000200: ad97 503d da9d b0be d76b 683f 9d5e 4abf
00000210: 6575 36bd 8432 50bf 57ee 853d 29fb a43f
00000220: ff9e a13c dc14 413f 3960 d23e 9192 0440
00000230: a56c 603e f9d9 983f 66bf c93f a3d3 abbd
00000240: b6d6 5dbc 34f3 76bd 9d72 903d 2efe cebd
00000250: 2e3d 1040 cde9 023f c8f5 133f 85e2 00bd
00000260: c2cd 033f d3ad 35bf 335f babf c0e4 063e
00000270: 2dc8 dc3f ecfb 683f 62da 723f 9181 9f3d
00000280: 992c 713d a44e cebc 7bf6 393f 7593 29bf
00000290: 4619 3c3e fc00 83bc d36c 423f 5c11 763f
000002a0: b0f2 8b3e 6644 b5bf 019f 9dbe c5c6 d43e
000002b0: aa5f 2cbd 82ef 873f 48f1 cb3c 259c 2abe
000002c0: 178d 5bc0 9f9f 2b40 43a8 213f d742 efbe
000002d0: 94be 55bf 002f de3e f584 b9be 8a6d 0abf
000002e0: 4eef 7ebe b83f a93f b346 653f a2d2 023f
000002f0: 6ccd c73b 0399 9cbf 0342 72be 6354 0d40
00000300: 96b1 21bf 5bb5 393f 1e2b 5ac0 99d6 2e3f
00000310: 7056 5a3c ba45 a03f b8ef 0abe 27c4 9f3d
00000320: c04b 13c0 12d6 73bf 60e8 bfbf 7c3d 2a3f
00000330: 8cc6 06c0 3ee2 653d 2ae9 68bd fc22 5f3c
00000340: de05 4abf 7643 4e3d afed 16be 69ad 393f
00000350: 2b16 233d 97d2 efbf 7051 b3bf 31f3 aa3d
00000360: 1640 3b3f 9b47 543c 91de 8fbf 8f54 9c3e
00000370: 117f 9b3d 16f4 4dbf a2fc cdbc 6f05 af3d
00000380: 8094 aa3e 0d64 5e3d f4b2 a7bf 26b5 99bd
00000390: 9d5d d0bd c91e 1a3d 4692 273e 6419 4cbf
000003a0: e5e9 2cbf aab1 2cbf 2f81 de3e e2df a7bf
000003b0: e8de 0b3f 4098 0040 edea ccbd 959b 82bf
000003c0: 2945 4ebf 59fb b23f db7c 9fbd 5533 7ebe
000003d0: ee8b f8bc 636b 9a3d b4d9 b3bf be42 1e3d
000003e0: 86ed 0bbf b624 a7bf 7c68 973f c7fa 0cc0
000003f0: fb21 b33f b24b b3bf 07f6 7dbd b0cc 37bd

net.2.bias f4 [128]
-0.08130605 0.751193 0.7005479 -0.04347017 -0.07160715 -0.07682586 -0.07948141 -0.062265772
-0.46330273 0.8684768 0.96379113 -0.012204718 0.7974528 1.1286693 1.2724938 0.7430643
0.6279796 1.6756612 0.482368 0.4042707 -0.099861756 -0.074935794 0.8838886 0.5654984
0.7846444 0.48753157 0.7615762 0.756755 -0.025731813 0.8302716 0.44938314 0.68286645
-0.07288449 -0.6981348 0.5973641 0.77996427 0.6476541 1.3657923 0.5064846 -0.086250566
0.86667097 -0.15637231 -0.28542483 0.80330914 0.66882384 0.6865288 0.25746498 0.7258691
-0.08370909 0.7045477 0.70226204 -0.12784128 -0.066156805 0.4104354 1.0028163 -0.123182416
1.0241286 -0.11572049 -0.007268878 1.0995117 0.92166257 1.0697434 0.94581354 -0.21141577
-0.14929026 -0.02773863 0.9411231 -0.11828423 1.7043579 -0.30911514 0.8094927 0.10719894
1.396286 -0.062130336 -0.7587756 -0.1626523 0.036973257 0.43347776 -0.119736455 -0.048220806
0.31303605 0.76856303 0.7038837 0.5047698 -0.050831035 -0.0009549093 -0.025722727 0.37628758
-0.098350994 -0.06509799 1.0132835 -0.09953518 0.64679193 0.895556 0.67754155 1.5862865
-0.14633496 -0.1424586 0.81668305 0.09339324 -0.1301413 1.1140469 -0.08416297 0.67408365
-0.10906383 0.92908186 -0.09461113 0.83515203 -0.1625275 1.6918229 0.040515754 0.37398306
-0.047538437 -0.13386384 1.5025333 0.6610687 -0.16221084 -0.13432579 0.9496957 0.0018192423
0.5363502 0.7635983 -0.10795291 -0.10328252 0.17156008 0.6148526 1.2403214 1.6924326
00000000: c983 a6bd 2f4e 403f 1b57 333f c70d 32bd
00000010: c5a6 92bd e056 9dbd 26c7 a2bd 650a 7fbd
00000020: 0436 edbe 7f54 5e3f 04bb 763f 4cf6 47bc
00000030: de25 4c3f 3c78 903f 14e1 a23f 7639 3e3f
00000040: 45c3 203f 117c d63f f0f8 f63e 92fc ce3e
00000050: 5284 ccbd f077 99bd 8646 623f 81c4 103f
00000060: 75de 483f bd9d f93e a8f6 423f b2ba 413f
00000070: 86cb d2bc ae8c 543f 8c15 e63e 56d0 2e3f
00000080: 7744 95bd f6b8 32bf dbec 183f bdab 473f
00000090: a9cc 253f 48d2 ae3f faa8 013f 23a4 b0bd
000000a0: 26de 5d3f 1020 20be 3423 92be aba5 4d3f
000000b0: 0a38 2b3f 5ac0 2f3f 73d2 833e 8fd2 393f
000000c0: ac6f abbd 3d5d 343f 72c7 333f d3e8 02be
000000d0: 387d 87bd 9724 d23e 495c 803f 1047 fcbd
000000e0: a516 833f ddfe ecbd c52f eebb cdbc 8c3f
000000f0: 14f2 6b3f 5aed 883f d620 723f 607d 58be
00000100: 8cdf 18be 203c e3bc 72ed 703f 013f f2bd
00000110: 6628 da3f 5744 9ebe ea3a 4f3f 1e8b db3d
00000120: 80b9 b23f 617c 7ebd 1e3f 42bf 538e 26be
00000130: 4571 173d ccf0 dd3e 6338 f5bd 2e83 45bd
00000140: 4346 a03e 8cc0 443f b931 343f 9838 013f
00000150: 3434 50bd e152 7aba 78b8 d2bc c4a8 c03e
00000160: 3f6c c9bd 1852 85bd 46b3 813f 1ad9 cbbd
00000170: 2894 253f 2843 653f 5d73 2d3f 700b cb3f
00000180: d5d8 15be abe0 11be 2412 513f f444 bf3d
00000190: c343 05be 1799 8e3f a35d acbd bf90 2c3f
000001a0: db5c dfbd 4fd8 6d3f 7bc3 c1bd 86cc 553f
000001b0: 9c6d 26be a78d d83f d9f3 253d b57a bf3e
000001c0: aab7 42bd 9a13 09be 0353 c03f cc3b 293f
000001d0: 991a 26be b38c 09be 421f 733f a473 ee3a
000001e0: 3f4e 093f 2e7b 433f 6a16 ddbd c985 d3bd
000001f0: 72ad 2f3e fb66 1d3f dac2 9e3f a2a1 d83f

net.4.weight f4 [13, 128]
-0.045494087 1.503272 1.62544 0.05916941 0.06124424 0.06179591 -0.010813523 -0.021048576
-0.013727719 1.5969809 4.009003 0.00034025885 2.9764965 1.3180593 0.77222264 2.1310625
2.214729 0.85735446 1.9869682 2.1017997 0.053584717 -0.025393719 1.2544229 2.5620475
1.7224103 1.8837342 3.3333523 1.1330739 0.08146266 1.7698923 2.2090144 1.8082236
0.04985147 -0.84973913 3.5276396 1.6583445 2.1485403 0.8777269 2.4936838 0.05164973
1.8695474 0.016098225 0.10334259 3.302573 3.3471146 0.9301148 -1.451771 1.4603089
-0.0050412104 2.7004826 1.9483198 0.04569208 -0.04273767 2.070987 2.8167303 0.014187485
2.5542917 -0.008258307 0.051397625 0.4086985 1.5763047 1.6509061 1.198861 0.56308067
0.034058817 -0.084613495 1.2461619 0.036183354 0.81846786 2.5389855 1.1229699 0.6329523
0.4896404 0.17377046 -1.0046524 -0.0022626463 0.09953794 2.1107478 -0.067172594 -0.04609025
1.5532684 1.5447723 3.4519525 2.5927353 1.3219366 0.11214951 0.030440994 1.9249557
0.037645724 0.056949593 3.2923708 0.06339017 1.6520455 1.4964452 1.9936745 0.98438174
-0.002641244 0.055654082 0.9295291 0.736608 0.00565101 1.7038795 -0.059378266 1.2952867
0.024661118 1.225458 -0.011312969 1.9474301 -0.007007551 0.9534587 -0.030215396 2.2294865
-0.010052662 0.0036478185 0.9986089 2.1236572 0.8375165 -0.019310728 2.7312949 -0.08377416
2.144354 2.0233219 0.010601 0.018649304 0.9738632 1.7466046 1.3745395 0.6756411
0.049569994 1.3975604 1.8686082 0.077362984 -0.048533477 0.0110356435 -0.06430094 0.0061481786
0.57449675 1.8257761 3.9721556 0.1029841 2.9469614 1.1326342 0.8267185 2.7027988
2.148368 0.67518973 2.1274319 2.4152052 -0.0498864 -0.04436603 1.6797236 2.3609014
1.9228512 1.8326752 2.079177 1.2344688 -0.060991414 1.2923119 1.925677 1.5901031
-0.1538526 -0.9772493 3.366395 1.2480263 2.61948 0.6971771 2.5134273 0.03543196
1.9925317 0.018744022 0.3171401 3.061971 3.8379416 1.1893069 -1.0916754 1.328089
0.05074028 2.1704843 1.8066525 0.019091621 0.04883697 2.3122091 1.66335 -0.050121002
3.0095265 0.046732627 0.019558093 0.7533733 1.6907072 1.6820849 0.71782464 0.31888488
-0.022619277 -0.041206732 2.0648487 -0.066295154 0.740335 4.2064934 2.1022334 0.37692374
0.974445 0.020724833 -0.8402576 0.04279028 -0.05277231 1.8288761 0.12648624 -0.065280795
1.477011 1.5455059 3.5355198 2.661777 -1.3417114 -0.06583558 -0.01943393 2.496624
0.0012880653 0.040798537 2.0355268 0.08631673 1.0798895 2.0674264 2.103739 0.8217789
0.05746785 -0.013187386 0.7844797 0.3879094 -0.018356457 1.3034714 -0.039959393 1.7905194
0.0055309534 1.4941604 -0.0832896 1.628902 -0.032145966 0.82523835 0.06390703 3.3841121
-0.048631035 -0.004283175 1.0713319 1.8668877 0.71035355 -0.07308627 2.722586 0.076065116
2.614583 2.243594 0.05510915 0.049372885 1.0517089 1.4503508 1.3606938 0.94450235
00000000: 0258 3abd 386b c03f 6b0e d03f a05b 723d
00000010: 3ddb 7a3d b51d 7d3d 342b 31bc 106e acbc
00000020: 3aea 60bc df69 cc3f c149 8040 c564 b239
00000030: eb7e 3e40 2bb6 a83f 62b0 453f 5463 0840
00000040: 1fbe 0d40 957b 5b3f f954 fe3f e383 0640
00000050: a67b 5b3d 7d06 d0bc ee90 a03f 96f8 2340
00000060: f177 dc3f 341e f13f a555 5540 9108 913f
00000070: e5d5 a63d d58b e23f 7e60 0d40 df73 e73f
00000080: 0e31 4c3d 8188 59bf d9c4 6140 a244 d43f
00000090: af81 0940 b6b2 603f 8498 1f40 ab8e 533d
000000a0: 544d ef3f 6de0 833c 48a5 d33d 5b5d 5340
000000b0: 2037 5640 011c 6e3f a2d3 b9bf 67eb ba3f
000000c0: bd30 a5bb b5d4 2c40 8b62 f93f 9e27 3b3d
000000d0: b20d 2fbd 0d8b 0440 4f45 3440 a072 683c
000000e0: 8479 2340 da4d 07bc 5186 523d ee40 d13e
000000f0: 5ac4 c93f e450 d33f 4774 993f 0e26 103f
00000100: 4281 0b3d d749 adbd 3c82 9f3f ff34 143d
00000110: 1c87 513f bd7e 2240 7abd 8f3f 2909 223f
00000120: 26b2 fa3e e2f0 313e 7398 80bf e848 14bb
00000130: 8cda cb3d 7e16 0740 c991 89bd 21c9 3cbd
00000140: 80d1 c63f 19bb c53f caec 5c40 60ef 2540
00000150: 3835 a93f a4ae e53d 645f f93c f364 f63f
00000160: 6732 1a3d fa43 693d 34b6 5240 b5d2 813d
00000170: 3a76 d33f 848b bf3f ba30 ff3f 7100 7c3f
00000180: b918 2dbb 89f5 633d 9ef5 6d3f 5892 3c3f
00000190: 1c2c b93b b918 da3f a036 73bd f4cb a53f
000001a0: 1d06 ca3c cfdb 9c3f 085a 39bc 6445 f93f
000001b0: 999f e5bb df15 743f 4786 f7bc e8af 0e40
000001c0: ecb3 24bc 3d10 6f3b d5a4 7f3f 00ea 0740
000001d0: 7b67 563f 8831 9ebc 89cd 2e40 c991 abbd
000001e0: 193d 0940 1b7e 0140 d1af 2d3c 6dc6 983c
000001f0: 194f 793f bd90 df3f e9f0 af3f d1f6 2c3f
00000200: e809 4b3d 42e3 b23f 8e2e ef3f 7c70 9e3d
00000210: 0acb 46bd d8ce 343c 36b0 83bd a976 c93b
00000220: 3812 133f 08b3 e93f cc37 7e40 54e9 d23d
00000230: 049b 3c40 28fa 903f d3a3 533f a8fa 2c40
00000240: dc7e 0940 3cd9 2c3f d827 0840 b992 1a40
00000250: af55 4cbd 27b9 35bd 2f01 d73f 0219 1740
00000260: fd1f f63f 1a95 ea3f 3c11 0540 1303 9e3f
00000270: 22d2 79bd 7a6a a53f 957c f63f 8088 cb3f
00000280: 898b 1dbe 032d 7abf 0473 5740 53bf 9f3f
00000290: 8fa5 2740 337a 323f fedb 2040 1a21 113d
000002a0: 470b ff3f 108d 993c 3060 a23e 55f7 4340
000002b0: d6a0 7540 353b 983f 05bc 8bbf d2fe a93f
000002c0: 0ad5 4f3d 37e9 0a40 6440 e73f 0866 9c3c
000002d0: 4609 483d 3cfb 1340 a7e8 d43f ae4b 4dbd
000002e0: 159c 4040 b66a 3f3d 4b38 a03c 13dd 403f
000002f0: 1869 d83f 8f4e d73f 5bc3 373f e144 a33e
00000300: 104c b9bc 64c8 28bd 7b26 0440 c1c5 87bd
00000310: 9886 3d3f 989b 8640 fe8a 0640 26fc c03e
00000320: 3a75 793f 20c7 a93c 1f1b 57bf dc44 2f3d
00000330: c727 58bd 9d18 ea3f 9c85 013e f0b1 85bd
00000340: b20e bd3f 23d3 c53f f545 6240 8e5a 2a40
00000350: 33bd abbf ced4 86bd e833 9fbc b0c8 1f40
00000360: 4dd4 a83a 5e1c 273d 1246 0240 d3c6 b03d
00000370: d239 8a3f b750 0440 a9a3 0640 1a60 523f
00000380: 6963 6b3d e80f 58bc a9d3 483f 109c c63e
00000390: 4860 96bc 27d8 a63f 76ac 23bd bd2f e53f
000003a0: 003d b53b a640 bf3f bd93 aabd dc7f d03f
000003b0: 7dab 03bd d242 533f b0e1 823d 4b95 5840
000003c0: 5631 47bd e059 8cbb 6721 893f 2df6 ee3f
000003d0: bbd9 353f 41ae 95bd d93e 2e40 07c8 9b3d
000003e0: 5455 2740 0b97 0f40 22ba 613d 393b 4a3d
000003f0: 669e 863f 18a5 b93f 372b ae3f e8ca 713f

net.4.bias f4 [13]
1.4129568 0.84551144 0.7393351 1.2819451 1.2576662 1.2726514 1.1310102 0.8920548
0.9116167 0.6645465 1.0519382 1.018135 0.7607732
00000000: c5db b43f 7073 583f 1145 3d3f c716 a43f
00000010: 35fb a03f 3ee6 a23f f1c4 903f b45d 643f
00000020: b65f 693f b81f 2a3f e9a5 863f 3f52 823f
00000030: 08c2 423f

net.0.weight f4 [128, 53]
-0.15639864 -0.18703315 0.008758861 -0.027604656 -0.065677695 0.071049616 0.10374784 0.042075794
-0.0683721 0.070196524 -0.020724189 0.116806634 0.087279156 0.013223732 0.11719398 0.038386393
0.046685066 0.041046396 -0.020618591 -0.054868452 -0.13705319 0.0033819128 -0.009091606 0.1094909
0.030161262 -0.12503782 -0.06048094 0.03676137 -0.05258084 0.071552485 0.050934818 -0.057881873
-0.068658784 -0.19592987 -0.020597726 -0.02898654 -0.021653106 0.100065716 0.0048288014 0.1096039
-0.16112654 -0.112235405 -0.039133467 -0.06949013 0.0023238258 -0.10935425 -0.06754711 0.09524704
-0.09416967 -0.1640308 0.036221333 -0.07595013 0.023697305 -1.1300031 0.11866655 0.010065323
0.48176676 0.26849937 1.189821 1.2049283 0.7748642 -1.5622619 0.8281368 -0.83840424
-1.1420408 0.08685693 -0.4534924 -0.13085048 0.12330636 1.5970439 0.50075704 -0.21683794
-0.06542603 0.67422575 -2.0763485 -0.10548333 0.44898862 1.4039276 1.5447763 1.6413215
0.8727079 -1.1661589 0.50062734 -0.19978103 0.09704266 0.7357716 -0.43474978 -0.50844824
-0.38230446 -1.86739 1.4487284 -1.7342359 -0.9654329 -1.3875054 -0.6322659 -0.9805185
-1.1919699 -0.9108033 -0.89409137 -0.1647569 0.9968735 -0.3839727 0.27998522 -0.36976206
0.13394108 0.47041538 0.6128192 0.39932597 0.6173793 -0.3045461 0.14680669 -0.23821351
0.2381734 0.4652524 -0.13528705 0.51469886 1.3159014 0.5960802 0.033200156 -0.009714296
0.114824794 -0.6198045 0.105195716 -0.0659733 0.2975303 -0.056916583 0.2547458 -1.0994619
0.23180777 -0.061624 -0.21104035 -0.73175824 -0.15262684 0.43251294 -0.060622018 0.09488339
0.26691052 1.6751086 0.79070604 0.19299331 0.040102307 0.016937904 0.8601173 -0.20729522
0.20654495 0.26109225 0.7341582 -0.043854006 0.7434627 -0.80133 1.0649543 -0.9711107
0.37148333 -0.64415085 0.866361 0.44921902 1.0222574 0.043130655 0.13961853 0.59056383
-0.27722144 1.2319075 -0.17915688 -0.08386128 -1.3342336 -0.72898114 0.20104559 0.55839163
0.85470355 -1.2027481 -0.9723244 0.09037658 -1.9427391 -1.3390479 -0.81514704 -2.7573438
-0.615721 -0.37621972 0.6317259 -0.5084835 -0.14333159 -2.1618598 -0.9952154 1.3230691
1.2783189 1.4993145 -0.10717013 0.9415521 -1.692007 -0.6329062 -0.6292343 -1.1055489
-0.9411739 0.56053895 -0.67453533 0.7898728 -0.18822499 -0.5716999 0.5657786 0.11422008
-0.14643803 -0.4562651 -0.052247174 0.33763096 -0.99129516 0.0011585213 -0.60884863 0.34789133
-0.62588733 0.35972363 0.28712663 0.14057773 -0.07747715 -0.17226696 -0.011789575 0.06682605
-0.00024142861 0.09803091 0.0022183529 0.13701229 0.04249523 -0.12926134 -0.013763414 -0.0915175
-0.044900868 0.016644469 -0.017760472 -0.023430107 0.11478903 0.06738993 -0.1139907 -0.009915769
-0.08666238 0.09898012 -0.012923988 0.08328948 -0.06536995 0.12139923 -0.04854579 0.09305839
0.024475418 0.08213045 0.010297806 0.04624721 -0.03477936 0.03535101 0.005538923 -0.039197154
-0.012075814 0.1778806 0.024552945 0.08934246 -0.08338268 -0.1701645 -0.11965727 -0.035880685
00000000: f726 20be 9e85 3fbe 5381 0f3c 2923 e2bc
00000010: 0782 86bd 7682 913d bf79 d43d ab57 2c3d
00000020: ac06 8cbd 32c3 8f3d c6c5 a9bc 5138 ef3d
00000030: 6abf b23d 5aa8 583c 6603 f03d 0d3b 1d3d
00000040: d738 3f3d 4420 283d 52e8 a8bc bebd 60bd
00000050: ac57 0cbe 15a3 5d3b f6f4 14bc c43c e03d
00000060: c014 f73c ea09 00be ddba 77bd 1793 163d
00000070: 025f 57bd 1c8a 923d 07a1 503d 8b15 6dbd
00000080: fa9c 8cbd d7a1 48be 90bc a8bc 2e75 edbc
00000090: db61 b1bc 41ef cc3d ec3a 9e3b 0278 e03d
000000a0: 5bfe 24be addb e5bd 6a4a 20bd d750 8ebd
000000b0: 544b 183b 1ff5 dfbd 2456 8abd e110 c33d
000000c0: 07dc c0bd b1f7 27be d25c 143d be8b 9bbd
000000d0: da20 c23c f1a3 90bf 7307 f33d 06e9 243c
000000e0: 22aa f63e c078 893e 0e4c 983f 173b 9a3f
000000f0: 805d 463f 33f8 c7bf c600 543f a9a1 56bf
00000100: 652e 92bf 0ce2 b13d 2830 e8be abfd 05be
00000110: 0b88 fc3d ef6b cc3f 9d31 003f c40a 5ebe
00000120: 15fe 85bd 0f9a 2c3f e5e2 04c0 a507 d8bd
00000130: d6e1 e53e e6b3 b33f 3bbb c53f d316 d23f
00000140: c969 5f3f b244 95bf 1d29 003f 6693 4cbe
00000150: 4dbe c63d 875b 3c3f 8697 debe aa29 02bf
00000160: 69bd c3be a306 efbf ef6f b93f 71fb ddbf
00000170: 9c26 77bf c799 b1bf 2edc 21bf 4303 7bbf
00000180: 7892 98bf 682a 69bf 2ce3 64bf 08b6 28be
00000190: 1a33 7f3f 1298 c4be 395a 8f3e 7451 bdbe
000001a0: da27 093e 49da f03e b8e1 1c3f 7474 cc3e
000001b0: 920c 1e3f 77ed 9bbe 7e54 163e 3eee 73be
000001c0: bae3 733e 9035 ee3e b088 0abe 4ec3 033f
000001d0: 756f a83f b698 183f e3fc 073d b628 1fbc
000001e0: 4329 eb3d 82ab 1ebf da70 d73d 021d 87bd
000001f0: e455 983e 5d21 69bd 0b6e 823e 2bbb 8cbf
00000200: 045f 6d3e 7369 7cbd f61a 58be 8254 3bbf
00000210: 364a 1cbe 5672 dd3e cb4e 78bd 3952 c23d
00000220: 7fa8 883e f569 d63f b66b 4a3f 0aa0 453e
00000230: 5142 243d 5cc1 8a3c a630 5c3f 3345 54be
00000240: 8580 533e e2ad 853e cbf1 3b3f 42a0 33bd
00000250: 9253 3e3f f623 4dbf 6c50 883f b69a 78bf
00000260: 1033 be3e 12e7 24bf d6c9 5d3f 0900 e63e
00000270: 55d9 823f c5a9 303d 29f8 0e3e 312f 173f
00000280: f8ef 8dbe 25af 9d3f e774 37be 76bf abbd
00000290: 2bc8 aabf 829e 3abf e5de 4d3e c1f2 0e3f
000002a0: dacd 5a3f a6f3 99bf 40ea 78bf 5b17 b93d
000002b0: adab f8bf ec65 abbf 7aad 50bf 5278 30c0
000002c0: e49f 1dbf df9f c0be cab8 213f fa2b 02bf
000002d0: 84c5 12be e95b 0ac0 70c6 7ebf 545a a93f
000002e0: f49f a33f 8ae9 bf3f 037c dbbd 8f09 713f
000002f0: af93 d8bf 2406 22bf 8015 21bf a082 8dbf
00000300: c6f0 70bf 7b7f 0f3f 59ae 2cbf 1b35 4a3f
00000310: 0dbe 40be ed5a 12bf ded6 103f 38ec e93d
00000320: daf3 15be 949b e9be 2201 56bd f7dd ac3e
00000330: 85c5 7dbf 86d9 973a 81dd 1bbf d01e b23e
00000340: 273a 20bf b22d b83e 4302 933e 9cf3 0f3e
00000350: 57ac 9ebd c066 30be 1029 41bc 19dc 883d
00000360: 0028 7db9 6ec4 c83d c961 113b f34c 0c3e
00000370: 7a0f 2e3d 165d 04be f17f 61bc 876d bbbd
00000380: f9e9 37bd fb59 883c 697e 91bc 7ff0 bfbc
00000390: 8316 eb3d bb03 8a3d f573 e9bd c075 22bc
000003a0: 0c7c b1bd 17b6 ca3d 22bf 53bc ad93 aa3d
000003b0: aee0 85bd 29a0 f83d f3d7 46bd 6695 be3d
000003c0: ac80 c83c 0234 a83d 21b8 283c b76d 3d3d
000003d0: cd74 0ebd 38cc 103d db7f b53b 328d 20bd
000003e0: a3d9 45bc 5526 363e 4223 c93c 2ef9 b63d
000003f0: 8ac4 aabd 9a3f 2ebe df0e f5bd a0f7 12bd

net.0.bias f4 [128]
-0.15177275 -0.06696638 0.6212272 -0.094201505 0.04572589 0.18011618 -0.20564298 0.33642268
-0.21340448 0.10188698 -0.10240666 -0.5962245 -0.50986475 -0.15002404 -0.14388755 -0.17616467
0.7969135 -0.097424954 0.3449819 -0.15901525 -0.006096841 0.4919437 0.3233965 -0.16276579
-0.041097805 -0.18311897 0.14385608 0.5106176 -0.32988048 -0.05470247 0.50917643 0.22329487
-0.08714689 -0.015324795 -0.09983672 0.14339659 0.7120373 -0.1219505 -0.09899903 0.074200965
-0.39842802 0.2281497 0.052145686 0.1284356 -0.1398747 -0.091786586 -0.20103264 0.038290817
-0.022242527 -0.052124236 0.51362807 0.39136657 -0.10605045 0.5012918 -0.0399808 0.08499301
-0.34667495 0.36655486 0.63123715 0.755833 0.6121543 0.2966431 -0.1707445 -0.21845315
0.077090226 0.31140652 -0.09641918 -0.041751232 0.022687102 -0.43247184 1.1621085 -0.031632025
-0.0026250435 -0.13593452 0.17894118 0.04794933 -0.19339558 -0.16481519 -0.1835856 -0.14466041
0.27837935 -0.020577408 0.8295943 -0.05014761 -0.20365147 0.29927692 -0.282527 -0.117079735
0.16069962 -0.15316926 0.43380997 0.16901624 -0.1939868 0.14076737 -0.23422635 -0.14098573
0.27320638 -0.1656814 -0.112770915 0.67401385 0.5409358 -0.05600526 0.30510625 0.20875572
-0.11841221 0.19992852 -0.26598024 -0.07488797 0.3011936 0.021814525 0.45176587 -0.07055993
0.0867879 -0.2880229 -0.13691536 -0.24246322 0.8605763 -0.025066057 0.1964711 -0.0022252195
0.51059264 0.6042965 0.07753085 0.18407479 0.21760865 -0.35676092 0.011785585 -0.25311065
00000000: 516a 1bbe ab25 89bd bf08 1f3f b8ec c0bd
00000010: 124b 3b3d 6070 383e 1394 52be 983f ac3e
00000020: b486 5abe 1faa d03d 95ba d1bd 2ba2 18bf
00000030: 7f86 02bf e79f 19be 4257 13be 8364 34be
00000040: 8602 4c3f bc86 c7bd 78a1 b03e e5d4 22be
00000050: 02c8 c7bb 0be0 fb3e 3a94 a53e 13ac 26be
00000060: 2c56 28bd 8a83 3bbe 024f 133e d6b7 023f
00000070: 18e6 a8be b20f 60bd 6359 023f 69a7 643e
00000080: 127a b2bd d914 7bbc 3277 ccbd 8ed6 123e
00000090: 1448 363f 2fc1 f9bd 01c0 cabd adf6 973d
000000a0: c2fe cbbe 13a0 693e b796 553d 9f84 033e
000000b0: 503b 0fbe 9bfa bbbd 80db 4dbe d5d6 1c3d
000000c0: f635 b6bc 3980 55bd 217d 033f 3361 c83e
000000d0: fa30 d9bd a954 003f e8c2 23bd d110 ae3d
000000e0: 617f b1be 14ad bb3e c298 213f 467e 413f
000000f0: 25b6 1c3f 9be1 973e a5d7 2ebe 2fb2 5fbe
00000100: 7be1 9d3d ad70 9f3e 6b77 c5bd 5703 2bbd
00000110: 4dda b93c f36c ddbe f9bf 943f 9590 01bd
00000120: ec08 2cbb 6b32 0bbe 5b3c 373e 8466 443d
00000130: 7e09 46be 50c5 28be ddfd 3bbe dc21 14be
00000140: bd87 8e3e f491 a8bc 4b60 543f 9567 4dbd
00000150: 038a 50be d33a 993e 61a7 90be 80c7 efbd
00000160: 718e 243e 67d8 1cbe 571c de3e 9812 2d3e
00000170: 7aa4 46be 5225 103e 08d9 6fbe 905e 10be
00000180: b5e1 8b3e 63a8 29be 70f4 e6bd 2c8c 2c3f
00000190: c57a 0a3f c665 65bd e336 9c3e 0fc4 553e
000001a0: 1a82 f2bd 10ba 4c3e 902e 88be dd5e 99bd
000001b0: 0c36 9a3e 60b4 b23c db4d e73e b981 90bd
000001c0: dbbd b13d bd77 93be 8a33 0cbe 4748 78be
000001d0: ba4e 5c3f 5557 cdbc b82f 493e fdd4 11bb
000001e0: 33b6 023f 2db3 1a3f 7fc8 9e3d 1a7e 3c3e
000001f0: cdd4 5e3e 5ea9 b6be 5418 413c b897 81be

net.2.weight f4 [128, 128]
0.0002731532 -0.0026696809 0.0065842536 0.0033546388 0.080683745 0.042903934 -0.04681714 0.07385527
-0.029113166 0.017174242 0.06423502 -0.02091089 0.049756058 -0.03532241 -0.04647857 0.08057946
0.01730494 0.01529259 -0.08381579 -0.07189831 -0.04299359 0.06561236 -0.053793877 -0.06006974
0.042468328 0.04585287 -0.050420064 0.05584959 0.046281144 0.023567222 0.018473163 -0.1055035
-0.024595983 0.053434484 -0.010160477 0.012722434 -0.06913059 -0.0030527953 -0.06435126 -0.12904492
-0.060033463 -0.04998453 0.02762155 0.0056832395 -0.072338074 -0.083908975 0.036198534 -0.059375793
-0.07530005 0.028845914 -0.000112236536 -0.050654154 0.05470232 0.07323968 -0.0072655682 -0.017957756
0.03032028 -0.09097164 -0.10032548 -0.01712028 -0.10480274 0.040598627 -0.03152474 0.03481966
-0.09609062 -0.037289053 0.05305811 -0.04975961 -0.085142426 -0.06799792 -0.092934735 0.0497401
-0.015984647 -0.07108908 -0.06536789 -0.05843637 0.0127807 -0.04138517 -0.0033659637 -0.047987673
0.02733532 0.04938414 0.0028551468 -0.026307855 0.054777108 -0.088886514 0.0003945554 0.03851592
-0.05489966 -0.052314375 -0.028949786 -0.12046203 0.064445294 -0.04771494 0.024284877 -0.08826645
-0.02425312 0.0810271 -0.07874803 -0.013663898 0.04448202 0.008604281 0.024226071 0.0200742
-0.05199221 -0.06729601 -0.04612932 -0.062515885 0.008085442 -0.02056847 -0.11164068 0.0016121754
-0.01238253 -0.06874315 0.111148275 -0.018677944 -0.13262545 -0.015077538 -0.020284424 -0.002514489
-0.08692125 -0.07870063 -0.019328488 -0.044063598 -0.02193209 -0.06315073 0.053338133 0.075091325
0.0509259 -0.34129685 0.9078498 -0.79209316 -0.04454555 -0.80513835 0.065396 1.2893044
0.019729136 0.75097674 0.4120722 2.0668173 0.21916445 1.1965232 1.577497 -0.08389976
-0.0131769 -0.06029053 0.07086511 -0.10107075 2.2520087 0.51158404 0.57896924 -0.031466026
0.51937526 -0.70549697 -1.4548143 0.13477372 1.7237135 0.9135652 0.9474712 0.07848287
0.058880422 -0.025183983 0.7271836 -0.6633162 0.1850242 -0.01599168 0.7561294 0.9627673
0.27642792 -1.4157897 -0.30657944 0.41476604 -0.04208342 1.0604777 0.024895325 -0.16366757
-3.4328322 2.6815557 0.6320889 -0.46600553 -0.83192897 0.43304673 -0.36562255 -0.5386919
-0.24839741 1.3227315 0.8942332 0.511362 0.007817067 -1.2267956 -0.23315015 2.2064798
-0.6349653 0.7246927 -3.409352 0.68222463 0.011985762 1.2513369 -0.13508025 0.07801085
-2.3077724 -0.95336926 -1.49882 0.6614267 -2.1062982 0.056123964 -0.056862988 0.013619181
-0.78602874 0.050357305 -0.14692186 0.7236512 0.039816063 -1.8755043 -1.4012003 0.08347166
0.72980183 0.012956525 -1.1209512 0.3046712 0.07592595 -0.8034365 -0.025144879 0.08545958
0.33228794 0.054294635 -1.3078675 -0.0745233 -0.10433411 0.037627015 0.16592237 -0.79818666
-0.67653424 -0.6721514 0.43076628 -1.3122331 0.54409105 2.0082998 -0.097086914 -1.0210599
-0.80631137 1.3973309 -0.07787486 -0.24796301 -0.029457668 0.07540014 -1.4046425 0.03863787
-0.55322385 -1.3092226 1.1813152 -2.1981263 1.3970221 -1.4021188 -0.064394854 -0.04487294
00000000: 0036 8f39 d0f5 2ebb b9c0 d73b 80d9 5b3b
00000010: 853d a53d 09bc 2f3d 54c3 3fbd 6f41 973d
00000020: bc7e eebc ffb0 8c3c a68d 833d 514d abbc
00000030: 02cd 4b3d 3bae 10bd 5060 3ebd d806 a53d
00000040: 17c3 8d3c c58d 7a3c 9da7 abbd 6c3f 93bd
00000050: 0c1a 30bd c65f 863d f856 5cbd b00b 76bd
00000060: 45f3 2d3d 38d0 3b3d 4585 4ebd 8ac2 643d
00000070: 4c91 3d3d 0c10 c13c 0855 973c 3812 d8bd
00000080: 847d c9bc 1ede 5a3d 2178 26bc c171 503c
00000090: 5794 8dbd 6811 48bb 98ca 83bd 5a24 04be
000000a0: a6e5 75bd 94bc 4cbd 9746 e23c 783a ba3b
000000b0: fc25 94bd 78d8 abbd ea44 143d 0834 73bd
000000c0: ea36 9abd 444e ec3c 8860 ebb8 bb7a 4fbd
000000d0: 8a0f 603d affe 953d 0114 eebb 251c 93bc
000000e0: 3c62 f83c 574f babd 7277 cdbd d43f 8cbc
000000f0: d2a2 d6bd bf4a 263d 1620 01bd 0f9f 0e3d
00000100: 29cb c4bd 68bc 18bd 7653 593d bcd0 4bbd
00000110: 275f aebd 7e42 8bbd 9154 bebd 46bc 4b3d
00000120: 3cf2 82bc 2797 91bd 9adf 85bd fa5a 6fbd
00000130: 2466 513c 7f83 29bd 8097 5cbb b98e 44bd
00000140: 52ee df3c 0647 4a3d 6a1d 3b3b 9283 d7bc
00000150: f65d 603d 220a b6bd 54dc ce39 dfc2 1d3d
00000160: 77de 60bd 9947 56bd 1a28 edbc ccb4 f6bd
00000170: e5fb 833d be70 43bd 14f1 c63c 0ac5 b4bd
00000180: 7bae c6bc 89f1 a53d a646 a1bd 8bde 5fbc
00000190: c732 363d f8f8 0c3c c175 c63c a672 a43c
000001a0: c9f5 54bd 7ed2 89bd 19f2 3cbd 5408 80bd
000001b0: cd78 043c 357f a8bc dea3 e4bd a14f d33a
000001c0: 18e0 4abc 35c9 8cbd b5a1 e33d 7d02 99bc
000001d0: f7ce 07be c707 77bc 852b a6bc 20ca 24bb
000001e0: c503 b2bd cc2d a1bd c756 9ebc 087c 34bd
000001f0: edaa b3bc 2c55 81bd 1679 5a3d 7bc9 993d
00000200: ad97 503d 76be aebe d868 683f 9ec6 4abf
00000210: 6575 36bd 8c1d 4ebf 57ee 853d ed07 a53f
00000220: ff9e a13c 0340 403f 21fb d23e bc46 0440
00000230: a56c 603e ac27 993f 6ceb c93f a3d3 abbd
00000240: ede3 57bc 34f3 76bd ba21 913d 2efe cebd
00000250: e920 1040 2cf7 023f 5437 143f 85e2 00bd
00000260: c7f5 043f 739b 34bf 5b37 babf 1f02 0a3e
00000270: a5a2 dc3f 69df 693f 798d 723f a0bb a03d
00000280: 992c 713d a44e cebc b428 3a3f 17cf 29bf
00000290: fc76 3d3e fc00 83bc b291 413f eb77 763f
000002a0: f687 8d3e 9938 b5bf fbf7 9cbe 375c d43e
000002b0: aa5f 2cbd bcbd 873f 48f1 cb3c 7998 27be
000002c0: 86b3 5bc0 9c9e 2b40 94d0 213f 4798 eebe
000002d0: 4cf9 54bf 4db8 dd3e e132 bbbe b6e7 09bf
000002e0: e45b 7ebe 444f a93f 78ec 643f 9fe8 023f
000002f0: 2813 003c a307 9dbf eabe 6ebe f736 0d40
00000300: 168d 22bf 7685 393f d332 5ac0 46a6 2e3f
00000310: ee5f 443c cf2b a03f 7a52 0abe 27c4 9f3d
00000320: 8bb2 13c0 0210 74bf 55d9 bfbf 4353 293f
00000330: 97cd 06c0 3ee2 653d 2ae9 68bd fc22 5f3c
00000340: 2e39 49bf 7643 4e3d af72 16be 3441 393f
00000350: 2b16 233d 8610 f0bf 885a b3bf 31f3 aa3d
00000360: 4bd4 3a3f 9b47 543c 547b 8fbf ddfd 9b3e
00000370: 117f 9b3d 04ae 4dbf a2fc cdbc 6f05 af3d
00000380: a521 aa3e 0d64 5e3d 3468 a7bf ac9f 98bd
00000390: 1fad d5bd c91e 1a3d 8ee7 293e f655 4cbf
000003a0: 5931 2dbf 1d12 2cbf 668d dc3e 41f7 a7bf
000003b0: 8d49 0b3f fc87 0040 81d5 c6bd 17b2 82bf
000003c0: 6c6a 4ebf bddb b23f db7c 9fbd 04ea 7dbe
000003d0: 3551 f1bc 636b 9a3d 53cb b3bf be42 1e3d
000003e0: 14a0 0dbf 9b94 a7bf 5635 973f 1aae 0cc0
000003f0: 9fd1 b23f a178 b3bf 73e1 83bd b0cc 37bd

net.2.bias f4 [128]
-0.08130605 0.751873 0.7006775 -0.04347017 -0.07160715 -0.07682586 -0.07948141 -0.062265772
-0.46330273 0.86579925 0.9611781 -0.012204718 0.7986102 1.1241424 1.2715453 0.7420496
0.6280058 1.6749405 0.48004103 0.40664437 -0.099861756 -0.074935794 0.8815374 0.5646202
0.77862626 0.48955244 0.7583059 0.7532855 -0.025731813 0.83053577 0.4445095 0.6791521
-0.07288449 -0.6982087 0.5969818 0.7776966 0.646763 1.3654608 0.50316554 -0.086250566
0.8661532 -0.15637231 -0.28542483 0.80172867 0.6670082 0.6828316 0.25186655 0.7200651
-0.08370909 0.7009176 0.7027572 -0.12784128 -0.066156805 0.40766776 0.99891067 -0.123182416
1.022988 -0.11572049 -0.007268878 1.0967988 0.9194345 1.0738171 0.94641477 -0.21141577
-0.14929026 -0.02773863 0.9348457 -0.11828423 1.7032892 -0.30934182 0.80613357 0.10719894
1.3945686 -0.062130336 -0.7601821 -0.1626523 0.036973257 0.43346068 -0.119736455 -0.048220806
0.31048635 0.77278286 0.7057833 0.5004156 -0.05005945 -0.0009549093 -0.025722727 0.37615672
-0.098350994 -0.06509799 1.0083569 -0.09953518 0.64863247 0.8875206 0.6806977 1.5859826
-0.14633496 -0.1424586 0.8165467 0.09339324 -0.1301413 1.1114792 -0.08416297 0.675159
-0.10906383 0.9289866 -0.09461113 0.8316816 -0.1625275 1.6912585 0.040515754 0.3726411
-0.047538437 -0.13386384 1.5033135 0.6567803 -0.16221084 -0.13432579 0.9448142 0.0018192423
0.5367658 0.76238877 -0.10795291 -0.10328252 0.17920314 0.6143748 1.2384024 1.6916531
00000000: c983 a6bd c07a 403f 9a5f 333f c70d 32bd
00000010: c5a6 92bd e056 9dbd 26c7 a2bd 650a 7fbd
00000020: 0436 edbe 05a5 5d3f c50f 763f 4cf6 47bc
00000030: b871 4c3f e6e3 8f3f ffc1 a23f f6f6 3d3f
00000040: fdc4 203f 7364 d63f f0c7 f53e b133 d03e
00000050: 5284 ccbd f077 99bd 6fac 613f f38a 103f
00000060: 0d54 473f 9ea6 fa3e 5620 423f 52d7 403f
00000070: 86cb d2bc fe9d 543f c096 e33e e9dc 2d3f
00000080: 7744 95bd cebd 32bf cdd3 183f 2017 473f
00000090: 4392 253f 6bc7 ae3f 75cf 003f 23a4 b0bd
000000a0: 37bc 5d3f 1020 20be 3423 92be 173e 4d3f
000000b0: 0dc1 2a3f 0dce 2e3f a7f4 803e 3056 383f
000000c0: ac6f abbd 566f 333f e5e7 333f d3e8 02be
000000d0: 387d 87bd d4b9 d03e 9cb8 7f3f 1047 fcbd
000000e0: 45f1 823f ddfe ecbd c52f eebb e763 8c3f
000000f0: 0f60 6b3f d772 893f 3d48 723f 607d 58be
00000100: 8cdf 18be 203c e3bc 0c52 6f3f 013f f2bd
00000110: 6105 da3f 0d62 9ebe c55e 4e3f 1e8b db3d
00000120: 3981 b23f 617c 7ebd 4b9b 42bf 538e 26be
00000130: 4571 173d 8fee dd3e 6338 f5bd 2e83 45bd
00000140: 11f8 9e3e 19d5 453f 37ae 343f 3d1b 003f
00000150: 230b 4dbd e152 7aba 78b8 d2bc 9d97 c03e
00000160: 3f6c c9bd 1852 85bd d711 813f 1ad9 cbbd
00000170: c70c 263f 8d34 633f 3442 2e3f 7a01 cb3f
00000180: d5d8 15be abe0 11be 3409 513f f444 bf3d
00000190: c343 05be f344 8e3f a35d acbd 38d7 2c3f
000001a0: db5c dfbd 11d2 6d3f 7bc3 c1bd 16e9 543f
000001b0: 9c6d 26be 297b d83f d9f3 253d d0ca be3e
000001c0: aab7 42bd 9a13 09be 946c c03f c122 283f
000001d0: 991a 26be b38c 09be 58df 713f a473 ee3a
000001e0: 7c69 093f e92b 433f 6a16 ddbd c985 d3bd
000001f0: 0781 373e ab47 1d3f f883 9e3f 1788 d83f

net.4.weight f4 [13, 128]
-0.045494087 1.5019478 1.6259183 0.05916941 0.06124424 0.06179591 -0.010813523 -0.021048576
-0.013727719 1.5937924 3.9982712 0.00034025885 2.9630694 1.321376 0.7735645 2.1234033
2.211289 0.86102647 1.9749628 2.1109328 0.053584717 -0.025393719 1.25027 2.5576134
1.7142233 1.8911136 3.3269138 1.1314429 0.08146266 1.766402 2.2059402 1.7962171
0.04985147 -0.84676737 3.5180194 1.6486692 2.1404495 0.88109785 2.4922643 0.05164973
1.8685142 0.016098225 0.10334259 3.2968102 3.3327053 0.92587566 -1.4478462 1.454479
-0.0050412104 2.6939383 1.944817 0.04569208 -0.04273767 2.0661 2.8146524 0.014187485
2.5619764 -0.008258307 0.051397625 0.4088475 1.5769476 1.6505697 1.1968142 0.56308067
0.034058817 -0.084613495 1.2461705 0.036183354 0.82193506 2.539563 1.1138334 0.6329523
0.49272335 0.17377046 -1.000295 -0.0022626463 0.09953794 2.1041236 -0.067172594 -0.04609025
1.5518225 1.5458487 3.44503 2.580058 1.3200843 0.11214951 0.030440994 1.9208674
0.037645724 0.056949593 3.277252 0.06339017 1.6502641 1.4934156 1.9913346 0.98803174
-0.002641244 0.055654082 0.9297563 0.736608 0.00565101 1.703878 -0.059378266 1.2950548
0.024661118 1.2247096 -0.011312969 1.9495037 -0.007007551 0.9568084 -0.030215396 2.2195544
-0.010052662 0.0036478185 1.0031033 2.1156244 0.8375165 -0.019310728 2.7312949 -0.08377416
2.1367211 2.015873 0.010601 0.018649304 0.98068327 1.7392102 1.376514 0.67885244
0.049569994 1.3954415 1.8651814 0.077362984 -0.048533477 0.0110356435 -0.06430094 0.0061481786
0.57449675 1.822288 3.967966 0.1029841 2.942399 1.1286312 0.8225396 2.6973155
2.147034 0.6699153 2.1237092 2.4162045 -0.0498864 -0.04436603 1.6746472 2.358934
1.9168615 1.828063 2.0746891 1.2286524 -0.060991414 1.2847543 1.9210763 1.5886568
-0.1538526 -0.98167133 3.3615005 1.2473177 2.6145773 0.69234985 2.5082085 0.03543196
1.9863651 0.018744022 0.3171401 3.0588388 3.8350544 1.1863214 -1.091792 1.3235404
0.05074028 2.1669197 1.8045834 0.019091621 0.04883697 2.308786 1.6514972 -0.050121002
3.0107603 0.046732627 0.019558093 0.7472263 1.6895111 1.6803883 0.7109067 0.31888488
-0.022619277 -0.041206732 2.0648487 -0.066295154 0.7351765 4.2056365 2.1003966 0.37692374
0.9691612 0.020724833 -0.84435457 0.04279028 -0.05277231 1.8297739 0.12648624 -0.065280795
1.4702543 1.5406256 3.5314841 2.6604686 -1.3414758 -0.06583558 -0.01943393 2.4930375
0.0012880653 0.040798537 2.029274 0.08631673 1.0794746 2.055959 2.1010232 0.81678945
0.05746785 -0.013187386 0.7786117 0.3879094 -0.018356457 1.3035555 -0.039959393 1.7889732
0.0055309534 1.4868608 -0.0832896 1.6226078 -0.032145966 0.82012385 0.06390703 3.3798347
-0.048631035 -0.004283175 1.0626473 1.8577873 0.71035355 -0.07308627 2.722586 0.076065116
2.610457 2.2388775 0.05510915 0.049372885 1.0502206 1.447453 1.3542341 0.9394392
00000000: 0258 3abd d33f c03f 171e d03f a05b 723d
00000010: 3ddb 7a3d b51d 7d3d 342b 31bc 106e acbc
00000020: 3aea 60bc 6401 cc3f ade3 7f40 c564 b239
00000030: eea2 3d40 d922 a93f 5308 463f d7e5 0740
00000040: c285 0d40 3b6c 5c3f 95cb fc3f 8619 0740
00000050: a67b 5b3d 7d06 d0bc d908 a03f f0af 2340
00000060: ab6b db3f 0310 f23f 28ec 5440 1fd3 903f
00000070: e5d5 a63d 7619 e23f 202e 0d40 71ea e53f
00000080: 0e31 4c3d bfc5 58bf 3b27 6140 9807 d33f
00000090: 20fd 0840 a18f 613f 4281 1f40 ab8e 533d
000000a0: 792b ef3f 6de0 833c 48a5 d33d f0fe 5240
000000b0: 0b4b 5540 3006 6d3f 0653 b9bf 5e2c ba3f
000000c0: bd30 a5bb 7c69 2c40 c3ef f83f 9e27 3b3d
000000d0: b20d 2fbd fb3a 0440 4423 3440 a072 683c
000000e0: 6cf7 2340 da4d 07bc 5186 523d 7654 d13e
000000f0: 6bd9 c93f de45 d33f 3531 993f 0e26 103f
00000100: 4281 0b3d d749 adbd 8482 9f3f ff34 143d
00000110: 566a 523f 3388 2240 1892 8e3f 2909 223f
00000120: 3c46 fc3e e2f0 313e ab09 80bf e848 14bb
00000130: 8cda cb3d f6a9 0640 c991 89bd 21c9 3cbd
00000140: 1fa2 c63f 5fde c53f 5f7b 5c40 ac1f 2540
00000150: 86f8 a83f a4ae e53d 645f f93c fcde f53f
00000160: 6732 1a3d fa43 693d 7fbe 5140 b5d2 813d
00000170: db3b d33f 3e28 bf3f 0de4 fe3f a6ef 7c3f
00000180: b918 2dbb 89f5 633d 8204 6e3f 5892 3c3f
00000190: 1c2c b93b ad18 da3f a036 73bd 5bc4 a53f
000001a0: 1d06 ca3c 49c3 9c3f 085a 39bc 5689 f93f
000001b0: 999f e5bb 65f1 743f 4786 f7bc 2e0d 0e40
000001c0: ecb3 24bc 3d10 6f3b b065 803f 6466 0740
000001d0: 7b67 563f 8831 9ebc 89cd 2e40 c991 abbd
000001e0: 0ac0 0840 1004 0140 d1af 2d3c 6dc6 983c
000001f0: 0f0e 7b3f 719e de3f 9c31 b03f 46c9 2d3f
00000200: e809 4b3d d49d b23f 44be ee3f 7c70 9e3d
00000210: 0acb 46bd d8ce 343c 36b0 83bd a976 c93b
00000220: 3812 133f bc40 e93f 28f3 7d40 54e9 d23d
00000230: 4450 3c40 fd76 903f f591 523f d1a0 2c40
00000240: 0169 0940 927f 2b3f daea 0740 18a3 1a40
00000250: af55 4cbd 27b9 35bd d75a d63f c6f8 1640
00000260: b85b f53f f8fd e93f b5c7 0440 7b44 9d3f
00000270: 22d2 79bd d472 a43f d4e5 f53f 1b59 cb3f
00000280: 898b 1dbe d04e 7bbf d322 5740 1ba8 9f3f
00000290: 3c55 2740 d73d 313f 7d86 2040 1a21 113d
000002a0: 3641 fe3f 108d 993c 3060 a23e 04c4 4340
000002b0: 8871 7540 61d9 973f d7bf 8bbf c669 a93f
000002c0: 0ad5 4f3d d0ae 0a40 97fc e63f 0866 9c3c
000002d0: 4609 483d 26c3 1340 4364 d33f ae4b 4dbd
000002e0: 4cb0 4040 b66a 3f3d 4b38 a03c 394a 3f3f
000002f0: e641 d83f f716 d73f fbfd 353f e144 a33e
00000300: 104c b9bc 64c8 28bd 7b26 0440 c1c5 87bd
00000310: 8734 3c3f 9394 8640 e66c 0640 26fc c03e
00000320: f31a 783f 20c7 a93c 9f27 58bf dc44 2f3d
00000330: c727 58bd 0836 ea3f 9c85 013e f0b1 85bd
00000340: 4b31 bc3f 3833 c53f d603 6240 1e45 2a40
00000350: 7bb5 abbf ced4 86bd e833 9fbc ed8d 1f40
00000360: 4dd4 a83a 5e1c 273d a0df 0140 d3c6 b03d
00000370: 392c 8a3f d594 0340 2a77 0640 1d19 513f
00000380: 6963 6b3d e80f 58bc 1953 473f 109c c63e
00000390: 4860 96bc e8da a63f 76ac 23bd 13fd e43f
000003a0: 003d b53b 7451 be3f bd93 aabd 9db1 cf3f
000003b0: 7dab 03bd a3f3 513f b0e1 823d 364f 5840
000003c0: 5631 47bd e059 8cbb d404 883f f9cb ed3f
000003d0: bbd9 353f 41ae 95bd d93e 2e40 07c8 9b3d
000003e0: ba11 2740 c549 0f40 22ba 613d 393b 4a3d
000003f0: a16d 863f 2446 b93f 8b57 ad3f 167f 703f

net.4.bias f4 [13]
1.4170948 0.8391572 0.7454468 1.2806002 1.258071 1.2688177 1.126673 0.8924182
0.9189376 0.664606 1.0477054 1.013171 0.76349527
00000000: 5d63 b53f 02d3 563f 9ad5 3e3f b5ea a33f
00000010: 7808 a13f 9e68 a23f d236 903f 8575 643f
00000020: 7f3f 6b3f 9e23 2a3f 361b 863f 96af 813f
00000030: 6d74 433f
