checkpoints2/team1_agent_2.pt (torch, 411297 bytes, 24 tensors)

net.0.weight f4 [128, 53]
-0.038803022 -0.030571315 -0.014687113 0.13175952 -0.0011898731 -0.097600244 -0.072797514 -0.022242654
0.02190104 0.061407324 0.07192888 -0.10373575 -0.04630083 -0.074930534 0.0111196805 0.022896891
-0.043134063 -0.03343619 0.08464356 -0.018030068 0.062459223 -0.01921547 -0.0034783438 0.08190799
-0.10186278 0.013141861 0.11809668 0.092582665 -0.07617914 -0.115413286 0.0070015355 0.003581286
0.10594901 0.041183013 -0.12665628 0.029148025 -0.019807052 0.09766113 0.08294403 -0.073735744
-0.024185987 -0.18153381 0.100195885 0.13916738 -0.03843497 -0.060819723 -0.090610616 -0.015754938
0.08066249 -0.13578305 -0.08675465 -0.011593277 0.07585993 -0.5263329 -0.22019514 -0.5442457
0.031188272 0.017897788 2.548617 1.0878494 0.5928927 0.9949136 0.91736317 1.8510598
1.069877 0.48560676 -0.25095952 0.22234805 -0.53359824 0.38303137 1.7372801 0.5783455
-0.3011377 0.37781444 0.03327375 -1.0455984 -0.94500625 0.18788461 0.23163782 -1.6630982
-0.7153192 -0.2713008 -0.3267086 0.058190506 2.5954683 -0.82215387 0.4352957 0.80430424
-0.29440123 0.7525943 -0.20013174 0.18078063 -0.94575673 -0.3539076 -0.59531844 0.18814549
-1.0201713 0.27000993 -1.1803935 0.057426326 0.4197639 0.4454245 0.13820522 0.5468102
0.28495044 -0.033584613 -0.006804234 -0.13607298 0.111556 0.09075106 0.0324274 0.05450717
-0.029576818 0.017707407 0.04076957 -0.09687817 0.04945099 -0.063246995 0.063765906 -0.08764301
0.017286777 -0.093955666 0.09692189 0.08336678 0.12242951 -0.13538316 -0.03123208 0.011885499
-0.0036412096 -0.1190239 0.039307438 -0.033799928 -0.10315861 0.09300454 0.10070272 0.06910916
0.027610043 0.09102904 -0.08309183 -0.1033109 0.0009995449 -0.099172 -0.001981878 -0.008524755
0.12145782 0.017708197 0.022399168 -0.2098562 -0.032063797 -0.037872605 0.14556284 0.04946178
-0.15192795 0.048576016 -0.06837659 -0.08091768 0.14077686 -0.023900919 -0.07084394 -0.15964112
-0.12979284 0.0650349 0.071152784 -0.081186205 -0.049744435 0.12947081 -0.116669096 0.010597322
-0.09601642 0.1329675 -0.02288878 -0.07727861 0.11243184 -0.00357382 -0.043986257 -0.01542074
0.09867081 -0.12434352 0.019908488 -0.12367742 0.10226441 0.0417631 -0.024093237 0.0035799742
0.07952501 -0.012410225 -0.043459732 -0.023925072 0.021432612 0.06783603 -0.061061855 0.10416847
0.109387815 -0.052639224 -0.111141674 0.024293931 0.19193123 -0.0961996 -0.12580545 -0.1847005
-0.077780925 0.07687317 0.09588847 0.103386186 0.0679708 -0.14193621 0.044692356 -0.067026995
-0.045278862 -0.012408989 -0.04204402 0.04251418 -0.3163004 0.3216122 -0.56521624 -0.7486389
0.07232535 -0.8565234 0.99064445 0.33984038 0.880971 -0.2291177 0.7826384 0.63016987
0.7653909 1.0351248 0.117614925 1.1229136 1.1324369 0.86637163 -0.33622172 -0.033486865
0.42291206 0.122455396 -0.34235534 0.3993485 0.33240426 -0.27930713 0.9343241 -0.022549147
0.80129975 0.4849114 0.21232937 -0.09033967 -0.20017926 0.25632873 -0.35353366 0.15162863
-0.076839775 0.04466827 -0.15548764 0.762802 0.39066905 0.3338982 0.15381421 0.06677925
00000000: ebef 1ebd b270 fabc 38a2 70bc f8eb 063e
00000010: 84f5 9bba a3e2 c7bd dd16 95bd 3a36 b6bc
00000020: cf69 b33c 3f86 7b3d 734f 933d 6973 d4bd
00000030: f0a5 3dbd 2e75 99bd 522f 363c 4392 bb3c
00000040: 58ad 30bd 63f4 08bd 9a59 ad3d cbb3 93bc
00000050: 3ed5 7f3d c369 9dbc edf4 63bb 60bf a73d
00000060: 6f9d d0bd f650 573c acdc f13d fb9b bd3d
00000070: cf03 9cbd cd5d ecbd 236d e53b 02b4 6a3b
00000080: cbfb d83d 85af 283d 2fb2 01be d7c7 ee3c
00000090: 6642 a2bc 8f02 c83d 8fde a93d c402 97bd
000000a0: b121 c6bc 00e4 39be 8033 cd3d e581 0e3e
000000b0: fd6d 1dbd 1a1e 79bd 0f92 b9bd 8010 81bc
000000c0: 6032 a53d b60a 0bbe 6cac b1bd baf1 3dbc
000000d0: 735c 9b3d c1bd 06bf d67a 61be b053 0bbf
000000e0: 8c7e ff3c 629e 923c 8a1c 2340 a63e 8b3f
000000f0: d1c7 173f a8b2 7e3f 50d8 6a3f 87ef ec3f
00000100: bbf1 883f 73a1 f83e c47d 80be 35af 633e
00000110: e599 08bf b01c c43e 325f de3f 730e 143f
00000120: b82e 9abe e570 c13e 0e4a 083d 2bd6 85bf
00000130: eeeb 71bf d364 403e 7732 6d3e 67e0 d4bf
00000140: 291f 37bf f0e7 8abe 5a46 a7be 2b59 6e3d
00000150: 271c 2640 ad78 52bf 14df de3e e2e6 4d3f
00000160: c2bb 96be 05aa 403f 56ef 4cbe 8f1e 393e
00000170: 1d1d 72bf 6033 b5be ca66 18bf 36a9 403e
00000180: f994 82bf be3e 8a3e 2217 97bf de37 6b3d
00000190: 4beb d63e ae0e e43e ab85 0d3e c1fb 0b3f
000001a0: 06e5 913e 0590 09bd 0df6 debb b756 0bbe
000001b0: 7977 e43d b1db b93d 98d2 043d e942 5f3d
000001c0: 154b f2bc 200f 913c fefd 263d 1068 c6bd
000001d0: 1f8d 4a3d a487 81bd b397 823d 2e7e b3bd
000001e0: 009d 8d3c d46b c0bd fc7e c63d 34bc aa3d
000001f0: 53bc fa3d e2a1 0abe 6bda ffbc 65bb 423c
00000200: 5ca1 6ebb cdc2 f3bd d600 213d cb71 0abd
00000210: d244 d3bd 2a79 be3d 3a3d ce3d 1a89 8d3d
00000220: 752e e23c 6f6d ba3d 0d2c aabd aa94 d3bd
00000230: 2903 833a b11a cbbd 65e2 01bb 6aab 0bbc
00000240: e1be f83d c810 913c 767e b73c 8be4 56be
00000250: 5455 03bd 4e20 1bbd 6d0e 153e 6f98 4a3d
00000260: 0093 1bbe a5f7 463d 0709 8cbd 2bb8 a5bd
00000270: cf27 103e dccb c3bc a116 91bd f678 23be
00000280: 6ae8 04be 0531 853d 8db8 913d f444 a6bd
00000290: d2c0 4bbd ff93 043e 35f0 eebd 64a0 2d3c
000002a0: 42a4 c4bd a228 083e 4081 bbbc 3f44 9ebd
000002b0: aa42 e63d c036 6abb ef2a 34bd 45a7 7cbc
000002c0: ec13 ca3d d1a7 febd 2017 a33c 964a fdbd
000002d0: 0170 d13d c90f 2b3d 2e5f c5bc 009e 6a3b
000002e0: 02de a23d 4254 4bbc d502 32bd 83fe c3bc
000002f0: 7293 af3c 9eed 8a3d ff1b 7abd 4756 d53d
00000300: b806 e03d 3a9c 57bd 3f9e e3bd 1104 c73c
00000310: 9f89 443e 4c04 c5bd 25d3 00be 2122 3dbe
00000320: 9b4b 9fbd ae6f 9d3d 2d61 c43d 23bc d33d
00000330: 4634 8b3d ba57 11be 550f 373d 7345 89bd
00000340: 5476 39bd 124f 4bbc 5a36 2cbd 5923 2e3d
00000350: 20f2 a1be 5baa a43e 03b2 10bf cda6 3fbf
00000360: 501f 943d 1e45 5bbf e09a 7d3f 8fff ad3e
00000370: 5187 613f d59d 6abe fd5a 483f d052 213f
00000380: a8f0 433f f87e 843f 18e0 f03d a2bb 8f3f
00000390: b1f3 903f 88ca 5d3f 4125 acbe 8629 09bd
000003a0: ee87 d83e e5c9 fa3d 3349 afbe 6877 cc3e
000003b0: e430 aa3e 5801 8fbe dd2f 6f3f fdb8 b8bc
000003c0: fb21 4d3f 4f46 f83e df6c 593e 0104 b9bd
000003d0: cbfb 4cbe 853d 833e 5d02 b5be 8944 1b3e
000003e0: 2c5e 9dbd 13f6 363d 2738 1fbe fe46 433f
000003f0: c605 c83e b4f4 aa3e 7981 1d3e 8fc3 883d

net.0.bias f4 [128]
-0.20949292 0.1010506 -0.1911448 -0.11632065 0.5789945 -0.17735259 0.31130707 0.33335483
-0.38033575 -0.17510633 0.012145024 0.31252074 0.25668257 0.037659626 -0.5307005 0.54830384
0.07531708 0.1859906 0.22121607 0.4363565 -0.077795856 -0.16559936 0.22607426 0.26415905
-0.15435255 -0.28305066 -0.03180735 -0.2895345 -0.4812886 -0.31701523 0.36338326 0.16162153
-0.13016999 0.21319772 0.6525822 0.59030163 -0.022540843 0.035939217 0.1032342 -0.3252375
0.23076294 0.18538973 0.35102817 -0.06946917 0.20848824 0.4700036 0.12947246 0.45000336
-0.17092095 -0.23914768 -0.2275109 0.65881157 0.74060297 0.12016638 0.14791952 0.22972314
0.14003658 0.13692382 0.57903105 0.23628768 -0.14102204 0.37856928 0.78762776 -0.39149415
-0.13872549 0.3002513 0.39777583 0.31239685 0.08518062 0.23603047 0.3469833 0.002946249
0.6411196 0.32136226 -0.039255258 0.4566413 0.811996 0.20332883 0.029105559 -0.02898199
0.27735028 0.030893328 -0.23671216 0.18114913 -0.027096074 0.28831533 -0.13608083 0.14017177
0.033014785 0.50509447 0.43967253 0.36295277 0.36707613 0.020204218 -0.18682453 0.21337822
0.14130956 -0.047424812 0.31908306 -0.16794084 0.07305764 -0.17664601 0.49661744 -0.070919365
-0.12982821 0.23996575 0.16391578 -0.12745483 -0.22042501 -0.17557174 0.16852693 0.20156574
0.7045955 -0.20724231 0.70018876 -0.06672686 0.038074844 -0.08686157 -0.09134567 0.2488005
0.60298103 -0.02106975 0.8537627 0.08858538 0.56770533 -0.36336875 -0.025353953 0.20138322
00000000: 5085 56be 9ef3 ce3d 76bb 43be 8539 eebd
00000010: fc38 143f eb9b 35be a463 9f3e 7cad aa3e
00000020: 5ebb c2be 134f 33be ecfb 463c b802 a03e
00000030: e66b 833e fb40 1a3d fddb 07bf a45d 0c3f
00000040: d73f 9a3d 5274 3e3e 7786 623e 1f6a df3e
00000050: 6f53 9fbd e192 29be 0380 673e db3f 873e
00000060: 980e 1ebe 04ec 90be 6d48 02bd de3d 94be
00000070: 766b f6be d24f a2be 5f0d ba3e 1d80 253e
00000080: 484b 05be 8150 5a3e a10f 273f 021e 173f
00000090: 93a7 b8bc 0035 133d 746c d33d 8885 a6be
000000a0: 1f4d 6c3e ced6 3d3e f7b9 b33e da45 8ebd
000000b0: f17d 553e 50a4 f03e 6e94 043e d766 e63e
000000c0: e705 2fbe 21e3 74be 9ef8 68be e0a7 283f
000000d0: 2898 3d3f cb19 f63d 3778 173e 8b3c 6b3e
000000e0: c065 0f3e c235 0c3e 613b 143f 66f5 713e
000000f0: 1568 10be d5d3 c13e f9a1 493f ec71 c8be
00000100: 0e0e 0ebe 8aba 993e 46a9 cb3e 7bf2 9f3e
00000110: 2d73 ae3d f9b1 713e cca7 b13e db15 413b
00000120: 6a20 243f 9889 a43e 1fca 20bd e3cc e93e
00000130: f8de 4f3f 6f35 503e c86e ee3c a36b edbc
00000140: db00 8e3e 0114 fd3c ac64 72be 287f 393e
00000150: 96f8 ddbc 119e 933e c658 0bbe 3089 0f3e
00000160: 833a 073d df4d 013f c21c e13e f2d4 b93e
00000170: 67f1 bb3e 5183 a53c ee4e 3fbe d27f 5a3e
00000180: 74b3 103e 8540 42bd db5e a33e aff8 2bbe
00000190: 3e9f 953d b1e2 34be a444 fe3e 2c3e 91bd
000001a0: b0f1 04be 95b9 753e 8ad9 273e 8583 02be
000001b0: 18b7 61be 14c9 33be 5392 2c3e 4067 4e3e
000001c0: 5f60 343f 5437 54be 923f 333f 18a8 88bd
000001d0: 5ef4 1b3d 7be4 b1bd 7013 bbbd 8fc5 7e3e
000001e0: f75c 1a3f 789a acbc 3190 5a3f 406c b53d
000001f0: 2355 113f 780b babe 18b3 cfbc 6737 4e3e

net.2.weight f4 [128, 128]
0.00064805325 -3.2419937 -0.0029760546 -0.017386205 0.71856767 -0.015487704 -0.2824703 1.4094361
-0.09596894 -0.04759251 0.7395803 0.9224391 0.6613515 1.7399445 -0.79669285 0.67753106
-1.53611 0.73641694 1.7144617 -1.7290887 -1.4521712 0.0027964101 0.8179026 -0.94250846
-1.5514486 1.0595266 -0.4631788 -3.617505 -1.9965637 -2.5104113 -0.1404686 -3.1179316
-0.012669013 1.8352858 -2.0156486 0.44450906 1.8769448 -1.3870283 -0.20077215 -3.5779402
-1.2481877 -1.2604125 0.62148196 -2.0434582 0.1860134 -0.45752254 0.2046619 -0.5025699
0.07986404 0.060732547 -1.2202629 0.37823105 0.12157243 1.9388305 -0.3017003 0.27032954
0.2965177 0.33767444 -0.741695 -1.2197963 -0.081238806 0.3226418 -0.18038066 -1.849156
0.0006683291 1.4099327 -0.5858732 1.9651501 2.040576 -0.8352116 0.738126 2.535401
0.29475194 -0.98824364 0.017395137 -1.2604198 0.11196266 1.2048262 -1.3048044 0.03769304
2.0298038 0.0903083 -0.58530337 -2.2417352 -0.045654513 -0.40816602 0.025622625 -1.9169523
-3.0701067 0.51569957 0.45702383 -2.9151955 0.03540879 0.35711145 -2.9234056 2.3365445
2.2488623 -0.6871168 2.4123385 -0.09138306 -1.2522086 -0.0055050333 -0.098932564 -5.643539
-0.04662455 -3.3282712 -3.3396738 -2.0939846 0.03735431 0.040576942 -1.6717983 -0.6895098
0.13612367 -0.066427074 -0.886959 -0.040475894 1.5637612 -0.08121558 1.4993454 -0.8845483
-0.28820476 0.58342075 0.02081275 0.6112641 0.1888967 -1.8714377 0.93145853 0.0043101897
0.0010643025 -2.0332108 -0.055645995 0.06653412 0.5867178 0.079850055 0.6130702 -0.11941317
-0.60969263 -0.025105244 0.8437147 0.93380415 0.6925101 2.262856 -1.5901453 0.17095302
-1.5399215 0.77250624 1.848246 -2.634378 -3.2966654 -0.13850932 1.7760645 -1.565953
-0.66162497 2.155039 -1.5286657 -2.2504742 -0.5272541 -2.167852 1.5305567 -2.3329465
-0.046170708 1.2147716 -2.6299431 0.4149418 2.014855 -1.3953992 -0.7488985 -1.7393298
-2.0818079 -1.136749 0.1890552 -3.5541415 0.79072684 0.08279429 1.1194226 -1.6451072
0.073883876 -0.07309465 0.4319273 0.08139147 0.27222702 1.4218075 0.96482193 -0.21969762
0.6485763 -0.41612124 -0.66071784 -1.2059919 -0.052895352 0.8623125 -0.15044029 -2.3019328
0.11560363 1.2978103 -1.6110245 2.5523524 2.476262 -1.1833841 1.0896827 1.6195575
0.21983008 0.7300249 -0.034207523 -0.4867318 -0.28726244 1.9351208 -2.8467488 -0.050348308
1.8617681 -0.15387243 1.1053911 -3.454202 -0.029551776 -1.1652414 -0.052598637 -2.1988027
-4.119782 0.31367654 0.5036607 -2.4841862 -0.23391692 0.038551286 -1.9104884 0.69434154
0.47230276 0.5698605 2.6953862 -0.08033884 -2.0175686 0.043736782 -0.22838199 -2.1404893
-0.089762785 -2.9461682 -3.57101 -2.85589 -0.028130004 -0.048697453 0.10634531 -0.627108
0.43225822 -0.080217704 -0.3544396 -0.034751218 2.408002 -0.009257636 1.4940573 0.672855
-0.1684088 0.3464059 -0.30242538 0.7665541 0.16936123 -0.031246874 1.4039737 -0.29898712
00000000: 1ee2 293a d37c 4fc0 e909 43bb 846d 8ebc
00000010: 0df4 373f 24c0 7dbc f29f 90be 6768 b43f
00000020: 5d8b c4bd 5df0 42bd 2255 3d3f f824 6c3f
00000030: 554e 293f 80b6 de3f 10f4 4bbf ad72 2d3f
00000040: 419f c4bf d285 3c3f 7b73 db3f c752 ddbf
00000050: bfe0 b9bf fa43 373b 1162 513f 3c48 71bf
00000060: de95 c6bf 919e 873f c625 edbe 3485 67c0
00000070: 668f ffbf 94aa 20c0 00d7 0fbe 318c 47c0
00000080: b191 4fbc a5ea ea3f 6300 01c0 b196 e33e
00000090: ba3f f03f 258a b1bf 3797 4dbe f9fc 64c0
000000a0: 9dc4 9fbf 3255 a1bf 7119 1f3f 05c8 02c0
000000b0: 4c7a 3e3e 6540 eabe e492 513e 6ca8 00bf
000000c0: c28f a33d b1c2 783d 9331 9cbf 80a7 c13e
000000d0: f7fa f83d 992b f83f 7678 9abe a268 8a3e
000000e0: 2bd1 973e aae3 ac3e b9df 3dbf 4922 9cbf
000000f0: 8860 a6bd 4e31 a53e b5b5 38be 25b1 ecbf
00000100: cf32 2f3a ad78 b43f c9fb 15bf 0a8a fb3f
00000110: cc98 0240 6dd0 55bf d3f5 3c3f 0344 2240
00000120: bae9 963e 89fd 7cbf 3f80 8e3c 7055 a1bf
00000130: ae4c e53d bf37 9a3f d503 a7bf 0464 1a3d
00000140: 4ee8 0140 8ff3 b83d 71d6 15bf 9778 0fc0
00000150: 3a00 3bbd 23fb d0be 8ae6 d13c b15e f5bf
00000160: a17c 44c0 e304 043f 07ff e93e 9092 3ac0
00000170: cf08 113d 50d7 b63e 1419 3bc0 f289 1540
00000180: 5ced 0f40 e3e6 2fbf c163 1a40 0b27 bbbd
00000190: 5f48 a0bf 9163 b4bb 289d cabd df97 b4c0
000001a0: 62f9 3ebd 6502 55c0 37bd 55c0 d803 06c0
000001b0: d500 193d 0234 263d 7dfd d5bf b783 30bf
000001c0: 0164 0b3e eb0a 88bd bf0f 63bf 0dca 25bd
000001d0: 5429 c83f 5b54 a6bd 8dea bf3f c271 62bf
000001e0: 938f 93be 105b 153f 807f aa3c ce7b 1c3f
000001f0: 236e 413e 458b efbf 1174 6e3f 7e3c 8d3b
00000200: 1180 8b3a 2020 02c0 0eed 63bd 0a43 883d
00000210: 2333 163f 6d88 a33d 2bf2 1c3f e48e f4bd
00000220: d114 1cbf 83a9 cdbc b0fd 573f ca0d 6f3f
00000230: 5848 313f a2d2 1040 e289 cbbf 4f0e 2f3e
00000240: 261c c5bf f8c2 453f 5393 ec3f a699 28c0
00000250: 91fc 52c0 63d5 0dbe 1556 e33f 2671 c8bf
00000260: 4160 29bf 29ec 0940 51ab c3bf c507 10c0
00000270: 20fa 06bf 16be 0ac0 48e9 c33f ff4e 15c0
00000280: 7f1d 3dbd a37d 9b3f fd50 28c0 4073 d43e
00000290: 62f3 0040 719c b2bf d0b7 3fbf 5ca2 debf
000002a0: 573c 05c0 fe80 91bf b097 413e 0e77 63c0
000002b0: 136d 4a3f 0d90 a93d 3d49 8f3f df92 d2bf
000002c0: 6e50 973d a6b2 95bd 9325 dd3e 92b0 a63d
000002d0: 5761 8b3e cafd b53f 92fe 763f 6af8 60be
000002e0: 1909 263f d80d d5be ce24 29bf f15d 9abf
000002f0: cca8 58bd 83c0 5c3f 050d 1abe de52 13c0
00000300: 99c1 ec3d a61e a63f 0d36 cebf be59 2340
00000310: 147b 1e40 2179 97bf b97a 8b3f a94d cf3f
00000320: 231b 613e e9e2 3a3f 301d 0cbd e934 f9be
00000330: 1014 93be 0ab2 f73f 2231 36c0 073a 4ebd
00000340: 6b4e ee3f bc90 1dbe 757d 8d3f a511 5dc0
00000350: 9116 f2bc a126 95bf ab71 57bd 2fb9 0cc0
00000360: 41d5 83c0 369a a03e e8ef 003f e8fc 1ec0
00000370: eb87 6fbe f4e7 1d3d e28a f4bf 5ec0 313f
00000380: abd1 f13e 61e2 113f 3581 2c40 b188 a4bd
00000390: d81f 01c0 5725 333d f8dc 69be c7fd 08c0
000003a0: 8dd5 b7bd 058e 3cc0 6e8b 64c0 e7c6 36c0
000003b0: e570 e6bc fb76 47bd 92cb d93d 268a 20bf
000003c0: f350 dd3e 2e49 a4bd 1b79 b5be 4b57 0ebd
000003d0: b41c 1a40 57ad 17bc 453d bf3f 3a40 2c3f
000003e0: 5b73 2cbe 1d5c b13e 80d7 9abe e43c 443f
000003f0: 086d 2d3e 72f9 ffbc 69b5 b33f d714 99be

net.2.bias f4 [128]
0.28242213 0.20501281 0.013699564 0.73712057 -0.22337115 -0.15688966 0.4846178 0.6466299
0.36484072 0.434672 0.42108855 -0.0103913555 -0.2859178 -0.0073155 -0.09946279 -0.34078762
0.3490436 -0.2242687 -0.09364777 -0.03382195 -0.05899426 1.5409805 -0.11407139 0.5545159
0.3667727 -0.033583276 0.83771986 0.2099005 -0.11757834 0.3236215 -0.07851761 -0.038607944
-0.100625455 1.2435462 0.5438009 0.5326362 0.27380976 -0.1541573 0.48508173 1.1566008
-0.12755756 -0.06714588 1.5954055 0.6440128 0.09546759 0.40293092 0.14515543 -0.028112998
-0.0714598 0.41639706 -0.06826609 0.2234083 0.71821016 0.626936 0.40894648 0.22026056
-0.12875251 -0.100465715 -0.0069148694 -0.13232213 -0.09114978 0.48371598 -0.0044258786 -0.07419755
-0.18435888 0.5016436 -0.09906973 -0.07865978 -0.06586864 0.6562923 -0.049576923 0.3859802
0.37868837 0.28899068 -0.4481721 -0.12474908 1.2373717 0.5308233 0.42250478 0.20685045
0.0027287079 -0.060089577 0.021426568 -0.04213518 1.3368111 0.08373742 -0.014683677 0.18937902
0.027315658 0.49226308 0.43981096 -0.047015395 1.1019244 -0.25778648 0.22193244 0.37631953
0.39710066 -0.14777616 0.098910764 0.43709302 -0.080748096 -0.1160322 -0.03196841 0.26711616
-0.106118746 0.019323388 -0.080783986 0.49837497 -0.008892262 0.58812517 1.2685705 -0.26110867
-0.15119436 0.52006865 1.664785 1.0360237 0.44981083 0.03306711 0.39276573 0.8079728
0.09631902 0.018444685 -0.089933574 -0.028284136 1.0625653 0.107873656 -0.058193546 0.379292
00000000: a299 903e e1ee 513e 2374 603c efb3 3c3f
00000010: 68bb 64be afa7 20be d31f f83e 8a89 253f
00000020: 67cc ba3e 548d de3e eb98 d73e 8140 2abc
00000030: d163 92be ddb6 efbb 26b3 cbbd b77b aebe
00000040: d8b5 b23e b2a6 65be 67ca bfbd e388 0abd
00000050: f7a3 71bd d93e c53f 439e e9bd c1f4 0d3f
00000060: a2c9 bb3e 9e8e 09bd cf74 563f 28f0 563e
00000070: eacc f0bd b8b1 a53e d7cd a0bd 5d23 1ebd
00000080: b814 cebd 862c 9f3f 8936 0b3f d95a 083f
00000090: cb30 8c3e 69db 1dbe a25c f83e 7f0b 943f
000000a0: 739e 02be c783 89bd 3f36 cc3f 06de 243f
000000b0: 8384 c33d f64c ce3e a0a3 143e 3b4d e6bc
000000c0: 8459 92bd ff31 d53e 17cf 8bbd 25c5 643e
000000d0: 9fdc 373f e17e 203f 6f61 d13e fc8b 613e
000000e0: b3d7 03be f8c0 cdbd 2196 e2bb 747f 07be
000000f0: bcac babd 9fa9 f73e f606 91bb e3f4 97bd
00000100: 93c8 3cbe b76b 003f 12e5 cabd 6118 a1bd
00000110: 23e6 86bd c602 283f 2c11 4bbd 329f c53e
00000120: 71e3 c13e 96f6 933e d076 e5be 727c ffbd
00000130: 3262 9e3f 09e4 073f 8c52 d83e 9bd0 533e
00000140: 1fd4 323b 7d20 76bd c586 af3c f095 2cbd
00000150: a01c ab3f 867e ab3d ce93 70bc 93ec 413e
00000160: 16c5 df3c e809 fc3e e72e e13e 3793 40bd
00000170: dc0b 8d3f 97fc 83be 4242 633e f4ac c03e
00000180: c750 cb3e a252 17be ba91 ca3d a8ca df3e
00000190: 425f a5bd 4aa2 edbd 4ff1 02bd 73c3 883e
000001a0: c954 d9bd 154c 9e3c 1372 a5bd 012b ff3e
000001b0: dab0 11bc 5f8f 163f 8560 a23f 09b0 85be
000001c0: b2d2 1abe 3823 053f ad17 d53f 6d9c 843f
000001d0: 9b4d e63e 6171 073d 9718 c93e 4ed7 4e3f
000001e0: e842 c53d 4f19 973c 182f b8bd 22b4 e7bc
000001f0: 2402 883f ddec dc3d 5b5c 6ebd 9032 c23e

net.4.weight f4 [13, 128]
2.0942056 1.3883277 0.12554704 2.1408918 -0.778541 0.03951277 0.9810844 1.1925157
1.4696293 1.2308956 0.9618612 -0.0153273 -0.8940412 -0.059518505 -0.06928658 1.0848905
1.3922 0.49876934 0.019577652 -0.044130877 0.009914238 1.3744851 -0.08781073 0.9769358
0.87496054 -0.014963633 0.89525723 1.3376496 -0.047953755 0.9704153 0.09522657 0.08653596
0.10989261 0.9617888 1.2348367 1.0922632 1.7128332 -0.037030946 1.215698 0.9810041
0.004293956 0.065978914 0.53498435 1.3837985 1.3647165 1.9311175 1.7757685 -0.060688797
-0.04356471 1.05654 0.060660683 -0.87511504 1.1074097 1.4434953 1.2149118 1.104284
0.015626974 -0.0428631 -0.048060223 0.051250093 -0.050841633 1.9339883 -0.038094904 -0.5944276
-0.29991412 1.4313153 -0.021611627 0.03105282 -0.055958558 1.039926 0.053624947 1.345797
1.0537633 2.8089406 -0.6260257 0.101495214 0.8319157 0.8683877 1.4025449 1.135402
-1.2972265 0.07764322 -0.04091537 -0.025791416 0.7636082 1.5469787 0.090021476 0.7324156
-0.019932318 1.2720724 0.9057368 -0.043079324 0.75713384 -0.028988874 0.66972154 1.7183661
1.2608085 0.052074343 1.2878649 1.093295 0.030409008 0.045277588 0.06535899 1.0915252
0.03942405 0.025265582 -0.0455379 1.3058667 -0.06255257 1.787581 0.8842456 -1.0694625
-0.0045535835 2.0906448 1.4355714 0.39176112 1.4364834 -0.023822434 1.4867151 0.47662163
-0.48729375 -1.3373487 0.003757 0.05630871 0.7425312 1.5644592 0.042874575 0.8439679
1.8257178 2.138814 0.52296513 1.8000913 0.48055166 0.02279356 0.83539474 2.541383
1.5172372 1.1087382 1.386357 0.010731383 -0.59744877 -0.013236099 -0.046226714 1.5519732
1.5629878 0.54640174 -0.076194465 0.113340415 -0.008963582 1.4567429 -0.05143436 1.1508648
0.73190016 0.034963693 0.9134018 1.2787347 0.08235031 1.695405 0.04039535 0.027524687
0.037100665 0.7731707 1.0287687 0.88219684 1.5582211 0.06834966 1.1209128 0.8757053
0.0048431465 -0.06646408 1.1137762 1.4960184 1.209599 1.5324029 1.4736148 0.060541194
0.28205597 1.4837347 -0.06988456 -0.49096224 1.2212358 1.8217155 1.3358222 1.0607339
-0.05034347 0.01853165 -0.050873503 -0.01350377 -0.034423795 1.4518105 -0.037262008 -0.43204147
0.1536833 0.83987755 0.054263014 0.032415144 -0.05111892 0.9848117 -0.006957311 1.163914
1.3238491 3.0007586 -0.5637449 0.0024306427 0.7851155 0.9440555 1.2201213 1.0351838
-0.85493106 -0.03313245 0.052175116 0.06858353 0.7075017 1.5653595 0.06301041 1.341968
-0.039652202 1.3795614 1.2467564 0.0703638 0.39936253 0.64109224 1.4299966 1.0379268
1.4198487 -0.022730084 0.9666191 0.8648985 -0.031922743 0.007636033 -0.043745942 1.3415369
0.014972938 0.0122950515 0.0016200091 1.1282852 -0.017811712 1.3332223 1.0658002 -1.5017782
-0.022487894 1.5640079 0.9167077 0.54530776 0.8219168 0.033987395 1.0221164 0.78894097
-0.666128 -1.1332545 0.04699459 -0.076461345 0.7490019 1.8110894 -0.04546053 1.1011794
00000000: 7707 0640 b9b4 b13f 678f 003e 5f04 0940
00000010: 774e 47bf 24d8 213d 5928 7b3f 5ba4 983f
00000020: d01c bc3f fd8d 9d3f 893c 763f 5b1f 7bbc
00000030: e2df 64bf adc9 73bd 1fe6 8dbd b1dd 8a3f
00000040: 9c33 b23f b25e ff3e 5061 a03c 94c2 34bd
00000050: 546f 223c 21ef af3f 1dd6 b3bd 7718 7a3f
00000060: 6afd 5f3f 072a 75bc 942f 653f 1a38 ab3f
00000070: 286b 44bd 236d 783f 2606 c33d c439 b13d
00000080: 600f e13d ca37 763f 210f 9e3f 48cf 8b3f
00000090: 1e3e db3f c3ad 17bd fe9b 9b3f 1623 7b3f
000000a0: 50b4 8c3b f41f 873d bcf4 083f 4f20 b13f
000000b0: 08af ae3f dc2e f73f 624c e33f d194 78bd
000000c0: e970 32bd b43c 873f 5677 783d 8a07 60bf
000000d0: 9abf 8d3f 74c4 b83f 3b82 9b3f 2e59 8d3f
000000e0: 2404 803c 3891 2fbd ccda 44bd 9eeb 513d
000000f0: 513f 50bd ee8c f73f 6709 1cbd 682c 18bf
00000100: 588e 99be 5735 b73f de0a b1bc 7c62 fe3c
00000110: cd34 65bd 4c1c 853f d5a5 5b3d 1343 ac3f
00000120: b7e1 863f afc5 3340 3843 20bf b9dc cf3d
00000130: 6df8 543f a84e 5e3f 9786 b33f da54 913f
00000140: 850b a6bf 6903 9f3d e096 27bd 8548 d3bc
00000150: d47b 433f 6603 c63f 2e5d b83d 977f 3b3f
00000160: 1a49 a3bc 45d3 a23f 5ede 673f f273 30bd
00000170: 86d3 413f 137a edbc df72 2b3f 6cf3 db3f
00000180: 2c62 a13f e84b 553d c2d8 a43f 17f1 8b3f
00000190: 501c f93c fe74 393d efda 853d 19b7 8b3f
000001a0: 1d7b 213d c4f9 ce3c f385 3abd a426 a73f
000001b0: 901b 80bd 74cf e43f eb5d 623f 26e4 88bf
000001c0: 3a36 95bb 20cd 0540 cec0 b73f ea94 c83e
000001d0: b0de b73f 4427 c3bc ae4c be3f c007 f43e
000001e0: 917e f9be 3e2e abbf 0038 763b f6a3 663d
000001f0: 8616 3e3f 3340 c83f 409d 2f3d 480e 583f
00000200: 1fb1 e93f 54e2 0840 0be1 053f 6469 e63f
00000210: de0a f63e 8fb9 ba3c 6edc 553f 05a6 2240
00000220: d434 c23f 22eb 8d3f 2574 b13f afd2 2f3c
00000230: 67f2 18bf 39dc 58bc 3958 3dbd 0fa7 c63f
00000240: fc0f c83f fce0 0b3f d80b 9cbd 051f e83d
00000250: fddb 12bc 8d76 ba3f d6ac 52bd 8a4f 933f
00000260: cf5d 3b3f 1736 0f3d b3d4 693f 94ad a33f
00000270: 48a7 a83d 0803 d93f 9875 253d 747b e13c
00000280: def6 173d 84ee 453f b1ae 833f a7d7 613f
00000290: ca73 c73f e8fa 8b3d 127a 8f3f 392e 603f
000002a0: 42b3 9e3b 521e 88bd 3890 8e3f 887d bf3f
000002b0: 24d4 9a3f c725 c43f 699f bc3f 0bfa 773d
000002c0: a469 903e 05eb bd3f a31f 8fbd 675f fbbe
000002d0: 7451 9c3f f92d e93f 39fc aa3f 21c6 873f
000002e0: f434 4ebd b0cf 973c bc60 50bd eb3e 5dbc
000002f0: f7ff 0cbd edd4 b93f 0ca0 18bd 8a34 ddbe
00000300: 285f 1d3e 3702 573f e542 5e3d bec5 043d
00000310: 1362 51bd 9f1c 7c3f 28fa e3bb 22fb 943f
00000320: e373 a93f 6e0c 4040 9651 10bf 6b4b 1f3b
00000330: 54fd 483f 9fad 713f ef2c 9c3f e780 843f
00000340: c3dc 5abf e4b5 07bd 93b5 553d 8675 8c3d
00000350: d51e 353f b35d c83f 9a0b 813d 9cc5 ab3f
00000360: 596a 22bd 7895 b03f b795 9f3f e51a 903d
00000370: 3f79 cc3e 9f1e 243f 210a b73f c9da 843f
00000380: 9abd b53f 7134 babc 5974 773f fd69 5d3f
00000390: 6cc1 02bd b037 fa3b f22e 33bd 7bb7 ab3f
000003a0: 0e51 753c 2f71 493c 7c56 d43a a66b 903f
000003b0: dee9 91bc 07a7 aa3f 246c 883f 453a c0bf
000003c0: 8838 b8bc 6931 c83f 5bad 6a3f 4a99 0b3f
000003d0: 2469 523f 5e36 0b3d b6d4 823f 09f8 493f
000003e0: 5d87 2abf 7c0e 91bf 667d 403d c497 9cbd
000003f0: 97be 3f3f c7d1 e73f d234 3abd 72f3 8c3f

net.4.bias f4 [13]
1.3186927 0.8617977 0.4634355 0.64167637 0.95382386 0.8998183 0.97865844 0.90019095
0.27746835 0.112061486 0.7065273 0.70868516 0.5566958
00000000: ecca a83f c69e 5c3f 6b47 ed3e e744 243f
00000010: cd2d 743f 7e5a 663f 5c89 7a3f ea72 663f
00000020: 5510 8e3e 7e80 e53d f9de 343f 646c 353f
00000030: 9e83 0e3f

net.0.weight f4 [128, 53]
-0.038803022 -0.030571315 -0.014687113 0.13175952 -0.0011898731 -0.097600244 -0.072797514 -0.022242654
0.02190104 0.061407324 0.07192888 -0.10373575 -0.04630083 -0.074930534 0.0111196805 0.022896891
-0.043134063 -0.03343619 0.08464356 -0.018030068 0.062459223 -0.01921547 -0.0034783438 0.08190799
-0.10186278 0.013141861 0.11809668 0.092582665 -0.07617914 -0.115413286 0.0070015355 0.003581286
0.10594901 0.041183013 -0.12665628 0.029148025 -0.019807052 0.09766113 0.08294403 -0.073735744
-0.024185987 -0.18153381 0.100195885 0.13916738 -0.03843497 -0.060819723 -0.090610616 -0.015754938
0.08066249 -0.13578305 -0.08675465 -0.011593277 0.07585993 -0.5318035 -0.22558236 -0.5406797
0.034985904 0.009031741 2.549054 1.0877217 0.5918571 0.9909934 0.9165312 1.8520381
1.0728737 0.47915533 -0.25490212 0.22432505 -0.5314274 0.37967527 1.7326285 0.5774262
-0.29887056 0.37534487 0.03460813 -1.0450851 -0.9459759 0.19199261 0.22800995 -1.6617167
-0.7197997 -0.26768547 -0.33120087 0.056811858 2.601049 -0.82411873 0.42977515 0.80407304
-0.2945842 0.7563496 -0.20236297 0.17967811 -0.9439607 -0.35435808 -0.59516555 0.1894725
-1.0150077 0.26596537 -1.1778818 0.054647762 0.4252344 0.447481 0.13613866 0.5488665
0.28415808 -0.03307081 -0.006804234 -0.13607298 0.111556 0.09075106 0.0324274 0.05450717
-0.029576818 0.017707407 0.04076957 -0.09687817 0.04945099 -0.063246995 0.063765906 -0.08764301
0.017286777 -0.093955666 0.09692189 0.08336678 0.12242951 -0.13538316 -0.03123208 0.011885499
-0.0036412096 -0.1190239 0.039307438 -0.033799928 -0.10315861 0.09300454 0.10070272 0.06910916
0.027610043 0.09102904 -0.08309183 -0.1033109 0.0009995449 -0.099172 -0.001981878 -0.008524755
0.12145782 0.017708197 0.022399168 -0.2098562 -0.032063797 -0.037872605 0.14556284 0.04946178
-0.15192795 0.048576016 -0.06837659 -0.08091768 0.14077686 -0.023900919 -0.07084394 -0.15964112
-0.12979284 0.0650349 0.071152784 -0.081186205 -0.049744435 0.12947081 -0.116669096 0.010597322
-0.09601642 0.1329675 -0.02288878 -0.07727861 0.11243184 -0.00357382 -0.043986257 -0.01542074
0.09867081 -0.12434352 0.019908488 -0.12367742 0.10226441 0.0417631 -0.024093237 0.0035799742
0.07952501 -0.012410225 -0.043459732 -0.023925072 0.021432612 0.06783603 -0.061061855 0.10416847
0.109387815 -0.052639224 -0.111141674 0.024293931 0.19193123 -0.0961996 -0.12580545 -0.1847005
-0.077780925 0.07687317 0.09588847 0.103386186 0.0679708 -0.14193621 0.044692356 -0.067026995
-0.045278862 -0.012408989 -0.04204402 0.04251418 -0.31580758 0.32208222 -0.56512105 -0.75281423
0.07648703 -0.8533582 0.9888488 0.34158188 0.88599735 -0.22829005 0.7814332 0.6304228
0.7653167 1.0390208 0.11833209 1.121035 1.1333596 0.86627126 -0.33251658 -0.03753318
0.4233551 0.12412614 -0.34120703 0.4008891 0.33360848 -0.2783838 0.9335173 -0.025484784
0.7982993 0.48477018 0.2121031 -0.09189846 -0.20193496 0.25994924 -0.35425857 0.1490643
-0.07894013 0.04331289 -0.15230197 0.76223034 0.38947713 0.33390287 0.15210457 0.06634651
00000000: ebef 1ebd b270 fabc 38a2 70bc f8eb 063e
00000010: 84f5 9bba a3e2 c7bd dd16 95bd 3a36 b6bc
00000020: cf69 b33c 3f86 7b3d 734f 933d 6973 d4bd
00000030: f0a5 3dbd 2e75 99bd 522f 363c 4392 bb3c
00000040: 58ad 30bd 63f4 08bd 9a59 ad3d cbb3 93bc
00000050: 3ed5 7f3d c369 9dbc edf4 63bb 60bf a73d
00000060: 6f9d d0bd f650 573c acdc f13d fb9b bd3d
00000070: cf03 9cbd cd5d ecbd 236d e53b 02b4 6a3b
00000080: cbfb d83d 85af 283d 2fb2 01be d7c7 ee3c
00000090: 6642 a2bc 8f02 c83d 8fde a93d c402 97bd
000000a0: b121 c6bc 00e4 39be 8033 cd3d e581 0e3e
000000b0: fd6d 1dbd 1a1e 79bd 0f92 b9bd 8010 81bc
000000c0: 6032 a53d b60a 0bbe 6cac b1bd baf1 3dbc
000000d0: 735c 9b3d 4624 08bf 10ff 66be fc69 0abf
000000e0: 614d 0f3d def9 133c b323 2340 773a 8b3f
000000f0: f283 173f beb1 7d3f caa1 6a3f 960f ed3f
00000100: ed53 893f d953 f53e 8882 82be 77b5 653e
00000110: a00b 08bf cc64 c23e c5c6 dd3f 34d2 133f
00000120: 9005 99be 342d c03e 41c1 0d3d 59c5 85bf
00000130: 7a2b 72bf b699 443e 717b 693e 22b3 d4bf
00000140: cb44 38bf 120e 89be 2993 a9be 8db3 683d
00000150: 9677 2640 72f9 52bf 7d0b dc3e bbd7 4d3f
00000160: bed3 96be 21a0 413f 3d38 4fbe 8afd 373e
00000170: 69a7 71bf 6c6e b5be c55c 18bf 1405 423e
00000180: c6eb 81bf 9d2c 883e d5c4 96bf 55d6 5f3d
00000190: 53b8 d93e 3b1c e53e ef67 0b3e 8482 0c3f
000001a0: 2b7d 913e 4275 07bd 0df6 debb b756 0bbe
000001b0: 7977 e43d b1db b93d 98d2 043d e942 5f3d
000001c0: 154b f2bc 200f 913c fefd 263d 1068 c6bd
000001d0: 1f8d 4a3d a487 81bd b397 823d 2e7e b3bd
000001e0: 009d 8d3c d46b c0bd fc7e c63d 34bc aa3d
000001f0: 53bc fa3d e2a1 0abe 6bda ffbc 65bb 423c
00000200: 5ca1 6ebb cdc2 f3bd d600 213d cb71 0abd
00000210: d244 d3bd 2a79 be3d 3a3d ce3d 1a89 8d3d
00000220: 752e e23c 6f6d ba3d 0d2c aabd aa94 d3bd
00000230: 2903 833a b11a cbbd 65e2 01bb 6aab 0bbc
00000240: e1be f83d c810 913c 767e b73c 8be4 56be
00000250: 5455 03bd 4e20 1bbd 6d0e 153e 6f98 4a3d
00000260: 0093 1bbe a5f7 463d 0709 8cbd 2bb8 a5bd
00000270: cf27 103e dccb c3bc a116 91bd f678 23be
00000280: 6ae8 04be 0531 853d 8db8 913d f444 a6bd
00000290: d2c0 4bbd ff93 043e 35f0 eebd 64a0 2d3c
000002a0: 42a4 c4bd a228 083e 4081 bbbc 3f44 9ebd
000002b0: aa42 e63d c036 6abb ef2a 34bd 45a7 7cbc
000002c0: ec13 ca3d d1a7 febd 2017 a33c 964a fdbd
000002d0: 0170 d13d c90f 2b3d 2e5f c5bc 009e 6a3b
000002e0: 02de a23d 4254 4bbc d502 32bd 83fe c3bc
000002f0: 7293 af3c 9eed 8a3d ff1b 7abd 4756 d53d
00000300: b806 e03d 3a9c 57bd 3f9e e3bd 1104 c73c
00000310: 9f89 443e 4c04 c5bd 25d3 00be 2122 3dbe
00000320: 9b4b 9fbd ae6f 9d3d 2d61 c43d 23bc d33d
00000330: 4634 8b3d ba57 11be 550f 373d 7345 89bd
00000340: 5476 39bd 124f 4bbc 5a36 2cbd 5923 2e3d
00000350: 88b1 a1be f6e7 a43e c6ab 10bf 6fb8 40bf
00000360: 3ba5 9c3d af75 5abf 3225 7d3f d2e3 ae3e
00000370: b9d0 623f dec4 69be 020c 483f 6363 213f
00000380: cceb 433f a2fe 843f 1858 f23d 137e 8f3f
00000390: ed11 913f f4c3 5d3f 9d3f aabe 64bc 19bd
000003a0: 00c2 d83e d835 fe3d b0b2 aebe 5641 cd3e
000003b0: bbce aa3e 5288 8ebe fdfa 6e3f 77c5 d0bc
000003c0: 585d 4c3f cc33 f83e 8e31 593e 4335 bcbd
000003d0: 0ac8 4ebe 1118 853e 6161 b5be 50a4 183e
000003e0: 5dab a1bd db68 313d 0cf5 1bbe 8721 433f
000003f0: 8c69 c73e 51f5 aa3e 4dc1 1b3e aee0 873d

net.0.bias f4 [128]
-0.20949292 0.09827204 -0.1911448 -0.11632065 0.578468 -0.17735259 0.31164432 0.33359817
-0.3817374 -0.17510633 0.01079694 0.31262088 0.25560975 0.038452856 -0.5300032 0.5470473
0.07457904 0.18613406 0.2231291 0.4399795 -0.07721687 -0.16559936 0.22999063 0.26336837
-0.15419406 -0.28491476 -0.03294652 -0.2864566 -0.47840875 -0.31606385 0.36251968 0.1639975
-0.13016999 0.21431592 0.6560478 0.58710945 -0.021816311 0.035037998 0.10245451 -0.32565796
0.228958 0.18123679 0.35343024 -0.073023885 0.20603605 0.46983787 0.12491932 0.45180756
-0.17092095 -0.23914768 -0.23098488 0.6576165 0.7395676 0.118551105 0.14672503 0.23183818
0.14293179 0.13613547 0.5781391 0.23541135 -0.14102204 0.38359934 0.7872444 -0.38846958
-0.13872549 0.29941693 0.39750713 0.3100536 0.08968742 0.23546562 0.35011098 0.0057558115
0.6399926 0.32109553 -0.039255258 0.45793495 0.8105686 0.20489009 0.033662014 -0.02898199
0.27482653 0.03222106 -0.23674494 0.1819977 -0.027096074 0.28711382 -0.13608083 0.1413981
0.034481112 0.50955456 0.4404138 0.36887392 0.36641568 0.02041705 -0.18846565 0.21689647
0.13883808 -0.05230545 0.31792167 -0.16794084 0.07604918 -0.17664601 0.4936484 -0.071123354
-0.12982821 0.23831347 0.15877655 -0.1272201 -0.22042501 -0.17557174 0.17354551 0.20064488
0.7042411 -0.20724231 0.7012022 -0.06672686 0.036675107 -0.08686157 -0.092234105 0.24742831
0.600712 -0.02189456 0.8523528 0.08939529 0.5677567 -0.36429763 -0.030681252 0.19994703
00000000: 5085 56be da42 c93d 76bb 43be 8539 eebd
00000010: 7b16 143f eb9b 35be d88f 9f3e 61cd aa3e
00000020: 1673 c3be 134f 33be a6e5 303c d80f a03e
00000030: 48df 823e be80 1d3d 4aae 07bf 4b0b 0c3f
00000040: e5bc 983d ed99 3e3e f47b 643e fe44 e13e
00000050: e123 9ebd e192 29be aa82 6b3e 38d8 863e
00000060: 0ce5 1dbe 59e0 91be eef2 06bd 71aa 92be
00000070: fef1 f4be 1fd3 a1be 2e9c b93e f6ee 273e
00000080: 484b 05be a275 5b3e c0f2 273f ce4c 163f
00000090: 1fb8 b2bc 0184 0f3d acd3 d13d a4bc a6be
000000a0: f773 6a3e 2396 393e cff4 b43e 8c8d 95bd
000000b0: 1dfb 523e 978e f03e b3d5 ff3d 5253 e73e
000000c0: e705 2fbe 21e3 74be 4d87 6cbe 8e59 283f
000000d0: 4d54 3d3f ecca f23d 163f 163e fd66 6d3e
000000e0: b65c 123e 1967 0b3e ed00 143f ac0f 713e
000000f0: 1568 10be 2267 c43e d988 493f 7ce5 c6be
00000100: 0e0e 0ebe 2d4d 993e 0e86 cb3e 58bf 9e3e
00000110: 0aae b73d e61d 713e bf41 b33e 3f9b bc3b
00000120: 8ed6 233f a266 a43e 1fca 20bd 7376 ea3e
00000130: 6c81 4f3f b5ce 513e 2ee1 093d a36b edbc
00000140: 10b6 8c3e 3bfa 033d 446d 72be 9b5d 3a3e
00000150: 96f8 ddbc 9500 933e c658 0bbe aaca 103e
00000160: 113c 0d3d 2b72 023f eb7d e13e 0bdd bc3e
00000170: d69a bb3e a841 a73c 24fd 40be 1c1a 5e3e
00000180: 922b 0e3e 3d3e 56bd a1c6 a23e aff8 2bbe
00000190: acbf 9b3d b1e2 34be 7cbf fc3e 1fa9 91bd
000001a0: b0f1 04be 7208 743e 5296 223e fc45 02be
000001b0: 18b7 61be 14c9 33be eab5 313e da75 4d3e
000001c0: 2549 343f 5437 54be fd81 333f 18a8 88bd
000001d0: a338 163d 7be4 b1bd 3ce5 bcbd d95d 7d3e
000001e0: 43c8 193f 385c b3bc cb33 5a3f e114 b73d
000001f0: 8158 113f 3885 babe 4057 fbbc eabe 4c3e

net.2.weight f4 [128, 128]
0.00064805325 -3.2385273 -0.0029760546 -0.017386205 0.7218893 -0.015487704 -0.28107682 1.4105896
-0.094768114 -0.04759251 0.73847157 0.9272226 0.6644298 1.74469 -0.795259 0.680052
-1.5399116 0.74182343 1.7206999 -1.7270956 -1.450208 0.0027964101 0.82576877 -0.9359989
-1.5466025 1.0577524 -0.4630054 -3.612664 -1.9960241 -2.5040684 -0.13471232 -3.112407
-0.012669013 1.8428912 -2.01365 0.45040873 1.8780892 -1.380579 -0.20013234 -3.571993
-1.241022 -1.2592965 0.6262438 -2.0348039 0.19061868 -0.45544237 0.21075925 -0.49633756
0.07986404 0.060732547 -1.2171829 0.38355905 0.12757581 1.937704 -0.30285582 0.27684456
0.306843 0.34110275 -0.7380532 -1.2187898 -0.081238806 0.3253118 -0.17602058 -1.8530123
0.0006683291 1.4100629 -0.58272314 1.9687935 2.0456254 -0.83065605 0.73656076 2.5390747
0.29952073 -0.9861769 0.017395137 -1.2544066 0.116534956 1.212585 -1.3034017 0.03769304
2.0253518 0.09403385 -0.5861824 -2.2442105 -0.045654513 -0.40067703 0.025622625 -1.9115784
-3.0709674 0.51432055 0.46053594 -2.910026 0.03496248 0.35014096 -2.9186277 2.3437035
2.2531781 -0.69075733 2.4159408 -0.09138306 -1.2500852 -0.0055050333 -0.09607721 -5.640769
-0.04662455 -3.3295023 -3.3270037 -2.090479 0.03735431 0.040576942 -1.6673472 -0.6816578
0.14111501 -0.066427074 -0.8814923 -0.040475894 1.5670118 -0.08121558 1.5001061 -0.88594
-0.28165975 0.58471406 0.026327722 0.6117613 0.19335209 -1.8711221 0.93145853 0.009870647
0.0010643025 -2.0339866 -0.055645995 0.06653412 0.58733547 0.079850055 0.61234 -0.122139454
-0.5982086 -0.025105244 0.843992 0.93864274 0.6937567 2.263988 -1.5909398 0.17257443
-1.5385141 0.7756302 1.8537585 -2.6360798 -3.288567 -0.13850932 1.7772548 -1.5641857
-0.6582557 2.1551557 -1.5322661 -2.2481992 -0.5248281 -2.1640832 1.5326058 -2.3342104
-0.046170708 1.2170349 -2.6283014 0.42150682 2.015135 -1.3908566 -0.7507712 -1.7397572
-2.0805714 -1.1335202 0.19210021 -3.550975 0.78804785 0.082886666 1.1255956 -1.6383514
0.073883876 -0.07309465 0.4323275 0.0848953 0.27393064 1.4207057 0.9615173 -0.21260667
0.6540689 -0.4106502 -0.6597655 -1.2054245 -0.052895352 0.86633754 -0.14827648 -2.3027265
0.11560363 1.299141 -1.6084158 2.5512302 2.4801106 -1.1841807 1.0975046 1.6214334
0.22349821 0.7322214 -0.034207523 -0.4832248 -0.28480664 1.9378996 -2.8438866 -0.050348308
1.8573704 -0.15288833 1.1053226 -3.44919 -0.029551776 -1.15965 -0.052598637 -2.1892822
-4.1189976 0.31696612 0.5049029 -2.481423 -0.23355316 0.040249053 -1.9053066 0.69848335
0.47511315 0.5655889 2.6968539 -0.08033884 -2.0110543 0.043736782 -0.22917067 -2.1435246
-0.089762785 -2.9412558 -3.566731 -2.8564737 -0.028130004 -0.048697453 0.109029055 -0.6249866
0.43501726 -0.080217704 -0.3524076 -0.034751218 2.4098482 -0.009257636 1.4950163 0.671776
-0.1669384 0.34343874 -0.3004108 0.7678909 0.17102614 -0.02271952 1.4033507 -0.30167183
00000000: 1ee2 293a 0844 4fc0 e909 43bb 846d 8ebc
00000010: bdcd 383f 24c0 7dbc 4de9 8fbe 338e b43f
00000020: c915 c2bd 5df0 42bd 790c 3d3f 765e 6d3f
00000030: 1218 2a3f 0052 df3f 1896 4bbf e317 2e3f
00000040: d31b c5bf 24e8 3d3f e53f dc3f 7811 ddbf
00000050: 6aa0 b9bf fa43 373b 9565 533f a09d 6fbf
00000060: 12f7 c5bf 6e64 873f 0b0f edbe e335 67c0
00000070: b87d ffbf a842 20c0 07f2 09be ad31 47c0
00000080: b191 4fbc dce3 eb3f a4df 00c0 f99b e63e
00000090: 3a65 f03f d0b6 b0bf 7eef 4cbe 899b 64c0
000000a0: cfd9 9ebf a130 a1bf 8451 203f 3a3a 02c0
000000b0: 8b31 433e be2f e9be 46d1 573e f51f febe
000000c0: c28f a33d b1c2 783d a6cc 9bbf da61 c43e
000000d0: 3ca3 023e af06 f83f eb0f 9bbe 92be 8d3e
000000e0: 871a 9d3e 05a5 ae3e 0ef1 3cbf 4e01 9cbf
000000f0: 8860 a6bd 458f a63e bd3e 34be 822f edbf
00000100: cf32 2f3a f17c b43f 582d 15bf 6d01 fc3f
00000110: 87eb 0240 e0a5 54bf 3f8f 3c3f 3380 2240
00000120: c85a 993e 1776 7cbf 3f80 8e3c 6590 a0bf
00000130: e1a9 ee3d fc35 9b3f ded5 a6bf 0464 1a3d
00000140: 5d9f 0140 d294 c03d 0d10 16bf 25a1 0fc0
00000150: 3a00 3bbd 8a25 cdbe 8ae6 d13c 9aae f4bf
00000160: bb8a 44c0 83aa 033f 5ecb eb3e de3d 3ac0
00000170: d134 0f3d ad45 b33e ccca 3ac0 3dff 1540
00000180: 1234 1040 79d5 30bf c69e 1a40 0b27 bbbd
00000190: cb02 a0bf 9163 b4bb 21c4 c4bd 2e81 b4c0
000001a0: 62f9 3ebd 9116 55c0 a1ed 54c0 68ca 05c0
000001b0: d500 193d 0234 263d a26b d5bf 2081 2ebf
000001c0: 7480 103e eb0a 88bd 7ba9 61bf 0dca 25bd
000001d0: d893 c83f 5b54 a6bd 7a03 c03f f7cc 62bf
000001e0: b535 90be d2af 153f 3cad d73c 639c 1c3f
000001f0: 17fe 453e ee80 efbf 1174 6e3f 7fb8 213c
00000200: 1180 8b3a d62c 02c0 0eed 63bd 0a43 883d
00000210: 9e5b 163f 6d88 a33d 50c2 1c3f 4024 fabd
00000220: 3324 19bf 83a9 cdbc dc0f 583f e44a 703f
00000230: 0a9a 313f 2ee5 1040 eaa3 cbbf 5ab7 303e
00000240: 08ee c4bf b38f 463f f547 ed3f 88b5 28c0
00000250: e277 52c0 63d5 0dbe 167d e33f 3d37 c8bf
00000260: 7283 28bf 12ee 0940 4c21 c4bf 7fe2 0fc0
00000270: 225b 06bf 5780 0ac0 6d2c c43f b463 15c0
00000280: 7f1d 3dbd cdc7 9b3f 1736 28c0 becf d73e
00000290: f9f7 0040 9707 b2bf 8b32 40bf 5db0 debf
000002a0: 1528 05c0 3117 91bf ebb5 443e 2d43 63c0
000002b0: 81bd 493f 7cc0 a93d 8413 903f 80b5 d1bf
000002c0: 6e50 973d a6b2 95bd 085a dd3e 96dd ad3d
000002d0: a340 8c3e afd9 b53f ff25 763f 90b5 59be
000002e0: 0f71 273f be40 d2be 64e6 28bf 5a4b 9abf
000002f0: cca8 58bd 4cc8 5d3f cad5 17be df5f 13c0
00000300: 99c1 ec3d 414a a63f 92e0 cdbf 5b47 2340
00000310: 22ba 1e40 3c93 97bf 087b 8c3f 218b cf3f
00000320: b7dc 643e dd72 3b3f 301d 0cbd 3e69 f7be
00000330: 2dd2 91be 180d f83f 3d02 36c0 073a 4ebd
00000340: 50be ed3f c28e 1cbe 367b 8d3f 87bf 5cc0
00000350: 9116 f2bc 696f 94bf ab71 57bd 331d 0cc0
00000360: d4ce 83c0 6249 a23e 5141 013f a2cf 1ec0
00000370: 8f28 6fbe 31dc 243d 16e1 f3bf cecf 323f
00000380: 0842 f33e 6fca 103f 4199 2c40 b188 a4bd
00000390: 1db5 00c0 5725 333d b7ab 6abe 822f 09c0
000003a0: 8dd5 b7bd 893d 3cc0 5245 64c0 77d0 36c0
000003b0: e570 e6bc fb76 47bd a04a df3d 1fff 1fbf
000003c0: 95ba de3e 2e49 a4bd c56e b4be 4b57 0ebd
000003d0: f43a 1a40 57ad 17bc b25c bf3f 83f9 2b3f
000003e0: e6f1 2abe 34d7 af3e 72cf 99be 7f94 443f
000003f0: 7a21 2f3e 491e babc ffa0 b33f bb74 9abe

net.2.bias f4 [128]
0.28750855 0.20736013 0.013699564 0.73790437 -0.22337115 -0.15688966 0.4847326 0.64242375
0.36703813 0.43630174 0.42251006 -0.0103913555 -0.28527895 -0.0073155 -0.09946279 -0.3452066
0.34567675 -0.2242687 -0.09364777 -0.03382195 -0.05899426 1.5400581 -0.11407139 0.55521864
0.36621872 -0.033583276 0.8356366 0.20876609 -0.11757834 0.32543594 -0.07851761 -0.038607944
-0.100625455 1.2427822 0.54676455 0.53286356 0.27067944 -0.1541573 0.4796261 1.1545719
-0.12755756 -0.06714588 1.5952401 0.6430003 0.095380366 0.40022293 0.14413252 -0.028112998
-0.0714598 0.4149462 -0.06826609 0.22029924 0.71650106 0.6255204 0.4108914 0.21768036
-0.12875251 -0.100465715 -0.0069148694 -0.13232213 -0.09114978 0.48921373 -0.0044258786 -0.07127416
-0.18435888 0.5018029 -0.09906973 -0.07865978 -0.06586864 0.6558972 -0.049576923 0.38861516
0.37985533 0.28722987 -0.4453807 -0.12474908 1.2369869 0.5303385 0.41977993 0.2100076
0.003015936 -0.060089577 0.021426568 -0.04213518 1.336446 0.083330005 -0.014683677 0.19064549
0.027315658 0.48415914 0.43991622 -0.047015395 1.1009533 -0.25778648 0.22083408 0.37478364
0.395107 -0.14777616 0.101926304 0.43837222 -0.080748096 -0.1160322 -0.03196841 0.26367402
-0.106118746 0.019323388 -0.080783986 0.49921387 -0.008892262 0.58972764 1.2662674 -0.26139426
-0.15119436 0.5189859 1.6638957 1.0377884 0.44973192 0.03306711 0.3878788 0.80767584
0.09255251 0.016701875 -0.089933574 -0.028284136 1.0612645 0.11606422 -0.058193546 0.3780179
00000000: 5234 933e 3756 543e 2374 603c 4de7 3c3f
00000010: 68bb 64be afa7 20be df2e f83e e275 243f
00000020: 6cec bb3e f162 df3e 3d53 d83e 8140 2abc
00000030: 1510 92be ddb6 efbb 26b3 cbbd ebbe b0be
00000040: 8bfc b03e b2a6 65be 67ca bfbd e388 0abd
00000050: f7a3 71bd a020 c53f 439e e9bd cf22 0e3f
00000060: 0581 bb3e 9e8e 09bd 48ec 553f c7c6 553e
00000070: eacc f0bd 8a9f a63e d7cd a0bd 5d23 1ebd
00000080: b814 cebd 7d13 9f3f c3f8 0b3f bf69 083f
00000090: 7f96 8a3e 69db 1dbe 8d91 f53e 03c9 933f
000000a0: 739e 02be c783 89bd d430 cc3f ab9b 243f
000000b0: c856 c33d 05ea cc3e 7a97 133e 3b4d e6bc
000000c0: 8459 92bd d473 d43e 17cf 8bbd 2096 613e
000000d0: 9d6c 373f 1b22 203f 5c60 d23e 9ae7 5e3e
000000e0: b3d7 03be f8c0 cdbd 2196 e2bb 747f 07be
000000f0: bcac babd 397a fa3e f606 91bb 30f8 91bd
00000100: 93c8 3cbe 2876 003f 12e5 cabd 6118 a1bd
00000110: 23e6 86bd e1e8 273f 2c11 4bbd 91f8 c63e
00000120: 667c c23e cb0f 933e f008 e4be 727c ffbd
00000130: 9655 9e3f 44c4 073f 65ed d63e 3b0c 573e
00000140: 02a7 453b 7d20 76bd c586 af3c f095 2cbd
00000150: aa10 ab3f eca8 aa3d ce93 70bc 9238 433e
00000160: 16c5 df3c b5e3 f73e b33c e13e 3793 40bd
00000170: 0aec 8c3f 97fc 83be 5422 623e a4e3 bf3e
00000180: 774b ca3e a252 17be bdbe d03d 5372 e03e
00000190: 425f a5bd 4aa2 edbd 4ff1 02bd 4800 873e
000001a0: c954 d9bd 154c 9e3c 1372 a5bd f698 ff3e
000001b0: dab0 11bc 64f8 163f 0d15 a23f 78d5 85be
000001c0: b2d2 1abe 43dc 043f 89fa d43f 40d6 843f
000001d0: 4343 e63e 6171 073d 0d98 c63e d8c3 4e3f
000001e0: 2c8c bd3d 5fd2 883c 182f b8bd 22b4 e7bc
000001f0: 84d7 873f 14b3 ed3d 5b5c 6ebd 908b c13e

net.4.weight f4 [13, 128]
2.0940301 1.3885258 0.12554704 2.1427615 -0.778541 0.03951277 0.98568416 1.1925157
1.4731218 1.2342707 0.9648956 -0.0153273 -0.88765085 -0.059518505 -0.06928658 1.0792505
1.393695 0.49876934 0.019577652 -0.044130877 0.009914238 1.3796891 -0.08781073 0.9791719
0.87960255 -0.014963633 0.8979898 1.3422952 -0.047953755 0.97110903 0.09522657 0.08653596
0.10989261 0.9673806 1.2379352 1.0940485 1.7140094 -0.037030946 1.2177227 0.9867114
0.004293956 0.065978914 0.5406274 1.3849001 1.3690215 1.9328673 1.7771368 -0.060688797
-0.04356471 1.0590855 0.060660683 -0.8708974 1.1119109 1.4412978 1.2149768 1.1062847
0.015626974 -0.0428631 -0.048060223 0.051250093 -0.050841633 1.9348054 -0.038094904 -0.59380406
-0.29991412 1.4334505 -0.021611627 0.03105282 -0.055958558 1.0427369 0.053624947 1.3472301
1.0579594 2.811497 -0.6246258 0.101495214 0.83692384 0.8705788 1.4048262 1.1396222
-1.297433 0.07764322 -0.04091537 -0.025791416 0.76901567 1.5504525 0.090021476 0.7379565
-0.019932318 1.2733052 0.9090746 -0.043079324 0.76132965 -0.028988874 0.67710763 1.7186875
1.2648418 0.052074343 1.2858096 1.0985013 0.030409008 0.045277588 0.06535899 1.0937763
0.03942405 0.025265582 -0.0455379 1.3090122 -0.06255257 1.7895532 0.8899493 -1.0660522
-0.0045535835 2.0923157 1.4408869 0.39742395 1.4378232 -0.023822434 1.4890747 0.4805246
-0.4839 -1.333212 0.003757 0.05630871 0.74822813 1.5665846 0.042874575 0.84747005
1.8263462 2.1381745 0.52296513 1.8141648 0.48055166 0.02279356 0.83302695 2.541383
1.5132686 1.1074922 1.385388 0.010731383 -0.60007346 -0.013236099 -0.046226714 1.552495
1.5601503 0.54640174 -0.076194465 0.113340415 -0.008963582 1.4526699 -0.05143436 1.1407794
0.73303586 0.034963693 0.91296786 1.2763287 0.08235031 1.6941836 0.04039535 0.027524687
0.037100665 0.7707786 1.0279601 0.88240284 1.554689 0.06834966 1.119957 0.8734649
0.0048431465 -0.06646408 1.111646 1.4932854 1.207219 1.5328629 1.4751233 0.060541194
0.28205597 1.481211 -0.06988456 -0.49153537 1.2240936 1.8172882 1.3355228 1.0599653
-0.05034347 0.01853165 -0.050873503 -0.01350377 -0.034423795 1.4520762 -0.037262008 -0.4224422
0.1536833 0.83181065 0.054263014 0.032415144 -0.05111892 0.98508465 -0.006957311 1.1567541
1.326062 2.9968336 -0.56497794 0.0024306427 0.77996236 0.9444385 1.2195262 1.0357752
-0.8561855 -0.03313245 0.052175116 0.06858353 0.70538783 1.5662487 0.06301041 1.3437234
-0.039652202 1.3757181 1.2456465 0.0703638 0.3957605 0.64109224 1.4298131 1.0377089
1.4189723 -0.022730084 0.9649841 0.86501026 -0.031922743 0.007636033 -0.043745942 1.3381044
0.014972938 0.0122950515 0.0016200091 1.1284891 -0.017811712 1.3312273 1.0635393 -1.5132943
-0.022487894 1.5602103 0.9139879 0.5443927 0.8185126 0.033987395 1.020957 0.7849132
-0.666128 -1.1322107 0.04699459 -0.076461345 0.7471969 1.8034499 -0.04546053 1.0997225
00000000: 9704 0640 37bb b13f 678f 003e 0123 0940
00000010: 774e 47bf 24d8 213d cc55 7c3f 5ba4 983f
00000020: 418f bc3f 95fc 9d3f 6603 773f 5b1f 7bbc
00000030: 163d 63bf adc9 73bd 1fe6 8dbd e124 8a3f
00000040: 9964 b23f b25e ff3e 5061 a03c 94c2 34bd
00000050: 546f 223c a799 b03f 1dd6 b3bd 02ab 7a3f
00000060: a22d 613f 072a 75bc a9e2 653f 54d0 ab3f
00000070: 286b 44bd 9a9a 783f 2606 c33d c439 b13d
00000080: 600f e13d 41a6 773f a974 9e3f c809 8c3f
00000090: a964 db3f c3ad 17bd 56de 9b3f 1e99 7c3f
000000a0: 50b4 8c3b f41f 873d 8f66 0a3f 6844 b13f
000000b0: 193c af3f 3268 f73f 3879 e33f d194 78bd
000000c0: e970 32bd 1d90 873f 5677 783d 22f3 5ebf
000000d0: 1953 8e3f 727c b83f 5c84 9b3f bd9a 8d3f
000000e0: 2404 803c 3891 2fbd ccda 44bd 9eeb 513d
000000f0: 513f 50bd b4a7 f73f 6709 1cbd 8b03 18bf
00000100: 588e 99be 4e7b b73f de0a b1bc 7c62 fe3c
00000110: cd34 65bd 6778 853f d5a5 5b3d 0972 ac3f
00000120: 376b 873f 91ef 3340 7ae7 1fbf b9dc cf3d
00000130: a440 563f 41de 5e3f 58d1 b33f 24df 913f
00000140: 4912 a6bf 6903 9f3d e096 27bd 8548 d3bc
00000150: 36de 443f 3a75 c63f 2e5d b83d b8ea 3c3f
00000160: 1a49 a3bc aafb a23f 1db9 683f f273 30bd
00000170: 80e6 423f 137a edbc ed56 2d3f f4fd db3f
00000180: 56e6 a13f e84b 553d 6995 a43f b19b 8c3f
00000190: 501c f93c fe74 393d efda 853d dd00 8c3f
000001a0: 1d7b 213d c4f9 ce3c f385 3abd b68d a73f
000001b0: 901b 80bd 1410 e53f b8d3 633f 6674 88bf
000001c0: 3a36 95bb 80e8 0540 fb6e b83f 277b cb3e
000001d0: 970a b83f 4427 c3bc 009a be3f 5207 f63e
000001e0: bec1 f7be b1a6 aabf 0038 763b f6a3 663d
000001f0: e18b 3f3f d885 c83f 409d 2f3d ccf3 583f
00000200: b6c5 e93f dad7 0840 0be1 053f 8d36 e83f
00000210: de0a f63e 8fb9 ba3c 4141 553f 05a6 2240
00000220: c9b2 c13f 4ec2 8d3f 6554 b13f afd2 2f3c
00000230: 6a9e 19bf 39dc 58bc 3958 3dbd 28b8 c63f
00000240: 01b3 c73f fce0 0b3f d80b 9cbd 051f e83d
00000250: fddb 12bc 16f1 b93f d6ac 52bd 0f05 923f
00000260: 3da8 3b3f 1736 0f3d 43b8 693f bd5e a33f
00000270: 48a7 a83d 02db d83f 9875 253d 747b e13c
00000280: def6 173d bf51 453f 3294 833f 27e5 613f
00000290: 0d00 c73f e8fa 8b3d c05a 8f3f 659b 5f3f
000002a0: 42b3 9e3b 521e 88bd 6b4a 8e3f fa23 bf3f
000002b0: 2786 9a3f da34 c43f d7d0 bc3f 0bfa 773d
000002c0: a469 903e 5298 bd3f a31f 8fbd 86aa fbbe
000002d0: 19af 9c3f e69c e83f 69f2 aa3f f1ac 873f
000002e0: f434 4ebd b0cf 973c bc60 50bd eb3e 5dbc
000002f0: f7ff 0cbd a2dd b93f 0ca0 18bd 584a d8be
00000300: 285f 1d3e 8bf1 543f e542 5e3d bec5 043d
00000310: 1362 51bd 822e 7c3f 28fa e3bb 8510 943f
00000320: 66bc a93f 1fcc 3f40 65a2 10bf 6b4b 1f3b
00000330: 9dab 473f b9c6 713f 6f19 9c3f 4894 843f
00000340: f92e 5bbf e4b5 07bd 93b5 553d 8675 8c3d
00000350: 4c94 343f d67a c83f 9a0b 813d 21ff ab3f
00000360: 596a 22bd 8817 b03f 5871 9f3f e51a 903d
00000370: 1fa1 ca3e 9f1e 243f 1e04 b73f a5d3 843f
00000380: e2a0 b53f 7134 babc 3309 773f 5071 5d3f
00000390: 6cc1 02bd b037 fa3b f22e 33bd 0147 ab3f
000003a0: 0e51 753c 2f71 493c 7c56 d43a 5572 903f
000003b0: dee9 91bc a865 aa3f 0e22 883f a1b3 c1bf
000003c0: 8838 b8bc f9b4 c73f 1cfb 693f 525d 0b3f
000003d0: 0b8a 513f 5e36 0b3d b8ae 823f 12f0 483f
000003e0: 5d87 2abf 48ec 90bf 667d 403d c497 9cbd
000003f0: 4c48 3f3f 72d7 e63f d234 3abd b5c3 8c3f

net.4.bias f4 [13]
1.3239036 0.85971874 0.46169683 0.63515127 0.94760215 0.90072936 0.97430956 0.8999613
0.27844802 0.111771435 0.71180177 0.7105639 0.56033474
00000000: ac75 a93f 8716 5c3f 8763 ec3e 4699 223f
00000010: 0e96 723f 3396 663f 5a6c 793f dd63 663f
00000020: bd90 8e3e 6ce8 e43d a438 363f 84e7 353f
00000030: 1972 0f3f
