checkpoints2/team2_agent_0.pt (torch, 411297 bytes, 24 tensors)

net.0.weight f4 [128, 53]
00000000: 552e c7be 85c4 39be 9144 6dbf 9618 01be
00000010: 6ddf 33be f58a 64bf 4c54 5e3e fc56 14c0
00000020: 67c9 8cbf 9d19 87be 4489 8abd 2054 493f
00000030: 9805 613f 5732 53bc 7e9c 8b3e e32c cfbf
00000040: 857f 10bf 37cd 89bf 54f5 6d3f dce3 62bf
00000050: 8d2b a3be b421 b33e f74a 2abf 9f57 2f3f
00000060: 505f 8ebf 5d44 0cbf bdb4 1cbe f128 ea3f
00000070: 203a 373f 97c9 6c3f db3b 50bf 05c8 3bc0
00000080: 22dc 0040 49f1 c0bf cbd4 323f 5d19 203f
00000090: 9737 993e 757a 933f 1367 383e 06e8 bbbf
000000a0: 8710 08bf 0a4d 4d3e 0f0e acbe 6dba ce3e
000000b0: e6f2 f3bd 4077 2bbf b5be 8d3e 8cd7 f6be
000000c0: 9b53 edbe 6a8d 413e cf6d debe 63ba 3dbf
000000d0: 6cba 833e 4989 50bc b4a2 1e3e c302 a7bf
000000e0: 018e 8cbf 88bc 393c 0181 5d40 0722 27c0
000000f0: 43d1 b83e dcdf 59bf 91b4 673f 158a 2740
00000100: e1a7 14bf 6261 2bc0 ae21 25bc 00e2 f1bf
00000110: f876 d2be 8731 1440 1663 9f3f 34da a13f
00000120: b20a 7f3f 354d c73e 703f c33f bb76 c13e
00000130: 8566 ba3f f82f 08bf 464a 0b3f d50a 843f
00000140: 2dae 12bd 1278 14be 42c8 843f 0524 d23e
00000150: 09f3 e33e 1bf2 a33f c2b5 50bf 7873 e43e
00000160: dfa8 77bf c273 4ebe 0acd 71be 5d24 a3be
00000170: 32e9 99be f1e4 173d 4c2e 99bb c214 0e3e
00000180: f6e3 01bc dee5 6f3e 5df6 18be c5a9 eabe
00000190: 9211 ca3f 3c6b 7d3f b5ed 593d c12c 803f
000001a0: 2022 eb3d 6583 8d3d c340 a13e 2873 953e
000001b0: 8250 b5be d04b d53f f3a5 403e 75ed a1bd
000001c0: f00d b9be c2e9 53bf 3bd1 b8bf 6026 83bf
000001d0: 0069 0fbf 09c9 81bf 5024 273f d838 92bf
000001e0: d6ce 523e b3e7 edbf 99b9 8f3f e389 2e3f
000001f0: 8fdd d8bf c460 c5bf d699 61be 8380 c6bf
00000200: 8ae8 19be 4bea cdbf 40e7 bbbf 22c8 11be
00000210: c456 9dbd 48f9 983f 6ba2 67bf 977e a93f
00000220: 2ded 9e3f 2f7c 3e3e 085c 6c3f 4deb 983f
00000230: eee0 93be 2efb ab3d 305b 30bf c0cc 03bf
00000240: 45db c0bf aaa0 12c0 750f 6f3f c38f 9abe
00000250: 8b37 173f 9ff5 b3bf f379 3cbe f593 fe3b
00000260: 33a1 a73a fe49 89bf 8eaf a0bf 0cf5 c4bd
00000270: ae21 a2bf e447 3bbe c8c9 63bd 67f7 25bf
00000280: 9013 c63e a3dd 0cbf 3450 8a3e 3db8 0cbe
00000290: 8a13 b63e e4b1 793e 0eba 98bf 6085 f6bf
000002a0: 6107 bdbf b02d a7bf 03a9 e5bf 3c57 47bf
000002b0: 18f2 6f3f 4735 983e 289f f9be 9ae1 edbe
000002c0: a494 ee3f a684 0fbf 152f 283f 21d0 c1bc
000002d0: 6f9d 99be 870e f53e 8abb f3bd 7dc9 1f3f
000002e0: 2767 143d 977d 46be 6f85 663f f26e aa3d
000002f0: dc17 a4bf 04ab fb3e 4de9 05bf e54e 263f
00000300: ebb7 823f 05cb 63bf 4195 03be 035f 913f
00000310: dad8 7b3e c387 a73f b9de 45be e4cc 0c3f
00000320: 140a a2be 5d43 9a3f ea64 2bbf 1bff 093c
00000330: 7b7c 92bf a7c0 e93d f81a d3be 4fe6 0bbf
00000340: 7f23 0c3f 413e 21bf d5c2 00bf a7e4 6fbf
00000350: 3311 b9be 6a26 2abd 1617 963f 094f 193f
00000360: 970f debd 130c 01be e162 363f c6d7 b8bd
00000370: 928a fc3f 46f1 56be 55d9 88be 6234 2fc0
00000380: 45ca 22bf 46f5 a4bf 7b83 14bf 5985 5c3f
00000390: ad9f 85bf 5a65 c03e 7f74 2ebf 459b d93f
000003a0: 1ce5 c63e 75e5 123f 0484 46bf 6c93 31bf
000003b0: d363 3abe 2917 37bf 6395 4abf e1d5 4abf
000003c0: 9b38 1b3f 331f 34bf e15f b5bf e1ed eabf
000003d0: a2a8 9ebf efbf 88bf 06bd 033f 5624 a0be
000003e0: ea3c 093e 4973 e93f 43ed 54be b338 643f
000003f0: ddd3 733f 245f 163f 0247 fc3f 446f e03f
-0.38902536 -0.18141373 -0.9268275 -0.12607035 -0.17565699 -0.8927453 0.21711844 -2.317809
-1.0998963 -0.2638673 -0.067644626 0.7864399 0.8789916 -0.01289042 0.27267832 -1.6185573
-0.5644458 -1.0765752 0.92952466 -0.88628936 -0.31869164 0.3498665 -0.6652064 0.68493074
-1.1122837 -0.54791814 -0.15303321 1.8293744 0.71573067 0.924951 -0.8134133 -2.9340832
2.0134358 -1.5073634 0.69855946 0.625387 0.29925224 1.1521746 0.1800807 -1.4680183
-0.5315022 0.2004892 -0.33604476 0.40376607 -0.119115636 -0.66978836 0.2768456 -0.48211324
-0.46352848 0.18901601 -0.43443152 -0.7411253 0.25728166 -0.012728044 0.15491754 -1.3047718
-1.0980836 0.011336453 3.4609988 -2.6114519 0.36097154 -0.8510721 0.905099 2.6178029
-0.5806866 -2.6778188 -0.010078831 -1.8897095 -0.4110639 2.315523 1.2452114 1.2644715
0.99625695 0.38926092 1.5253735 0.37785897 1.4562536 -0.53198195 0.5441021 1.0315806
-0.03581064 -0.14498928 1.0373614 0.41043106 0.4452136 1.280826 -0.8152734 0.44619346
-0.9674205 -0.20161346 -0.23613372 -0.3186368 -0.30060726 0.03708357 -0.0046747085 0.13875106
-0.007927885 0.23427531 -0.1493773 -0.4583265 1.5786612 0.9899175 0.05320521 1.0013658
0.11481118 0.06909827 0.31494722 0.2918942 -0.35412985 1.6663761 0.18813305 -0.079066195
-0.36143446 -0.8277856 -1.4438852 -1.0246086 -0.5601959 -1.0139476 0.65289783 -1.1423597
0.20586714 -1.8586334 1.1228515 0.6817915 -1.6942614 -1.5420156 -0.2203134 -1.5507969
-0.15030113 -1.6087126 -1.4679947 -0.14236501 -0.07682565 1.1951075 -0.90482205 1.3241757
1.241613 0.1860206 0.9232793 1.1946808 -0.28882545 0.08397518 -0.6888914 -0.514843
-1.5066916 -2.2910562 0.9338296 -0.30187806 0.59069127 -1.4059333 -0.18405895 0.0077691027
0.001278913 -1.0725706 -1.2553575 -0.096170515 -1.2666528 -0.18289143 -0.055612355 -0.6483063
0.386868 -0.5502569 0.27014315 -0.13742156 0.35561782 0.24384266 -1.1931779 -1.9259453
-1.4767877 -1.3060818 -1.7942203 -0.77867484 0.9372878 0.29728147 -0.4875424 -0.46461183
1.8639112 -0.5606178 0.6569684 -0.023658814 -0.30002925 0.47862646 -0.119010046 0.6241682
0.036231186 -0.19383846 0.90047354 0.083219424 -1.2819781 0.49153912 -0.52309114 0.64964134
1.0212377 -0.8898166 -0.12849905 1.135712 0.24594441 1.3088306 -0.19323243 0.5500014
-0.31648314 1.2051808 -0.6695086 0.008422638 -1.1444238 0.11413699 -0.41231513 -0.546483
0.5474166 -0.62985617 -0.5029729 -0.9370827 -0.36145934 -0.04154054 1.1725795 0.59886223
-0.10842817 -0.12602262 0.7124463 -0.090255305 1.9729788 -0.20990476 -0.2672831 -2.7375722
-0.6358989 -1.2887352 -0.58013123 0.8614097 -1.0439354 0.37577325 -0.6814651 1.700051
0.38846672 0.57381374 -0.7754519 -0.6936557 -0.18202142 -0.71519715 -0.79134196 -0.79232603
0.6063325 -0.70360106 -1.4169885 -1.8353845 -1.2395213 -1.0683573 0.514603 -0.31277722
0.13402143 1.8238307 -0.20793633 0.89149016 0.9524515 0.58738923 1.970917 1.7533956

net.0.bias f4 [128]
00000000: 56f7 29be 920a 083f d077 05bd ec93 7b3b
00000010: bcbb ce3c 4d69 3ebe f87e 47be d564 343f
00000020: 47d9 433e 8e8c c13e 0c19 a03e efbd c2bd
00000030: 5bbe 9dbc 746f 29be a004 65be edfa febd
00000040: 5201 a83c f783 883e 5354 c43e 84fc 0c3f
00000050: 4bf2 613e db39 23be 386a 063f b407 f3bd
00000060: 3b0d 103e 66ba 1bbe 946a 323e 096f 633f
00000070: bcf1 ee3c 2c0d 263d 7861 003e 9d42 dabe
00000080: 05af 7a3e cb77 cdbd d3fa 083f 2540 22be
00000090: 3422 9cbd e4bc 5c3e d27e 57be cd29 5b3f
000000a0: 3998 603e 2571 a8bd afd3 2bbe 5e5e e03e
000000b0: f87c 533f 040b 94bd fc5c 8cbe 6144 adbe
000000c0: d369 1e3f 958d 28be ec6d aabd 9ef1 51be
000000d0: e463 713e 1b0f 9b3e bce7 843e 1189 45bc
000000e0: b5c1 d93d 6445 28be 102a 1bbe d4c3 1dbe
000000f0: f8a4 cfbd 0494 3abe 8d1c ef3d 0eb9 3bbe
00000100: 5a1a 533e 8afb 003e 1149 123e fca3 04bf
00000110: ef7a 9dbe 5d05 64be 7045 53be b700 8d3e
00000120: e1e0 8c3e b5f6 303d 93a2 3b3f 640d 72bd
00000130: b8f3 c93e a103 f6bd ff1d 23be 6812 6d3e
00000140: 3304 a8bd 7025 f63e f54f 963e 7565 83bd
00000150: 057b 8ebe cf4b 6ebe eaf8 e73e b2df d83b
00000160: 837b ee3e a203 2d3f f18f 4f3d 27ff f2bd
00000170: 6f42 e93e e651 043f 16cd 64be 24a7 6e3e
00000180: 174e 243c ad36 8b3e b557 45be e4bc 18bd
00000190: 3237 3abe 6a0e f33c 0297 03be e2e4 803f
000001a0: 57f8 a5be 6aab 9d3d 42e8 13bf 8f99 d9bd
000001b0: 3a82 13be 07bc cc3d 5adb f73c ee96 bb3d
000001c0: b52f 353f 8760 143e 39f1 b2bd b4f4 2dbe
000001d0: 7f14 8e3e 22ff 843e 75b3 c8be 080e 8d3e
000001e0: 8a54 9d3e c12a 353e 6acb 873e b5cc fbbc
000001f0: 810f da3e 80ce f73e e0be 953e b2df 96be
-0.16598257 0.5314113 -0.032584965 0.003838773 0.025236003 -0.18594857 -0.19482028 0.7046636
0.19125853 0.37802547 0.3126911 -0.09508883 -0.019255808 -0.16546422 -0.22365046 -0.12450204
0.020508442 0.2666318 0.38345584 0.5507281 0.22065084 -0.15940039 0.52505827 -0.11866704
0.14067547 -0.15207824 0.17423469 0.888413 0.029168002 0.040539905 0.12537181 -0.42628947
0.24480827 -0.10032614 0.5350773 -0.15844782 -0.07623711 0.21556431 -0.21044472 0.8561066
0.21933068 -0.082247056 -0.1677997 0.43821996 0.8261256 -0.072286636 -0.2741469 -0.3384123
0.61880225 -0.1646026 -0.08321747 -0.20502326 0.23573261 0.30284962 0.2595805 -0.012056605
0.1063265 -0.1643272 -0.15152764 -0.15406734 -0.10138887 -0.18220526 0.116753675 -0.18332312
0.20615521 0.12595955 0.14285685 -0.5181272 -0.30757853 -0.22267671 -0.20631957 0.27539608
0.2751532 0.04320403 0.73294944 -0.0590948 0.39443755 -0.12012411 -0.15929411 0.23151553
-0.08203926 0.48075438 0.29357877 -0.06415836 -0.2782823 -0.23271106 0.45307094 0.0066184634
0.46578607 0.6758367 0.050674383 -0.11865073 0.45558497 0.5168747 -0.22343859 0.23305947
0.010028384 0.27190152 -0.19271739 -0.037289515 -0.18185118 0.02966996 -0.12850574 1.006985
-0.3241603 0.0769871 -0.5777627 -0.10624992 -0.14405146 0.09996801 0.030255962 0.09159647
0.7077592 0.14489947 -0.08737416 -0.16987878 0.27750012 0.259759 -0.39199415 0.27549767
0.3072856 0.1769209 0.2652238 -0.03073726 0.42589954 0.48399734 0.2924719 -0.2946754

net.2.weight f4 [128, 128]
00000000: 34e7 adbe 1db1 13bf 39e8 693f 7d93 df3f
00000010: a218 acbf b0a2 ccbc b081 0cbd c8de 7ec0
00000020: b43a f13e b5e8 cbbf da0f 6dbd 9532 cdbf
00000030: b2b8 f4bd 60c9 9abf 26be dcbb 0cf5 57bd
00000040: bad7 7dbf 0cf8 32bc 53f9 893f 28c3 9a3e
00000050: d305 003e 0ded 70bd 14d5 e73d cc0b 52c0
00000060: 3d8b 743f 6417 673d d4d3 abbe 050c 143f
00000070: f89a 533f 523f 963f 1506 f23e 8893 403f
00000080: a950 903e 4df7 4bbb 0403 f83e 3e89 9e3b
00000090: 08dc 793f 3ebf 313f bfda 61ba 86aa 443f
000000a0: 8486 fa3d d1ce 12bf 2757 00bf 643d 32bf
000000b0: 1d0a bc3e 5b19 40be d60a 5a3f 732e 46bf
000000c0: 0795 1fbe 0093 223e 1284 8d3c 51c5 ce3f
000000d0: 262c 90bf b611 08bf b9d6 d1be 8673 18c0
000000e0: 53fb afbf 6485 23be 172e 053f 86a2 83bf
000000f0: f135 18bd 3a6b 7f3b b42d 783f ac57 5fbf
00000100: 0e71 d63d cda2 00c0 9daf 233f 89cf 163b
00000110: b8c2 30c0 811a ef3c f19e 7c3e 62f9 a03f
00000120: 9542 c8be 93ef abbf 9659 1f3f 1d8a 9ebd
00000130: 3200 7f3f 275d 3abd 799c 06bf d757 2cbf
00000140: cf7b a8bf b3b3 d33d 6fb7 8d3f e2b6 57bf
00000150: aa46 003c 2a2c c3bd e6f0 843f 004c aebb
00000160: 2dd3 f43e 6c0d de3e 69c3 fcbf 7dff 533c
00000170: 1a5a db3d babc a0bf 5220 133d 59ba fdbe
00000180: 5680 713f eaa2 29bf 6ced c7bf 26be 863f
00000190: 1ff6 fd3c 443b debf 02d9 15be 613e 483f
000001a0: 91bf edbf 4cc6 0040 d446 c53f 2e1b 59bd
000001b0: cba5 f2bf 39f5 f9bf 408c 56bf 327b 6abc
000001c0: 670d 35c0 c712 97bf b483 213d ead6 583f
000001d0: 4e95 0ebf 5caf 96bf 9e23 77be b860 f73e
000001e0: 3d11 123e 0db6 473d 9245 7f3f 861e eb3e
000001f0: cf17 56bf 8411 c3be 240a 813f a0a3 82bf
00000200: dc5c ecbc aa4f 5abe af6c 383f 4037 0240
00000210: 8e43 153f a9b8 66bd 5609 9a3b 3b7a 403d
00000220: 9906 6f3f be18 5abe 6b29 743f 2646 8dbe
00000230: 1a15 423f a038 7abe 8a93 cb3d 4439 7f3d
00000240: 7285 0ebe 6772 7f3f 7e02 a53f 9038 5b3f
00000250: ca83 2abf 23db 543d 9acc f53e 7df2 5abf
00000260: 538b 31be 47f8 25bd ce58 d7be 7c99 343f
00000270: 487d d73e 5966 523f 6a67 fd3e 3ebe 123f
00000280: 649d 903f 8a06 d73d 5ac6 a23f 815d 85bb
00000290: d61a d43e aff8 8a3f 35b0 863d 9ab7 5a3f
000002a0: 39d0 873e f3a3 253e fefe a8bd c83c 3c3f
000002b0: 71f1 003f 0f59 363f 17e8 8d3f 81c6 85be
000002c0: 6673 27bf 522c 253f 70d9 83bd 99de 883e
000002d0: d525 3fbc fc94 183f 11e6 983e c4f8 e43e
000002e0: 1f19 73bf 1412 7bbe ac7e 143f 8252 5fbe
000002f0: 2b1b 2b3d 26e0 bd3d 1609 9b3f d561 8f3e
00000300: 8853 f83e 6079 98bf 2380 303f 55fd 0c3f
00000310: 7c32 cdbf c276 99bb 1590 90be ed10 893f
00000320: c64e 9c3c 0372 923d 6dd8 883f 120f 3c3b
00000330: 9c7e c13f 340a 9d3d 3423 46be 82d3 233f
00000340: f56d adbf e441 663f 46ab 673f bcaa a23f
00000350: 5409 c339 e7d4 3e3e 60ad d13f 3ad0 7b3d
00000360: d199 7b3f 1035 753f 1df0 3abe 5669 c33a
00000370: 49b9 733b 23e4 2fbc 545f be3c 81e9 c03e
00000380: c05e 733f dd6f 70be b865 72bf 11ec 1e3f
00000390: fee7 703d e0a2 3b3e 0e8b 8f3e bfc3 cf3f
000003a0: 6837 28bf 38f5 b93f a3a4 a83f 025f 0cbd
000003b0: b718 5b3e 2dd4 98bf 63ff b4bd c58b 393e
000003c0: 3c19 babe 2be2 0c3e 9592 2abd a54d 6f3e
000003d0: abf5 923f 7027 403e f045 c43d 14f4 7e3f
000003e0: 2546 dc3d ed2e 333f 0151 913f 2a57 ac3e
000003f0: 0ccd 3f3e b45f aabd 76c7 a93f e80c 14c0
-0.33965456 -0.5769213 0.9136997 1.7466885 -1.3445017 -0.02497992 -0.034303367 -3.9823475
0.471151 -1.5930392 -0.057876445 -1.6031061 -0.1194929 -1.2092705 -0.0067365346 -0.05272393
-0.991573 -0.010923397 1.0779213 0.30227017 0.12502222 -0.05881982 0.11319938 -3.28197
0.9552496 0.05641879 -0.3356005 0.5783084 0.8265834 1.1738074 0.47270265 0.75225115
0.2818654 -0.0031122745 0.484398 0.004838138 0.97601366 0.6943244 -0.00086156646 0.768227
0.12232688 -0.57346827 -0.50132984 -0.69624925 0.36726466 -0.18759672 0.85172784 -0.77414626
-0.15584193 0.15876389 0.01727489 1.6153966 -1.1263473 -0.53152025 -0.40984133 -2.382051
-1.3748573 -0.15968853 0.5202345 -1.0283973 -0.037160818 0.0038973824 0.9694474 -0.8724315
0.10470782 -2.0099366 0.6393984 0.0023011884 -2.7618847 0.029187443 0.24670006 1.2576106
-0.39113298 -1.3432487 0.6224607 -0.07741187 0.99609673 -0.045498993 -0.5258251 -0.6732153
-1.3162783 0.10337009 1.1071604 -0.8426343 0.007829348 -0.09529908 1.0386016 -0.0053191185
0.47817364 0.43369615 -1.9747134 0.012939331 0.10710545 -1.2557595 0.035919495 -0.49556234
0.9433645 -0.6626421 -1.561933 1.0526779 0.031001149 -1.7361836 -0.14633563 0.7822018
-1.8574086 2.012103 1.541224 -0.053004436 -1.8956846 -1.9527961 -0.83807755 -0.014311599
-2.828943 -1.1802605 0.039432243 0.8470293 -0.5569657 -1.1772265 -0.2413468 0.48315978
0.14264388 0.0487576 0.9971553 0.45921725 -0.8363008 -0.380993 1.008122 -1.0206184
-0.028852873 -0.21319452 0.7204084 2.0346222 0.58306205 -0.05632845 0.00470082 0.046991568
0.9336944 -0.21298501 0.953757 -0.27592582 0.7581345 -0.24435663 0.0994025 0.062310472
-0.13918093 0.9978394 1.2891386 0.8563318 -0.66607344 0.051966798 0.4800766 -0.8552626
-0.17338304 -0.04051998 -0.4205994 0.705467 0.4208777 0.8218742 0.4949296 0.57321537
1.1298032 0.10499294 1.2716782 -0.0040699844 0.41426724 1.0857142 0.065765776 0.85436404
0.2652605 0.16175823 -0.08251761 0.73530245 0.5036841 0.7122964 1.1086453 -0.2612801
-0.6541046 0.6452075 -0.06437957 0.2673233 -0.011666735 0.5960233 0.29863027 0.44721043
-0.94960207 -0.24518615 0.58005786 -0.21808818 0.041773956 0.092712685 1.2112148 0.28004327
0.4850123 -1.1912041 0.6894552 0.55074054 -1.6031032 -0.0046833465 -0.28234926 1.070829
0.01908053 0.07150652 1.0691048 0.0028695506 1.5116763 0.07667962 -0.19349366 0.6399461
-1.3549181 0.8994429 0.9049572 1.2708354 0.00037200248 0.18635903 1.6381035 0.061477877
0.9828158 0.9578409 -0.18255658 0.0014908712 0.0037189296 -0.010735544 0.023238815 0.3767815
0.9506645 -0.23480172 -0.9468646 0.6207896 0.058814995 0.1832385 0.28035778 1.6231612
-0.65709543 1.452796 1.3175243 -0.034270294 0.21396147 -1.1939751 -0.08837774 0.18119724
-0.36347377 0.13758151 -0.041643698 0.23369463 1.1481222 0.18765044 0.09583652 0.99591184
0.107555665 0.6999348 1.1352845 0.3366025 0.18730563 -0.08319035 1.3263996 -2.3132877

net.2.bias f4 [128]
00000000: 53f1 823f fa67 0540 ad6d b73b 78c3 6c3f
00000010: 3939 1140 ea9e 3cbd 041b e3bd e2b4 dcbc
00000020: cffe 393b 87bb adbd cfa1 13be fca0 f4bd
00000030: 836e ccbc ce51 94bd e8cf 453f f7ed c9bd
00000040: 10bf 823f af2f 76bd 4fe7 fabd 139d d03f
00000050: 31bf 793f 8438 853f f9a4 3f3f 4da0 3abd
00000060: 4cb0 a3bc 72f1 80be eafb 21be 7e00 3d3f
00000070: 2b86 dfbd a2b7 cabd 80df f8bd 2466 773c
00000080: 47ef a9b9 8f28 23bd e547 ccbb fa10 213f
00000090: 3322 6e3f 6466 413f 2285 0dbd 3c6b f7bd
000000a0: d05d 20be ee37 5f3f 3dca 5b3d 0bd5 62bd
000000b0: 0b80 babd 420d 733f 2135 4c3f 9ffb 6d3f
000000c0: 9df6 fbbd a5bd 1c3f 43cb 3d3f c448 5e3f
000000d0: a308 0fbe 558c d93e 9034 0cbd f890 8a3f
000000e0: e6ef 1a3f b70b 8e3f b98a 813f 3c22 5cbd
000000f0: 455e 4bbd df70 bcbd dcb6 763f 13f1 6a3e
00000100: 8a47 48bd 59fc 363f 2d5e e8bd 7abf 9fbc
00000110: 6675 81be 2815 b9bd 51be 90be 75c5 633f
00000120: 80c2 64bc 72bb a43f c77c 12be 2b06 623f
00000130: fa19 e1bd 2a2a 523f 0857 1abe d6d0 9bbd
00000140: 753e cabc 5655 9dbe 4354 23be c9fb b8bd
00000150: 8685 68bd 8622 8e3c ea7f c6bd d187 3dbd
00000160: d520 d8bd 3b26 b83b 1185 833f 6e72 883f
00000170: 8285 363f 2d06 1cbd 4c63 f2bd 127a 833f
00000180: c484 a3be c3c5 643f d0d8 f8bd 3c68 01bd
00000190: 0f39 56bb 845f f5bd 3227 8ebd cb12 303b
000001a0: d748 cabd ef48 1abd 90af fd3f be93 09be
000001b0: 62e7 773f 98a5 d23e 8061 d1be 0109 b1bd
000001c0: 9dd4 083d 79d5 643f 7b26 9ebd 1f28 42be
000001d0: 8817 423f 253b 863f e458 35be 117b c63d
000001e0: b2a1 973d 27b7 e03e 3ca9 01be 9992 9d3c
000001f0: 12a6 8b3f 6624 06be c0bc febd f6a3 bb3b
1.0229896 2.0844712 0.005597791 0.9248576 2.2691176 -0.04604999 -0.11089137 -0.02694172
0.0028380638 -0.084830336 -0.14417194 -0.11944768 -0.02495504 -0.072421655 0.77270365 -0.09859841
1.0214558 -0.06010407 -0.1225115 1.6297935 0.9755736 1.0407872 0.74861103 -0.04556303
-0.019981526 -0.25184208 -0.15818754 0.73828876 -0.109142624 -0.098983064 -0.12152004 0.015100036
-0.00032412467 -0.0398336 -0.0062341564 0.6291653 0.93020934 0.7554686 -0.034550793 -0.12081
-0.15660787 0.87194717 0.053659666 -0.055378955 -0.091064535 0.94942105 0.7976857 0.9296207
-0.12302897 0.61226875 0.7413828 0.8682978 -0.13968138 0.42489877 -0.034229815 1.0825491
0.60522306 1.1097325 1.012046 -0.053743586 -0.04965045 -0.09201216 0.9637277 0.22943525
-0.04889635 0.714788 -0.113460876 -0.019500483 -0.2528488 -0.09037238 -0.282702 0.8897317
-0.013962388 1.2869704 -0.14305411 0.8829066 -0.10991283 0.8209559 -0.15072262 -0.07608192
-0.024687985 -0.3072917 -0.15950112 -0.09032399 -0.056767963 0.017350446 -0.096923664 -0.046272103
-0.10553137 0.005619792 1.0274984 1.0659921 0.71297467 -0.038091827 -0.118353456 1.0271628
-0.3193723 0.8936426 -0.12150729 -0.031593546 -0.0032687818 -0.11981109 -0.0694107 0.002686667
-0.09877174 -0.03766721 1.9819202 -0.13435265 0.9683744 0.41141963 -0.408947 -0.086442955
0.03340589 0.89388233 -0.07722183 -0.18960617 0.75817156 1.04868 -0.1770969 0.09691442
0.07403888 0.43889734 -0.12662214 0.019234942 1.0910056 -0.13099822 -0.12438345 0.005726333

net.4.weight f4 [13, 128]
00000000: 887f 903f f767 6c3f aa2c 173d 64ea 4a40
00000010: 8c34 8c3f 16c5 5e3d 93c7 ae3d f7a8 74bd
00000020: 2131 c8bc 0ad8 4bbd d6af a5bd 0637 9e3d
00000030: e0e5 26bd 4755 833d c7a4 2640 1459 b43d
00000040: e07b dc3f be79 87bd d01c 66bc 5788 913f
00000050: 8abd 1340 356e 4340 2793 f23f 22bb 043c
00000060: 46b7 cbbd af92 f83e ef5c cc3b cdb8 0e40
00000070: 1ef1 44bd 5463 af3c 2379 8b3d e588 233f
00000080: 8381 2a3d 3608 733d 62f8 f83c 92c8 1a40
00000090: 3ac2 3440 1e8e 0840 6a49 d2bc 2e60 1bbd
000000a0: 89dc dabc 1e58 1540 c2fa acbd 303a 16bd
000000b0: 2ce2 acbc 15b8 1b40 5229 2040 e64a e33f
000000c0: 4302 9c3d dd20 1740 5690 e43f f97f ef3f
000000d0: d0fa b73c 894b d63f c9cb e2bc 9209 3c40
000000e0: a7ba 4640 4aed 1540 56c4 3e40 e98a af3d
000000f0: a909 c237 011d 9f3d 43a6 0240 6644 0f40
00000100: dcb3 a0bd 25a4 0840 bc06 293d 9141 323d
00000110: 4d56 14be e8fa c4bb ea1d fc3e 6b36 4040
00000120: ed84 74bb d11b 3a40 0fba 803b 2f22 1440
00000130: e487 ba3d d115 0340 9415 bcba 19bf c03c
00000140: b830 55bc 0a35 09bf ba6e 51bc 08d2 8dbd
00000150: 2370 bebd be7b b23c 7078 13bd 21e1 6d3d
00000160: 2cda 94bc 4bc1 44bd 5301 1e40 7b7d cb3f
00000170: a468 f43f 2300 003d 227f 3d3c aeae 2140
00000180: d3fa d43e 7046 dd3f 8929 eabc aef6 6abd
00000190: 06c7 d5bb ee89 52bd b745 b63d d688 103d
000001a0: 2ad0 24bd 3775 813d 5d20 513f 4469 c73c
000001b0: 2ffc e03f 641b 2b40 00b9 113f 1bb8 a1bc
000001c0: bdd5 e8bd a1c8 0240 2fa0 91bd ff8e c93c
000001d0: b5e5 3e40 d177 3140 d0ce d93c 86a3 583e
000001e0: 33f9 9e3e 3fa6 f63f 0546 863d 40dc af3d
000001f0: 9f5d 3a40 4eea 733d 8d31 eebd 953f 843d
00000200: c3a2 923f 0a84 653f 1020 94bc a927 2040
00000210: 006f 8a3f 53ca 81bc 1ddc a2bd 350a 1ebd
00000220: b9a6 f03c da82 e03a a721 8dbd 0c33 a9bd
00000230: 0016 14bc 6a99 6b3c 0aa6 1d40 dce4 8e3c
00000240: c3b7 db3f a64a c7bc db4e a5bd 1a20 8c3f
00000250: 9c47 0840 a62d 2e40 b2e7 4540 bf0c 22bb
00000260: 315c 1fbb 611e f03e 1b4a 0e3c 45ce 1d40
00000270: 3cb2 32bc a846 8a3d df9c b63a 4215 213e
00000280: 5a44 7bbd 5c42 da3c 4863 af3c c8e7 2f40
00000290: 9d40 2640 5f54 e83f bc4e fdbc d5f5 2ebd
000002a0: f9ab a9bd 7923 0f40 c472 153e 78ac 5ebc
000002b0: 73b0 9dbd 5c4d 2c40 4a85 3c40 6901 0240
000002c0: 639e 253d 2d07 1440 4917 f83f ae50 dc3f
000002d0: a465 d9bd 386f fa3f 3f87 c63a 7b9a 5740
000002e0: 4e94 4940 1c9f 4840 84ee 5a40 2297 cb3c
000002f0: a1d6 953d e06f 2dbd ad37 0540 28fb 1240
00000300: 5180 603d 2f39 0940 fe55 65bd 6607 c2bd
00000310: a7d2 00be e765 c1bd 2d7a b23e 2bae 4e40
00000320: e88b 51bd 735c 2f40 5d55 933b 9c0c 0940
00000330: 55b3 a13d 128f 1640 d425 bdbd bf5a 9d3c
00000340: 1b4a c4bc 90cc f43e deb3 73bc 6010 6bbd
00000350: 7fd0 863c b76c 6d3d c1a2 0e3d bc38 d1bc
00000360: 21c5 b53d 937a 42bd 0d19 1d40 2b94 ba3f
00000370: de7b e73f aa6d e33d dab9 44bd 89ba 4840
00000380: ccfa f33e 1266 0240 487c 9b3d f26d 773d
00000390: a3c6 16bc ed14 9a3c b0e3 473d 7d65 573b
000003a0: 4e1b b1bd fd5c f33b 93dc 563f 1263 20bd
000003b0: 5792 0040 2b51 5640 df02 243f c708 24ba
000003c0: f4da 13bd b4ce 4540 3df4 b13d 1397 f53e
000003d0: 0e8a 0f40 aa28 3140 f8ba 7bbd 19f2 80bd
000003e0: c7f7 523f 1da2 e83f 9789 62bd 1fbf 3abd
000003f0: ef51 1340 92ba 373d 1c69 f93c 63fe 11bc
1.128892 0.9234614 0.03690783 3.170556 1.0953536 0.054387175 0.085341595 -0.05973145
-0.024437489 -0.049766578 -0.08090179 0.07725339 -0.04074657 0.0641275 2.6038072 0.08806053
1.7225304 -0.06615017 -0.014044955 1.1369733 2.3084435 3.0536015 1.8951157 0.008101257
-0.09947066 0.4854941 0.0062366645 2.2300293 -0.04808151 0.021409668 0.06810214 0.6388076
0.04162742 0.059334002 0.030391876 2.4184918 2.8243546 2.1336741 -0.025669772 -0.03793352
-0.026716487 2.3335032 -0.08446266 -0.036676586 -0.02110394 2.4331105 2.502522 1.7757232
0.07617619 2.3613808 1.7856548 1.8710929 0.022458464 1.6741802 -0.027685063 2.9380841
3.1051424 2.342608 2.9807334 0.08571417 2.31311e-05 0.07769204 2.0413978 2.2385497
-0.078468055 2.1350186 0.041266188 0.04351956 -0.14486046 -0.0060113557 0.49241573 3.0033214
-0.0037310675 2.9079478 0.00392843 2.3145864 0.0910795 2.0482066 -0.0014349693 0.023528622
-0.013012104 -0.53596556 -0.012782747 -0.06924826 -0.09298732 0.02178752 -0.03600353 0.058076028
-0.018170439 -0.0480359 2.4688308 1.5897669 1.9094434 0.03125013 0.011565955 2.5262866
0.41597614 1.7287121 -0.028584259 -0.05736416 -0.0065239696 -0.05140107 0.08900016 0.035286747
-0.040237583 0.06321185 0.8169001 0.024342187 1.757696 2.6735468 0.5692291 -0.019741109
-0.11368892 2.0434954 -0.07110631 0.024604319 2.9827702 2.772938 0.026587874 0.21156129
0.310495 1.9269484 0.06556324 0.08586931 2.9119642 0.059549622 -0.11630545 0.0645744
1.1455921 0.896546 -0.018081695 2.5024207 1.0815125 -0.015843546 -0.079521395 -0.038583953
0.029376375 0.001712884 -0.06891184 -0.082616895 -0.009038448 0.0143798385 2.4632592 0.017443113
1.7165455 -0.024327587 -0.08071681 1.0947297 2.1293707 2.7215362 3.0922666 -0.0024726836
-0.0024316425 0.46898177 0.00868466 2.4657147 -0.010906752 0.06751758 0.0013932249 0.15730765
-0.061344482 0.02664297 0.021409646 2.7485218 2.5976937 1.8150748 -0.030921333 -0.042714912
-0.08284754 2.23654 0.14594561 -0.013590924 -0.07699671 2.6922216 2.9456353 2.031336
0.040434252 2.312938 1.9382106 1.7212121 -0.106150895 1.9565191 0.0015146508 3.3688037
3.1496768 3.1347113 3.4208078 0.02485234 0.07316328 -0.04234302 2.0815232 2.2965794
0.054809872 2.1441152 -0.05599021 -0.094740674 -0.12580357 -0.094432645 0.34858838 3.2293804
-0.051158816 2.7400177 0.00449626 2.1413946 0.07895533 2.3524823 -0.09235731 0.01920831
-0.023961117 0.4781232 -0.014874427 -0.057388663 0.01645684 0.057965007 0.034823183 -0.025539748
0.0887549 -0.047480177 2.454654 1.4576467 1.8084676 0.11104901 -0.048028804 3.1363852
0.4765228 2.0374799 0.07592064 0.060407586 -0.009202632 0.018808806 0.048801124 0.0032866888
-0.08647786 0.0074268566 0.8393032 -0.03915698 2.0089319 3.348704 0.6406688 -0.00062574114
-0.03609748 3.0907412 0.08689163 0.47966823 2.2428012 2.768107 -0.061457604 -0.062961765
0.8240933 1.8174473 -0.055306997 -0.045592424 2.3018758 0.04485566 0.030445628 -0.008910748

net.4.bias f4 [13]
00000000: 41ca 753f 28c1 c13f eb68 873f ccbc 903f
00000010: 580a be3f a22b 923f 6ff4 a23f 9a71 a53f
00000020: d235 673f 2b74 653f fab1 a33f 6105 a13f
00000030: 5358 863f
0.9601174 1.5137072 1.0578893 1.1307616 1.4846907 1.1419566 1.2730845 1.2925293
0.903165 0.89630383 1.2788689 1.2579767 1.0495704

net.0.weight f4 [128, 53]
00000000: 194c c5be db7e 34be f268 6dbf aab6 fabd
00000010: 1832 32be 2ce9 64bf 1a98 5d3e 11b0 14c0
00000020: 18aa 8cbf 1dad 89be e1e3 8fbd acec 473f
00000030: 928b 613f e339 81bc 669d 903e 3d57 cfbf
00000040: 01dd 11bf f953 8abf b802 6e3f e7b1 60bf
00000050: d75a a4be 8e0f b03e cb18 2bbf 6afa 2e3f
00000060: a24a 8ebf 7ca7 0dbf 395c 1cbe a25c ea3f
00000070: c6e5 373f eae5 6b3f a82b 51bf 9895 3bc0
00000080: bef4 0040 3dc8 c0bf 937f 313f d733 1f3f
00000090: 0dc0 963e c7f1 933f e489 323e 6f60 bbbf
000000a0: 5cf2 06bf 75de 523e 8911 adbe f54b cf3e
000000b0: 48e1 ecbd 8d92 2cbf cff8 8b3e cd05 f6be
000000c0: 3b1f f0be f2c8 3d3e 6f39 e1be 2c83 3bbf
000000d0: e6f3 813e 957a 66bc e455 1e3e ef10 a6bf
000000e0: b2e3 8bbf 6921 573c 5c51 5d40 5fa5 26c0
000000f0: 10c2 b33e cad2 5abf ffb0 673f 8a5e 2740
00000100: 5b83 14bf b3f2 2bc0 a675 aebc cc16 f2bf
00000110: 41ff d1be 5016 1440 5cf1 9e3f e34b a23f
00000120: 04d7 7e3f 3bd5 c73e eb62 c23f ec77 bc3e
00000130: bf59 ba3f 6f3d 0abf e867 0b3f bacd 843f
00000140: 7092 35bd 01c5 19be ff22 853f 375d d23e
00000150: 81d1 e63e dfba a23f 6319 51bf 5cd1 e73e
00000160: 4d0b 77bf e95f 55be bc54 7abe 4a75 a7be
00000170: e07d 99be 6e21 0a3d 3633 b739 49f5 0b3e
00000180: 20cf e5b7 5b5a 6c3e fcda 14be 5021 eabe
00000190: 8d12 ca3f 9603 7d3f 086a 5f3d ddf1 7f3f
000001a0: 8b56 e93d 9150 953d 4a69 a23e 6523 963e
000001b0: 0439 b4be 2eed d53f c7be 3f3e 7370 a7bd
000001c0: c7ff babe c244 52bf 257f babf b397 82bf
000001d0: 974f 0fbf fb7e 81bf 8eaf 273f 3c85 91bf
000001e0: 48da 533e 3b99 edbf 2c69 8f3f e4d3 2e3f
000001f0: 4450 d9bf fe75 c4bf 721f 64be 14b4 c6bf
00000200: ce57 14be 2b7a cebf 8df0 bbbf fd6a 13be
00000210: f92a 94bd 27ae 983f 321c 69bf 2172 aa3f
00000220: c8ea 9e3f bedb 393e 8663 6c3f c6b6 983f
00000230: b89b 90be 60fd a63d b1a0 2fbf 7242 03bf
00000240: 7c13 c1bf ee91 12c0 dad3 6f3f 043d 99be
00000250: fdf5 163f a2a2 b3bf 5e14 39be f5c1 ef3b
00000260: 6b07 9fb9 ba92 89bf cfcb a0bf 2397 c9bd
00000270: ef3d a2bf 9562 38be 5432 44bd 7990 25bf
00000280: 30dd c53e d1dc 0abf 0e43 8a3e 71f6 0dbe
00000290: 7aa1 b53e 2905 763e 631b 99bf 6241 f7bf
000002a0: b6ce bcbf 9f60 a7bf f4d3 e4bf c031 47bf
000002b0: caa5 713f fc24 9a3e 0a05 fcbe 5ccc e9be
000002c0: d819 ee3f df5a 0fbf dbaf 273f 131b d3bc
000002d0: 2bab 9abe fba1 f63e cfb7 fcbd 1446 1c3f
000002e0: 2e60 113d 0c36 45be 2e78 643f beea 9c3d
000002f0: e85c a3bf 9661 fc3e 46f0 04bf 4726 273f
00000300: 64b7 823f d207 64bf f733 05be 1aad 923f
00000310: 671f 7a3e 6720 a83f bba3 46be 710a 0d3f
00000320: 0ea7 a2be caf9 993f 6cd1 2bbf 4b66 d63c
00000330: e19a 92bf 824e e83d cec0 d4be a96b 0bbf
00000340: 91bc 0b3f 9bc3 20bf 02f2 ffbe 1521 73bf
00000350: d869 b9be f333 27bd a41a 963f 1431 193f
00000360: e1c4 dbbd e791 febd a512 363f d93f c4bd
00000370: 6577 fd3f 0c06 58be 2702 8abe 335a 2fc0
00000380: 7648 23bf 41e2 a4bf cad1 13bf 7aad 5c3f
00000390: 6cda 85bf b393 bf3e 1891 2ebf 0e78 d93f
000003a0: 09a7 c73e 5f2d 123f 759e 47bf 22ad 31bf
000003b0: f623 3fbe 89d2 36bf eccc 4bbf 79b0 4abf
000003c0: daca 1b3f c3c2 35bf 559d b5bf 013f ebbf
000003d0: 424a 9ebf bb28 88bf 8a7f 013f d448 9fbe
000003e0: fe24 033e 71f4 e83f 428b 51be 8b88 643f
000003f0: ad5b 733f 7524 163f 6a2c fc3f b9ef df3f
-0.3853462 -0.17626517 -0.9273826 -0.12241872 -0.17401922 -0.8941829 0.21640053 -2.3232462
-1.0989408 -0.26889887 -0.07025886 0.7809551 0.8810359 -0.015774673 0.28245085 -1.6198498
-0.5697785 -1.0806876 0.929729 -0.8777146 -0.32100555 0.34386867 -0.66834706 0.6835085
-1.1116526 -0.55333686 -0.15269555 1.8309519 0.7183498 0.92147696 -0.8170724 -2.9310055
2.0149379 -1.5061108 0.6933529 0.62188476 0.29443398 1.155816 0.17435414 -1.4638804
-0.5271356 0.20592673 -0.3380244 0.40487638 -0.115664065 -0.6741112 0.27338263 -0.480513
-0.46898827 0.18533686 -0.4398913 -0.7324703 0.25381392 -0.014067312 0.15462452 -1.2973918
-1.0928862 0.013130524 3.4580908 -2.6038435 0.35108995 -0.8547789 0.9050445 2.6151452
-0.5801293 -2.6866882 -0.021296334 -1.8913207 -0.41015056 2.3138618 1.2417407 1.2679409
0.9954684 0.3902987 1.5186437 0.36810243 1.4558638 -0.5399999 0.54455423 1.0375283
-0.044329107 -0.15016557 1.0401305 0.41086742 0.45081714 1.2713279 -0.8167936 0.45276916
-0.9650162 -0.20837368 -0.24446386 -0.32706672 -0.29978848 0.033723287 0.00034942635 0.13667788
-2.7395377e-05 0.23081343 -0.14536661 -0.4572854 1.5786911 0.98833597 0.05454448 0.9997843
0.1139346 0.072907574 0.31720954 0.2932388 -0.3519975 1.6713006 0.1872512 -0.08175745
-0.36523268 -0.82136166 -1.4570051 -1.0202545 -0.5598082 -1.0116876 0.6550225 -1.1368785
0.20688736 -1.8562387 1.1203971 0.6829207 -1.697762 -1.5348508 -0.2227762 -1.5523705
-0.1448662 -1.6131033 -1.4682785 -0.14396282 -0.07234759 1.1928147 -0.9105865 1.3316079
1.24154 0.18150231 0.9233936 1.1930778 -0.28243804 0.08153796 -0.6860457 -0.5127326
-1.5084071 -2.2901568 0.93682635 -0.29929364 0.589691 -1.4034007 -0.18074176 0.0073168227
-0.0003033237 -1.0747902 -1.2562197 -0.0984328 -1.2675151 -0.18006356 -0.04789956 -0.6467357
0.38645315 -0.5424319 0.27004284 -0.13863541 0.3547476 0.24025406 -1.1961483 -1.9316828
-1.4750583 -1.3076361 -1.7877183 -0.7781029 0.943936 0.30106342 -0.49222594 -0.45663726
1.8601637 -0.55998033 0.6550271 -0.025769746 -0.30208716 0.48170456 -0.12339746 0.6104443
0.035492115 -0.19258898 0.8924588 0.07661961 -1.2762728 0.49293202 -0.5192913 0.6529278
1.0212216 -0.8907443 -0.13008104 1.1459076 0.24426042 1.3134888 -0.19398396 0.5509406
-0.31768078 1.2029355 -0.6711643 0.026171824 -1.1453515 0.11343099 -0.41553348 -0.5446115
0.54584605 -0.6279847 -0.49989325 -0.94972354 -0.36213565 -0.040821027 1.172688 0.5984051
-0.10730911 -0.124301724 0.711222 -0.095824905 1.9802061 -0.21096057 -0.26954767 -2.7398803
-0.6378244 -1.2881547 -0.5774199 0.86202204 -1.0457282 0.37417373 -0.68190145 1.6989763
0.38994625 0.5710048 -0.7797616 -0.69404805 -0.18666062 -0.71415 -0.7960956 -0.79175526
0.608564 -0.7100031 -1.4188639 -1.8378602 -1.2366412 -1.063743 0.50585234 -0.3111025
0.1280708 1.8199598 -0.20463279 0.8927085 0.9506176 0.5864938 1.9701054 1.7495033

net.0.bias f4 [128]
00000000: 8d6b 26be 59c6 073f 6ff9 fdbc 49ec 943b
00000010: 1c6f cd3c 4d69 3ebe f87e 47be 79cb 353f
00000020: 6d29 473e 3c2c c33e c90e a03e 7bce cebd
00000030: a8ab 83bc c2a5 26be a004 65be edfa febd
00000040: 2188 a63c 1107 8a3e 118e c23e 244c 0c3f
00000050: bce4 5f3e db39 23be e06f 063f 5118 f2bd
00000060: 725f 103e 66ba 1bbe eb2f 2f3e 7d21 633f
00000070: 53e9 fd3c 9420 3b3d a40a f83d 81b7 dbbe
00000080: 1244 803e cb77 cdbd 0560 083f 2540 22be
00000090: b384 9bbd 12bc 5a3e d27e 57be e608 5b3f
000000a0: 63d6 603e be0d a5bd 6ad6 2abe 762b e33e
000000b0: 88e4 523f 7d9e 8abd f8b2 8dbe 7c0b afbe
000000c0: 7c27 1e3f d243 2bbe ec6d aabd a5a2 54be
000000d0: 189c 6e3e 7dfc 9c3e 1a4b 843e 61bc 55bc
000000e0: 3621 d63d b06e 26be c08f 1cbe b1cf 1fbe
000000f0: f8a4 cfbd 0494 3abe 44e4 ed3d 94e0 38be
00000100: 67e2 4f3e ce40 063e 0ac6 103e fca3 04bf
00000110: 6f69 9dbe 5d05 64be f70d 51be 33fd 8c3e
00000120: a7a9 8d3e edf8 423d 6b70 3b3f 640d 72bd
00000130: 71cb c93e a103 f6bd e461 25be 4651 6d3e
00000140: 8f66 a7bd d6f0 f53e 2fcb 963e d335 85bd
00000150: 057b 8ebe cf4b 6ebe b40e e93e b2df d83b
00000160: ff2f ed3e 9991 2c3f 7d30 463d 27ff f2bd
00000170: 422d ea3e 1a57 043f 16cd 64be c352 703e
00000180: 473b 0d3c f4e7 883e deb9 48be 5f7f 29bd
00000190: 3237 3abe f242 de3c 97a8 04be 5ddc 803f
000001a0: 270d a8be 0bf2 9c3d b414 14bf 8f99 d9bd
000001b0: 0f6c 15be e254 cd3d 9783 043d 9b58 ad3d
000001c0: 8332 353f 8f5f 153e 39f1 b2bd 8071 2ebe
000001d0: c802 8c3e 0ac0 873e 75b3 c8be 72e6 8c3e
000001e0: 3ee6 9c3e bb9f 333e 2cff 883e 0963 01bd
000001f0: 39ce db3e 9be7 f63e c4d4 933e 652d 95be
-0.16251965 0.5303703 -0.031002728 0.004544769 0.025077395 -0.18594857 -0.19482028 0.710136
0.19449396 0.38119686 0.3126128 -0.10097977 -0.016073063 -0.16274169 -0.22365046 -0.12450204
0.020328583 0.26958516 0.37999013 0.5480368 0.21864599 -0.15940039 0.5251446 -0.11821044
0.1409891 -0.15207824 0.17108123 0.88722974 0.030995047 0.045685366 0.121114045 -0.4291344
0.25051934 -0.10032614 0.53271514 -0.15844782 -0.0759367 0.21360806 -0.21044472 0.8556045
0.21956782 -0.08059262 -0.16683355 0.44369096 0.8237996 -0.067685105 -0.27675605 -0.3418845
0.61779 -0.1672509 -0.08321747 -0.20765169 0.23301733 0.30661383 0.25838548 -0.013045401
0.10455553 -0.16253161 -0.15289211 -0.15606572 -0.10138887 -0.18220526 0.11615804 -0.1805442
0.2030121 0.13110659 0.14138046 -0.5181272 -0.30744502 -0.22267671 -0.20415483 0.27536926
0.27668497 0.047600675 0.7321841 -0.0590948 0.39413026 -0.12012411 -0.16150624 0.23175535
-0.081738584 0.48035306 0.29451892 -0.06504407 -0.2782823 -0.23271106 0.4551903 0.0066184634
0.4632568 0.67409664 0.048386086 -0.11865073 0.45737654 0.51695406 -0.22343859 0.23469071
0.00862009 0.26739466 -0.19602153 -0.041381236 -0.18185118 0.027131531 -0.12954937 1.006725
-0.32822534 0.076633535 -0.5784409 -0.10624992 -0.14592002 0.10025956 0.032352056 0.08464166
0.707802 0.14587234 -0.08737416 -0.17035484 0.27345872 0.26513702 -0.39199415 0.27519566
0.3064441 0.17541401 0.2675718 -0.031588588 0.42930773 0.48223576 0.28873265 -0.29136196

net.2.weight f4 [128, 128]
00000000: c6c4 adbe fe7b 14bf fcc7 693f 0c6b df3f
00000010: cce1 acbf b0a2 ccbc b081 0cbd cc17 7fc0
00000020: b38f f03e 754b ccbf 4ddc 75bd 401c cdbf
00000030: 37d3 f4bd 742d 9bbf 26be dcbb 0cf5 57bd
00000040: bc86 7ebf ddc0 51bc f222 893f 0e24 9a3e
00000050: b4cf 003e 0ded 70bd 3db3 e33d d1fe 51c0
00000060: 84fe 743f 6417 673d f200 acbe c68d 133f
00000070: d6bb 533f 2317 963f 38ad ef3e 6aeb 3f3f
00000080: 1079 8f3e 4df7 4bbb 9a94 f53e 3e89 9e3b
00000090: 7442 7a3f 1c3d 313f bfda 61ba e4c9 433f
000000a0: 5ced f23d 371c 13bf 977a fdbe 9bb0 31bf
000000b0: d577 ba3e 2a5f 43be 8a5e 5a3f aa5c 46bf
000000c0: 57f7 20be 364b 1c3e 1284 8d3c bfa0 ce3f
000000d0: 7886 90bf 83e2 07bf b871 d0be a3c2 18c0
000000e0: bd24 b0bf 601f 23be 5552 043f 70a2 83bf
000000f0: f135 18bd 3a6b 7f3b 0dea 773f 4eb7 5dbf
00000100: d01e d83d 9084 ffbf 7ead 223f 89cf 163b
00000110: 96f8 30c0 811a ef3c 0489 7b3e 589d a03f
00000120: 6b99 c6be 8c1c acbf 18b8 1e3f 1d8a 9ebd
00000130: 68d5 7d3f 275d 3abd 5347 08bf 7b8e 2cbf
00000140: fc8b a8bf 6915 ce3d 9576 8d3f 3ed8 58bf
00000150: aa46 003c 2a2c c3bd fe99 843f 004c aebb
00000160: d1e7 f33e f701 dd3e ad1b fcbf 7dff 533c
00000170: 9d36 d73d 2a04 a2bf 5220 133d 758a febe
00000180: 78c9 703f 7531 2bbf 877c c7bf d623 863f
00000190: 1ff6 fd3c 48d2 debf dbba 18be ae72 473f
000001a0: 45dd edbf f9b4 0040 1658 c53f 2e1b 59bd
000001b0: 9e14 f3bf 16f8 f9bf c3ff 57bf 320b 96bc
000001c0: 8d66 35c0 f1f5 97bf b483 213d 82d8 583f
000001d0: db70 0fbf d51b 97bf 9e23 77be 2358 f53e
000001e0: 0e5a 0e3e 01ff 373d 918c 7e3f 6c08 ea3e
000001f0: 51f4 55bf 3330 c4be 6da5 803f b099 81bf
00000200: fa81 ccbc a82b 5dbe fb91 383f e119 0240
00000210: 2d1a 143f a9b8 66bd 5609 9a3b e785 483d
00000220: f381 6f3f 8bff 59be 41b5 733f 09a6 8cbe
00000230: f39c 423f 49b7 7abe 8a93 cb3d 4439 7f3d
00000240: 0eed 12be 7c78 7f3f a5a6 a43f 2255 5b3f
00000250: 07c4 2abf 23db 543d fb83 f53e 590e 5bbf
00000260: 158b 30be 47f8 25bd 88bb d6be 48d2 343f
00000270: b4da d83e 2056 513f 1ad6 fc3e d226 123f
00000280: fad9 903f 8a06 d73d 2b89 a23f 815d 85bb
00000290: b419 d43e 55f4 8a3f 35b0 863d 5e77 5a3f
000002a0: ef7a 873e 2fd2 273e b728 a1bd ba8e 3d3f
000002b0: 61b4 003f 729d 363f 48ff 8d3f 99af 84be
000002c0: a4de 27bf b74a 243f 70d9 83bd 2000 883e
000002d0: 755f 5fbc b97e 193f 6a09 9b3e f3b9 e33e
000002e0: 37a1 72bf 643a 7bbe a7de 133f 3ceb 5cbe
000002f0: 2b1b 2b3d 26e0 bd3d 041b 9b3f adab 933e
00000300: 8c77 f73e a764 97bf 2e99 2f3f 55fd 0c3f
00000310: 83a5 ccbf c276 99bb 407d 91be 279f 883f
00000320: 7d2c d23c 4abf 8c3d 10a6 883f 120f 3c3b
00000330: 1b44 c13f 340a 9d3d ca6c 4bbe 0bf4 243f
00000340: eb97 adbf e530 663f f444 673f d1b0 a23f
00000350: 5409 c339 e7d4 3e3e dcc2 d13f 3ad0 7b3d
00000360: 7ea3 7b3f 8e88 753f bf57 37be 5669 c33a
00000370: 65be b7b9 721e 88bc 545f be3c f705 c13e
00000380: 43e6 723f d397 74be 6dd3 71bf 45ff 1d3f
00000390: fee7 703d 17ec 373e 1f2f 903e 46bb cf3f
000003a0: 4cdc 27bf 0622 ba3f 864f a83f 025f 0cbd
000003b0: a4a8 583e 88d9 98bf 7f91 bdbd 1242 373e
000003c0: 4c0e bcbe 4ba2 093e 9592 2abd 8978 6d3e
000003d0: 4331 923f 8977 3f3e f045 c43d f65f 7e3f
000003e0: fd67 d53d 21c0 323f 6c2e 913f 5447 ab3e
000003f0: 503b 443e 8273 abbd 9781 a93f b0bf 13c0
-0.3393919 -0.580017 0.91320777 1.7454543 -1.3506408 -0.02497992 -0.034303367 -3.9858274
0.46984634 -1.5960528 -0.06002455 -1.6024246 -0.119543485 -1.2123246 -0.0067365346 -0.05272393
-0.9942434 -0.01280233 1.071379 0.30105633 0.12579232 -0.05881982 0.11118171 -3.2811778
0.9570086 0.05641879 -0.3359447 0.57638204 0.8270849 1.1725811 0.46811843 0.7496859
0.2802205 -0.0031122745 0.47964936 0.004838138 0.9775765 0.6923387 -0.00086156646 0.76479936
0.11861679 -0.5746493 -0.4950759 -0.69410104 0.3641955 -0.19079271 0.85300505 -0.77485144
-0.15719353 0.15263066 0.01727489 1.6142806 -1.1291037 -0.53080004 -0.4071176 -2.3868797
-1.3761212 -0.15929937 0.5168813 -1.0283947 -0.037160818 0.0038973824 0.9684151 -0.86607826
0.10552752 -1.996233 0.6354598 0.0023011884 -2.7651725 0.029187443 0.24563986 1.2548018
-0.38788924 -1.3446212 0.61999655 -0.07741187 0.9915376 -0.045498993 -0.5323383 -0.6740491
-1.316772 0.100626774 1.1051813 -0.8470496 0.007829348 -0.09529908 1.0359495 -0.0053191185
0.476378 0.43165562 -1.9695946 0.012939331 0.105084635 -1.2657521 0.035919495 -0.4971501
0.94057417 -0.6687234 -1.5584878 1.0479686 0.031001149 -1.7407923 -0.1491503 0.7790936
-1.8583151 2.0110457 1.5417507 -0.053004436 -1.8990667 -1.9528835 -0.84374636 -0.018315885
-2.8343842 -1.187193 0.039432243 0.84705365 -0.5603158 -1.1805369 -0.2413468 0.47918805
0.1390154 0.044920925 0.9943324 0.4570955 -0.8357592 -0.38318023 1.0050484 -1.0125027
-0.024964321 -0.21598685 0.7209775 2.0328295 0.5785244 -0.05632845 0.00470082 0.048955824
0.9355766 -0.21288888 0.95198447 -0.27470425 0.76020736 -0.2448398 0.0994025 0.062310472
-0.14348242 0.9979322 1.2863356 0.8567678 -0.66705364 0.051966798 0.47952256 -0.8556877
-0.17240556 -0.04051998 -0.4193995 0.70633364 0.42354357 0.8177204 0.49382097 0.57090485
1.1316521 0.10499294 1.269811 -0.0040699844 0.4142586 1.0855814 0.065765776 0.8533839
0.26460978 0.16388772 -0.07869094 0.7404591 0.50275236 0.7133399 1.1093531 -0.2591522
-0.655741 0.64176506 -0.06437957 0.26562595 -0.013633599 0.5995899 0.3028062 0.44477805
-0.94777244 -0.24533993 0.57761616 -0.2157411 0.041773956 0.092712685 1.211762 0.28841916
0.48333395 -1.1827592 0.6859311 0.55074054 -1.598801 -0.0046833465 -0.2841587 1.067357
0.02565598 0.06872423 1.0675678 0.0028695506 1.5098909 0.07667962 -0.19865718 0.6443488
-1.3561987 0.8991836 0.9033959 1.271021 0.00037200248 0.18635903 1.6387591 0.061477877
0.98296344 0.9591149 -0.17904566 0.0014908712 -0.00035046335 -0.01661608 0.023238815 0.37699863
0.948826 -0.23886041 -0.94463235 0.61717635 0.058814995 0.17961155 0.2816095 1.6229026
-0.6557052 1.4541633 1.3149269 -0.034270294 0.21158081 -1.1941385 -0.09256267 0.17896298
-0.36729658 0.13440816 -0.041643698 0.23190512 1.1421283 0.18697943 0.09583652 0.99365175
0.10420225 0.69824415 1.1342292 0.33452857 0.19163251 -0.08371641 1.3242673 -2.3085747

net.2.bias f4 [128]
00000000: de91 823f 0c68 0540 ad6d b73b 8371 6c3f
00000010: a83d 1140 ea9e 3cbd 041b e3bd e2b4 dcbc
00000020: cffe 393b 87bb adbd cfa1 13be fca0 f4bd
00000030: 836e ccbc ce51 94bd d324 453f f7ed c9bd
00000040: 5ca0 823f af2f 76bd 4fe7 fabd a2a6 d03f
00000050: 3819 793f a97a 853f 3a46 3f3f 4da0 3abd
00000060: 4cb0 a3bc 72f1 80be eafb 21be 3d6c 3d3f
00000070: 2b86 dfbd a2b7 cabd 80df f8bd 2466 773c
00000080: 47ef a9b9 8f28 23bd e547 ccbb 5fbc 203f
00000090: cc6f 6e3f 431f 423f 2285 0dbd 3c6b f7bd
000000a0: d05d 20be 70ed 5e3f 3dca 5b3d 0bd5 62bd
000000b0: 0b80 babd 2b6e 723f 6c49 4b3f 7213 6d3f
000000c0: 9df6 fbbd 5a17 1d3f 3d49 3d3f 8fe2 5e3f
000000d0: a308 0fbe 06e0 d83e 9034 0cbd 973d 8b3f
000000e0: eeaa 193f 5c0a 8f3f dd3b 823f 3c22 5cbd
000000f0: 455e 4bbd df70 bcbd 83a0 773f 823d 693e
00000100: 8a47 48bd 376b 373f 2d5e e8bd 7abf 9fbc
00000110: 6675 81be 2815 b9bd 51be 90be 55b2 643f
00000120: 80c2 64bc 3ae0 a43f c77c 12be 09a8 603f
00000130: fa19 e1bd 3afd 513f 0857 1abe d6d0 9bbd
00000140: 753e cabc 5655 9dbe 4354 23be c9fb b8bd
00000150: 8685 68bd 8622 8e3c ea7f c6bd d187 3dbd
00000160: d520 d8bd 3b26 b83b 530b 843f 305c 883f
00000170: 2f8a 363f 2d06 1cbd 4c63 f2bd 3883 823f
00000180: c484 a3be cd9a 643f d0d8 f8bd 3c68 01bd
00000190: 0f39 56bb 845f f5bd 3227 8ebd cb12 303b
000001a0: d748 cabd ef48 1abd b3c0 fd3f be93 09be
000001b0: 1de6 763f 6f4c d43e 8061 d1be 0109 b1bd
000001c0: 9dd4 083d 0660 653f 7b26 9ebd 1f28 42be
000001d0: eca2 413f 7f81 853f e458 35be 117b c63d
000001e0: b2a1 973d a94c e03e 3ca9 01be 9992 9d3c
000001f0: 1986 8b3f 6624 06be c0bc febd f6a3 bb3b
1.0200765 2.0844755 0.005597791 0.92360705 2.2693882 -0.04604999 -0.11089137 -0.02694172
0.0028380638 -0.084830336 -0.14417194 -0.11944768 -0.02495504 -0.072421655 0.77009314 -0.09859841
1.0205188 -0.06010407 -0.1225115 1.6300852 0.97304106 1.0428058 0.7471653 -0.04556303
-0.019981526 -0.25184208 -0.15818754 0.73993284 -0.109142624 -0.098983064 -0.12152004 0.015100036
-0.00032412467 -0.0398336 -0.0062341564 0.6278743 0.9313934 0.7582895 -0.034550793 -0.12081
-0.15660787 0.8708105 0.053659666 -0.055378955 -0.091064535 0.9469935 0.7940891 0.92607796
-0.12302897 0.61363757 0.7393988 0.8706445 -0.13968138 0.42358416 -0.034229815 1.0878171
0.60026443 1.1175036 1.0174519 -0.053743586 -0.04965045 -0.09201216 0.96729296 0.2277737
-0.04889635 0.7164797 -0.113460876 -0.019500483 -0.2528488 -0.09037238 -0.282702 0.89334613
-0.013962388 1.2880929 -0.14305411 0.877564 -0.10991283 0.8202702 -0.15072262 -0.07608192
-0.024687985 -0.3072917 -0.15950112 -0.09032399 -0.056767963 0.017350446 -0.096923664 -0.046272103
-0.10553137 0.005619792 1.0315956 1.0653133 0.713046 -0.038091827 -0.118353456 1.0196295
-0.3193723 0.8929871 -0.12150729 -0.031593546 -0.0032687818 -0.11981109 -0.0694107 0.002686667
-0.09877174 -0.03766721 1.9824432 -0.13435265 0.96444875 0.41464564 -0.408947 -0.086442955
0.03340589 0.89599645 -0.07722183 -0.18960617 0.75639224 1.0430144 -0.1770969 0.09691442
0.07403888 0.43808487 -0.12662214 0.019234942 1.0900298 -0.13099822 -0.12438345 0.005726333

net.4.weight f4 [13, 128]
00000000: 1247 8f3f f44c 693f aa2c 173d 32d4 4a40
00000010: c5bd 8a3f 16c5 5e3d 93c7 ae3d f7a8 74bd
00000020: 2131 c8bc 0ad8 4bbd d6af a5bd 0637 9e3d
00000030: e0e5 26bd 4755 833d 3f76 2640 1459 b43d
00000040: 3f10 db3f be79 87bd d01c 66bc 3081 903f
00000050: 5785 1340 fb39 4340 8b4b f23f 22bb 043c
00000060: 46b7 cbbd af92 f83e ef5c cc3b 0ef8 0e40
00000070: 1ef1 44bd 5463 af3c 2379 8b3d e588 233f
00000080: 8381 2a3d 3608 733d 62f8 f83c 5ae4 1a40
00000090: d8b6 3440 c386 0840 6a49 d2bc 2e60 1bbd
000000a0: 89dc dabc 3f20 1540 c2fa acbd 303a 16bd
000000b0: 2ce2 acbc a36a 1b40 3d4e 2040 f50c e23f
000000c0: 4302 9c3d 06d5 1640 4487 e43f f9d3 ee3f
000000d0: d0fa b73c 30dc d53f c9cb e2bc 5375 3b40
000000e0: 93f0 4640 6ceb 1540 8dc6 3e40 e98a af3d
000000f0: a909 c237 011d 9f3d b956 0240 8c62 0f40
00000100: dcb3 a0bd 8c52 0840 bc06 293d 9141 323d
00000110: 4d56 14be e8fa c4bb ea1d fc3e 5138 4040
00000120: ed84 74bb 80b2 3940 0fba 803b c8a1 1340
00000130: e487 ba3d 48ec 0240 9415 bcba 19bf c03c
00000140: b830 55bc 0a35 09bf ba6e 51bc 08d2 8dbd
00000150: 2370 bebd be7b b23c 7078 13bd 21e1 6d3d
00000160: 2cda 94bc 4bc1 44bd 87e9 1d40 46dd ca3f
00000170: 9d99 f33f 2300 003d 227f 3d3c 41f8 2140
00000180: d3fa d43e ace4 dc3f 8929 eabc aef6 6abd
00000190: 06c7 d5bb ee89 52bd b745 b63d d688 103d
000001a0: 2ad0 24bd 3775 813d 91da 4d3f 4469 c73c
000001b0: 5797 df3f f2da 2a40 00b9 113f 1bb8 a1bc
000001c0: bdd5 e8bd 67b9 0240 2fa0 91bd ff8e c93c
000001d0: 7ee6 3e40 c9eb 3040 d0ce d93c 86a3 583e
000001e0: 33f9 9e3e 678f f53f 0546 863d 40dc af3d
000001f0: 5a9a 3a40 4eea 733d 8d31 eebd 953f 843d
00000200: 1ccc 913f ece4 633f 1020 94bc ddb1 1f40
00000210: be9c 893f 53ca 81bc 1ddc a2bd 350a 1ebd
00000220: b9a6 f03c da82 e03a a721 8dbd 0c33 a9bd
00000230: 0016 14bc 6a99 6b3c d9ed 1c40 dce4 8e3c
00000240: 82da da3f a64a c7bc db4e a5bd 8254 8b3f
00000250: ab64 0840 b94b 2e40 7cf1 4540 bf0c 22bb
00000260: 315c 1fbb 611e f03e 1b4a 0e3c 3779 1d40
00000270: 3cb2 32bc a846 8a3d df9c b63a 4215 213e
00000280: 5a44 7bbd 5c42 da3c 4863 af3c cf7b 2f40
00000290: 7a20 2640 1343 e83f bc4e fdbc d5f5 2ebd
000002a0: f9ab a9bd a572 0f40 c472 153e 78ac 5ebc
000002b0: 73b0 9dbd 16d3 2b40 0b17 3c40 9d70 0140
000002c0: 639e 253d 9b52 1340 864f f83f 3e1c dc3f
000002d0: a465 d9bd 0d80 f93f 3f87 c63a 63ce 5740
000002e0: da24 4940 59ae 4840 9ee6 5a40 2297 cb3c
000002f0: a1d6 953d e06f 2dbd ea37 0540 4129 1240
00000300: 5180 603d 0987 0840 fe55 65bd 6607 c2bd
00000310: a7d2 00be e765 c1bd 2d7a b23e dcb0 4e40
00000320: e88b 51bd 4d43 2f40 5d55 933b 8785 0840
00000330: 55b3 a13d c9e6 1540 d425 bdbd bf5a 9d3c
00000340: 1b4a c4bc 90cc f43e deb3 73bc 6010 6bbd
00000350: 7fd0 863c b76c 6d3d c1a2 0e3d bc38 d1bc
00000360: 21c5 b53d 937a 42bd 7ed9 1c40 69cb b93f
00000370: 3a35 e73f aa6d e33d dab9 44bd 4805 4840
00000380: ccfa f33e 2a43 0240 487c 9b3d f26d 773d
00000390: a3c6 16bc ed14 9a3c b0e3 473d 7d65 573b
000003a0: 4e1b b1bd fd5c f33b f05b 553f 1263 20bd
000003b0: 8b56 0040 3a78 5640 df02 243f c708 24ba
000003c0: f4da 13bd 86b7 4540 3df4 b13d 1397 f53e
000003d0: df05 0f40 7710 3140 f8ba 7bbd 19f2 80bd
000003e0: c7f7 523f 4d33 e93f 9789 62bd 1fbf 3abd
000003f0: 641f 1340 92ba 373d 1c69 f93c 63fe 11bc
1.1193564 0.91133046 0.03690783 3.1692014 1.0839163 0.054387175 0.085341595 -0.05973145
-0.024437489 -0.049766578 -0.08090179 0.07725339 -0.04074657 0.0641275 2.6009672 0.08806053
1.7114333 -0.06615017 -0.014044955 1.1289425 2.3050134 3.0504138 1.8929304 0.008101257
-0.09947066 0.4854941 0.0062366645 2.23389 -0.04808151 0.021409668 0.06810214 0.6388076
0.04162742 0.059334002 0.030391876 2.4201875 2.82366 2.1332252 -0.025669772 -0.03793352
-0.026716487 2.3300931 -0.08446266 -0.036676586 -0.02110394 2.4283836 2.5047753 1.7660204
0.07617619 2.356752 1.785378 1.8658439 0.022458464 1.6707821 -0.027685063 2.929036
3.1084335 2.342494 2.9808686 0.08571417 2.31311e-05 0.07769204 2.0365431 2.2403898
-0.078468055 2.1300383 0.041266188 0.04351956 -0.14486046 -0.0060113557 0.49241573 3.0034373
-0.0037310675 2.9015198 0.00392843 2.3067493 0.0910795 2.0456715 -0.0014349693 0.023528622
-0.013012104 -0.53596556 -0.012782747 -0.06924826 -0.09298732 0.02178752 -0.03600353 0.058076028
-0.018170439 -0.0480359 2.4673784 1.5848777 1.9031254 0.03125013 0.011565955 2.5307772
0.41597614 1.7257285 -0.028584259 -0.05736416 -0.0065239696 -0.05140107 0.08900016 0.035286747
-0.040237583 0.06321185 0.8041163 0.024342187 1.746806 2.6696134 0.5692291 -0.019741109
-0.11368892 2.042566 -0.07110631 0.024604319 2.9828181 2.7643912 0.026587874 0.21156129
0.310495 1.9184388 0.06556324 0.08586931 2.9156709 0.059549622 -0.11630545 0.0645744
1.1390414 0.8902118 -0.018081695 2.495231 1.0750959 -0.015843546 -0.079521395 -0.038583953
0.029376375 0.001712884 -0.06891184 -0.082616895 -0.009038448 0.0143798385 2.452017 0.017443113
1.7097933 -0.024327587 -0.08071681 1.0885165 2.1311443 2.7233717 3.092864 -0.0024726836
-0.0024316425 0.46898177 0.00868466 2.4605234 -0.010906752 0.06751758 0.0013932249 0.15730765
-0.061344482 0.02664297 0.021409646 2.7419317 2.5957322 1.814547 -0.030921333 -0.042714912
-0.08284754 2.2413723 0.14594561 -0.013590924 -0.07699671 2.6847587 2.9389064 2.0224984
0.040434252 2.3019168 1.9399269 1.7196119 -0.106150895 1.9492203 0.0015146508 3.3719718
3.1428742 3.1356413 3.4203258 0.02485234 0.07316328 -0.04234302 2.0815377 2.283768
0.054809872 2.133242 -0.05599021 -0.094740674 -0.12580357 -0.094432645 0.34858838 3.2295446
-0.051158816 2.7384827 0.00449626 2.1331499 0.07895533 2.342211 -0.09235731 0.01920831
-0.023961117 0.4781232 -0.014874427 -0.057388663 0.01645684 0.057965007 0.034823183 -0.025539748
0.0887549 -0.047480177 2.4507747 1.4515201 1.8063118 0.11104901 -0.048028804 3.1253223
0.4765228 2.0353494 0.07592064 0.060407586 -0.009202632 0.018808806 0.048801124 0.0032866888
-0.08647786 0.0074268566 0.8334341 -0.03915698 2.0052822 3.351088 0.6406688 -0.00062574114
-0.03609748 3.0893264 0.08689163 0.47966823 2.2347333 2.76663 -0.061457604 -0.062961765
0.8240933 1.8218781 -0.055306997 -0.045592424 2.298791 0.04485566 0.030445628 -0.008910748

net.4.bias f4 [13]
00000000: e4eb 723f 411b c13f f7a1 873f 297a 903f
00000010: d997 bd3f 4c87 923f 9d0f a33f 4f0b a53f
00000020: 6cb3 673f d53b 673f c429 a43f fad0 a23f
00000030: f92a 863f
0.9489119 1.5086442 1.0596303 1.128728 1.4811965 1.1447539 1.273914 1.2894076
0.9050815 0.9032567 1.2825246 1.2720025 1.0481864
