checkpoints/team1_agent_1.pt (torch, 394913 bytes, 24 tensors)

net.0.weight f4 [128, 45]
0	0xbfdbbd26	-1.7167099
1	0x3e93468f	0.2876477
2	0xc012cf93	-2.2939193
3	0x3ea68768	0.32525182
4	0x3f0e601d	0.5561541
5	0x3fc8111b	1.563022
6	0x3f3aae14	0.7292187
7	0x3f720bc1	0.94549185
8	0x3d5663a8	0.052341133
9	0x3db01798	0.0859825
10	0x3f567bfd	0.8378294
11	0x3d9d8c51	0.07692779
12	0x3fb5e6eb	1.4211096
13	0xbd90f49f	-0.07077908
14	0x3f41b073	0.75659865
15	0x40302b6a	2.7526498
16	0xbf8c452d	-1.0958611
17	0x3fc8b18e	1.5679185
18	0xbf74c930	-0.9561949
19	0xbe7649cc	-0.24051589
20	0x3df8bf1e	0.12145828
21	0xbf21f048	-0.63257265
22	0xbf83dc4a	-1.0301602
23	0x3e2fe1e4	0.17176014
24	0x3eacf606	0.3378145
25	0x3f9d60e4	1.2295194
26	0xbfce2cde	-1.6107442
27	0x3ec0b069	0.3763459
28	0xbfcc424b	-1.5957731
29	0xbee2eb3b	-0.44320092
30	0x3f234f50	0.63792896
31	0xbdf98612	-0.12183775
32	0x3ec6eef0	0.3885417
33	0xbf5e0daf	-0.8673963
34	0xbe8471ae	-0.2586798
35	0xbe71e0ea	-0.23620954
36	0xbd969940	-0.07353449
37	0xbf15b17c	-0.58473945
38	0xbf9115ce	-1.1334779
39	0xbc04f091	-0.008113996
40	0xbf0b3acb	-0.54386586
41	0x3e6235a1	0.2209077
42	0xbf67abf7	-0.9049677
43	0x3e1e47d4	0.15457088
44	0x3f018f6e	0.5060948
45	0x3f131f6e	0.5746983
46	0x3e92113d	0.28528777
47	0xbef1a213	-0.47193965
48	0xbef94a7d	-0.48689643
49	0xbf193503	-0.59846514
50	0xbed90f38	-0.42394423
51	0xbe548b3e	-0.20756242
52	0x3f51d896	0.8197111
53	0x3db8275d	0.08991883
54	0x3f8111ca	1.0083554
55	0xbf9d472d	-1.2287346
56	0x3eeb7f4f	0.45995566
57	0xbf942577	-1.1573933
58	0xbf819cc9	-1.0125972
59	0x3edbb5a6	0.42912024
60	0x3da14ca0	0.07875943
61	0xbd113bae	-0.035457306
62	0xc0032314	-2.049016
63	0xbf0c51f0	-0.54812527
64	0xbe828869	-0.25494698
65	0xbec032c0	-0.3753872
66	0xbe386e79	-0.18010892
67	0xbf458373	-0.771537
68	0xbe59ce03	-0.21269993
69	0x3ca94f64	0.02066774
70	0xbe19dd6f	-0.15025876
71	0x3f69edc0	0.913784
72	0x3fbd8cc9	1.4808589
73	0xbc9c71b4	-0.019097187
74	0xbd23b5a3	-0.039968144
75	0x3f2ceda7	0.6755013
76	0xc01d16da	-2.4545197
77	0x3ea9512e	0.33069748
78	0xbfe9f556	-1.8277996
79	0xbd59431d	-0.05304252
80	0xbea8e51b	-0.32987294
81	0xbda34ac7	-0.07973247
82	0xbe4b7b69	-0.19871296
83	0xbfcc2747	-1.5949486
84	0xbee45f78	-0.44604087
85	0xbfe139e5	-1.7595793
86	0x3f673136	0.90309465
87	0xbf8f4f4f	-1.1196078
88	0xbb868a38	-0.0041058324
89	0xbf2a1bb3	-0.66448516
90	0xbed58f9a	-0.41711122
91	0xbf2aaf64	-0.66673875
92	0x3c3e7002	0.011623384
93	0xbe3c7f8c	-0.1840803
94	0x3e898353	0.26858005
95	0xbe08c08c	-0.13354701
96	0xbc051f26	-0.008125102
97	0xbe4a62b7	-0.19764219
98	0xc00d0dc3	-2.203965
99	0x3d3f771a	0.046744443
100	0xbfbf2c58	-1.4935408
101	0x3e830718	0.2559135
102	0x3de839ab	0.11339124
103	0xbf433a40	-0.7626076
104	0x3e468e61	0.1939025
105	0xbfd5f15b	-1.6714281
106	0x3e68cff9	0.22735585
107	0xbfa32a6a	-1.2747319
108	0x3ebd0285	0.36915985
109	0x3ecf2361	0.4045668
110	0x3f091d85	0.5356067
111	0xbf7017c9	-0.93786293
112	0x3fa3d5b0	1.2799587
113	0x3f0bc16d	0.5459202
114	0x3f9a4143	1.2051166
115	0xbf0cca7b	-0.5499646
116	0xbf809447	-1.0045251
117	0x3c6f779a	0.014615918
118	0xbf9c3969	-1.220502
119	0xbf83cac0	-1.0296249
120	0x3f292d82	0.66085064
121	0x3f42c8a7	0.7608742
122	0xbf62c20c	-0.8857734
123	0x3faa3d1c	1.3299899
124	0xbea4809e	-0.32129377
125	0x3e004e24	0.12529808
126	0x3ec4aac1	0.38411525
127	0x3fb8fb11	1.4451619
128	0x3bd252b2	0.0064185495
129	0x3efac3af	0.4897742
130	0xbf9818ff	-1.1882628
131	0x3edce0b9	0.431402
132	0xbe50835d	-0.20362611
133	0x3f23d641	0.639988
134	0x3e870eab	0.26378378
135	0x3f1c2597	0.6099486
136	0x3dc8f687	0.09812646
137	0xbd8f5215	-0.06998078
138	0x3e22e716	0.15908465
139	0x3eb72e25	0.35777393
140	0xbe997176	-0.29969376
141	0x3ee231b0	0.44178534
142	0x3dadee01	0.08492661
143	0x3c80e2f5	0.015733222
144	0x3dffec1b	0.124962054
145	0x3e2f3409	0.17109694
146	0x3f296999	0.66176754
147	0xbe874e4d	-0.26426926
148	0xbea103a0	-0.31448078
149	0x3e98740d	0.2977604
150	0xbead45aa	-0.33842212
151	0x3e9edc52	0.31027466
152	0xbe6cc899	-0.23123397
153	0xbf06c66c	-0.5264652
154	0xbd9cb377	-0.07651418
155	0x3e9ab9ca	0.3021987
156	0xbbd78e5b	-0.0065782494
157	0x3d325446	0.0435374
158	0xbdc8c9d3	-0.0980412
159	0x3e0b9e22	0.13634542
160	0x3f1545b0	0.5830946
161	0x3e9451eb	0.28968748
162	0x3e1e42b4	0.15455133
163	0x3dc2a1f9	0.0950355
164	0xbe8823a0	-0.2658968
165	0x3f3378c3	0.7010614
166	0x3e1d4084	0.15356642
167	0x3eb1936f	0.34682795
168	0xbdb1e786	-0.08686738
169	0xbe23bb9e	-0.15989539
170	0x3eae4eec	0.34044588
171	0x3ebb3fb2	0.36572033
172	0x3ab1df60	0.0013570599
173	0xbda7e5b1	-0.08198107
174	0x3e3e7054	0.18597537
175	0x3e85aff7	0.26110813
176	0x3da0a1f8	0.07843393
177	0xbd9d6587	-0.076853804
178	0x3d599161	0.05311716
179	0x3de8f0d0	0.11374056
180	0xbf2d4dab	-0.67696637
181	0xbf88dcf6	-1.0692432
182	0xbdaa8825	-0.08326749
183	0x3f4bbea1	0.7958775
184	0xbfc0cfe6	-1.5063446
185	0xbfbe655a	-1.487468
186	0x3f99c16c	1.2012153
187	0xbdf3c5b9	-0.11902947
188	0x3efa679e	0.4890718
189	0x3f39f06a	0.7263247
190	0xbf6eaf30	-0.93236065
191	0xbf89400c	-1.072267
192	0xc00822d4	-2.1271257
193	0x3ed2ae44	0.4114858
194	0xbf1a8943	-0.60365695
195	0xbfc4fb5b	-1.5389208
196	0x3db1a01c	0.086731166
197	0xbf479103	-0.77955645
198	0x3f99ebd3	1.2025093
199	0xbfa7d05d	-1.3110462
200	0x3eb6e0c4	0.35718358
201	0xbeab8347	-0.33498594
202	0x3e767310	0.2406733
203	0xbfb5296b	-1.4153265
204	0xbf19a2c2	-0.60013974
205	0x3f72a409	0.9478155
206	0xbf26b839	-0.6512485
207	0x3f96ca54	1.1780496
208	0x3d99a7e7	0.07502728
209	0x3e527216	0.20551333
210	0x3f95ae46	1.1693809
211	0x3dbf9514	0.09354606
212	0xbe098fb7	-0.13433729
213	0xbe2cb2d3	-0.16865091
214	0x3e330595	0.17482598
215	0x3e137686	0.14400682
216	0xbe73f875	-0.23825248
217	0x3ed5d859	0.41766623
218	0xbfd74a21	-1.6819497
219	0xbe11aaff	-0.14225386
220	0xbf9a8cbf	-1.2074202
221	0x3f323913	0.6961834
222	0xbf70349e	-0.9383029
223	0xbeaebfbf	-0.34130666
224	0xbfd1e9f9	-1.6399528
225	0x3ead7092	0.33874947
226	0x3cf761c2	0.030197982
227	0xbe9fd8f0	-0.31220198
228	0xbf771e0d	-0.9653023
229	0x3f3cb3e2	0.7371198
230	0xbeae0da4	-0.33994782
231	0xbf8b0fde	-1.0864217
232	0x3cb2664b	0.021777293
233	0x3f3bb2f8	0.7331996
234	0x3f424bbf	0.7589683
235	0xbfb2978e	-1.3952501
236	0xbf62244b	-0.8833663
237	0xbf5d3278	-0.86405134
238	0xbf30574b	-0.688832
239	0xbf682b24	-0.9069083
240	0xbdfd5218	-0.12369174
241	0xbfb4a511	-1.4112874
242	0xbf2bc552	-0.6709796
243	0xbf9c911d	-1.2231785
244	0xbf8cec7e	-1.1009672
245	0xbe2b4b73	-0.16728
246	0xbf2fd37f	-0.6868209
247	0xbe7c312b	-0.24628131
248	0x3f84b2a6	1.0367019
249	0xbffcf582	-1.9762423
250	0x3fbce7e2	1.4758265
251	0x3f918ac8	1.1370478
252	0x3f9b3995	1.2126948
253	0x3f4ddf19	0.80418545
254	0xbe567e61	-0.20946647
255	0x3e8a8e0a	0.27061492

net.0.bias f4 [128]
0	0xbe845a32	-0.25850064
1	0xbdad55af	-0.084636085
2	0xbe85fd5a	-0.26169854
3	0x3fa16356	1.260844
4	0xbf4ac170	-0.7920141
5	0x3e9b5e05	0.3034517
6	0x3df2834e	0.11841451
7	0xbefc2a3e	-0.49250978
8	0xbe0b0c03	-0.13578801
9	0x3dfa4166	0.12219505
10	0xbe1abbe8	-0.15110743
11	0x3ea67ca7	0.32516977
12	0x3e3d1f3c	0.18468946
13	0xbeb2f6d1	-0.3495393
14	0x3f24aaee	0.6432332
15	0xbe096339	-0.13416757
16	0x3f0adac8	0.54240084
17	0xbdcfcd99	-0.101466365
18	0x3f1df58d	0.61702806
19	0x3d6486bc	0.055792555
20	0x3f2048dd	0.6261118
21	0xbede692b	-0.43439612
22	0xbefa2e3c	-0.488634
23	0x3f068a78	0.52555037
24	0x3ab57475	0.0013843911
25	0xbea43fec	-0.3208002
26	0x3f17b3e7	0.59258884
27	0x3eab544d	0.33462754
28	0x3e0a024d	0.1347744
29	0x3f73f0a3	0.9528906
30	0x3f3e3c86	0.743111
31	0xbf253043	-0.64526767
32	0x3de7ee78	0.11324781
33	0x3f6a52c2	0.9153253
34	0x3f99f6ab	1.2028402
35	0x3ccc6394	0.024949826
36	0x3f0aeeda	0.5427071
37	0xbf32c92c	-0.69838214
38	0xbeea9d54	-0.45823157
39	0xbe6bc3af	-0.23023866
40	0xbda29721	-0.07938982
41	0x3f4ff56f	0.81233877
42	0x3f0f3a94	0.5594876
43	0x3f173a63	0.59073466
44	0xbee2b579	-0.44279078
45	0x3ef8aaca	0.48567802
46	0x3f1bdee3	0.60886973
47	0xbeb028dd	-0.34406176
48	0x3ecab68c	0.39592397
49	0xbe3cd6b6	-0.1844128
50	0x3de156a0	0.110028505
51	0x3f0ebcfb	0.5575711
52	0x3fa05c01	1.2528077
53	0x3f090ca3	0.5353491
54	0x3e884899	0.26617888
55	0x3fb2a48c	1.3956466
56	0x3d30589f	0.043053266
57	0x3ed3dffa	0.41381818
58	0xbea057f3	-0.313171
59	0xbe8851d5	-0.26624933
60	0x3f263063	0.6491758
61	0x3e866cc3	0.26254854
62	0x3f30613b	0.6889836
63	0xbe0d0d3f	-0.13774584
64	0xbdc7ccfa	-0.09755893
65	0xbebbfb30	-0.36715078
66	0x3e43c457	0.19117866
67	0x3e19a48c	0.15004176
68	0x3f6b324f	0.9187364
69	0xbeb4ec1b	-0.35336384
70	0xbea4a8e7	-0.32160112
71	0xbe355f67	-0.17712174
72	0xbeb69105	-0.35657516
73	0xbeb245d7	-0.3481891
74	0x3eb37a9c	0.3505448
75	0x3f830bc1	1.0237962
76	0x3ee43de5	0.44578472
77	0x3d9d7caf	0.07689797
78	0x3ebd28f8	0.3694532
79	0x3f566e54	0.837621
80	0xbe8bf914	-0.2733847
81	0xbed813af	-0.42202517
82	0x3f13c74b	0.5772597
83	0x3ec88de6	0.3917076
84	0xbecc9854	-0.39959967
85	0xbe651b40	-0.22373676
86	0x3e3ba0c4	0.18323046
87	0x3e22eef9	0.15911473
88	0x3fa62c07	1.2982186
89	0x3d547e41	0.051878218
90	0xbdfaf54c	-0.12253818
91	0xbe52b334	-0.20576173
92	0x3ecb83a8	0.39748883
93	0x3f47b369	0.78008133
94	0x3dc8521d	0.09781287
95	0xbd43084b	-0.04761533
96	0xbe3e108e	-0.18561003
97	0xbe40cb4f	-0.18827556
98	0x3e835aac	0.25655115
99	0x3f226329	0.63432556
100	0xbe8cf856	-0.27533215
101	0x3f934a5a	1.1507065
102	0x3f89926d	1.0747811
103	0x3e1b929e	0.15192649
104	0xbe46a8f5	-0.1940039
105	0x3e05de6c	0.13073128
106	0x3f3f5572	0.74739754
107	0xbeeb6e63	-0.45982656
108	0x3e11ce51	0.1423886
109	0xbd725532	-0.05916328
110	0x3e83bde8	0.25730824
111	0x3f937459	1.1519881
112	0x3bd7ccc7	0.0065856907
113	0x3f916429	1.1358691
114	0x3f2402a5	0.64066535
115	0xbead0623	-0.33793744
116	0xbf3ef916	-0.74598825
117	0x3f773a97	0.96573776
118	0xbe4c7587	-0.19966708
119	0x3f32b751	0.6981097
120	0x3f86c954	1.053019
121	0xbe80b529	-0.25138214
122	0x3d239807	0.039939906
123	0x3e56caee	0.20975849
124	0x3e81bb7d	0.25338355
125	0xbe5a72e6	-0.21332893
126	0xbf29f7a4	-0.66393495
127	0x3e47c2f7	0.19507967

net.2.weight f4 [128, 128]
0	0xbf91f6ad	-1.1403404
1	0xc013f8ff	-2.3120725
2	0xbfc95f2c	-1.5732169
3	0x3ee324d2	0.4436403
4	0xbf62cb69	-0.8859163
5	0x3fafe1a4	1.3740735
6	0xbf344a08	-0.7042546
7	0xbe2db5a8	-0.16963828
8	0xc0232fb1	-2.5497859
9	0xbfd061c4	-1.6279836
10	0xbf846d07	-1.0345773
11	0x3e663488	0.22480977
12	0x3f0380ab	0.51368207
13	0x3e8e4800	0.27789307
14	0xbed91932	-0.42402035
15	0xbc278e56	-0.010226807
16	0x3eecab07	0.46224234
17	0xc0135177	-2.3018472
18	0x3ff252a9	1.8931476
19	0xbfec7be4	-1.8475308
20	0x3ffa0789	1.953355
21	0xc01025f4	-2.2523165
22	0x3f77023f	0.964878
23	0x3f9c5fbe	1.2216718
24	0x3f527ef6	0.82224977
25	0xc0019c0d	-2.0251496
26	0x3e5b3921	0.21408512
27	0xbf3ec9f2	-0.74526894
28	0x3de42268	0.11139375
29	0x3e1fc343	0.1560183
30	0xbe035769	-0.12826313
31	0xbf98633e	-1.1905286
32	0x3f56f40c	0.83966136
33	0x3e7bea86	0.24601182
34	0xbd75f189	-0.0600448
35	0xbef3036b	-0.47463545
36	0xbe99e3f0	-0.30056715
37	0xbfd57c37	-1.6678532
38	0xbf9faae3	-1.2474025
39	0x401b2e62	2.424706
40	0x3dd8dc70	0.1058892
41	0x3f34aa59	0.7057243
42	0x3cd0ed1a	0.025503684
43	0xbf98ea1c	-1.1946445
44	0xc03f0333	-2.9845703
45	0x3fa518ee	1.2898233
46	0xbec614b5	-0.38687673
47	0xc0484dc7	-3.1297472
48	0x3f920c31	1.140997
49	0xc01a90b6	-2.4150825
50	0x3d523ed9	0.051329467
51	0x3f928079	1.1445457
52	0xbf0df7ca	-0.5545622
53	0x3e22cb1c	0.15897793
54	0xbfa199bc	-1.2625041
55	0x3f11fccc	0.5702636
56	0x3f9b1b97	1.2117795
57	0x3f3a512a	0.72780097
58	0xbfbbceab	-1.4672445
59	0x40034e76	2.0516639
60	0x3eeec05b	0.4663113
61	0xbf15ec6e	-0.5856389
62	0x3fd552ae	1.6665857
63	0x3f9ef5bd	1.2418743
64	0xc04c5b7e	-3.1930842
65	0x4040702c	3.0068464
66	0x3e9b58b4	0.30341113
67	0xbf2bd6c4	-0.6712458
68	0xbe86f34e	-0.26357502
69	0xc0572c06	-3.362062
70	0xc03af0d2	-2.9209485
71	0x3f887422	1.0660441
72	0x3fd06a43	1.6282429
73	0xbecc2a42	-0.3987599
74	0x3e5d22ab	0.21595256
75	0xbd53cdbb	-0.05170987
76	0x3f3f9c43	0.7484781
77	0x3fab7857	1.33961
78	0x3e974c8e	0.29550594
79	0xbf22580a	-0.63415587
80	0xbd8dba6f	-0.06920325
81	0xc010c16d	-2.2618058
82	0x3f3fa2a5	0.7485755
83	0x4010f6bb	2.2650592
84	0x3e850bae	0.25985473
85	0x3fba050b	1.4532789
86	0xc01119c6	-2.267198
87	0xbd84e818	-0.06489581
88	0x3f25ea71	0.64810854
89	0x3ebe9b0f	0.37227675
90	0x3ff690c2	1.9262927
91	0x3d3b5314	0.045733526
92	0xbda0baf2	-0.07848157
93	0xbe665168	-0.22491992
94	0x3f04fd09	0.519486
95	0x3fdd93ac	1.7310691
96	0xbe194afe	-0.14970013
97	0x3d3c6a5f	0.04599988
98	0x402572a6	2.5851226
99	0xc017f254	-2.3741655
100	0x3f377787	0.7166676
101	0x3e88e729	0.2673886
102	0xbf0102fd	-0.50395185
103	0xbefb2d69	-0.49058083
104	0xbf8662f9	-1.0498954
105	0x3fb78727	1.433812
106	0x3f8b7d90	1.0897694
107	0xbf748b0d	-0.95524675
108	0xc0450552	-3.0784497
109	0xbfb7c2f2	-1.4356368
110	0x3eb2d7b7	0.34930202
111	0x3f0241db	0.5088174
112	0x3f25a1d2	0.64700043
113	0x3e930460	0.28714275
114	0xbe3e6c3a	-0.18595973
115	0xbf8557e1	-1.0417444
116	0xbfbb235d	-1.4620167
117	0x3f140332	0.57817376
118	0xc03d3030	-2.9560661
119	0xbf13bb97	-0.57708114
120	0x3e647e43	0.2231379
121	0xc04a3f04	-3.1600962
122	0xbfdc0f9f	-1.7192267
123	0xbfb2e1e7	-1.397519
124	0xbf86d819	-1.0534698
125	0xc0160bc1	-2.3444674
126	0xbff5f53b	-1.9215463
127	0xbfcc8c51	-1.5980321
128	0xbe8fa58c	-0.2805599
129	0xbe6d1a7b	-0.23154633
130	0xc003a599	-2.0569823
131	0xbe28fba2	-0.1650224
132	0xbe54e789	-0.20791449
133	0xbdbb22d9	-0.09137506
134	0xc09901a1	-4.781449
135	0x3d862101	0.06549264
136	0x3fcad4b3	1.5846161
137	0xbfa52161	-1.2900811
138	0xc00c1836	-2.1889777
139	0xbef31c47	-0.4748251
140	0xbff06017	-1.8779324
141	0xbf9664d7	-1.1749524
142	0xbf5bc211	-0.85842997
143	0xbec8b8dc	-0.39203537
144	0x3e96fc27	0.29489252
145	0x3ec13c2b	0.37741217
146	0x3f9e18be	1.2351301
147	0xbf49d82c	-0.7884548
148	0xbf0e9bbd	-0.5570639
149	0xbcded7bc	-0.02720248
150	0xbef5bab8	-0.47994018
151	0x3f5bf9fe	0.8592833
152	0x400a9259	2.1651824
153	0x3f60c9c4	0.8780787
154	0xbead3948	-0.33832765
155	0xbf84bf06	-1.0370796
156	0x3f1426f4	0.5787194
157	0xbf065b0a	-0.52482665
158	0x3e44aaaf	0.19205736
159	0xbe26c665	-0.16286619
160	0xbe91b100	-0.28455353
161	0x3ef61175	0.48060194
162	0x3e3988f9	0.18118657
163	0xbe64abb7	-0.22331129
164	0x3f61fe1a	0.88278353
165	0xbfd70c4e	-1.680063
166	0xc0367f15	-2.8515065
167	0xbf900726	-1.1252182
168	0xbf1dded1	-0.61668116
169	0x3f4957cb	0.78649586
170	0xbf846a2d	-1.0344902
171	0xc00f873b	-2.2426288
172	0xbead8f82	-0.3389855
173	0x3f7df64c	0.99203944
174	0xbffd80a7	-1.9804887
175	0xbe25ff6b	-0.16210715
176	0xbfa9e8d4	-1.3274179
177	0xbff02402	-1.8760989
178	0x3edaa6c8	0.4270537
179	0x3fc954fb	1.5729059
180	0xbc94c4a4	-0.018160172
181	0xbe212eeb	-0.15740554
182	0x3f045f30	0.51707745
183	0x3e8323f8	0.2561338
184	0xbf5557c4	-0.83337045
185	0x3ff9b8e4	1.9509549
186	0xc05c399b	-3.441016
187	0x3f3e52e3	0.74345225
188	0x3fb85fa5	1.4404188
189	0x3f587763	0.8455717
190	0x3ff3873e	1.9025648
191	0x3fa08fd0	1.2543888
192	0xbfc6e928	-1.5539904
193	0x3f6e7a56	0.9315542
194	0xbf04eb62	-0.51921666
195	0xbf6dace8	-0.9284196
196	0xbea1ffc3	-0.31640443
197	0xc05a312b	-3.409251
198	0xc06acefa	-3.6688828
199	0x3fe5dd2d	1.7958122
200	0x402dfa3a	2.7183976
201	0x3df18e3d	0.11794708
202	0x3f679c0c	0.90472484
203	0xbdaf9346	-0.08573012
204	0x3f4b7698	0.79477835
205	0x3f846ad7	1.0345105
206	0xbea0fd37	-0.31443188
207	0xbd396202	-0.045259483
208	0xbd40c266	-0.047060393
209	0xbf10cc3e	-0.5656165
210	0x3df289d9	0.118426986
211	0x3ea1a705	0.31572738
212	0xc0206cb4	-2.5066347
213	0x3fd9a7cb	1.7004331
214	0x3d8330af	0.0640577
215	0x3f214844	0.63000894
216	0xbe94be82	-0.29051596
217	0x3f32e02e	0.6987332
218	0xbe1005ca	-0.14064708
219	0x3cee9311	0.029122861
220	0x3f810961	1.0080987
221	0x3f1ae4e7	0.6050553
222	0x3f0d837b	0.5527875
223	0x3fca8afb	1.5823663
224	0x3d7a0c22	0.061046727
225	0xbb781234	-0.0037852647
226	0x3fbb0ef9	1.4613944
227	0xc005e317	-2.0919855
228	0xbec008cd	-0.37506714
229	0xbf38fa7d	-0.72257215
230	0x3f069e00	0.5258484
231	0x3e9d8782	0.30767447
232	0xbf03657e	-0.5132674
233	0x3ee9b2cb	0.4564422
234	0xbf6dbe16	-0.92868173
235	0xc0007177	-2.0069253
236	0xbe597c2f	-0.21238779
237	0x3eaaed16	0.33384007
238	0xbe8610b8	-0.2618463
239	0x3e95e0c0	0.29273033
240	0x3e32233a	0.1739625
241	0xbeb082b4	-0.3447472
242	0x3f0223f8	0.50836134
243	0xc03b95f8	-2.9310284
244	0xbfee8174	-1.8633256
245	0x3e9bd26e	0.30433983
246	0xbfbf0c4b	-1.4925627
247	0x3f62fcf3	0.8866722
248	0x3e89a762	0.26885515
249	0xbf24abc9	-0.64324623
250	0xc002070e	-2.0316806
251	0xc029cf47	-2.6532762
252	0x3f099c1d	0.53753835
253	0xbfc90d35	-1.5707155
254	0xc06b83cd	-3.6799195
255	0xbf988eb5	-1.1918551

net.2.bias f4 [128]
0	0x3f834704	1.0256047
1	0x3f1d7b3a	0.61516154
2	0x400a952f	2.1653554
3	0x3f52c87d	0.8233717
4	0xbd97ab0a	-0.0740567
5	0x3f280ec4	0.6564753
6	0x4007a730	2.1195793
7	0x3f90572d	1.1276604
8	0x4013923b	2.3058002
9	0x3f48233a	0.7817875
10	0xbe111113	-0.1416667
11	0xbd812d90	-0.063075185
12	0x3feb63e7	1.8389863
13	0x3ebb0623	0.3652812
14	0x3f832a49	1.024728
15	0x3f99e646	1.2023399
16	0xbf4377e1	-0.76354796
17	0xbda6909a	-0.08133049
18	0xbdef4eb2	-0.11684932
19	0xbdb83eaa	-0.08996327
20	0x3fad9f5b	1.3564256
21	0x3fab55f9	1.3385612
22	0x3d87af45	0.06625227
23	0x3dba8687	0.0910769
24	0xbdea9c22	-0.11455561
25	0xbe5b6791	-0.21426226
26	0x3edf935b	0.4366711
27	0xbd073bc3	-0.033015978
28	0x3fa7b981	1.3103486
29	0xbca4e1f9	-0.020127283
30	0x3f3bef37	0.7341189
31	0xbd717e49	-0.058958326
32	0xbdd632bc	-0.104588956
33	0xbd7a2993	-0.061074805
34	0xbc80b689	-0.01571204
35	0xbe01bb13	-0.1266902
36	0x3f283cfd	0.6571806
37	0xbde5089d	-0.111832835
38	0x3ec90165	0.39258876
39	0x3df66bea	0.12032302
40	0xbda03fad	-0.07824645
41	0xbd0192de	-0.031634204
42	0x3f282cb5	0.6569322
43	0x3f406a04	0.75161767
44	0x3ff4cf07	1.912568
45	0xbdb22aeb	-0.08699592
46	0xbd9d147f	-0.07669925
47	0x3f90a81e	1.1301305
48	0x3f69310e	0.91090477
49	0xbdaa27a8	-0.08308345
50	0xbd37c68a	-0.044867076
51	0xbd64f446	-0.05589702
52	0xbc6fb801	-0.014631272
53	0x3f85ab23	1.0442852
54	0xbe276ddb	-0.163505
55	0x3f131bed	0.57464486
56	0x400731b7	2.1124094
57	0x3f689cc5	0.9086421
58	0x3f31b383	0.6941454
59	0x3ea17855	0.3153712
60	0x3c8ae492	0.016954694
61	0x3f18bdc5	0.59664565
62	0xbe1a5cd1	-0.15074469
63	0xbe0f5f5b	-0.14001219
64	0x3f88ef51	1.0698034
65	0x3fb7f009	1.4370128
66	0x3e6b7131	0.22992398
67	0x3f74ebf6	0.9567255
68	0xbe058ba1	-0.13041545
69	0xbd15ed2d	-0.03660314
70	0x3f31f0c0	0.6950798
71	0xbd4fe025	-0.05075087
72	0xbdbbcf77	-0.0917043
73	0xbe028436	-0.12745747
74	0x3edfae29	0.4368756
75	0x3f284ab5	0.65738994
76	0x3f650e46	0.89474905
77	0xbc30f53b	-0.010800655
78	0x3f8f43d1	1.1192571
79	0x3f5a3395	0.8523496
80	0xbdc36e12	-0.095424786
81	0x3f915a1d	1.1355625
82	0xbdc70341	-0.097174175
83	0xbdb6be39	-0.08923001
84	0x4006f36e	2.1086078
85	0x3eaaaf1a	0.33336717
86	0x3f2ca331	0.6743651
87	0x3f8f7347	1.1207055
88	0xbdea6b06	-0.11446194
89	0x3f959dc0	1.1688766
90	0x3f7e2a3d	0.992832
91	0x3f80bba6	1.0057266
92	0x3c5bf65f	0.013425439
93	0x3d0104f3	0.03149886
94	0x3d1ad862	0.037804015
95	0xbe2a4089	-0.1662618
96	0x3fc2dde3	1.5223964
97	0x3f85664b	1.0421842
98	0x3f5e97e4	0.86950517
99	0x3f73efa6	0.9528755
100	0xbda961c4	-0.082706004
101	0xbc710c64	-0.014712427
102	0x3f9bda33	1.2175964
103	0x3f5b5c30	0.8568754
104	0x3fa36b65	1.2767149
105	0x3fd0af5d	1.6303517
106	0xbe1eea19	-0.15518989
107	0x3f877f1c	1.0585666
108	0x3fa8eaf5	1.3196703
109	0x3f14f5ea	0.58187735
110	0x3f803d59	1.0018722
111	0x3f82be6c	1.0214362
112	0xbe03d9e1	-0.12876083
113	0xbe09a460	-0.1344161
114	0xbdee7389	-0.1164313
115	0x3f75aca8	0.9596658
116	0x40066b4d	2.1002991
117	0x3f7e75ef	0.993987
118	0x3fb06df2	1.3783553
119	0xbd5c8506	-0.0538378
120	0xbdf0c7ea	-0.117568806
121	0xbd28a6cf	-0.041174706
122	0xbdbc9e90	-0.09209931
123	0x3febc432	1.8419249
124	0x3f3e8fed	0.74438363
125	0x3de0d72d	0.109785415
126	0xbdb4050e	-0.087900266
127	0x3f0e313f	0.55543894

net.4.weight f4 [13, 128]
0	0x400685cf	2.101917
1	0x3fd1be29	1.6386157
2	0x3f9ff269	1.2495853
3	0x400f9fea	2.2441354
4	0x3dd601da	0.10449572
5	0x3fdd39df	1.7283286
6	0x3f0e8e27	0.5568566
7	0x3fa88601	1.3165895
8	0x3f749efb	0.95555085
9	0x400c4c82	2.1921697
10	0x3cba06da	0.022708345
11	0x3c910b58	0.017705604
12	0x3ec82cb5	0.3909661
13	0x4008e6d5	2.1390889
14	0x3fc878a8	1.5661821
15	0x3fca4c1e	1.5804479
16	0xbf323b12	-0.69621384
17	0x3d82f43b	0.063942395
18	0xbd418d35	-0.047253806
19	0x3d9c152f	0.07621228
20	0x4000861f	2.008186
21	0x3f92f78f	1.1481799
22	0x3e6c701c	0.23089641
23	0xbfcfc0d6	-1.6230724
24	0x3caee355	0.021348635
25	0x3f306e10	0.6891794
26	0x401af73d	2.4213402
27	0x3ccfdd14	0.025373973
28	0x3ff395a8	1.9030046
29	0x3ce32bd9	0.02773087
30	0x40145f21	2.3183062
31	0x3ca2151f	0.019785462
32	0x3cbfb207	0.02340032
33	0xbdb14deb	-0.0865744
34	0x3a0e2880	0.0005422905
35	0x3d54bb89	0.05193666
36	0x3fd745c6	1.6818168
37	0x3fc821db	1.5635332
38	0x3fca5df7	1.5809926
39	0x3f694630	0.9112272
40	0x3d87b904	0.06627086
41	0x3e8ea7c9	0.27862385
42	0x3fef27f3	1.8684067
43	0x40521100	3.2822876
44	0x3f0ae691	0.54258066
45	0xbd014b31	-0.03156585
46	0xbd92b73d	-0.07163856
47	0x3fd3eda0	1.6556892
48	0x3ff1ac07	1.8880624
49	0x3d89fc75	0.067376055
50	0xbcf0142c	-0.029306494
51	0xbda8c962	-0.08241536
52	0x3db1990d	0.0867177
53	0x3fd00269	1.6250736
54	0x3d8b528e	0.068028554
55	0x4018fa47	2.3902757
56	0x3f3ac13f	0.7295112
57	0x4021435f	2.519737
58	0x3fe65224	1.7993817
59	0x4016d586	2.3567824
60	0xbda90d04	-0.08254436
61	0x4021f9c2	2.530869
62	0x3ca59e18	0.020216987
63	0x3d4bf58a	0.04979471
64	0x3faa5899	1.3308288
65	0x3f6354b5	0.8880113
66	0x3fbccfc1	1.4750901
67	0x3fac4a07	1.3460091
68	0xbc95b7db	-0.018276146
69	0x3d07ecce	0.03318482
70	0x401992bb	2.3995807
71	0x3d715d04	0.058926597
72	0xbd0d82b0	-0.03454846
73	0x3d06a187	0.03286889
74	0x3fa9038d	1.3204209
75	0x4017eccc	2.373828
76	0x400d3c1a	2.2067933
77	0x3cac956d	0.021067346
78	0x3f93414a	1.15043
79	0x4011f25e	2.280418
80	0xbd9746f5	-0.07386581
81	0x3fc5b5a5	1.5446059
82	0xbbef77bf	-0.007307976
83	0xbd4f80d2	-0.050659962
84	0x3f13df06	0.5776218
85	0x3f958194	1.1680169
86	0x402c398e	2.6910129
87	0x3f9e7f07	1.2382516
88	0x3c9514b3	0.018198347
89	0x40253bbc	2.581771
90	0x3fa240b1	1.2675992
91	0x402073fe	2.5070796
92	0xbd2c7876	-0.042107068
93	0x3d403c95	0.046932776
94	0x3d0a2646	0.033727907
95	0x3d9dabdc	0.07698795
96	0x3f4b5f76	0.79442537
97	0x3facd90c	1.3503737
98	0x3ffcca36	1.974921
99	0x400ae38e	2.1701388
100	0x3d52bb72	0.051448293
101	0x3d6bdaa5	0.057581563
102	0x3f95b52f	1.1695918
103	0x400fba61	2.2457507
104	0x3f7d48e8	0.9893937
105	0x3efef5be	0.4979686
106	0x3d967f9a	0.07348557
107	0x3fb668ea	1.4250767
108	0x3f9ffc86	1.2498939
109	0x3fe349a2	1.7756846
110	0x3fd4c416	1.6622341
111	0x401f624e	2.490375
112	0x3bc5f098	0.006040644
113	0x3f951258	1.1646223
114	0x3d4c74ea	0.049916185
115	0x4016d32f	2.3566396
116	0x3f2837ef	0.6571035
117	0x4002958b	2.0403774
118	0x3fbceef2	1.476042
119	0xbdad40e4	-0.084596425
120	0xbd013869	-0.031547938
121	0xbdbc3e71	-0.09191597
122	0x3d8358f6	0.06413452
123	0x3f15f2bf	0.58573526
124	0x3ff5a353	1.9190468
125	0x3f6cec76	0.9254831
126	0x3da92233	0.08258476
127	0x3fda4fee	1.7055643
128	0x400435d3	2.0657852
129	0x3fb389d1	1.4026433
130	0x3fa28b11	1.269869
131	0x4010239e	2.252174
132	0x3bece0b7	0.0072289365
133	0x3fe4a8a2	1.7863963
134	0x3ef8c456	0.48587292
135	0x3f9f3ee4	1.2441068
136	0x3f76b4bd	0.96369535
137	0x3fdb0914	1.7112145
138	0xbd600985	-0.05469658
139	0x3d81df3b	0.06341406
140	0x3ec44f7a	0.38341886
141	0x404b7a18	3.179327
142	0x3febc741	1.8420182
143	0x3fd1b7ff	1.6384276
144	0xbf3016c7	-0.68784755
145	0x3d9d0b4e	0.07668172
146	0xbd648081	-0.055786613
147	0x3cff53e5	0.031167934
148	0x3ffc4c26	1.9710739
149	0x3fa10d8f	1.2582263
150	0x3effecbd	0.49985304
151	0xbf98539c	-1.1900516
152	0xbcd6c2e3	-0.026215976
153	0x3f946527	1.1593369
154	0x40177380	2.3664246
155	0x3d950ca9	0.07277805
156	0x3fc12371	1.5088941
157	0x3d567840	0.052360773
158	0x400ee0c5	2.2324688
159	0xba8a53f4	-0.0010553584
160	0x3d72751e	0.059193723
161	0x3d16d3d2	0.0368231
162	0xbd95a1cd	-0.07306252
163	0xbc6f88fd	-0.014620063
164	0x3fcd866e	1.605665
165	0x3fd027cd	1.6262146
166	0x400f4625	2.2386563
167	0x3e7d2edd	0.24724908
168	0x3b466198	0.0030270573
169	0xbd7ae43b	-0.061252814
170	0x3fcf04c0	1.6173325
171	0x404f732a	3.241404
172	0x3f1878cc	0.5955932
173	0xbd560b10	-0.052256644
174	0xbd390d2f	-0.04517859
175	0x3fba9981	1.4578096
176	0x3fcd3951	1.6033117
177	0xbc5efe34	-0.013610411
178	0x3d896787	0.067091994
179	0x3d14bc52	0.03631241
180	0x3cfe0ecb	0.031012913
181	0x3ff32ea7	1.8998612
182	0x3d927425	0.07151059
183	0x40166dc7	2.3504503
184	0x3f221ea1	0.63327986
185	0x4029f0e7	2.6553285
186	0x40227b33	2.5387695
187	0x405ed54e	3.481769
188	0xbd889299	-0.06668586
189	0x401eb155	2.4795735
190	0x3d1a987d	0.03774308
191	0xbd86a88e	-0.06575118
192	0x3fb95720	1.4479713
193	0x3f48ecef	0.7848653
194	0x3f5b62e2	0.8569776
195	0x3f8a4999	1.080371
196	0xbdad3110	-0.084566236
197	0x3da14b99	0.07875747
198	0x4034b5e2	2.8236012
199	0x3cda5528	0.026651934
200	0x3d132963	0.03592814
201	0x3cc14327	0.023591591
202	0x3fd55dd3	1.6669258
203	0x4028db81	2.6383975
204	0x3fbdc757	1.4826459
205	0xbd91ecdc	-0.071252555
206	0x3fa2ded6	1.2724254
207	0x3fecbbec	1.8494849
208	0x3ca07559	0.019587206
209	0x3fd034bd	1.6266094
210	0x3a931b77	0.0011223395
211	0xbc06c60b	-0.008225928
212	0x3f45d64c	0.77280116
213	0x3f8bd964	1.0925717
214	0x402ca359	2.69747
215	0x3fb11514	1.3834558
216	0x3cc6922a	0.024239618
217	0x3fe656ad	1.7995201
218	0x3fdda065	1.7314574
219	0x40004311	2.0040934
220	0xbd00edbc	-0.03147672
221	0x3db61867	0.08891373
222	0x3cc1cc78	0.023657069
223	0x3e147a15	0.14499696
224	0x3f336da1	0.70089155
225	0x3f635680	0.88803864
226	0x3fe7205c	1.805675
227	0x4012671e	2.2875438
228	0x3d3983cb	0.045291703
229	0xbd6eca78	-0.058298558
230	0x3f9b56de	1.2135885
231	0x4003764e	2.0540957
232	0x3f8bd2a1	1.0923654
233	0x3efdad5f	0.49546334
234	0x3d075d1a	0.033047773
235	0x3fa2be8d	1.2714401
236	0x3fa6f1ad	1.3042504
237	0x40110115	2.265691
238	0x3faa6d27	1.3314561
239	0x40108acf	2.2584722
240	0xbc3b734c	-0.011441063
241	0x3e232cd2	0.15935066
242	0x3c607d29	0.0137017155
243	0x402a54c6	2.6614242
244	0x3f195870	0.5990057
245	0x3fec1692	1.8444388
246	0x3ffa3b73	1.9549392
247	0xbc035378	-0.008015506
248	0x3d2ec92a	0.042672314
249	0xbc180a7d	-0.009279844
250	0x3d12448d	0.035709906
251	0x3efad208	0.48988366
252	0x3ffdb507	1.982087
253	0x3f254d79	0.6457134
254	0x3cbd1ff7	0.023086531
255	0x3feb185e	1.8366811

net.4.bias f4 [13]
0	0x3fbd748a	1.480119
1	0x3fcc79ad	1.5974633
2	0x3f3e27b0	0.7427931
3	0x3fbf5abc	1.4949565
4	0x3fabab45	1.3411642
5	0x3f8c6929	1.0969592
6	0x3fb3a6ac	1.4035239
7	0x3fc268a0	1.5188179
8	0x3f591ca6	0.8480934
9	0x3f8f8215	1.1211573
10	0x3f6ecac8	0.9327817
11	0x3f5bf7ea	0.8592516
12	0x3f5e2b40	0.86784744

net.0.weight f4 [128, 45]
0	0xbfdbedec	-1.7181983
1	0x3e92c4c6	0.2866575
2	0xc0126e3c	-2.2879782
3	0x3ea633f0	0.324615
4	0x3f0c7406	0.5486454
5	0x3fc83a14	1.5642724
6	0x3f3a441d	0.7276018
7	0x3f717c02	0.94329846
8	0x3d41dc1c	0.047329053
9	0x3db01d2c	0.08599314
10	0x3f556d75	0.83370143
11	0x3d98bf27	0.074583344
12	0x3fb593a1	1.4185678
13	0xbd94da9b	-0.07268258
14	0x3f4202d6	0.7578558
15	0x403067c9	2.7563345
16	0xbf8d848e	-1.1056077
17	0x3fc83d02	1.5643618
18	0xbf74621b	-0.954622
19	0xbe73cba1	-0.23808147
20	0x3df249ce	0.118304834
21	0xbf233d61	-0.6376553
22	0xbf843588	-1.0328836
23	0x3e2f1096	0.17096171
24	0x3ea715dc	0.32633865
25	0x3f9d6d3b	1.229896
26	0xbfce99f0	-1.6140728
27	0x3ebf9163	0.3741561
28	0xbfcbe700	-1.5929871
29	0xbee07818	-0.43841624
30	0x3f231fd9	0.6372047
31	0xbdfe65cf	-0.12421762
32	0x3ec3234c	0.38112867
33	0xbf5e2a8f	-0.8678369
34	0xbe8281e5	-0.25489727
35	0xbe71a4ff	-0.23598097
36	0xbd9a69b1	-0.0753969
37	0xbf165631	-0.5872527
38	0xbf916689	-1.1359416
39	0xbc0b9729	-0.008519926
40	0xbf09f273	-0.53885573
41	0x3e5d53c8	0.21613991
42	0xbf65c696	-0.89756143
43	0x3e1d1952	0.1534169
44	0x3eff46ad	0.4985861
45	0x3f136bb1	0.575862
46	0x3e8ee8aa	0.27911884
47	0xbef155e2	-0.47135836
48	0xbef7f076	-0.48425645
49	0xbf1a5490	-0.6028528
50	0xbeda1b42	-0.4259892
51	0xbe539ccc	-0.20665282
52	0x3f524481	0.8213578
53	0x3da53014	0.08065811
54	0x3f807b9d	1.0037724
55	0xbf9d72b7	-1.2300633
56	0x3eed54a9	0.46353653
57	0xbf93cee8	-1.1547518
58	0xbf82043c	-1.0157542
59	0x3edb9d89	0.42893627
60	0x3dab587f	0.08366489
61	0xbd1013d8	-0.035175174
62	0xc0031053	-2.0478714
63	0xbf0cc8e9	-0.54994065
64	0xbe811294	-0.25209486
65	0xbebfebc5	-0.37484565
66	0xbe346e58	-0.17620218
67	0xbf464823	-0.7745382
68	0xbe5c9284	-0.21540266
69	0x3c9c6d2a	0.019095022
70	0xbe194b64	-0.14970165
71	0x3f6a3d43	0.9149973
72	0x3fbd268b	1.4777387
73	0xbca9c60a	-0.020724315
74	0xbcf86857	-0.03032319
75	0x3f2ca26f	0.67435354
76	0xc01d0f9a	-2.4540772
77	0x3ea8dd6e	0.32981437
78	0xbfe991fb	-1.8247675
79	0xbd437f90	-0.047729075
80	0xbea9df7e	-0.33178324
81	0xbda54e06	-0.080715224
82	0xbe4b8f04	-0.19878775
83	0xbfcc39fc	-1.5955195
84	0xbee63435	-0.44961706
85	0xbfe0ba95	-1.755694
86	0x3f6736ac	0.903178
87	0xbf8f7cfa	-1.1210015
88	0xba58e26c	-0.00082734856
89	0xbf2b3b40	-0.66887283
90	0xbed5ab6d	-0.4173235
91	0xbf2a1839	-0.6644321
92	0x3cb0db88	0.021589056
93	0xbe3ceaf4	-0.18449003
94	0x3e85e997	0.26154777
95	0xbe080eb9	-0.13286866
96	0xbc201ba6	-0.009772217
97	0xbe52677f	-0.20547293
98	0xc00d6936	-2.2095466
99	0x3d3fb0fb	0.04679964
100	0xbfbedaf9	-1.4910575
101	0x3e821def	0.25413463
102	0x3ddd5b3c	0.10808417
103	0xbf4447e6	-0.7667221
104	0x3e49eb65	0.19718702
105	0xbfd66e9a	-1.6752503
106	0x3e65075e	0.22366092
107	0xbfa3fa21	-1.2810708
108	0x3ebb5615	0.36589113
109	0x3ecff152	0.406138
110	0x3f09d0a4	0.53833985
111	0xbf70d9d3	-0.94082373
112	0x3fa32b55	1.2747599
113	0x3f0a3406	0.5398563
114	0x3f991f7e	1.1962736
115	0xbf0ca4c4	-0.5493891
116	0xbf80c909	-1.0061351
117	0x3b3495ea	0.0027555176
118	0xbf9c6258	-1.2217512
119	0xbf8397ad	-1.0280663
120	0x3f28d0c8	0.65943575
121	0x3f42b0e8	0.7605119
122	0xbf63d8ca	-0.8900267
123	0x3faa68de	1.3313253
124	0xbea4c79c	-0.3218354
125	0x3e032beb	0.12809722
126	0x3ec47d54	0.38376868
127	0x3fb88cfd	1.4418026
128	0x3c0a9958	0.008459412
129	0x3efcc626	0.49369925
130	0xbf97fbad	-1.187368
131	0x3edcb89d	0.431096
132	0xbe431d81	-0.19054224
133	0x3f2336c7	0.6375546
134	0x3e8374ef	0.2567515
135	0x3f1bc598	0.6084838
136	0x3dcc9aa0	0.0999043
137	0xbd978b8b	-0.073996626
138	0x3e221a48	0.15830338
139	0x3eb79db0	0.35862494
140	0xbe9907f2	-0.29888874
141	0x3ee13054	0.43982184
142	0x3da7d1b4	0.081942946
143	0x3c874396	0.01651172
144	0x3dfb8648	0.122814715
145	0x3e32671f	0.1742215
146	0x3f28d2b5	0.65946513
147	0xbe86d1fd	-0.26332083
148	0xbe9dea6c	-0.30842912
149	0x3e97d679	0.29655817
150	0xbeac9868	-0.33710027
151	0x3e9f1902	0.31073767
152	0xbe6bb934	-0.23019868
153	0xbf05a7b9	-0.5220905
154	0xbd992135	-0.07477037
155	0x3e9a890d	0.30182686
156	0xbbf25a5d	-0.007396026
157	0x3d329c4d	0.04360609
158	0xbdc40b84	-0.09572509
159	0x3e0e5717	0.1390041
160	0x3f14dab5	0.5814622
161	0x3e948461	0.29007247
162	0x3e2381a1	0.15967418
163	0x3dc6593d	0.096849896
164	0xbe8ac624	-0.27104294
165	0x3f344d15	0.7043012
166	0x3e1ca46c	0.15297097
167	0x3eb42b68	0.35189366
168	0xbdb23037	-0.087006025
169	0xbe251496	-0.16121134
170	0x3eae910a	0.3409503
171	0x3ebc21e4	0.36744606
172	0x3b113321	0.002215572
173	0xbda28581	-0.0793562
174	0x3e3f0d27	0.18657361
175	0x3e8741f9	0.2641752
176	0x3d9de1ac	0.07709059
177	0xbd9c9036	-0.076446936
178	0x3d61ef79	0.05516002
179	0x3deaaef4	0.11459151
180	0xbf2e7e9d	-0.68161947
181	0xbf88958f	-1.0670642
182	0xbdb1437c	-0.0865545
183	0x3f4b26d7	0.7935614
184	0xbfc0cfe6	-1.5063446
185	0xbfbdc6ff	-1.4826354
186	0x3f990cf0	1.1957073
187	0xbde70fd6	-0.11282317
188	0x3efbc09a	0.4917038
189	0x3f3893da	0.72100604
190	0xbf6ecf1c	-0.93284774
191	0xbf892aff	-1.0716246
192	0xc00860b9	-2.1309035
193	0x3ed331e5	0.41249004
194	0xbf1c1dea	-0.60983145
195	0xbfc48c97	-1.5355405
196	0x3db23f6d	0.08703504
197	0xbf45f9ff	-0.7733459
198	0x3f9a5c2b	1.2059377
199	0xbfa7d83e	-1.3112867
200	0x3eb5a6f1	0.3547893
201	0xbeae6f96	-0.34069508
202	0x3e78f92d	0.24313803
203	0xbfb3eee1	-1.4057275
204	0xbf1d15fe	-0.6136168
205	0x3f735fd1	0.9506808
206	0xbf287e91	-0.65818125
207	0x3f976169	1.1826602
208	0x3d89218b	0.06695851
209	0x3e4d2ec4	0.20037371
210	0x3f95e4a8	1.1710405
211	0x3daf000b	0.0854493
212	0xbe093321	-0.1339841
213	0xbe2e5afd	-0.17026897
214	0x3e34a012	0.17639187
215	0x3e1710a6	0.14752445
216	0xbe7e4920	-0.24832582
217	0x3ed8871d	0.42290583
218	0xbfd666ff	-1.6750182
219	0xbe105a6b	-0.14096992
220	0xbf99a5db	-1.200374
221	0x3f3199f7	0.69375557
222	0xbf709f0d	-0.9399269
223	0xbeafed73	-0.34360847
224	0xbfd1e9f9	-1.6399528
225	0x3eab6d39	0.33481768
226	0x3cf15efb	0.029464236
227	0xbe9ee8c5	-0.31036964
228	0xbf77ec75	-0.9684518
229	0x3f3d2564	0.7388518
230	0xbeaca8c3	-0.33722505
231	0xbf8b8ae3	-1.090176
232	0x3c8b5511	0.017008336
233	0x3f3b14f3	0.7307884
234	0x3f41bbe6	0.75677335
235	0xbfb24dc7	-1.3929986
236	0xbf624112	-0.8838054
237	0xbf5d6e1c	-0.8649614
238	0xbf2f5c20	-0.68499947
239	0xbf6801f6	-0.9062799
240	0xbe004c87	-0.12529193
241	0xbfb5398f	-1.415819
242	0xbf2dd7aa	-0.679072
243	0xbf9cc9ee	-1.2249124
244	0xbf8ce4bd	-1.1007305
245	0xbe2d585c	-0.16928238
246	0xbf311e1e	-0.6918658
247	0xbe7f4dd6	-0.24932036
248	0x3f847ef1	1.035124
249	0xbffb13f8	-1.9615469
250	0x3fbcc623	1.4747967
251	0x3f9083e3	1.1290249
252	0x3f9bd8f9	1.217559
253	0x3f4e3ce5	0.8056167
254	0xbe52b88a	-0.20578209
255	0x3e89c752	0.26909882

net.0.bias f4 [128]
0	0xbe8598de	-0.2609319
1	0xbdada1f0	-0.08478153
2	0xbe866018	-0.2624519
3	0x3fa167ea	1.2609837
4	0xbf4bfab6	-0.7967943
5	0x3e9a2588	0.3010676
6	0x3df11047	0.11770683
7	0xbefe24fd	-0.49637595
8	0xbe14cec4	-0.14532
9	0x3df63d47	0.120234065
10	0xbe17875e	-0.14797732
11	0x3ea7cd34	0.32773745
12	0x3e35c8c4	0.17752367
13	0xbeb27879	-0.34857538
14	0x3f240703	0.640732
15	0xbe0082ac	-0.12549847
16	0x3f0b349b	0.54377145
17	0xbdc7051b	-0.09717771
18	0x3f1e7024	0.61889863
19	0x3d6d432a	0.05792538
20	0x3f203c13	0.62591666
21	0xbee050ef	-0.43811747
22	0xbef66b7d	-0.48128882
23	0x3f064a8a	0.5245749
24	0xbb1f8ccf	-0.0024345403
25	0xbea5ed8d	-0.324078
26	0x3f1579a9	0.58388764
27	0x3ead0924	0.33796036
28	0x3e0d993d	0.13827987
29	0x3f740f02	0.953354
30	0x3f3e1c93	0.7426235
31	0xbf25ab8e	-0.64714897
32	0x3dd7ae4c	0.10531291
33	0x3f6abff4	0.9169915
34	0x3f99ff80	1.2031097
35	0x3cfccdcc	0.03085985
36	0x3f0b3673	0.5437996
37	0xbf3119e3	-0.69180125
38	0xbeed216b	-0.46314558
39	0xbe67de91	-0.22643496
40	0xbda41ea6	-0.08013658
41	0x3f4fcc0f	0.81170744
42	0x3f0ded7e	0.5544051
43	0x3f16655a	0.587484
44	0xbee17d10	-0.44040728
45	0x3ef92abd	0.4866542
46	0x3f1ae1f2	0.60501015
47	0xbeb1ea4a	-0.3474906
48	0x3eca5a77	0.39522144
49	0xbe3eecbd	-0.18644996
50	0x3de1419f	0.10998844
51	0x3f0ef255	0.5583852
52	0x3fa07052	1.2534277
53	0x3f08d3a9	0.5344797
54	0x3e8a01bc	0.26954448
55	0x3fb2cd8e	1.396898
56	0x3d342f05	0.043990154
57	0x3ed2e904	0.41193402
58	0xbe9e5d69	-0.3093064
59	0xbe87d782	-0.26531607
60	0x3f269a29	0.6507898
61	0x3e87a7e6	0.26495284
62	0x3f306fc9	0.6892057
63	0xbe0c6e85	-0.13714035
64	0xbdbb33c9	-0.091407366
65	0xbeba9810	-0.3644414
66	0x3e475f0e	0.19469854
67	0x3e197ff6	0.1499022
68	0x3f6b2f96	0.91869485
69	0xbeb524df	-0.35379693
70	0xbea6e0ec	-0.32593477
71	0xbe3864bc	-0.18007177
72	0xbeb4f4c5	-0.35342994
73	0xbeb0a702	-0.34502417
74	0x3eb18bf2	0.34677082
75	0x3f83115d	1.0239674
76	0x3ee28d20	0.44248295
77	0x3da2457f	0.079234116
78	0x3ebb8621	0.3662577
79	0x3f56bd4f	0.8388261
80	0xbe8bf914	-0.2733847
81	0xbed979c9	-0.42475727
82	0x3f13b752	0.577016
83	0x3ec93c81	0.39303973
84	0xbecde5e5	-0.40214458
85	0xbe668b1c	-0.22514004
86	0x3e3a29b0	0.18179965
87	0x3e2e3aba	0.1701459
88	0x3fa61dfa	1.2977898
89	0x3d6b2d2e	0.057416134
90	0xbdfb4aee	-0.12270151
91	0xbe52b334	-0.20576173
92	0x3ecb9403	0.3976136
93	0x3f47f417	0.78106827
94	0x3dc82c6a	0.09774096
95	0xbd4563eb	-0.048190992
96	0xbe3e108e	-0.18561003
97	0xbe40cb4f	-0.18827556
98	0x3e82a06d	0.2551302
99	0x3f21beff	0.6318206
100	0xbe8c0180	-0.27344894
101	0x3f9376c9	1.1520625
102	0x3f89c733	1.0763916
103	0x3e1f5a22	0.15561727
104	0xbe480458	-0.19532907
105	0x3e0ad19d	0.13556524
106	0x3f3f2500	0.7466583
107	0xbee92b3e	-0.45540804
108	0x3e134a99	0.14383925
109	0xbd657877	-0.056023087
110	0x3e875c1d	0.26437464
111	0x3f93717f	1.1519011
112	0x3c81397b	0.01577448
113	0x3f916266	1.1358154
114	0x3f235644	0.63803506
115	0xbeaad164	-0.33362877
116	0xbf3f19f7	-0.74648994
117	0x3f77a6fc	0.9673917
118	0xbe49551b	-0.19661371
119	0x3f312e5b	0.6921136
120	0x3f86d497	1.0533627
121	0xbe8445d0	-0.25834513
122	0x3d28a5e0	0.041173816
123	0x3e542ac9	0.20719446
124	0x3e827289	0.25478008
125	0xbe59b2ec	-0.2125966
126	0xbf29c99c	-0.66323256
127	0x3e460088	0.1933614

net.2.weight f4 [128, 128]
0	0xbf90c351	-1.1309606
1	0xc01404b0	-2.312786
2	0xbfc92888	-1.5715494
3	0x3ee3e683	0.44511804
4	0xbf628847	-0.8848919
5	0x3fb14d4f	1.3851718
6	0xbf3413d0	-0.7034273
7	0xbe2f35a0	-0.171103
8	0xc021d124	-2.52839
9	0xbfd05866	-1.6276977
10	0xbf839efa	-1.0282891
11	0x3e63cd44	0.22246271
12	0x3f02d6fb	0.51109284
13	0x3e8fba5d	0.2807187
14	0xbed9ef3e	-0.4256534
15	0xbb04f79a	-0.0020289184
16	0x3ef0f9f8	0.4706571
17	0xc01363a3	-2.3029563
18	0x3ff210a8	1.8911333
19	0xbfec7c87	-1.8475503
20	0x3ffa3a39	1.9549018
21	0xc00f81c8	-2.2422962
22	0x3f7776ca	0.9666563
23	0x3f9c32c1	1.2202989
24	0x3f51d21f	0.81961244
25	0xc0017526	-2.0227752
26	0x3e6bb749	0.23019136
27	0xbf3ea8d2	-0.7447635
28	0x3de328d2	0.1109177
29	0x3e25f1c2	0.16205505
30	0xbe044db8	-0.12920272
31	0xbf980df2	-1.1879256
32	0x3f567cb8	0.83784056
33	0x3e7fd482	0.24983409
34	0xbd6ae961	-0.057351474
35	0xbeed6e16	-0.4637305
36	0xbe9a719a	-0.30164796
37	0xbfd55d6b	-1.6669134
38	0xbf9fb5c8	-1.247735
39	0x401b7176	2.4288
40	0x3dda4926	0.10658483
41	0x3f34b241	0.70584494
42	0x3cd072b9	0.025445329
43	0xbf991729	-1.1960193
44	0xc03edda5	-2.982278
45	0x3fa5499f	1.2913092
46	0xbec59e73	-0.3859745
47	0xc0481bad	-3.1266892
48	0x3f937081	1.1518708
49	0xc01a6fec	-2.4130812
50	0x3d5819fc	0.052759156
51	0x3f927799	1.1442748
52	0xbf0d56f1	-0.5521079
53	0x3e21eda5	0.1581331
54	0xbfa1d593	-1.2643303
55	0x3f12c620	0.57333565
56	0x3f9c33c1	1.2203294
57	0x3f39d671	0.72592837
58	0xbfbae7c6	-1.4601982
59	0x40031696	2.0482535
60	0x3eeea7f5	0.46612516
61	0xbf1669eb	-0.5875537
62	0x3fd5391b	1.6658052
63	0x3f9f1b30	1.2430172
64	0xc04ca841	-3.1977694
65	0x4040af6a	3.0107064
66	0x3e9c09e3	0.30476293
67	0xbf2b69e3	-0.66958445
68	0xbe850987	-0.2598383
69	0xc056ed46	-3.358232
70	0xc03b134e	-2.9230533
71	0x3f885c10	1.0653095
72	0x3fd1d23f	1.6392287
73	0xbecc2dfb	-0.3987883
74	0x3e621e4d	0.22081871
75	0xbd3a3c03	-0.045467388
76	0x3f43ccd7	0.76484436
77	0x3fabd39f	1.3423957
78	0x3e9965b0	0.29960394
79	0xbf20c398	-0.6279845
80	0xbd8dba6f	-0.06920325
81	0xc0109b6b	-2.259486
82	0x3f4074cd	0.75178224
83	0x4010dc5a	2.2634492
84	0x3e84a8e6	0.2591011
85	0x3fb9ed3a	1.4525521
86	0xc010b7eb	-2.2612255
87	0xbd87fdd4	-0.06640211
88	0x3f26405b	0.6494195
89	0x3ec5a234	0.38600314
90	0x3ff69556	1.9264324
91	0x3d3b5314	0.045733526
92	0xbd94a05f	-0.07257151
93	0xbe6713a0	-0.2256608
94	0x3f04fc4a	0.5194746
95	0x3fdd61f6	1.729552
96	0xbe194afe	-0.14970013
97	0x3d3c6a5f	0.04599988
98	0x40254728	2.582468
99	0xc017b094	-2.3701525
100	0x3f3b802e	0.7324246
101	0x3e8b04d0	0.2715211
102	0xbf00ed44	-0.5036204
103	0xbefad113	-0.48987636
104	0xbf84d7fd	-1.0378414
105	0x3fb7e36e	1.4366281
106	0x3f8b7fa0	1.0898323
107	0xbf74ec19	-0.95672756
108	0xc0453114	-3.0811205
109	0xbfb71b5e	-1.4305227
110	0x3eb4eb51	0.35335782
111	0x3f0214b2	0.5081283
112	0x3f276710	0.65391636
113	0x3e941e3e	0.28929323
114	0xbe3dd6a5	-0.18538912
115	0xbf84e4a1	-1.0382272
116	0xbfbb3612	-1.4625876
117	0x3f147541	0.57991415
118	0xc03d5cce	-2.9587893
119	0xbf13ee89	-0.5778585
120	0x3e6698a4	0.22519165
121	0xc049def2	-3.1542325
122	0xbfdbdde2	-1.7177088
123	0xbfb1b96f	-1.3884715
124	0xbf876dfb	-1.0580438
125	0xc01635ae	-2.3470263
126	0xbff57179	-1.9175254
127	0xbfcb9335	-1.5904299
128	0xbe8d8299	-0.276387
129	0xbe6ce592	-0.23134449
130	0xc0036ba8	-2.0534458
131	0xbe2839ea	-0.16428342
132	0xbe54dc86	-0.20787248
133	0xbdc0679b	-0.09394761
134	0xc09919b3	-4.784387
135	0x3d65e19e	0.05612337
136	0x3fca5e61	1.5810052
137	0xbfa524de	-1.2901876
138	0xc00c4da0	-2.1922379
139	0xbef4492b	-0.47712073
140	0xbff0c5cd	-1.8810364
141	0xbf96923f	-1.1763381
142	0xbf5980f9	-0.8496242
143	0xbec773e2	-0.389556
144	0x3e95adfc	0.29234302
145	0x3ec17811	0.37786916
146	0x3f9e05d0	1.2345524
147	0xbf4a93d7	-0.79131836
148	0xbf0ebdc6	-0.5575832
149	0xbca98996	-0.020695489
150	0xbef6f8d3	-0.48236713
151	0x3f5b7ee4	0.85740495
152	0x400a8172	2.1641507
153	0x3f61b84a	0.8817183
154	0xbeac8061	-0.33691695
155	0xbf855c3d	-1.0418774
156	0x3f139eef	0.5766439
157	0xbf050ea6	-0.51975477
158	0x3e43cf8f	0.19122146
159	0xbe246960	-0.16055822
160	0xbe9127a2	-0.2835055
161	0x3ef94a0c	0.48689306
162	0x3e3b871b	0.18313257
163	0xbe611dee	-0.21984074
164	0x3f62a166	0.88527524
165	0xbfd7a076	-1.6845844
166	0xc036735e	-2.8507915
167	0xbf900a89	-1.1253215
168	0xbf1ed0b6	-0.6203722
169	0x3f49cf6b	0.7883212
170	0xbf84158f	-1.0319079
171	0xc00f82b3	-2.2423522
172	0xbeabe365	-0.33571926
173	0x3f7e35ce	0.9930085
174	0xbffcbae3	-1.9744533
175	0xbe225f1d	-0.15856595
176	0xbfa945d8	-1.322444
177	0xbff01530	-1.8756466
178	0x3eda5dba	0.42649633
179	0x3fc958e9	1.5730258
180	0xbc713a92	-0.014723437
181	0xbe1cf5b5	-0.15328105
182	0x3f0333c5	0.5125087
183	0x3e847b9b	0.25875553
184	0xbf563b1e	-0.83683956
185	0x3ff9b4d4	1.9508309
186	0xc05ce79c	-3.4516363
187	0x3f3f04b0	0.7461653
188	0x3fb83d49	1.4393703
189	0x3f57a6b7	0.8423876
190	0x3ff44521	1.9083596
191	0x3fa05a95	1.2527643
192	0xbfc82a20	-1.5637856
193	0x3f705e62	0.93894017
194	0xbf04da73	-0.5189583
195	0xbf6d2c71	-0.9264594
196	0xbea0024f	-0.3125176
197	0xc059ee4f	-3.4051702
198	0xc06a67c2	-3.6625829
199	0x3fe5c993	1.795214
200	0x402e15bf	2.7200773
201	0x3df28c08	0.11843115
202	0x3f677999	0.9041992
203	0xbda4be32	-0.080440894
204	0x3f4c0452	0.7969409
205	0x3f841ebb	1.0321878
206	0xbe9bcb3a	-0.30428487
207	0xbd3bf257	-0.04588541
208	0xbd40c266	-0.047060393
209	0xbf1120bf	-0.5669059
210	0x3df8bd9e	0.121455416
211	0x3ea1ae53	0.3157831
212	0xc02024f2	-2.502255
213	0x3fd9a3f6	1.7003162
214	0x3d8cf3f4	0.06882468
215	0x3f219a71	0.63126284
216	0xbe91268c	-0.2834972
217	0x3f326c11	0.69696146
218	0xbe0f3413	-0.13984708
219	0x3cee9311	0.029122861
220	0x3f81cce3	1.0140651
221	0x3f1b69fb	0.6070859
222	0x3f0d0a02	0.55093396
223	0x3fca1602	1.5787966
224	0x3d7a0c22	0.061046727
225	0xbb781234	-0.0037852647
226	0x3fba9845	1.4577719
227	0xc005803c	-2.0859518
228	0xbebe9397	-0.37221977
229	0xbf37168a	-0.71518767
230	0x3f0730d6	0.5280889
231	0x3e9b63f7	0.30349705
232	0xbf048e3c	-0.5177953
233	0x3eed4b82	0.4634667
234	0xbf6f3c21	-0.93451124
235	0xc0005e9f	-2.0057752
236	0xbe5187a3	-0.20461898
237	0x3eacd00c	0.33752477
238	0xbe8198d0	-0.253119
239	0x3e9575d0	0.29191446
240	0x3e32c9d6	0.17459807
241	0xbeaf79c4	-0.34272587
242	0x3f0278d8	0.5096564
243	0xc03bd5e3	-2.9349296
244	0xbfef91e5	-1.8716398
245	0x3e9cc823	0.30621442
246	0xbfbf84e8	-1.4962435
247	0x3f63f056	0.890386
248	0x3e89dabe	0.269247
249	0xbf23d96a	-0.6400362
250	0xc0023351	-2.034382
251	0xc029851d	-2.6487496
252	0x3f089307	0.53349346
253	0xbfc8997a	-1.5671837
254	0xc06b5449	-3.6770194
255	0xbf980a8d	-1.187822

net.2.bias f4 [128]
0	0x3f837ef8	1.0273123
1	0x3f1e37e2	0.6180402
2	0x400a9b40	2.1657257
3	0x3f523c21	0.82123
4	0xbd97ab0a	-0.0740567
5	0x3f28a327	0.6587395
6	0x4007aea1	2.1200335
7	0x3f900225	1.1250654
8	0x401393e4	2.3059015
9	0x3f473348	0.77812624
10	0xbe111113	-0.1416667
11	0xbd812d90	-0.063075185
12	0x3feb7f8e	1.8398302
13	0x3ebe6fb1	0.3719459
14	0x3f831781	1.0241548
15	0x3f99e5ae	1.2023218
16	0xbf438170	-0.7636938
17	0xbda6909a	-0.08133049
18	0xbdef4eb2	-0.11684932
19	0xbdb83eaa	-0.08996327
20	0x3fad5529	1.3541614
21	0x3fac2b58	1.3450727
22	0x3d8e8ba0	0.06960225
23	0x3dbda31b	0.092596255
24	0xbdea9c22	-0.11455561
25	0xbe5b6791	-0.21426226
26	0x3edd8240	0.43263435
27	0xbd073bc3	-0.033015978
28	0x3fa75253	1.3071998
29	0xbca4e1f9	-0.020127283
30	0x3f3c1c6e	0.7348088
31	0xbd717e49	-0.058958326
32	0xbdd632bc	-0.104588956
33	0xbd7a2993	-0.061074805
34	0xbc80b689	-0.01571204
35	0xbe01bb13	-0.1266902
36	0x3f26b97d	0.6512678
37	0xbde5089d	-0.111832835
38	0x3ec90165	0.39258876
39	0x3e01f936	0.12692723
40	0xbda03fad	-0.07824645
41	0xbd11c225	-0.03558554
42	0x3f2783f9	0.6543575
43	0x3f3fad7e	0.74874103
44	0x3ff4f12d	1.9136101
45	0xbdb22aeb	-0.08699592
46	0xbd9d147f	-0.07669925
47	0x3f90d8fe	1.1316221
48	0x3f687a98	0.90812063
49	0xbdaa27a8	-0.08308345
50	0xbd37c68a	-0.044867076
51	0xbd64f446	-0.05589702
52	0xbc6fb801	-0.014631272
53	0x3f855afe	1.0418394
54	0xbe276ddb	-0.163505
55	0x3f12747b	0.57208985
56	0x40073c27	2.1130464
57	0x3f6900ac	0.9101665
58	0x3f30c4d4	0.69050336
59	0x3ea57a05	0.32319656
60	0x3c8ae492	0.016954694
61	0x3f195202	0.5989076
62	0xbe1a5cd1	-0.15074469
63	0xbe0f5f5b	-0.14001219
64	0x3f88c1a9	1.06841
65	0x3fb81ea8	1.4384356
66	0x3e69377d	0.22775073
67	0x3f765621	0.9622517
68	0xbe058ba1	-0.13041545
69	0xbd15ed2d	-0.03660314
70	0x3f302d8d	0.68819505
71	0xbd4fe025	-0.05075087
72	0xbdbbcf77	-0.0917043
73	0xbe028436	-0.12745747
74	0x3ee227ba	0.44170934
75	0x3f28c5a8	0.659266
76	0x3f64ad5b	0.8932702
77	0xbc30f53b	-0.010800655
78	0x3f8f866e	1.12129
79	0x3f5a9b3c	0.8539312
80	0xbdc36e12	-0.095424786
81	0x3f91a6f2	1.1379073
82	0xbdc70341	-0.097174175
83	0xbdb6be39	-0.08923001
84	0x4006f9c2	2.108994
85	0x3eab1eed	0.33422032
86	0x3f2befb7	0.6716265
87	0x3f8fd30f	1.1236285
88	0xbdea6b06	-0.11446194
89	0x3f965558	1.1744795
90	0x3f7f093d	0.9962347
91	0x3f8145d7	1.0099438
92	0x3c5bf65f	0.013425439
93	0x3d0104f3	0.03149886
94	0x3d1ad862	0.037804015
95	0xbe2a4089	-0.1662618
96	0x3fc2c962	1.5217707
97	0x3f85122e	1.0396173
98	0x3f5e93bc	0.86944175
99	0x3f73083e	0.9493445
100	0xbda961c4	-0.082706004
101	0xbc710c64	-0.014712427
102	0x3f9b8d03	1.2152408
103	0x3f5a57ca	0.85290205
104	0x3fa38387	1.2774514
105	0x3fd08e68	1.6293459
106	0xbe1eea19	-0.15518989
107	0x3f87785a	1.0583603
108	0x3fa81b0b	1.3133253
109	0x3f13cae6	0.57731473
110	0x3f8070bf	1.0034407
111	0x3f830d8b	1.0238508
112	0xbe03d9e1	-0.12876083
113	0xbe09a460	-0.1344161
114	0xbdee7389	-0.1164313
115	0x3f7614b7	0.9612536
116	0x40066f39	2.1005385
117	0x3f7e0fa2	0.99242604
118	0x3fb093ec	1.3795142
119	0xbd5c8506	-0.0538378
120	0xbdf0c7ea	-0.117568806
121	0xbd28a6cf	-0.041174706
122	0xbdbc9e90	-0.09209931
123	0x3fec0bfe	1.844116
124	0x3f409993	0.75234336
125	0x3ddac1f7	0.10681527
126	0xbdb4050e	-0.087900266
127	0x3f0e5250	0.5559435
