checkpoints/team1_agent_2.pt (torch, 394913 bytes, 24 tensors)

net.0.weight f4 [128, 45]
00000000: bf8e 47bd e45c 2abe 5357 b6bf 90d0 2ebd
00000010: 4594 b23e ca1f f93f ed89 a0be 65d4 60bf
00000020: 24a8 3fbe 229b 72bf 25d0 34c0 afdf eebf
00000030: 8eac 4cbf 5ada 09bf b5b1 c2bd 850f 42c0
00000040: f345 593f 4ed9 fbbf e53f 093f 7834 1c3f
00000050: f379 8fbe 1eac b93e 61e1 853d 58d7 5cbd
00000060: 2dc5 883e 4353 503f f342 323f fc16 13bf
00000070: 6c36 a73f c0fb 173e 1f3c 8f3f ad61 cdbe
00000080: 98a5 983f 8d8e 203f d264 cfbe ace0 0cbf
00000090: bec8 30bf 806a 803f 4382 4abf ece5 073d
000000a0: c2b2 cbbf d402 043f 9bfb b83d 7b51 053d
000000b0: 3560 e63e 05e0 b5bd f1ed ca3e e421 68be
000000c0: 987c 333d b202 fcbd 4499 e4bc 14b5 33bf
000000d0: 47b5 463f 79a6 d8bf 2d77 1ebf db59 c83f
000000e0: 9ce4 cf3f 35ca b13f e926 613f 398b 083f
000000f0: 2d34 983f c4b4 11be 643a b43f 4cba 343f
00000100: cee1 0c3f b05f fc3e 82de 16bf f222 d73e
00000110: 0490 263f 977d 293e 9375 383f f678 623e
00000120: 420e 8e3e b2be b7bd 1637 943e 0e23 35c0
00000130: 6ca0 503f 3243 16c0 3022 e03e f1a1 fb3e
00000140: 2107 a3bc a396 7d3f 878a 43bf 36b3 973e
00000150: a4f4 633f dc1f 8ebd f2ea c33f 419d 9abe
00000160: d57b 773f cc6c b4be 7592 11bf 09e9 d8be
00000170: 83fb 41bf a9e4 df3e 1483 a63e 614f 943e
00000180: 8d86 7b3f 4fc3 72bf ddc1 9c3f d323 313f
00000190: e7be 0d40 d509 c23e ec96 1ebe f286 c1bf
000001a0: 37a6 78bf 29f9 81be 0e90 05c0 ae87 873f
000001b0: 380d 51bf ddc4 e9be 14ed 413e 6108 fb3e
000001c0: bc77 b03e d8ab 71bf 6650 d1bf fa6e 66be
000001d0: bc22 813f cd34 d43f e804 0140 2cf2 803f
000001e0: bb04 6e3e abbe 473f 7303 efbc f713 673f
000001f0: 9631 9c3e b504 883f 48a1 533d 4448 873d
00000200: e04b 0bbf c572 16bf 9e8f 91be 28b4 2f3f
00000210: fe33 6ebe b0c5 513f 5cf2 9f3e 4ff4 a8be
00000220: 4aa1 633f 0f0b 04bd 11f6 f33f 2b09 09bf
00000230: d943 243e 4057 b7be 6e3c 33bf e7fb 7dbf
00000240: f92d 2f3d f737 90bf a518 61bf 43fc dc3f
00000250: fe16 bbbe 0b1e 81bf 863c d33c e7c0 a6bf
00000260: 6d64 ebbf 246f f7be c7b6 423f e257 803e
00000270: 360e 923f fe7e 81bf 6ebc 9a3c 99ec 8bbd
00000280: 0a45 ccbd 750f 143e 2bea 7d3e c596 1f3f
00000290: 90ff 19bf b24a 9cbf 97c9 1ebf bc26 c2bd
000002a0: cd65 e43d 3a7d 4e3f 5215 fc3e f8dd f4be
000002b0: 31ff 193e a87e fcbf d184 043f 761f 08bf
000002c0: 6c57 c8be c684 25bf c9d6 6b3f 0cef babe
000002d0: 053d febb 0538 b33c 7ecf 2fbf 303c 363e
000002e0: d43e be3e d40e abbf 8699 a1bd 6ebb 6bbd
000002f0: ae43 a9bd e136 9e3e a8a9 9fbf 6192 9d3f
00000300: 8659 c5bf 4e77 fa3d 6b2f 47be 2575 72bf
00000310: 6d90 3abf 4b99 76bf bcb3 e23c 3a8e 9dbe
00000320: 422d aabe b7f3 0f3e ed43 cc3e 6bd6 e63e
00000330: edae 183e 4cc5 8dbd f333 b43f e1db 133f
00000340: 1844 7c3d 707d c93e b529 0c3f 7dea 063e
00000350: 7415 b7be 8a03 253f 3636 60bf 6452 b7bf
00000360: a929 e7be 81c0 49bf 7db2 eabf 74aa d73d
00000370: af30 6ebf 2371 a2be 7abf b3be c2f9 2ebe
00000380: fa27 d33e 5ad4 24bf 7aff 07bd c55d 10be
00000390: 6f70 243f c8b5 c93e 5ba7 583f 75ba 02bf
000003a0: 46b6 0b3f 944a 0fbf eb8f 52bf 5769 2840
000003b0: dba3 b53f cc60 0c3f ea7d c73f 2933 f03e
000003c0: 6c08 9c3c 5b73 643e 3901 c03e 4f84 4d3f
000003d0: 6f17 303d b745 353e e65e 3abf fd27 44bf
000003e0: 1de2 88bf b0fe 3a3f 7a4d 50bf 0b31 203f
000003f0: d622 283f 1596 3d3f e38b 113d bc10 b53e
-0.048720118 -0.16636997 -1.4245399 -0.04267937 0.34878746 1.9462826 -0.3135523 -0.8782409
-0.18716484 -0.94767964 -2.8252041 -1.8662013 -0.799508 -0.53848803 -0.09506551 -3.0321972
0.8487236 -1.9675691 0.5361312 0.6101756 -0.28022727 0.36264127 0.06537128 -0.053916305
0.26712933 0.8137705 0.69633406 -0.57456946 1.3063483 0.14842129 1.1190223 -0.40113583
1.1925535 0.62717515 -0.40506607 -0.5503032 -0.6905631 1.0032501 -0.79105014 0.033178255
-1.5913928 0.51566815 0.09032365 0.03254841 0.44995275 -0.08880619 0.3963466 -0.22669178
0.043819994 -0.123052016 -0.027905114 -0.7019818 0.7762036 -1.6925803 -0.619006 1.5652422
1.6241641 1.3889834 0.8795 0.53337437 1.1890923 -0.14229113 1.408032 0.70596766
0.5503205 0.49291754 -0.5893327 0.4201885 0.650635 0.16551815 0.72054404 0.22116455
0.27745253 -0.08971919 0.28948277 -2.8302646 0.81494784 -2.3478513 0.43776083 0.4914699
-0.01990086 0.9905798 -0.7638325 0.29628915 0.89045167 -0.069396704 1.5306075 -0.301981
0.9667333 -0.35239255 -0.568641 -0.42365292 -0.757744 0.4372914 0.3252188 0.2896681
0.98252183 -0.9482927 1.2246662 0.6919529 2.2147768 0.37898126 -0.1548726 -1.5119307
-0.97128624 -0.25385407 -2.0869174 1.0588281 -0.81660795 -0.45658007 0.18938094 0.4902983
0.3446635 -0.9440284 -1.6352661 -0.22503272 1.0088725 1.6578614 2.0159245 1.0073905
0.23243992 0.7802531 -0.02917645 0.9026484 0.3050658 1.0626436 0.05166748 0.066055804
-0.5441265 -0.58768874 -0.28429884 0.6863427 -0.23262021 0.8194227 0.31239593 -0.32998893
0.8891798 -0.03223711 1.9059469 -0.53529614 0.16041507 -0.35808754 -0.70014083 -0.992125
0.042768452 -1.1267079 -0.8792823 1.7264484 -0.3654098 -1.0087293 0.025785696 -1.3027619
-1.8390023 -0.4832698 0.76060146 0.2506705 1.1410587 -1.011688 0.018888678 -0.06832237
-0.09974106 0.14459021 0.24796359 0.6233943 -0.6015558 -1.2210295 -0.6202635 -0.09480044
0.111522295 0.8065983 0.49235016 -0.478256 0.15038754 -1.9726152 0.5176516 -0.53173006
-0.39129198 -0.6465572 0.9212461 -0.36510503 -0.007758739 0.021877298 -0.6867598 0.17796397
0.3715731 -1.33639 -0.078906104 -0.057551794 -0.08264862 0.30901244 -1.247365 1.2310296
-1.5417945 0.12229787 -0.19451682 -0.9471 -0.72876626 -0.96327657 0.027673595 -0.30772573
-0.33237654 0.14057814 0.39895573 0.45085463 0.14910479 -0.06922397 1.4078354 0.57757384
0.061588377 0.39353514 0.5475114 0.13175388 -0.35758555 0.64458525 -0.8758272 -1.4322019
-0.45148972 -0.7880936 -1.833572 0.10530558 -0.93043035 -0.3172694 -0.35107023 -0.17087463
0.41241437 -0.6438652 -0.033202626 -0.1409827 0.6423406 0.393965 0.84630364 -0.5106576
0.54575 -0.5597317 -0.8225085 2.6314294 1.419063 0.548352 1.5585301 0.46914032
0.019046985 0.2230963 0.37500933 0.8028001 0.042991098 0.17702375 -0.72801054 -0.7662352
-1.0694004 0.7304487 -0.8136822 0.62574834 0.65678155 0.7405713 0.035533797 0.3536433

net.0.bias f4 [128]
00000000: ec3e 463d ae14 2e3f 3197 443d 23a4 c4be
00000010: d537 5c3f f270 d23e d2c7 0b3f 04ae 9d3f
00000020: 2863 c03a 3560 80be a021 5a3f 3afa 993e
00000030: 92c9 7f3f 3607 7d3f ccf0 3c3f 5918 38bf
00000040: 1b75 4a3f 80be 013f 7a50 0b3e a482 28bf
00000050: 6327 bd3e 192c 22be 6e99 aa3e e353 013f
00000060: 092c 493f 903a 0e3f 92cf 6ebd 1543 e3be
00000070: 75e3 9e3d 4a64 c93e 61a3 083c c5ca 9dbe
00000080: 9e03 623f a4ed eabe 59c3 ef3d 77a3 c7be
00000090: bb7f 9e3f df65 303d 0d1c 94bd 4ac9 743f
000000a0: 6c2d cc3e df60 adbe 6807 833f eda2 fcbd
000000b0: 5d16 fc3e 76d7 e5be 2250 78be fc29 0a3f
000000c0: 8efa 453f 25fc 9abd 0a24 4d3f c894 a53e
000000d0: 0604 9bbe b3c6 763f 51dc 83bd 708f fa3d
000000e0: 342e ca3e 2272 f93e 2ca0 033f 7c35 aa3f
000000f0: ab18 4f3f 1d6e 2ebe 0ad1 fd3e 3d4f 883f
00000100: 52ae 0b3f 5669 6d3e 0e49 f53e a565 2a3f
00000110: e88d 2c3f 073b 04bf 23fd 24bf 0a74 833e
00000120: fbd4 1d3f 1f87 463f ea1f 2e3e 4355 2e3f
00000130: 3ae2 15be c913 4abe 1177 013f 81b1 283c
00000140: 8f9d 153e 597b 8a3e 552e 273f 0a65 983f
00000150: 97ee ab3e cff7 733e 5e24 80be 2a81 633f
00000160: 3f12 7b3f f5ef 2b3f f79d 953e 2ab9 16bf
00000170: 4104 a4be 99ed 7b3f 0e7a 903f a57d ae3e
00000180: 69cd e43e 0b6c 083e 623c 2b3f 7bdc d8be
00000190: d621 bbbe 8009 44be 8788 29bd b910 54be
000001a0: ed00 a13e 92b0 d0be 6697 70bf 3b48 a13d
000001b0: f896 e5be 71d7 543f f703 95be aac0 1dbe
000001c0: ac72 c8be b8df 833f 2e70 663d 542b 1ebe
000001d0: 7c3e 5d3f 30a4 07be 8b8a 153f e753 a03e
000001e0: 4b84 0a3e 4e6e 08bf 692d d93e 3007 9c3e
000001f0: 5899 a1be d570 113f cc60 b1be c5f3 fb3a
0.04839985 0.68000305 0.04799575 -0.38406476 0.8602269 0.41101795 0.54601777 1.231873
0.0014677988 -0.250734 0.8520756 0.3007372 0.99916947 0.9883913 0.73804927 -0.7191215
0.7908494 0.50681305 0.13604918 -0.6582434 0.36944112 -0.15837134 0.33320183 0.50518626
0.7858282 0.5555811 -0.058303423 -0.44387117 0.07758228 0.39334327 0.008339734 -0.30818763
0.8828677 -0.4588443 0.117071815 -0.389919 1.238273 0.0430659 -0.07231913 0.9561964
0.39878404 -0.3386297 1.0236635 -0.12335763 0.49235812 -0.44890946 -0.24249318 0.53970313
0.7733544 -0.07567624 0.80133116 0.32340074 -0.30276507 0.9639694 -0.064385064 0.1223439
0.39488375 0.4871989 0.5141628 1.3297572 0.80897015 -0.17034192 0.49573547 1.0649182
0.54562867 0.23184714 0.479073 0.6656135 0.6740403 -0.5165257 -0.64448756 0.25674468
0.6165311 0.7754993 0.17004362 0.6809885 -0.1463708 -0.1973411 0.50572306 0.0102962265
0.14610885 0.27047232 0.6530507 1.1905835 0.33580467 0.23825 -0.25027746 0.88868964
0.98074716 0.6716302 0.2922208 -0.5887629 -0.32034495 0.9840942 1.1287248 0.34080234
0.44687966 0.13322465 0.6688901 -0.42355713 -0.36549252 -0.19144249 -0.04138997 -0.20709504
0.3144602 -0.40759712 -0.93981016 0.07875105 -0.44841743 0.8314124 -0.29104587 -0.15405527
-0.39149988 1.0302649 0.056259327 -0.15446216 0.8642347 -0.13246226 0.58414525 0.31314012
0.13527028 -0.5329331 0.42417458 0.30474234 -0.31562304 0.56812793 -0.34644163 0.0019222429

net.2.weight f4 [128, 128]
00000000: 6b2b 8fbd 5e74 cabd e41f e9bd 2997 b33d
00000010: 8d57 403d 7e6a 36bd 5524 00be dad5 f9bd
00000020: 3971 94bd d81c 81bc 4942 fdbc 1000 283c
00000030: ae89 f73b 0fd1 483d 6238 53bd ac53 2abd
00000040: cabd 0e3d 74c9 94bd 0116 e6bd 9628 00be
00000050: d98a a2bc 3561 32bb b761 1ebd eba1 933d
00000060: faf1 eebd 90cf 88bd ccf4 583d 6f5f 30bd
00000070: 8f05 80bd 4c93 cdbd 8354 3e3d 800c 77bb
00000080: cea0 463d b462 763c 72a8 24bd 17cb 4abc
00000090: 8ae1 e3bb d620 d4bd 5390 bc3c 7a4a 233c
000000a0: 2b2d 3bbd b18c 0d3d 38cf 94bd 02ee 1d3d
000000b0: 3d2b f33c 5b33 b7bd 3deb b13d 97a3 963d
000000c0: ff14 f0bc 86d9 263d 545a 23bd de1b 233d
000000d0: 4ee2 463d 3c6e 85bd 4d3c 69bc b608 683d
000000e0: 15f5 7ebd 072e ccbd d3cd 86bc aae6 ed3c
000000f0: 6086 793c 183b c1bc ecfc bebd b4d6 f5bd
00000100: 4c6f efbd 5583 04be 3d54 243c 769e 553d
00000110: 0bd2 2fbd e04b b3bd 9cb7 69bd 67dc ecbd
00000120: b08a 30bc ddd0 43bd 234a b2bd 7dd2 0bbe
00000130: 6f9d 44bc 8c7b 343d f432 60bd 74f8 6f3a
00000140: 3a6f 7a3d 3a9e 31bc cd90 70bd f0cd c23c
00000150: 62be 8bbd 94b5 91bc be02 433d 15cc d33c
00000160: a039 02be 7263 73bd ae07 943c 7926 403d
00000170: 2036 743b 5db0 b9bd 0963 d53c 6061 38bb
00000180: b9da f13c f40a a0bc d378 e93c 2538 943c
00000190: 98c4 39bd 6a55 8dbd 014d 0a3d 9c2e a5bd
000001a0: 80dc 333c f3d2 25bd f0ac b4bd e514 993c
000001b0: 5a99 b6bd 7d8c 7abd 79ca 583d 6128 9bbd
000001c0: 7f2c 83bd 5bfc a7bd e6ab 983d 04f9 a9bd
000001d0: a02d 62bd ca10 053d 40ab 8ebb c03e cd3c
000001e0: 18fe 03bd 2a0a 6f3c 1dab 10bd 0123 3e3d
000001f0: 3176 afbd c610 2f3c 4fa1 a3bd 7e07 d1bd
00000200: a540 9e3c 9f8d a13f 4b34 8f3f 21f2 623f
00000210: c1f5 cf3e 221e b33f 0c2b 683f ffec 47be
00000220: f1ea 293f de46 923f 9e11 833f 2aa7 013f
00000230: b3e4 883e e7e3 8bbf 0eff f13f fe42 c8bf
00000240: 8b8f 7b3e 256d 88bb 355c d2bd 9fd0 80bf
00000250: e0be 37bf 1c3e 88bc 8ef5 8f3f 91ba 3c3f
00000260: e556 91bd 1966 913d 4cca 93bf 9573 4c3e
00000270: 3657 c5be 811d b0bf df76 35bd ee2d a3be
00000280: c335 a83c 2296 8a3f d2cb 73bf 2720 9ebf
00000290: b2b3 1abe 8686 98bf 4214 8f3f 796c 143f
000002a0: f636 733f f03d 9a3d 3908 a5bd 0da9 4dbf
000002b0: 4c2f b2be 18d5 3a40 a8cc 0ac0 2737 dabf
000002c0: 5bbf 3ebf e752 32bd 15d0 813f 7fb1 4840
000002d0: 1736 7d3d 193c 953e 432b a33d 216e 54bf
000002e0: fbe8 9dbf ac5f d9be 4684 543f 62ad 24bf
000002f0: d943 87be fd3b e53f e060 a5bf a2d9 b9be
00000300: 6985 723e 9496 8dbf 93fa 8dbf 5122 5b3f
00000310: c493 86bf b3bc 7e3f 7bb1 12c0 d7d3 943f
00000320: 415d 9dbf 1358 40bf 4b4f 5d3e 1f74 4bbf
00000330: 5b4d 83bf b3ab 303f d675 a5bf 35b0 aabe
00000340: 6e43 8f3f a3e3 4c3f f3d2 45bf 9aab 0abe
00000350: 847b 96bf 8e83 033f 20ab a4bf b350 963f
00000360: 2e1d ba3e 33d1 0740 c9d8 c83f 1cc8 d5bf
00000370: f39f 773e e9b9 153f a9a5 753d 3a84 cfbd
00000380: 0218 7d3e bc80 53bf 825f 6a3f 38bd 03c0
00000390: b54f a83d b759 a03d ce34 57be 8038 653f
000003a0: 3b8e 76bd cbee 0cc0 41a2 6cbf 8e30 9a3e
000003b0: e0c9 bfbe c757 213d fbe2 39bf 17ec 49be
000003c0: 963b c4be 3128 9cbf 2e46 9a3f 9c15 0d3f
000003d0: 5d6a 85bf 282f 09bf 217d 5bbf f14a 94bd
000003e0: b9d7 82bf 6abe 72bd ea09 423d 07e8 20bd
000003f0: efe9 1f3d ae18 6dbf 3a5f 9fbe 23f5 52be
-0.06990703 -0.098854765 -0.11383036 0.08769066 0.046958495 -0.044535153 -0.1251386 -0.12198992
-0.07248158 -0.015760824 -0.030915396 0.010253921 0.0075542545 0.0490275 -0.051567443 -0.041583702
0.034848966 -0.07264987 -0.11234666 -0.12515482 -0.019841598 -0.0027218584 -0.038667407 0.07208618
-0.11667247 -0.066802144 0.05296783 -0.043059763 -0.0625106 -0.1003786 0.046467315 -0.003769666
0.0484932 0.015038181 -0.040199704 -0.012377522 -0.0069543766 -0.103578255 0.023018038 0.009966487
-0.045697372 0.034558002 -0.07266086 0.03855706 0.029683704 -0.08945342 0.08687446 0.07355421
-0.029306887 0.04073479 -0.039881065 0.039821498 0.048555665 -0.06515166 -0.014235568 0.056648932
-0.062245447 -0.099697165 -0.016455567 0.029040653 0.015229791 -0.023587748 -0.09325585 -0.12003842
-0.1169115 -0.12940724 0.01002985 0.052153073 -0.042924922 -0.087547064 -0.05705987 -0.11565476
-0.010775253 -0.04780661 -0.08705547 -0.13654514 -0.012000426 0.044063136 -0.054736093 0.0009154149
0.06114123 -0.010840947 -0.058731843 0.02377984 -0.06823422 -0.017786779 0.047610037 0.02585415
-0.12717295 -0.05942101 0.018070068 0.04691169 0.0037263706 -0.09066842 0.0260482 -0.0028134212
0.02952324 -0.019536473 0.028499996 0.018093178 -0.045353502 -0.06901057 0.033764843 -0.08065531
0.010977864 -0.04048438 -0.08822048 0.018686721 -0.08915968 -0.061169136 0.052927468 -0.07576061
-0.06404971 -0.0820243 0.07454662 -0.08299449 -0.055219293 0.032486714 -0.0043539107 0.025054336
-0.032224745 0.014589826 -0.035319436 0.0464201 -0.08567465 0.010685151 -0.079897515 -0.10206507
0.019317934 1.2621344 1.1187834 0.8865071 0.40617183 1.3993571 0.90690684 -0.19524
0.6637412 1.1427877 1.0239751 0.506457 0.26736984 -1.0928925 1.8905962 -1.5645444
0.24566476 -0.0041634017 -0.10271493 -1.0063666 -0.7177563 -0.016631179 1.1246812 0.7372218
-0.07096652 0.07099552 -1.1546111 0.19965966 -0.385431 -1.3759004 -0.044302817 -0.3187098
0.020533448 1.0827067 -0.9523288 -1.2353562 -0.15107611 -1.1916053 1.1178057 0.57978016
0.9500574 0.07531345 -0.08058209 -0.80336076 -0.3480171 2.9192562 -2.1687412 -1.7048081
-0.74510735 -0.043536093 1.0141627 3.1358335 0.061819162 0.29147413 0.07967236 -0.82980543
-1.2336725 -0.42455804 0.83014333 -0.6432706 -0.2641895 1.7908932 -1.2920189 -0.36298853
0.23683704 -1.1061578 -1.1092094 0.8559924 -1.0513844 0.9950668 -2.2920825 1.1627148
-1.2294084 -0.7513439 0.21612279 -0.7947406 -1.0257982 0.6901199 -1.2926586 -0.3333756
1.1192453 0.80034846 -0.7727501 -0.13542023 -1.1756444 0.5137261 -1.2864723 1.1743377
0.36350387 2.1221435 1.5691158 -1.6701694 0.2418211 0.584868 0.05997244 -0.10132642
0.2471619 -0.8261831 0.91551983 -2.058424 0.08218328 0.07829612 -0.21016237 0.8953934
-0.060194235 -2.2020748 -0.9243508 0.3011517 -0.37458706 0.03939035 -0.7261197 -0.19718967
-0.3832671 -1.2199765 1.2052667 0.551111 -1.0423084 -0.5358758 -0.85737807 -0.072408564
-1.0222083 -0.059263624 0.047372736 -0.03928378 0.039041456 -0.92615783 -0.3112734 -0.20601325

net.2.bias f4 [128]
00000000: e73c 2abd f90a 3abf aceb 8c3f ebcf 313f
00000010: aa80 c83e cd2f f8bd 17b6 563f 3696 c3bd
00000020: d8a4 05be a811 cbbd f71a 36bd 1166 b43e
00000030: 02e3 e6bd abba 21bd 8acc 0f3f 4fb2 0140
00000040: c6db 113f d132 f33f fc28 80bd b931 86be
00000050: 5ca7 ff3f b25d f6bd 4e48 3240 10f0 edbd
00000060: 1a22 12be 0d75 9e3f 3990 c9bd f031 2bbc
00000070: bc53 bdbd 5727 e7bd a2d4 6a3f c670 a5bd
00000080: ee91 6e3f 4c31 503f 00eb 793e 9c0c 6f3f
00000090: c4be 463f 978f 963f 7ee8 1a40 1480 d93f
000000a0: 9339 8c3d f603 863f e436 a93f e55a 8c3f
000000b0: 3aef b33f 62aa 8c3f 1a9e 8a3f 1bdf 97bd
000000c0: 356d 873f 3e85 b7bd f501 71bd 5df4 11be
000000d0: 179a 0abe 33da 63bd c41c 983f d508 8d3f
000000e0: 5e6b bcbc 2e3e f13c 6c85 a7bc c04f 2340
000000f0: 8072 14bd e85b 8bbd 2b40 14be 16d2 9f3f
00000100: 8a2e 0c3c be78 e8bd e8cc 5b3f 860a 66bd
00000110: fca9 993f 61ea 1bbd fa7b 63bd 506b 9a3f
00000120: 5b85 b5bd ff2c d1bd 2bd4 823f c543 863f
00000130: eec1 683e f0be 7f3f f324 af3f 5acd 003f
00000140: db96 583f dfd6 0a3e e78a 053f 47d9 913f
00000150: a3f8 c7bd 968c 453f caa1 6ebc e65d e23f
00000160: ff8a 8b3f db2c 123f efb7 12be b5cd 4dbd
00000170: f037 c3bd d28a 993a f883 8c3f e258 933f
00000180: f001 79bc 7c75 4c3f 394e 8a3c 6263 9c3f
00000190: e2bb 333f 374f 503c 6deb b4bd 1a83 dcbc
000001a0: 8941 463f 9e00 91bd f814 bfbd c952 da3f
000001b0: 67f2 923e d44e d73f 41b6 ddbd a8ae 1340
000001c0: ebad 8b3f 898e e9bd 1d0d 74bd 0ff7 1a3c
000001d0: f9a4 babd 5c21 afbd 197d 64bd dfd5 0dbf
000001e0: 3390 8d3f 3373 6e3f 6530 173f a710 563f
000001f0: d9f5 09be c258 f43f 471c 8f3f 2ed8 20be
-0.041561987 -0.7267299 1.1009421 0.6945788 0.39160663 -0.12118492 0.838716 -0.09550135
-0.13051164 -0.09915477 -0.04445931 0.3523412 -0.11273767 -0.03948466 0.56171477 2.026508
0.5697597 1.8999883 -0.06257817 -0.2620981 1.9972949 -0.1202959 2.7856631 -0.11618054
-0.14270821 1.2379471 -0.098419614 -0.010448918 -0.09244487 -0.112868 0.917307 -0.080781505
0.9319142 0.8132522 0.24406052 0.93378615 0.77634835 1.176257 2.4204402 1.6992211
0.06846919 1.0469959 1.3219876 1.0965239 1.4057381 1.0989497 1.0829499 -0.07415601
1.0580202 -0.08960961 -0.058839757 -0.14253373 -0.13535343 -0.055628013 1.1883779 1.101832
-0.023000415 0.029448595 -0.020449363 2.5517426 -0.03624201 -0.06804639 -0.14477603 1.2485988
0.008556018 -0.11351155 0.8585954 -0.05616238 1.2005 -0.038065318 -0.055538155 1.2063999
-0.08863326 -0.102136604 1.0220999 1.0489432 0.22730228 0.9990072 1.3683151 0.5031334
0.8460519 0.1355853 0.52165073 1.1394433 -0.097642206 0.7716764 -0.014564941 1.7684906
1.0901793 0.57099694 -0.14327978 -0.050245006 -0.095321536 0.0011714345 1.0977774 1.15115
-0.015198216 0.79866767 0.016883003 1.2217829 0.7020856 0.012714199 -0.088339664 -0.026917983
0.7744375 -0.07080196 -0.09330171 1.7056514 0.28700563 1.6820931 -0.10825778 2.3075352
1.091245 -0.114041395 -0.05958282 0.009458317 -0.09113497 -0.08551285 -0.055783365 -0.55404466
1.1059631 0.9314453 0.5905822 0.8361916 -0.1347269 1.9089587 1.1180505 -0.15707466

net.4.weight f4 [13, 128]
00000000: b1c9 98bb 20de 90bf 2ccb d13f 41de 4140
00000010: d04d d13f 77f0 fabc 8834 d43f 12a6 4f3d
00000020: ded2 3e3d 134d 27bd 4e55 483d b190 fe3f
00000030: beac 093d d51d 93bc f77d 5640 045f 1c3f
00000040: be04 2d40 5606 fe3e e857 333b b774 7abe
00000050: af39 853f 735a d6bd 70b3 863f 5248 44bd
00000060: 31cb 54bd a7d6 793f 31fc 223d d5a0 4fbc
00000070: 3e6c 5cbd 4c1f 9d3d 2e9b 2740 3054 5e3c
00000080: 474d 6840 591a 1240 d140 993f a666 2c40
00000090: 96f9 d03f a5f2 713f f2cb 5d3f 8852 9e3e
000000a0: 5d64 9f3c e176 bc3f e33f 0e40 ec0f 1040
000000b0: 9e86 393f 4e21 2c40 66e4 4340 86f7 a83c
000000c0: 9e47 3a40 bc2a b23d f862 31bd 3039 b0bd
000000d0: e575 b03c 8096 aabd d9f2 2940 dc5f 0540
000000e0: 82e4 ac3c 3acc 323d 5568 3b3d 8f24 683f
000000f0: 0853 9a3c ae7a 0dbd 15fa 59bd cc50 0e40
00000100: d139 b23d 002c f5b9 28de 2340 efdb ba3d
00000110: 6e03 b13f f9b5 11bc 4e30 2c3c 01e9 bd3f
00000120: 8e99 8d3d 11ed 9d3d 1d59 3940 9cfa 1640
00000130: 9eb8 db3f 5013 e53f f211 c53f 27cb ec3f
00000140: 6972 5440 017a b73f 05f5 3d40 8f69 5240
00000150: bd41 9b3d f994 0740 6d3b 71bc 6ff0 393f
00000160: fee2 0c40 a099 1e40 7477 04bc a6c1 bf3c
00000170: 9ea7 8bbd 2daa f43c 5f06 2b40 8faa fd3f
00000180: 8236 cf3a 366a 0a40 0600 e83a 7ca8 b93f
00000190: f813 1f40 cc7f 783d 9263 a53d e7aa 613d
000001a0: b8bd 3d40 a303 883c 2c96 35bd 87ce fa3f
000001b0: 054e 1840 ef1d a83f 55ad a33d 2009 1b3f
000001c0: 3b09 f03f 1315 4bbd 58d1 dfbc ef14 113f
000001d0: 877c a3bd 8683 22bd 84e5 ce3d 527e 84bf
000001e0: 34b1 b43f 9915 3b40 fcfe 0c40 35b6 0440
000001f0: 8633 6dbd ca77 f23e 8416 5e40 83b9 0dbe
00000200: 7ed4 43bc 2cfc 6fbf 3074 d13f 1272 4640
00000210: f21e f53f 8b95 ae3b 3b29 0740 1b17 8f3d
00000220: 1887 b3bc 57c7 8bbd 5ad1 a73d 07f2 db3f
00000230: 5c47 923c a14a d83c 84d0 5640 4846 233f
00000240: 77ed cf3f 605b e13e 3768 993d 4cbd e83d
00000250: 2922 e23e 0c27 0fbe 7766 7b3f bfba b43d
00000260: f1d4 f03c a00f 9c3f 173f e8bc 8a61 9f3d
00000270: 56aa 55bd 7a5e 723c 955d 7440 2379 8a3d
00000280: 8abc 6440 0444 3640 5f42 aa3f 0d7e 4e40
00000290: 7a9f bf3f a83c 9b3f 10c1 3f3f 26e4 4c3f
000002a0: e707 663d f462 c83f b69c 0d40 16ec 0840
000002b0: 353b 843f 732d 1c40 ff90 1a40 f2cb 6b3d
000002c0: c16a 8d3f a0ea 733d 744f 99bd 2ff2 0dbd
000002d0: a55a 01bd 54a9 85bd 25a8 3640 f0e5 1a40
000002e0: fbed 20bc 2fbc 30bd d426 d5bd 16de 6d3f
000002f0: 7b44 de3c 5fc6 52bd a4fc 9c3c 6972 1140
00000300: 42f0 573d f0ec 503d be36 0c40 6f67 e0bc
00000310: e166 983f 5c76 f4bc 40dd 333c 18be cf3f
00000320: 146d dcbc d680 febc 3f6b 4c40 a050 cb3f
00000330: fc71 1b40 85d8 e43f 2d7d 163f 5996 0340
00000340: 2b21 6440 a5db 0b40 1146 1b40 78f3 f93f
00000350: 44d5 94bd 777f 2040 ee1d 9bbd f2a3 3f3f
00000360: 56f4 1340 4a25 d53f b0e3 3ebd 5b42 3e3d
00000370: 1dfb adbc 1683 103d e41b 9040 e476 e23f
00000380: dd16 eb3d 4069 fe3f a62c cf3b 3c56 d83f
00000390: abfa 1340 fc58 6b3d d544 9b3d 53ee 863c
000003a0: 13e1 4540 189a 8abd 3f72 8f3d c685 fb3f
000003b0: 3a2b e83f d438 903f 53d6 0abd fc6f 343f
000003c0: 45c2 d13f d1a6 933d 9db6 65bd ea76 1e3f
000003d0: 611d a03d 78b3 2dbc c0e9 4ebd 899b 89bf
000003e0: d239 d63f 7cc2 4a40 b232 fd3f 391c 1340
000003f0: f97c 56bc 347d 2a3f f887 5d40 54ae febc
-0.0046627154 -1.1317787 1.6390128 3.0291903 1.6351871 -0.03063224 1.6578531 0.050695486
0.046587817 -0.040844988 0.048909478 1.9887906 0.033612005 -0.017958561 3.3514383 0.6108248
2.7034144 0.4961421 0.0027365629 -0.24458586 1.0408229 -0.104664706 1.052351 -0.047920533
-0.05195159 0.9759316 0.03979129 -0.012672623 -0.053814165 0.07671985 2.6188464 0.013569877
3.6297166 2.2828581 1.1972905 2.6937652 1.6326168 0.9451087 0.8663932 0.3092234
0.019457037 1.4723779 2.2226493 2.2509718 0.72471035 2.6895328 3.0608153 0.02062584
2.9106212 0.08699557 -0.043307275 -0.08604658 0.021540591 -0.08329487 2.6554472 2.0839758
0.021105055 0.043651797 0.045753796 0.90680784 0.01883842 -0.034540825 -0.053217012 2.2236814
0.08702434 -0.00046762824 2.5604343 0.0912398 1.3829172 -0.008893483 0.010509564 1.4836732
0.06914054 0.077112325 2.896064 2.359046 1.7165716 1.7896519 1.5396101 1.8499497
3.319483 1.4334108 2.9680798 3.2876928 0.07580898 2.1184676 -0.014723641 0.726325
2.2013545 2.4781265 -0.0080851205 0.023407768 -0.0681908 0.029866302 2.6722639 1.9817675
0.0015809091 2.1627326 0.0017700202 1.4504542 2.4855938 0.06066875 0.08075632 0.055094626
2.9647045 0.016603297 -0.04433267 1.9594277 2.379762 1.3134135 0.07992045 0.605608
1.8752817 -0.049580645 -0.027321503 0.5667257 -0.07982736 -0.03967621 0.101023704 -1.035105
1.4116578 2.9231932 2.203063 2.073621 -0.057910465 0.47357017 3.4701242 -0.13840298
-0.011952518 -0.9374416 1.6363583 3.1007123 1.9150069 0.0053278855 2.1118915 0.06986829
-0.021915004 -0.068251304 0.081942275 1.7183236 0.017856292 0.026402773 3.3564768 0.63779116
1.6244344 0.44015026 0.074905805 0.113642305 0.44166687 -0.13979739 0.98203224 0.088246815
0.029398413 1.2192268 -0.028350396 0.07782276 -0.052164398 0.014793033 3.8182118 0.06761386
3.5740075 2.8479013 1.3301505 3.2264435 1.4970543 1.2127886 0.74903965 0.80035627
0.05615988 1.5655198 2.2126899 2.1394095 1.0330569 2.440274 2.4150999 0.057567544
1.1048204 0.059549928 -0.074858576 -0.034654792 -0.031580586 -0.065264374 2.8540127 2.4202843
-0.009822364 -0.043148216 -0.104077965 0.92917 0.027132263 -0.051458713 0.019163437 2.272608
0.052719362 0.05100721 2.1908412 -0.027393071 1.1906396 -0.029841594 0.010978043 1.6229887
-0.026907481 -0.031067293 3.1940458 1.588398 2.428832 1.7878577 0.58784753 2.0560515
3.5645244 2.185281 2.4261515 1.9527426 -0.0726724 2.5077798 -0.07574068 0.74859536
2.311788 1.6652005 -0.04660386 0.04645 -0.021237904 0.035281263 4.5034046 1.7692533
0.1147897 1.987587 0.006322461 1.6901317 2.3121746 0.05745791 0.07581488 0.016471064
3.0918624 -0.06767672 0.070042126 1.96502 1.8138192 1.1267343 -0.0338958 0.70483375
1.6387411 0.07209552 -0.056082357 0.619002 0.078181036 -0.010601871 -0.05051589 -1.075059
1.6736395 3.1681204 1.9781096 2.2985976 -0.013091319 0.66597295 3.4614239 -0.031088986

net.4.bias f4 [13]
00000000: 1b26 eb3f bbd4 6f3f 2c1b 9f3f 4c6b d53f
00000010: 5823 b83f b490 ce3f 6ee2 973f c577 683f
00000020: 9b04 1d3f 3cea 933f f214 933f 014c 913f
00000030: 4b6e 913f
1.8371004 0.93683976 1.2430167 1.667337 1.4385786 1.613791 1.1865976 0.90807754
0.6133515 1.1555858 1.1490767 1.135132 1.1361784

net.0.weight f4 [128, 45]
00000000: 7188 46bd 7f64 2abe 89fa b5bf d172 18bd
00000010: 45a4 b43e 13d7 f83f 567f a1be 0b88 61bf
00000020: d6ec 44be 4ae1 72bf 80a0 34c0 b150 eebf
00000030: 7951 4cbf 7023 09bf fac2 bcbd 6e3a 42c0
00000040: c69e 593f 18af fcbf 885e 093f ec1e 1d3f
00000050: c0c2 90be addd b53e b8fd 833d 54e7 78bd
00000060: aa62 883e ec41 503f 66d3 313f 9584 13bf
00000070: d6a0 a63f 3d50 0d3e 4ea9 8f3f 7dd7 c9be
00000080: b998 983f 3a42 223f ede9 d0be 68fa 0ebf
00000090: 914c 31bf 4825 803f ebdc 4abf 864c f33c
000000a0: abd8 ccbf a392 053f f6a3 aa3d 305d 0f3d
000000b0: 3570 e83e 9871 b5bd 602d ca3e c3ce 67be
000000c0: 2247 2b3d e942 fdbd 1dbd debc ae00 34bf
000000d0: d010 473f 1536 d8bf a8aa 1fbf 928f c83f
000000e0: c029 d03f 8cba b13f b380 613f ac42 093f
000000f0: d83c 983f 7c1e 12be 7cb9 b43f 47fd 343f
00000100: d2ce 0c3f 0650 fb3e ff38 17bf 1f92 d63e
00000110: b2ac 263f b7da 283e 5436 383f fefe 623e
00000120: 0eaa 8c3e 05c3 a7bd 2b76 963e cf20 35c0
00000130: 35cb 513f f52d 16c0 592b e23e e62b fd3e
00000140: 2849 aebc a4c0 7c3f 1ce3 42bf 63b1 993e
00000150: 6286 633f 94b4 8ebd 6fef c33f 3a9f 98be
00000160: 5cba 763f dabc b4be 4d9b 12bf 3298 d9be
00000170: bd06 41bf ee6e e03e 2597 a63e 2543 963e
00000180: db37 7b3f 1d31 74bf 01b1 9c3f 2b58 313f
00000190: 4f7e 0d40 8d74 c03e 354c 24be 7ae6 c1bf
000001a0: 1963 7cbf f576 82be a79b 05c0 7afa 863f
000001b0: 5218 52bf d6b7 e6be 0026 423e ec65 fb3e
000001c0: 6606 b03e 6df9 72bf a97c d1bf 0db3 67be
000001d0: 5f98 813f 55fd d33f b2af 0040 386b 803f
000001e0: 657f 6a3e da06 473f 5c0c 04bd 6b04 673f
000001f0: ddb0 9b3e fea5 873f 2264 533d 175a 7f3d
00000200: a6a8 0bbf 912f 16bf 1735 92be 6971 303f
00000210: 21cf 6dbe 74e4 513f 6d06 a03e 95be a9be
00000220: 7003 633f f5aa 07bd 2182 f33f a3ae 09bf
00000230: fdf3 1f3e eed2 b5be 0a73 33bf 9af3 7cbf
00000240: de34 1c3d 27c1 90bf 3759 60bf 5fba dc3f
00000250: 811a babe 1d06 81bf 6665 d83c 4940 a7bf
00000260: 7758 ebbf 5a80 f3be 28b2 433f 53b3 7d3e
00000270: c1a3 913f cdeb 80bf 2ee6 cc3c 66ae 91bd
00000280: a653 d2bd ec8d 113e ff7a 823e 2fdb 1f3f
00000290: 6ad9 19bf 2373 9cbf b535 1fbf 72d3 c5bd
000002a0: a58a f03d 6403 4f3f 4d19 f93e ad8c f1be
000002b0: 0de1 143e 6025 fcbf 7295 023f f162 09bf
000002c0: 2b0c c5be f02f 24bf 3568 6b3f f739 bcbe
000002d0: 7a32 c1bb 03a8 c33c 8b81 2ebf 11d6 313e
000002e0: bae6 bc3e 3c46 abbf aade a7bd 90f5 7ebd
000002f0: 8d2f 9fbd 0bef 9d3e 27e4 9fbf cc79 9d3f
00000300: e09d c5bf 90cc fb3d 1420 46be 0e4f 73bf
00000310: 814d 3abf fa18 76bf 4379 f13c 3b8e 9fbe
00000320: 33cd a8be c4d9 0d3e ef0f cb3e ba47 e63e
00000330: 81d6 193e 3f81 8bbd d2e8 b33f e343 133f
00000340: 5faf 853d 8b68 c93e 3507 0c3f b856 073e
00000350: 4475 b8be 6400 243f 0e5f 5ebf 2512 b7bf
00000360: 77b6 e7be 9357 4abf 71b1 eabf ad2b e03d
00000370: 3e70 6dbf 26e6 a2be 6aca b5be 5897 2dbe
00000380: e0cf d13e c19e 24bf 1cd5 e8bc b07d 10be
00000390: 3cb4 243f 83ff c93e a65a 583f d67d 04bf
000003a0: f4c4 0a3f aed5 0fbf 0042 53bf c348 2840
000003b0: 65b1 b43f 659a 0e3f 1bee c73f 36ca f13e
000003c0: 1aa8 803c e764 683e fd5f be3e 902e 4f3f
000003d0: 39a2 343d 6016 393e 1c9e 3abf b1a1 43bf
000003e0: d137 89bf 0129 3c3f bd2f 4fbf 8e5d 1e3f
000003f0: 8539 283f 1179 3d3f 2ef0 093d 3c11 b83e
-0.048469964 -0.16639899 -1.4217082 -0.037218872 0.35281578 1.9440635 -0.31542462 -0.8809821
-0.1923097 -0.94875014 -2.8222961 -1.8618375 -0.7981182 -0.535697 -0.09216876 -3.0348163
0.85007894 -1.9740934 0.5365987 0.6137531 -0.28273582 0.35520688 0.064448774 -0.060767487
0.26637775 0.8135059 0.69463193 -0.5762418 1.3017833 0.1380014 1.1223543 -0.39422217
1.1921607 0.63382304 -0.4080347 -0.5585084 -0.69257456 1.0011377 -0.79243344 0.029699575
-1.6003622 0.52176875 0.08332054 0.03500098 0.45398107 -0.08859557 0.39487743 -0.22637467
0.041815884 -0.12366278 -0.027189786 -0.7031354 0.7776003 -1.6891505 -0.62369776 1.5668814
1.6262741 1.3885055 0.88087004 0.5361736 1.1893568 -0.14269441 1.4119105 0.7069897
0.5500308 0.4908449 -0.59071344 0.41908357 0.6510726 0.16489683 0.719579 0.22167584
0.2747349 -0.08191494 0.2938703 -2.8301275 0.81950694 -2.346555 0.44173697 0.49447554
-0.021275118 0.98731446 -0.7612779 0.30018148 0.88876927 -0.06968036 1.5307444 -0.2980898
0.9637811 -0.35300332 -0.5726822 -0.42498928 -0.75400907 0.43834633 0.3253719 0.29348102
0.98132104 -0.9538744 1.2241517 0.6927516 2.2108343 0.3758892 -0.16044696 -1.5148461
-0.9858871 -0.25481382 -2.0876253 1.0545189 -0.8206836 -0.4506213 0.18959808 0.49101198
0.34379882 -0.94911844 -1.6366168 -0.22626896 1.0124625 1.6561686 2.0107236 1.003272
0.2290016 0.7774483 -0.03223835 0.90241116 0.30408373 1.0597532 0.051609166 0.062341776
-0.5455421 -0.5866633 -0.2855613 0.6892305 -0.23223545 0.81989217 0.31254902 -0.33153215
0.8867712 -0.03312202 1.9024087 -0.537821 0.15620418 -0.3551249 -0.7009741 -0.98809206
0.038136356 -1.1308945 -0.8763613 1.7244376 -0.36348346 -1.0079991 0.026415538 -1.3066493
-1.8386372 -0.47558862 0.7644372 0.24775438 1.1378099 -1.0071961 0.025012102 -0.07113342
-0.10269861 0.14214295 0.25484464 0.6244382 -0.6009737 -1.2222637 -0.62191325 -0.096594706
0.11745194 0.8086455 0.48652115 -0.4717764 0.14538975 -1.9698906 0.51009285 -0.536666
-0.38485846 -0.64135647 0.9195588 -0.36762974 -0.00589591 0.023883825 -0.68166417 0.17366816
0.3689478 -1.3380809 -0.08196767 -0.062245905 -0.077727415 0.30846438 -1.2491502 1.2302794
-1.5438805 0.122948766 -0.19348174 -0.950425 -0.7277451 -0.9613186 0.029476767 -0.311632
-0.32969055 0.13852602 0.39660594 0.44976598 0.15023233 -0.06811761 1.4055426 0.5752546
0.0652759 0.39337572 0.546985 0.13216674 -0.36026967 0.64063096 -0.8686379 -1.4302412
-0.45256397 -0.7903988 -1.8335401 0.109458305 -0.92749393 -0.31816214 -0.35505992 -0.16952264
0.4097891 -0.6430474 -0.028421931 -0.14110446 0.64337516 0.39452752 0.8451332 -0.5175451
0.54206777 -0.56185424 -0.82522583 2.629441 1.4116637 0.5570434 1.5619539 0.47224587
0.015705157 0.22694741 0.37182608 0.80930424 0.04410002 0.18074942 -0.72897506 -0.76418597
-1.0720159 0.73500067 -0.8093222 0.61861503 0.6571277 0.7401286 0.03367632 0.3595065

net.0.bias f4 [128]
00000000: 996e 473d 36ef 2d3f 32ac 363d c86f c6be
00000010: 226f 5c3f 77d8 d33e 246b 0b3f d393 9d3f
00000020: 5615 233b 9027 84be 3b0f 5b3f ba9b 9a3e
00000030: 6a9e 7f3f 63b9 7c3f 02c4 3c3f 2994 38bf
00000040: 2021 4a3f a2fd 013f 9221 063e ffbe 28bf
00000050: b3e0 bc3e b6e1 26be 7dfa a83e 8c47 013f
00000060: c8e8 483f dc7e 0d3f 1353 6dbd 1b2c e3be
00000070: 40c7 8f3d 6a5b c73e 66e8 a93b 0a8f 9ebe
00000080: e6bc 613f 7a91 ebbe 141f eb3d dee9 c9be
00000090: 3c5d 9e3f d53c 313d 8223 8fbd 014a 743f
000000a0: a049 cd3e 8597 afbe d7ed 823f 7aad f0bd
000000b0: b9ff fb3e 4305 e5be 3ab5 79be a4c2 093f
000000c0: 5cd9 453f d40a 9abd 2d81 4c3f 5032 a53e
000000d0: 0604 9bbe 2ba8 763f bb9d 87bd d507 ee3d
000000e0: bf22 ca3e 0a27 fb3e dc7b 033f 82f6 a93f
000000f0: 2802 4f3f ecb3 30be e5a1 fc3e 2329 883f
00000100: 8c2d 0b3f 041c 663e 3e7c f53e 2cf1 2a3f
00000110: c1dc 2b3f 1c8b 04bf 22e0 25bf 3d09 813e
00000120: 6917 1e3f ea56 463f 3d32 313e 2236 2e3f
00000130: 7271 11be 1519 47be a8a0 013f b36b 4c3c
00000140: 12cf 143e e2ec 8a3e 9d1a 273f 523b 983f
00000150: a48e ab3e 01ba 733e 8d32 83be 8f1a 643f
00000160: a509 7c3f da66 2c3f 8c5b 973e b6f0 17bf
00000170: 522b a3be 46a0 7b3f 0563 903f c027 ae3e
00000180: f78f e33e ed68 043e 70d7 2b3f 306e d9be
00000190: 6ea6 b8be 8009 44be 1b81 35bd 4c07 4ebe
000001a0: acc1 a13e c48b d1be 9e12 71bf db48 a13d
000001b0: c7db e7be 880c 553f 6fa2 95be 5639 1fbe
000001c0: c9af c9be 3fc3 833f 12e2 6a3d 6bc0 1fbe
000001d0: 5a6d 5e3f ef01 0abe c983 153f a7c7 a03e
000001e0: 88ea 073e 77c4 08bf 21df d93e 0eb1 9c3e
000001f0: 5899 a1be 4456 113f a33d b1be 2207 1d3b
0.04868946 0.6794313 0.044597812 -0.38757157 0.86107075 0.41376087 0.5446036 1.2310737
0.0024884543 -0.25811434 0.85570115 0.30196935 0.99851096 0.9872038 0.73736584 -0.72101074
0.78956795 0.5077764 0.13098744 -0.65916437 0.36890182 -0.1629704 0.33003607 0.50499797
0.78480196 0.552717 -0.057940554 -0.44369587 0.07020426 0.3893693 0.0051851748 -0.30968505
0.8817886 -0.46009427 0.11480537 -0.3943624 1.2372203 0.043270905 -0.069891945 0.9542542
0.40095234 -0.34295288 1.0228833 -0.11751838 0.49218538 -0.44730577 -0.24385539 0.53812623
0.7728479 -0.075215966 0.79884607 0.32264948 -0.30276507 0.96350354 -0.066218816 0.116225876
0.39479634 0.49053222 0.5136087 1.3278353 0.80862665 -0.17256135 0.49342266 1.0637554
0.54366374 0.22471625 0.47946352 0.6677425 0.6713372 -0.51774764 -0.64795125 0.2520236
0.6175447 0.7747637 0.1730432 0.6805135 -0.14203432 -0.19443162 0.50635767 0.012476849
0.14532116 0.27133852 0.65274984 1.1893103 0.33507264 0.23801424 -0.25624505 0.89103025
0.98452216 0.6734444 0.29562032 -0.5935167 -0.31868988 0.9829143 1.1280218 0.34014702
0.44445774 0.12930651 0.67125607 -0.4246688 -0.36064476 -0.19144249 -0.044312578 -0.20119971
0.31593072 -0.40926945 -0.9416903 0.07875224 -0.45284864 0.83222246 -0.2922549 -0.15549216
-0.39391926 1.0293959 0.057344504 -0.15600745 0.8688561 -0.134773 0.58404213 0.31402323
0.1327306 -0.5342478 0.42553046 0.30603832 -0.31562304 0.56772256 -0.34617338 0.002396055

net.2.weight f4 [128, 128]
00000000: 6b2b 8fbd 5e74 cabd e41f e9bd 2997 b33d
00000010: 8d57 403d 7e6a 36bd 5524 00be dad5 f9bd
00000020: 3971 94bd d81c 81bc 4942 fdbc 1000 283c
00000030: ae89 f73b 0fd1 483d 6238 53bd ac53 2abd
00000040: cabd 0e3d 74c9 94bd 0116 e6bd 9628 00be
00000050: d98a a2bc 3561 32bb b761 1ebd eba1 933d
00000060: faf1 eebd 90cf 88bd ccf4 583d 6f5f 30bd
00000070: 8f05 80bd 4c93 cdbd 8354 3e3d 800c 77bb
00000080: cea0 463d b462 763c 72a8 24bd 17cb 4abc
00000090: 8ae1 e3bb d620 d4bd 5390 bc3c 7a4a 233c
000000a0: 2b2d 3bbd b18c 0d3d 38cf 94bd 02ee 1d3d
000000b0: 3d2b f33c 5b33 b7bd 3deb b13d 97a3 963d
000000c0: ff14 f0bc 86d9 263d 545a 23bd de1b 233d
000000d0: 4ee2 463d 3c6e 85bd 4d3c 69bc b608 683d
000000e0: 15f5 7ebd 072e ccbd d3cd 86bc aae6 ed3c
000000f0: 6086 793c 183b c1bc ecfc bebd b4d6 f5bd
00000100: 4c6f efbd 5583 04be 3d54 243c 769e 553d
00000110: 0bd2 2fbd e04b b3bd 9cb7 69bd 67dc ecbd
00000120: b08a 30bc ddd0 43bd 234a b2bd 7dd2 0bbe
00000130: 6f9d 44bc 8c7b 343d f432 60bd 74f8 6f3a
00000140: 3a6f 7a3d 3a9e 31bc cd90 70bd f0cd c23c
00000150: 62be 8bbd 94b5 91bc be02 433d 15cc d33c
00000160: a039 02be 7263 73bd ae07 943c 7926 403d
00000170: 2036 743b 5db0 b9bd 0963 d53c 6061 38bb
00000180: b9da f13c f40a a0bc d378 e93c 2538 943c
00000190: 98c4 39bd 6a55 8dbd 014d 0a3d 9c2e a5bd
000001a0: 80dc 333c f3d2 25bd f0ac b4bd e514 993c
000001b0: 5a99 b6bd 7d8c 7abd 79ca 583d 6128 9bbd
000001c0: 7f2c 83bd 5bfc a7bd e6ab 983d 04f9 a9bd
000001d0: a02d 62bd ca10 053d 40ab 8ebb c03e cd3c
000001e0: 18fe 03bd 2a0a 6f3c 1dab 10bd 0123 3e3d
000001f0: 3176 afbd c610 2f3c 4fa1 a3bd 7e07 d1bd
00000200: b091 c93c 7666 a13f c01c 8f3f 21c3 623f
00000210: eb89 cf3e c550 b43f a0da 683f d90e 48be
00000220: 10ae 283f d542 923f e28c 823f 19d1 003f
00000230: 70ae 893e 41cd 8bbf bd08 f23f 698f c7bf
00000240: ced2 7d3e 2d63 24bb 7eb8 d8bd 0478 7fbf
00000250: da0b 36bf c473 92bc f7e8 8f3f e451 3d3f
00000260: a7e1 90bd 4566 973d 4e53 93bf 7147 4d3e
00000270: 2279 c4be 5658 b0bf b6ff 32bd 0106 a4be
00000280: d1dc 963c 576f 8a3f 2f25 75bf b744 9ebf
00000290: fd6f 1abe 42d4 98bf b883 8e3f 2196 133f
000002a0: e4cf 723f c4b3 953d 1854 a5bd 0985 4dbf
000002b0: 76e3 b5be 8dc3 3a40 89c2 0ac0 3620 dbbf
000002c0: 7665 3fbf 3232 43bd bba6 813f 4593 4840
000002d0: 1736 7d3d 9f3e 953e 77bf a13d de63 53bf
000002e0: f13f 9dbf 9f43 dabe 7e39 543f b825 24bf
000002f0: fece 87be 2f86 e53f 355c a5bf 7535 babe
00000300: 1e41 743e e1ec 8cbf f4bd 8dbf e4eb 5b3f
00000310: 037c 86bf 29c2 7d3f 29f6 12c0 f50f 953f
00000320: 968e 9dbf 9215 42bf 0239 5b3e 5cb8 4bbf
00000330: 58d7 83bf 8b78 2f3f 146d a5bf eb72 aabe
00000340: 14d8 8e3f 5560 4e3f dac4 46bf ff5d 0bbe
00000350: d40c 97bf a185 043f be76 a5bf de57 963f
00000360: 994e bd3e 5d9a 0740 d5d0 c83f 4636 d5bf
00000370: 8721 773e 05a6 153f 4838 763d 6f9e cebd
00000380: 0105 803e 709a 53bf e12e 6a3f 94d1 03c0
00000390: 43a7 b63d b759 a03d 9337 53be 8143 663f
000003a0: 9836 73bd 5f58 0dc0 a068 6dbf b7a8 993e
000003b0: 304d bebe ff7d 1f3d e8da 39bf 52b3 43be
000003c0: 5211 c5be ea65 9cbf b84e 9a3f 1cd9 0c3f
000003d0: 354b 84bf fceb 08bf 03db 5bbf caf0 70bd
000003e0: fcda 82bf 4f1a 3ebd cc28 3a3d 44fd 28bd
000003f0: efe9 1f3d 20e2 6dbf f122 a1be d3ff 4dbe
-0.06990703 -0.098854765 -0.11383036 0.08769066 0.046958495 -0.044535153 -0.1251386 -0.12198992
-0.07248158 -0.015760824 -0.030915396 0.010253921 0.0075542545 0.0490275 -0.051567443 -0.041583702
0.034848966 -0.07264987 -0.11234666 -0.12515482 -0.019841598 -0.0027218584 -0.038667407 0.07208618
-0.11667247 -0.066802144 0.05296783 -0.043059763 -0.0625106 -0.1003786 0.046467315 -0.003769666
0.0484932 0.015038181 -0.040199704 -0.012377522 -0.0069543766 -0.103578255 0.023018038 0.009966487
-0.045697372 0.034558002 -0.07266086 0.03855706 0.029683704 -0.08945342 0.08687446 0.07355421
-0.029306887 0.04073479 -0.039881065 0.039821498 0.048555665 -0.06515166 -0.014235568 0.056648932
-0.062245447 -0.099697165 -0.016455567 0.029040653 0.015229791 -0.023587748 -0.09325585 -0.12003842
-0.1169115 -0.12940724 0.01002985 0.052153073 -0.042924922 -0.087547064 -0.05705987 -0.11565476
-0.010775253 -0.04780661 -0.08705547 -0.13654514 -0.012000426 0.044063136 -0.054736093 0.0009154149
0.06114123 -0.010840947 -0.058731843 0.02377984 -0.06823422 -0.017786779 0.047610037 0.02585415
-0.12717295 -0.05942101 0.018070068 0.04691169 0.0037263706 -0.09066842 0.0260482 -0.0028134212
0.02952324 -0.019536473 0.028499996 0.018093178 -0.045353502 -0.06901057 0.033764843 -0.08065531
0.010977864 -0.04048438 -0.08822048 0.018686721 -0.08915968 -0.061169136 0.052927468 -0.07576061
-0.06404971 -0.0820243 0.07454662 -0.08299449 -0.055219293 0.032486714 -0.0043539107 0.025054336
-0.032224745 0.014589826 -0.035319436 0.0464201 -0.08567465 0.010685151 -0.079897515 -0.10206507
0.024605602 1.2609394 1.1180649 0.88578993 0.4053491 1.4087149 0.90958595 -0.19536914
0.658906 1.1426646 1.0199244 0.5031906 0.26890898 -1.0922014 1.8908917 -1.559064
0.24787447 -0.0025083527 -0.10582064 -0.99792504 -0.71111834 -0.017877467 1.124297 0.7395308
-0.0707429 0.07392553 -1.1509798 0.20046784 -0.38373667 -1.3776958 -0.043700896 -0.3203583
0.01841584 1.0815228 -0.9575986 -1.236472 -0.15081783 -1.1939776 1.1133947 0.57650954
0.94848466 0.07309678 -0.0807268 -0.8028112 -0.355251 2.9181855 -2.1681235 -1.7119205
-0.7476419 -0.04765529 1.0129007 3.1339886 0.061819162 0.2914934 0.07897847 -0.8257426
-1.2285138 -0.42629716 0.82900226 -0.64120054 -0.2652511 1.7931575 -1.2918764 -0.3636891
0.23852965 -1.100979 -1.1073594 0.85906816 -1.0506595 0.9912439 -2.2962744 1.1645495
-1.2309139 -0.75814164 0.21408466 -0.79578185 -1.0300093 0.6854331 -1.2923913 -0.332908
1.1159692 0.8061574 -0.7764412 -0.13610075 -1.180079 0.517664 -1.2926862 1.1745565
0.36974028 2.1187966 1.568873 -1.6657188 0.24133883 0.5845645 0.060112268 -0.100888126
0.25003818 -0.8265753 0.9147778 -2.0596666 0.089186214 0.07829612 -0.20626669 0.8994675
-0.059378237 -2.2085187 -0.9273777 0.30011532 -0.37168264 0.03893852 -0.7259965 -0.19111374
-0.38489777 -1.2218602 1.2055273 0.5501878 -1.0335451 -0.53485084 -0.8588106 -0.058823384
-1.0223079 -0.04641181 0.045449063 -0.041257158 0.039041456 -0.92923164 -0.3147197 -0.2011712

net.2.bias f4 [128]
00000000: e73c 2abd b9f6 39bf 824a 8d3f 5c12 323f
00000010: aa80 c83e cd2f f8bd fefc 563f 3696 c3bd
00000020: d8a4 05be a811 cbbd f71a 36bd efc1 b23e
00000030: 02e3 e6bd abba 21bd 2b94 103f 9b96 0140
00000040: bbad 113f 83ff f23f fc28 80bd b931 86be
00000050: 7cb3 ff3f b25d f6bd 1833 3240 10f0 edbd
00000060: 1a22 12be 499d 9e3f 3990 c9bd f031 2bbc
00000070: bc53 bdbd 5727 e7bd b020 6b3f c670 a5bd
00000080: dce0 6f3f c7ad 4f3f 00eb 793e 224e 6e3f
00000090: cddc 463f 4815 963f 0fd8 1a40 a230 d93f
000000a0: 9339 8c3d fa72 853f 6f53 a93f ce6a 8c3f
000000b0: e478 b33f 89a6 8c3f fc97 8a3f 1bdf 97bd
000000c0: c156 873f 3e85 b7bd f501 71bd 5df4 11be
000000d0: 179a 0abe 33da 63bd fd24 983f 56e4 8c3f
000000e0: 5e6b bcbc 2e3e f13c 6c85 a7bc 2f39 2340
000000f0: 8072 14bd e85b 8bbd 2b40 14be 7e82 a03f
00000100: 8a2e 0c3c be78 e8bd 6428 5c3f 860a 66bd
00000110: 2d6d 993f 61ea 1bbd fa7b 63bd fc47 9a3f
00000120: 5b85 b5bd ff2c d1bd 07a7 823f ba82 863f
00000130: ff97 6c3e b146 803f 9804 af3f 5004 013f
00000140: b7f3 583f 9501 093e 0b08 063f 3c10 913f
00000150: a3f8 c7bd dab5 453f caa1 6ebc 2c06 e23f
00000160: a6a2 8b3f 46a2 113f efb7 12be b5cd 4dbd
00000170: f037 c3bd d28a 993a 6c47 8c3f 311e 933f
00000180: f001 79bc 64b5 4c3f 394e 8a3c 0f0a 9c3f
00000190: 7253 333f 374f 503c 6deb b4bd 1a83 dcbc
000001a0: 3a22 473f 9e00 91bd f814 bfbd e82e da3f
000001b0: d185 923e ce24 d73f 41b6 ddbd 6f92 1340
000001c0: 48c7 8b3f 898e e9bd 1d0d 74bd 0ff7 1a3c
000001d0: f9a4 babd 5c21 afbd 197d 64bd 27ff 0cbf
000001e0: 38ce 8d3f 52e4 6c3f 1d92 173f d77e 553f
000001f0: d9f5 09be b911 f43f 9366 8f3f 2ed8 20be
-0.041561987 -0.72642094 1.1038363 0.69559264 0.39160663 -0.12118492 0.83979785 -0.09550135
-0.13051164 -0.09915477 -0.04445931 0.34913585 -0.11273767 -0.03948466 0.56476086 2.0248172
0.56905717 1.8984226 -0.06257817 -0.2620981 1.9976649 -0.1202959 2.7843685 -0.11618054
-0.14270821 1.239175 -0.098419614 -0.010448918 -0.09244487 -0.112868 0.9184675 -0.080781505
0.93702483 0.8112454 0.24406052 0.9308797 0.77680665 1.1725245 2.4194372 1.6967967
0.06846919 1.0425713 1.3228587 1.0970094 1.4021268 1.0988322 1.0827632 -0.07415601
1.057335 -0.08960961 -0.058839757 -0.14253373 -0.13535343 -0.055628013 1.1886288 1.1007183
-0.023000415 0.029448595 -0.020449363 2.5503652 -0.03624201 -0.06804639 -0.14477603 1.2539823
0.008556018 -0.11351155 0.8599913 -0.05616238 1.1986443 -0.038065318 -0.055538155 1.2053218
-0.08863326 -0.102136604 1.0207223 1.0508645 0.23104857 1.0021573 1.3673277 0.50397205
0.8474688 0.1337951 0.5235602 1.1333079 -0.097642206 0.7723061 -0.014564941 1.7658134
1.0909011 0.56888235 -0.14327978 -0.050245006 -0.095321536 0.0011714345 1.0959296 1.1493589
-0.015198216 0.7996428 0.016883003 1.219057 0.700492 0.012714199 -0.088339664 -0.026917983
0.777866 -0.07080196 -0.09330171 1.7045565 0.2861772 1.6808107 -0.10825778 2.3058126
1.0920191 -0.114041395 -0.05958282 0.009458317 -0.09113497 -0.08551285 -0.055783365 -0.5507683
1.1078558 0.9253589 0.59207326 0.8339667 -0.1347269 1.9067909 1.1203178 -0.15707466

net.4.weight f4 [13, 128]
00000000: b1c9 98bb 4032 90bf 88ff d03f 9408 4240
00000010: d04d d13f 77f0 fabc f014 d43f 12a6 4f3d
00000020: ded2 3e3d 134d 27bd 4e55 483d f6df fe3f
00000030: beac 093d d51d 93bc 897e 5640 980e 1d3f
00000040: 0ef9 2c40 867b ff3e e857 333b b774 7abe
00000050: 7291 853f 735a d6bd 3113 873f 5248 44bd
00000060: 31cb 54bd 32dc 793f 31fc 223d d5a0 4fbc
00000070: 3e6c 5cbd 4c1f 9d3d dbd5 2740 3054 5e3c
00000080: d5a2 6840 6a5a 1240 d140 993f 3f9f 2c40
00000090: 7d7d d13f 61fd 723f e789 5e3f 7bd9 9f3e
000000a0: 5d64 9f3c e51b bd3f 56bd 0e40 4c77 1040
000000b0: d084 3a3f e261 2c40 ede7 4340 86f7 a83c
000000c0: c11c 3a40 bc2a b23d f862 31bd 3039 b0bd
000000d0: e575 b03c 8096 aabd 9809 2a40 6293 0540
000000e0: 82e4 ac3c 3acc 323d 5568 3b3d a2e0 683f
000000f0: 0853 9a3c ae7a 0dbd 15fa 59bd 76a3 0e40
00000100: d139 b23d 002c f5b9 d7fe 2340 efdb ba3d
00000110: cdbe b13f f9b5 11bc 4e30 2c3c 2d15 be3f
00000120: 8e99 8d3d 11ed 9d3d 6074 3940 4039 1740
00000130: 1e58 dc3f 46c4 e53f bf5a c53f 4569 ed3f
00000140: c2c6 5440 2230 b83f efbd 3d40 0f55 5240
00000150: bd41 9b3d 0230 0840 6d3b 71bc 7699 3a3f
00000160: 1f3b 0d40 56ce 1e40 7477 04bc a6c1 bf3c
00000170: 9ea7 8bbd 2daa f43c 08fe 2a40 a835 fe3f
00000180: 8236 cf3a 29e0 0a40 0600 e83a 0b13 ba3f
00000190: 99ff 1e40 cc7f 783d 9263 a53d e7aa 613d
000001a0: 7d17 3e40 a303 883c 2c96 35bd 7454 fb3f
000001b0: 565f 1840 1d0c a83f 55ad a33d b2c8 1b3f
000001c0: 1bb3 f03f 1315 4bbd 58d1 dfbc ef14 113f
000001d0: 877c a3bd 8683 22bd 84e5 ce3d 317d 84bf
000001e0: 5b16 b53f c3ef 3a40 9970 0d40 30c2 0440
000001f0: 8633 6dbd ddc4 f33e 3910 5e40 83b9 0dbe
00000200: 7ed4 43bc 7c53 70bf 8399 d13f db4b 4640
00000210: f21e f53f 8b95 ae3b 2b09 0740 1b17 8f3d
00000220: 1887 b3bc 57c7 8bbd 5ad1 a73d 5f9d db3f
00000230: 5c47 923c a14a d83c 86cf 5640 28db 223f
00000240: 76a4 cf3f 6bf3 e03e 3768 993d 4cbd e83d
00000250: b867 e13e 0c27 0fbe 08e1 7a3f bfba b43d
00000260: f1d4 f03c 0e88 9c3f 173f e8bc 8a61 9f3d
00000270: 56aa 55bd 7a5e 723c de2b 7440 2379 8a3d
00000280: 3ecf 6440 b223 3640 5f42 aa3f b784 4e40
00000290: 77b9 bf3f 6973 9b3f a147 3f3f 3dbb 4c3f
000002a0: e707 663d 1337 c83f 4f89 0d40 e515 0940
000002b0: ab7a 843f bef8 1b40 6113 1a40 f2cb 6b3d
000002c0: 0da4 8d3f a0ea 733d 744f 99bd 2ff2 0dbd
000002d0: a55a 01bd 54a9 85bd 528e 3640 7918 1b40
000002e0: fbed 20bc 2fbc 30bd d426 d5bd 5267 6d3f
000002f0: 7b44 de3c 5fc6 52bd a4fc 9c3c 2e76 1140
00000300: 42f0 573d f0ec 503d d6ac 0b40 6f67 e0bc
00000310: 3768 983f 5c76 f4bc 40dd 333c 7cd7 cf3f
00000320: 146d dcbc d680 febc 53af 4c40 dc3b cb3f
00000330: 20bd 1b40 75be e43f dd9a 163f 5b81 0340
00000340: 8d53 6440 3506 0c40 8433 1b40 8ce9 f93f
00000350: 44d5 94bd fa36 2040 ee1d 9bbd b66b 3f3f
00000360: d3b2 1340 445f d53f b0e3 3ebd 5b42 3e3d
00000370: 1dfb adbc 1683 103d 9a1b 9040 eaa5 e23f
00000380: dd16 eb3d f188 fe3f a62c cf3b 9b59 d83f
00000390: 0e55 1440 fc58 6b3d d544 9b3d 53ee 863c
000003a0: b1e0 4540 189a 8abd 3f72 8f3d 3e68 fb3f
000003b0: 8b07 e93f 3e9c 903f 53d6 0abd 85fd 333f
000003c0: fdac d13f d1a6 933d 9db6 65bd ea76 1e3f
000003d0: 611d a03d 78b3 2dbc c0e9 4ebd 7719 8abf
000003e0: 153c d63f c758 4a40 f8d7 fd3f 8929 1340
000003f0: f97c 56bc 863a 2a3f 5c68 5d40 54ae febc
-0.0046627154 -1.1265335 1.6327982 3.0317736 1.6351871 -0.03063224 1.656889 0.050695486
0.046587817 -0.040844988 0.048909478 1.9912097 0.033612005 -0.017958561 3.351473 0.61350393
2.702701 0.49898928 0.0027365629 -0.24458586 1.0435011 -0.104664706 1.0552732 -0.047920533
-0.05195159 0.97601616 0.03979129 -0.012672623 -0.053814165 0.07671985 2.6224277 0.013569877
3.6349385 2.2867684 1.1972905 2.6972196 1.6366421 0.94917876 0.8692917 0.31220612
0.019457037 1.4774138 2.2303061 2.2572813 0.72858906 2.6934743 3.0610306 0.02062584
2.908005 0.08699557 -0.043307275 -0.08604658 0.021540591 -0.08329487 2.6568356 2.0871205
0.021105055 0.043651797 0.045753796 0.9096776 0.01883842 -0.034540825 -0.053217012 2.2287269
0.08702434 -0.00046762824 2.5624292 0.0912398 1.3886353 -0.008893483 0.010509564 1.4850212
0.06914054 0.077112325 2.897728 2.3628693 1.7214391 1.7950523 1.5418319 1.8547751
3.3246312 1.4389689 2.9647176 3.2864416 0.07580898 2.1279302 -0.014723641 0.7289041
2.2067335 2.4813437 -0.0080851205 0.023407768 -0.0681908 0.029866302 2.6717548 1.9860125
0.0015809091 2.1699317 0.0017700202 1.4537061 2.4843504 0.06066875 0.08075632 0.055094626
2.9701836 0.016603297 -0.04433267 1.9635148 2.3808188 1.3128697 0.07992045 0.6085311
1.8804659 -0.049580645 -0.027321503 0.5667257 -0.07982736 -0.03967621 0.101023704 -1.0350705
1.4147447 2.920884 2.2099974 2.0743523 -0.057910465 0.47611132 3.4697402 -0.13840298
-0.011952518 -0.9387739 1.6374973 3.0983799 1.9150069 0.0053278855 2.1099346 0.06986829
-0.021915004 -0.068251304 0.081942275 1.7157401 0.017856292 0.026402773 3.3564162 0.63615656
1.6222064 0.43935713 0.074905805 0.113642305 0.44024444 -0.13979739 0.9799962 0.088246815
0.029398413 1.222902 -0.028350396 0.07782276 -0.052164398 0.014793033 3.8151774 0.06761386
3.575149 2.8459287 1.3301505 3.2268503 1.4978474 1.2144595 0.7471867 0.799732
0.05615988 1.5641807 2.2115057 2.1419613 1.0349935 2.437057 2.4074328 0.057567544
1.1065689 0.059549928 -0.074858576 -0.034654792 -0.031580586 -0.065264374 2.8524365 2.4233687
-0.009822364 -0.043148216 -0.104077965 0.9273578 0.027132263 -0.051458713 0.019163437 2.272838
0.052719362 0.05100721 2.182424 -0.027393071 1.1906804 -0.029841594 0.010978043 1.6237636
-0.026907481 -0.031067293 3.198201 1.5877643 2.4334183 1.7870623 0.5883005 2.0547702
3.5675995 2.1878788 2.4250193 1.9524398 -0.0726724 2.5033555 -0.07574068 0.7477373
2.3077896 1.6669698 -0.04660386 0.04645 -0.021237904 0.035281263 4.5033693 1.7706883
0.1147897 1.9885541 0.006322461 1.6902345 2.3176913 0.05745791 0.07581488 0.016471064
3.091839 -0.06767672 0.070042126 1.9641187 1.8205427 1.1297681 -0.0338958 0.70308715
1.6380917 0.07209552 -0.056082357 0.619002 0.078181036 -0.010601871 -0.05051589 -1.0789021
1.6737086 3.1616685 1.9831533 2.29941 -0.013091319 0.6649555 3.4594946 -0.031088986

net.4.bias f4 [13]
00000000: 3a6f eb3f b873 6f3f de8a 9e3f 81fa d53f
00000010: 9301 b83f bdcb ce3f c890 973f b753 673f
00000020: c01c 1c3f 5a07 943f 9042 933f 98a9 903f
00000030: 070e 923f
1.8393319 0.9353595 1.2386129 1.6717073 1.437548 1.6155926 1.1841059 0.90362114
0.6098137 1.1564744 1.1504688 1.1301756 1.1410531
