checkpoints/team2_agent_0.pt (torch, 394913 bytes, 24 tensors)

net.0.weight f4 [128, 45]
00000000: 7c7c ad3e 7d8c fa3e 8906 c83d a995 e1be
00000010: 0e1a debd 66d4 3d3e fcb9 3abd 3d27 c8bd
00000020: d83e 6cbe 86cb d33e a61b 7fbf ca8e c4bf
00000030: df26 9dbf 7e0f 78bf ee9c 293f 609b 8bbd
00000040: d657 76bf 7a86 4bbe 4ac3 66bf 367f 1ac0
00000050: 2f1b 27bf affd cb3f 5e58 a1be 8622 503f
00000060: ca4c 42bf d3d6 65be 5e1b 4140 5a17 9f3e
00000070: 5027 5a3f 26df 36bf 15ef e63e fa5c 703f
00000080: e161 8d3f c8fb 9b3e 24ad 34be 4040 90be
00000090: 0118 c7bf 799d 8cbd 5fd3 18bf ce22 8cbc
000000a0: 71e3 373f b6d0 a3be 8a1c 0d3f 3e96 8bbe
000000b0: 1ead 7dbe 2923 203f cd50 a93f f9d9 09c0
000000c0: 0ab2 673f 7add 993e 497a 273f 2170 2e3e
000000d0: 868e d0bf 3f99 7ebf 0f87 9d3e c740 1740
000000e0: 684b 0a3f 0c21 d63e cffe 0abf 41d6 203f
000000f0: 2563 1dc0 0d57 a13f dcbe febd 036e 7a3f
00000100: f1f0 823e a482 613f ba12 21bf c7de ec3f
00000110: 2482 9bbf 6fdc 473f c6a1 8d3e b55f 453f
00000120: ee2a 52bc 7a84 923e 9557 ac3d 4391 7fbe
00000130: 0cea 1640 51be 33bf c4fd 6e3d 2382 4abf
00000140: 47b0 423f 8390 94bf 35ca 8dba 1e7f 23c0
00000150: 7a5d ab3f ebc9 183f a9cb 49bf 2dfb a1be
00000160: f069 c23e 2f53 333e a97f f43e bc96 05be
00000170: 3482 20bd 1ed5 2c3d 410b 47be 30a5 7a3f
00000180: df07 af3f d4d5 77bf b324 293f 029c 4c3d
00000190: e1cd 29be 4cea b7bf 0320 f6be 5f7c ffbe
000001a0: c8a4 8fbf 9c13 aa3f 134e 08bf db88 9fbe
000001b0: 6122 75bf 9a70 2fbf 319e 58bc 1de0 c3be
000001c0: 8ad8 403f de09 49bf 9782 7e3e 790a 1c3f
000001d0: f3a1 3fbf fe70 43bf 64c0 55bf 9754 9c3f
000001e0: c134 dfbc 00e9 8cbf 2f7a 9d3f 19d9 17be
000001f0: 5f80 0cbf fa66 b5bf d1b1 ef3d d39a 1fbf
00000200: cefc 503e 3b35 04bf 5800 4c3f 96e2 24bf
00000210: 37e4 783f d55f 8cbf b133 ef3c 60a7 4cbe
00000220: e86f cebe c96e 86be a911 03bf 9128 923e
00000230: 1bd6 07c0 6e33 c7bd eed5 f5bf 5708 01be
00000240: f81e 23be a182 8c3f cf62 0fc0 8511 bf3f
00000250: a5bf fabe a246 c9be 01e8 1e3f 42b5 6cbf
00000260: 4529 b53f 4c29 b03d 671b 523e 489f cbbe
00000270: dbbd 503f bb55 60bd f20d f9bd 3eed 043c
00000280: fbd4 95be 86e7 bbbf aa47 193f d071 21bf
00000290: d226 d2be 847b dcbd cdf5 083e 6e6f c43e
000002a0: 1e8c 4e3f 5bb3 dabd b236 aabf 411d 7abd
000002b0: 5274 e0be 26b3 dc3f 8c12 64bf 4e62 eebe
000002c0: b672 45bf 9217 28bf 9d51 fe3e 6bca a13e
000002d0: 986d 253f 8912 d83e 1064 ff3e 0b24 bd3f
000002e0: 13ad 1abf 6231 c53e 0fdd cc3e f156 89bf
000002f0: ea01 ef3e f406 0bbf 5023 09bf 5848 a03f
00000300: d077 b93f be7b be3f a995 a3be c90c e8bf
00000310: d45c 16bf c284 97be b7fb d7bf f868 babc
00000320: 22fc b23e fe94 e9be 15f9 253f fdb4 56bf
00000330: 1bd6 31bf 0af7 6abe ef52 343f c080 6a3f
00000340: 5ef3 d83f f56f 1d3f aa70 893e 6f77 b6be
00000350: 91c8 28bf 2bce 88be 1fb7 4dbf 5bd3 033f
00000360: c62a 9d3e bbe4 7f3f 5b59 d5bf 9a2e 803f
00000370: 0215 9dbe 7f0e 1a3f 1dce 5ebf 561d c43e
00000380: 985a 0bbf e54f 163f fd43 8d3f e7bf 283f
00000390: 2d7d 1ebf 5a1a 0e3e c536 223f 63e7 c13d
000003a0: a8b1 bc3e 7c9d 71be 04e7 8b3e ded2 cb3f
000003b0: 892f b33f 4ce8 3f3f fa1f c93f 313e 98bf
000003c0: 4493 00bf 19be c8bf 7337 c4be 1338 babf
000003d0: 06be 9abd 5b15 803d 7b2f 62bf 5d7f 45bf
000003e0: f20d 83bf 7740 943f 3fbc 033f 371b e63f
000003f0: 98e2 123f 3580 1340 11af fc3e e63b f93e
0.33884037 0.4893531 0.097668715 -0.44059494 -0.10844813 0.18538055 -0.045587525 -0.09773109
-0.23070848 0.41366214 -0.99651563 -1.5356076 -1.2277488 -0.9689864 0.6625508 -0.06816745
-0.96227777 -0.19875517 -0.9014174 -2.4140143 -0.65275854 1.5936793 -0.3151273 0.8130268
-0.7589842 -0.2244523 3.0172954 0.31072503 0.85216236 -0.7143425 0.4510428 0.9389187
1.1045495 0.3046553 -0.17644173 -0.2817402 -1.55542 -0.06865973 -0.59697527 -0.01710644
0.71831423 -0.3199517 0.5512167 -0.27263063 -0.2477307 0.6255365 1.3227783 -2.153929
0.9050604 0.30051786 0.6542097 0.17034961 -1.6293495 -0.99452585 0.30767104 2.3633287
0.5402131 0.41822088 -0.5429506 0.62826926 -2.4591763 1.2604691 -0.12438747 0.97824115
0.2557445 0.88089967 -0.629192 1.8505486 -1.2149091 0.7807073 0.27662486 0.7709916
-0.012827618 0.28616697 0.084151424 -0.24957757 2.358035 -0.70212275 0.05834748 -0.7910482
0.7605023 -1.1606601 -0.0010817709 -2.5546336 1.3387902 0.596831 -0.78826386 -0.31636944
0.3797145 0.17512201 0.47753647 -0.13045782 -0.03918667 0.042195432 -0.19437887 0.97908306
1.3674277 -0.9681065 0.66071624 0.04995347 -0.16582443 -1.4368377 -0.48071298 -0.49899575
-1.1222162 1.3287234 -0.5324413 -0.311591 -0.95755583 -0.6853119 -0.0132213095 -0.38256922
0.7533041 -0.7853068 0.24854504 0.6095348 -0.7485649 -0.7634429 -0.8349669 1.2213315
-0.027246835 -1.1008606 1.2302912 -0.1482891 -0.5488338 -1.4172051 0.11703838 -0.6234562
0.20408937 -0.51643723 0.79688025 -0.6440824 0.9722323 -1.0966746 0.029199453 -0.19985723
-0.40319753 -0.26256397 -0.5119882 0.28546575 -2.122443 -0.09726606 -1.9205911 -0.12600838
-0.15929782 1.0977365 -2.2404058 1.4927222 -0.48974338 -0.393117 0.6207276 -0.9246408
1.415322 0.08601627 0.20518266 -0.3976996 0.81539696 -0.05476926 -0.12160863 0.008113204
-0.29264054 -1.468003 0.59874976 -0.6306429 -0.41045243 -0.10765746 0.13375016 0.38366264
0.8068255 -0.106787406 -1.3297942 -0.061063055 -0.43838745 1.7242172 -0.890908 -0.46559376
-0.7712816 -0.65660965 0.4967164 0.31599745 0.6462035 0.4220164 0.4988103 1.4776624
-0.6042034 0.3851424 0.40012404 -1.0729657 0.46681148 -0.54307485 -0.5356951 1.2522078
1.4489689 1.4881513 -0.3195012 -1.8128902 -0.58735394 -0.29593474 -1.6873692 -0.022755131
0.34957987 -0.45621485 0.64833194 -0.83869916 -0.69467324 -0.229458 0.70439047 0.91602707
1.694927 0.6149896 0.26843768 -0.35637996 -0.6593104 -0.26719794 -0.80357546 0.5149438
0.30696696 0.9995839 -1.6667894 1.0014222 -0.3068009 0.6017837 -0.87033254 0.38303632
-0.5443511 0.5871566 1.1036373 0.6591782 -0.61909753 0.1387724 0.6336482 0.09467962
0.3685429 -0.23595232 0.27324688 1.5923727 1.3998882 0.7496383 1.5712883 -1.1893979
-0.5022471 -1.5683013 -0.38323554 -1.4548362 -0.07555775 0.06254073 -0.883537 -0.77147466
-1.0238631 1.1582173 0.51459116 1.7977055 0.57377005 2.3047001 0.49352315 0.4867851

net.0.bias f4 [128]
00000000: c4d4 a43d ec4a 843f 79d2 15bf 7001 113e
00000010: 4fa2 873f 47b7 503f 6830 2e3d 5f6b 7d3e
00000020: 27fa aabe ab54 903e 29b1 213f 63f7 6f3f
00000030: a23e 2c3e 9218 23be a08d 6abe bae3 c73f
00000040: 3129 3c3f cf8a b83e caa7 2f3f 2e8e 12bf
00000050: 2d74 a03f 5cb1 943f 0507 be3e 4698 cebd
00000060: 3610 7b3f 332b 0ebb 74e0 653e 4960 ac3e
00000070: 32f6 b0bd 3351 d8be 248b 453d a6b4 8abe
00000080: b4ff 2fbf 907b a73c 4213 8ebd 8665 84be
00000090: e882 c83b f27d 293d 7dc8 63be ab1f bfbe
000000a0: 5332 afbe 0546 043d b33d 81be f8d2 a1bd
000000b0: b987 a03f 54bd cb3e 85da 993e 916e a93e
000000c0: e262 833f 5c47 cf3d 1c9b 003f b74c 523e
000000d0: 8d78 873e 6e03 ad3e 4a40 0a3f ba3e 243e
000000e0: 441d febd 6184 c53d b94f 393f 5f3c 1fbd
000000f0: 3f14 d73e 56f3 f23d a369 12be 5082 2d3f
00000100: 7716 003f c492 853e 80c6 f0be a1f1 8b3f
00000110: 9a2b 053f fad9 873e 2783 273e 9c22 6cbe
00000120: ad6d 2cbf 27f7 513f 6086 393d a934 b03e
00000130: f8b9 e2be 66b0 b73f 28f2 2bbe 9975 84be
00000140: 8835 313f 4b3d 5bbe 4c24 273f 76f9 ccbe
00000150: 1a3b 83be 70c7 193d 2e2e a4be 6aae 75be
00000160: 0ad4 ed3e 5cef 11bf a218 f5be 9e8b c13e
00000170: 9e96 88be 368b 33bf ac1a 003f 3dd0 d2be
00000180: 5167 893f 821f 0dbc 258e 973f 3605 463f
00000190: 3d82 fb3e cf08 acbe 340d 01bd 6bfa 83be
000001a0: cad9 4a3f 1591 90be 80bb c33e 52d6 53bf
000001b0: 5024 063f 88ae 1d3f 4e7b a0be 5c66 073d
000001c0: b84c dcbe d3d2 813f cc5e 6ebe 066c 523e
000001d0: fc70 7cbe ef1b a03e b246 9f3f 08e3 8f3f
000001e0: 6490 b03e 50b3 39bf 1987 4fbe 9dc4 4dbf
000001f0: ca1f 213e 9c30 f2bd 49ec 973e 26c8 fd3d
0.08048394 1.0335364 -0.5852428 0.14160705 1.0596408 0.8152966 0.042526633 0.2474799
-0.33393976 0.28189597 0.6316095 0.9373686 0.16820768 -0.15927342 -0.22905588 1.5616372
0.73500353 0.36043403 0.686154 -0.572482 1.2535454 1.1616626 0.3711473 -0.100876376
0.9807161 -0.002169323 0.22448903 0.3366721 -0.08640708 -0.4224945 0.048228398 -0.2709095
-0.68749547 0.020444661 -0.06937267 -0.25858706 0.006119121 0.041379876 -0.22244449 -0.37328848
-0.34218082 0.03229334 -0.25242385 -0.07901567 1.2541419 0.39792883 0.3004953 0.33092168
1.0264552 0.101210326 0.5023668 0.20537077 0.2645916 0.3379168 0.5400435 0.16039553
-0.12407926 0.0964439 0.7238727 -0.038875934 0.42007634 0.11862819 -0.1429811 0.67776966
0.5003428 0.26088536 -0.47026443 1.0933114 0.52019656 0.2653349 0.16358624 -0.23060077
-0.6735485 0.8201775 0.045294166 0.34415177 -0.44282508 1.4350708 -0.16791594 -0.2587097
0.6922231 -0.214101 0.6528976 -0.40034074 -0.25631028 0.037543714 -0.32066482 -0.23992315
0.46450835 -0.5700586 -0.47870356 0.37801832 -0.26677412 -0.70134294 0.500407 -0.41174498
1.0734655 -0.008613469 1.1840254 0.773517 0.491228 -0.3360047 -0.031506732 -0.2577699
0.7923857 -0.2823569 0.3822899 -0.827489 0.5239916 0.6159444 -0.31344074 0.033056602
-0.43027282 1.0142463 -0.2327835 0.2054902 -0.24652475 0.31271312 1.244345 1.124116
0.3448516 -0.72539234 -0.2026638 -0.80378133 0.15734783 -0.11825678 0.2967246 0.12391691

net.2.weight f4 [128, 128]
00000000: 794c 89bb 0fcf d0bd b5cd 58bd 5bae 70bc
00000010: 04c1 9abd 9b88 863d 978e 05be 0920 c2bd
00000020: d840 aa3c 6e1d 6d3d 66bb 173d 4fb2 a6bd
00000030: dc1d efbc 1a44 85bd b92f 19bd da34 adbd
00000040: 9644 71bb eb8e f63c 009d 7cbd fa1f 8abd
00000050: 7f90 d2bd 5b18 72bd 4d92 863c 9974 b9bd
00000060: bab9 bd3b 2d53 e63c 191e bdbd edcf 173d
00000070: 4bad 90bd 44a6 a2bc 0153 b8bd 98d9 973c
00000080: 6224 dc3c ef7e a3bc 5ffe 36bc fcd7 123d
00000090: 44bc cdbd aafd afbd ee88 c8bd 9b98 0e3d
000000a0: e5b4 21bd 5868 0d3d d670 74bd b76a 21bd
000000b0: f5b9 bfbd 8435 b03c 479d ba3a 0e7e 1dbd
000000c0: 9f86 52bb ae3a d5bc e0fc a8bd 4404 96bc
000000d0: ba5b 713b 900c 753d b028 033a 0c14 aabc
000000e0: 0a98 0bbd 86f6 153d ea5b afbd c038 8ebc
000000f0: 90df 04be 8248 9b3d a072 8ebb d7d8 31bd
00000100: f39c 03b9 6e03 44bd b528 c3bc c236 abbd
00000110: 4856 883c 5a34 debc 0fa7 b1bd 89d9 83bd
00000120: 9aaf a53b a720 2dbd dcf1 8dbc c067 58bd
00000130: 776b 7c3c a67a 823c e2b2 1d3d b640 1a3d
00000140: 501b 12bc 68e1 a5bd b8c9 40bc f02c 9cbc
00000150: 7537 843d 7d62 a73c 1ed0 7a3d 2ed4 713d
00000160: 00fe ac3b 30a6 463c 5859 51bc 3b48 6bbd
00000170: 56fe 863d 0a4e 483d 9979 a83c 1cee afbc
00000180: 6020 61bd 0e68 b5bd 7d8e 88bd 9db2 b33b
00000190: 2827 85bb eb89 8fbd 4b62 20bd d485 a2bd
000001a0: a579 f63c 58ed 11bd be4d b3bc 9929 873d
000001b0: 0280 65bd 4ee8 c9bc 4961 3bbd f9c0 aebd
000001c0: acc3 fd3c 169f a7bd 36fe 1c3c 9203 81bd
000001d0: a27c 4e3d b87f a9bd 9b2b c0bd e458 a6bd
000001e0: bda0 7cbd 7eb1 773d d00e 92bd 5ab5 9dbd
000001f0: f8f0 b3bd 9888 093c 5d62 10bc 5a83 0e3d
00000200: 631f 20c0 f145 80c0 9029 0b3f e6b9 353e
00000210: ef93 063f 42d9 00c0 460e 9bbf 2528 c83e
00000220: 743b d6bd b3d2 abbf fd27 2640 97dd b13f
00000230: 66fe 3e3d e2ab 1abf f344 8b3e ad7f a9be
00000240: 3470 47be c416 a2bf c7d3 1c3e c34a c2bf
00000250: 0b02 393e 7810 b33d fd3c 3bc0 6871 70be
00000260: d60f b9bf a4f4 5cbe dec5 c4c0 789b 1440
00000270: 9037 47c0 a37f dcbf 74f7 bebe 4b04 f5bd
00000280: 57dd 91be bc8a 2cbf f357 d8be 56ca 833d
00000290: de1c cc3f bf66 90bf 39c8 1fbd 8777 fa3f
000002a0: 8a0c cebd dc67 fabe 88b0 143c 25ea 7b3f
000002b0: 7e8b 5a3f f24e 2abf c2f2 3240 7250 21c0
000002c0: 136e a83e 8422 f0bf 2e26 83bf a150 07bf
000002d0: d40a 3dbd caaf 383f 9b25 35c0 f6d8 dd3e
000002e0: ea01 35be 26ec cd3e 5ffa 6abf d323 61be
000002f0: d4b0 cdbe 17c3 84bf 1829 42bf acf8 9c3e
00000300: c8db 863e 8a92 82bd 6490 aabf 69e6 ff3d
00000310: f929 4ebf e19a 11bf aadb 4c3f 3f78 65c0
00000320: efd0 023f 6dbf 693f b237 04c0 95c6 f03e
00000330: 4a7f a83f 449d 093f dd7e a83d a9c0 653d
00000340: 8ab9 c63f 138e 01bf 405e 6d3f 96db 16c0
00000350: 3ef4 98bf 44fc 1b3d ee19 81bd 5648 37bd
00000360: 3b79 823b f151 9ebf 7584 3fc0 20fe f63d
00000370: 4b6f fabe 89ad 2abf a52c e7bf 0741 0cc0
00000380: 7b31 803f 9747 0740 288b 03bf 401d c83f
00000390: 6605 533f e697 dbbd 049d 47c0 f493 45c0
000003a0: c503 143f b392 33bf 15bc 18bf 9bc5 24bf
000003b0: f0db ebbe 031d 0cc0 7a6a 04bf b719 823f
000003c0: b75c edbf db6a ea3d f6bf 9abf 65d2 393f
000003d0: 1208 a2bd d1a4 78be f2a8 8b3f f2ac a2bf
000003e0: 59c3 0140 cd12 3cc0 2e5d e1be 0a5e 0940
000003f0: 33f5 c0bf 604f a4c0 f9e1 11c0 1f70 08c0
-0.0041900245 -0.10195743 -0.052930553 -0.014690007 -0.07556346 0.06569024 -0.13042675 -0.094787665
0.020782873 0.057889394 0.03704395 -0.081394784 -0.029189043 -0.0650713 -0.037399027 -0.08457346
-0.0036814562 0.030097445 -0.061673164 -0.0674438 -0.10281467 -0.05910526 0.016427184 -0.09055442
0.0057899626 0.028115833 -0.09234256 0.037063528 -0.07064303 -0.019854672 -0.09000207 0.018536374
0.026872817 -0.019957988 -0.011169045 0.03585051 -0.100456744 -0.085933045 -0.09791742 0.034813505
-0.039479155 0.034523338 -0.05967792 -0.03940841 -0.0936164 0.021509893 0.0014237546 -0.038450293
-0.0032123697 -0.026028957 -0.08251357 -0.01831258 0.0036828355 0.059826434 0.00050033163 -0.020761512
-0.034080543 0.036612056 -0.08562453 -0.017361045 -0.12975907 0.07582189 -0.0043471605 -0.043419685
-0.00012551602 -0.047854833 -0.023823122 -0.083600536 0.016642705 -0.027124573 -0.08674442 -0.06437976
0.0050563337 -0.042267468 -0.017327242 -0.05283332 0.015406481 0.015927624 0.038500674 0.03765937
-0.008917645 -0.080996335 -0.0117668435 -0.019064397 0.0645589 0.020432705 0.061233632 0.05904024
0.0052793026 0.012124583 -0.012777649 -0.05744193 0.065914795 0.04890255 0.020565795 -0.021475844
-0.054962516 -0.088577375 -0.066678025 0.005483939 -0.0040635057 -0.07008728 -0.03915624 -0.07935682
0.030087302 -0.03562674 -0.021887656 0.06599731 -0.05603028 -0.024646904 -0.045747075 -0.085329
0.030977093 -0.0818464 0.009582093 -0.06299509 0.050411828 -0.082763135 -0.09383317 -0.08122423
-0.06167673 0.060472004 -0.071317315 -0.07700606 -0.087861955 0.008394383 -0.008812514 0.034793235
-2.5019157 -4.008538 0.54360294 0.17746696 0.5256948 -2.0132604 -1.2113731 0.39093128
-0.104605585 -1.3423675 2.5961907 1.3895749 0.046629332 -0.6041852 0.27201042 -0.3310522
-0.19476396 -1.2663198 0.15315162 -1.5179065 0.18067186 0.087433755 -2.9255974 -0.23480761
-1.4457958 -0.21577698 -6.1491537 2.321989 -3.1127663 -1.7226452 -0.37298167 -0.119637094
-0.2848918 -0.6739919 -0.422546 0.06435077 1.594631 -1.1281356 -0.039009307 1.9567727
-0.100609854 -0.48907363 0.009075291 0.9840415 0.853691 -0.6652671 2.7960668 -2.520535
0.3289648 -1.8760533 -1.0246027 -0.52857405 -0.046152905 0.7214323 -2.8304203 0.4332959
-0.17676511 0.4021923 -0.91788286 -0.21986322 -0.40173972 -1.0372037 -0.75843954 0.30658472
0.26339555 -0.06375606 -1.3325315 0.12495119 -0.80532795 -0.5687695 0.8002268 -3.5854642
0.5110006 0.9130772 -2.0658994 0.47026506 1.3163846 0.53755593 0.08227322 0.05609194
1.5525372 -0.50607413 0.9272194 -2.3571525 -1.1949537 0.038082376 -0.06303774 -0.04474672
0.003981737 -1.2368757 -2.9924595 0.12060189 -0.48913035 -0.66671044 -1.80605 -2.191469
1.00151 2.1137445 -0.5138421 1.5633926 0.8243011 -0.10722332 -3.1189585 -3.0871553
0.5781825 -0.7014572 -0.5966199 -0.6436402 -0.46066236 -2.1892707 -0.5172497 1.0164098
-1.8543919 0.11446162 -1.2089832 0.7258666 -0.079116955 -0.24281622 1.0910933 -1.2709029
2.027548 -2.9386475 -0.44016403 2.1463647 -1.5074829 -5.1346893 -2.2794173 -2.1318433

net.2.bias f4 [128]
00000000: bfef a6bc 4b55 403f f1ad b9bd 8bfd c5bd
00000010: a2b7 20ba e54d edbd 2bae 9dbd f10f 13be
00000020: 5828 6c3e a651 a0bd cc16 fabd 8c56 c1bc
00000030: 7c96 8fbd 9060 d3bc e576 ddbc 44c4 62bd
00000040: c0e0 aa3e 391b 18be fc32 903f 556f 53bd
00000050: 6a61 613f ea0f e6bd 124a 24be f3dc 92ba
00000060: f980 95bc fbcc bc3f fcd2 9bbf 435c 093d
00000070: 66b7 273f 1e55 fcbd b9e2 6a3f a11a 13be
00000080: fc37 8fbd d04e d3bd 64bb c63f 1b37 4740
00000090: 44a0 e3bd ca1b 80bd 5498 d73c f4aa 933f
000000a0: 90e3 843f c837 813f f5d0 2540 27f1 64bd
000000b0: d1e2 aa3f cbd8 223f 0b11 493f 864f 1bbd
000000c0: 3b52 e63c 4706 873f 54a6 183f 70f1 9ebd
000000d0: 3a2e 1e3f 172d 673f df83 933f 3ee6 9ebd
000000e0: 66e6 cdbd c951 88bd 67a0 c5bd 0216 c63f
000000f0: 2d76 5e3f 9e4f fdbd 01f8 30bd 7508 a23f
00000100: 5e79 0abe c01d 753f 57f2 19be da7c 11be
00000110: 13e9 c43f 0a35 723f 3bb7 ddbd 6180 8dbd
00000120: 4f1f 3540 7ef5 0cbc 1985 0440 5352 07be
00000130: 0226 6bbd 097d bebd b9fb b13f a26e 243f
00000140: f750 46be a700 03be 244f 0fbd 1684 a33f
00000150: 8bb9 9dbd ff79 29be 3611 a8bd bc95 b43f
00000160: 4bf0 883f ca77 8e3f 683e 0e3d 720a 353e
00000170: eb1a aabd b08e 2040 f8ef 79bd 1eee 09bd
00000180: 832b 96bd cc07 e93e d3df 15be eef8 bbbd
00000190: a41f 583f 74db 653c 4e12 e7bd e448 91bd
000001a0: 36e3 e9bd 1a93 b23f b206 ac3f 3f76 793f
000001b0: 9bbc 303f b07d 0cbe ecf5 df3c fe3f 883f
000001c0: 9a71 01be 453f 10bd 32c3 3c3f e8f7 42bd
000001d0: b3a7 71bd d29e b63c 1f42 4dbd f2ce da3f
000001e0: ce97 253f 5c8f efbd 9a01 973f 7ed9 853f
000001f0: 7b6d 77bd 5388 833f 5fd4 fb3d 54c3 763f
-0.020377992 0.75130147 -0.0906638 -0.096675 -0.0006130879 -0.11587123 -0.076992355 -0.1436155
0.23062265 -0.07828073 -0.122113794 -0.02360084 -0.070111245 -0.02580288 -0.027034232 -0.055362955
0.33374596 -0.14854135 1.1265559 -0.051619846 0.8803927 -0.11233504 -0.1604388 -0.0011204764
-0.018249976 1.4750055 -1.2173762 0.033535253 0.6551422 -0.12320922 0.917522 -0.14365627
-0.069931 -0.10317767 1.5525937 3.1127384 -0.111145526 -0.062553 0.026317753 1.1536546
1.0381947 1.0095148 2.5908787 -0.055894043 1.3350469 0.6361205 0.7854163 -0.037917636
0.028115382 1.0548791 0.59628797 -0.07760894 0.61789286 0.90303177 1.1524619 -0.07758759
-0.10053711 -0.06656224 -0.09649735 1.5475466 0.8689907 -0.123687014 -0.043205265 1.2658831
-0.1352286 0.9574852 -0.15033852 -0.14207783 1.5383629 0.9461218 -0.10825964 -0.06909252
2.830036 -0.008603452 2.0706236 -0.13214998 -0.057409294 -0.09301192 1.3904945 0.6423131
-0.19366823 -0.12793218 -0.034987584 1.2774684 -0.07701405 -0.16550444 -0.08206408 1.4108195
1.0698332 1.1130307 0.034727484 0.17679766 -0.083059154 2.508709 -0.061019868 -0.033674352
-0.07332518 0.4551376 -0.14636163 -0.09178339 0.8442328 0.0140293725 -0.11282788 -0.07093981
-0.1142029 1.3951142 1.3439543 0.97446054 0.6903779 -0.13719821 0.027338944 1.0644529
-0.12640992 -0.03521659 0.73735344 -0.047599703 -0.05899782 0.022292528 -0.050111886 1.7094405
0.6468476 -0.116972655 1.1797364 1.0456998 -0.060407143 1.0275978 0.12296366 0.963918

net.4.weight f4 [13, 128]
00000000: 8a19 f9bc 91e6 4640 5fa0 e0bc 8b41 443d
00000010: 11b7 d5bc 8e92 363d f96c c23b 6afd 7f3d
00000020: 8fdc 2440 be4e 09bd 7a26 6f3c 1011 e6bc
00000030: 03a3 ffbc ab2e 933d 0e81 a83c 259a 443d
00000040: c3ea 0440 e349 38bd 0082 ec3f 1444 e43c
00000050: 6427 0840 33b3 bf3d 3ed3 5b3b 050e 76bc
00000060: ce30 83bc eeb8 d53f 59ac 19bf f1a6 533b
00000070: 6744 1840 42a5 773d 3853 6140 53d6 9cbc
00000080: f0ef 31bd 6f9b 2ebd 877e a13f d72e cc3f
00000090: 9132 363d 600f a73d fde8 8539 2c96 1c40
000000a0: a333 0b40 7ac0 2f40 9a00 213f 960b 71bd
000000b0: dd3c 4f40 77e9 2e40 0afb 3540 5b42 a4bd
000000c0: 6f29 11bc 6d49 1040 3143 1e40 d9dd 003d
000000d0: 2d97 0540 1325 ea3f a669 d43f a99d 323d
000000e0: ff9c d3bc ea13 943d 4a51 783d 749a 1d3f
000000f0: aa03 5a40 25ee f93c 772e c23d 6aeb 0440
00000100: ea5a 9abd d1ae 3d40 db2f eabc 6076 e23b
00000110: 3e2e 833f 2b92 0b40 7df1 babd 3030 70bd
00000120: 3959 8b3f 5263 94bd a239 543f c80c b0bd
00000130: 2478 a53c 9c9d d0bc 119d 3b40 5f3c 3f40
00000140: da28 2cbd 2ca8 a9bc eb79 153c 607a 2240
00000150: f98f 2fbd e556 6f3d 3237 193d 4736 3540
00000160: 7a63 3140 bfc5 2840 a5df 1ebd cbe5 ea3f
00000170: 9348 4a3d 00b9 593f e258 82bd a1d8 173b
00000180: 7935 a0bd 3da6 f63f f1a0 903d c777 9ebd
00000190: f3b0 3340 6cbc b3bd 6c3f 043b 9f12 18bd
000001a0: b129 943d 7869 3c40 9038 1240 5359 1140
000001b0: cbe1 6440 6101 75bc 64e2 3ebd a340 0d40
000001c0: 606a afbd 455c 65bd 5648 4740 3e7a a9bc
000001d0: cb73 e73c 65c2 a8bd 1916 ba3d 3f8c 653f
000001e0: 2603 2f40 6b1e 7abd 7326 e53f 7572 5540
000001f0: 83a4 b0bd 8813 8040 bdc9 b93f ebdb 5a40
00000200: ebc2 85bc 2261 4940 b45d e43c 9ed9 9cbc
00000210: f094 803d 447e d73d a202 333d 8e46 213c
00000220: 8c85 0f40 3c13 f6bc 3949 ecbd 98f4 933d
00000230: dba6 7d3d ec4c cb3b 2216 9abd 3074 20be
00000240: 15ab 1d40 f29e 88bd aa0a e03f cc15 8e3d
00000250: f7f4 9e3f 86f9 afba 6a49 e93c 5f95 3fba
00000260: c384 073b d513 da3f 2638 a8bf 08da fb3c
00000270: 0a1b 0e40 92fd 92bc 17d7 2040 8448 e63d
00000280: 69f7 0d3b 55f8 a43d c213 af3f 5472 cc3f
00000290: 4027 8ebd 5d3b e9ba 0dbd 113c 2529 0e40
000002a0: ad0e 4d40 4df5 3040 8335 633f 2030 3ebd
000002b0: 1e95 5f40 d479 3a40 454f 2340 c93c e63c
000002c0: 0f16 923c 1e26 1940 9efc 4240 ba6b abbd
000002d0: 0803 0b40 c176 ee3f f539 d13f 4090 b1bc
000002e0: 39fb aabc ec12 0d3d 28e1 3ebc 8a31 723f
000002f0: 28a1 3740 678f bd3c 6028 2f3c c349 d23f
00000300: 2fb6 dbbd 6c35 5640 e3cf 13bd 2f9e a03d
00000310: 84c0 e33f c14b ed3f 7b25 1cbb e460 ae3b
00000320: b789 793f 2afc 073c 22cf 7c3f 43c5 803d
00000330: 1c28 b3bc f5b9 83bc 8ead 3940 6f4d 4340
00000340: 084d f13b 3533 62bd d444 f4bc bd06 2040
00000350: 01c8 e03b 244a 693c a6bf c5bc ce45 3d40
00000360: 0d93 1c40 8488 5840 05f5 75bd d8e2 ff3f
00000370: 8eec 0dbc 4c5f 583f 3bf4 2b3d 0403 56bd
00000380: 0b43 223d 6357 fc3f 55d9 2b3d 795e b53c
00000390: 70b5 2940 001e 91ba eb54 803d 2731 b0bd
000003a0: 4cdd 863d 1c74 2f40 5c2a 1240 8d30 3940
000003b0: 13b8 5b40 7f3b 843c 02a5 2b3d 3682 1a40
000003c0: be79 e73c 4382 a7bd 51ac e23f 7a37 543d
000003d0: f238 8bbc 248e e1bc 5ea1 c63b ad17 2c3f
000003e0: a9d2 2940 2037 6abc 4ffd c03f fe79 5d40
000003f0: 75c5 193d 07ab 7940 59ec 893e 1136 3c40
-0.030407686 3.1078227 -0.02742022 0.04791407 -0.02608827 0.04457336 0.0059334007 0.062497534
2.5759618 -0.03352236 0.014596576 -0.028084308 -0.03120566 0.071866356 0.02056935 0.047998566
2.0768287 -0.04499234 1.8477173 0.027864493 2.1274042 0.093603514 0.0033542658 -0.015017991
-0.016014483 1.6697061 -0.60028607 0.003229555 2.379175 0.060460337 3.5207043 -0.019145167
-0.043441713 -0.0426287 1.2616738 1.5951794 0.044481818 0.081572294 0.00025541327 2.4466658
2.1750267 2.7461228 0.6289154 -0.05884894 3.2380898 2.7329996 2.8434472 -0.08020469
-0.008859976 2.2544816 2.472851 0.03146157 2.087352 1.8292564 1.6594741 0.043607388
-0.025831698 0.07230361 0.0606244 0.615638 3.4064736 0.030509064 0.09481519 2.0768685
-0.07536872 2.963795 -0.028587272 0.006911084 1.0248487 2.1807964 -0.091280915 -0.058639705
1.0886604 -0.07245506 0.8290044 -0.08596188 0.02019889 -0.025465779 2.9314616 2.9880598
-0.042031147 -0.020710073 0.009123306 2.5387192 -0.042861912 0.05843248 0.037406154 2.8314378
2.7716966 2.6370695 -0.038787503 1.8351377 0.04938562 0.8504791 -0.06364609 0.0023169892
-0.07822699 1.9269482 0.07061947 -0.077376895 2.8076751 -0.08776173 0.0020179404 -0.037127133
0.072345145 2.9439373 2.2847023 2.271077 3.5762813 -0.014953942 -0.04660262 2.20707
-0.08565211 -0.0559962 3.11379 -0.020688172 0.028253457 -0.08240203 0.09086246 0.89667124
2.7345672 -0.061064165 1.7902359 3.335111 -0.08625128 4.002384 1.4514691 3.4196727
-0.016328296 3.1465535 0.027876712 -0.019146737 0.062784076 0.1052213 0.043703683 0.009843482
2.242526 -0.030038469 -0.115374036 0.07224387 0.061926704 0.006204238 -0.07523753 -0.15669322
2.463567 -0.066709414 1.7503254 0.06937751 1.2418507 -0.0013425804 0.02847739 -0.000730833
0.0020678497 1.7037302 -1.3142135 0.030743614 2.2204003 -0.017943177 2.513128 0.112443
0.002166236 0.08055178 1.3677905 1.597239 -0.0694108 -0.0017794181 0.008895171 2.2212613
3.2040207 2.764972 0.8875353 -0.046432614 3.4934764 2.9136858 2.5517132 0.028105156
0.017832784 2.3929515 3.0466685 -0.083701566 2.17206 1.8629991 1.6345812 -0.02167523
-0.020871745 0.034441873 -0.011650361 0.9460684 2.8692112 0.023139669 0.0106907785 1.642876
-0.10728108 3.3470106 -0.036086928 0.07842671 1.7793126 1.8538743 -0.002382605 0.005321609
0.9747576 0.008299867 0.9875356 0.06287625 -0.021869712 -0.016079882 2.901218 3.0516012
0.007363919 -0.055224616 -0.029817976 2.5004113 0.00685978 0.014238868 -0.024139237 2.9573855
2.4464753 3.3833323 -0.060048122 1.9991102 -0.008662356 0.8452041 0.041980963 -0.05224897
0.03961472 1.9714168 0.04195531 0.022139775 2.651699 -0.0011071563 0.06266197 -0.08603125
0.06585178 2.7414618 2.2838354 2.8935883 3.43311 0.016141651 0.04190541 2.4141974
0.028256293 -0.08179142 1.7708837 0.05181072 -0.016994927 -0.027533598 0.006061717 0.67223626
2.6534827 -0.014295369 1.5077304 3.4605708 0.037541825 3.9010637 0.2693813 2.9408

net.4.bias f4 [13]
00000000: 0ef7 963f 43ac cc3f 3db8 cf3f 6f57 9a3f
00000010: b518 a03f 4b7b a43f dc83 f03f cee2 0540
00000020: 6e0a 6a3f fe67 913f dc4b 9a3f babc 9a3f
00000030: 9d03 773f
1.1794145 1.599007 1.62281 1.2057933 1.250754 1.2850126 1.879024 2.091968
0.91422164 1.1359861 1.20544 1.2088845 0.9648989

net.0.weight f4 [128, 45]
00000000: 6fd3 ac3e f1c0 f93e 93b8 ca3d bf54 e3be
00000010: 4776 eebd 1401 3b3e ffb9 3bbd 3138 ccbd
00000020: 1e03 6bbe 0c14 d43e 6b03 80bf 8c91 c4bf
00000030: 5062 9dbf 92cf 78bf 9ca1 2a3f 4178 90bd
00000040: eb75 76bf dd21 4cbe 55de 64bf 9b85 1ac0
00000050: 40d9 26bf 9219 cb3f e2df a0be 075a 503f
00000060: 5f80 42bf d6a0 66be 404f 4140 0048 9c3e
00000070: f8c3 593f 88ae 37bf a0fb e63e b3e6 703f
00000080: f412 8d3f 56cf 9c3e 6879 35be c746 90be
00000090: 2d69 c7bf d3bd 85bd f623 17bf 9f5e 96bc
000000a0: fb90 373f a6f0 a2be 8755 0c3f 51f7 8fbe
000000b0: 9ded 82be e22b 203f ae2f a93f 29d7 09c0
000000c0: 8587 683f a7fa 9d3e a1ae 263f 030b 2c3e
000000d0: 5bd5 d0bf 4cc2 7fbf c3c7 9d3e 8b29 1740
000000e0: c9fb 093f d06f d23e 1521 0cbf 4f77 213f
000000f0: f971 1dc0 5f51 a13f 3170 fdbd 26fa 7b3f
00000100: 434e 823e 8977 613f c373 20bf 42e6 ec3f
00000110: d25b 9bbf 63ae 473f ed36 8d3e dd67 453f
00000120: cfb5 72bc eda9 8f3e 8433 a93d b038 80be
00000130: 4638 1740 b692 34bf 9e65 563d ccf8 4abf
00000140: 0c48 423f 3231 95bf d1cb b73a a601 23c0
00000150: 0e14 ab3f a19e 183f 2c01 49bf deea a1be
00000160: 8e19 c33e 858d 3b3e d22b f33e d04b 06be
00000170: 5b53 28bd cdd2 1f3d c6a1 46be 5584 7a3f
00000180: ec07 af3f 02cd 78bf 524d 283f c9d0 553d
00000190: 18bd 29be 220b b8bf c76d f6be 9531 00bf
000001a0: 21a4 8fbf da5e aa3f fe1d 09bf c112 9fbe
000001b0: 412e 75bf b756 30bf bca1 1cbc bcb7 c4be
000001c0: 3067 403f 72e6 48bf 8e0e 7e3e c47c 1c3f
000001d0: 522e 3fbf d287 42bf 08ef 54bf 0d45 9c3f
000001e0: c589 c3bc 6f61 8dbf c899 9d3f 1824 16be
000001f0: 713e 0cbf 34fa b4bf d0a4 e83d 2836 20bf
00000200: 6619 583e f00a 03bf ab5e 4c3f 9332 25bf
00000210: 5ea4 763f 5ab4 8cbf 867f f23c 9b05 4dbe
00000220: 6705 cebe 9be2 88be 158b 03bf 2012 913e
00000230: 286f 07c0 b62e c2bd 28c5 f5bf c411 03be
00000240: 6a3b 24be ec79 8c3f 6086 0fc0 2657 bf3f
00000250: 288b fabe 2e58 cabe e68f 1e3f 98bd 6cbf
00000260: 9f27 b53f 19c0 ab3d d96c 503e d866 cbbe
00000270: 59e2 503f 5048 5abd bdfd f0bd 034e e93b
00000280: b78c 95be 6cf7 bbbf 8337 1b3f 79f4 20bf
00000290: cbf7 d2be 9f76 dabd 1567 053e 4b41 c73e
000002a0: ad87 4f3f c3b5 cbbd dc33 aabf 4561 82bd
000002b0: c1e9 e0be d5f7 db3f ad73 64bf 6f4b efbe
000002c0: 3bbc 45bf 67b5 27bf 4fba ff3e fab3 a03e
000002d0: 62a5 243f cc2d d63e 61ae 013f 3fb9 bd3f
000002e0: d4c0 18bf 0edb c33e 4e87 cd3e f872 89bf
000002f0: 2933 ee3e b1fe 09bf 429f 09bf 49d2 9f3f
00000300: 2973 b83f 4d83 be3f 3ec2 a4be aae8 e7bf
00000310: 30b8 17bf bea2 97be 34d3 d7bf ca47 d2bc
00000320: 0680 b43e 1e5e e9be 494a 253f ba59 58bf
00000330: 14ae 31bf 3483 67be 5d33 343f d422 683f
00000340: a66c d83f 05fb 1c3f 990b 8b3e 7696 b4be
00000350: 7153 2abf be18 88be 059c 4fbf 28d2 043f
00000360: a7fe 9b3e 4e57 7f3f 1d6d d4bf 2751 7f3f
00000370: 17f2 9abe 3d90 193f 9e20 5fbf 7730 ca3e
00000380: 596e 09bf 523f 163f 8540 8d3f 49e2 293f
00000390: 8ebb 1cbf 4cee 173e 7d97 223f 67a6 be3d
000003a0: dd7b bb3e 816d 78be f77b 8c3e fc7f cb3f
000003b0: 0dc3 b23f ca19 3d3f b969 c93f 2f2e 98bf
000003c0: 51ff ffbe a0c1 c8bf ac58 c3be fb6d babf
000003d0: 6d5e 98bd c92d 823d f4d4 61bf 53bf 46bf
000003e0: 2f78 83bf acd1 933f a55f 033f f72d e63f
000003f0: 10b6 103f e713 1340 a5f2 fe3e 2794 f83e
0.3375506 0.48780015 0.09898486 -0.44400594 -0.11643653 0.1826213 -0.045831677 -0.09971655
-0.22950408 0.41421545 -1.0001043 -1.5356917 -1.2295628 -0.9719173 0.66652846 -0.070541866
-0.9627368 -0.19934793 -0.8940175 -2.4144046 -0.6517525 1.5867178 -0.3142081 0.8138737
-0.7597713 -0.22522292 3.020462 0.30523682 0.8506465 -0.7175069 0.4511385 0.9410202
1.1021409 0.30626935 -0.17722094 -0.28179 -1.5578972 -0.06530347 -0.5903925 -0.018355666
0.717056 -0.31824225 0.54818004 -0.28118375 -0.2557191 0.6256696 1.3217676 -2.1537573
0.90831786 0.30855295 0.6511021 0.16801076 -1.6315111 -0.9990585 0.3081647 2.3619106
0.5389982 0.4110093 -0.5473798 0.63072675 -2.4600813 1.2602957 -0.123749144 0.9842857
0.25450334 0.8807302 -0.6267664 1.8507769 -1.2137396 0.7800047 0.27580968 0.7711161
-0.014813854 0.2805933 0.08261779 -0.2504325 2.3628097 -0.70536363 0.052343003 -0.79285884
0.75891185 -1.1655638 0.0014022534 -2.5469756 1.3365495 0.5961705 -0.78517413 -0.31624502
0.38105434 0.18315704 0.4749437 -0.13114858 -0.04109512 0.039019395 -0.19397649 0.9785817
1.3674293 -0.9718782 0.6574298 0.052201066 -0.1657604 -1.4378397 -0.48130628 -0.50075656
-1.1221963 1.3310196 -0.5356139 -0.31068996 -0.957737 -0.68882316 -0.009560045 -0.38421428
0.7515745 -0.7847663 0.2481024 0.6112788 -0.74680054 -0.75988495 -0.8317723 1.2208573
-0.023869405 -1.1045359 1.2312555 -0.14662206 -0.5478278 -1.4138856 0.113595605 -0.62582636
0.21103439 -0.51188564 0.7983195 -0.64530295 0.96344554 -1.0992539 0.029601824 -0.2002167
-0.40238497 -0.26735386 -0.513841 0.2833414 -2.1161594 -0.09481566 -1.9200792 -0.12799746
-0.1603829 1.0974708 -2.2425766 1.494847 -0.48934293 -0.395204 0.6193832 -0.924768
1.4152716 0.08386249 0.20354022 -0.397269 0.8159538 -0.05329162 -0.11767147 0.0071198954
-0.2920892 -1.4684882 0.6063158 -0.62873036 -0.41204676 -0.106671564 0.13027604 0.38917002
0.810664 -0.09946778 -1.3297076 -0.06366209 -0.4392834 1.7185007 -0.8923901 -0.4673724
-0.7724034 -0.65511173 0.4994683 0.3138731 0.64314854 0.41831815 0.50656706 1.4822158
-0.5966923 0.38253063 0.40142292 -1.0738211 0.46523407 -0.53904253 -0.53758633 1.2486049
1.4410144 1.488382 -0.32179445 -1.8117878 -0.5926542 -0.2961635 -1.6861329 -0.025668997
0.35253924 -0.45579618 0.64566475 -0.8451191 -0.6940625 -0.22608644 0.70390874 0.90678144
1.6908157 0.61320525 0.27157286 -0.35271043 -0.6653357 -0.26581377 -0.8109744 0.51883173
0.30467722 0.9974259 -1.6595799 0.99733204 -0.30262825 0.59985715 -0.87159145 0.394901
-0.53684 0.5869037 1.1035315 0.6636091 -0.61223686 0.14836997 0.635124 0.093090825
0.36617938 -0.24260522 0.27438328 1.5898433 1.3965775 0.73867476 1.5735389 -1.1889094
-0.49999478 -1.568409 -0.3815359 -1.4564813 -0.07439885 0.06356389 -0.88215566 -0.7763569
-1.0271052 1.1548362 0.51317817 1.7982777 0.56527805 2.2980897 0.49794498 0.4855053

net.0.bias f4 [128]
00000000: 7d90 a13d 5f31 843f d562 16bf 9c01 113e
00000010: 3839 873f 7ec6 503f 8291 423d 177e 7e3e
00000020: 27fa aabe a8ff 903e 36d9 223f 53a7 6f3f
00000030: 1c54 283e 923e 1fbe bdd9 6bbe 938a c73f
00000040: 5f2e 3b3f 9645 ba3e 0dfa 2f3f 67bd 12bf
00000050: c54c a03f a5b7 943f 1ed4 bd3e 7b8b cabd
00000060: 4973 7a3f b43b 3abb d52a 693e 42f6 ab3e
00000070: a5cf acbd 515d d7be 9bcf 403d 82aa 89be
00000080: 3759 30bf fd45 af3c 4b24 97bd 670c 82be
00000090: d0ab e23b 23d3 3d3d d398 65be 318a bdbe
000000a0: 5332 afbe 54b3 0b3d b33d 81be 031d a0bd
000000b0: 0670 a03f 71db c83e a022 973e a119 a93e
000000c0: 9370 833f dc16 cb3d e557 013f ec9a 503e
000000d0: aa47 893e 88df ac3e b1a8 093f 2602 273e
000000e0: 3ba3 05be f8e5 c93d e1ad 393f af35 29bd
000000f0: dd3b d73e 33bd ed3d 4e7a 19be d52d 2e3f
00000100: 6462 003f 0da5 883e f1f4 f1be 13f4 8b3f
00000110: 8136 063f 8b2a 873e 7c1e 243e 5ada 6cbe
00000120: bbc3 2cbf 16ac 513f 66a0 383d adfb b03e
00000130: c9b8 e2be a682 b73f 826a 29be 9975 84be
00000140: 6eb6 313f 4ded 60be 7d2a 273f 0f2d cfbe
00000150: 8229 82be a2ec 2a3d 2e2e a4be 6aae 75be
00000160: d4da ed3e 56f4 11bf dd46 f3be b373 bf3e
00000170: f320 89be 2a16 35bf 4319 013f 4c74 d3be
00000180: cc41 893f 4ef4 35bc cd9e 973f 139b 453f
00000190: 836d f93e cf08 acbe 633e 19bd e98e 86be
000001a0: 041c 4b3f 915f 91be 53e6 c33e 144e 54bf
000001b0: c275 053f c684 1c3f 1388 a0be 5bae 143d
000001c0: b5b1 ddbe f30e 823f 2be6 6cbe 5d04 513e
000001d0: fc70 7cbe 368a 9c3e 375f 9f3f 57d4 8f3f
000001e0: 07f0 af3e a4d4 38bf fc38 4fbe dabe 4ebf
000001f0: 53a8 1e3e 14fb efbd 5ff8 973e 1a74 f53d
0.07888887 1.0327567 -0.58744556 0.1416077 1.0564337 0.81552875 0.04750205 0.24852787
-0.33393976 0.2832005 0.6361269 0.9361469 0.16438335 -0.15551212 -0.2303228 1.5589164
0.7311763 0.36381215 0.6874092 -0.57320255 1.2523428 1.1618544 0.37075895 -0.09889885
0.9783216 -0.0028416933 0.22770245 0.33586317 -0.084380426 -0.42063382 0.047072988 -0.268879
-0.6888613 0.021395678 -0.07379969 -0.25400087 0.0069174543 0.046343934 -0.22421579 -0.37019494
-0.34218082 0.034106568 -0.25242385 -0.078180335 1.2534187 0.3922992 0.29518604 0.33027366
1.026873 0.099164695 0.5052474 0.20371598 0.26812488 0.3376429 0.5377303 0.16309413
-0.13050549 0.09858316 0.72530943 -0.041310962 0.4203786 0.116083525 -0.14988062 0.68038684
0.5015013 0.26688424 -0.47257188 1.093386 0.52426916 0.26399645 0.16027254 -0.2313017
-0.6748616 0.8190321 0.045074843 0.34567013 -0.44281605 1.4336746 -0.16544536 -0.2587097
0.6941899 -0.21965523 0.65299207 -0.40464064 -0.25422293 0.041729577 -0.32066482 -0.23992315
0.46456015 -0.5701345 -0.47515002 0.3739296 -0.2678295 -0.70736945 0.5042917 -0.41299665
1.0723205 -0.01110561 1.1845337 0.7718975 0.48716363 -0.3360047 -0.037413012 -0.26280907
0.79339623 -0.28393224 0.3826166 -0.8293164 0.5213281 0.61140096 -0.31353816 0.03629909
-0.43299642 1.0160812 -0.23134677 0.2041182 -0.24652475 0.30574197 1.2450932 1.1236676
0.34362814 -0.72199464 -0.20236582 -0.80759966 0.15493898 -0.11717811 0.2968168 0.11985035

net.2.weight f4 [128, 128]
00000000: 794c 89bb 0fcf d0bd b5cd 58bd 5bae 70bc
00000010: 04c1 9abd 9b88 863d 978e 05be 0920 c2bd
00000020: d840 aa3c 6e1d 6d3d 66bb 173d 4fb2 a6bd
00000030: dc1d efbc 1a44 85bd b92f 19bd da34 adbd
00000040: 9644 71bb eb8e f63c 009d 7cbd fa1f 8abd
00000050: 7f90 d2bd 5b18 72bd 4d92 863c 9974 b9bd
00000060: bab9 bd3b 2d53 e63c 191e bdbd edcf 173d
00000070: 4bad 90bd 44a6 a2bc 0153 b8bd 98d9 973c
00000080: 6224 dc3c ef7e a3bc 5ffe 36bc fcd7 123d
00000090: 44bc cdbd aafd afbd ee88 c8bd 9b98 0e3d
000000a0: e5b4 21bd 5868 0d3d d670 74bd b76a 21bd
000000b0: f5b9 bfbd 8435 b03c 479d ba3a 0e7e 1dbd
000000c0: 9f86 52bb ae3a d5bc e0fc a8bd 4404 96bc
000000d0: ba5b 713b 900c 753d b028 033a 0c14 aabc
000000e0: 0a98 0bbd 86f6 153d ea5b afbd c038 8ebc
000000f0: 90df 04be 8248 9b3d a072 8ebb d7d8 31bd
00000100: f39c 03b9 6e03 44bd b528 c3bc c236 abbd
00000110: 4856 883c 5a34 debc 0fa7 b1bd 89d9 83bd
00000120: 9aaf a53b a720 2dbd dcf1 8dbc c067 58bd
00000130: 776b 7c3c a67a 823c e2b2 1d3d b640 1a3d
00000140: 501b 12bc 68e1 a5bd b8c9 40bc f02c 9cbc
00000150: 7537 843d 7d62 a73c 1ed0 7a3d 2ed4 713d
00000160: 00fe ac3b 30a6 463c 5859 51bc 3b48 6bbd
00000170: 56fe 863d 0a4e 483d 9979 a83c 1cee afbc
00000180: 6020 61bd 0e68 b5bd 7d8e 88bd 9db2 b33b
00000190: 2827 85bb eb89 8fbd 4b62 20bd d485 a2bd
000001a0: a579 f63c 58ed 11bd be4d b3bc 9929 873d
000001b0: 0280 65bd 4ee8 c9bc 4961 3bbd f9c0 aebd
000001c0: acc3 fd3c 169f a7bd 36fe 1c3c 9203 81bd
000001d0: a27c 4e3d b87f a9bd 9b2b c0bd e458 a6bd
000001e0: bda0 7cbd 7eb1 773d d00e 92bd 5ab5 9dbd
000001f0: f8f0 b3bd 9888 093c 5d62 10bc 5a83 0e3d
00000200: 6210 20c0 8e6a 80c0 48f1 0a3f 681e 363e
00000210: 4d17 083f c033 01c0 f968 9bbf d294 c93e
00000220: 743b d6bd 1dc9 abbf 8326 2640 9836 b23f
00000230: 2373 333d de16 1abf e70c 8b3e 598a a8be
00000240: bad6 47be 37fb a1bf c5fe 1b3e aa35 c2bf
00000250: b487 3a3e bc61 b53d f338 3bc0 2013 78be
00000260: a28e b8bf 07db 63be 22b3 c4c0 1e84 1440
00000270: 7635 47c0 4888 ddbf edb3 bdbe 4b42 e8bd
00000280: 6037 92be eb2b 2cbf 71ee d7be f982 773d
00000290: 193a cc3f 42c9 90bf 3633 39bd 91fb fa3f
000002a0: 8a0c cebd f970 fabe 88b0 143c e3e9 7a3f
000002b0: e209 5b3f ffa3 2abf aec1 3240 8825 21c0
000002c0: eb48 a73e 003a f0bf 3dcc 83bf a5d2 06bf
000002d0: 929e 43bd 2253 383f c9f3 34c0 e40e dd3e
000002e0: 3d18 36be c3df cd3e ab26 6abf 704d 59be
000002f0: fdde cdbe fed0 84bf 27ab 42bf d458 9b3e
00000300: 5c6d 863e 5f3c 87bd 1ec3 aabf c968 003e
00000310: f969 4fbf 6b69 11bf 7700 4d3f b7dc 65c0
00000320: cfbe 023f 82f9 683f a60b 04c0 7394 ef3e
00000330: 08b7 a83f 6cd9 093f 367f aa3d a9c0 653d
00000340: bea5 c63f e301 02bf 2f69 6d3f 5e26 16c0
00000350: 11fe 98bf 1dae 323d ee19 81bd 5648 37bd
00000360: b01e 183b ea46 9dbf d4a8 3fc0 71ec f23d
00000370: 86d7 f8be 0807 2bbf f11c e7bf 7c18 0cc0
00000380: 097c 803f 9907 0740 9b1a 04bf ac56 c83f
00000390: b8bb 533f e697 dbbd 062e 47c0 b9a0 45c0
000003a0: 464f 133f e2dc 32bf a2e7 19bf 38db 24bf
000003b0: 3fad ebbe 59ee 0bc0 b451 06bf 47d7 813f
000003c0: 17cb ecbf 1268 ea3d c168 9bbf 258d 3a3f
000003d0: 1208 a2bd 1ed3 7bbe d884 8b3f 7cdf a2bf
000003e0: 0cb6 0140 e46a 3cc0 0bdf e1be b290 0940
000003f0: d233 c0bf e246 a4c0 6bdc 11c0 a85d 08c0
-0.0041900245 -0.10195743 -0.052930553 -0.014690007 -0.07556346 0.06569024 -0.13042675 -0.094787665
0.020782873 0.057889394 0.03704395 -0.081394784 -0.029189043 -0.0650713 -0.037399027 -0.08457346
-0.0036814562 0.030097445 -0.061673164 -0.0674438 -0.10281467 -0.05910526 0.016427184 -0.09055442
0.0057899626 0.028115833 -0.09234256 0.037063528 -0.07064303 -0.019854672 -0.09000207 0.018536374
0.026872817 -0.019957988 -0.011169045 0.03585051 -0.100456744 -0.085933045 -0.09791742 0.034813505
-0.039479155 0.034523338 -0.05967792 -0.03940841 -0.0936164 0.021509893 0.0014237546 -0.038450293
-0.0032123697 -0.026028957 -0.08251357 -0.01831258 0.0036828355 0.059826434 0.00050033163 -0.020761512
-0.034080543 0.036612056 -0.08562453 -0.017361045 -0.12975907 0.07582189 -0.0043471605 -0.043419685
-0.00012551602 -0.047854833 -0.023823122 -0.083600536 0.016642705 -0.027124573 -0.08674442 -0.06437976
0.0050563337 -0.042267468 -0.017327242 -0.05283332 0.015406481 0.015927624 0.038500674 0.03765937
-0.008917645 -0.080996335 -0.0117668435 -0.019064397 0.0645589 0.020432705 0.061233632 0.05904024
0.0052793026 0.012124583 -0.012777649 -0.05744193 0.065914795 0.04890255 0.020565795 -0.021475844
-0.054962516 -0.088577375 -0.066678025 0.005483939 -0.0040635057 -0.07008728 -0.03915624 -0.07935682
0.030087302 -0.03562674 -0.021887656 0.06599731 -0.05603028 -0.024646904 -0.045747075 -0.085329
0.030977093 -0.0818464 0.009582093 -0.06299509 0.050411828 -0.082763135 -0.09383317 -0.08122423
-0.06167673 0.060472004 -0.071317315 -0.07700606 -0.087861955 0.008394383 -0.008812514 0.034793235
-2.501 -4.013007 0.54274416 0.17785037 0.53160554 -2.0187836 -1.214141 0.39371353
-0.104605585 -1.342075 2.5961006 1.3922911 0.043810975 -0.6019114 0.2715828 -0.3291805
-0.19515505 -1.265479 0.15233906 -1.5172627 0.18215829 0.08856532 -2.925351 -0.24226046
-1.4418528 -0.22251521 -6.146867 2.3205638 -3.112638 -1.7307215 -0.37051335 -0.113407694
-0.28557873 -0.67254514 -0.42174104 0.06042764 1.595523 -1.1311419 -0.045214854 1.9608022
-0.100609854 -0.48914316 0.009075291 0.9801313 0.85561955 -0.6665649 2.7930713 -2.5179157
0.3267282 -1.87677 -1.0296704 -0.5266517 -0.047758646 0.7200185 -2.8273795 0.43175423
-0.17782684 0.4020978 -0.9146525 -0.21220946 -0.4020919 -1.0376279 -0.7604241 0.30341208
0.2625531 -0.06603312 -1.3340795 0.12539972 -0.81021076 -0.5680148 0.80078834 -3.5915964
0.510724 0.9100572 -2.063211 0.46792945 1.3180857 0.53847384 0.08325045 0.05609194
1.551933 -0.5078413 0.9273862 -2.3460917 -1.1952535 0.04362308 -0.06303774 -0.04474672
0.002321165 -1.2287266 -2.9946795 0.11861504 -0.4860193 -0.66807604 -1.8055707 -2.1889944
1.0037853 2.1098387 -0.51603097 1.565145 0.8270831 -0.10722332 -3.112184 -3.0879347
0.57542837 -0.6986829 -0.6011907 -0.64397 -0.46030614 -2.1864226 -0.5246842 1.0143822
-1.8499478 0.11445631 -1.2141343 0.7287162 -0.079116955 -0.24592254 1.0899916 -1.2724452
2.0267363 -2.944024 -0.4411548 2.1494565 -1.5015814 -5.1336527 -2.2790782 -2.1307163

net.2.bias f4 [128]
00000000: bfef a6bc e585 403f f1ad b9bd 8bfd c5bd
00000010: a2b7 20ba e54d edbd 2bae 9dbd f10f 13be
00000020: 5adc 6c3e a651 a0bd cc16 fabd 8c56 c1bc
00000030: 7c96 8fbd 9060 d3bc e576 ddbc 44c4 62bd
00000040: c0e0 aa3e 391b 18be f56a 903f 556f 53bd
00000050: bb5d 623f ea0f e6bd 124a 24be f3dc 92ba
00000060: f980 95bc 91ae bc3f 39da 9cbf 435c 093d
00000070: e8b7 273f 1e55 fcbd ad93 6d3f a11a 13be
00000080: fc37 8fbd d04e d3bd cd61 c63f 6d34 4740
00000090: 44a0 e3bd ca1b 80bd 5498 d73c 806f 933f
000000a0: b76c 853f 383b 813f 32d4 2540 27f1 64bd
000000b0: fb6f aa3f 51bc 213f 92c0 483f 864f 1bbd
000000c0: 3b52 e63c 7cd4 863f 6daa 183f 70f1 9ebd
000000d0: 4609 1d3f 7bb5 673f 0680 933f 3ee6 9ebd
000000e0: 66e6 cdbd c951 88bd 67a0 c5bd 11ab c53f
000000f0: af97 5e3f 9e4f fdbd 01f8 30bd 0df1 a13f
00000100: 5e79 0abe 9796 763f 57f2 19be da7c 11be
00000110: ab10 c53f fa82 713f 3bb7 ddbd 6180 8dbd
00000120: 6219 3540 7ef5 0cbc 4395 0440 5352 07be
00000130: 0226 6bbd 097d bebd 32fa b13f 311b 253f
00000140: f750 46be a700 03be 244f 0fbd bb46 a33f
00000150: 8bb9 9dbd ff79 29be 3611 a8bd 1009 b43f
00000160: a889 893f 2e7d 8e3f 683e 0e3d 73b9 363e
00000170: eb1a aabd 648d 2040 f8ef 79bd 1eee 09bd
00000180: 832b 96bd 4303 e93e d3df 15be eef8 bbbd
00000190: 8940 573f 74db 653c 4e12 e7bd e448 91bd
000001a0: 36e3 e9bd 421a b23f cd07 ac3f 9db5 793f
000001b0: a880 303f b07d 0cbe ecf5 df3c f69d 883f
000001c0: 9a71 01be 453f 10bd 9bb3 3d3f e8f7 42bd
000001d0: b3a7 71bd d29e b63c 1f42 4dbd 129d da3f
000001e0: 77e6 253f 5c8f efbd 9474 963f 0feb 853f
000001f0: 7b6d 77bd 123c 833f 0da3 fe3d 099a 773f
-0.020377992 0.75204307 -0.0906638 -0.096675 -0.0006130879 -0.11587123 -0.076992355 -0.1436155
0.23130932 -0.07828073 -0.122113794 -0.02360084 -0.070111245 -0.02580288 -0.027034232 -0.055362955
0.33374596 -0.14854135 1.1282641 -0.051619846 0.8842427 -0.11233504 -0.1604388 -0.0011204764
-0.018249976 1.4740773 -1.2254096 0.033535253 0.65514994 -0.12320922 0.9280346 -0.14365627
-0.069931 -0.10317767 1.5498596 3.1125748 -0.111145526 -0.062553 0.026317753 1.1518402
1.0423802 1.0096197 2.5910764 -0.055894043 1.3315424 0.63177973 0.7841884 -0.037917636
0.028115382 1.0533595 0.5963505 -0.07760894 0.61342275 0.9051129 1.1523445 -0.07758759
-0.10053711 -0.06656224 -0.09649735 1.544283 0.869502 -0.123687014 -0.043205265 1.2651688
-0.1352286 0.9632353 -0.15033852 -0.14207783 1.5395712 0.9434048 -0.10825964 -0.06909252
2.8296742 -0.008603452 2.0716102 -0.13214998 -0.057409294 -0.09301192 1.3904479 0.64494616
-0.19366823 -0.12793218 -0.034987584 1.275596 -0.07701405 -0.16550444 -0.08206408 1.4065266
1.0745134 1.1131952 0.034727484 0.17844181 -0.083059154 2.5086298 -0.061019868 -0.033674352
-0.07332518 0.455103 -0.14636163 -0.09178339 0.8408285 0.0140293725 -0.11282788 -0.07093981
-0.1142029 1.3914263 1.3439881 0.97542745 0.68946314 -0.13719821 0.027338944 1.0673206
-0.12640992 -0.03521659 0.7410218 -0.047599703 -0.05899782 0.022292528 -0.050111886 1.7079184
0.64804786 -0.116972655 1.1754327 1.0462359 -0.060407143 1.0252707 0.12433443 0.96719414

net.4.weight f4 [13, 128]
00000000: 8a19 f9bc e2a1 4640 5fa0 e0bc 8b41 443d
00000010: 11b7 d5bc 8e92 363d f96c c23b 6afd 7f3d
00000020: 19fe 2440 be4e 09bd 7a26 6f3c 1011 e6bc
00000030: 03a3 ffbc ab2e 933d 0e81 a83c 259a 443d
00000040: c3ea 0440 e349 38bd 02da ec3f 1444 e43c
00000050: 1249 0840 33b3 bf3d 3ed3 5b3b 050e 76bc
00000060: ce30 83bc 7ba9 d53f d3c1 17bf f1a6 533b
00000070: 431a 1840 42a5 773d fc52 6140 53d6 9cbc
00000080: f0ef 31bd 6f9b 2ebd e868 a13f d0e9 cb3f
00000090: 9132 363d 600f a73d fde8 8539 d188 1c40
000000a0: 9a52 0b40 c6d7 2f40 a157 203f 960b 71bd
000000b0: d64e 4f40 6ef4 2e40 617b 3540 5b42 a4bd
000000c0: 6f29 11bc 1e49 1040 51f5 1d40 d9dd 003d
000000d0: f958 0540 b51d e93f edab d33f a99d 323d
000000e0: ff9c d3bc ea13 943d 4a51 783d 5f1f 1c3f
000000f0: f028 5a40 25ee f93c 772e c23d 4dfe 0440
00000100: ea5a 9abd d1ae 3d40 db2f eabc 6076 e23b
00000110: 3b41 823f d715 0b40 7df1 babd 3030 70bd
00000120: 8cfa 8a3f 5263 94bd deea 533f c80c b0bd
00000130: 2478 a53c 9c9d d0bc 9676 3b40 0382 3f40
00000140: da28 2cbd 2ca8 a9bc eb79 153c 27ee 2140
00000150: f98f 2fbd e556 6f3d 3237 193d b9a4 3440
00000160: 41c3 3140 bec5 2840 a5df 1ebd 3581 eb3f
00000170: 9348 4a3d 5829 593f e258 82bd a1d8 173b
00000180: 7935 a0bd 61a9 f63f f1a0 903d c777 9ebd
00000190: d68b 3340 6cbc b3bd 6c3f 043b 9f12 18bd
000001a0: b129 943d 5402 3c40 9fca 1240 563d 1140
000001b0: 0a19 6540 6101 75bc 64e2 3ebd 330e 0d40
000001c0: 606a afbd 455c 65bd 6f4e 4740 3e7a a9bc
000001d0: cb73 e73c 65c2 a8bd 1916 ba3d f017 653f
000001e0: 9814 2f40 6b1e 7abd d31e e43f cb8f 5540
000001f0: 83a4 b0bd d6e1 7f40 fb51 b93f 8ed9 5a40
00000200: ebc2 85bc 1230 4940 b45d e43c 9ed9 9cbc
00000210: f094 803d 447e d73d a202 333d 8e46 213c
00000220: c776 0f40 3c13 f6bc 3949 ecbd 98f4 933d
00000230: dba6 7d3d ec4c cb3b 2216 9abd 3074 20be
00000240: 15ab 1d40 f29e 88bd a950 e03f cc15 8e3d
00000250: 9a76 9e3f 86f9 afba 6a49 e93c 5f95 3fba
00000260: c384 073b c56a da3f e9e1 a7bf 08da fb3c
00000270: 78de 0d40 92fd 92bc ddd8 2040 8448 e63d
00000280: 69f7 0d3b 55f8 a43d e266 af3f 6ffa cb3f
00000290: 4027 8ebd 5d3b e9ba 0dbd 113c d9da 0d40
000002a0: 7a0e 4d40 d722 3140 0380 623f 2030 3ebd
000002b0: 6697 5f40 d479 3a40 19dc 2240 c93c e63c
000002c0: 0f16 923c 4bf8 1840 1d12 4340 ba6b abbd
000002d0: 83d9 0a40 8d79 ee3f 2268 d13f 4090 b1bc
000002e0: 39fb aabc ec12 0d3d 28e1 3ebc d5ad 723f
000002f0: 33fc 3740 678f bd3c 6028 2f3c 1142 d23f
00000300: 2fb6 dbbd 8935 5640 e3cf 13bd 2f9e a03d
00000310: 738d e43f b31a ed3f 7b25 1cbb e460 ae3b
00000320: 53be 783f 2afc 073c 3d0f 7c3f 43c5 803d
00000330: 1c28 b3bc f5b9 83bc 24ec 3940 8129 4340
00000340: 084d f13b 3533 62bd d444 f4bc 2b3b 2040
00000350: 01c8 e03b 244a 693c a6bf c5bc ed5a 3d40
00000360: 547f 1c40 0e54 5840 05f5 75bd 0e6d ff3f
00000370: 8eec 0dbc 6d90 573f 3bf4 2b3d 0403 56bd
00000380: 0b43 223d 3557 fc3f 55d9 2b3d 795e b53c
00000390: 11aa 2940 001e 91ba eb54 803d 2731 b0bd
000003a0: 4cdd 863d 0098 2f40 f329 1240 2d49 3940
000003b0: 1c0e 5c40 7f3b 843c 02a5 2b3d 792d 1a40
000003c0: be79 e73c 4382 a7bd 7001 e33f 7a37 543d
000003d0: f238 8bbc 248e e1bc 5ea1 c63b 24e5 2b3f
000003e0: 3b78 2940 2037 6abc c63d c13f 1caf 5d40
000003f0: 75c5 193d 1363 7a40 0c7a 863e 2d4b 3c40
-0.030407686 3.1036305 -0.02742022 0.04791407 -0.02608827 0.04457336 0.0059334007 0.062497534
2.578009 -0.03352236 0.014596576 -0.028084308 -0.03120566 0.071866356 0.02056935 0.047998566
2.0768287 -0.04499234 1.8504031 0.027864493 2.1294599 0.093603514 0.0033542658 -0.015017991
-0.016014483 1.6692346 -0.5928013 0.003229555 2.376603 0.060460337 3.52069 -0.019145167
-0.043441713 -0.0426287 1.261014 1.5930729 0.044481818 0.081572294 0.00025541327 2.4458506
2.1769166 2.7475448 0.6263371 -0.05884894 3.2391868 2.7336688 2.8356555 -0.08020469
-0.008859976 2.2544627 2.468098 0.03146157 2.0835555 1.8212191 1.6536843 0.043607388
-0.025831698 0.07230361 0.0606244 0.6098537 3.4087486 0.030509064 0.09481519 2.0780213
-0.07536872 2.963795 -0.028587272 0.006911084 1.0176157 2.173208 -0.091280915 -0.058639705
1.0857711 -0.07245506 0.82780254 -0.08596188 0.02019889 -0.025465779 2.929113 2.9923103
-0.042031147 -0.020710073 0.009123306 2.5301607 -0.042861912 0.05843248 0.037406154 2.8225539
2.7775424 2.6370692 -0.038787503 1.8398806 0.04938562 0.8482871 -0.06364609 0.0023169892
-0.07822699 1.927044 0.07061947 -0.077376895 2.80541 -0.08776173 0.0020179404 -0.037127133
0.072345145 2.937642 2.293617 2.2693686 3.5796533 -0.014953942 -0.04660262 2.2039917
-0.08565211 -0.0559962 3.1141622 -0.020688172 0.028253457 -0.08240203 0.09086246 0.8948965
2.735632 -0.061064165 1.7821907 3.3369014 -0.08625128 3.998159 1.4478143 3.4195285
-0.016328296 3.143559 0.027876712 -0.019146737 0.062784076 0.1052213 0.043703683 0.009843482
2.2416246 -0.030038469 -0.115374036 0.07224387 0.061926704 0.006204238 -0.07523753 -0.15669322
2.463567 -0.066709414 1.7524616 0.06937751 1.2379944 -0.0013425804 0.02847739 -0.000730833
0.0020678497 1.7063833 -1.3115817 0.030743614 2.2167034 -0.017943177 2.5132363 0.112443
0.002166236 0.08055178 1.3703272 1.5935801 -0.0694108 -0.0017794181 0.008895171 2.2164824
3.2040086 2.7677515 0.8847658 -0.046432614 3.4936156 2.9136858 2.5446837 0.028105156
0.017832784 2.3901546 3.0479805 -0.083701566 2.1695259 1.8630844 1.6359904 -0.02167523
-0.020871745 0.034441873 -0.011650361 0.94796497 2.874768 0.023139669 0.0106907785 1.6426412
-0.10728108 3.3470175 -0.036086928 0.07842671 1.7855667 1.8523773 -0.002382605 0.005321609
0.9716541 0.008299867 0.9846075 0.06287625 -0.021869712 -0.016079882 2.9050379 3.0494082
0.007363919 -0.055224616 -0.029817976 2.5036113 0.00685978 0.014238868 -0.024139237 2.9586747
2.4452715 3.3801303 -0.060048122 1.9955156 -0.008662356 0.8420475 0.041980963 -0.05224897
0.03961472 1.9714113 0.04195531 0.022139775 2.651005 -0.0011071563 0.06266197 -0.08603125
0.06585178 2.7436523 2.2838104 2.8950913 3.4383612 0.016141651 0.04190541 2.4090254
0.028256293 -0.08179142 1.7734814 0.05181072 -0.016994927 -0.027533598 0.006061717 0.67146516
2.6479633 -0.014295369 1.5096977 3.4638128 0.037541825 3.912297 0.2626499 2.9420884

net.4.bias f4 [13]
00000000: 91bc 963f a256 cc3f 9a55 d03f a326 9b3f
00000010: 0fd2 9f3f 32cb a33f 6fef ef3f d79b 0540
00000020: 80a3 6a3f 1bf6 913f 09f1 9a3f 7d38 9a3f
00000030: e223 763f
1.1776296 1.5963938 1.6276124 1.2121166 1.248598 1.2796385 1.8744944 2.0876367
0.9165573 1.140323 1.2104808 1.2048489 0.961485
