checkpoints/team2_agent_2.pt (torch, 394913 bytes, 24 tensors)

net.0.weight f4 [128, 45]
0	0x3f40d1aa	0.7531992
1	0x3f6241ff	0.8838195
2	0xbec23975	-0.3793446
3	0xbf214f6c	-0.63011813
4	0xbdfd4d83	-0.123683
5	0xbf65e8df	-0.8980846
6	0x3f6020ca	0.8755003
7	0x3e7477c2	0.23873809
8	0x3fd13d03	1.6346744
9	0x3f219e98	0.6313262
10	0xbebb67cf	-0.36602637
11	0x3f1d3b38	0.61418486
12	0x3d896158	0.0670802
13	0xbfa2130f	-1.2662066
14	0x3dc23a02	0.0948372
15	0x3fb9e535	1.4523073
16	0xbe05cbd1	-0.13066031
17	0x3f02430a	0.50883543
18	0xbebccc41	-0.36874583
19	0xbedc038b	-0.42971453
20	0x3e9aaee3	0.30211553
21	0xbf922b46	-1.1419456
22	0xbe48e818	-0.19619787
23	0xbfb4858d	-1.4103256
24	0xbf29646d	-0.6616886
25	0x3fc7b0da	1.5600846
26	0x3ec04b3f	0.37557408
27	0x3ee09429	0.43863037
28	0x3f9de784	1.2336278
29	0x3e9fdd03	0.31223306
30	0xbebb1922	-0.36542612
31	0xbec44f7d	-0.38341895
32	0x3e2e109f	0.16998528
33	0xbf112aea	-0.56706107
34	0xbf239453	-0.638982
35	0x3fa4abd5	1.2864939
36	0xbe50b76c	-0.2038247
37	0x3f7da187	0.99074596
38	0x3eca425a	0.39503747
39	0x3e183209	0.14862837
40	0x3f84f084	1.03859
41	0x3fb98bde	1.4495809
42	0x3f35cbef	0.710143
43	0x3f442bfa	0.766296
44	0xbe84a7be	-0.25909227
45	0x3e57f63b	0.21090023
46	0xbe75a419	-0.2398838
47	0x3f443b2f	0.76652807
48	0xbe03fb90	-0.12888932
49	0xbe1f053f	-0.15529345
50	0x3e0277ac	0.12740964
51	0x3f2bfb16	0.6718
52	0xbf550d92	-0.8322383
53	0x3f0e6592	0.55623734
54	0xbf2cbd56	-0.67476404
55	0xbb6410ed	-0.0034800128
56	0x3f09df3a	0.5385624
57	0x3edc2dfa	0.43003827
58	0xbf70be33	-0.9404022
59	0x3c84abc8	0.016195193
60	0x3f9cd066	1.2251098
61	0x3ed3cad7	0.41365692
62	0x3f43eeb1	0.7653609
63	0xbe413bd9	-0.18870486
64	0xbeba3f1c	-0.36376274
65	0x3e667163	0.22504191
66	0x3ea947f1	0.330627
67	0xbe0d4b7a	-0.13798323
68	0xbd592478	-0.053013295
69	0x3eba8cdb	0.3643559
70	0xbe6ccbd0	-0.23124623
71	0x3e29823d	0.16553588
72	0xbf9841e3	-1.1895107
73	0xbc7b01b5	-0.015320231
74	0xbee3f114	-0.44519866
75	0xbea407d1	-0.32037213
76	0x3eadcb87	0.33944342
77	0xbf6dd2fa	-0.9290005
78	0xbe82cf71	-0.2554889
79	0x3d4b7eee	0.049681596
80	0xbf200b0b	-0.6251685
81	0xbf90500f	-1.1274432
82	0xbda99e81	-0.08282185
83	0x3e83acd2	0.2571779
84	0x3e9909cb	0.29890284
85	0xbeaa491f	-0.33258912
86	0x3e55b799	0.20870818
87	0x3f0455b6	0.51693285
88	0xbd9a1fc4	-0.0752559
89	0xbecd8f45	-0.40148368
90	0x3e3cd794	0.18441612
91	0xbe39e0df	-0.18152188
92	0x3eae66b1	0.34062722
93	0x3cb7b827	0.022426678
94	0x3e03992c	0.12851399
95	0x3fe9631f	1.8233374
96	0x3efa3fcd	0.488768
97	0x3f08395d	0.5321253
98	0x3f024de3	0.50900096
99	0xbedd1f13	-0.4318777
100	0xbdad1552	-0.08451332
101	0xbf1f22bd	-0.6216238
102	0x3f016f59	0.5056053
103	0x3f3bb2ce	0.7331971
104	0x3f04cfff	0.51879877
105	0x3f78484c	0.96985316
106	0xbe423fa8	-0.18969595
107	0xbefee460	-0.4978361
108	0xbf0f53c8	-0.55987215
109	0xbe620480	-0.22072029
110	0xbe00b6be	-0.1256971
111	0xbdb505c0	-0.08838987
112	0xbd595350	-0.05305797
113	0x3dc09879	0.09404082
114	0xbd87b323	-0.066259645
115	0xbec24d92	-0.37949806
116	0xbeb1e09d	-0.3474168
117	0xbf2a1e8d	-0.66452867
118	0xbc953c47	-0.018217219
119	0xbf4803f9	-0.7813106
120	0x3dcb8360	0.09937167
121	0xbf9054ee	-1.1275918
122	0x3eeefa79	0.4667547
123	0xbe2405f1	-0.16017891
124	0xbf019a48	-0.5062604
125	0xbefdfd91	-0.49607518
126	0xbdce4b77	-0.100729875
127	0xbe1911b3	-0.14948158
128	0xbe118264	-0.14209896
129	0x3e608365	0.21925123
130	0xbe0c1534	-0.13679963
131	0xbe405771	-0.18783356
132	0xbdcc4654	-0.099743515
133	0x3e62311d	0.22089048
134	0x3e08a270	0.13343215
135	0xbe763cc1	-0.24046613
136	0xbde75ff6	-0.112976
137	0xbf2a2f95	-0.66478854
138	0x3f0f525e	0.5598506
139	0xbce2326b	-0.027611932
140	0xc03a051e	-2.9065623
141	0xbe478fae	-0.19488403
142	0xbda2fcfa	-0.07958408
143	0x3e62e635	0.2215813
144	0xbf1b2bad	-0.6061352
145	0x3f2a6736	0.6656374
146	0x3f08e5b7	0.5347552
147	0xbec848a2	-0.39117914
148	0x3df491be	0.119418606
149	0x3dda0a18	0.106464565
150	0x40212615	2.5179493
151	0xbfa3e7bb	-1.2805094
152	0x4010da99	2.2633421
153	0xbf9b1e13	-1.2118553
154	0xbe629217	-0.22126041
155	0x3f1124e9	0.56696945
156	0x3f8f4fa9	1.1196185
157	0xbed8dfc6	-0.42358226
158	0x3e519263	0.20465998
159	0xbf666e58	-0.9001212
160	0xbe85cb99	-0.26131895
161	0xc0129bea	-2.2907662
162	0x3ce962ae	0.028489437
163	0xbf04ec40	-0.5192299
164	0x3f0431bc	0.5163839
165	0xbecd3afd	-0.40084067
166	0x3fc3656b	1.5265325
167	0xbf7c4abf	-0.98551553
168	0x3fb38e75	1.402785
169	0x3c001124	0.007816587
170	0x3f5f0083	0.87110156
171	0x3f3ac897	0.72962326
172	0xbda49a35	-0.08037225
173	0x3f593be5	0.84857017
174	0x3ea608b2	0.3242851
175	0xc002958f	-2.0403783
176	0x3f0671f4	0.5251763
177	0xbe3f1453	-0.18660097
178	0x3f481263	0.78153056
179	0x3cdfddf3	0.027327513
180	0x3e1ec96d	0.15506525
181	0x3e0ca8b5	0.13736232
182	0x3ef232ab	0.47304282
183	0x3e0fb48f	0.14033721
184	0x3ef8385b	0.48480496
185	0x3f9a57a1	1.2057992
186	0x3f3397a2	0.7015325
187	0x3f907754	1.1286416
188	0x3fa4a17a	1.2861779
189	0xc022b156	-2.5420737
190	0x3ea869cb	0.32893214
191	0x3e0f14d2	0.13972786
192	0xbecc3e0c	-0.39891088
193	0x3f7e0c59	0.9923759
194	0xbf8367d5	-1.0266062
195	0x3f829ff8	1.0205069
196	0xbf67d1cc	-0.905545
197	0x3ecc243a	0.3987139
198	0x3edd5dbe	0.43235582
199	0x3ed9a942	0.42511946
200	0x3d4d05f1	0.050054494
201	0x3f265863	0.6497862
202	0x3cbb4a48	0.022862568
203	0x3e92ecbb	0.28696236
204	0xbecafc62	-0.39645678
205	0xbf06f67c	-0.52719855
206	0xbe800633	-0.2500473
207	0x3f4dde2c	0.8041713
208	0xbed6d662	-0.41960436
209	0x3e0eb3dd	0.139358
210	0xbf24640b	-0.64215153
211	0x3e8a4241	0.27003673
212	0xbefe9bf0	-0.49728346
213	0x3e2142e4	0.15748173
214	0x3eadef35	0.33971563
215	0xbf1707e8	-0.5899644
216	0xbe5383a6	-0.20655689
217	0xbf3f3868	-0.74695444
218	0xbeee9ce2	-0.46604067
219	0xc019e9b8	-2.40489
220	0x3b095c61	0.0020959603
221	0xbff0c63f	-1.88105
222	0x3e0c40e9	0.13696636
223	0x3ee4d9cb	0.44697413
224	0x3f096d71	0.5368262
225	0x3f104cbe	0.563671
226	0xbc173818	-0.009229682
227	0x3cef73b8	0.029229984
228	0xbe1adc48	-0.15123093
229	0xbe9523a9	-0.2912877
230	0x3f8b1f54	1.0868936
231	0x3ec573fa	0.38565046
232	0x3e264460	0.1623702
233	0x3e19c1cd	0.15015335
234	0x3e2d8432	0.1694496
235	0xbe4872c3	-0.19575028
236	0xbd6b28c8	-0.05741194
237	0xbd930794	-0.0717918
238	0x3d19bb4a	0.03753213
239	0xbdaa0b5e	-0.08302949
240	0x3fa3c3fc	1.2794185
241	0xbd888fd7	-0.0666806
242	0x3eca9b43	0.3957158
243	0xbd929882	-0.07157995
244	0xbd848769	-0.0647114
245	0xbcdf7e7c	-0.027281992
246	0x3e0aaa5d	0.13541551
247	0x3ddec416	0.10877244
248	0x3b986a66	0.0046513556
249	0x3defca57	0.11708515
250	0xbf08e7ca	-0.5347868
251	0xbe9ecdec	-0.3101648
252	0xbdeff736	-0.117170736
253	0xbd55d699	-0.05220661
254	0x3e02c319	0.12769736
255	0xbd8a93bb	-0.067664586

net.0.bias f4 [128]
0	0x3ef2a227	0.47389337
1	0x3f2a4e72	0.6652595
2	0x3f271aa3	0.6527502
3	0x3d8d605c	0.06903145
4	0x3e5b874c	0.2143833
5	0x3f88e750	1.0695591
6	0xbe40ae99	-0.18816604
7	0x3f17f5a3	0.59359187
8	0x3d1daf16	0.038497053
9	0xbed39a38	-0.41328597
10	0xbde7c1c2	-0.11316253
11	0x3dac07d6	0.08399932
12	0x3f21b774	0.6317055
13	0xbe23872b	-0.15969531
14	0xbe5b3eb3	-0.21410637
15	0xbe41deed	-0.18932696
16	0xbe9553b6	-0.2916543
17	0x3ecf8a2f	0.40535113
18	0x3f5f36b6	0.8719286
19	0x3f5cdb86	0.86272466
20	0x3ea8852a	0.32914096
21	0x3db7fd74	0.08983889
22	0xbf03b6ea	-0.5145098
23	0x3db70ddd	0.08938191
24	0xbdcc560a	-0.09977348
25	0xbf0f4468	-0.55963755
26	0x3f7274c1	0.947094
27	0x3dd95329	0.10611565
28	0xbe28af98	-0.16473234
29	0xbe4bcbbc	-0.19901937
30	0xbea1e93c	-0.31623256
31	0xbe9bb906	-0.304146
32	0x3e90fdfc	0.28318775
33	0xbe061cda	-0.13096943
34	0x3ee10c22	0.4395457
35	0x3f86d441	1.0533525
36	0xbccbceef	-0.024878947
37	0x3e0106dc	0.12600273
38	0x3f055a9a	0.5209137
39	0xbe9a6cee	-0.30161232
40	0xbe1f1996	-0.15537104
41	0x3e9266a3	0.2859393
42	0x3e8e6850	0.2781396
43	0x3e743ca5	0.23851259
44	0x3e511646	0.20418653
45	0xbe9965a4	-0.29960358
46	0x3e99cb03	0.30037698
47	0x3f359bb4	0.7094071
48	0xbea63077	-0.3245885
49	0xbe8f7591	-0.28019384
50	0xbe7ac87d	-0.24490543
51	0x3e4a15db	0.197349
52	0xbef2f31b	-0.474511
53	0x3eae34f4	0.34024775
54	0x3d919aca	0.07109602
55	0x3dbcc7c8	0.09217793
56	0xbe60a997	-0.21939693
57	0xbe800108	-0.25000787
58	0x3f7ad6c1	0.9798394
59	0x3ed38d42	0.4131871
60	0x3cc50f54	0.02405516
61	0x3f81fe37	1.0155705
62	0x3e808949	0.2510474
63	0x3ef0c5ed	0.47026005
64	0xbcfe1295	-0.03101472
65	0xbf2a8089	-0.6660238
66	0x3d83362e	0.06406818
67	0xbd71d159	-0.05903754
68	0x3eb8c8c7	0.3609068
69	0x3eec2c11	0.4612737
70	0x3f8d6d7e	1.1049039
71	0x3eb0b848	0.34515595
72	0x3f5b777e	0.85729206
73	0x3f082d28	0.531939
74	0x3da55e1a	0.08074589
75	0xbe52aee8	-0.20574534
76	0xbe998ca8	-0.29990125
77	0x3de806b9	0.11329407
78	0x3b457217	0.0030127817
79	0x3f68d697	0.9095244
80	0x3e68e5ac	0.22743863
81	0x3e971c9c	0.29514015
82	0x3e2ce455	0.16883977
83	0x3f6823a1	0.90679365
84	0xbd2f734d	-0.04283457
85	0x3ed15479	0.4088476
86	0x3f7eed52	0.9958087
87	0xbbee8b13	-0.0072797625
88	0xbe499b6d	-0.19688196
89	0xbd5ce130	-0.053925693
90	0x3d92fc2a	0.07177003
91	0x3dad678e	0.08467017
92	0xbe583ef4	-0.21117765
93	0xbe90f3e0	-0.28311062
94	0x3ebf1740	0.37322426
95	0x3e5c3486	0.21504411
96	0xbde71f73	-0.11285295
97	0xbe8f4dfa	-0.2798918
98	0xbeaabe7a	-0.33348447
99	0xbe695d32	-0.22789457
100	0x3f50ca15	0.8155835
101	0x3eee5501	0.46549228
102	0x3d4079bb	0.04699109
103	0x3e977077	0.2957799
104	0xbe817c72	-0.25290257
105	0x3e86bcb8	0.26315856
106	0x3f4b75a5	0.79476386
107	0xbf0284d7	-0.5098395
108	0xbe385fde	-0.1800532
109	0x3e8d2cdf	0.27573296
110	0x3f52bb06	0.82316625
111	0xbf04ca34	-0.5187104
112	0x3bffc053	0.0078049093
113	0x3ec92072	0.39282566
114	0x3edb8d59	0.42881277
115	0x3f229d19	0.6352096
116	0x3f04ca35	0.51871043
117	0x3efaff12	0.49022728
118	0xbe4194d0	-0.18904424
119	0x3e3bc755	0.18337758
120	0x3e3932b9	0.18085755
121	0x3ef17233	0.4715744
122	0x3f3d7465	0.7400573
123	0x3f0cd641	0.55014426
124	0x3f5e1758	0.8675437
125	0x3e31d3d0	0.17365956
126	0x3ee6e32e	0.450952
127	0xbd52d9e0	-0.051477313

net.2.weight f4 [128, 128]
0	0xbf4074a6	-0.7517799
1	0x3ed3d6fd	0.4137496
2	0x3f10a4aa	0.5650126
3	0x3e8661b5	0.2624642
4	0x3e156160	0.14587927
5	0x3f33ac70	0.70184994
6	0xbe8c4632	-0.27397305
7	0xbf3963a7	-0.7241768
8	0xbea3647e	-0.31912607
9	0xbcf5dbe6	-0.030012082
10	0x3f21d9a4	0.6322272
11	0x3e4afd32	0.19823149
12	0x3e88f196	0.26746815
13	0xbef148f3	-0.47125968
14	0xbed66ee7	-0.41881487
15	0xbf27e6bd	-0.65586454
16	0xbeba4880	-0.36383438
17	0x3eca880c	0.3955692
18	0x3f33b7b8	0.7020221
19	0x3f0149d3	0.5050327
20	0x3e99500c	0.29943883
21	0x3e1bda1f	0.15219925
22	0x3e917b1d	0.2841424
23	0x3cd9a32a	0.02656706
24	0x3edeb988	0.43500924
25	0xbe906710	-0.2820363
26	0x3ec983bd	0.3935832
27	0xbd880bee	-0.066429004
28	0x3e6e4b54	0.23270923
29	0xb9c3e07f	-0.0003736056
30	0xbf9607f2	-1.1721175
31	0xbd2f12fd	-0.042742718
32	0x3ee492ce	0.44643253
33	0xbe1c156d	-0.15242548
34	0x3e71dfd3	0.23620538
35	0x3f5590f9	0.83424336
36	0xbef7fdfb	-0.4843596
37	0x3eb3afed	0.35095158
38	0x3f605dc9	0.87643105
39	0xbdcf8609	-0.10132987
40	0x3e1e9db4	0.15489846
41	0x3da54b5e	0.08071016
42	0xbda5e279	-0.08099837
43	0x3f39ccba	0.7257801
44	0xbd57820e	-0.052614264
45	0xbe7def15	-0.24798234
46	0x3f5846ae	0.8448285
47	0x3f017fb4	0.50585485
48	0x3f46b0f7	0.77613777
49	0xbf056093	-0.52100486
50	0xbe944646	-0.28959864
51	0x3f028aa0	0.50992775
52	0xbf817bfe	-1.0115964
53	0x3ef0c285	0.47023407
54	0x3ef13726	0.47112387
55	0x3f524238	0.8213229
56	0xbe9cd0b8	-0.3062799
57	0xbc0f881c	-0.008760478
58	0x3f42c567	0.7608246
59	0x3f1d3094	0.6140225
60	0xbedaa73c	-0.42705715
61	0x3f8ad25d	1.0845448
62	0x3e4bc438	0.1989907
63	0x3bafa3ca	0.0053601013
64	0x3e273dd7	0.16332184
65	0xbc7e83be	-0.0155343395
66	0xbef853ac	-0.48501337
67	0x3ea8e682	0.32988364
68	0x3ede82b0	0.43459082
69	0x3ef6f644	0.4823476
70	0x3f0be1ec	0.54641604
71	0x3f2424b4	0.64118505
72	0x3e01a897	0.12661968
73	0x3ee8f2cb	0.45497736
74	0xbdb91aa2	-0.09038283
75	0x3d921727	0.07133322
76	0xbce32eb1	-0.027732225
77	0xbe098731	-0.13430478
78	0x3e08667b	0.13320343
79	0x3f1f137b	0.621391
80	0x3ebf3377	0.37343952
81	0x3d5d9eaf	0.05410641
82	0x3ead9617	0.33903572
83	0x3dbe588e	0.09294234
84	0xbe3e7017	-0.18597446
85	0xbe00b7d1	-0.1257012
86	0x3f4137ea	0.75475943
87	0x3fc7b669	1.5602542
88	0x3d07a5cb	0.033117097
89	0xbf099bf7	-0.5375361
90	0x3f09aa6d	0.53775674
91	0x3d4ab38c	0.049487635
92	0x3ee6fb09	0.451134
93	0xbe99c47b	-0.30032715
94	0x3ed2968c	0.41130483
95	0x3ed311e4	0.41224587
96	0x3e7b46ff	0.24538802
97	0x3d6042d2	0.054751225
98	0x3e1d714d	0.15375252
99	0xbc1230f0	-0.0089228
100	0x3f3285dd	0.6973551
101	0x3f3a52c9	0.7278257
102	0xbea90a79	-0.33015803
103	0x3f29c81e	0.6632098
104	0x3bffb34a	0.0078033553
105	0x3e1ab45b	0.15107863
106	0x3f2ccf4b	0.67503804
107	0xbdd18b01	-0.10231591
108	0xbeb9300e	-0.36169475
109	0x3e91e716	0.28496617
110	0x3f7cc76e	0.98741806
111	0x3daa1b68	0.083060086
112	0xbe72e36b	-0.23719566
113	0x3f29e717	0.6636824
114	0x3eecb711	0.4623342
115	0x3e4fbb6d	0.20286341
116	0x3ef5f25f	0.48036477
117	0x3debb0d5	0.115083374
118	0x3e3dc5b0	0.18532443
119	0x3f073a29	0.5282312
120	0x3ea539fe	0.32270807
121	0x3f1f61f7	0.6225886
122	0x3eee0bd2	0.46493393
123	0x3e3cd33b	0.18439953
124	0x3f0bb611	0.54574686
125	0xbe539042	-0.20660499
126	0xbcfc6b00	-0.03081274
127	0xbe2a1de5	-0.16612966
128	0x3cac32ef	0.02102038
129	0x3caad46e	0.020853247
130	0xbd85df85	-0.065367736
131	0x3bf329ea	0.007420768
132	0x3d0bafc4	0.03410317
133	0xbdef5b8d	-0.11687384
134	0x3ccc08d9	0.024906563
135	0xbc29c255	-0.010361274
136	0x3b86c7a3	0.004113154
137	0xbd5dc893	-0.05414636
138	0xbd2344ed	-0.039860655
139	0xbde08f40	-0.10964823
140	0xbe035683	-0.1282597
141	0xbd90457a	-0.070445016
142	0xbdbc62d3	-0.09198537
143	0xbc5a8835	-0.013338138
144	0xbd03888e	-0.03211265
145	0x3d22483e	0.039619677
146	0xbd5b0832	-0.053474613
147	0xbd4bcf52	-0.049758263
148	0xbd84b8b8	-0.06480545
149	0xbb7c2e7e	-0.003847986
150	0x3c604d3d	0.01369029
151	0xbd3db0c0	-0.04631114
152	0x3ce44cfc	0.02786874
153	0x3b12b880	0.0022387803
154	0xbd87aed6	-0.06625144
155	0x3d0db374	0.034594968
156	0xbd36d485	-0.04463627
157	0xbd385246	-0.045000337
158	0xbd89f61e	-0.06736396
159	0xbde19826	-0.11015348
160	0x3d62b2c4	0.055346265
161	0xbcac6e02	-0.02104855
162	0x3caebfae	0.021331634
163	0xbd86fb5f	-0.06590914
164	0xbdf592c2	-0.119908825
165	0x3c987119	0.018608617
166	0xbc891ab2	-0.016736362
167	0x3d3094d2	0.043110676
168	0xbdd6072f	-0.10450589
169	0xbe239028	-0.1597296
170	0xbc21e4a4	-0.009881172
171	0xbd8ecce5	-0.06972674
172	0x3cedfcb8	0.02905117
173	0xbcad527c	-0.021157496
174	0xbd7c535d	-0.06160294
175	0xbdef0350	-0.11670554
176	0xbcc71044	-0.024299748
177	0x3d297d78	0.041379422
178	0xbd15436e	-0.03644126
179	0xbbeb4865	-0.007180261
180	0x3d04b075	0.032394845
181	0x3cda386d	0.026638234
182	0xbdb7e7bd	-0.089797474
183	0xbddb7cdf	-0.10717177
184	0xbcf79a34	-0.030224897
185	0x3d02cb30	0.031932056
186	0xbdc5d641	-0.09660006
187	0xbd905e83	-0.07049277
188	0xbc740e3a	-0.01489597
189	0xbd6ab7c8	-0.057304174
190	0x3d841550	0.064493775
191	0xbda2a87f	-0.07942294
192	0xbdd07d7b	-0.101801835
193	0xbc80556f	-0.015665738
194	0xbd4b862b	-0.0496885
195	0xbdf43627	-0.11924391
196	0xbd85c5e0	-0.06531882
197	0x3d15e1a3	0.036592137
198	0xbd7dc6eb	-0.06195728
199	0x3c9ee4cb	0.019396206
200	0xbe0e1dae	-0.1387851
201	0xbd91f8eb	-0.071275555
202	0xbd6b9a6f	-0.057520326
203	0x3b6b0368	0.0035860185
204	0xbd6d526a	-0.057939924
205	0xbd3534d1	-0.044239823
206	0xbc5f5338	-0.013630681
207	0xbd59097b	-0.052987557
208	0x3baf5c4d	0.0053515793
209	0x3d22fb09	0.039790187
210	0x3d6210c6	0.055191778
211	0x3c896722	0.01677281
212	0x3d5af2b4	0.053454116
213	0xbbed55c3	-0.0072428896
214	0xbaeb8cc1	-0.0017971025
215	0x3d3c4bdb	0.04597078
216	0xbd7dab4d	-0.061930943
217	0x3ca9e7b3	0.020740366
218	0x3d72db83	0.059291374
219	0xbcff7334	-0.031182863
220	0xbddcc673	-0.10780039
221	0xbdf7ea0e	-0.12105189
222	0xbd33418c	-0.043763682
223	0xbe00d483	-0.12581067
224	0xbca74a0d	-0.020421052
225	0x3bcf2843	0.0063219382
226	0xbd7819c2	-0.06057144
227	0x3c8b93d5	0.017038265
228	0xbdef97ff	-0.11698913
229	0xbda78475	-0.08179561
230	0xbdec764d	-0.115460016
231	0xbccc0fe4	-0.024909921
232	0xbcf923a1	-0.030412497
233	0xbca2cf2e	-0.019874182
234	0x3b8968dd	0.004193409
235	0x3cd76ffe	0.02629852
236	0x3d363d35	0.044491965
237	0xbd7b8a51	-0.061411206
238	0xbd95c57b	-0.07313057
239	0xbcfb42b0	-0.030671448
240	0xbd49fc00	-0.04931259
241	0xbe0e55ed	-0.13899966
242	0x3cf12564	0.029436775
243	0xbd6812e5	-0.056658644
244	0xbd5058ac	-0.050865814
245	0xbd9bb9a1	-0.07603765
246	0xbd682415	-0.056675036
247	0xbdc6fba7	-0.097159676
248	0xbd2e7e7a	-0.042601086
249	0xbd0485f1	-0.0323543
250	0xbccb2d13	-0.024801766
251	0xbc2b7e8a	-0.010467181
252	0xbdc1ae18	-0.09457034
253	0x3d566ad6	0.05234798
254	0x3d85bf91	0.06530679
255	0xbdf9b278	-0.12192243

net.2.bias f4 [128]
0	0x40062180	2.0957947
1	0xbe1114ca	-0.14168087
2	0x3f544aed	0.8292683
3	0x400965a9	2.1468298
4	0x400d3a30	2.2066765
5	0xbdd1a66f	-0.10236823
6	0xbb13d97f	-0.0022560058
7	0x3fddacaf	1.7318324
8	0x3e989e2b	0.29808173
9	0x400d3c9f	2.206825
10	0x3e9c02a0	0.30470753
11	0x3ffe3a2c	1.9861503
12	0x3ef81d6e	0.48459953
13	0x3fb75fe8	1.4326143
14	0xbcd6c45d	-0.02621668
15	0xbd4d409a	-0.050110437
16	0xbe1cc41e	-0.15309188
17	0x3fd91bb8	1.6961584
18	0x3f872cf9	1.05606
19	0xbe03ec2f	-0.12883066
20	0x3efc7a14	0.49311888
21	0x3eebb35d	0.4603528
22	0xbe089642	-0.13338569
23	0x3cfba84d	0.0307199
24	0xbe1c3dcb	-0.15257947
25	0xbdfb3350	-0.122656465
26	0x3ea2d6e2	0.31804568
27	0x3f4cfb95	0.80071384
28	0xbdcbe1e0	-0.099551916
29	0xbc235456	-0.009968838
30	0x3fa194b2	1.2623503
31	0x3ea97853	0.33099613
32	0x3fa5d066	1.2954223
33	0xbe49a4d0	-0.19691777
34	0x3fc0fc9b	1.5077089
35	0xbd3f6076	-0.04672285
36	0x3fc4865d	1.5353504
37	0x3ff82325	1.9385725
38	0x3ef21dfb	0.47288498
39	0x3eb0021e	0.34376615
40	0xbbf269f3	-0.007397884
41	0xbd2b79b4	-0.041864112
42	0x4008ee9c	2.1395636
43	0x3f816a1d	1.0110508
44	0x3f02c3a7	0.5107979
45	0xbd97428b	-0.07385739
46	0x3f3ba55f	0.7329921
47	0x40074d9a	2.1141114
48	0x3f1ca511	0.6118937
49	0xbed853a5	-0.42251316
50	0x3e96057b	0.29301056
51	0x3f5fc427	0.8740868
52	0x3f10fa78	0.56632185
53	0x3c48ec41	0.012263359
54	0xbea52281	-0.32252887
55	0xbd5e2ab6	-0.05423995
56	0xbdbf6d8a	-0.09347065
57	0xbda00ff6	-0.07815544
58	0xbdf253e7	-0.11832409
59	0x3f3e3390	0.7429743
60	0xbd741185	-0.05958702
61	0x3ff8f250	1.9448948
62	0x3f4e1714	0.80503964
63	0xbd95147d	-0.072792985
64	0xbe0e59d1	-0.1390145
65	0xbd9d3243	-0.07675602
66	0x3ffc0ee7	1.9692048
67	0xbde5b6d2	-0.11216511
68	0x3ff229b4	1.8918977
69	0x3f2551cb	0.6457793
70	0x4004a7ac	2.0727339
71	0xbdc82b4d	-0.09773884
72	0xbf8a927c	-1.0825953
73	0xbe0d950d	-0.1382639
74	0xbe08ab3a	-0.13346568
75	0x3fb62d4a	1.4232571
76	0x3f17a00c	0.5922859
77	0x3ff41c75	1.9071184
78	0xbf0f613d	-0.5600775
79	0x4006e4f6	2.1077247
80	0x3fbd5729	1.4792224
81	0xbe21e693	-0.15810613
82	0xbdeaf00b	-0.11471566
83	0xbce82af6	-0.028340798
84	0xbe241dcd	-0.16026993
85	0xbdfbfcc7	-0.12304073
86	0x3f2bce2b	0.6711146
87	0x3f9837bd	1.189201
88	0xbd6bcd46	-0.05756881
89	0xbde58c39	-0.11208386
90	0x3f116f0f	0.56810087
91	0xbe05d1a0	-0.13068247
92	0x3b9d12c2	0.004793496
93	0xbdbece55	-0.093166985
94	0xbd9d17da	-0.07670565
95	0x400a675f	2.1625593
96	0xbebfc4e5	-0.37454906
97	0xbe048d36	-0.12944493
98	0x3f1e6f2f	0.618884
99	0x3cfab84a	0.030605454
100	0x40128cdc	2.2898474
101	0x400c8be6	2.1960387
102	0xbd0cbdbf	-0.034360643
103	0x3f50882b	0.81457776
104	0xbdc5ce4b	-0.09658488
105	0x3f5190ed	0.81861764
106	0x3f8bfb4f	1.0936068
107	0xbd8550de	-0.06509565
108	0x3d18f0c8	0.037339002
109	0xbd5fda86	-0.05465176
110	0x3f1e275f	0.61778826
111	0x3c430980	0.01190412
112	0x3fbe65d2	1.4874823
113	0xbd3b954b	-0.045796674
114	0xbd6a5e15	-0.05721863
115	0x3c834da0	0.016028225
116	0x3f434011	0.7626963
117	0xbbfb5df4	-0.007671112
118	0x3fe6a2d7	1.8018445
119	0x3fad61f6	1.354552
120	0xbdca03b6	-0.09863989
121	0x3e6e290a	0.23257843
122	0xbe0892c7	-0.13337241
123	0xbd171d58	-0.03689322
124	0xbcb070b2	-0.021538112
125	0xbdc0b282	-0.09409048
126	0x3ee0793e	0.438425
127	0x3f944203	1.1582645

net.4.weight f4 [13, 128]
0	0x3f0a49a4	0.54018617
1	0x3cc7ca78	0.024388537
2	0x403461aa	2.818461
3	0x3ee21595	0.4415709
4	0x3f0e9380	0.5569382
5	0xbd30e484	-0.04318668
6	0xbd60b82d	-0.054863144
7	0x3eaab369	0.33340004
8	0x403c98ea	2.9468331
9	0x3efc7e90	0.4931531
10	0x405d24c0	3.455368
11	0x3f001638	0.50033903
12	0x403eda71	2.9820826
13	0x3f497923	0.78700465
14	0xbaab0bfa	-0.0013049834
15	0x3da98f1b	0.08279248
16	0x3d93b62d	0.07212482
17	0x3f9b9169	1.2153751
18	0x400b5432	2.1770139
19	0xbce23aca	-0.027615923
20	0x40394b42	2.8952184
21	0x40609f73	3.509732
22	0xbca1b9e6	-0.019741964
23	0xbf895d2a	-1.0731556
24	0x3d917495	0.071023144
25	0x3ba543ca	0.0050434815
26	0x4040e9c8	3.0142689
27	0x4021202a	2.5175881
28	0xbde53f81	-0.11193753
29	0xbf3d60c5	-0.73975784
30	0x3fd7584c	1.6823821
31	0x40016c04	2.0222178
32	0x3f864303	1.04892
33	0xbf746975	-0.95473415
34	0x3f145b4d	0.57951814
35	0x3d737c60	0.059444785
36	0x3f1e0a65	0.6173461
37	0x3eb605db	0.35551342
38	0x40435898	3.0522823
39	0x402d6256	2.709127
40	0x3ed7c41c	0.42141807
41	0x3da63d9b	0.08117219
42	0x3ecaf681	0.39641193
43	0x4045a6f9	3.0883162
44	0x402d542a	2.708262
45	0xbbb49f90	-0.0055121854
46	0x401fafb7	2.4950998
47	0x3ed9157c	0.42399204
48	0x4007f128	2.124094
49	0xbe047f60	-0.12939215
50	0x4039c744	2.9027872
51	0x4024e0cb	2.5762203
52	0x40172f3a	2.3622575
53	0xbbd9e95b	-0.0066501326
54	0x3f426456	0.7593435
55	0x3d33681a	0.04380045
56	0xbca1c142	-0.019745473
57	0xbdde6f23	-0.108610414
58	0xbbbe3110	-0.0058041885
59	0x3fd593a9	1.6685687
60	0x3d5fefdb	0.054672103
61	0x3ed07b07	0.40718862
62	0x3fc4b521	1.5367776
63	0xbd91e84d	-0.07124386
64	0x3d397f5c	0.045287475
65	0xbd9cdec9	-0.076596804
66	0x3ec2ca17	0.38044807
67	0x3d7eeb92	0.062236376
68	0x3eb52020	0.35376072
69	0x40174a53	2.3639114
70	0x3f15ccc3	0.58515567
71	0x3d56b9b1	0.052423183
72	0xbf565efb	-0.8373868
73	0xbd00e365	-0.03146686
74	0x3d6cfc4c	0.057857797
75	0x3f6e1bc1	0.930111
76	0x40103b42	2.2536168
77	0x3f3ac039	0.7294956
78	0xbf8e97e7	-1.1140107
79	0x3f0553cb	0.5208098
80	0x3f8e92dd	1.1138569
81	0xbc75ada0	-0.014995009
82	0xbd5324dc	-0.051548824
83	0x3d6f7e4c	0.058470055
84	0x3d2762a6	0.040865563
85	0xbdcdf15c	-0.10055801
86	0x3fce3101	1.6108705
87	0x405b818d	3.4297822
88	0x3d963799	0.07334823
89	0xbc7d6042	-0.015464844
90	0x403ec61c	2.9808416
91	0x3db057b2	0.086104766
92	0xbbf01d56	-0.007327716
93	0xbda655b8	-0.08121818
94	0xbc3f9cd8	-0.011695109
95	0x3f134a44	0.57535195
96	0x401153cc	2.2707396
97	0x3d30a086	0.043121837
98	0x401b4724	2.426217
99	0x3c171671	0.009221659
100	0x3f1dd179	0.61647755
101	0x3f0461a8	0.5171151
102	0xbd4efccf	-0.050534066
103	0x401ccdb4	2.4500551
104	0x3c85d262	0.01633567
105	0x4000f16e	2.0147357
106	0x400c9692	2.19669
107	0x3d10cb38	0.035350055
108	0x3d1195ce	0.035543256
109	0xbd28516a	-0.041093268
110	0x3fe04eb6	1.7524021
111	0xbc445bdc	-0.011984792
112	0x3f45023d	0.7695654
113	0xbd76859a	-0.060186006
114	0xbd04ddfd	-0.032438267
115	0xbb4492c5	-0.0029994708
116	0x3fff605c	1.9951282
117	0xbd8ff84f	-0.07029783
118	0x3f0dcae1	0.55387694
119	0x3fb06461	1.3780633
120	0x3c3f6030	0.011680648
121	0x4034a7b2	2.8227353
122	0x3d126d7b	0.03574894
123	0xbd789955	-0.060693104
124	0x3cc50c4c	0.024053715
125	0x3c83b687	0.016078247
126	0x3ff78d0f	1.9339923
127	0x40128e1f	2.2899244
128	0x3f0f9120	0.5608082
129	0x3db8d4f1	0.0902499
130	0x40458428	3.0861912
131	0x3f0bc312	0.5459453
132	0x3ef960c8	0.4870665
133	0x3d382e0e	0.044965796
134	0x3d9a9b6a	0.07549174
135	0x3f15ff83	0.58593005
136	0x403293c2	2.7902684
137	0x3effb5b8	0.49943328
138	0x4058482e	3.3794055
139	0x3e8b7066	0.2723419
140	0x403afd98	2.9217281
141	0x3f096639	0.53671604
142	0x3d3fa862	0.04679144
143	0x3da3fea1	0.08007551
144	0x3d831938	0.064012945
145	0x3fa22e79	1.2670432
146	0x3ff766ac	1.9328208
147	0x3c456592	0.012048142
148	0x40456cab	3.0847576
149	0x403f2306	2.9865127
150	0xba8197a2	-0.0009887109
151	0xbf6e0e69	-0.9299074
152	0xbdaca873	-0.08430567
153	0xbdfa179b	-0.12211534
154	0x40112df5	2.26843
155	0x3fe1a0a3	1.7627147
156	0x3d208328	0.03918758
157	0x3f1282b5	0.57230693
158	0x3fcbc5f1	1.5919782
159	0x4010d8b0	2.2632256
160	0x3fa1a916	1.2629726
161	0xbf6a726d	-0.9158085
162	0x3f03174c	0.51207423
163	0xbd2b670a	-0.041846313
164	0x3f153c9d	0.58295614
165	0x3ef548dc	0.4790715
166	0x405bbe68	3.4334965
167	0x401eb826	2.4799895
168	0x3f020b56	0.5079855
169	0x3d52a79e	0.051429383
170	0x3efce9b1	0.49397042
171	0x4021f0c8	2.5303211
172	0x4048fb96	3.1403556
173	0x3d8280cf	0.063722245
174	0x4013bba6	2.3083282
175	0x3ed4426d	0.4145693
176	0x40182e90	2.377842
177	0x3f0d1c45	0.5512126
178	0x403c948d	2.9465668
179	0x4035b143	2.8389442
180	0x4006e799	2.1078856
181	0x3c1d79ce	0.00961156
182	0x3f9510e7	1.1645783
183	0x3d26f243	0.040758383
184	0x3dd49921	0.103807695
185	0x3c177d4b	0.009246181
186	0x3cf5b25b	0.029992273
187	0x3fcb9b5b	1.5906786
188	0x3c19ee26	0.009395158
189	0x3ed2bae7	0.4115822
190	0x3ff6de0c	1.9286513
191	0xbd703118	-0.05864057
192	0xbc6e6dc8	-0.014552541
193	0x3d3000a6	0.04296937
194	0x3f0ffe0a	0.5624701
195	0x3d17b421	0.03703702
196	0x3f0d5038	0.5520053
197	0x40101bfe	2.2517085
198	0x3f015e6e	0.50534713
199	0x3ce628f9	0.02809571
200	0xbf459db3	-0.77193755
201	0x3ceb9e23	0.028761929
202	0x3bc00e27	0.005861062
203	0x3f2fdfb8	0.6870074
204	0x3fe9b871	1.8259412
205	0x3f5909fd	0.84780866
206	0xbfc08472	-1.5040419
207	0x3f139efc	0.57664466
208	0x3f79ddc7	0.9760403
209	0xbd728fc4	-0.059219137
210	0x3d95004d	0.07275448
211	0x3c88540b	0.016641637
212	0xbc87378c	-0.016505979
213	0x3ccbc01b	0.024871876
214	0x3fc3d064	1.5297971
215	0x4038934a	2.8839898
216	0xbd8015fb	-0.062541924
217	0xbd3e2d52	-0.04642994
218	0x406a55f8	3.661497
219	0x3bd8d8f0	0.006617658
220	0xbd7e5a31	-0.062097732
221	0x3d17ab70	0.03702873
222	0xbd3cc24c	-0.046083733
223	0x3efedd00	0.49777985
224	0x40111202	2.266724
225	0xbd0f17a4	-0.034934655
226	0x405689cd	3.3521607
227	0x3df24a62	0.11830594
228	0x3f061e17	0.52389663
229	0x3edc219c	0.42994392
230	0x3dfaef47	0.1225267
231	0x4031e24a	2.7794366
232	0x3c8bde41	0.017073752
233	0x3fe9582a	1.823003
234	0x400f08bf	2.2349088
235	0xbc61f2fa	-0.01379084
236	0x3ce3831b	0.027772477
237	0x3d5969e0	0.053079486
238	0x3fe6c15b	1.8027757
239	0x3db4a2af	0.08820092
240	0x3f496b17	0.7867903
241	0xbd3345a0	-0.04376757
242	0x3d3a99b6	0.045556746
243	0xbcd21bd9	-0.025648044
244	0x4014f5a3	2.3274925
245	0x3bb9eb99	0.0056738374
246	0x3e920fad	0.28527585
247	0x3f82a2e3	1.0205959
248	0xbc81f462	-0.015863601
249	0x40317d62	2.7732778
250	0x3cd99587	0.026560558
251	0x3d41ebc9	0.047344003
252	0xbcf6568c	-0.030070566
253	0xbd596bc8	-0.053081304
254	0x3fffc794	1.9982781
255	0x3ffe761f	1.9879798

net.4.bias f4 [13]
0	0x3fc6d8f9	1.5534965
1	0x3f980554	1.1876626
2	0x3fbf115e	1.4927175
3	0x3f84e688	1.0382853
4	0x3fed194b	1.8523344
5	0x3f9ce6ed	1.2257973
6	0x3fb0ecb4	1.3822236
7	0x3fcfdcd1	1.6239263
8	0x3f4904eb	0.7852313
9	0x3f96779e	1.1755254
10	0x3f84c2d6	1.0371959
11	0x3f8e2e07	1.1107796
12	0x3f922900	1.1418762

net.0.weight f4 [128, 45]
0	0x3f415dba	0.7553364
1	0x3f62411f	0.88380617
2	0xbec19eff	-0.37816617
3	0xbf20f041	-0.628666
4	0xbe017526	-0.12642345
5	0xbf65b199	-0.8972412
6	0x3f6082b4	0.8769944
7	0x3e7394d3	0.2378724
8	0x3fd13729	1.6344959
9	0x3f20c4a4	0.6280005
10	0xbeba779c	-0.3641938
11	0x3f1d1fcc	0.61376643
12	0x3d7ccc0d	0.061718035
13	0xbfa1accb	-1.2630857
14	0x3dc2eab7	0.095174246
15	0x3fba8332	1.4571288
16	0xbe019dc3	-0.12657838
17	0x3f0147d0	0.505002
18	0xbebd20bb	-0.36939034
19	0xbedca1d5	-0.43092218
20	0x3e9ae371	0.3025165
21	0xbf91ba73	-1.1385025
22	0xbe4a7b28	-0.19773543
23	0xbfb4edb9	-1.4135047
24	0xbf277d18	-0.6542525
25	0x3fc78da2	1.5590098
26	0x3ec1fc68	0.37887883
27	0x3ee2a0e2	0.4426337
28	0x3f9d959e	1.2311285
29	0x3e9cc4e5	0.3061897
30	0xbebae161	-0.36500075
31	0xbec3f87e	-0.38275522
32	0x3e2b9f1c	0.16759914
33	0xbf11c254	-0.56937146
34	0xbf22619a	-0.6343018
35	0x3fa3c3c7	1.2794122
36	0xbe4cfaf9	-0.20017613
37	0x3f7e5429	0.9934717
38	0x3ec86e50	0.39146662
39	0x3e18391d	0.14865537
40	0x3f846293	1.0342582
41	0x3fb96407	1.4483651
42	0x3f34ad4b	0.70576924
43	0x3f460390	0.77349186
44	0xbe860ef2	-0.26183277
45	0x3e59da46	0.21274671
46	0xbe72a363	-0.2369514
47	0x3f439ed5	0.76414233
48	0xbe034c75	-0.12822135
49	0xbe23e0e9	-0.16003765
50	0x3e01dcfe	0.12681958
51	0x3f2b7d37	0.6698794
52	0xbf55f14a	-0.835713
53	0x3f0e99ab	0.5570323
54	0xbf2abe3c	-0.66696525
55	0xbbd1069f	-0.006378963
56	0x3f087b16	0.53312814
57	0x3edec61b	0.43510517
58	0xbf70b9ca	-0.9403349
59	0x3c8d3d45	0.01724113
60	0x3f9c6284	1.2217565
61	0x3ed4591a	0.4147423
62	0x3f443343	0.7664072
63	0xbe41c5fa	-0.18923178
64	0xbebd1ae2	-0.36934572
65	0x3e62c981	0.2214718
66	0x3ea6d952	0.32587677
67	0xbe0da83a	-0.13833705
68	0xbd530bf9	-0.05152509
69	0x3eba535e	0.3639173
70	0xbe6fe62f	-0.23427652
71	0x3e26c9d1	0.16287924
72	0xbf986b93	-1.1907829
73	0xbc5f892b	-0.013643543
74	0xbee13163	-0.43982992
75	0xbea4de61	-0.32200912
76	0x3eacc8a1	0.33746818
77	0xbf6e9555	-0.9319661
78	0xbe80a025	-0.2512218
79	0x3d4c044e	0.049808793
80	0xbf210c99	-0.6290985
81	0xbf900710	-1.1252155
82	0xbdab649b	-0.08368798
83	0x3e85ccef	0.26132914
84	0x3e983c7a	0.2973364
85	0xbeab2e8e	-0.33433956
86	0x3e554fc4	0.2083121
87	0x3f04438e	0.5166558
88	0xbd9b0a49	-0.07570321
89	0xbecffd1b	-0.40622792
90	0x3e3c228d	0.18372555
91	0xbe38f60a	-0.18062606
92	0x3eae7c35	0.34079137
93	0x3ca237cb	0.019801995
94	0x3e01496c	0.12625664
95	0x3fe9c7cf	1.8264102
96	0x3ef88765	0.48540798
97	0x3f06ec32	0.52704155
98	0x3f0321ee	0.5122365
99	0xbede25c7	-0.43388197
100	0xbdadb81c	-0.08482382
101	0xbf1ff341	-0.6248055
102	0x3f01cb0e	0.5070046
103	0x3f3ae478	0.73004866
104	0x3f04ad0a	0.51826537
105	0x3f7819a9	0.96914154
106	0xbe4303b2	-0.19044378
107	0xbeff60cb	-0.49878535
108	0xbf0e9cce	-0.55708015
109	0xbe6926dd	-0.22768731
110	0xbe004a2c	-0.12528294
111	0xbdbd7037	-0.09249919
112	0xbd48595f	-0.048913356
113	0x3dc8afb3	0.09799137
114	0xbd8911ae	-0.06692825
115	0xbec2c3fd	-0.38040152
116	0xbeb341bc	-0.3501109
117	0xbf2adb3d	-0.6674078
118	0xbc92e7af	-0.017932741
119	0xbf46d70d	-0.7767189
120	0x3dc8f28d	0.09811888
121	0xbf906426	-1.1280563
122	0x3eecc7e8	0.46246266
123	0xbe1fdeda	-0.15612355
124	0xbf0167ff	-0.5054931
125	0xbefdc93f	-0.495676
126	0xbdd5a24f	-0.104313485
127	0xbe19e5b0	-0.15029025
128	0xbe1074e5	-0.14107092
129	0x3e63010b	0.22168367
130	0xbe0d58c8	-0.13803399
131	0xbe401779	-0.18758954
132	0xbdc60bf5	-0.096702494
133	0x3e5df342	0.21674827
134	0x3e0652b0	0.1311748
135	0xbe744310	-0.23853707
136	0xbde5b3bd	-0.11215923
137	0xbf29c122	-0.6631032
138	0x3f0d69c5	0.55239516
139	0xbcbde495	-0.023180285
140	0xc039f76c	-2.9057264
141	0xbe467917	-0.1938213
142	0xbd9b52e3	-0.07584169
143	0x3e662f8d	0.22479077
144	0xbf1c2202	-0.6098939
145	0x3f2a6e64	0.6657469
146	0x3f095de2	0.5365888
147	0xbec967a6	-0.3933689
148	0x3dfb93a6	0.12284021
149	0x3de513b5	0.111853994
150	0x40214f22	2.520455
151	0xbfa402f5	-1.2813402
152	0x4010bb65	2.2614377
153	0xbf9a3cf9	-1.2049857
154	0xbe607a6a	-0.21921697
155	0x3f11421e	0.5674151
156	0x3f8fd29c	1.1236148
157	0xbed89d37	-0.42307445
158	0x3e54350b	0.2072336
159	0xbf66f290	-0.9021387
160	0xbe875f0d	-0.26439705
161	0xc01296d1	-2.290455
162	0x3cf23b7f	0.029569386
163	0xbf04f5d2	-0.5193759
164	0x3f054f5b	0.5207421
165	0xbecf18c8	-0.40448594
166	0x3fc3d2d9	1.5298721
167	0xbf7cb4c0	-0.987133
168	0x3fb324c8	1.39956
169	0x3ba0df8a	0.0049094604
170	0x3f5eeb0c	0.87077403
171	0x3f3a71f4	0.7283013
172	0xbda735ac	-0.08164534
173	0x3f59e983	0.85121936
174	0x3ea78e34	0.3272568
175	0xc002b74e	-2.042438
176	0x3f05eed2	0.52317536
177	0xbe454313	-0.19263868
178	0x3f48439e	0.78228176
179	0x3d0215e4	0.031759158
180	0x3e1b5cfc	0.1517219
181	0x3e09fe53	0.13475923
182	0x3ef375e1	0.47550872
183	0x3e10278e	0.14077589
184	0x3ef87d83	0.48533258
185	0x3f9a3cd2	1.2049811
186	0x3f32d4c9	0.69855934
187	0x3f8f7a1a	1.1209137
188	0x3fa4967f	1.2858428
189	0xc02272b1	-2.5382502
190	0x3ea8f822	0.3300181
191	0x3e0fd47f	0.14045905
192	0xbecc4c47	-0.39901945
193	0x3f7d6ba5	0.9899238
194	0xbf836179	-1.0264121
195	0x3f8285b2	1.019705
196	0xbf680bce	-0.9064301
197	0x3ecc4b50	0.3990121
198	0x3edc19fa	0.4298857
199	0x3ed68fca	0.41906577
200	0x3d53419a	0.051576234
201	0x3f251b60	0.64494896
202	0x3ca746c9	0.020419495
203	0x3e947209	0.28993252
204	0xbecb3ac9	-0.39693287
205	0xbf065691	-0.5247584
206	0xbe8023ed	-0.2502741
207	0x3f4c48d0	0.79798603
208	0xbed4f832	-0.41595608
209	0x3e185f0b	0.14880006
210	0xbf23c338	-0.63969755
211	0x3e889a2f	0.26680133
212	0xbf0039b6	-0.5008806
213	0x3e277120	0.16351748
214	0x3ead0268	0.33790898
215	0xbf15de53	-0.58542365
216	0xbe57789d	-0.21042104
217	0xbf3faee8	-0.7487626
218	0xbeedd2fb	-0.46450028
219	0xc019e604	-2.404664
220	0x3bbefa4b	0.005828177
221	0xbff0f20f	-1.882387
222	0x3e11d078	0.14239681
223	0x3ee4fdfc	0.44725025
224	0x3f099002	0.53735363
225	0x3f104ca3	0.5636694
226	0xbc058609	-0.008149632
227	0x3cdf6a8c	0.027272485
228	0xbe1b62d9	-0.15174426
229	0xbe95edcc	-0.29282987
230	0x3f8b9abc	1.0906596
231	0x3ec47f3a	0.38378316
232	0x3e208cdb	0.15678732
233	0x3e1baa00	0.15201569
234	0x3e30d26d	0.17267771
235	0xbe47d2bc	-0.19513983
236	0xbd7158ad	-0.05892246
237	0xbd894708	-0.06703001
238	0x3d0f94c8	0.035054
239	0xbdadf7eb	-0.08494552
240	0x3fa3a4e4	1.2784696
241	0xbd85d9ff	-0.0653572
242	0x3eca44cb	0.3950561
243	0xbd8fc9b5	-0.070208944
244	0xbd8f4262	-0.069950834
245	0xbce5146a	-0.027963836
246	0x3e07add9	0.13249911
247	0x3de7ecf9	0.11324496
248	0x3bf4d429	0.0074715805
249	0x3dede99a	0.116168216
250	0xbf09157c	-0.5354841
251	0xbe9fa5c8	-0.3118117
252	0xbdf2c9e6	-0.11854915
253	0xbd53a669	-0.051672373
254	0x3e079745	0.13241298
255	0xbd8c66a4	-0.06855515

net.0.bias f4 [128]
0	0x3ef3aae4	0.47591317
1	0x3f2a80bd	0.6660269
2	0x3f26f203	0.6521303
3	0x3d90e45a	0.070748046
4	0x3e584093	0.21118383
5	0x3f88f949	1.0701076
6	0xbe3cae7a	-0.18425933
7	0x3f185457	0.5950369
8	0x3d03bb20	0.03216088
9	0xbed39a38	-0.41328597
10	0xbdf3eeb1	-0.11910761
11	0x3daa5c2f	0.08318364
12	0x3f21ff78	0.6328044
13	0xbe2305ee	-0.15920231
14	0xbe5a9589	-0.21346106
15	0xbe3e6592	-0.18593433
16	0xbe945ed5	-0.289786
17	0x3eced847	0.40399382
18	0x3f5f3f8b	0.87206334
19	0x3f5c5936	0.86073625
20	0x3ea5aeec	0.32360017
21	0x3dbab9de	0.091174826
22	0xbf04998f	-0.5179681
23	0x3dbab2a1	0.09116102
24	0xbdc17604	-0.09446338
25	0xbf0f9f9c	-0.5610292
26	0x3f7260a5	0.9467872
27	0x3ddc5dd0	0.10760081
28	0xbe26d6ad	-0.1629283
29	0xbe4bcbbc	-0.19901937
30	0xbea1a81d	-0.31573573
31	0xbe9d983d	-0.3078021
32	0x3e9001bb	0.2812632
33	0xbe065dea	-0.13121763
34	0x3ee1392d	0.43988934
35	0x3f86e9b6	1.0540073
36	0xbcf3f7c6	-0.029781234
37	0x3e035090	0.12823701
38	0x3f05f926	0.52333295
39	0xbe9a6cee	-0.30161232
40	0xbe20c709	-0.15700926
41	0x3e94d50c	0.29068792
42	0x3e8de2a7	0.27711985
43	0x3e78ff7e	0.24316213
44	0x3e525899	0.2054161
45	0xbe98cbec	-0.2984308
46	0x3e9a4a8c	0.30135
47	0x3f353c79	0.707954
48	0xbea43c2a	-0.32077152
49	0xbe8df777	-0.27727863
50	0xbe817d95	-0.25291124
51	0x3e4c20ef	0.19934438
52	0xbef4892d	-0.47760907
53	0x3eae596b	0.34052595
54	0x3d8ca4a7	0.068673424
55	0x3db6ed1e	0.08931945
56	0xbe60ae55	-0.21941502
57	0xbe800108	-0.25000787
58	0x3f7ad29c	0.97977614
59	0x3ed398be	0.4132747
60	0x3cb99d99	0.022658156
61	0x3f82186d	1.0163704
62	0x3e7f1df7	0.24913774
63	0x3eeee384	0.46657956
64	0xbce3fb79	-0.027829872
65	0xbf2b23a8	-0.6685128
66	0x3d87e1e8	0.06634885
67	0xbd726e6d	-0.05918734
68	0x3eb8e54a	0.36112434
69	0x3eeafff1	0.45898393
70	0x3f8d91ea	1.1060154
71	0x3eb15a60	0.34639263
72	0x3f5c283a	0.8599888
73	0x3f08a51f	0.53376955
74	0x3d9f6169	0.077822514
75	0xbe553590	-0.20821214
76	0xbe998ca8	-0.29990125
77	0x3deb2bda	0.114829734
78	0x3bb3f6d5	0.005492071
79	0x3f68fc93	0.910104
80	0x3e69f128	0.228459
81	0x3e96be42	0.2944203
82	0x3e2ec635	0.17067797
83	0x3f6882fe	0.9082488
84	0xbd259e47	-0.04043415
85	0x3eceaa58	0.40364337
86	0x3f7ee402	0.9956666
87	0xbb44601a	-0.0029964508
88	0xbe4602fb	-0.19337074
89	0xbd62e5e4	-0.055395022
90	0x3d8b05d1	0.06788219
91	0x3da85cd5	0.08220831
92	0xbe59300c	-0.21209735
93	0xbe91d4fc	-0.28482807
94	0x3ebefe2a	0.37303287
95	0x3e5f9606	0.21834573
96	0xbde9b06c	-0.11410603
97	0xbe8e86fb	-0.27837357
98	0xbead81bf	-0.3388805
99	0xbe695d32	-0.22789457
100	0x3f509aa8	0.81485987
101	0x3eef1fc4	0.46703923
102	0x3d438f14	0.04774387
103	0x3e98e7b7	0.29864284
104	0xbe84a63b	-0.25908074
105	0x3e854b2f	0.26033923
106	0x3f4be07e	0.7963942
107	0xbf022ebd	-0.50852567
108	0xbe374273	-0.17896442
109	0x3e8e13f0	0.27749586
110	0x3f5305bc	0.82430625
111	0xbf049a90	-0.51798344
112	0x3c156f89	0.00912083
113	0x3ecab1ca	0.39588767
114	0x3edbd610	0.42936754
115	0x3f23f6d4	0.64048505
116	0x3f04297c	0.516258
117	0x3efbb72a	0.4916318
118	0xbe44264c	-0.19155234
119	0x3e3febe5	0.1874233
120	0x3e35d72d	0.17757864
121	0x3ef2b3ef	0.47402903
122	0x3f3d83ee	0.74029434
123	0x3f0c460a	0.5479437
124	0x3f5e170f	0.86753935
125	0x3e319d19	0.17345084
126	0x3ee71660	0.45134258
127	0xbd5c6920	-0.053811193

net.2.weight f4 [128, 128]
0	0xbf3fd3d5	-0.74932605
1	0x3ed4b2b3	0.41542587
2	0x3f110a5e	0.56656444
3	0x3e83946b	0.2569917
4	0x3e1588fd	0.14603038
5	0x3f34290e	0.70375144
6	0xbe8d1e04	-0.27561963
7	0xbf39f6f5	-0.7264245
8	0xbea42b1e	-0.32064146
9	0xbcf5dbe6	-0.030012082
10	0x3f1fad19	0.623735
11	0x3e4a5dc1	0.19762327
12	0x3e891ded	0.26780644
13	0xbef1ca02	-0.47224432
14	0xbed56cdd	-0.4168462
15	0xbf286d98	-0.65792227
16	0xbeb9aeb8	-0.36266112
17	0x3ecb3162	0.39686114
18	0x3f3449c5	0.70425063
19	0x3f00b923	0.50282496
20	0x3e973403	0.2953187
21	0x3e1b5f74	0.15173131
22	0x3e9286bc	0.2861842
23	0x3ce193f4	0.02753637
24	0x3edd71ce	0.4325089
25	0xbe90136b	-0.28139815
26	0x3ec97e07	0.39353964
27	0xbd90eef5	-0.070768274
28	0x3e6c4d00	0.23076248
29	0xb9c3e07f	-0.0003736056
30	0xbf962475	-1.1729876
31	0xbd3d87e7	-0.046272185
32	0x3ee33361	0.44375136
33	0xbe1f611a	-0.15564385
34	0x3e70bd8f	0.23509811
35	0x3f55fcbf	0.83588785
36	0xbef6539e	-0.4811067
37	0x3eb20702	0.34770972
38	0x3f605cd2	0.8764163
39	0xbdcf8609	-0.10132987
40	0x3e1c212b	0.15247028
41	0x3da52288	0.08063227
42	0xbdaafe2e	-0.08349262
43	0x3f3a6658	0.72812414
44	0xbd58cd78	-0.052930325
45	0xbe7d3fe1	-0.24731399
46	0x3f58f083	0.8474199
47	0x3f021297	0.50809616
48	0x3f4657c8	0.77477694
49	0xbf05c055	-0.522466
50	0xbe931981	-0.28730395
51	0x3f043886	0.5164875
52	0xbf80974d	-1.0046173
53	0x3ef0fa69	0.47066048
54	0x3eef2ad0	0.4671235
55	0x3f523153	0.8210651
56	0xbe9c9e7c	-0.30589664
57	0xbc0f881c	-0.008760478
58	0x3f433618	0.76254416
59	0x3f1d3ba2	0.6141912
60	0xbedb946d	-0.42886677
61	0x3f8ab608	1.0836802
62	0x3e4ab7a2	0.19796613
63	0x3b13e57d	0.0022567206
64	0x3e28a9a1	0.16470958
65	0xbc6b5415	-0.014363308
66	0xbef777a4	-0.48333466
67	0x3ea702cc	0.3261932
68	0x3edf2513	0.43582973
69	0x3ef65f1b	0.48119435
70	0x3f0bbf0d	0.54588395
71	0x3f2400c8	0.6406369
72	0x3e01e4c4	0.12684923
73	0x3ee6e3f5	0.45095792
74	0xbdb81cc5	-0.08989862
75	0x3d9503c0	0.07276106
76	0xbce32eb1	-0.027732225
77	0xbe07b978	-0.13254344
78	0x3e096598	0.13417661
79	0x3f1f6985	0.62270385
80	0x3ebf3272	0.37343174
81	0x3d63dea1	0.055632237
82	0x3ead683b	0.33868584
83	0x3dc011d0	0.093783975
84	0xbe3ebf14	-0.18627578
85	0xbdff8e9b	-0.12478372
86	0x3f41a193	0.7563717
87	0x3fc8635b	1.5655321
88	0x3d0afda8	0.03393331
89	0xbf0a1a19	-0.5394607
90	0x3f09d835	0.5384553
91	0x3d480cdd	0.048840392
92	0x3ee791eb	0.45228514
93	0xbe9be68a	-0.30449325
94	0x3ed3270a	0.41240722
95	0x3ed51fec	0.41625917
96	0x3e7bc22d	0.24585791
97	0x3d63b210	0.055589736
98	0x3e1cec2e	0.1532447
99	0xbc1230f0	-0.0089228
100	0x3f32d2d8	0.6985297
101	0x3f3a9029	0.7287622
102	0xbea9b45b	-0.33145413
103	0x3f2a6723	0.66563624
104	0x3bef142b	0.0072961054
105	0x3e1cff91	0.15331866
106	0x3f2d703e	0.67749393
107	0xbdd8dea8	-0.10589343
108	0xbeb8c57f	-0.36088178
109	0x3e9074f2	0.28214222
110	0x3f7cb91e	0.98719966
111	0x3da515e1	0.08060814
112	0xbe70956e	-0.23494503
113	0x3f2a5818	0.6654067
114	0x3eed6039	0.46362475
115	0x3e502b34	0.2032898
116	0x3ef73380	0.4828148
117	0x3de99b56	0.11406581
118	0x3e3c7992	0.1840575
119	0x3f06ab6c	0.5260532
120	0x3ea5eeac	0.32408655
121	0x3f1fb0fa	0.6237942
122	0x3eed3009	0.4632571
123	0x3e3a1191	0.18170764
124	0x3f0c0af1	0.54704195
125	0xbe529e1f	-0.20568131
126	0xbcf7a73a	-0.030231107
127	0xbe28da9e	-0.16489646
128	0x3cac32ef	0.02102038
129	0x3caad46e	0.020853247
130	0xbd85df85	-0.065367736
131	0x3bf329ea	0.007420768
132	0x3d0bafc4	0.03410317
133	0xbdef5b8d	-0.11687384
134	0x3ccc08d9	0.024906563
135	0xbc29c255	-0.010361274
136	0x3b86c7a3	0.004113154
137	0xbd5dc893	-0.05414636
138	0xbd2344ed	-0.039860655
139	0xbde08f40	-0.10964823
140	0xbe035683	-0.1282597
141	0xbd90457a	-0.070445016
142	0xbdbc62d3	-0.09198537
143	0xbc5a8835	-0.013338138
144	0xbd03888e	-0.03211265
145	0x3d22483e	0.039619677
146	0xbd5b0832	-0.053474613
147	0xbd4bcf52	-0.049758263
148	0xbd84b8b8	-0.06480545
149	0xbb7c2e7e	-0.003847986
150	0x3c604d3d	0.01369029
151	0xbd3db0c0	-0.04631114
152	0x3ce44cfc	0.02786874
153	0x3b12b880	0.0022387803
154	0xbd87aed6	-0.06625144
155	0x3d0db374	0.034594968
156	0xbd36d485	-0.04463627
157	0xbd385246	-0.045000337
158	0xbd89f61e	-0.06736396
159	0xbde19826	-0.11015348
160	0x3d62b2c4	0.055346265
161	0xbcac6e02	-0.02104855
162	0x3caebfae	0.021331634
163	0xbd86fb5f	-0.06590914
164	0xbdf592c2	-0.119908825
165	0x3c987119	0.018608617
166	0xbc891ab2	-0.016736362
167	0x3d3094d2	0.043110676
168	0xbdd6072f	-0.10450589
169	0xbe239028	-0.1597296
170	0xbc21e4a4	-0.009881172
171	0xbd8ecce5	-0.06972674
172	0x3cedfcb8	0.02905117
173	0xbcad527c	-0.021157496
174	0xbd7c535d	-0.06160294
175	0xbdef0350	-0.11670554
176	0xbcc71044	-0.024299748
177	0x3d297d78	0.041379422
178	0xbd15436e	-0.03644126
179	0xbbeb4865	-0.007180261
180	0x3d04b075	0.032394845
181	0x3cda386d	0.026638234
182	0xbdb7e7bd	-0.089797474
183	0xbddb7cdf	-0.10717177
184	0xbcf79a34	-0.030224897
185	0x3d02cb30	0.031932056
186	0xbdc5d641	-0.09660006
187	0xbd905e83	-0.07049277
188	0xbc740e3a	-0.01489597
189	0xbd6ab7c8	-0.057304174
190	0x3d841550	0.064493775
191	0xbda2a87f	-0.07942294
192	0xbdd07d7b	-0.101801835
193	0xbc80556f	-0.015665738
194	0xbd4b862b	-0.0496885
195	0xbdf43627	-0.11924391
196	0xbd85c5e0	-0.06531882
197	0x3d15e1a3	0.036592137
198	0xbd7dc6eb	-0.06195728
199	0x3c9ee4cb	0.019396206
200	0xbe0e1dae	-0.1387851
201	0xbd91f8eb	-0.071275555
202	0xbd6b9a6f	-0.057520326
203	0x3b6b0368	0.0035860185
204	0xbd6d526a	-0.057939924
205	0xbd3534d1	-0.044239823
206	0xbc5f5338	-0.013630681
207	0xbd59097b	-0.052987557
208	0x3baf5c4d	0.0053515793
209	0x3d22fb09	0.039790187
210	0x3d6210c6	0.055191778
211	0x3c896722	0.01677281
212	0x3d5af2b4	0.053454116
213	0xbbed55c3	-0.0072428896
214	0xbaeb8cc1	-0.0017971025
215	0x3d3c4bdb	0.04597078
216	0xbd7dab4d	-0.061930943
217	0x3ca9e7b3	0.020740366
218	0x3d72db83	0.059291374
219	0xbcff7334	-0.031182863
220	0xbddcc673	-0.10780039
221	0xbdf7ea0e	-0.12105189
222	0xbd33418c	-0.043763682
223	0xbe00d483	-0.12581067
224	0xbca74a0d	-0.020421052
225	0x3bcf2843	0.0063219382
226	0xbd7819c2	-0.06057144
227	0x3c8b93d5	0.017038265
228	0xbdef97ff	-0.11698913
229	0xbda78475	-0.08179561
230	0xbdec764d	-0.115460016
231	0xbccc0fe4	-0.024909921
232	0xbcf923a1	-0.030412497
233	0xbca2cf2e	-0.019874182
234	0x3b8968dd	0.004193409
235	0x3cd76ffe	0.02629852
236	0x3d363d35	0.044491965
237	0xbd7b8a51	-0.061411206
238	0xbd95c57b	-0.07313057
239	0xbcfb42b0	-0.030671448
240	0xbd49fc00	-0.04931259
241	0xbe0e55ed	-0.13899966
242	0x3cf12564	0.029436775
243	0xbd6812e5	-0.056658644
244	0xbd5058ac	-0.050865814
245	0xbd9bb9a1	-0.07603765
246	0xbd682415	-0.056675036
247	0xbdc6fba7	-0.097159676
248	0xbd2e7e7a	-0.042601086
249	0xbd0485f1	-0.0323543
250	0xbccb2d13	-0.024801766
251	0xbc2b7e8a	-0.010467181
252	0xbdc1ae18	-0.09457034
253	0x3d566ad6	0.05234798
254	0x3d85bf91	0.06530679
255	0xbdf9b278	-0.12192243

net.2.bias f4 [128]
0	0x40062fd6	2.0966697
1	0xbe1114ca	-0.14168087
2	0x3f549ec4	0.8305476
3	0x40097473	2.1477325
4	0x400d4c9b	2.2078006
5	0xbdd1a66f	-0.10236823
6	0xbb13d97f	-0.0022560058
7	0x3fde0a43	1.7346882
8	0x3e979862	0.29608446
9	0x400d52dd	2.2081826
10	0x3e9d3cc7	0.30710432
11	0x3ffe5665	1.9870116
12	0x3ef6538b	0.48110613
13	0x3fb78c5f	1.4339713
14	0xbcd6c45d	-0.02621668
15	0xbd4d409a	-0.050110437
16	0xbe1cc41e	-0.15309188
17	0x3fd8bfbe	1.6933515
18	0x3f870a50	1.0550022
19	0xbe03ec2f	-0.12883066
20	0x3ef95faa	0.48705798
21	0x3ee9fef4	0.45702326
22	0xbe089642	-0.13338569
23	0x3cfd70a9	0.03093751
24	0xbe1c3dcb	-0.15257947
25	0xbdfb3350	-0.122656465
26	0x3ea0d480	0.31412125
27	0x3f4bdbaf	0.79632086
28	0xbdcbe1e0	-0.099551916
29	0xbc4642f2	-0.012100922
30	0x3fa1ce91	1.2641164
31	0x3eacc866	0.33746642
32	0x3fa5e793	1.2961296
33	0xbe4d690e	-0.20059606
34	0x3fc15e0c	1.5106826
35	0xbd3f6076	-0.04672285
36	0x3fc48977	1.5354451
37	0x3ff813e4	1.938107
38	0x3ef1c44d	0.47220078
39	0x3eb1bc60	0.3471403
40	0xbbee6f4c	-0.007276451
41	0xbd2b79b4	-0.041864112
42	0x4008feed	2.1405594
43	0x3f816158	1.0107832
44	0x3f020ca9	0.5080057
45	0xbd97428b	-0.07385739
46	0x3f3be624	0.7339804
47	0x40075010	2.1142616
48	0x3f1d03be	0.61333835
49	0xbed853a5	-0.42251316
50	0x3e941297	0.28920433
51	0x3f601783	0.87535876
52	0x3f1190a4	0.5686133
53	0x3c48ec41	0.012263359
54	0xbea52281	-0.32252887
55	0xbd5e2ab6	-0.05423995
56	0xbdbf6d8a	-0.09347065
57	0xbda00ff6	-0.07815544
58	0xbdf253e7	-0.11832409
59	0x3f3e3196	0.7429441
60	0xbd741185	-0.05958702
61	0x3ff923a9	1.9464008
62	0x3f4c7f70	0.79881954
63	0xbd95147d	-0.072792985
64	0xbe0e59d1	-0.1390145
65	0xbd9d3243	-0.07675602
66	0x3ffc34a9	1.9703571
67	0xbde5b6d2	-0.11216511
68	0x3ff22d6b	1.892011
69	0x3f24010d	0.64064103
70	0x4004c341	2.0744174
71	0xbdc82b4d	-0.09773884
72	0xbf8ac6ea	-1.0841954
73	0xbe0d950d	-0.1382639
74	0xbe08ab3a	-0.13346568
75	0x3fb68b5c	1.4261279
76	0x3f1773fd	0.5916136
77	0x3ff43fca	1.9081967
78	0xbf0fb2f1	-0.5613242
79	0x4006f302	2.108582
80	0x3fbd579e	1.4792364
81	0xbe21e693	-0.15810613
82	0xbdeaf00b	-0.11471566
83	0xbce82af6	-0.028340798
84	0xbe241dcd	-0.16026993
85	0xbdfbfcc7	-0.12304073
86	0x3f2ca71c	0.6744249
87	0x3f98c0df	1.193386
88	0xbd6bcd46	-0.05756881
89	0xbde58c39	-0.11208386
90	0x3f105159	0.56374127
91	0xbe05d1a0	-0.13068247
92	0x3b9d12c2	0.004793496
93	0xbdbece55	-0.093166985
94	0xbd9d17da	-0.07670565
95	0x400a6e71	2.1629908
96	0xbec02746	-0.37529963
97	0xbe048d36	-0.12944493
98	0x3f1de85e	0.6168269
99	0x3cfab84a	0.030605454
100	0x4012a0c2	2.2910619
101	0x400c9e11	2.1971476
102	0xbd0cbdbf	-0.034360643
103	0x3f507f7e	0.8144454
104	0xbdc5ce4b	-0.09658488
105	0x3f50f425	0.81622535
106	0x3f8c0f56	1.094218
107	0xbd8550de	-0.06509565
108	0x3d18f0c8	0.037339002
109	0xbd5fda86	-0.05465176
110	0x3f1e4b37	0.6183352
111	0x3c430980	0.01190412
112	0x3fbe4de4	1.486752
113	0xbd3b954b	-0.045796674
114	0xbd6a5e15	-0.05721863
115	0x3c834da0	0.016028225
116	0x3f42f1fc	0.7615049
117	0xbbfb5df4	-0.007671112
118	0x3fe6f0eb	1.8042272
119	0x3facd9d7	1.350398
120	0xbdca03b6	-0.09863989
121	0x3e7182b8	0.23585021
122	0xbe0892c7	-0.13337241
123	0xbd171d58	-0.03689322
124	0xbcb070b2	-0.021538112
125	0xbdc0b282	-0.09409048
126	0x3edfe60e	0.43730205
127	0x3f944863	1.1584591
