checkpoints/team2_agent_1.pt (torch, 394913 bytes, 24 tensors)

net.0.weight f4 [128, 45]
00000000: c79e fb3e 45c0 413f 2cf1 54bf e612 883e
00000010: 3030 adbe a1d4 b53f 5bdc 70bf 91b2 723f
00000020: 9da2 84be a6d5 5abb 08b6 153f fd38 6bbf
00000030: c428 af3e af6b c5bf 45c4 0d3f 6142 1340
00000040: e13b 58bf 025c f23f a3a9 f23e 920d 60bf
00000050: fdaa a23e 1576 15be d78b d23d 4f0c 26bf
00000060: fe26 0d3e f9a0 26bf 6ddf 93bf bb30 0d3d
00000070: c091 a43c 9418 513e ed1e 393e d2d1 0c3f
00000080: 9ae7 d83e 5bff 8c3f 6dc6 21be bd06 283e
00000090: b149 2dbf e2c5 023f 9ebd 33bf 6ec6 013f
000000a0: 66f6 5c3e 391e 0abe 6f99 1e3e 6e25 813e
000000b0: 86f3 26be 79db bd3e 4b02 813e 2a1e 2f3f
000000c0: 2995 10bf 1fa4 76bd 4f93 b73e 6717 07c0
000000d0: 7f2c 5dbe 9050 eebe 1d94 38be b41d dabf
000000e0: 6346 ea3b b3aa 3e3e 00b7 2e3f 7ded 893e
000000f0: 94b3 82be 2efe 81be c063 163f 522a bcbd
00000100: 3e42 2a3f fd4f 3f3e 60a2 7c3f 9ef1 2dbf
00000110: 348a 073f 5927 483e d7e0 48bf aa85 91bf
00000120: 6c0f c83e dd31 a2bf dfb1 893e 2e28 663e
00000130: 8b89 1abf 19b7 cfbe 00de 41be d7f1 643e
00000140: 116e 373f a246 163f 7b1a 29bf d121 3cbf
00000150: 1b39 b2bd f1c1 8c3f a851 0b3f c7be 753f
00000160: bf3b 2abf 5f80 963c 1577 3dbe afe4 fcbe
00000170: e459 043f c7fb e1bd e506 0f3e 3e9a a5bd
00000180: 76ff 303e bb9e 053d a3dc a6be 1d03 863e
00000190: ad85 39bf 783e 07bf e288 bc3e 38b7 bbbe
000001a0: 8cf3 a83d 2d50 76c0 a2c0 52bf 19db 94bf
000001b0: bba1 bc3e 7a2c b13e de21 3b3f d22d 943f
000001c0: 65af b03e 313e 1b3e b554 a53e 9a16 093f
000001d0: d20b c73e 5a7a cbbd 0158 eb3e 4816 f83e
000001e0: 06d1 3b3e a23f 673f 49de 8b3e 0af5 613f
000001f0: 27d8 9a3e 81dc 453f e722 4a3f 5621 d43e
00000200: 9866 993d 6c04 ec3d 0e93 cd3e 70f5 293f
00000210: 5801 15bd 3e5f 5d3e e358 6ebd 96fa 56be
00000220: 9278 cd3d b002 f23e 48d5 b6be 8ccc 7a3e
00000230: 259b a53e bd0d cabf acb9 d0bc 68af 0fbf
00000240: a0a5 e43e 7604 74bf 9de6 15bf cb73 9cbe
00000250: e826 04bf 6620 3d3f 6a64 1bc0 c4ce 803f
00000260: 6787 8cbf b5f0 533f 3232 d63e 3c58 473e
00000270: bfe5 c93e b0b7 d63e 23dd 28be 5ddc 783e
00000280: 8550 973f 9094 cfbe a752 5b3f 6e18 283d
00000290: 3ab6 2e3e 4557 b53c d6f3 233e c519 ba3d
000002a0: 6f35 30be 242d 093d 8684 103f 4996 f03c
000002b0: 0aa7 a73e 40e1 3a3e 94e3 8bbd 7bd5 543f
000002c0: e080 c63e 7898 d2bd ddcc 0e3e ee2b 7e3e
000002d0: 4227 683f 5119 d73e 6108 3a3e 0628 b83e
000002e0: c6d9 49be 12ab 033f c27c 813e e6f0 d33d
000002f0: df7c 553c 51dd 02bf c298 68bf be5c 8c3e
00000300: c598 cebf 202d 14bb dfaf b43e 6f71 e0bf
00000310: 638d 87be 10cf 6d3e 3741 ec3f 099d 353f
00000320: 021b 7e3f 50f9 71bf 4772 433f e6f2 e43e
00000330: 5a51 f0be 392e 813f bb13 84bf 32cf 723f
00000340: 4d28 80bf 3bb7 a8be a453 0c3f 2d0e d93f
00000350: d487 0c3e bdc2 973f 2754 19c0 23cc 923f
00000360: 62e9 c23e 9f43 0a3f fde9 753f f79a 303f
00000370: 9a70 d23e 3f3f 1abf f708 ff3d 3cef 023e
00000380: d65e 30be 5cc5 0cbe 5781 8a3d 3586 993f
00000390: 03ca 46bf fc31 a8bd c072 1fbf 1ae7 33bb
000003a0: 7165 91bf 6af6 e1be bede 313e 9923 51bf
000003b0: 158e 82bf de12 d1be c6f8 86be 0374 8fbe
000003c0: e177 2ac0 670c d23e 5880 80bf 3508 f13e
000003d0: b6eb a73e d991 d83e 9542 a13d 72df d9be
000003e0: 9f45 a93e 9c21 e73e 965c 7d3f a383 6e3f
000003f0: 5c9b 733d 9a97 0a3e fd5a a93e d0fa 1abe
0.49144575 0.75684005 -0.831805 0.26576918 -0.33825827 1.4205514 -0.94086236 0.9480372
-0.25905314 -0.0033391505 0.5848088 -0.9188383 0.3421079 -1.5423487 0.5537761 2.3009264
-0.8446637 1.8934329 0.47395048 -0.87520707 0.3177108 -0.14595826 0.102805786 -0.6486253
0.13784406 -0.65089375 -1.1552559 0.0344703 0.02008903 0.20419532 0.18078203 0.5500766
0.42364198 1.1015428 -0.1579835 0.1640882 -0.6769057 0.51083195 -0.7021121 0.50693405
0.21578369 -0.13488092 0.15488218 0.2522387 -0.16303834 0.37081507 0.25197062 0.684054
-0.564776 -0.06021511 0.35854575 -2.1108034 -0.21599005 -0.4654584 -0.1802525 -1.7040315
0.007149504 0.18619804 0.68247986 0.26939002 -0.25527632 -0.25389236 0.58745956 -0.091877595
0.6650733 0.18682857 0.98685265 -0.67946804 0.52945256 0.1954626 -0.7846808 -1.1368916
0.39074266 -1.2671467 0.26893517 0.22476265 -0.60366124 -0.4056938 -0.18932343 0.2235788
0.71652323 0.5870153 -0.6605603 -0.734891 -0.08702298 1.0996686 0.5442147 0.9599423
-0.66497415 0.018371759 -0.18502457 -0.49393222 0.5169966 -0.11034351 0.13967474 -0.0808606
0.1728495 0.03262208 -0.32590207 0.2617425 -0.724696 -0.52829695 0.36823183 -0.36663222
0.08249578 -3.8486435 -0.82325184 -1.1629363 0.3684214 0.34604245 0.7309855 1.1576483
0.34508815 0.15160443 0.3229119 0.5355011 0.38876206 -0.09935446 0.4596558 0.484545
0.18341455 0.9033147 0.27318028 0.88264525 0.30243036 0.7728959 0.78959507 0.41431683
0.07490271 0.11524281 0.40151256 0.6639013 -0.036378235 0.21618363 -0.058190238 -0.20994028
0.100327626 0.47267675 -0.35709596 0.24492091 0.32344928 -1.5785443 -0.02547916 -0.56127024
0.44657612 -0.95319307 -0.5855501 -0.30557093 -0.51621866 0.7387756 -2.4280038 1.00631
-1.0978822 0.82789165 0.4183517 0.19467252 0.39433095 0.41937017 -0.16490607 0.24302812
1.1821448 -0.40543032 0.8567299 0.041038923 0.17061701 0.02213634 0.16010985 0.090869464
-0.17207883 0.033490315 0.56452215 0.029368537 0.32744628 0.18249989 -0.068305165 0.83138245
0.387702 -0.10282987 0.13945337 0.24821445 0.906849 0.42011502 0.18167259 0.35968035
-0.1971198 0.5143291 0.25290495 0.10348682 0.01303026 -0.5111895 -0.9085809 0.27414507
-1.6140372 -0.0022609904 0.3529043 -1.7534617 -0.26475057 0.2322352 1.8457402 0.7094274
0.9925996 -0.94521046 0.7634625 0.44716567 -0.46937066 1.0092231 -1.0318521 0.94847405
-1.0012299 -0.32952294 0.54815125 1.6957451 0.1372369 1.1856304 -2.3957613 1.1468548
0.38068682 0.5400943 0.9606016 0.6898646 0.41101533 -0.60252756 0.12452882 0.12786573
-0.17223677 -0.13747162 0.06762951 1.1994082 -0.77651995 -0.08212659 -0.6228447 -0.002745098
-1.1359082 -0.44133312 0.17370126 -0.8169494 -1.019961 -0.40834707 -0.26361674 -0.28018197
-2.6635668 0.41025087 -1.0039167 0.47076574 0.3279702 0.42298773 0.07874028 -0.42553288
0.3306093 0.4514283 0.989694 0.9316961 0.059474334 0.13534394 0.3307723 -0.1513474

net.0.bias f4 [128]
00000000: d31a 9f3e a04f 0fbf faaa 613f 28cb 723f
00000010: 90e0 3b3f f1df 203e 4604 eabe 8d0d cebe
00000020: 3ec3 1abe d2e8 6bbd 49de 223f bf38 643f
00000030: bbc7 b43f fe2c 9b3f 3d27 4a3f cf97 783e
00000040: cdff b73f 5ddd af3e 82c9 543f e270 22be
00000050: 1979 9b3f 6f72 343f 740a 8f3f 167d 44bf
00000060: b0cd f53e 02d3 533f 0d35 0c3f e7cd 00bf
00000070: df71 c8be 20ce 353e e94c b93e ccfa 47be
00000080: 72dc 8abe 1bd3 f33e 18d5 4ebe b92c 333f
00000090: 70fb 7a3e b0d2 913f fed2 273f 0df3 833d
000000a0: 5b65 e23e b01c 07be 4a58 023f 6460 d23e
000000b0: 26ec b33d 8d7b 2abc 94d0 833f d411 ba3e
000000c0: d4cc 133f 94ba 4c3e 5e7a 4f3f 83e3 13be
000000d0: e133 67bd efbe 983f 9b6f 033f 53cb 19bf
000000e0: b608 0b3f 3f7b a0be ca48 8fbe c316 dd3e
000000f0: 3fe7 fd3e 2170 70bf 97cb bd3e 1153 90be
00000100: 2f46 5f3e a443 96bf bb35 95be bba8 34bf
00000110: 6946 613f 2472 d5be 8a0d aa3f a6a2 493e
00000120: ee21 e0be 3013 3e3e 4b58 21bf 9b24 38bc
00000130: bb16 5dbe 7442 b73f ef5d a2be d41e 9f3e
00000140: 97ce e73e 8f3e 8ebe a449 183f 2869 313f
00000150: eba1 733f 007d c03d bac4 1cbe f5de 653f
00000160: 260d 883e 9138 5a3c 029a a63e 3cd4 a93f
00000170: 497c efbe bff2 923e 3e57 123f 7128 0fbd
00000180: abe8 54be cdb9 81be beb7 26be b33e 923f
00000190: dd09 75bd 3d14 583d 042c edbd f191 b03f
000001a0: 5c52 9f3f c587 d93e 7a98 02bf 5adc acbe
000001b0: 15c8 b73e a57b 2d3d 4963 113f af5a f2be
000001c0: eaf7 6c3f ae33 913d ace3 a83d f3a7 2e3d
000001d0: 8f4e 393e 58ce ae3f 36c2 8ebe af8d 993e
000001e0: 6c05 59be 4973 593f 6e13 b2be 5aad b53e
000001f0: 8fad 02bf 589f 71bd 8d3c ac3f 42c4 6dbf
0.31075153 -0.55980873 0.88151515 0.9484124 0.7338953 0.15710427 -0.45706385 -0.40244713
-0.15113541 -0.05759508 0.6362043 0.8914909 1.4123453 1.2123106 0.7896612 0.2427666
1.4374939 0.34348574 0.83119977 -0.15863374 1.2146331 0.7048711 1.1175065 -0.76753366
0.4800849 0.8274385 0.5476845 -0.5031418 -0.39149377 0.17754412 0.3619149 -0.19529265
-0.2712131 0.47621998 -0.20198476 0.69990116 0.24509978 1.1392422 0.65556324 0.06442843
0.44217953 -0.13194537 0.5091597 0.41089165 0.08785276 -0.010405433 1.0298028 0.36341727
0.5773442 0.19993049 0.8104609 -0.14442258 -0.05644596 1.1933268 0.5134217 -0.60075873
0.54310167 -0.3134403 -0.2798522 0.43181428 0.4959049 -0.93921095 0.3706939 -0.28188375
0.21804117 -1.1739392 -0.29142556 -0.7056996 0.8799806 -0.41688645 1.3285382 0.19690952
-0.43775886 0.18562007 -0.6302535 -0.011239196 -0.21590702 1.4317155 -0.3171229 0.31078207
0.45274803 -0.27782103 0.59487367 0.6930108 0.9516894 0.09398842 -0.1530942 0.8979333
0.2657253 0.013319151 0.32539374 1.3267894 -0.4677451 0.28700826 0.5716437 -0.034950677
-0.20791881 -0.25337067 -0.1628103 1.1425384 -0.05982386 0.052753676 -0.11580661 1.3794538
1.2447009 0.42486396 -0.5101391 -0.33761865 0.35894838 0.042354245 0.5679212 -0.4733481
0.92565787 0.07089935 0.0824655 0.042640638 0.18096374 1.3656721 -0.27882546 0.29990909
-0.21193475 0.84941536 -0.3478045 0.3548382 -0.5104608 -0.058989853 1.3455979 -0.9287759

net.2.weight f4 [128, 128]
00000000: 5cae 82bf d5f2 58bf 0dbe 713f da4f 0a3f
00000010: 7417 28bd 427d fb3f 7329 14bf a6f0 e7be
00000020: 5da0 72bf 92a3 10bf dad1 7b3f 95ec 843f
00000030: 0269 743c b132 a9bb 11d5 033f 07d0 1240
00000040: 7206 6b3d 2298 a03f ffb9 4abd 9e37 dbbf
00000050: 4a28 de3c 1074 c83f 7b94 323f 714b e7bf
00000060: edee 2c3f 9d5c 63bf 8c38 ca3f 6a6a 21be
00000070: bc1b 833f e351 f83f 7a19 68c0 f93b 71c0
00000080: 9cc1 b3bf 7817 d43f 66a1 4dbf 2c36 6d3f
00000090: c002 bbbf 9b42 87bd 9c41 8a3f c224 c0bf
000000a0: f10d d53e 8d3e afbf c407 e93f 479d 05c0
000000b0: 3b35 d33f d4f3 d0bf b811 b73d 388e c2bf
000000c0: 2f0f e83f 5aa6 12c0 474b aabf 8833 c6bf
000000d0: 1598 0a40 6a11 8dbe 0512 3e3f 71c4 98bf
000000e0: fb93 11c0 b4dc 57c0 8d58 46bb fc80 f93f
000000f0: 9af1 843f e434 963f 530d cd3f 4bc2 993f
00000100: c470 2b40 9e28 cdbf ac2f 20c0 eca6 67bf
00000110: 6f30 78bd 68fb 503f 01fb 95bd a5bd b53f
00000120: 3fca cf3f 3f69 2040 b845 2fc0 87ff 8dbf
00000130: 857f 1fc0 2615 c8bc 6419 54c0 6b3a 95bf
00000140: 043f 0740 95f8 2abf 8493 fb3f ce44 0840
00000150: fde7 9bbe 0ca3 a73f 3940 aabf f0ba 833e
00000160: 81fc 9e3f ffa5 fe3e 7f9b 3ebf 1bfa 9fbd
00000170: 50d1 75bf a289 34bf 0c0c b33f 98ef 9dbf
00000180: 8c23 aabd b204 4ec0 b27b e3bf 137e 503e
00000190: e94e 99bf 14d9 43c0 71dd 17c0 0828 783c
000001a0: 7526 4fbe 457d bf3f de29 a3be 5727 b93f
000001b0: bc9b c93e ed89 653f 2e41 99bf 8ef4 0cc0
000001c0: 83b7 d03f f788 483f 810b 4f3e 8852 afbf
000001d0: 4c55 3dbf 4462 99bd b9a8 f93c 2dc8 f33f
000001e0: 3937 4f3d c57a 203f 70da 9abe 0ed6 42c0
000001f0: 8ef3 bdbf 86f0 3340 94ab 05be f694 50c0
00000200: 943d 94bc c871 87bc 16b5 523d 1c2e c4bc
00000210: feab ebbc 0bf9 9d3c d315 a23d b89c 97bc
00000220: 776f 8ebd a1a6 113c d490 d3bc 9a08 64bd
00000230: ba98 71bd e4ce 0ebe e50d 9e3d 602b 2c3d
00000240: b0d9 e4bc 2f19 a13d a2fb eabd c5ff d23c
00000250: f405 69bc 9741 b0bc 5c70 48bc d7ea c8bc
00000260: d26f afbd d67f 6fbd 3ecc 42bd f6d9 5ebd
00000270: 1331 82bd fe4b b5bd 3cde 9a3c 036e d5bd
00000280: 5723 fb3c b7d7 803c f2fe 70bd b670 063d
00000290: e291 d83c 044c 93bd e244 203d 90a1 8b3c
000002a0: bce7 25bc d994 1dbd 576e b3bd 7b3a d6bd
000002b0: bbb1 853d 0006 c9bc 4315 8abd 139f 06ba
000002c0: c720 8c3d 72a5 dabc 36cf 79bb 5dab cabd
000002d0: 3d52 a83d 19f0 b2bd b869 c83c fe71 83bd
000002e0: fb67 22bc 5777 32bb e736 86bd e154 6a3d
000002f0: c7c7 a1bd 53c7 46bd 0036 91bd 4db6 653d
00000300: 14ed a8bd 85e8 6e3c a59f 873c 5352 9bbd
00000310: adff a2bd 76b3 48ba 08f8 b7bb 3fb7 853d
00000320: 3e7b 4d3d 0988 bbbb 820e 7abd a6c0 003d
00000330: 7a4d c9bd 8ec6 19be b829 67bc c42b c7bc
00000340: d084 f6bd a4d1 043d 9231 063d 2ae1 e6bd
00000350: 97d9 7e3b a512 a53d afef 94bd 0741 3abc
00000360: c87a ff3c 6b14 6ebb 7ac2 533d dc27 b0bc
00000370: e070 be3b 786e 1c3c 51da 91bd dc3d 07bd
00000380: 0846 21bd a48d f4bc fffd 893d 13ba 7bbd
00000390: fa67 24bd 60ea 9a3b 36b3 683d 82c7 3ebd
000003a0: 077e 85bc 9e22 293d 9803 a9bb 1951 88bd
000003b0: 5080 cfbd adb8 07bd 1653 9c3b 75e7 b93c
000003c0: a994 a53d 1d63 cdbc da81 153d 6924 71bd
000003d0: ac92 10bc f75b 02be 7bea a23d a5ed 7ebd
000003e0: 0898 8fbc db70 b4bd f884 5a3c ca8c 103d
000003f0: 3316 803c 488b 1b3d ec75 893b 3451 3dbd
-1.020946 -0.8474553 0.9443062 0.54028094 -0.04103799 1.9647601 -0.57875746 -0.45300788
-0.94775945 -0.5649959 0.98367083 1.0384699 0.014917614 -0.0051635136 0.5149699 2.293947
0.057379194 1.2546427 -0.049493786 -1.7126348 0.02711882 1.566042 0.69757813 -1.8069898
0.6755207 -0.8881319 1.5798507 -0.1576325 1.0242839 1.939999 -3.626555 -3.7692854
-1.404346 1.6569662 -0.803244 0.92660785 -1.4610214 -0.06604501 1.0801272 -1.5011218
0.416122 -1.3690964 1.8205495 -2.0877244 1.650062 -1.632441 0.089389265 -1.5199652
1.8129634 -2.2914033 -1.3304223 -1.5484476 2.1655324 -0.27552348 0.74246246 -1.1934949
-2.274657 -3.3728456 -0.0030265183 1.9492488 1.0386231 1.1734891 1.6019691 1.2012419
2.6787577 -1.602802 -2.5029097 -0.9048908 -0.060593065 0.81633615 -0.07323266 1.41985
1.6233596 2.5064237 -2.7386303 -1.1093606 -2.4921582 -0.024424147 -3.3140497 -1.1658453
2.1132212 -0.66785556 1.9654393 2.1291995 -0.3045043 1.3096633 -1.3300849 0.2572856
1.2420808 0.4973602 -0.7445602 -0.07811376 -0.9602251 -0.7052251 1.3988051 -1.2338743
-0.08307561 -3.2190366 -1.7772124 0.20360593 -1.1977206 -3.0601244 -2.3728907 0.015146263
-0.20229514 1.4960104 -0.3186788 1.446513 0.39376628 0.89663583 -1.1973016 -2.2024264
1.6306003 0.7833399 0.20219232 -1.3697062 -0.7395828 -0.07489446 0.030475961 1.9045464
0.050589774 0.6268733 -0.3024478 -3.0443149 -1.4839952 2.8115554 -0.13053733 -3.2590919
-0.018095769 -0.016533747 0.05144223 -0.023947768 -0.028768536 0.019283792 0.07914319 -0.018507347
-0.06954854 0.008889825 -0.025825895 -0.055672266 -0.058983542 -0.1394611 0.07717494 0.042033553
-0.027935833 0.078661315 -0.114737764 0.025756726 -0.014222611 -0.02151565 -0.01223382 -0.024526043
-0.0856625 -0.058471523 -0.04755806 -0.054407082 -0.063570164 -0.08852385 0.018904798 -0.10421374
0.0306565 0.01572786 -0.058836885 0.032822333 0.02643675 -0.07192233 0.03912819 0.017044812
-0.010126051 -0.03847203 -0.0876128 -0.10460373 0.0652804 -0.024538994 -0.067423366 -0.0005135398
0.06842189 -0.026690219 -0.0038117892 -0.09895966 0.08218811 -0.08737201 0.024464473 -0.06418227
-0.009912486 -0.0027231777 -0.065534405 0.057209853 -0.07899433 -0.048529934 -0.07090378 0.05608206
-0.08248344 0.014581804 0.016555617 -0.075840615 -0.079589225 -0.00076561363 -0.0056142844 0.06529092
0.05016636 -0.0057230038 -0.061048992 0.031433724 -0.098292306 -0.15017149 -0.014109068 -0.024312861
-0.12037051 0.03242649 0.032762118 -0.112734154 0.0038887018 0.08060197 -0.072722785 -0.011368043
0.031186476 -0.0036328088 0.05169914 -0.021503381 0.0058117956 0.009547822 -0.07121719 -0.033017978
-0.039373428 -0.029852696 0.06737899 -0.06145675 -0.040138222 0.0047276467 0.056811534 -0.046576984
-0.016295446 0.04129278 -0.005157899 -0.06656093 -0.101318955 -0.033135105 0.004770647 0.022693375
0.08084995 -0.025071675 0.03650079 -0.058872614 -0.008824032 -0.12730394 0.0795488 -0.062238354
-0.017528549 -0.08810588 0.013337366 0.035290517 0.015635585 0.037974626 0.0041949656 -0.04622002

net.2.bias f4 [128]
00000000: 767e 5e3f 4010 20be cb33 4cbd ddc3 47bc
00000010: 038c 803f a554 5dbc e36a edbc b465 483d
00000020: 9e81 893f 7418 75bd 9c8a bb3f 54d8 0f3d
00000030: f636 bdbd d4d6 09be 777e d7bd b658 40bc
00000040: 57d6 853f d334 343d 8adc 0ebe ea50 99bc
00000050: ec50 8a3f 4bdb c7be 0f0d 4e3f 1b04 b0bd
00000060: 14b7 9bbd 7da1 d1bd 06c7 b5bd 9f12 7a3f
00000070: bf25 9abd 9af1 0d40 b87f 2bbd c616 983a
00000080: 6bb8 efbd 9506 db3f addf 3a3f c52a 863f
00000090: e9ba 0c40 9e24 18bf a45c a63f 6c62 b43f
000000a0: 62d4 d43f 9e07 ac3f b543 623f 7e9d eebd
000000b0: 616d b33f ffcf f9bd b3da 3fbd 7bae 9a3f
000000c0: 5429 64bd 4c6e 7bbd 2e11 823e 7532 cbbd
000000d0: 0fd4 f6bd 0611 0cbe f7a6 47bd 2fa5 0440
000000e0: 6e13 8c3f 6e54 e0bd ed67 79bd 1289 463f
000000f0: f11b 1a3c 611c 5ebd 7697 a03f de31 7c3f
00000100: 0c7d 04bd 8e9b 813f 4b1c cebd 712b e3bd
00000110: f9e3 6b3f 3375 07be 2b41 633f 2811 503f
00000120: 8a3c edbd ca35 21be f902 873c 0639 8e3f
00000130: 2b11 923f c135 8e3f ac3e 843f 6e95 ebbd
00000140: 11bc e43e feb8 5dbd 94c4 fcbd 65e3 353f
00000150: 5672 24bd 4a8f 06be c95c e9bd 9963 8f3f
00000160: cb88 39bd 6b0c c03f 9e6a e43f 047f 1d3f
00000170: dee0 8d3f b256 8c3f 6c69 d03b 7557 ba3f
00000180: 3d7c 0dbe b14a 04be 12e3 b33c e25d 843f
00000190: 8716 863f 9055 03bd 2810 8bbd 2291 c5bd
000001a0: 1ccf 3f3f 6b8f b2bd 0620 d3bc eb46 dbbd
000001b0: b444 38bc 0d2f 98bd c0c5 b1bc 0324 d1bd
000001c0: 1c86 973f 6893 a83f 2318 f7bd 3164 1abe
000001d0: 7e64 d53c 1975 86bd 9a6e 333d 0631 893f
000001e0: 980e 443f a291 f3bd d04a 3b3e a75e 3f3f
000001f0: 8ec7 aa3f 34f2 b93f 1d95 6cbd 7c7b 0dbe
0.86911714 -0.15631199 -0.04985408 -0.012192694 1.0042728 -0.01350895 -0.028981632 0.048925117
1.0742681 -0.059837773 1.4651675 0.035118416 -0.092389986 -0.13460857 -0.10522168 -0.0117399
1.0456036 0.04399569 -0.13951316 -0.01871534 1.0805945 -0.39034495 0.80488676 -0.08594533
-0.07603279 -0.102358796 -0.08875851 0.97684664 -0.07526731 2.2178712 -0.04186985 0.0011603467
-0.11705097 1.7111384 0.7299755 1.0481802 2.198908 -0.59430873 1.2997022 1.4092536
1.6627314 1.3439825 0.8838456 -0.11651133 1.4017755 -0.12197875 -0.046839427 1.2084497
-0.055703476 -0.061384484 0.25403732 -0.09921733 -0.12052166 -0.13678369 -0.048743214 2.072582
1.094343 -0.10953604 -0.060890127 0.775529 0.009406076 -0.054226283 1.2546222 0.9851359
-0.032345816 1.0125597 -0.1006399 -0.1109227 0.92144734 -0.13228302 0.88771313 0.8127618
-0.115838125 -0.15743175 0.01648091 1.1111152 1.1411489 1.1110154 1.0331626 -0.11503111
0.44674733 -0.0541315 -0.12342182 0.710501 -0.0401481 -0.13140598 -0.113946505 1.120227
-0.04529647 1.500379 1.7845037 0.61521935 1.1084249 1.0963957 0.0063602235 1.455794
-0.13816924 -0.12919118 0.021958862 1.0341151 1.0475625 -0.03206402 -0.06790191 -0.096468225
0.749254 -0.08718761 -0.025772106 -0.10706886 -0.011246849 -0.07430849 -0.02170074 -0.10211947
1.1837802 1.3169985 -0.120651506 -0.15077282 0.026048895 -0.06565303 0.04380665 1.0718086
0.7658477 -0.11893012 0.18290257 0.74753803 1.3342149 1.452704 -0.057759393 -0.13816637

net.4.weight f4 [13, 128]
00000000: bdfe 8c3f 00af c5ba d855 4bbd e882 a2bd
00000010: 96aa 8a3f ce41 6ebd a9ca 2f3d 6866 62bd
00000020: 7c2d 593f b44a 34bd 8362 e73e 0d08 d8bb
00000030: 4b96 8b3d f673 3b3d dd21 57bc e299 2bbd
00000040: 4f41 853f 23db f4bc 77d6 8b3d fe5c f43c
00000050: c939 623f 3109 353f 0963 b73f 7848 dc3c
00000060: e2c2 3abd 1934 8fbc 247d 82bc 1b62 873f
00000070: 3c89 b63c 55fa 9a3f 3479 6e3d 64b4 a53d
00000080: 5c4c 993c 72f1 2a3f 1e4b b73f 0ad6 ee3e
00000090: 23e7 313f 29eb 9fbd 7c32 303f 5f65 0040
000000a0: 6d15 063f 96f3 763f 20a4 5a3f 0947 8ebd
000000b0: a891 cf3f d4a8 eabc b2fb 1ebb c69e 723f
000000c0: 76a0 4b3d ed01 9c3d f32c 1840 01e2 8ebd
000000d0: 226f 973d 2ab0 a2bc 3dfd 2ebb 98df 653f
000000e0: 6281 343f a807 383c ff57 eabb 90aa c73f
000000f0: 6f57 d2bc 201a 993c 8c10 193f 345e af3f
00000100: adbd 433b 82c3 2f3f f721 bc3d 8f1c 033c
00000110: 4df7 b43f b474 99bf d651 823f 417b 983f
00000120: 563e 54bc d627 e33c b845 ae3c f95c 893f
00000130: b4bb 553f 1c32 073f 682b d43f 56e9 b53b
00000140: 816a 2140 e75e 893d b636 ccbc 9935 863f
00000150: 3671 90bd bd3a 40bd 23f3 56bd f020 503f
00000160: 6d5a ec3c ce5b fd3e 1f9d 213f 9f56 d43f
00000170: 20ad 4e3f 6e8c 4e3f bce1 343c 69af 813f
00000180: 187a 2dbc cdc3 29bd 718c c53d b5ee 863f
00000190: 1900 6c3f e4e4 e73d 3267 1e3d 7806 a8bc
000001a0: 0a94 0340 355a ed3b 9112 00bd be60 883d
000001b0: d47a b1bc c4d0 babc 44ba d5bb ee5e 1ebd
000001c0: 15b5 523f c1e8 243f 854f 07bd 59d5 afbd
000001d0: 1c2c 57bd dadc 433b 28a6 2a3e 05ea a23f
000001e0: b1e9 a83f 8891 58bc 5099 213e e494 a83f
000001f0: 6997 5e3f 69ad 6d3f 3c93 bb3a 640f 20bd
00000200: 9910 aa3f 3891 ecbc d979 b3bc cc12 7b3d
00000210: 5288 753f 5494 e73b fe13 843b f48a 3f3d
00000220: 9612 203f f81a 8abc d72c 323f 4ae1 313d
00000230: 5180 8bbd e1e2 843d 805a 02ba 557e 2ebd
00000240: ddb7 903f fa94 a8bc 3f30 09bd cc25 9dbd
00000250: 7c3d 643f b8c4 f13e 59e6 e23f f807 9abd
00000260: 9c43 fbbc 9ef8 ffbc 48c5 a43c de9a 9d3f
00000270: 41c4 9f3d a0e1 9b3f 495a 503b 3279 84bc
00000280: 2b01 ac3d 3714 343f 1166 ad3f 97d2 373f
00000290: 5e68 4b3f 6844 e1bd 5fdd 103f 7c03 e13f
000002a0: bfc7 4a3f 8b99 853f 5b1b 4d3f 9070 1ebd
000002b0: 0a7a c33f 8c7f 67bd 4f9f bbbc d721 6e3f
000002c0: 20bf 96bb 44e0 9f3c d8e1 0d40 db3a c93d
000002d0: 517b 4f3d 14d1 d63c 889d 203d 4bf9 733f
000002e0: bcb8 1f3f 9f40 02bd b368 7abd cfd7 bb3f
000002f0: e58a a0bc e4dd 1a3d d146 ea3e 2d7a 473f
00000300: 1b88 6fbd 4acd 473f e31c c4bc 3829 47bc
00000310: d3eb b83f 4b3a 8ebf 5007 553f 2cd0 923f
00000320: 6c7c e03c 05c6 62bd 6324 bebd 2937 6a3f
00000330: 59aa bb3f ac87 303f 3260 aa3f 93bb b0bc
00000340: b019 1e40 3c5b 36bd 2d69 b1bd fb32 c43f
00000350: 26dc 21bd 148e 9e3c 0a22 9fbd 598a 513f
00000360: 35ad eb3d 4fed 1f3f 3372 ba3e c973 cf3f
00000370: 65f6 153f 9890 2c3f fae9 ff3c 259c 763f
00000380: 970f 71bc 6e6c 90bd 54dc 19bc 71ba 9c3f
00000390: 79a8 1c3f 57e1 20bc 41ac 1fbc 824f a33c
000003a0: c3e7 0440 5acb 94bd 8306 b33d 5a1d a63b
000003b0: 6fff 35bc 5532 01bd 0047 7dba 4820 173c
000003c0: f056 5d3f 0d1f 613f 5eb3 8dbd 2f3e 52ba
000003d0: 73f7 873d 8125 a8bc edae 6c3d e322 a23f
000003e0: 0432 993f 79e7 5cbd 58b1 8dbf 377e 573f
000003f0: 27e4 623f b4fb 6f3f 802b 443a 582b 67bc
1.101524 -0.0015082061 -0.049642414 -0.07935125 1.0833309 -0.058168225 0.04291788 -0.055273443
0.8483503 -0.044016555 0.45192346 -0.0065927566 0.068157755 0.045764886 -0.013130632 -0.0418948
1.0410556 -0.029889649 0.06828015 0.029829498 0.88369423 0.7071715 1.4327098 0.026890025
-0.04559601 -0.017480897 -0.015928812 1.0576814 0.022282235 1.2107645 0.058221057 0.080910474
0.018713169 0.66774666 1.4319799 0.46647674 0.6949331 -0.07808525 0.68827033 2.0061872
0.52376443 0.9646543 0.85406685 -0.06947143 1.6216326 -0.028644957 -0.0024258909 0.9477352
0.049713574 0.07617555 2.3777435 -0.069767006 0.07394244 -0.019859392 -0.0026701235 0.897943
0.7050992 0.011232294 -0.0071516032 1.5598927 -0.025676457 0.018689215 0.59790874 1.3700624
0.0029867694 0.68657696 0.09186166 0.008002414 1.413797 -1.198874 1.0181224 1.1912614
-0.012954315 0.027728956 0.021273479 1.0731498 0.8348954 0.52810836 1.6575747 0.0055514975
2.5221255 0.06707554 -0.024928432 1.0485107 -0.07052843 -0.046931017 -0.052477967 0.8130026
0.028851712 0.49484104 0.6313037 1.6588935 0.8073292 0.8068303 0.011040147 1.0131656
-0.010588191 -0.041446496 0.09645928 1.0541598 0.9218765 0.11322954 0.038672633 -0.020510897
2.0559106 0.0072434195 -0.031267706 0.06659077 -0.021665014 -0.022804625 -0.0065224487 -0.03866475
0.8230756 0.64417654 -0.03303482 -0.08585615 -0.0525323 0.0029886276 0.16664946 1.2727667
1.3196317 -0.013218291 0.1578114 1.3170438 0.86949784 0.9284273 0.0014310847 -0.039077178
1.3286315 -0.02887784 -0.021908687 0.061297223 0.95911133 0.0070672426 0.0040307036 0.046763375
0.6252836 -0.016858563 0.6959967 0.043427743 -0.06811584 0.06488586 -0.0004972592 -0.04260095
1.1306111 -0.02057885 -0.033493277 -0.07673225 0.8915632 0.47220397 1.7726547 -0.07521051
-0.030671887 -0.03124648 0.020113602 1.2312887 0.07801104 1.217823 0.0031792095 -0.016171072
0.0839866 0.70343345 1.3546773 0.7180571 0.79456127 -0.109993756 0.56587785 1.7579188
0.7921104 1.0437483 0.80119866 -0.038681567 1.5271618 -0.056518123 -0.022903113 0.93020386
-0.0046004206 0.019516118 2.2169094 0.09825679 0.050654713 0.026222743 0.039212734 0.95302266
0.6239126 -0.03179991 -0.061135005 1.4675235 -0.01959748 0.037809268 0.45757154 0.779208
-0.05847941 0.7804762 -0.023939556 -0.012155823 1.4446968 -1.111154 0.83214283 1.1469779
0.027403079 -0.055364627 -0.09284284 0.9149042 1.4661361 0.6895702 1.3310606 -0.021573817
2.4703178 -0.0445206 -0.08662639 1.5328058 -0.03951659 0.019354858 -0.07770164 0.81851727
0.11507646 0.6247148 0.36415252 1.620721 0.58579093 0.6740813 0.031239498 0.9633201
-0.01471319 -0.07051931 -0.009390909 1.2244397 0.6119457 -0.00981935 -0.009745658 0.019935373
2.0766456 -0.07265349 0.087414764 0.005069417 -0.011108263 -0.03154214 -0.0009661764 0.009224005
0.8646078 0.87938005 -0.06918977 -0.00080201303 0.06638994 -0.020525696 0.05778401 1.2666897
1.1968389 -0.053931687 -1.1069746 0.84176964 0.8862938 0.93743443 0.00074832886 -0.014109455

net.4.bias f4 [13]
00000000: e70e 913f 1242 a73f ee6f 813f defc a13f
00000010: 9413 c03f 8e0b dd3f 0aa1 533f f1e2 d63f
00000020: 5294 aa3f d542 4d3f 76c7 7b3f ca93 813f
00000030: 9778 403f
1.1332673 1.3067038 1.0112283 1.2655294 1.5005975 1.7269151 0.826676 1.6788007
1.3326514 0.801801 0.9835123 1.0123227 0.75184005

net.0.weight f4 [128, 45]
00000000: 814d fd3e 4d3f 423f 4ccc 56bf f319 873e
00000010: edab acbe 624e b63f bb2a 70bf 7475 723f
00000020: c2d3 85be 2a38 bebb 89d1 143f 4da8 6bbf
00000030: 7ad7 b03e e1d6 c4bf c72a 0e3f 4f54 1340
00000040: a49c 56bf c391 f23f 5e36 f23e e96d 5ebf
00000050: df13 a13e aaf5 13be 983e dd3d 99dd 25bf
00000060: b410 0a3e da40 26bf 97b8 93bf b230 323d
00000070: 247e bb3c feb6 543e 4385 353e 7e52 0c3f
00000080: 0312 dd3e 9c3b 8d3f ab4c 24be 17f4 293e
00000090: 9a95 2cbf e986 043f 8f0c 33bf 5af9 013f
000000a0: 6de9 613e 5447 0cbe 8262 1f3e 64c1 823e
000000b0: faea 25be 746e bc3e c9e1 803e 7f70 2e3f
000000c0: fe7b 10bf 0aad 86bd 1daf ba3e ed20 07c0
000000d0: 45a9 55be dfaf f0be 47a6 3cbe 48c6 d9bf
000000e0: 36cb 9a3b 9950 423e d46c 2f3f 08b0 853e
000000f0: da74 88be b744 82be 3e9a 183f 7cdc aebd
00000100: 3ed9 293f 7808 453e 0699 7b3f 43cb 2dbf
00000110: 2fd4 053f 9114 4c3e 3836 48bf 4702 92bf
00000120: 127a c93e 1827 a2bf 4149 8c3e 38a5 6b3e
00000130: ea6a 1abf 8c7c cfbe 9ed5 44be 4906 653e
00000140: 5eb9 383f a22e 133f d9b6 27bf 0372 3cbf
00000150: 90c2 b7bd d171 8c3f 0f7a 0a3f f416 773f
00000160: 7dad 28bf f428 523c 3de0 3bbe 5b68 febe
00000170: 96a0 043f 5ca2 e2bd 5a64 0e3e ad74 a1bd
00000180: 18bd 323e c888 f73c 10de a4be e6ba 863e
00000190: 0d38 39bf 2733 05bf cb80 bb3e c72e c1be
000001a0: 60e6 ab3d 593f 76c0 12bf 52bf c7e6 94bf
000001b0: 26cd bd3e 3302 b43e 4c83 3a3f eb64 943f
000001c0: 1f7b b03e af2c 183e fb7e a63e 236d 073f
000001d0: 5206 c83e 44b2 ccbd c476 e93e bcd1 f83e
000001e0: 08e6 3b3e 1074 673f eac6 893e 7407 623f
000001f0: dfaa 9b3e e6fd 443f 4bbc 4a3f 722b d43e
00000200: 087f 993d 63aa e53d 05bc cd3e e35c 2a3f
00000210: a509 33bd 3792 573e 12e3 70bd c463 58be
00000220: 979a c83d 066d f33e 79ee b7be 062b 7c3e
00000230: b576 a63e dec6 c9bf d7aa d2bc 0dd9 0ebf
00000240: 0020 e63e 9efa 72bf c839 15bf 7101 9dbe
00000250: 21e3 05bf ae3a 3d3f a838 1bc0 7eb0 803f
00000260: b8aa 8cbf 5186 533f 072c d73e 3e57 483e
00000270: 28ef cb3e ce82 d63e 8fcb 27be 2f15 7b3e
00000280: 9989 973f b2d0 cebe c11e 5a3f 053b 233d
00000290: 26a7 2e3e ab02 d43c f0a5 243e 9538 b23d
000002a0: 3e17 2ebe fe65 053d c401 113f baea fb3c
000002b0: 3f5d a63e 9151 3d3e e000 8ebd b3ba 553f
000002c0: 9ede c63e 156c dabd f313 0a3e 688a 7f3e
000002d0: 0e1c 693f ec66 d93e e531 333e aa17 b73e
000002e0: 2093 48be 3b1c 043f 19dc 823e ed67 d63d
000002f0: 456c 903c bb2e 03bf 2a02 68bf 5a72 893e
00000300: e5c6 cdbf 4468 993b 55bb b53e 8889 e0bf
00000310: 8d7c 84be fca5 6e3e 628b ec3f 0fad 353f
00000320: 4d02 7d3f c0d4 71bf ea21 453f 895e e63e
00000330: 965a efbe 0619 813f 2340 84bf 9df3 733f
00000340: 75e8 7fbf ce4a a7be 8a60 0b3f 15cc d83f
00000350: 371c 143e b75e 983f 2212 19c0 a177 923f
00000360: fa1a c33e 86da 0b3f 2585 753f 3dbd 303f
00000370: 41dd d13e 475a 19bf bfe0 043e 167a 093e
00000380: 3018 2fbe b4b1 0abe 6d5d 863d be6e 993f
00000390: 9d4c 46bf 33f6 aebd d064 1fbf 67a1 8c3a
000003a0: 3b4a 91bf 2161 e1be 7144 323e 64b6 51bf
000003b0: c22c 82bf 0bc2 d2be 7b81 8cbe b936 8fbe
000003c0: 6f23 2ac0 1abd d23e e7c4 80bf efa4 f03e
000003d0: 978e a93e d5c4 d63e c3f6 a23d eef7 dabe
000003e0: d219 a93e 72e1 e73e f4f1 7b3f 5b10 6f3f
000003f0: 6bdb 6f3d 0db3 063e 1a71 a93e df4d 1cbe
0.49473193 0.7587784 -0.8390548 0.26386985 -0.3372492 1.424267 -0.938152 0.9471047
-0.2613812 -0.005805035 0.58132225 -0.9205368 0.34539396 -1.5378076 0.55534023 2.3020208
-0.83832765 1.8950733 0.47307104 -0.8688646 0.31460473 -0.14449182 0.108029544 -0.64791256
0.13482934 -0.64942706 -1.1540707 0.04350347 0.022887297 0.20772931 0.17726617 0.54813373
0.43177804 1.1033816 -0.16044872 0.16597019 -0.67415774 0.51768357 -0.6994104 0.50771105
0.22061701 -0.13699085 0.15564921 0.2553817 -0.16202918 0.3680302 0.2517226 0.68140405
-0.564392 -0.06575973 0.36461726 -2.1113846 -0.20865352 -0.4700918 -0.18422805 -1.7013636
0.0047239317 0.18976058 0.68525434 0.26110864 -0.2665165 -0.2544305 0.59610355 -0.08538148
0.6634711 0.19241512 0.9828037 -0.6788828 0.5227689 0.1992972 -0.7820773 -1.1406945
0.39350945 -1.266818 0.27399638 0.23012245 -0.6031939 -0.4052471 -0.19222113 0.22365679
0.7215785 0.5749303 -0.6551338 -0.7361147 -0.08972657 1.0972234 0.54092497 0.965194
-0.6588972 0.012827147 -0.18347259 -0.49688992 0.51807535 -0.11066124 0.13905469 -0.07883582
0.17454946 0.03021659 -0.3220067 0.26314467 -0.7235115 -0.5203118 0.366217 -0.37731
0.0839355 -3.8476164 -0.823228 -1.1632928 0.37070578 0.35157928 0.72856593 1.1593298
0.34468934 0.14860795 0.32518753 0.52900904 0.39067322 -0.09994939 0.45598423 0.48597515
0.18349469 0.9041147 0.26909572 0.8829262 0.30403802 0.7694992 0.7919356 0.41439396
0.074949324 0.11214139 0.4018251 0.66547984 -0.04371037 0.2105187 -0.0588103 -0.21131808
0.09795111 0.47544116 -0.35924128 0.24625787 0.3251244 -1.5763814 -0.025716228 -0.55799943
0.4494629 -0.9491366 -0.5829129 -0.30665162 -0.52299696 0.73917663 -2.425333 1.0053861
-1.0989599 0.82626826 0.42025778 0.1956453 0.398309 0.4189667 -0.16386245 0.245198
1.1838866 -0.40393597 0.85203177 0.039851207 0.1705595 0.025880178 0.16078925 0.087021984
-0.17001054 0.03256797 0.5664332 0.030751575 0.32493016 0.18488146 -0.06933761 0.83488005
0.38841718 -0.10665146 0.13484173 0.24955142 0.91058433 0.42461336 0.17499502 0.35760242
-0.19587374 0.51605576 0.25558546 0.10469041 0.017629752 -0.5124318 -0.906283 0.26845056
-1.6076323 0.004681619 0.35494485 -1.7541971 -0.25876275 0.23305506 1.8480036 0.7096719
0.98831636 -0.94465256 0.77004874 0.44994 -0.467488 1.0085762 -1.0332073 0.952936
-0.99964076 -0.3267426 0.5444418 1.6937281 0.14463888 1.1903905 -2.3917317 1.1442758
0.3810652 0.54630315 0.9590629 0.69038755 0.40989116 -0.5990338 0.12976359 0.13425478
-0.1709907 -0.13544351 0.06560788 1.1986921 -0.7746065 -0.085430525 -0.622632 0.0010729254
-1.1350778 -0.44019416 0.17408921 -0.8191893 -1.0169909 -0.41163668 -0.27442536 -0.27971438
-2.6584127 0.41159898 -1.006009 0.47000834 0.331166 0.41947046 0.07957222 -0.4276728
0.33027512 0.4528919 0.98416066 0.9338433 0.058558863 0.1315424 0.33094102 -0.1526408

net.0.bias f4 [128]
00000000: d56a a13e 7cad 0fbf e079 613f 3071 723f
00000010: 422e 3d3f 9f98 203e 83c5 e7be 7f6a cdbe
00000020: 153d 19be 796c 80bd 965f 223f 8fb7 633f
00000030: c59b b43f 6100 9b3f 8971 4a3f ae01 773e
00000040: 85d9 b73f e131 af3e 3c73 543f 2c3d 24be
00000050: 0058 9b3f 666b 343f 4d8c 8e3f 8050 44bf
00000060: e21d f53e 2598 533f b31c 0c3f 35fa fdbe
00000070: 6b07 c6be f4e8 373e b9ea ba3e bdce 43be
00000080: d115 8dbe 7742 f33e bf83 4cbe a9d0 323f
00000090: 842d 7c3e 5ca0 913f 8493 263f 7259 803d
000000a0: 187e e13e 409b 02be 3d5c 023f 0925 d33e
000000b0: 5233 b23d 6cbe 01bc f5a1 833f 661e bc3e
000000c0: d658 133f 0a56 4e3e dbae 4f3f ed5c 13be
000000d0: 7f01 6dbd 7ff2 983f f48c 023f be1a 1abf
000000e0: 88d0 0a3f 2ad2 9fbe ca48 8fbe fb71 de3e
000000f0: 0bf4 fb3e 4928 70bf 3d70 bb3e eb80 90be
00000100: 2bc9 5f3e 1805 96bf 2807 96be 3113 35bf
00000110: 44c0 5f3f e9ce d5be 41ec a93f 85cf 443e
00000120: 4834 dfbe 6e30 373e e1f1 21bf 9491 25bc
00000130: f048 60be be19 b73f 44f5 9fbe d04e a13e
00000140: 394b e83e a0ab 8ebe 5160 183f e106 313f
00000150: 68bc 733f f3b9 b83d 15ec 1bbe feed 653f
00000160: d842 8a3e 2de7 643c 7e70 a73e 10ab a93f
00000170: 1bc8 eebe 60d0 923e 04df 113f 3d66 18bd
00000180: abe8 54be de47 7fbe 87a5 26be b918 923f
00000190: 2d29 74bd ee5f 463d 8e81 e8bd 3569 b03f
000001a0: 4965 9f3f 5c9f d73e 493e 02bf 15e2 acbe
000001b0: 1238 ba3e 9c0d 1f3d e07d 113f 1a15 f0be
000001c0: a704 6d3f f39a 8d3d 98ab ab3d 1d99 3f3d
000001d0: 9e3d 383e a7ae ae3f 36c2 8ebe 8986 983e
000001e0: 6c05 59be 1225 593f 3ea2 b0be 467b b33e
000001f0: 8b48 03bf 8273 6fbd 8516 ac3f d276 6ebf
0.3152682 -0.5612409 0.8807659 0.9470396 0.7389871 0.1568322 -0.45267877 -0.40120313
-0.14964707 -0.062706895 0.634271 0.88951963 1.4110037 1.2109491 0.7907949 0.24121734
1.4363257 0.34217742 0.82988334 -0.1603896 1.213623 0.70476377 1.1136566 -0.76685333
0.4787436 0.8265403 0.5473129 -0.49604955 -0.38677534 0.17959958 0.36507204 -0.19121833
-0.27555707 0.47511646 -0.19972132 0.6984964 0.24626738 1.1377063 0.6506884 0.0626706
0.44041514 -0.12754536 0.50921994 0.41239193 0.08701195 -0.007918935 1.02838 0.36741942
0.5755743 0.20150009 0.81126183 -0.14390917 -0.057862755 1.1949004 0.5099633 -0.60197055
0.54224443 -0.3121503 -0.2798522 0.43446335 0.49209628 -0.9381147 0.3660907 -0.28223357
0.21854083 -1.1720304 -0.29302335 -0.7073241 0.8740275 -0.41759422 1.3275224 0.19219787
-0.43594575 0.17889568 -0.632597 -0.010105509 -0.21902823 1.4304731 -0.3124181 0.31505442
0.4536989 -0.27865314 0.5952197 0.6915112 0.9520936 0.09019842 -0.15226777 0.8981627
0.27004123 0.013971132 0.32703012 1.3255329 -0.46637043 0.28674603 0.5698092 -0.037206877
-0.20791881 -0.24929759 -0.16274081 1.1413795 -0.05960958 0.04843133 -0.113528356 1.3782107
1.2452785 0.4211377 -0.5087629 -0.33766237 0.36370903 0.03883134 0.56832695 -0.468911
0.92585224 0.0691432 0.08382338 0.04677688 0.17992255 1.364705 -0.27882546 0.29790142
-0.21193475 0.8482219 -0.3449878 0.35054988 -0.51282567 -0.058459766 1.3444372 -0.93150055

net.2.weight f4 [128, 128]
00000000: c238 83bf 878f 58bf 9c29 713f a968 093f
00000010: bfcd 27bd dd19 fb3f 7cfb 14bf 04d4 e7be
00000020: 96b2 73bf fddf 10bf 026f 7a3f 70ee 843f
00000030: 8bad 6f3c 0491 cbbb ba04 033f 3cac 1240
00000040: 76ad 6b3d 620f a03f 9e6b 57bd ddff dabf
00000050: a7e2 da3c f279 c83f df02 323f ba97 e7bf
00000060: 17eb 2b3f 0b7a 64bf 18e3 c93f 1db8 1cbe
00000070: 08a8 833f 06e4 f83f 652f 68c0 5b59 71c0
00000080: 469a b3bf 0cbe d43f 49b3 4dbf 534f 6c3f
00000090: 829b babf 5e32 87bd 8c6c 8a3f 03b2 bfbf
000000a0: 9bcf d33e 0262 afbf 560f e93f 3761 05c0
000000b0: 3abc d23f 4a77 d1bf fc02 b93d 451c c3bf
000000c0: 95b0 e73f 05cb 12c0 1454 abbf e4e8 c5bf
000000d0: a397 0a40 94f8 8dbe 0469 3e3f e249 98bf
000000e0: f971 11c0 6d02 58c0 8d58 46bb 9a32 fa3f
000000f0: ef66 843f d9d8 953f 9296 cc3f 7749 993f
00000100: 99a4 2b40 7e9b cdbf b305 20c0 de79 67bf
00000110: 6fe5 6cbd bd2c 513f de09 97bd 54eb b53f
00000120: b2d4 cf3f 7f53 2040 4651 2ec0 9f8c 8dbf
00000130: ae92 1fc0 a4b8 c6bc 2c0f 54c0 436f 95bf
00000140: 8ef8 0640 eae9 29bf 617e fb3f 3492 0840
00000150: 7dc9 9bbe f3cc a73f 5bc8 aabf 2a87 843e
00000160: 5a1c 9f3f 4a43 fe3e 37b3 3fbf 3dea 9fbd
00000170: e9b4 76bf 1f61 35bf 12b2 b23f d39d 9dbf
00000180: 8c23 aabd 2310 4ec0 1943 e3bf 18c2 503e
00000190: 2a0a 9abf 4e9e 43c0 bbcd 17c0 3689 7a3c
000001a0: fc83 56be ac06 bf3f b079 a3be 8597 b93f
000001b0: c3ab cb3e 8759 653f 4011 99bf 03dc 0cc0
000001c0: 45b0 d03f f5c1 483f d3bd 553e 1e31 b0bf
000001d0: afc4 3bbf 3093 9abd b9a8 f93c f1b1 f33f
000001e0: 3937 4f3d 09d5 203f 839b 9dbe 1fc6 42c0
000001f0: 09da bcbf a0c7 3340 2120 06be c2e8 4fc0
00000200: 943d 94bc c871 87bc 16b5 523d 1c2e c4bc
00000210: feab ebbc 0bf9 9d3c d315 a23d b89c 97bc
00000220: 776f 8ebd a1a6 113c d490 d3bc 9a08 64bd
00000230: ba98 71bd e4ce 0ebe e50d 9e3d 602b 2c3d
00000240: b0d9 e4bc 2f19 a13d a2fb eabd c5ff d23c
00000250: f405 69bc 9741 b0bc 5c70 48bc d7ea c8bc
00000260: d26f afbd d67f 6fbd 3ecc 42bd f6d9 5ebd
00000270: 1331 82bd fe4b b5bd 3cde 9a3c 036e d5bd
00000280: 5723 fb3c b7d7 803c f2fe 70bd b670 063d
00000290: e291 d83c 044c 93bd e244 203d 90a1 8b3c
000002a0: bce7 25bc d994 1dbd 576e b3bd 7b3a d6bd
000002b0: bbb1 853d 0006 c9bc 4315 8abd 139f 06ba
000002c0: c720 8c3d 72a5 dabc 36cf 79bb 5dab cabd
000002d0: 3d52 a83d 19f0 b2bd b869 c83c fe71 83bd
000002e0: fb67 22bc 5777 32bb e736 86bd e154 6a3d
000002f0: c7c7 a1bd 53c7 46bd 0036 91bd 4db6 653d
00000300: 14ed a8bd 85e8 6e3c a59f 873c 5352 9bbd
00000310: adff a2bd 76b3 48ba 08f8 b7bb 3fb7 853d
00000320: 3e7b 4d3d 0988 bbbb 820e 7abd a6c0 003d
00000330: 7a4d c9bd 8ec6 19be b829 67bc c42b c7bc
00000340: d084 f6bd a4d1 043d 9231 063d 2ae1 e6bd
00000350: 97d9 7e3b a512 a53d afef 94bd 0741 3abc
00000360: c87a ff3c 6b14 6ebb 7ac2 533d dc27 b0bc
00000370: e070 be3b 786e 1c3c 51da 91bd dc3d 07bd
00000380: 0846 21bd a48d f4bc fffd 893d 13ba 7bbd
00000390: fa67 24bd 60ea 9a3b 36b3 683d 82c7 3ebd
000003a0: 077e 85bc 9e22 293d 9803 a9bb 1951 88bd
000003b0: 5080 cfbd adb8 07bd 1653 9c3b 75e7 b93c
000003c0: a994 a53d 1d63 cdbc da81 153d 6924 71bd
000003d0: ac92 10bc f75b 02be 7bea a23d a5ed 7ebd
000003e0: 0898 8fbc db70 b4bd f884 5a3c ca8c 103d
000003f0: 3316 803c 488b 1b3d ec75 893b 3451 3dbd
-1.0251696 -0.84594005 0.94204116 0.53675324 -0.0409677 1.9617268 -0.58196235 -0.45278943
-0.95194376 -0.5659178 0.97825634 1.0385265 0.014628778 -0.0062123556 0.5117909 2.2917624
0.057538472 1.2504694 -0.052592866 -1.7109333 0.026719404 1.5662215 0.6953563 -1.8093178
0.67155594 -0.8924872 1.5772429 -0.15304609 1.0285654 1.9444587 -3.6278927 -3.7710788
-1.4031456 1.6620498 -0.8035169 0.9230854 -1.4578707 -0.06601404 1.0814376 -1.49762
0.41369328 -1.3701785 1.8207805 -2.0840585 1.6463692 -1.6364529 0.09033772 -1.5243002
1.8100764 -2.2936413 -1.3385034 -1.5461698 2.1655052 -0.27728713 0.7437899 -1.1897547
-2.2725813 -3.375148 -0.0030265183 1.9546692 1.0343913 1.1706802 1.598345 1.1975545
2.6819212 -1.6063077 -2.5003479 -0.9042033 -0.057835992 0.8170889 -0.07374929 1.4212441
1.6236784 2.5050962 -2.7237105 -1.1058539 -2.4933276 -0.024257965 -3.313426 -1.1674579
2.1089206 -0.6637255 1.9647943 2.1339235 -0.3042716 1.310942 -1.3342394 0.25884372
1.2430527 0.49660712 -0.74882835 -0.07808349 -0.96369797 -0.7085132 1.3960593 -1.2313789
-0.08307561 -3.219735 -1.7754852 0.20386541 -1.2034352 -3.0565372 -2.3719318 0.015291503
-0.20948786 1.4923911 -0.31928778 1.4499365 0.3977948 0.8958973 -1.1958389 -2.2009284
1.6303793 0.78420955 0.20873193 -1.3764989 -0.7334699 -0.07547605 0.030475961 1.9038678
0.050589774 0.62825066 -0.3078271 -3.0433424 -1.4754039 2.8090591 -0.13098194 -3.2485814
-0.018095769 -0.016533747 0.05144223 -0.023947768 -0.028768536 0.019283792 0.07914319 -0.018507347
-0.06954854 0.008889825 -0.025825895 -0.055672266 -0.058983542 -0.1394611 0.07717494 0.042033553
-0.027935833 0.078661315 -0.114737764 0.025756726 -0.014222611 -0.02151565 -0.01223382 -0.024526043
-0.0856625 -0.058471523 -0.04755806 -0.054407082 -0.063570164 -0.08852385 0.018904798 -0.10421374
0.0306565 0.01572786 -0.058836885 0.032822333 0.02643675 -0.07192233 0.03912819 0.017044812
-0.010126051 -0.03847203 -0.0876128 -0.10460373 0.0652804 -0.024538994 -0.067423366 -0.0005135398
0.06842189 -0.026690219 -0.0038117892 -0.09895966 0.08218811 -0.08737201 0.024464473 -0.06418227
-0.009912486 -0.0027231777 -0.065534405 0.057209853 -0.07899433 -0.048529934 -0.07090378 0.05608206
-0.08248344 0.014581804 0.016555617 -0.075840615 -0.079589225 -0.00076561363 -0.0056142844 0.06529092
0.05016636 -0.0057230038 -0.061048992 0.031433724 -0.098292306 -0.15017149 -0.014109068 -0.024312861
-0.12037051 0.03242649 0.032762118 -0.112734154 0.0038887018 0.08060197 -0.072722785 -0.011368043
0.031186476 -0.0036328088 0.05169914 -0.021503381 0.0058117956 0.009547822 -0.07121719 -0.033017978
-0.039373428 -0.029852696 0.06737899 -0.06145675 -0.040138222 0.0047276467 0.056811534 -0.046576984
-0.016295446 0.04129278 -0.005157899 -0.06656093 -0.101318955 -0.033135105 0.004770647 0.022693375
0.08084995 -0.025071675 0.03650079 -0.058872614 -0.008824032 -0.12730394 0.0795488 -0.062238354
-0.017528549 -0.08810588 0.013337366 0.035290517 0.015635585 0.037974626 0.0041949656 -0.04622002

net.2.bias f4 [128]
00000000: 8451 5e3f 4010 20be cb33 4cbd ddc3 47bc
00000010: 6fd4 803f a554 5dbc e36a edbc b465 483d
00000020: dba2 893f 7418 75bd 0966 bb3f 54d8 0f3d
00000030: f636 bdbd d4d6 09be 777e d7bd b658 40bc
00000040: 28da 853f d334 343d 8adc 0ebe ea50 99bc
00000050: 58ba 8a3f a262 c6be ddd3 4d3f 1b04 b0bd
00000060: 14b7 9bbd 7da1 d1bd 06c7 b5bd e50a 793f
00000070: bf25 9abd 0ee6 0d40 b87f 2bbd c616 983a
00000080: 6bb8 efbd 9501 db3f d7c0 3a3f ab96 853f
00000090: 10ad 0c40 af75 18bf 8827 a63f f893 b43f
000000a0: 1daf d43f 248b ab3f 7f36 613f 7e9d eebd
000000b0: d613 b33f ffcf f9bd b3da 3fbd e0d5 9a3f
000000c0: 5429 64bd 4c6e 7bbd 6f9e 833e 7532 cbbd
000000d0: 0fd4 f6bd 0611 0cbe f7a6 47bd 1494 0440
000000e0: c4a6 8b3f 6e54 e0bd ed67 79bd 8ff1 453f
000000f0: f11b 1a3c 611c 5ebd 6aac a03f fabd 7b3f
00000100: 0c7d 04bd b671 813f 4b1c cebd 712b e3bd
00000110: f8d4 6b3f 1b7f 07be 2096 633f 0991 4f3f
00000120: 8a3c edbd ca35 21be f902 873c f4ee 8d3f
00000130: 07cf 913f 71a6 8d3f 2597 843f 6e95 ebbd
00000140: 021c e43e feb8 5dbd 94c4 fcbd 0427 373f
00000150: 5672 24bd 4a8f 06be c95c e9bd 6d73 8f3f
00000160: cb88 39bd e512 c03f 1751 e43f fbd1 1c3f
00000170: 2dbf 8d3f 2811 8c3f 6c69 d03b e36e ba3f
00000180: 3d7c 0dbe b14a 04be 12e3 b33c 8600 843f
00000190: 0c82 863f 9055 03bd 2810 8bbd 2291 c5bd
000001a0: 85f8 3e3f 6b8f b2bd 0620 d3bc eb46 dbbd
000001b0: b444 38bc 0d2f 98bd c0c5 b1bc 0324 d1bd
000001c0: 360c 973f 1fc2 a73f 2318 f7bd 3164 1abe
000001d0: 7e64 d53c 1975 86bd d618 4b3d 0a16 893f
000001e0: 88bf 433f a291 f3bd 2ce9 383e 18dd 3e3f
000001f0: 25d1 aa3f 47e3 b93f 1d95 6cbd 7c7b 0dbe
0.8684313 -0.15631199 -0.04985408 -0.012192694 1.006483 -0.01350895 -0.028981632 0.048925117
1.0752825 -0.059837773 1.4640514 0.035118416 -0.092389986 -0.13460857 -0.10522168 -0.0117399
1.0457201 0.04399569 -0.13951316 -0.01871534 1.0838118 -0.38747126 0.804014 -0.08594533
-0.07603279 -0.102358796 -0.08875851 0.9728225 -0.07526731 2.2171664 -0.04186985 0.0011603467
-0.11705097 1.7109858 0.729505 1.0436605 2.198063 -0.5955457 1.2980814 1.4107656
1.661594 1.3401837 0.8797378 -0.11651133 1.3990428 -0.12197875 -0.046839427 1.209652
-0.055703476 -0.061384484 0.25706813 -0.09921733 -0.12052166 -0.13678369 -0.048743214 2.071538
1.0910268 -0.10953604 -0.060890127 0.77321714 0.009406076 -0.054226283 1.2552617 0.98336756
-0.032345816 1.0112827 -0.1006399 -0.1109227 0.9212184 -0.1323208 0.8890095 0.8108068
-0.115838125 -0.15743175 0.01648091 1.1088548 1.1391305 1.1066419 1.0358626 -0.11503111
0.44552618 -0.0541315 -0.12342182 0.7154391 -0.0401481 -0.13140598 -0.113946505 1.12071
-0.04529647 1.5005766 1.7837247 0.61257905 1.1073967 1.0942736 0.0063602235 1.456509
-0.13816924 -0.12919118 0.021958862 1.031266 1.0508437 -0.03206402 -0.06790191 -0.096468225
0.7459796 -0.08718761 -0.025772106 -0.10706886 -0.011246849 -0.07430849 -0.02170074 -0.10211947
1.1800601 1.3106116 -0.120651506 -0.15077282 0.026048895 -0.06565303 0.049584232 1.0709851
0.7646413 -0.11893012 0.18057698 0.7455611 1.3345076 1.4522485 -0.057759393 -0.13816637

net.4.weight f4 [13, 128]
00000000: 0e7e 8d3f 00af c5ba d855 4bbd e882 a2bd
00000010: 6d8c 8a3f ce41 6ebd a9ca 2f3d 6866 62bd
00000020: 2a7f 5b3f b44a 34bd e86d ec3e 0d08 d8bb
00000030: 4b96 8b3d f673 3b3d dd21 57bc e299 2bbd
00000040: 96ae 853f 23db f4bc 77d6 8b3d fe5c f43c
00000050: 2e59 633f a5f4 353f de81 b73f 7848 dc3c
00000060: e2c2 3abd 1934 8fbc 247d 82bc 11ea 873f
00000070: 3c89 b63c 2bfa 9b3f 3479 6e3d 64b4 a53d
00000080: 5c4c 993c 89ce 2c3f 13ec b73f 52bc ef3e
00000090: b751 343f 63c8 95bd 7d74 313f 76fc 0040
000000a0: 68d2 083f d838 783f 9d5e 5b3f 0947 8ebd
000000b0: afe2 cf3f d4a8 eabc b2fb 1ebb 1acd 733f
000000c0: 76a0 4b3d ed01 9c3d e82a 1840 01e2 8ebd
000000d0: 226f 973d 2ab0 a2bc 3dfd 2ebb 2407 683f
000000e0: e150 353f a807 383c ff57 eabb 4974 c83f
000000f0: 6f57 d2bc 201a 993c 773a 1b3f c419 b03f
00000100: adbd 433b 51fb 303f f721 bc3d 8f1c 033c
00000110: ce34 b53f aea2 98bf 3a1d 833f 6bbd 983f
00000120: 563e 54bc d627 e33c b845 ae3c 2a84 893f
00000130: 2188 563f f6a3 083f 6c06 d43f 56e9 b53b
00000140: 391f 2140 e75e 893d b636 ccbc 9072 863f
00000150: 3671 90bd bd3a 40bd 23f3 56bd 765f 523f
00000160: 6d5a ec3c 35d7 003f ddfe 233f 9ddc d43f
00000170: a949 503f e376 4f3f bce1 343c 9094 823f
00000180: 187a 2dbc cdc3 29bd 718c c53d 0d79 863f
00000190: 3608 6e3f e4e4 e73d 3267 1e3d 7806 a8bc
000001a0: 1295 0340 355a ed3b 9112 00bd be60 883d
000001b0: d47a b1bc c4d0 babc 44ba d5bb ee5e 1ebd
000001c0: 65aa 543f f77f 263f 854f 07bd 59d5 afbd
000001d0: 1c2c 57bd dadc 433b 11ba 2c3e 5475 a33f
000001e0: 718f a93f 8891 58bc 3649 253e 6209 a93f
000001f0: b8c7 5f3f 3be4 6f3f 3c93 bb3a 640f 20bd
00000200: af42 aa3f 3891 ecbc d979 b3bc cc12 7b3d
00000210: 9bb8 753f 5494 e73b fe13 843b f48a 3f3d
00000220: a0e4 203f f81a 8abc 6bee 323f 4ae1 313d
00000230: 5180 8bbd e1e2 843d 805a 02ba 557e 2ebd
00000240: a675 903f fa94 a8bc 3f30 09bd cc25 9dbd
00000250: b01f 643f 94bd f13e aaed e23f f807 9abd
00000260: 9c43 fbbc 9ef8 ffbc 48c5 a43c 6d79 9d3f
00000270: 41c4 9f3d e44a 9b3f 495a 503b 3279 84bc
00000280: 2b01 ac3d 74ff 323f e7aa ad3f b7a1 373f
00000290: c975 4b3f 46f1 eebd 89c5 113f 0575 e13f
000002a0: c637 4b3f e692 853f db63 4d3f 9070 1ebd
000002b0: b978 c33f 8c7f 67bd 4f9f bbbc d1f8 6e3f
000002c0: 20bf 96bb 44e0 9f3c 22b3 0d40 db3a c93d
000002d0: 517b 4f3d 14d1 d63c 889d 203d 1ead 723f
000002e0: f793 1f3f 9f40 02bd b368 7abd 5051 bc3f
000002f0: e58a a0bc e4dd 1a3d 90b8 ea3e 4b4d 483f
00000300: 1b88 6fbd 99ce 483f e31c c4bc 3829 47bc
00000310: ff25 b93f 0c0e 8fbf 2826 553f 60b8 923f
00000320: 6c7c e03c 05c6 62bd 6324 bebd 8439 6b3f
00000330: 88ff bb3f 016e 313f df1e aa3f 93bb b0bc
00000340: b459 1e40 3c5b 36bd 2d69 b1bd 3897 c43f
00000350: 26dc 21bd 148e 9e3c 0a22 9fbd aa66 523f
00000360: 35ad eb3d 4591 203f b98d ba3e 3888 cf3f
00000370: 98c8 163f b3eb 2c3f fae9 ff3c de13 773f
00000380: 970f 71bc 6e6c 90bd 54dc 19bc 7a6d 9c3f
00000390: 4155 1d3f 57e1 20bc 41ac 1fbc 824f a33c
000003a0: 8ee3 0440 5acb 94bd 8306 b33d 5a1d a63b
000003b0: 6fff 35bc 5532 01bd 0047 7dba 4820 173c
000003c0: 9920 5e3f 2c4a 623f 5eb3 8dbd 2f3e 52ba
000003d0: 73f7 873d 8125 a8bc df87 7c3d c336 a23f
000003e0: ba4e 993f 79e7 5cbd f8d8 8dbf 6c55 573f
000003f0: 5b82 623f 7f53 6e3f 802b 443a 582b 67bc
1.1054094 -0.0015082061 -0.049642414 -0.07935125 1.0824105 -0.058168225 0.04291788 -0.055273443
0.8574091 -0.044016555 0.46177602 -0.0065927566 0.068157755 0.045764886 -0.013130632 -0.0418948
1.0443904 -0.029889649 0.06828015 0.029829498 0.8880795 0.7107642 1.4336507 0.026890025
-0.04559601 -0.017480897 -0.015928812 1.0618306 0.022282235 1.218572 0.058221057 0.080910474
0.018713169 0.6750265 1.4368919 0.46823364 0.70437187 -0.07313611 0.6931837 2.015409
0.53446054 0.96961737 0.85691243 -0.06947143 1.6241053 -0.028644957 -0.0024258909 0.95234835
0.049713574 0.07617555 2.3776188 -0.069767006 0.07394244 -0.019859392 -0.0026701235 0.90635896
0.70826536 0.011232294 -0.0071516032 1.5660487 -0.025676457 0.018689215 0.60636085 1.3757863
0.0029867694 0.6913348 0.09186166 0.008002414 1.415674 -1.1924646 1.0243294 1.1932806
-0.012954315 0.027728956 0.021273479 1.0743458 0.83801466 0.53375185 1.656446 0.0055514975
2.5175307 0.06707554 -0.024928432 1.0503712 -0.07052843 -0.046931017 -0.052477967 0.8217691
0.028851712 0.5032838 0.64060766 1.6629826 0.81362396 0.8104078 0.011040147 1.0201588
-0.010588191 -0.041446496 0.09645928 1.0505692 0.9298128 0.11322954 0.038672633 -0.020510897
2.0559735 0.0072434195 -0.031267706 0.06659077 -0.021665014 -0.022804625 -0.0065224487 -0.03866475
0.830725 0.6503901 -0.03303482 -0.08585615 -0.0525323 0.0029886276 0.16867854 1.2770181
1.32469 -0.013218291 0.16141209 1.3205988 0.8741412 0.9370763 0.0014310847 -0.039077178
1.33016 -0.02887784 -0.021908687 0.061297223 0.9598481 0.0070672426 0.0040307036 0.046763375
0.62848854 -0.016858563 0.69895047 0.043427743 -0.06811584 0.06488586 -0.0004972592 -0.04260095
1.1285903 -0.02057885 -0.033493277 -0.07673225 0.8911085 0.4721495 1.7728779 -0.07521051
-0.030671887 -0.03124648 0.020113602 1.2302681 0.07801104 1.213223 0.0031792095 -0.016171072
0.0839866 0.6992104 1.356778 0.7173113 0.794766 -0.11667113 0.5694204 1.7613837
0.7938198 1.0435455 0.8023049 -0.038681567 1.5271217 -0.056518123 -0.022903113 0.93348414
-0.0046004206 0.019516118 2.2140584 0.09825679 0.050654713 0.026222743 0.039212734 0.94795406
0.6233515 -0.03179991 -0.061135005 1.4712315 -0.01959748 0.037809268 0.45843935 0.7824294
-0.05847941 0.78440243 -0.023939556 -0.012155823 1.446472 -1.1176162 0.83261347 1.1462517
0.027403079 -0.055364627 -0.09284284 0.91884637 1.4687357 0.6930848 1.3290671 -0.021573817
2.474225 -0.0445206 -0.08662639 1.5358648 -0.03951659 0.019354858 -0.07770164 0.821879
0.11507646 0.62721664 0.3643625 1.6213446 0.5889983 0.6754715 0.031239498 0.9651469
-0.01471319 -0.07051931 -0.009390909 1.222091 0.6145821 -0.00981935 -0.009745658 0.019935373
2.0763888 -0.07265349 0.087414764 0.005069417 -0.011108263 -0.03154214 -0.0009661764 0.009224005
0.8676849 0.8839443 -0.06918977 -0.00080201303 0.06638994 -0.020525696 0.061653014 1.2672962
1.197715 -0.053931687 -1.1081839 0.8411472 0.88480157 0.93096155 0.00074832886 -0.014109455

net.4.bias f4 [13]
00000000: fbec 913f d9aa a63f b591 813f 8145 a13f
00000010: 80d0 bf3f a4b2 dc3f 0128 543f 0b84 d73f
00000020: 84ae aa3f 531c 4e3f 8b52 7a3f f913 813f
00000030: b4b9 403f
1.1400446 1.3020889 1.0122591 1.2599336 1.4985504 1.7242017 0.8287354 1.6837171
1.3334508 0.8051197 0.977822 1.008422 0.7528336
