checkpoints/team2_agent_3.pt (torch, 394913 bytes, 24 tensors)

net.0.weight f4 [128, 45]
000000 2b b0 53 3e 15 7c 10 3f 61 de 75 3f dd 5e 74 3c
       0.20672671 0.56439334 0.9604245 0.014915195
000010 c9 74 6e 3d d8 ba 25 bf ca 19 0a 3e a0 43 b0 3e
       0.058216844 -0.64738226 0.134864 0.34426594
000020 9a 54 37 3f 1b 08 14 be f2 d2 45 40 bc 68 68 3f
       0.71613467 -0.14456217 3.091 0.9078481
000030 28 48 8f 3f 21 45 d1 3f d6 da 97 bd bf 6c e7 3f
       1.1193895 1.6349221 -0.074147865 1.8080062
000040 af 92 7a 3d be cc 3f 3f 0a 4b b0 bf 04 77 83 3e
       0.061175045 0.74921787 -1.37729 0.2567674
000050 81 07 d6 bd 57 c4 d3 be fb 5a f7 bd bd c9 9b be
       -0.1045065 -0.41360733 -0.120779 -0.30427352
000060 bb f2 77 be 35 ab 4b 3e 81 65 bb 3e 86 1c 0b bd
       -0.24213688 0.19889529 0.3660088 -0.03396275
000070 07 d7 4b 3f 2d 10 63 3d 2b d8 86 be ad ba 64 3e
       0.7962498 0.05543535 -0.26336798 0.22336836
000080 63 14 87 3e 6e e6 32 be 2f 16 dd 3e b5 e0 9c be
       0.2638274 -0.17470714 0.43180987 -0.30640188
000090 bb 50 09 be db 42 d4 be 9b 87 bb bc f5 0a bf bd
       -0.13409702 -0.41457257 -0.02289181 -0.09328262
0000a0 6d 47 bc be b6 71 c3 3e 66 3b e4 3a 9f b8 26 be
       -0.36773244 0.38172692 0.0017412722 -0.16281365
0000b0 f7 aa fe bd 77 03 83 3e 0b 89 02 3f e7 4d 93 3f
       -0.12434953 0.2558858 0.5099036 1.1508149
0000c0 ad a2 de bd ce da 3c 3b 70 13 fe 3e b9 2d 8d 3e
       -0.10870872 0.0028816941 0.49624205 0.27573946
0000d0 24 03 ec 3d e1 5e 81 be ee e7 e3 3d aa a4 8a 3f
       0.115240365 -0.252677 0.111282215 1.0831501
0000e0 0b 41 05 3f c2 92 7c 3f 7a 61 7a 3f 7d cb ae be
       0.5205237 0.98661435 0.9780499 -0.34139624
0000f0 b8 02 bb be 37 66 aa bd 0a c6 60 be 35 2f 94 be
       -0.36525512 -0.08320277 -0.21950546 -0.28942266
000100 c2 d9 74 bf 33 b5 c8 bd 20 5e bb be 37 dd e1 3e
       -0.9564477 -0.09800186 -0.3659525 0.44114086
000110 b1 2e 86 bf 6b 65 bb 3e 22 08 00 40 6f 4f 4e 3f
       -1.0482999 0.36600813 2.0004964 0.80589956
000120 e0 0c 17 3f 0b cb 9c 3e 69 c1 e4 3e f6 06 88 be
       0.5900402 0.3062366 0.4467881 -0.2656781
000130 79 f2 9f be 76 51 a7 3e 20 3f 03 3e 29 e8 d0 3e
       -0.3123968 0.32679337 0.12817049 0.40802124
000140 e6 de 85 3e 43 41 c1 3e e4 00 f3 3e 35 2f ae 3e
       0.2614662 0.37745103 0.47461617 0.3402039
000150 43 5b d7 be 6f 0b 10 3e 36 f5 66 3f 4f 87 67 3d
       -0.42061815 0.14066862 0.9021791 0.056525525
000160 4b 52 c9 3e 02 2b ea bd ed c8 e0 bd 5f 38 1e 3f
       0.39320597 -0.11433984 -0.109758236 0.61804765
000170 df 94 a3 bf 11 49 7a 3e d7 99 80 3d 3c 09 98 3e
       -1.2779807 0.24441935 0.062793426 0.29694545
000180 cf 19 5b bf 65 bc 19 3f f5 97 5f bd d4 6b be 3c
       -0.85586256 0.6005309 -0.054588277 0.023244776
000190 d8 03 4a bf 6c 79 3f bf be 6a 2c bf c0 39 f6 3e
       -0.78912115 -0.7479465 -0.67350376 0.48090935
0001a0 e4 3a ca bb 48 19 04 3f d4 1c c5 bf 34 60 9a 3f
       -0.006171571 0.51601076 -1.5399423 1.2060609
0001b0 8d a6 09 be 06 3b 9e 3d 8c ec 1c bf 1d fb 61 bd
       -0.1344244 0.077261016 -0.6129844 -0.05517112
0001c0 4c 0f 62 3e db 6b 55 be a1 0f 82 3e 2f 46 cc 3f
       0.22076148 -0.20841925 0.2540255 1.5958918
0001d0 be fc a7 bd 1b e8 72 be ca 50 5d 3f c1 03 db be
       -0.082025036 -0.23721354 0.864514 -0.42776302
0001e0 d6 72 f1 3e 37 f4 7c bf ff cb f5 3e 64 b8 0e 3f
       0.47157925 -0.9881014 0.480072 0.5575011
0001f0 67 1e e8 be 29 52 80 bd 90 59 22 bf 8a 98 9d 3f
       -0.45335695 -0.06265671 -0.6341791 1.2312176
000200 36 a6 27 3f c8 c4 9b 3e 1f b9 c2 3f 75 9e 22 40
       0.6548799 0.3042357 1.5212744 2.5409214
000210 cc b5 05 3e 1c b6 75 3e 9f 8c bd 3d f1 1b 2e 3d
       0.13057631 0.2399525 0.09255337 0.042507116
000220 e7 e4 9e 3e eb 4c 5a 3f 9e df 6f 3e ac 3c a4 bd
       0.31034014 0.8527362 0.23425147 -0.08019385
000230 7d 99 9e 3f 49 8c 92 3e 87 9b 51 3f 9d de 5d 3d
       1.2390591 0.28622654 0.8187794 0.05416738
000240 9a b2 32 be 04 ca 19 3f 6e bf b7 3e 46 fe 6c 3f
       -0.17450944 0.60073876 0.35888237 0.9257549
000250 e3 07 60 3e ac f1 2e bf b4 eb f0 3f 09 b3 e0 3d
       0.21878009 -0.6833751 1.8821931 0.10971648
000260 b9 25 5e bf e6 f6 67 bf c6 27 a1 ba 87 7a 38 bf
       -0.8677631 -0.9061111 -0.0012295179 -0.7206196
000270 ef f2 26 c0 28 1d 50 3f f5 d0 6b be f1 fc 2c bf
       -2.6085775 0.8129449 -0.2302893 -0.6757346
000280 da 08 27 bf 58 fa 05 bf 49 ab 12 bf 73 91 0b bf
       -0.6524788 -0.5233512 -0.5729261 -0.5451881
000290 c1 af 5b bf 88 60 d6 3d d4 d3 07 bf 57 76 24 be
       -0.85815054 0.104676306 -0.530576 -0.16060768
0002a0 de 37 15 3f 29 72 6d bd c4 69 6f bf 97 77 69 bd
       0.5828837 -0.0579702 -0.9352076 -0.056998815
0002b0 a4 58 1d bf b2 f1 9e 3f f9 15 20 3f 8d 9d 71 3e
       -0.6146338 1.241751 0.6253353 0.23595257
0002c0 3b 37 52 be c1 33 96 be 5f 64 76 bf 4b 20 9c bc
       -0.20528881 -0.2933636 -0.96246904 -0.019058367
0002d0 61 0e 41 3e 39 2f ca 3e 69 e0 43 3f 2b 54 4c bd
       0.18853141 0.39489153 0.765143 -0.049884956
0002e0 12 65 9e 3d aa 85 ce be 33 49 29 bf 6c cf b7 bf
       0.077341214 -0.40336353 -0.6612732 -1.4360175
0002f0 5b bc 80 be 44 b4 b5 be 82 63 17 c0 3c 79 d5 bd
       -0.25143704 -0.35489094 -2.3654485 -0.10423514
000300 ca 4c 00 bf 39 79 05 3f 76 02 d8 bc 3d e1 eb bf
       -0.5011717 0.52138096 -0.026368361 -1.8428112
000310 7f 4a f3 be a9 0a 15 bf 6e 18 a7 3e 2d 24 1f 3f
       -0.47517774 -0.5821939 0.32635826 0.62164575
000320 e4 65 5c 3f c7 db 45 3f 43 ee d2 3e 3e 6c 84 3f
       0.8609297 0.7728848 0.41197404 1.0345533
000330 71 d5 7b 3f a0 91 c5 bf f0 4d 7c 3f 8f 6b 85 bf
       0.9837256 -1.5435066 0.98556423 -1.0423449
000340 eb 8e dc be 16 2c 50 be 74 48 10 bf 73 b6 65 3f
       -0.43077788 -0.20329317 -0.56360555 0.8973152
000350 b7 ae 81 bd b2 84 d0 3e b4 bc de bc 1f 71 b8 3e
       -0.06332152 0.40726238 -0.02718959 0.36023805
000360 18 88 08 c0 86 30 1a bf 23 1d 82 be db 01 ae be
       -2.1333065 -0.6023029 -0.25412855 -0.3398579
000370 29 de e2 bd 4d 7c 39 3f c6 50 98 bd 0a 98 a1 3f
       -0.1107753 0.7245529 -0.07437281 1.2624524
000380 f5 c1 39 3e e7 e9 ba be 44 27 81 be 2d 34 1e c0
       0.18140395 -0.36506578 -0.2522527 -2.4719346
000390 bd 61 68 be 8a 4d 2a bf c8 d7 43 40 90 8b 97 bf
       -0.22693534 -0.66524565 3.0600452 -1.1839466
0003a0 ff 6b b7 3e c0 5f 10 bf c6 2f 24 3e 27 8e e9 bf
       0.35824582 -0.563961 0.16033849 -1.8246506
0003b0 29 5f b2 3e e4 62 b8 bf 24 b2 b4 3f 1e fd c5 be
       0.34838226 -1.4405179 1.4116864 -0.38669676
0003c0 76 b7 15 bd 2c 52 f1 be 5a 81 df be a1 d4 a1 be
       -0.036551915 -0.47133005 -0.43653375 -0.31607535
0003d0 e4 f3 36 be d8 d9 93 3f 93 64 3d bf 62 3b 22 3e
       -0.17866474 1.1550856 -0.7398159 0.15842965
0003e0 97 09 86 3f fb 8e 1a 3f 0c b7 93 bf 83 8a 13 be
       1.0471677 0.6037442 -1.1540236 -0.14408307
0003f0 ad ea 3e bf a8 47 91 3e a8 e4 44 bf 76 c4 ec 3f
       -0.74576837 0.28374982 -0.769114 1.8497455

net.0.bias f4 [128]
000000 23 7c 87 be 17 14 af 3e 9b f6 84 bc 61 4a 3b 3f
       -0.26461896 0.34195015 -0.016230872 0.7316037
000010 8d 32 9f bc 3b 6d c4 3e ff 98 da 3c cb ce 08 bf
       -0.019433284 0.38364586 0.026684282 -0.5344054
000020 d5 15 05 3f 50 65 5e 3e 75 9a d9 3d f4 3c 2a 3f
       0.5198644 0.21718335 0.106251635 0.6649926
000030 af 73 91 3f 19 a0 20 3f cb aa b9 3d f3 1d 0d 3e
       1.1363429 0.6274429 0.09065779 0.13780956
000040 5e e0 a6 3e cf df 61 3f fc fd d3 3e b6 c4 20 3e
       0.32593054 0.8823213 0.41404712 0.1570004
000050 6d e3 e6 3e 9e 12 08 bf a5 c9 bc be 26 5b c1 be
       0.45095387 -0.5315341 -0.36872593 -0.37764853
000060 f9 f8 67 bf b8 3c f7 3d cf a6 5e 3f c2 b7 92 3f
       -0.9061428 0.12072128 0.8697328 1.1462328
000070 8a 21 14 3f 6b d9 ee 3b 99 8a 5e 3f 61 eb 94 3f
       0.57863677 0.007289102 0.86930233 1.1634332
000080 b6 63 2f 3f 53 c2 b9 3e cb 8c 07 3f 06 87 82 3e
       0.6851152 0.3628107 0.5294921 0.2549364
000090 6a 4d 84 3e de 18 bd be 23 2e 31 3f 8a 41 ae 3d
       0.25840312 -0.36933035 0.69211024 0.08508594
0000a0 6c c7 a7 3e 6e 3a 3d 3f ff 0e 7a 3f b4 0a da be
       0.32769334 0.7391728 0.9767913 -0.4258629
0000b0 21 ae 7f be 95 9f 67 be 94 e3 92 3e d6 0b b7 be
       -0.24968769 -0.2261947 0.28689253 -0.35751218
0000c0 95 c4 8c 3f 54 d7 2b 3f 22 86 4a 3f 09 75 0e be
       1.0997492 0.6712544 0.7911092 -0.13911833
0000d0 da 4e 4e 3f c5 ce 7b 3e 9f 9d 3b 3f 60 7f 52 3e
       0.8058907 0.24590595 0.73287386 0.20556402
0000e0 0b 22 0b 3e 23 7a 48 be 26 bc 8a be 87 e6 73 be
       0.13587205 -0.19577841 -0.2709667 -0.23818408
0000f0 71 d2 54 3f c2 86 8c be 27 8d d2 3e 51 e6 16 3f
       0.8313361 -0.27446562 0.41123316 0.58945185
000100 12 09 0f 3e 33 9a a6 be c4 e3 8a 3e a4 5a 81 3f
       0.13968304 -0.3253952 0.27126896 1.0105786
000110 d6 ac 08 3f f2 10 ed bd 8c 93 89 3f 4b 3f 1e 3e
       0.53388727 -0.11575498 1.0748153 0.15453832
000120 c4 d5 00 3f 17 af 8c be 0c 54 1c be 48 62 35 3f
       0.5032618 -0.27477333 -0.15266436 0.7085309
000130 e5 62 26 3f 2c fc 72 be a5 4f 4a 3d 9b fb 81 be
       0.6499465 -0.23729008 0.04939236 -0.25387272
000140 b0 2e f0 3d 1a 0a 53 be 47 a4 d5 3e ec 8a 59 bf
       0.11727655 -0.20609322 0.41726896 -0.849776
000150 a7 ce 8a 3f 84 80 ae be fb 25 63 be 88 5f aa 3e
       1.0844315 -0.34082425 -0.22182457 0.3327601
000160 c3 12 c6 bc ba 0a 38 3f cc 3c 37 3f af 17 98 be
       -0.024178868 0.7189137 0.71577144 -0.2970557
000170 c8 d4 11 3f da c4 8e be 61 7d f6 3e e5 5a 8f 3f
       0.56965303 -0.2788456 0.48142532 1.1199614
000180 b8 84 2e bf 1a 2a a6 be 67 78 27 3f d5 57 a4 be
       -0.6817126 -0.32453996 0.65418094 -0.3209826
000190 6a 1f 6f 3f b6 5d 39 be 0b a9 06 bf b2 ae 5a 3f
       0.9340731 -0.18102154 -0.5260169 0.85422814
0001a0 98 b9 f3 bc 58 86 40 3e 96 0f 90 3f e2 ee b1 3f
       -0.029751584 0.18801248 1.1254756 1.3901026
0001b0 b7 4f 05 bf d4 57 b8 be d1 51 af be 6a 30 0d be
       -0.5207476 -0.36004508 -0.34242108 -0.13788
0001c0 8e fd ac 3d dd 8a 67 3f af 36 a6 3f b8 a4 3e 3f
       0.08446799 0.90446264 1.2985438 0.7447009
0001d0 72 7b ea 3e 23 0f b3 3b b7 90 49 3f 9d 07 b2 3d
       0.45797306 0.005464451 0.7873644 0.08692858
0001e0 93 96 d9 3e c9 b5 70 3f 69 98 ed 3e fe 24 82 be
       0.42497692 0.9402738 0.46405342 -0.25418848
0001f0 f6 19 4b 3f d8 54 9e 3e dc 8d 26 3b 58 bb c2 3e
       0.7933649 0.30924106 0.0025414145 0.38033557

net.2.weight f4 [128, 128]
000000 dd 75 4d c0 e9 f9 1b c0 fe b0 57 3f 9f 5f 0e bf
       -3.2103188 -2.4371283 0.84254444 -0.55614656
000010 52 a7 2f 3f 2f d2 82 3f 2b b5 1e 3f c3 d8 41 be
       0.68614686 1.0220393 0.6199519 -0.18930344
000020 0f 3e d9 3d c6 de 93 3e 6a 4a 44 bf fe fc 84 bf
       0.1060754 0.288809 -0.76676047 -1.0389707
000030 39 09 9e 3f 9f 37 85 bf 57 41 72 be 03 b9 ef 3f
       1.2346565 -1.0407599 -0.23657738 1.8728336
000040 a6 4a fb 3f 6a ce 65 3f 0d eb 6c 3f 2b 04 12 3f
       1.9632156 0.8976809 0.9254616 0.5703761
000050 23 d0 67 3f 5e 64 53 3f 2b 86 8c bf 5b e3 d6 3d
       0.90551966 0.82575023 -1.0978445 0.10492583
000060 6e 2e 87 c0 d4 ad 0a bf 6f 1e 45 3d 2c 08 9c 3c
       -4.2244177 -0.5417149 0.048124727 0.019046865
000070 19 1c f8 3d 27 57 2e 3e e9 9f 81 3c a6 da b5 bd
       0.12114734 0.17025433 0.015823321 -0.088795945
000080 bb f0 0c 3f d1 67 cc bf f3 e6 95 bf 24 42 5d 3f
       0.55054826 -1.5969182 -1.1711105 0.8642905
000090 bb 16 f7 be c0 19 3f bf 63 d4 66 3f e0 94 bb bf
       -0.4825953 -0.74648666 0.90167826 -1.4654808
0000a0 d7 d7 ec bd f3 ad 1b 3f 5f 7a 0c be d5 65 83 bf
       -0.11564606 0.608123 -0.13718556 -1.0265452
0000b0 0c 13 a5 3d 2f a1 98 bc e8 e6 c0 be fa 7c 95 be
       0.080602735 -0.018631546 -0.37676167 -0.29196912
0000c0 95 2e 44 3f 0d 3a 46 bf 58 e8 82 3f 5e 31 06 3f
       0.7663358 -0.7743233 1.0227156 0.5241908
0000d0 c0 78 4f bf f6 5a 0c 3f a2 0b 1e be 9f 4a ea 3e
       -0.81043625 0.54826295 -0.15434125 0.45760056
0000e0 77 05 a5 3f 3d 08 71 3f 77 62 cf 3f b1 b6 b6 3e
       1.2892293 0.94153196 1.6201924 0.35686257
0000f0 f3 37 ad 3f ea 6d dc bf 48 76 a8 3e e7 bd 67 bf
       1.3532699 -1.7221043 0.3290274 -0.90524143
000100 05 ec ec 3e 8b 46 af 3c 7a db c8 bd 47 1e 1a be
       0.4627382 0.021395942 -0.09807487 -0.15050612
000110 4d 98 1b 3f f9 17 0c be a1 6d 8d bd 23 89 bf 3e
       0.6077927 -0.1368102 -0.06905676 0.37409315
000120 04 8e be 3f 38 b2 e2 bf bb 9a 92 bf c9 34 9a 3f
       1.488709 -1.7710638 -1.145347 1.2047359
000130 04 3e 5b 3e 71 a3 9f bf 0a ae a3 bf 2e 5d 4e 3f
       0.21410376 -1.2471753 -1.2787488 0.8061093
000140 89 f2 a5 bf a1 7d 7f c0 23 5a c5 3f e1 5d 77 3f
       -1.2964641 -3.9920428 1.5418133 0.9662762
000150 75 f8 22 3e c8 44 4e be 8b 6c 09 bf 6f 60 19 bf
       0.15915091 -0.20143425 -0.5368125 -0.5991277
000160 a6 1b 7d c0 e6 39 e3 bd ad c7 08 3f 87 b3 28 bf
       -3.9548125 -0.110950276 0.5342968 -0.65898937
000170 15 52 3b 3f 6f 46 f9 bf 8f a7 98 bf 92 22 f5 3e
       0.7317212 -1.947462 -1.1926135 0.47877938
000180 8f d6 ab bf d1 12 f4 3d fe 3e cb be dd d3 c6 bd
       -1.3424853 0.119176514 -0.39696497 -0.097083785
000190 48 eb 6a 3f 34 ce bf 3e 3a 7b 0d c0 28 3a 8c be
       0.9176526 0.37462008 -2.2106462 -0.2738812
0001a0 d6 ac 1c 3d 0c b5 c4 3f 91 5e 7a bf d0 d1 1e bf
       0.038250767 1.5367751 -0.97800547 -0.620389
0001b0 fc af 87 be ca 22 99 bf 3f 24 e9 bf 6b c6 31 c0
       -0.26501453 -1.1963742 -1.8214186 -2.7777355
0001c0 dc 91 09 bf 54 7d d4 be 57 97 0b be 4b 73 b1 3e
       -0.5373819 -0.41501868 -0.1363195 0.34658274
0001d0 53 ca 14 3e e9 4d 66 bf d2 56 05 bf 17 91 24 bf
       0.14530306 -0.8996263 -0.520856 -0.6428389
0001e0 3d d5 3d c0 82 71 83 3e f0 a2 b6 3e 1b 33 d5 be
       -2.96614 0.25672537 0.35671186 -0.41640553
0001f0 0f 52 3b bf 8f d4 97 3e fb 41 08 c0 7a 53 3f 3d
       -0.73172086 0.29654357 -2.1290271 0.04671047
000200 dd 45 ae c0 8b 80 d0 bf f1 aa 62 bf 61 8c 52 bf
       -5.446028 -1.6289228 -0.88542086 -0.8224545
000210 42 9d 48 3f be 42 7f 3e 8d ed 21 c0 06 5e bf be
       0.78364956 0.24927804 -2.530124 -0.37376422
000220 dc 76 89 bf 04 e9 12 c0 e3 a7 1a 40 be 28 b2 bd
       -1.0739398 -2.2954721 2.416497 -0.08699177
000230 c6 36 e1 3f 1b d2 f4 3f 35 0a 5b 3f b8 0b d8 be
       1.759484 1.9126619 0.8556245 -0.4219644
000240 da 76 46 c0 9d 84 c1 3f e0 40 97 3e 7e 7c 8f 3f
       -3.1010041 1.5118595 0.29541683 1.1209867
000250 35 77 c7 3e cb ac fb 3e ea a8 0e c0 d2 41 92 3d
       0.38958135 0.49155268 -2.2290597 0.071414605
000260 90 0f a3 c0 6e 91 bd c0 d0 b1 35 bf 51 bc fd 3e
       -5.0956497 -5.9240026 -0.70974445 0.49557737
000270 08 b0 ac 3f 1f c2 18 c0 c4 9a f2 be 83 ad 4b 3e
       1.349122 -2.3868482 -0.47383702 0.19890408
000280 b0 51 b6 bf ce 54 38 bf ed 51 62 bf a1 fb ff bf
       -1.4243679 -0.720044 -0.8840626 -1.9998666
000290 a9 d7 14 bf e1 2d 5e bf 21 85 57 3d 5e ec 25 c0
       -0.5814157 -0.86788756 0.052617196 -2.5925517
0002a0 d4 ae d6 3e 5b aa c1 3d 77 1c 02 3b 93 c2 53 bf
       0.41930258 0.09456321 0.0019853392 -0.8271877
0002b0 35 6d 47 3d 38 35 16 bb df fe b9 be fc b8 c9 bf
       0.048688132 -0.0022919904 -0.36327264 -1.5759578
0002c0 34 0e cf 3e 59 4c e2 be 19 55 08 40 e4 7a 7c bf
       0.40440524 -0.44198874 2.130194 -0.98625016
0002d0 83 c1 79 c0 40 38 27 3f 7f cb 2b c0 7c 60 a6 be
       -3.902436 0.65320206 -2.6842954 -0.32495487
0002e0 48 31 a6 3f 3c 50 53 bf e3 4a 24 c0 08 24 55 bf
       1.298379 -0.825443 -2.5670707 -0.83258104
0002f0 98 72 88 3f 8a 0c ce 3e 87 90 44 3f 54 32 ec be
       1.0659971 0.40243942 0.7678303 -0.46132147
000300 ed 73 c2 3e 04 02 b4 bd 01 67 4f bf c3 ba d2 3e
       0.3797907 -0.08789447 -0.81016546 0.41158113
000310 7b 3d 84 3f 9a a0 e6 3d 4f 38 b9 3f 89 b6 25 c0
       1.0331262 0.11261101 1.4470309 -2.589266
000320 83 5b b5 bf d6 7a d8 bf b8 63 21 c0 dd b0 1d 3f
       -1.4168552 -1.6912487 -2.5217113 0.61597997
000330 0e 37 f4 bf 9b 7b c3 3b 73 dd 13 3f 5c 30 08 c0
       -1.9079301 0.0059656627 0.5775978 -2.1279516
000340 4e 06 07 bf b9 bb 11 c0 ce 0f 00 c0 3a 1c 27 bf
       -0.52743995 -2.2770827 -2.0009646 -0.65277445
000350 3d c5 82 3e e9 f4 c2 bf 36 ef cd bf 7d 61 31 bf
       0.25541106 -1.5230991 -1.6088626 -0.6928938
000360 3d be ef bf 84 73 a7 bf 20 4f e1 3e 36 46 70 c0
       -1.8729931 -1.3082128 0.4400568 -3.7542853
000370 03 02 92 3f 2a dc 15 c0 f4 d6 c5 bf 72 fb 93 3e
       1.1406864 -2.3415627 -1.5456223 0.28902775
000380 b2 2b b8 bf 50 76 5f be 72 33 06 3e f7 7f 24 3d
       -1.4388335 -0.21822476 0.13105562 0.0401611
000390 01 9b 18 3f a0 b8 25 bf 6d 6b 16 c0 d3 ae b1 3d
       0.5961152 -0.6473484 -2.3503067 0.08675923
0003a0 29 11 4b c0 98 67 63 3f 24 b8 c5 be ea fc 63 3e
       -3.1729224 0.88829947 -0.3861705 0.22264448
0003b0 ab 6f 9b bf 50 43 bb bf 08 65 71 3e 8d d8 ec be
       -1.2143453 -1.4629917 0.23573697 -0.46258965
0003c0 35 b2 8e c0 7c af 1a 3f 11 c1 df 3c 9e d3 ba 3e
       -4.459254 0.6042402 0.02731374 0.36489576
0003d0 f5 b2 a0 bf 73 9e 48 3e 0b 7c 00 3f b8 6a 65 bd
       -1.2554613 0.19591694 0.50189275 -0.056009978
0003e0 e9 36 1f bf 54 51 17 3f 04 fe 87 bf 51 b9 33 3f
       -0.6219316 0.5910847 -1.0624394 0.70204645
0003f0 72 43 a2 c0 d5 49 c8 3f 7a 1f 7d bf ad 26 9b 3f
       -5.070733 1.5647532 -0.98876154 1.2121178

net.2.bias f4 [128]
000000 91 3c 17 3f 71 13 6c 3f ec 6e 9b bd 91 20 55 3f
       0.5907679 0.92217165 -0.07589516 0.8325282
000010 1c ef 59 3f 2b a8 9c 3f e3 8a 88 3f 55 40 f6 bd
       0.85130477 1.2238821 1.0667385 -0.12023989
000020 80 a2 4c 3f 28 f2 cd 3f 0d 97 9c 3f 9e c2 03 be
       0.79935455 1.6089525 1.2233597 -0.1286721
000030 c7 13 70 3f 86 02 5d 3f d1 7c e6 bd 16 34 57 3f
       0.9378018 0.86331975 -0.112542756 0.8406385
000040 8b 29 a2 3f 6d 2a 12 3f 78 7f 96 bd 76 cc b6 bd
       1.2668928 0.57095987 -0.073485315 -0.089257166
000050 4a 21 1a 3c 42 d4 36 3f f1 9a 43 bd a7 48 f0 3f
       0.009407351 0.7141763 -0.047755186 1.8772172
000060 e4 7d 91 3f 1d 99 78 3f 00 de 4e 3f 8c cf d9 bd
       1.1366544 0.9710863 0.80807495 -0.106352895
000070 70 9c 50 3f 47 28 50 be 84 14 be bd f4 9b 58 3f
       0.81488705 -0.20327865 -0.09281257 0.84612966
000080 21 05 4e 3f 3b be 36 bd c8 d7 46 3f 61 05 15 3f
       0.80476576 -0.04461501 0.77673006 0.5821133
000090 3b ef e8 bd 3e 64 bd 3f 88 0c 56 3f 2a af 2e be
       -0.113737546 1.4796216 0.8361287 -0.17059007
0000a0 66 a4 26 3f d2 fa 41 3f ba 69 8e 3f 82 2f 93 3f
       0.650946 0.75773346 1.1126015 1.1498873
0000b0 59 d5 03 be 50 19 8a 3f f6 5e b6 bd 46 59 67 3f
       -0.12874354 1.0788975 -0.08904831 0.90370595
0000c0 13 a9 e2 bd 8e d1 d8 bd 28 f7 df 3f dc 39 17 3e
       -0.110674046 -0.105868444 1.7497301 0.14768165
0000d0 82 b9 29 3e 5e 81 c4 3e d4 06 8f 3f 75 4f 76 bc
       0.16574672 0.3837995 1.1173959 -0.0150335925
0000e0 1a f8 92 3f 24 23 f7 3f f0 e5 60 3f cb 9b a0 3f
       1.1481965 1.9307599 0.87850857 1.2547544
0000f0 8c 50 b8 3f 30 10 28 bd 87 1e 56 bd b4 bf d8 3e
       1.4399581 -0.041031063 -0.052275207 0.42333758
000100 e1 f8 33 3f b1 85 7e bd 83 1b 8a 3f 52 88 4f 3f
       0.70301634 -0.062139217 1.0789646 0.81067383
000110 36 04 0f be 7e 1b 98 3f b1 c9 35 3f 59 cb 0a be
       -0.1396645 1.188339 0.7101088 -0.13554133
000120 92 f9 d1 bc 50 b7 c9 3e ca 91 3d 3f d1 95 f1 3f
       -0.0256317 0.3939767 0.7405058 1.8873845
000130 4e 0e d5 3b 17 12 c3 bd 03 df d4 bd 54 a8 33 bb
       0.0065019494 -0.09524935 -0.103940986 -0.0027413564
000140 3c 86 ff bb 71 d3 f2 bc 1a c2 3c 3f 7c 44 99 3f
       -0.0077979844 -0.029641839 0.73733675 1.1974025
000150 2f 77 61 3f 4a cd 1f 3f cc ce 26 bd 75 38 52 3f
       0.88072485 0.6242262 -0.04072456 0.82117397
000160 04 eb 9b 3f 6e d4 b0 3f 90 51 94 bd 02 4d ca bd
       1.2181096 1.3814828 -0.07242119 -0.09877969
000170 69 eb 22 3f 6b 88 0b 3f 09 45 88 3f 7a 2e 03 be
       0.6364046 0.5450503 1.0646068 -0.12810698
000180 e5 8e f4 3f c3 e9 5b be bc e5 31 bd 32 a8 fc 3f
       1.9106108 -0.21475892 -0.043431982 1.9738829
000190 b0 7a fc 3e 83 47 77 3f 6e 79 12 be 5b 75 f4 bd
       0.49312353 0.96593493 -0.14304134 -0.11936446
0001a0 b3 24 aa 3f 32 91 62 3c 90 02 71 3e 4f 4b 37 bf
       1.329245 0.013828563 0.23536134 -0.71599287
0001b0 17 d3 86 3f 01 8e ac 3f 0c 16 47 3f c0 44 ac 3f
       1.053317 1.3480836 0.77768016 1.3458481
0001c0 87 a0 4f 3f 69 7e 18 3f e7 14 6d 3e a8 ba 30 be
       0.8110432 0.59567887 0.23152505 -0.17258704
0001d0 1f 3d 0e 40 d7 34 40 3f cd e7 1b 3f 7c c2 48 bd
       2.2224805 0.7508063 0.60900575 -0.0490136
0001e0 4a 2c e9 bd cb 2b 7d bc 6a 15 24 3d 56 81 36 3f
       -0.113854006 -0.015452336 0.040059485 0.712911
0001f0 f6 31 51 bd 25 6c f6 3e f8 ea b6 bd cb b6 07 3f
       -0.051073037 0.48129383 -0.089315355 0.53013295

net.4.weight f4 [13, 128]
000000 31 42 ad 3f 8c 5f 12 40 cb 1f 36 bd b6 ee 14 40
       1.3535825 2.2870817 -0.044463914 2.3270698
000010 60 1e d2 3f 48 92 4b 3f 65 30 06 40 f6 89 bb bd
       1.641552 0.7952008 2.0967038 -0.09157173
000020 09 f4 04 40 b2 a6 7d 3f 5f d9 f0 3e 5e fb 11 bc
       2.0773947 0.9908248 0.4704084 -0.008910028
000030 d6 18 f1 3f 19 aa 96 3f dc ce 46 bd 3f e2 7a 3f
       1.8835704 1.177066 -0.04853712 0.98001474
000040 4f 00 6e 3f 35 84 8a 3f 20 c4 24 bb 91 f9 e4 3c
       0.9296922 1.0821596 -0.0025141314 0.027951034
000050 13 e9 92 bd 3e 5f 1a 40 33 2d 39 3d 2f ed b7 3f
       -0.07173362 2.4120631 0.04520912 1.4369258
000060 96 7c 8a 3f 7e ce b3 3f cb d8 5d 3f 8c 8c 16 3d
       1.0819271 1.4047391 0.86658925 0.03675513
000070 f2 83 be 3f 8e e8 ed bc ec 5d d6 bb 81 e5 eb 3f
       1.4884017 -0.029041555 -0.006541958 1.8429414
000080 9f ad f0 3f 37 4e 24 bd ce 42 7c 3f f2 85 c9 3f
       1.8802985 -0.040113654 0.98539436 1.5744002
000090 68 81 fa 3c 57 56 b3 3e 05 78 9f 3f de 42 31 3f
       0.030579284 0.3502681 1.2458502 0.69242656
0000a0 72 49 f4 3f 0e 7c c0 3f 37 d8 81 3f 3c 82 0d 40
       1.9084914 1.5037858 1.0144109 2.2110739
0000b0 0b 65 88 3d 49 63 eb 3f 56 81 0c bc 07 75 e0 3f
       0.066598974 1.8389674 -0.008575758 1.7535714
0000c0 70 8c 9b 3b a2 48 d3 3c 84 2b 84 3f ab bc c2 3d
       0.004746966 0.02579147 1.032578 0.09508642
0000d0 a8 00 a9 3f 7c c7 44 40 d9 22 ef 3f f6 4a 59 3d
       1.3203325 3.0746756 1.868251 0.053050004
0000e0 3a c3 b8 3f 59 b8 9e 3f 32 5a c9 3f 23 7e fd 3e
       1.4434578 1.2400008 1.573065 0.49510297
0000f0 2e 0e 8c 3f 85 60 94 bc d9 62 bd 3b c1 7d fb 3f
       1.0941827 -0.01811243 0.005779606 1.9647752
000100 34 4a c4 3f 6c 8c c3 3c d7 34 9f 3f 83 6c 0a 40
       1.5335145 0.02387067 1.2438 2.162873
000110 4f bf 51 bd a6 ce 26 3f f3 ec ad 3f 3c 73 80 3b
       -0.051207837 0.6515907 1.3587936 0.003919987
000120 a3 f8 ae 3d 97 8f 8f 3f c1 02 1f 40 43 a9 28 3f
       0.085435174 1.1215695 2.484543 0.6588327
000130 da 4d fd bc e1 bf b4 bd 8f 46 55 3d 86 be fc bb
       -0.030920912 -0.088256605 0.052069243 -0.007713142
000140 de 00 0a 3d 83 28 93 3c 70 15 c4 3f 10 c8 e7 3f
       0.033692233 0.017963653 1.5319042 1.8107929
000150 de 0b 96 3f f2 d0 04 40 64 f4 47 3d 88 26 d6 3f
       1.1722372 2.075253 0.048817053 1.6730509
000160 12 e2 7c 3f e0 e2 4d 3f 35 70 a4 ba bd ff e7 bc
       0.98782456 0.8042431 -0.0012545647 -0.028320188
000170 39 ca 08 40 be b3 bc 3f e1 3d cd 3f 75 dd e9 3c
       2.1373427 1.4742353 1.6034509 0.028547982
000180 f2 21 38 3f d9 de c7 3e 75 12 a7 bd 6e 67 af 3f
       0.71926796 0.39037207 -0.08157817 1.3703439
000190 75 14 2a 40 75 f1 6a 3f 25 7f 89 bd 73 64 28 bd
       2.6574986 0.91774684 -0.06713704 -0.04111142
0001a0 e3 c7 96 3f 66 5e 9f bd be b4 46 3f 00 d1 f4 bf
       1.177975 -0.07781677 0.7761954 -1.9126282
0001b0 a9 11 9e 3f 2b 20 66 3f 57 06 80 3f 0a 3c 83 3f
       1.234914 0.89892834 1.0001935 1.0252697
0001c0 2b 1c 84 3f e7 2f e5 3f 7f 75 fc 3f 2f 4b d6 be
       1.0321096 1.7905244 1.9723357 -0.41854236
0001d0 0d 61 76 3f 2e b0 38 3f 4a 78 ef 3f c3 4f 69 bd
       0.9624184 0.7214383 1.8708584 -0.056960832
0001e0 7e e1 2c 3d d0 88 55 3d 22 53 c6 bc 9f 6d d6 3f
       0.042207234 0.052132428 -0.024209563 1.6752204
0001f0 79 98 8d bd 8d c1 99 3f 42 8b a4 3d 48 e0 03 40
       -0.069138475 1.2012192 0.08034374 2.060564
000200 7b c4 b3 3f 87 15 25 40 e2 ba 92 3d 64 d2 1d 40
       1.4044336 2.579439 0.07164551 2.4659662
000210 be 0f 99 3f fd 4d 29 3f 3d 2d eb 3f b8 7f 18 3d
       1.1957929 0.66134626 1.8373181 0.037231177
000220 fb 35 1a 40 b0 22 85 3f bc 20 27 3f 4c 2c b6 3c
       2.4095447 1.0401211 0.65284324 0.02223792
000230 7c 58 06 40 61 58 ad 3f 1d 2b b1 bc fe d9 91 3f
       2.0991507 1.3542596 -0.021627003 1.1394651
000240 9e 14 08 3f fd 18 a5 3f a6 c9 6f bc 83 76 37 3d
       0.5315646 1.2898251 -0.014635479 0.044790756
000250 eb 77 26 bd e8 72 1a 40 08 b2 32 3d 78 0c ad 3f
       -0.040641706 2.4132633 0.043626815 1.351943
000260 01 fa 57 3f 7f bc 9e 3f c6 f1 86 3f 5b e5 0c 3b
       0.8436585 1.2401274 1.0542533 0.0021499011
000270 95 ef af 3f a0 1e 93 bc ac 62 af bd db fc f4 3f
       1.374499 -0.01795894 -0.08563742 1.9139665
000280 59 e7 c0 3f 50 96 62 3c fc e3 5e 3f d9 f8 c9 3f
       1.5070602 0.013829783 0.87066627 1.5779067
000290 9e 44 63 3d 0a 27 16 3f c8 f4 c3 3f 13 e2 26 3f
       0.05548536 0.5865332 1.5309076 0.6518871
0002a0 68 8f 0a 40 10 d1 d9 3f bf 06 4c 3f 16 67 0a 40
       2.1650028 1.7016926 0.79697794 2.1625419
0002b0 aa b5 56 3d a9 71 e0 3f a6 a8 ff 3d 86 3c e4 3f
       0.052419342 1.7534686 0.12483339 1.783097
0002c0 ae aa bd 3d d7 6c ab 3d 1e d7 83 3f 7e 64 03 40
       0.0926107 0.08370369 1.0300024 2.0530086
0002d0 76 66 bf 3f 61 e5 27 40 8a 64 ff 3f 62 bf 72 3d
       1.4953144 2.6233752 1.9952557 0.059264548
0002e0 26 2d b4 3f dc c1 54 3f 25 f5 cb 3f 13 62 79 3e
       1.4076278 0.83108306 1.5934187 0.24353819
0002f0 fb b4 72 3f 0e 30 cc bd bc c2 31 bd ee d6 c2 3f
       0.94807404 -0.09970103 -0.043398604 1.5221841
000300 17 1b d5 3f 74 b3 c0 bc 4b 2a 80 3f fd 13 26 40
       1.6648892 -0.02352307 1.0012907 2.59497
000310 ae 6b 40 3d 16 1a 7e 3f 88 f5 6e 3f d3 57 15 3d
       0.04697769 0.99258554 0.933434 0.03646071
000320 a0 69 5f bd 3d 3e 80 3f 2f 10 1e 40 66 57 4d 3f
       -0.05454409 1.0018994 2.4697378 0.80211484
000330 d2 b8 87 bc 50 c5 15 bc 75 8e ab 3d a1 ed 41 bd
       -0.016567621 -0.009141281 0.08376781 -0.04734576
000340 44 17 3e bd e0 6b 07 3d e0 26 9d 3f c8 e7 f7 3f
       -0.046408907 0.033061862 1.2277489 1.9367609
000350 e5 bd c4 3f 54 f9 f1 3f 32 d5 6b 3a d8 c0 a1 3f
       1.5370451 1.8904214 0.0008996307 1.2636976
000360 24 eb b9 3f 1f af 2f 3f f3 27 b9 bc c1 28 37 bd
       1.4524884 0.6862659 -0.022602057 -0.0447166
000370 af 93 ce 3f e1 18 bd 3f f1 1e c9 3f 79 77 a3 3c
       1.613882 1.4773217 1.5712568 0.01995443
000380 13 c8 8b 3f 8f a0 3a 3f 3c 3d 95 3d 1c 27 b9 3f
       1.0920433 0.7290124 0.0728707 1.446506
000390 8a 90 26 40 5a 5d 80 3f f5 e3 31 bd b4 2e 46 3d
       2.602572 1.0028489 -0.043430287 0.048384383
0003a0 82 8e 8e 3f 3b cc 61 3d cb a1 bf 3d 0d 64 ab bf
       1.113724 0.05512641 0.093570314 -1.3389908
0003b0 3a 26 58 3f 9b 37 88 3f 16 41 a2 3f 9c d5 8d 3f
       0.8443333 1.064197 1.2676113 1.1080813
0003c0 8f e9 86 3f 96 f3 c4 3f 0b 79 8d 3e ab fa e7 bd
       1.0540026 1.5386837 0.2763141 -0.11327108
0003d0 c9 a1 67 3f de 1e 90 3f 76 e4 e6 3f 24 01 54 bd
       0.9048124 1.125942 1.8038471 -0.0517589
0003e0 cc e3 cf bd 0e 09 d3 bd 00 ed 6e 3d 2a 4f bf 3f
       -0.10150871 -0.103044614 0.05833149 1.4946034
0003f0 d6 29 5b 3c 57 6c a6 3f f8 f5 21 bd db 5b ed 3f
       0.013376674 1.3001813 -0.039541215 1.8543657

net.4.bias f4 [13]
000000 7f 6d 46 3f b9 4b a3 3f 93 39 c1 3f c9 f6 a0 3f
       0.7751083 1.2757484 1.5095695 1.2575313
000010 a8 ee 92 3f c8 09 89 3f 51 11 b1 3f ac ab 97 3f
       1.1479082 1.070611 1.383341 1.1849265
000020 cc 53 29 3f 80 c7 66 3f 16 99 70 3f 66 07 97 3f
       0.6614349 0.9014816 0.9398359 1.1799133
000030 63 59 6d 3f
       0.9271452

net.0.weight f4 [128, 45]
000000 9c 4a 55 3e 9d 1e 10 3f d8 0a 75 3f d4 54 44 3c
       0.20829242 0.5629671 0.9571967 0.011983115
000010 26 63 84 3d 6c db 26 bf 12 43 0d 3e f9 b3 b3 3e
       0.064642236 -0.6517856 0.13795117 0.35098246
000020 e6 6c 35 3f 7b 14 11 be 55 15 46 40 81 99 68 3f
       0.7086929 -0.14167969 3.095052 0.9085923
000030 26 bb 8f 3f b7 96 d0 3f 3a 46 a0 bd 30 c7 e6 3f
       1.1228988 1.6295995 -0.07825895 1.8029537
000040 7e 5d 82 3d e8 98 3e 3f f7 f9 af bf 19 d9 83 3e
       0.063654885 0.74452066 -1.3748158 0.2575157
000050 83 6f d5 bd f7 1f d2 be c5 05 f6 bd 55 03 9b be
       -0.1042166 -0.41040012 -0.12012819 -0.3027598
000060 e6 43 70 be 0f 63 49 3e 92 cc bc 3e 5c 65 00 bd
       -0.23463401 0.19666694 0.36874825 -0.031346664
000070 36 a2 4a 3f e4 9b 59 3d 70 db 89 be 5e ff 66 3e
       0.79153764 0.053127185 -0.2692523 0.22558352
000080 60 ea 87 3e 4b ec 32 be d1 e5 d8 3e 3d 5f 9f be
       0.26546 -0.17472951 0.42362836 -0.3112735
000090 de 82 0a be 14 ac d1 be 18 74 a1 bc c8 0f c6 bd
       -0.13526484 -0.40951598 -0.019708678 -0.09670979
0000a0 e4 bc bc be 85 c5 c5 3e bf 6e 5b 3b 07 d6 29 be
       -0.36862862 0.38627258 0.0033482758 -0.16585551
0000b0 35 82 f1 bd fe d3 86 3e 0d 46 03 3f 37 aa 92 3f
       -0.11792413 0.26333612 0.51278764 1.1458195
0000c0 c0 bf d8 bd 6e c5 ad 3b 14 56 fc 3e a0 cc 8e 3e
       -0.105834484 0.0053030765 0.49284422 0.2789049
0000d0 5e e5 f0 3d 00 0b 88 be 1a d8 e8 3d 87 dc 8a 3f
       0.11762498 -0.26570892 0.11369343 1.084855
0000e0 cb cf 05 3f 97 c7 7d 3f a8 85 79 3f eb 25 ae be
       0.5227019 0.99132675 0.9746957 -0.34013304
0000f0 05 0d bf be ed 19 ab bd 55 5e 61 be c7 8b 97 be
       -0.3731462 -0.08354554 -0.22008641 -0.2959883
000100 56 76 75 bf 90 fe d9 bd de f4 b8 be f8 80 e3 3e
       -0.9588369 -0.10644257 -0.3612432 0.44434333
000110 90 e5 86 bf 5f 16 bd 3e 2e 1e ff 3f ba b9 4d 3f
       -1.0538807 0.3693113 1.9931085 0.8036152
000120 c5 2e 17 3f 5e ef 97 3e 4f 97 e5 3e 2f 7e 8d be
       0.5905574 0.2967481 0.44842002 -0.27635333
000130 0e 52 a0 be b9 7e a9 3e 8b 12 f8 3d b8 ff d0 3e
       -0.31312603 0.33104494 0.12112912 0.40820098
000140 82 b4 82 3e 2f f8 c0 3e 4d 80 f5 3e 5a f9 ab 3e
       0.25528342 0.3768935 0.47949448 0.33588678
000150 91 f4 d7 be 4d 34 04 3e e8 0f 68 3f 63 fb 6a 3d
       -0.42178777 0.12910576 0.9064927 0.057368647
000160 37 b5 c6 3e 82 35 e5 bd 4f 02 dc bd 93 33 1f 3f
       0.3881013 -0.111918464 -0.10742628 0.6218807
000170 39 95 a3 bf c1 c2 77 3e 9b dd 92 3d e0 29 97 3e
       -1.2779914 0.24195386 0.07171174 0.29524136
000180 44 66 5a bf 4c 9f 18 3f 45 8f 80 bd aa 66 e1 3c
       -0.85312295 0.5961807 -0.062773265 0.027514774
000190 06 5e 48 bf e9 e0 40 bf b7 5f 2d bf 42 f0 f5 3e
       -0.7826847 -0.75343186 -0.67724174 0.48034865
0001a0 ef 98 32 bc 8e fe 03 3f cf 97 c5 bf 82 4f 9a 3f
       -0.01090072 0.51560295 -1.5436953 1.2055514
0001b0 cf cb 05 be ad d9 9e 3d 5e 9e 1d bf 82 7d 59 bd
       -0.13066028 0.07756362 -0.61569774 -0.05309821
0001c0 17 1f 61 3e 41 60 56 be dc a4 80 3e e9 14 cc 3f
       0.21984516 -0.20935155 0.25125778 1.5943881
0001d0 d8 ea a8 bd fb ba 72 be dc d8 5c 3f 3c ac dd be
       -0.08247918 -0.2370414 0.862684 -0.43295467
0001e0 f7 87 f0 3e cd 64 7d bf 79 f3 f7 3e 16 0f 0e 3f
       0.46978733 -0.98981935 0.48427942 0.5549177
0001f0 38 b9 e6 be ed 32 80 bd 11 12 23 bf 50 bc 9d 3f
       -0.45063186 -0.06259713 -0.6369944 1.2323093
000200 fc 10 27 3f fa bf 9b 3e 95 d1 c2 3f 67 90 22 40
       0.6526029 0.30419904 1.5220209 2.5400636
000210 6f e5 05 3e c1 b6 69 3e 63 d0 cf 3d c4 e7 2b 3d
       0.13075803 0.22823621 0.101471685 0.041969076
000220 5f 87 9f 3e 14 84 5a 3f d2 44 6e 3e db 67 b1 bd
       0.31157967 0.85357785 0.2326844 -0.08662387
000230 4e 5d 9e 3f 38 55 92 3e 68 aa 51 3f dd 13 51 3d
       1.2372224 0.28580642 0.81900644 0.051044334
000240 99 1d 34 be 89 15 1a 3f ca 6d b6 3e f2 b5 6b 3f
       -0.17589416 0.6018911 0.35630637 0.920745
000250 22 27 5c 3e 53 cd 2e bf da 2e f1 3f 32 65 dd 3d
       0.21499303 -0.6828205 1.8842423 0.10810317
000260 45 a8 5e bf de 2d 68 bf 7d 75 ee ba 5b 3a 38 bf
       -0.8697551 -0.9069499 -0.0018192973 -0.71964043
000270 d7 ef 26 c0 e0 61 50 3f b8 58 6f be 0d 3e 2b bf
       -2.6083887 0.81399345 -0.23373687 -0.66891557
000280 87 50 27 bf 19 17 06 bf 5d f4 11 bf a5 79 0b bf
       -0.6535725 -0.52378994 -0.57013494 -0.5448249
000290 8d 7b 5c bf 8f 8d d7 3d 1b 82 08 bf 5d 2a 23 be
       -0.86126024 0.10525047 -0.53323525 -0.15934129
0002a0 0f 8e 15 3f 58 85 74 bd fd 95 6f bf a1 bf 6f bd
       0.5841989 -0.05969748 -0.9358824 -0.05853236
0002b0 c0 ab 1c bf db da 9f 3f 46 a4 1f 3f 4e 82 71 3e
       -0.6119957 1.2488664 0.62360036 0.23584864
0002c0 68 bc 51 be 0c 83 95 be 75 28 77 bf 09 cd d0 bc
       -0.20482028 -0.29201543 -0.9654611 -0.025488393
0002d0 df 48 41 3e 46 e7 c8 3e 53 de 42 3f ff 4a 48 bd
       0.18875454 0.39238948 0.7612049 -0.048899647
0002e0 be ee a4 3d 3b 75 cd be b8 23 29 bf d3 17 b7 bf
       0.08053349 -0.40128502 -0.6607013 -1.4304146
0002f0 1c 8d 7b be 9a 0b b5 be 9d a4 17 c0 8e 37 d0 bd
       -0.24565548 -0.35360414 -2.3694222 -0.10166846
000300 c3 45 fd be 5a a2 06 3f 0d 50 f6 bc 75 9a eb bf
       -0.49467286 0.5259148 -0.030067468 -1.8406512
000310 3b 11 f1 be e6 f5 13 bf 3d 6b a6 3e 19 aa 1e 3f
       -0.47083458 -0.57797086 0.3250369 0.619783
000320 ab 4b 5c 3f 4a 9a 46 3f bf 4f d4 3e a9 17 85 3f
       0.8605296 0.77579176 0.4146709 1.0397846
000330 55 d8 7a 3f af a7 c5 bf 39 af 7c 3f 8e ca 85 bf
       0.97986346 -1.5441798 0.9870487 -1.045244
000340 12 7d dd be 51 51 50 be b8 08 10 bf c0 8d 66 3f
       -0.43259484 -0.2034352 -0.56263304 0.90060043
000350 e3 96 86 bd be 78 d0 3e c5 fe 01 bd 27 0f b9 3e
       -0.06571748 0.4071712 -0.031737108 0.36144373
000360 e8 81 08 c0 90 79 1a bf d5 96 81 be 2b f0 ab be
       -2.1329288 -0.6034174 -0.25310388 -0.3358167
000370 02 38 de bd e3 a6 39 3f 99 d1 95 bd 18 ef a1 3f
       -0.108505264 0.72520274 -0.07315368 1.2651091
000380 ce 06 3d 3e f4 64 bb be 88 40 82 be ea d9 1d c0
       0.18459627 -0.3660046 -0.25439858 -2.4664254
000390 bb 11 64 be 48 0e 2b bf 65 de 43 40 a6 75 97 bf
       -0.22272389 -0.66818666 3.060449 -1.1832778
0003a0 3b ff b7 3e 5f 2d 0f bf 73 de 23 3e b4 00 ea bf
       0.35936913 -0.55928606 0.16002826 -1.8281465
0003b0 51 15 b3 3e b8 1c b8 bf 96 a3 b4 3f 60 96 c2 be
       0.349772 -1.4383764 1.4112422 -0.38005352
0003c0 8a 94 16 bd 80 40 f1 be c2 7c df be ed db a3 be
       -0.03676275 -0.47119522 -0.4364987 -0.32003728
0003d0 a4 9d 38 be c4 26 94 3f 90 91 3d bf ac 3b 1c 3e
       -0.18028885 1.157433 -0.74050236 0.15257138
0003e0 f5 d9 85 3f f0 b5 19 3f db f8 93 bf 33 d0 10 be
       1.045714 0.6004324 -1.156032 -0.14141922
0003f0 33 6e 40 bf 72 5e 91 3e 93 60 46 bf e9 fe ec 3f
       -0.7516815 0.2839237 -0.7749111 1.8515292

net.0.bias f4 [128]
000000 bb 34 88 be 8a 78 b0 3e 7e 50 5e bc 59 4d 3b 3f
       -0.2660273 0.34466964 -0.0135689955 0.731649
000010 74 f0 9f bc 43 9c c3 3e bb a2 d6 3c 65 1e 0a bf
       -0.019523837 0.38205156 0.026200643 -0.5395263
000020 f8 74 05 3f d9 93 5c 3e d2 b4 cf 3d ce 92 2a 3f
       0.52131605 0.21540774 0.101419106 0.66630256
000030 38 2c 91 3f 73 bb 1e 3f b0 e0 b9 3d c0 48 0d 3e
       1.134162 0.62004775 0.09076059 0.13797283
000040 f6 73 a5 3e 61 97 61 3f 77 51 d3 3e 13 e2 26 3e
       0.32315034 0.8812161 0.4127309 0.16297178
000050 5e ee e6 3e 2b c5 07 bf c7 0b bd be 26 5b c1 be
       0.45103735 -0.5303523 -0.36923048 -0.37764853
000060 b0 86 68 bf 47 e8 f4 3d 89 33 5f 3f 6b a8 92 3f
       -0.90830517 0.11958366 0.8718801 1.1457647
000070 58 da 13 3f a0 ee 2a 3c e2 b6 5d 3f 3c b0 94 3f
       0.5775504 0.010432869 0.8660718 1.1616282
000080 79 ab 2e 3f 0f 41 ba 3e d6 d0 06 3f 46 a0 82 3e
       0.68230397 0.3637776 0.5266241 0.25512904
000090 49 0c 86 3e 3b 53 bc be 82 30 30 3f b5 fb a9 3d
       0.26181248 -0.3678225 0.6882402 0.082999624
0000a0 7d ed a4 3e 3c ba 3c 3f b3 e2 79 3f 19 92 d8 be
       0.3221244 0.7372167 0.9761154 -0.42298964
0000b0 21 ae 7f be 95 9f 67 be da 4e 94 3e b7 83 b5 be
       -0.24968769 -0.2261947 0.2896641 -0.35452053
0000c0 ab 30 8c 3f 37 86 2b 3f 93 4a 4a 3f cf 6a 10 be
       1.0952352 0.6700167 0.7902004 -0.14103244
0000d0 01 d9 4c 3f c3 91 7a 3e 99 f6 3b 3f a3 bd 50 3e
       0.8001862 0.24469666 0.73423153 0.2038484
0000e0 86 a4 0a 3e d6 dd 40 be 64 3a 8a be ae d3 6f be
       0.13539323 -0.18834624 -0.26997674 -0.23420593
0000f0 8b 4e 54 3f b0 82 8c be 8a 46 d3 3e c9 a8 16 3f
       0.8293235 -0.27443457 0.41264755 0.58851296
000100 12 bd 13 3e 33 9a a6 be 27 7e 89 3e 46 23 81 3f
       0.14427593 -0.3253952 0.2685406 1.008889
000110 0c 0e 08 3f d9 6b eb bd dd 30 89 3f 34 03 1c 3e
       0.53146434 -0.1149518 1.0718037 0.15235597
000120 fc f7 ff 3e aa 3c 89 be 66 5a 1e be f7 9a 35 3f
       0.49993885 -0.26804096 -0.15464172 0.7093958
000130 04 db 26 3f 64 7f 74 be e8 27 32 3d 1e 50 82 be
       0.6517794 -0.2387672 0.04349509 -0.2545175
000140 2f c2 f6 3d 45 d2 50 be fd 3e d9 3e f6 dd 59 bf
       0.12048756 -0.20392711 0.4243087 -0.8510431
000150 a1 8f 8a 3f a4 8c af be 8f 33 5e be 92 5c aa 3e
       1.0825082 -0.34286988 -0.21699356 0.3327375
000160 13 ae a7 bc 5c 4b 38 3f 96 78 37 3f 34 f3 95 be
       -0.020468747 0.7198999 0.71668375 -0.29287112
000170 ed ed 11 3f 8b 10 90 be e5 b1 f7 3e 84 70 8f 3f
       0.5700367 -0.2813762 0.4837791 1.1206212
000180 3b 26 2e bf c3 1c a6 be 94 e2 29 3f d5 57 a4 be
       -0.68027085 -0.32443818 0.66361356 -0.3209826
000190 c3 c8 6e 3f b2 38 34 be 8c 74 06 bf f0 4a 5a 3f
       0.9327509 -0.17599753 -0.52521586 0.85270596
0001a0 2a ba c3 bc 53 26 40 3e cb 11 90 3f ae 78 b2 3f
       -0.02389248 0.1876462 1.125543 1.3943079
0001b0 16 15 05 bf f1 95 b7 be f8 4b af be cb 71 0c be
       -0.519853 -0.35856584 -0.34237647 -0.13715284
0001c0 f5 1d b3 3d 6e ca 66 3f 07 0e a6 3f bf fc 3d 3f
       0.08745948 0.90152633 1.2973031 0.74213785
0001d0 b9 3c ec 3e 20 1b d1 3b 63 44 49 3f 14 62 ae 3d
       0.46140078 0.0063814074 0.78619975 0.08514801
0001e0 82 e7 d7 3e 60 39 70 3f 3d 4a ec 3e 1b ee 82 be
       0.42168814 0.9383755 0.4615039 -0.25572285
0001f0 aa fa 4b 3f 6e 84 9d 3e 73 d5 2e 3c e5 b2 c0 3e
       0.7967936 0.30765098 0.010671007 0.37636486

net.2.weight f4 [128, 128]
000000 a7 03 4d c0 4d c3 1b c0 ca 40 57 3f 2e 2a 0e bf
       -3.203348 -2.4337952 0.84083235 -0.5553311
000010 5e 3e 30 3f 93 17 83 3f 7e 57 20 3f 0c 07 42 be
       0.68845165 1.0241569 0.626335 -0.18948
000020 6d f8 e1 3d 0c 8e 97 3e de 16 42 bf fc 66 85 bf
       0.110337116 0.2960056 -0.7581614 -1.0422053
000030 ab 4c 9e 3f 93 f4 83 bf d0 d6 71 be bd 20 f1 3f
       1.2367147 -1.0309013 -0.236171 1.8838116
000040 62 51 fc 3f 4f 04 67 3f b7 a5 6e 3f 68 7d 11 3f
       1.9712336 0.9024095 0.9322161 0.5683198
000050 9c a7 68 3f 93 4d 54 3f bd ea 8b bf 5b e3 d6 3d
       0.9088075 0.8293087 -1.0931011 0.10492583
000060 2e 09 87 c0 07 2f 0c bf e1 9a 53 3d cd 21 ac 3c
       -4.2198706 -0.5475926 0.051661376 0.021012211
000070 0a 64 01 3e 92 82 31 3e b2 6b 9f 3c 33 b4 b2 bd
       0.12635818 0.17334965 0.019460533 -0.087257765
000080 22 37 0e 3f d6 14 cc bf 99 8a 95 bf de dc 5e 3f
       0.55552876 -1.5943859 -1.1682922 0.87055767
000090 c5 3c fa be 37 1b 3e bf 58 5f 66 3f b2 03 bb bf
       -0.48874488 -0.74260277 0.89989233 -1.4610503
0000a0 05 b7 fa bd 94 d0 1b 3f db 2e 0c be f7 36 83 bf
       -0.122419395 0.6086514 -0.13689749 -1.0251149
0000b0 0c 13 a5 3d 2f a1 98 bc 18 d4 c0 be 2a fb 94 be
       0.080602735 -0.018631546 -0.37661815 -0.29097873
0000c0 39 c4 44 3f d3 85 45 bf b9 1e 83 3f 0e ad 07 3f
       0.7686191 -0.77157325 1.0243751 0.52998435
0000d0 f3 2b 4e bf 0b df 0c 3f 57 7f 19 be ff 71 ec 3e
       -0.8053581 0.55027837 -0.14989983 0.46180722
0000e0 b2 c2 a5 3f fd 89 72 3f 77 83 cf 3f ab 23 b9 3e
       1.2950041 0.94741803 1.6211995 0.36160025
0000f0 2d d7 ad 3f 44 1b dc bf 11 b3 ab 3e c6 d9 67 bf
       1.3581291 -1.7195821 0.33535054 -0.9056667
000100 d2 a4 ef 3e 8b 46 af 3c 95 a9 b7 bd 95 3b 19 be
       0.46805435 0.021395942 -0.08967892 -0.14964135
000110 e1 42 1d 3f d0 3d 09 be ef 71 88 bd 08 bb c1 3e
       0.61430174 -0.13402486 -0.06662356 0.37838006
000120 46 9e bf 3f 30 d3 e2 bf 85 15 92 bf 80 91 9a 3f
       1.4970176 -1.7720699 -1.1412817 1.2075653
000130 9a 01 5f 3e 5f a8 9e bf 71 cd a2 bf 73 80 4f 3f
       0.21777955 -1.2395133 -1.2718946 0.8105537
000140 48 d0 a5 bf a6 86 7f c0 8b 3a c6 3f f5 ba 76 3f
       -1.2954187 -3.9925933 1.5486616 0.96379024
000150 19 d3 24 3e 03 a6 46 be 90 a0 07 bf 98 8e 17 bf
       0.16096152 -0.19399266 -0.52979374 -0.59201956
000160 f4 41 7d c0 14 b2 db bd c8 6f 09 3f ab 5a 26 bf
       -3.9571505 -0.10727325 0.5368619 -0.649821
000170 f6 d9 3c 3f 62 03 fa bf 67 eb 97 bf d8 13 f6 3e
       0.7377008 -1.9532282 -1.1868714 0.48062015
000180 b4 7a ab bf ea 6c fc 3d d6 61 c9 be dd d3 c6 bd
       -1.3396821 0.12325461 -0.39332455 -0.097083785
000190 fa cd 6b 3f 3e 8f bf 3e ba 21 0d c0 d7 12 8c be
       0.9211117 0.37413973 -2.2051835 -0.27358124
0001a0 06 6a 22 3d bd 6b c5 3f 84 57 79 bf 91 1c 1e bf
       0.039651893 1.5423504 -0.97399163 -0.6176234
0001b0 cd c7 88 be cf 49 98 bf ab 2d e8 bf 9d 05 32 c0
       -0.26714936 -1.1897525 -1.8138937 -2.7815926
0001c0 16 a8 09 bf 13 b9 d2 be e6 00 0a be 9f 92 b3 3e
       -0.53772104 -0.41156825 -0.13476905 0.350728
0001d0 9f 02 19 3e a1 f2 64 bf 0e 32 05 bf c4 54 26 bf
       0.14942406 -0.8943272 -0.520295 -0.6497309
0001e0 f9 87 3d c0 df 34 84 3e ac d9 b9 3e 8c a6 d1 be
       -2.961424 0.25821587 0.36298883 -0.40947378
0001f0 b0 91 3a bf 73 22 97 3e 4b de 07 c0 e1 99 45 3d
       -0.7287855 0.2951847 -2.1229427 0.048242453
000200 54 2a ae c0 c2 97 d0 bf 2a 99 62 bf 80 96 52 bf
       -5.442667 -1.6296313 -0.8851496 -0.82260895
000210 36 c9 46 3f a9 54 81 3e cb 14 22 c0 65 c2 bd be
       0.77650774 0.25259903 -2.532519 -0.37062374
000220 62 f1 89 bf 27 e5 12 c0 47 4c 1b 40 85 2f b6 bd
       -1.0776789 -2.2952363 2.4265306 -0.088957824
000230 8b b1 e0 3f 19 c1 f4 3f 5b 02 5c 3f 5a b8 d8 be
       1.7554182 1.9121429 0.85941094 -0.4232815
000240 26 f3 46 c0 fe 69 c1 3f 6a 2d 96 3e 3c 86 8e 3f
       -3.1085906 1.5110471 0.29331523 1.1134715
000250 4c 72 c6 3e ed af fa 3e ca 51 0e c0 d2 41 92 3d
       0.38759077 0.48962346 -2.223742 0.071414605
000260 e9 31 a3 c0 4b a5 bd c0 0a ae 34 bf 2b bf fc 3e
       -5.0998425 -5.9264274 -0.7057806 0.493646
000270 03 7c ac 3f 81 56 19 c0 ac 3f f2 be 92 e8 48 3e
       1.3475345 -2.3959048 -0.47314203 0.19619969
000280 93 91 b6 bf 09 e2 37 bf 3e df 62 bf 48 dc ff bf
       -1.4263176 -0.7182928 -0.8862189 -1.99891
000290 9e bb 15 bf 20 ae 5d bf 75 51 42 3d fa 32 26 c0
       -0.58489406 -0.8659382 0.047440965 -2.5968614
0002a0 35 0a d5 3e 68 fc b9 3d 16 40 12 bb 3b b7 54 bf
       0.4160935 0.09081346 -0.002231603 -0.8309209
0002b0 35 6d 47 3d 38 35 16 bb 15 3e bb be 08 48 cb bf
       0.048688132 -0.0022919904 -0.36570802 -1.5881357
0002c0 e0 32 cd 3e 51 f3 e2 be ae 2b 08 40 7e f8 7c bf
       0.40077877 -0.4432626 2.127666 -0.9881667
0002d0 39 5d 7a c0 0e 68 27 3f 18 ce 2b c0 6b b8 a6 be
       -3.9119399 0.6539315 -2.684454 -0.32562575
0002e0 fd 6d a5 3f d1 12 51 bf 3d bb 23 c0 22 f1 53 bf
       1.2924191 -0.81669337 -2.558303 -0.82789814
0002f0 76 c7 88 3f d2 f6 cd 3e 16 23 43 3f 93 4d ec be
       1.0685871 0.4022737 0.7622541 -0.46152934
000300 ab 4b c0 3e 04 02 b4 bd 97 ab 4f bf d0 89 d2 3e
       0.3755773 -0.08789447 -0.811212 0.41120768
000310 e9 f7 83 3f 40 97 dc 3d 87 fa b8 3f cb 7d 25 c0
       1.0310031 0.10771036 1.4451455 -2.5858028
000320 6b 1e b6 bf 56 4e d7 bf 61 77 21 c0 a0 53 1c 3f
       -1.4228033 -1.6820781 -2.5229113 0.610651
000330 d3 70 f4 bf 97 66 a8 bb 12 14 14 3f 29 5a 08 c0
       -1.9096931 -0.005139183 0.57843125 -2.130503
000340 54 37 07 bf b8 d5 11 c0 7a 08 00 c0 43 2d 28 bf
       -0.528188 -2.2786694 -2.0005174 -0.65694064
000350 21 c4 80 3e f0 fd c2 bf fa a7 cd bf 3a 74 31 bf
       0.25149634 -1.5233746 -1.6066887 -0.6931797
000360 87 37 f0 bf f0 10 a8 bf e1 19 e2 3e 3b 55 70 c0
       -1.8766946 -1.3130169 0.4416037 -3.755202
000370 05 cc 91 3f 05 a7 15 c0 bb 91 c5 bf 19 f4 94 3e
       1.1390387 -2.338319 -1.5435098 0.29092482
000380 96 1b b8 bf 95 c3 5d be f4 1a 04 3e f7 7f 24 3d
       -1.4383419 -0.2165664 0.12900907 0.0401611
000390 24 d6 17 3f 5c fb 25 bf 9b af 16 c0 e4 b4 aa 3d
       0.5931113 -0.6483667 -2.354468 0.083352834
0003a0 09 4c 4b c0 45 5d 62 3f 87 00 c8 be e9 c2 65 3e
       -3.1765158 0.8842357 -0.39062902 0.22437634
0003b0 bb 54 9c bf fe 4a ba bf fe e6 72 3e dc bb ed be
       -1.2213358 -1.4554136 0.23720929 -0.46432388
0003c0 f0 d3 8e c0 54 40 1b 3f f1 11 bb 3c 0f a6 b9 3e
       -4.4633713 0.6064503 0.022835704 0.36259505
0003d0 c5 9e a1 bf 07 06 4c 3e 76 37 00 3f ea e5 7e bd
       -1.2626578 0.19924174 0.50084627 -0.062230982
0003e0 13 20 20 bf 04 3d 16 3f 56 73 88 bf e6 26 34 3f
       -0.6254894 0.5868685 -1.0660198 0.70371854
0003f0 94 1a a2 c0 d4 68 c7 3f 5b 05 7f bf 13 80 9b 3f
       -5.0657444 1.5578866 -0.99617547 1.214846

net.2.bias f4 [128]
000000 af 2e 18 3f 34 72 6b 3f ec 6e 9b bd 30 f0 53 3f
       0.59446234 0.91971135 -0.07589516 0.8278837
000010 e5 95 5a 3f 11 e2 9b 3f e9 c4 88 3f 55 40 f6 bd
       0.8538497 1.2178365 1.0685092 -0.12023989
000020 02 2c 4c 3f df c8 cd 3f 75 26 9c 3f 9e c2 03 be
       0.7975465 1.6076926 1.2199236 -0.1286721
000030 75 fd 6f 3f a4 aa 5c 3f d1 7c e6 bd e8 fa 56 3f
       0.9374612 0.86197877 -0.112542756 0.839766
000040 6b 2f a1 3f f7 50 12 3f 78 7f 96 bd 76 cc b6 bd
       1.2592596 0.5715479 -0.073485315 -0.089257166
000050 4a 21 1a 3c 56 f9 37 3f f1 9a 43 bd 3b bb f0 3f
       0.009407351 0.7186483 -0.047755186 1.8807138
000060 2e 5a 91 3f 40 e3 78 3f 94 f9 4e 3f 8c cf d9 bd
       1.1355646 0.97221756 0.80849576 -0.106352895
000070 5b e6 4f 3f de cf 4e be 84 14 be bd c9 96 58 3f
       0.8121087 -0.20196483 -0.09281257 0.8460508
000080 42 c4 4d 3f 3b be 36 bd a8 27 47 3f 86 0d 15 3f
       0.8037759 -0.04461501 0.77794886 0.5822376
000090 3b ef e8 bd 43 40 bd 3f 90 3a 55 3f 2a af 2e be
       -0.113737546 1.4785236 0.83292484 -0.17059007
0000a0 ee a5 27 3f d1 76 42 3f 04 20 8e 3f 17 0f 93 3f
       0.65487564 0.7596255 1.110352 1.148898
0000b0 59 d5 03 be ab 51 8a 3f f6 5e b6 bd 43 48 66 3f
       -0.12874354 1.0806173 -0.08904831 0.8995401
0000c0 13 a9 e2 bd 8e d1 d8 bd 69 eb df 3f da 16 1f 3e
       -0.110674046 -0.105868444 1.7493716 0.15536061
0000d0 45 c6 2b 3e b5 45 c4 3e 0a 07 8f 3f 75 4f 76 bc
       0.16774853 0.38334432 1.1174023 -0.0150335925
0000e0 b2 6b 92 3f 6d fc f6 3f 46 64 60 3f db f9 9f 3f
       1.1439116 1.9295784 0.87653005 1.2498125
0000f0 22 0a b8 3f 30 10 28 bd 87 1e 56 bd da 10 d9 3e
       1.4378092 -0.041031063 -0.052275207 0.4239567
000100 69 80 34 3f b1 85 7e bd 9f 30 8a 3f 40 3e 50 3f
       0.7050844 -0.062139217 1.0796088 0.81344986
000110 36 04 0f be 2d 7e 97 3f 88 6e 35 3f 59 cb 0a be
       -0.1396645 1.1835381 0.7087178 -0.13554133
000120 92 f9 d1 bc a2 c3 c8 3e 4b e0 3b 3f 3d 77 f1 3f
       -0.0256317 0.39211756 0.7338912 1.8864514
000130 4e 0e d5 3b 17 12 c3 bd 03 df d4 bd 54 a8 33 bb
       0.0065019494 -0.09524935 -0.103940986 -0.0027413564
000140 3c 86 ff bb 71 d3 f2 bc 0f 4e 3c 3f 84 af 98 3f
       -0.0077979844 -0.029641839 0.7355661 1.1928563
000150 18 41 60 3f ce 49 20 3f cc ce 26 bd 49 f8 51 3f
       0.87599325 0.62612617 -0.04072456 0.8201948
000160 fb 12 9b 3f ca 28 b0 3f 90 51 94 bd 02 4d ca bd
       1.2115167 1.3762448 -0.07242119 -0.09877969
000170 32 35 22 3f fe 41 0d 3f e7 06 88 3f 7a 2e 03 be
       0.6336242 0.5517882 1.0627106 -0.12810698
000180 ce 82 f4 3f c3 e9 5b be bc e5 31 bd be 84 fc 3f
       1.9102418 -0.21475892 -0.043431982 1.972801
000190 d2 b7 fc 3e 20 f8 76 3f 6e 79 12 be 5b 75 f4 bd
       0.49358994 0.9647236 -0.14304134 -0.11936446
0001a0 25 18 aa 3f 32 91 62 3c 1d c5 66 3e b3 36 36 bf
       1.3288618 0.013828563 0.2253613 -0.71177214
0001b0 97 5e 86 3f 48 2b ac 3f fd 04 47 3f c7 f2 ab 3f
       1.0497617 1.3450708 0.77741987 1.3433465
0001c0 3c bd 4e 3f 60 0c 18 3f 76 97 6e 3e a8 ba 30 be
       0.807575 0.5939388 0.23299965 -0.17258704
0001d0 2f 25 0e 40 9a 26 41 3f db 41 1b 3f 7c c2 48 bd
       2.2210195 0.75449526 0.6064736 -0.0490136
0001e0 4a 2c e9 bd cb 2b 7d bc 6a 15 24 3d 14 70 35 3f
       -0.113854006 -0.015452336 0.040059485 0.7087414
0001f0 f6 31 51 bd 65 55 f5 3e f8 ea b6 bd 77 8b 08 3f
       -0.051073037 0.47916713 -0.089315355 0.53337806
