checkpoints/team1_agent_0.pt (torch, 394913 bytes, 24 tensors)

net.0.weight f4 [128, 45]
-0.25976467 -0.10948956 -0.32736197 0.47841713 0.31713066 -0.7559925 -0.75695616 0.1837379
-0.5679321 -0.6642068 0.093978606 -0.37383008 0.042420268 -0.25975025 0.22176373 -0.843536
0.057257697 -0.4001819 0.8820244 0.40575126 0.5609932 -1.776523 0.42015085 -1.1954368
0.52573764 0.4932943 0.43761638 1.0018954 -0.4397435 -0.27141592 -1.1963634 -1.3347375
-0.2587236 -0.70575947 -0.74835473 -0.57080305 0.50568473 -0.44291413 0.51463705 -0.88117594
-1.3672013 -0.7904816 -0.67636806 -0.1078605 0.12235292 -0.22113937 -0.04894226 -1.5394232
0.5589753 0.18127981 -0.6491962 -0.6909871 -1.603952 0.96106374 -0.22526653 -2.1836574
1.1016811 -0.12809916 0.9263981 0.6679613 1.1925236 -1.0692164 1.5616286 0.14127989
0.4786818 -0.74601024 -1.6008629 -0.6259827 0.30241984 -0.9938782 0.26953378 -1.5615492
1.6778622 -0.42311648 0.5665281 1.0563684 0.22505693 1.0694402 -1.6266502 -0.28168315
-0.18332358 1.6246281 0.21620801 -0.34305224 -1.8995465 -1.4450561 -0.24972971 -0.041767776
0.3950262 0.42654368 1.1295757 0.7069145 0.32786202 -0.024615988 -0.24819125 0.3124165
0.02935998 0.13458733 0.2391357 -0.12753423 0.17718485 -0.3291194 -0.21063066 -0.08655641
0.15138313 -0.19524646 0.33177176 -0.19733916 -0.00025295428 0.3031423 1.2381332 -0.73041266
0.57297295 -0.25541124 -0.52774704 0.7013011 0.4626523 -0.18247676 0.34929633 0.27466968
-0.059241354 -0.294003 -0.56473416 -0.3608254 0.38312015 0.61161464 -1.1344817 -0.2647609
-0.16815045 0.41591874 0.4215759 -0.02364175 -0.09646458 0.06976001 -0.024428433 -0.12212997
-0.27331153 -0.14315708 0.06186916 -0.03607721 -0.07236623 0.040986557 0.059940744 0.02566594
-0.082919896 -0.03106675 0.046863884 0.109563895 0.066576615 -0.019628465 -0.017504852 -0.13056234
-0.12651412 0.044754222 -0.12543121 -0.070776634 -0.06999343 0.060583763 0.06605808 -0.040372882
0.072961554 -0.009539094 -0.02012718 -0.13275379 0.04560872 -0.08220099 -0.04641477 -0.012616382
-0.07305015 -0.055532068 0.06757019 -0.15227276 -0.09221105 0.066064864 -0.12412416 0.042160425
0.109904885 0.04203934 0.115254745 -0.028673092 0.28035486 0.039765038 -1.0264429 0.10371889
-1.9134475 -0.45795107 0.076739214 1.381722 -2.2513208 -1.0355902 0.6446144 0.49466383
-0.010935656 -0.09675462 -0.496351 2.0879598 2.0054061 -0.15403241 0.92441404 -0.22141244
0.049243454 -0.117620096 1.5150293 -0.3305993 0.050590634 0.32159925 0.2888987 -0.7536499
0.13450727 0.75820535 0.08810525 -1.6737263 0.7963995 0.010187313 0.5290229 -0.37742367
-1.1412876 -1.4685183 0.219126 -0.30950013 0.28698915 0.24465215 -0.3030014 0.8522889
-1.8517181 0.48726997 -0.33820596 -0.54157746 -0.66836375 0.2059933 1.2602018 0.330613
0.42186913 0.060491294 -1.112307 -0.5841459 -1.225584 1.2150751 -0.2364295 -0.08903411
0.60193884 0.5630772 1.5024081 0.3971725 0.4802524 1.086901 -1.4179757 1.3701389
-0.0091343345 -0.011269294 0.23265412 -0.019011108 1.721997 1.1459013 -0.1765466 -0.8032368
00000000: e0ff 84be 103c e0bd fd9b a7be 17f3 f43e
00000010: f35e a23e b988 41bf e1c7 41bf ca25 3c3e
00000020: 0064 11bf 7509 2abf db77 c03d a866 bfbe
00000030: e0c0 2d3d fcfd 84be 0816 633e faf1 57bf
00000040: 0c87 6a3d a4e4 ccbe 5acc 613f a1be cf3e
00000050: 409d 0f3f 1b65 e3bf 031e d73e 1304 99bf
00000060: be96 063f 1291 fc3e 410f e03e 1c3e 803f
00000070: 0f26 e1be 07f7 8abe 7022 99bf aed8 aabf
00000080: 6b77 84be a7ac 34bf 2d94 3fbf 2620 12bf
00000090: 8e74 013f a4c5 e2be 41bf 033f bf94 61bf
000000a0: 7400 afbf 015d 4abf 7526 2dbf f7e5 dcbd
000000b0: 2b94 fa3d 5c72 62be ae77 48bd d20b c5bf
000000c0: 0119 0f3f 6aa1 393e b931 26bf 88e4 30bf
000000d0: 4d4e cdbf 4608 763f 45ac 66be 0bc1 0bc0
000000e0: e303 8d3f 6d2c 03be 6d28 6d3f 83ff 2a3f
000000f0: 9da4 983f 15dc 88bf 72e3 c73f adab 103e
00000100: c815 f53e 87fa 3ebf 13e9 ccbf 6740 20bf
00000110: c6d6 9a3e cd6e 7ebf 5500 8a3e d8e0 c7bf
00000120: 30c4 d63f b9a2 d8be fc07 113f 1437 873f
00000130: 5375 663e 6be3 883f 1336 d0bf c638 90be
00000140: 2db9 3bbe d0f3 cf3f a265 5d3e 8ba4 afbe
00000150: 5724 f3bf 99f7 b8bf 25b9 7fbe b014 2bbd
00000160: e040 ca3e ef63 da3e f095 903f 59f8 343f
00000170: 88dd a73e 78a7 c9bc d925 7ebe 0ef5 9f3e
00000180: 5784 f03c 43d1 093e fddf 743e 5598 02be
00000190: f26f 353e 5782 a8be 90af 57be 7d44 b1bd
000001a0: 2e04 1b3e b0ee 47be fddd a93e 4713 4abe
000001b0: f39e 84b9 7835 9b3e 267b 9e3f 53fc 3abf
000001c0: 5bae 123f 43c5 82be 6e1a 07bf 7888 333f
000001d0: c3e0 ec3e 30db 3abe f8d6 b23e 81a1 8c3e
000001e0: 10a7 72bd 9087 96be 6b92 10bf 1bbe b8be
000001f0: 5328 c43e c792 1c3f b236 91bf be8e 87be
00000200: a22f 2cbe 4df3 d43e ccd8 d73e 58ac c1bc
00000210: 398f c5bd 56de 8e3d 231e c8bc 471f fabd
00000220: 7def 8bbe c597 12be 846a 7d3d b2c5 13bd
00000230: bf34 94bd 85e1 273d 6d84 753d 6141 d23c
00000240: e8d1 a9bd b27f febc 58f4 3f3d 0963 e03d
00000250: 5259 883d e0cb a0bc 5666 8fbc 22b2 05be
00000260: eb8c 01be 3450 373d 0a71 00be 57f3 90bd
00000270: b758 8fbd ae26 783d 7549 873d 095e 25bd
00000280: de6c 953d dc49 1cbc c1e1 a4bc 9cf0 07be
00000290: 36d0 3a3d fe58 a8bd 6a1d 3ebd f1b4 4ebc
000002a0: 519b 95bd 9875 63bd 3d62 8a3d 64ed 1bbe
000002b0: 26d9 bcbd 044d 873d cf34 febd 69b0 2c3d
000002c0: d015 e13d 7131 2c3d ae0a ec3d d5e3 eabc
000002d0: ac8a 8f3e aae0 223d 7b62 83bf 926a d43d
000002e0: d9eb f4bf 9078 eabe 7329 9d3d 44dc b03f
000002f0: a415 10c0 388e 84bf 7305 253f 9444 fd3e
00000300: 772b 33bc 4927 c6bd b821 febe 22a1 0540
00000310: 9358 0040 acba 1dbe 66a6 6c3f f1b9 62be
00000320: 81b3 493d cee2 f0bd 7bec c13f 5044 a9be
00000330: 2038 4f3d a8a8 a43e 88ea 933e 33ef 40bf
00000340: 46bc 093e bf19 423f 8670 b43d aa3c d6bf
00000350: d6e0 4b3f b0e8 263c 0b6e 073f ad3d c1be
00000360: b615 92bf 68f8 bbbf 9162 603e cd76 9ebe
00000370: 3ef0 923e 1886 7a3e 0023 9bbe 9b2f 5a3f
00000380: 1905 edbf 737b f93e 5529 adbe d2a4 0abf
00000390: e319 2bbf e8ef 523e 4b4e a13f 1b46 a93e
000003a0: 3bff d73e b8c5 773d 1360 8ebf 968a 15bf
000003b0: f0df 9cbf 9587 9b3f 931a 72be 8457 b6bd
000003c0: aa18 1a3f d425 103f e94e c03f 325a cb3e
000003d0: a4e3 f53e 921f 8b3f 3a80 b5bf b660 af3f
000003e0: 2da8 15bc d8a2 38bc e23c 6e3e 2fbd 9bbc
000003f0: 666a dc3f e5ac 923f a2c8 34be eda0 4dbf

net.0.bias f4 [128]
0.0073491405 0.034347977 1.3824484 -0.25747398 0.05999103 0.18606867 -0.015439148 0.47629243
-0.5014471 -0.44043136 0.56976354 0.09593207 0.07110476 0.08288029 0.59695226 0.14265138
0.64145243 -0.16059601 0.16399923 1.4281983 -0.0977084 0.0040951935 -0.44914272 0.88699514
-0.22477224 0.80237836 0.9438368 0.5272456 0.058462568 0.63125926 -0.25787947 -0.5601945
0.34458953 0.11630977 -0.7713823 0.28762358 0.26641056 -0.35783547 -0.4913415 0.36576864
0.33758435 0.41501585 -0.17508966 0.54952043 1.0704391 -0.28167692 1.2731454 0.53812546
0.15014793 0.1314916 -0.1907183 -0.18437773 0.28487322 0.94090706 0.37814912 -0.016197756
-0.26268315 -0.35113642 -0.33219558 0.18578048 0.45712352 -0.36067498 0.27316406 -0.056177814
0.29025117 -0.5902358 0.99973506 0.14380734 0.8036122 -0.16715015 0.3600484 -0.52304345
0.6982168 -0.16773489 -0.17479646 0.7159934 -0.021046005 0.2915905 1.1655489 1.2492205
-0.07685551 -0.055855554 0.26850235 -0.23283924 1.0697172 0.9065117 0.108888894 0.19211012
-0.28527734 0.26489317 0.30495754 -0.044710945 1.4981749 1.2404906 -0.90851927 0.3353527
-0.38131335 0.5634457 0.25340924 -0.09374036 0.660847 0.5247065 0.45412877 -0.24936931
0.1584575 -0.10781825 0.27675465 1.094131 0.44196475 -0.2910475 0.37406752 0.88329273
0.08983583 -0.30959365 0.8624796 0.13639499 -0.28524283 0.24278812 0.09925405 0.22562574
0.358798 -0.0047054114 -0.18427457 0.5143647 -0.3645902 1.391307 0.43397892 -0.2683079
00000000: 0fd1 f03b 77b0 0c3d 12f4 b03f a1d3 83be
00000010: 27b9 753d c988 3e3e 7bf4 7cbc 9adc f33e
00000020: d65e 00bf 3880 e1be 06dc 113f 0878 c43d
00000030: 5f9f 913d 24bd a93d ddd1 183f 3413 123e
00000040: 3a36 243f 4873 24be 6aef 273e 34cf b63f
00000050: 571b c8bd f930 863b 09f6 e5be 1d12 633f
00000060: b22a 66be ab68 4d3f 4a9f 713f 91f9 063f
00000070: 7276 6f3d 359a 213f c708 84be e868 0fbf
00000080: 0a6e b03e d133 ee3d 4f79 45bf 6643 933e
00000090: f766 883e 3636 b7be 1d91 fbbe 0746 bb3e
000000a0: dbd7 ac3e f57c d43e b44a 33be 5fad 0c3f
000000b0: 2604 893f f537 90be 6ef6 a23f 97c2 093f
000000c0: 61c0 193e bca5 063e a84b 43be 84cd 3cbe
000000d0: e7da 913e 49df 703f c39c c13e 28b1 84bc
000000e0: 687e 86be 27c8 b3be 8a15 aabe 3d3d 3e3e
000000f0: 180c ea3e 64aa b8be 29dc 8b3e b51a 66bd
00000100: cd9b 943e b219 17bf a3ee 7f3f 3b42 133e
00000110: 87b9 4d3f 6929 2bbe 4458 b83e 2de6 05bf
00000120: 56be 323f b2c2 2bbe d8fd 32be 584b 373f
00000130: ac68 acbc 5a4b 953e b530 953f 75e6 9f3f
00000140: 6c66 9dbd cbc8 64bd 2479 893e 696d 6ebe
00000150: 7eec 883f 2711 683f 2401 df3d 84b8 443e
00000160: df0f 92be 14a0 873e 6523 9c3e d322 37bd
00000170: 32c4 bf3f 65c8 9e3f b894 68bf 59b3 ab3e
00000180: 813b c3be fa3d 103f dbbe 813e f2fa bfbd
00000190: 452d 293f 2a53 063f 9183 e83e ab5a 7fbe
000001a0: af42 223e d1cf dcbd c9b2 8d3e 7c0c 8c3f
000001b0: 3449 e23e 2e04 95be c785 bf3e 791f 623f
000001c0: d9fb b73d 0f83 9ebe 77cb 5c3f 21ab 0b3e
000001d0: 590b 92be 739d 783e b545 cb3d 6f0a 673e
000001e0: 5fb4 b73e da2f 9abb 79b2 3cbe 68ad 033f
000001f0: 91ab babe 5916 b23f 7c32 de3e a75f 89be

net.2.weight f4 [128, 128]
1.1140466 -0.47735214 0.7300047 -0.08224073 -1.0920949 0.95757496 -0.09809541 -0.56435174
-2.1518137 -1.7253299 1.3456334 -0.30403194 -0.46038395 0.30864576 2.8857026 -0.21857597
0.2668191 -0.334893 -1.8344971 0.4994863 2.3862956 0.29352283 -0.86609864 1.3964158
0.037973676 1.3494868 1.1261611 0.055119853 -0.96318394 0.1611254 0.054884586 -1.293769
2.1177626 -0.38132048 -0.5668805 -0.5714745 -2.034445 -1.3510209 -0.5824278 2.324326
-1.1990051 -0.88483876 -2.7980337 0.8253107 0.84589756 0.838786 0.3738663 1.4633659
-1.7761642 0.22244549 -0.49993682 0.081992775 0.16407321 0.7111197 0.00094826537 -1.2528596
2.2440586 -0.9402224 -0.034945786 -0.4620377 0.3762212 -2.8023763 -2.8623683 -1.36362
0.61641526 1.711952 1.9199399 0.47644004 1.7037764 -1.8437942 0.19871175 1.5384849
0.50222504 -1.1457956 0.092994064 0.69299155 -0.4784762 -1.2514619 0.43761048 0.5804742
-0.5870625 0.79117066 -0.15002213 -0.48547047 1.9220183 -0.21641432 -0.8959639 0.04323381
-0.110453196 1.7932053 -0.12664118 -0.577619 0.5509808 0.8422028 -1.6941079 1.3558717
-1.675741 -0.33825764 1.1960229 2.5396526 -0.21424954 0.7713573 0.46318343 -3.3280258
0.71068704 -1.6798575 -0.06309078 2.7025146 -0.7620295 -0.9692933 1.2146398 1.4428806
-0.20234616 0.47070208 0.7971943 -0.47260684 0.027733756 1.8501016 0.58307844 0.52925426
0.4861141 -0.26600903 0.88811666 -0.23208602 -0.83441305 0.48840562 0.25307393 1.1888366
0.7517728 -1.9624027 0.6244963 -0.035644457 -0.6239321 -0.14831892 -0.2502815 0.07672146
-3.1749487 -1.9987724 1.5586262 -1.6574358 0.098126486 1.1042802 3.425394 -1.5403835
0.4931135 0.097072795 -0.74690145 0.16101135 3.116945 -1.1096749 -3.1812181 -0.4026259
-0.10928681 -0.5709358 -0.5600387 1.0201783 -1.2202834 -2.4132788 -0.050368257 -0.8336002
1.63853 1.2280163 -0.77336514 -6.180538 -1.6571467 -3.3460548 0.3737309 1.3688426
-4.0477405 -2.84344 -2.9293299 0.9467779 0.060812853 1.4863985 -0.5980018 2.0547576
-1.2292196 0.06801644 0.033871606 -0.028816424 2.3710115 -0.19791208 -0.011072809 0.28520778
2.3585033 -0.6434942 -0.06358644 -0.66198444 2.540491 -1.0874798 -1.3447324 -0.90603966
1.0723822 1.54151 2.012959 -0.10261299 1.6455185 -1.3800644 1.4191756 2.1427767
0.6117524 -2.645345 1.702653 1.0480405 1.7741069 -1.8266659 0.28139445 0.14292435
-0.97724557 -0.17522517 2.2879016 -2.1978018 0.30375618 0.4763535 -1.6873915 -1.7023895
-0.03344684 0.60136014 0.45387247 -2.1559846 0.59263474 -0.1978544 0.6600211 1.9483727
-1.0293877 1.0658396 0.98248774 3.7621815 0.87799764 1.9351695 -0.16027565 -4.0451922
1.5099543 -2.015986 -1.9614108 1.9895234 -0.08358546 -0.00250778 1.52034 1.6778388
-1.5478437 2.021884 0.9709942 -0.61272633 -0.07010121 -1.9476262 -0.57806355 -0.9607914
-0.7970876 0.39804268 2.3743289 -2.0111673 -1.4168843 -0.01028631 0.44723606 2.0775628
00000000: 1499 8e3f 8067 f4be 97e1 3a3f d46d a8bd
00000010: c4c9 8bbf a223 753f 3fe6 c8bd 5b79 10bf
00000020: 51b7 09c0 9cd7 dcbf b73d ac3f 13aa 9bbe
00000030: 72b7 ebbe d106 9e3e 5aaf 3840 61d2 5fbe
00000040: 839c 883e 1877 abbe cdd0 eabf abbc ff3e
00000050: 11b9 1840 a048 963e a4b8 5dbf c1bd b23f
00000060: 498a 1b3d fcbb ac3f 0c26 903f 5bc5 613d
00000070: 3993 76bf 0ffe 243e a9ce 603d 399a a5bf
00000080: 6c89 0740 703c c3be 151f 11bf 274c 12bf
00000090: 5934 02c0 41ee acbf fd19 15bf c2c1 1440
000000a0: 0079 99bf cb84 62bf fc12 33c0 9047 533f
000000b0: be8c 583f aeba 563f 676b bf3e 934f bb3f
000000c0: 5959 e3bf c0c8 633e b8f7 ffbe d4eb a73d
000000d0: cf02 283e f10b 363f 0395 783a b45d a0bf
000000e0: a89e 0f40 6ab2 70bf 5023 0fbd 3590 ecbe
000000f0: 11a0 c03e 225a 33c0 0b31 37c0 1a8b aebf
00000100: 64cd 1d3f 3e21 db3f 97c0 f53f f3ef f33e
00000110: 5815 da3f 7301 ecbf 187b 4b3e 13ed c43f
00000120: d291 003f 6ea9 92bf ac73 be3d e567 313f
00000130: d5fa f4be e72f a0bf 7b0e e03e f599 143f
00000140: ba49 16bf 298a 4a3f 679f 19be 968f f8be
00000150: b204 f63f b79b 5dbe e45d 65bf f015 313d
00000160: 4935 e2bd c087 e53f 3aae 01be d7de 13bf
00000170: 140d 0d3f 9a9a 573f 87d8 d8bf 348d ad3f
00000180: ae7e d6bf 1b30 adbe 4717 993f ab89 2240
00000190: 3b64 5bbe ac77 453f 6126 ed3e 60fe 54c0
000001a0: 96ef 353f 9205 d7bf bd35 81bd 00f6 2c40
000001b0: 5e14 43bf 9b23 78bf 5179 9b3f 50b0 b83f
000001c0: d533 4fbe ddff f03e ed14 4c3f 86f9 f1be
000001d0: e731 e33c 21d0 ec3f a144 153f 357d 073f
000001e0: f3e3 f83e 5632 88be 9d5b 633f f5a7 6dbe
000001f0: 189c 55bf 4d10 fa3e e892 813e cc2b 983f
00000200: 2f74 403f 0330 fbbf fdde 1f3f ecff 11bd
00000210: 04ba 1fbf eae0 17be e624 80be 2420 9d3d
00000220: 5c32 4bc0 c6d7 ffbf 1081 c73f db26 d4bf
00000230: 8af6 c83d 0e59 8d3f a839 5b40 492b c5bf
00000240: 5f79 fc3e 1ace c63d ef34 3fbf 29e0 243e
00000250: 077c 4740 d409 8ebf 1499 4bc0 fb24 cebe
00000260: c3d1 dfbd d928 12bf b25e 0fbf 3495 823f
00000270: 3f32 9cbf 2973 1ac0 f24e 4ebd d366 55bf
00000280: 5abb d13f a32f 9d3f 42fb 45bf f8c6 c5c0
00000290: 621d d4bf c325 56c0 a859 bf3e 3c36 af3f
000002a0: 1787 81c0 ecfa 35c0 247a 3bc0 0960 723f
000002b0: e616 793d 4e42 be3f a516 19bf 2681 0340
000002c0: 1157 9dbf 344c 8b3d f4bc 0a3d 6c10 ecbc
000002d0: a7be 1740 77a9 4abe ba6a 35bc c106 923e
000002e0: b8f1 1640 09bc 24bf 9c39 82bd d077 29bf
000002f0: 6897 2240 8a32 8bbf 3120 acbf 37f2 67bf
00000300: d243 893f 3350 c53f 52d4 0040 c226 d2bd
00000310: 5aa0 d23f f3a5 b0bf 8ca7 b53f 4123 0940
00000320: ce9b 1c3f 554d 29c0 89f0 d93f 3126 863f
00000330: ef15 e33f 30d0 e9bf ef12 903e c35a 123e
00000340: c42c 7abf 3a6e 33be fb6c 1240 c9a8 0cc0
00000350: ee85 9b3e 9be4 f33e 72fc d7bf e6e7 d9bf
00000360: 8eff 08bd bdf2 193f f961 e83e a7fb 09c0
00000370: e9b6 173f 589a 4abe 25f7 283f 4764 f93f
00000380: fac2 83bf 6f6d 883f 5184 7b3f 95c7 7040
00000390: 74c4 603f a2b3 f73f 4d1f 24be 3772 81c0
000003a0: 2f46 c13f ea05 01c0 820f fbbf b4a8 fe3f
000003b0: db2e abbd 9159 24bb 809a c23f 6cc3 d63f
000003c0: be1f c6bf 8c66 0140 1393 783f a2db 1cbf
000003d0: 3991 8fbd d14b f9bf f9fb 13bf 6df6 75bf
000003e0: ef0d 4cbf 40cc cb3e 01f5 1740 f7b6 00c0
000003f0: 775c b5bf e987 28bc 20fc e43e caf6 0440

net.2.bias f4 [128]
1.7844613 0.9209402 -0.35295272 -0.109531306 -0.098008275 -0.07390783 2.1789508 -0.11678304
-0.08630333 0.6921824 1.0892682 0.010030874 -0.1050112 0.030986069 0.021694038 0.9775414
1.1281726 -0.08961107 0.6293903 -0.080489695 -0.11987232 0.8393847 0.9759832 -0.09456541
1.3728521 0.76947284 -0.16406074 -0.119402766 -0.12330228 1.4233682 -0.0020232894 0.27042645
-0.050318263 1.4201559 0.77350134 -0.07257452 -0.008617592 -0.09107882 1.0461187 0.01650173
-0.107679285 -0.08656893 -0.13287741 -0.14520323 -0.07567513 -0.034281567 0.8654391 -0.1119528
0.21357688 -0.031954493 -0.07069626 0.04692441 0.01706149 -0.109262824 -0.11750514 -0.10031519
0.6318023 -0.11466161 0.010312612 -0.08868135 0.022734497 -0.1084444 -0.044025373 -0.10640998
1.2906226 0.5240487 -0.105476536 -0.7115971 -0.12527789 -0.046041366 -0.089023575 -0.091372535
0.88960755 -0.090896465 -0.06855746 -0.014599562 0.85004663 2.9005563 0.5727324 -0.03877775
-0.04694229 -0.09585547 2.563112 -0.073625274 0.9426627 -0.02971381 1.5763662 -0.06775094
-0.062013954 -0.030138409 0.7870137 0.7248879 -0.13303347 -0.1458014 1.0135982 -0.015672453
0.4852876 1.5484579 -0.09815494 2.6421356 0.85708493 -0.06772169 0.0033336938 0.5913075
-0.08301529 0.0073570656 -0.047315598 0.011128746 -0.081636965 0.03888145 -0.060788188 -0.13107719
-0.075797394 -0.07984518 -0.14786735 -0.064148985 -0.14444517 1.3312893 -0.11525126 2.9012415
1.2956312 0.96918327 0.09350318 -0.036371365 -0.11816693 -0.037713952 -0.118353635 0.026344312
00000000: 3a69 e43f bdc2 6b3f 38b6 b4be f351 e0bd
00000010: 90b8 c8bd fd5c 97bd ee73 0b40 f22b efbd
00000020: cdbf b0bd de32 313f 246d 8b3f 8958 243c
00000030: 1d10 d7bd 7fd6 fd3c b2b7 b13c 2740 7a3f
00000040: f667 903f 0286 b7bd b91f 213f c8d7 a4bd
00000050: 9e7f f5bd eae1 563f 09da 793f 82ab c1bd
00000060: 9eb9 af3f 2cfc 443f 8aff 27be 7089 f4bd
00000070: e885 fcbd ee30 b63f 2a99 04bb 5675 8a3e
00000080: 861a 4ebd abc7 b53f 2f04 463f f3a1 94bd
00000090: cd30 0dbc 8887 babd 38e7 853f a32e 873c
000000a0: f586 dcbd 0d4b b1bd 0411 08be 28b0 14be
000000b0: 90fb 9abd d46a 0cbd 6b8d 5d3f 8247 e5bd
000000c0: e6b3 5a3e b7e2 02bd 33c9 90bd cf33 403d
000000d0: 8ac4 8b3c 30c5 dfbd 89a6 f0bd 0d72 cdbd
000000e0: ccbd 213f b5d3 eabd 3bf6 283c 919e b5bd
000000f0: b23d ba3c 1918 debd f353 34bd 7aed d9bd
00000100: 1f33 a53f 0e28 063f 1504 d8bd 3a2b 36bf
00000110: d948 00be df95 3cbd fe51 b6bd 8621 bbbd
00000120: 52bd 633f ed27 babd db67 8cbd 0033 6fbc
00000130: a89c 593f b7a2 3940 979e 123f 6bd5 1ebd
00000140: 8f46 40bd df4f c4bd 070a 2440 d9c8 96bd
00000150: 5852 713f 606a f3bc 5ec6 c93f 01c1 8abd
00000160: 5802 7ebd d3e4 f6bc bb79 493f 4192 393f
00000170: ed39 08be f64c 15be 96bd 813f 8463 80bc
00000180: 9e77 f83e de33 c63f 7505 c9bd c018 2940
00000190: eb69 5b3f abb1 8abd 1a7a 5a3b ee5f 173f
000001a0: ec03 aabd 8a13 f13b 00ce 41bd 5855 363c
000001b0: 4831 a7bd 2842 1f3d 09fd 78bd 1939 06be
000001c0: aa3b 9bbd df85 a3bd 8a6a 17be 8b60 83bd
000001d0: 6fe9 13be b067 aa3f da08 ecbd f1ad 3940
000001e0: 3ed7 a53f 651c 783f 987e bf3d 24fa 14bd
000001f0: 8101 f2bd f279 1abd 6463 f2bd 07d0 d73c

net.4.weight f4 [13, 128]
1.0455426 2.3227339 0.1264426 -0.016369784 -0.05065449 -0.005627191 1.2306443 -0.004708384
0.0728379 2.4248114 2.3188097 -0.019591097 -0.023242377 0.017144186 0.07474671 2.1549487
1.6828285 -0.004409732 1.994254 0.067376845 0.026976546 2.584459 3.8512537 0.057765104
0.6517984 4.4513545 0.011806794 0.0051202215 -0.108695425 1.5109643 -0.031180752 -0.7323718
0.027435312 2.1515615 3.5203192 0.03892812 -0.14857942 0.0104212435 2.7584195 0.19101484
0.08725598 0.025388174 -0.027225114 -0.055495482 0.0060578864 -0.03172653 3.000395 -0.047041602
4.59398 0.11197491 -0.023096783 0.031002736 -0.016170166 -0.032863226 0.04179103 0.008947531
3.2726364 -0.07786103 -0.006854134 -0.033383332 0.039717253 -0.037013214 -0.17028183 -0.071231455
3.1442134 2.4224765 -0.0018418499 -1.4353932 0.038774714 0.12912948 0.0135992095 -0.05749011
2.9101527 -0.06870201 -0.10691948 0.041692294 3.372289 1.090409 3.389828 -0.012458229
0.030709043 0.14574929 1.2585703 0.04012761 2.6389358 0.02902584 1.0433328 -0.0002938062
0.11611879 -0.016086143 2.8043058 2.2265196 -0.04181588 0.13345736 3.4923556 -0.043224905
3.201108 1.8828851 -0.0257841 0.7916116 2.8143423 -0.047324613 0.040401746 3.3089635
-0.04806412 -0.039051626 -0.111434415 -0.037008744 0.04526921 0.056564663 -0.04995112 0.054009605
-0.028161252 0.12667194 0.42509815 0.055878535 0.06781047 1.8941929 -0.037007485 0.8401293
2.3443723 3.2533934 2.1765325 0.050326563 0.01320452 -0.0056299027 0.013285048 -0.053649966
1.2958244 2.35596 0.6419024 -0.048840124 -0.041308146 0.066337116 1.1225938 0.019776518
0.07503744 2.698123 1.9202677 -0.047150318 -0.083001815 0.028403264 0.020166537 2.2978597
1.5767711 0.11386695 1.9854809 -0.05780884 -0.04413621 2.5255647 3.3711584 -0.03539426
1.5485034 4.6780868 0.014807635 -0.043428622 -0.039609794 1.3567891 -0.0032888204 1.1270373
-0.015937043 2.4040291 3.8632853 -0.017591422 0.033338103 0.003959999 2.7106407 -0.33014485
0.013753185 -0.052756596 -0.018057177 -0.06460269 0.015491563 0.06274039 2.8228307 -0.015585999
4.4895906 -0.05322333 -0.09185793 -0.009545607 -0.035875924 -0.056757506 -0.0015652403 -0.08382577
3.802985 -0.05291879 -0.019600604 0.06592549 -0.04183597 -0.033400223 0.0012044878 0.071552895
3.074044 2.483867 -0.010349303 -1.6216971 -0.034429602 -0.052677605 -0.08678468 0.086528495
2.9183166 0.08067689 0.08912552 -0.06709048 3.7391639 0.93897223 3.1970978 0.13914138
0.038017638 -0.122835256 1.2711551 0.012024766 2.6931581 0.34446537 1.5967189 0.085869335
-0.0024654528 0.04246921 2.518155 2.401191 -0.023568276 -0.10142851 3.6893818 -0.106353305
2.6234906 1.4694301 -0.054050826 0.9871354 2.984577 0.030791081 -0.036070555 3.2706451
-0.10278409 -0.009617751 0.070243806 -0.023789294 -0.0029780488 -0.0338361 -0.041512962 -0.023962883
-0.007194645 -0.012920466 -0.0020762603 0.018125422 -0.0358174 1.73406 0.039431937 0.8988303
1.9320873 3.1795366 0.7003324 -0.018129418 0.0027976334 -0.11878374 0.08091993 0.015216934
00000000: 57d4 853f aca7 1440 2b7a 013e ed19 86bc
00000010: 157b 4fbd 4d64 b8bb c185 9d3f ca48 9abb
00000020: 092c 953d 1c30 1b40 6167 1440 827d a0bc
00000030: cc66 bebc f771 8c3c ce14 993d aeea 0940
00000040: ed66 d73f 837f 90bb b743 ff3f dffc 893d
00000050: ebfd dc3c c767 2540 f17a 7640 1a9b 6c3d
00000060: 43dc 263f 7f71 8e40 4971 413c 88c7 a73b
00000070: b59b debd 4767 c13f c76e ffbc b87c 3bbf
00000080: 05c0 e03c 2fb3 0940 e94c 6140 1873 1f3d
00000090: 3425 18be ddbd 2a3c f289 3040 6599 433e
000000a0: 43b3 b23d dcfa cf3c 3407 dfbc 3b4f 63bd
000000b0: 3c81 c63b aef3 01bd 7906 4040 b2ae 40bd
000000c0: e201 9340 1a53 e53d 7735 bdbc 73f9 fd3c
000000d0: 4c77 84bc 979b 06bd 122d 2b3d aa98 123c
000000e0: e072 5140 9b75 9fbd a598 e0bb f6bc 08bd
000000f0: 8fae 223d 2b9b 17bd 5c5e 2ebe cce1 91bd
00000100: cb3a 4940 db09 1b40 3a6a f1ba f7ba b7bf
00000110: 3cd2 1e3d 853a 043e 38cf 5e3c c07a 6bbd
00000120: f13f 3a40 a4b3 8cbd 9af8 dabd 8ac5 2a3d
00000130: 95d3 5740 8692 8b3f f1f2 5840 9a1d 4cbc
00000140: 8891 fb3c 4d3f 153e d518 a13f d95c 243d
00000150: 53e4 2840 99c7 ed3c ee8b 853f 000a 9ab9
00000160: b0cf ed3d 16c7 83bc bf79 3340 4c7f 0e40
00000170: 2147 2bbd 0ca9 083e c182 5f40 990c 31bd
00000180: f4de 4c40 6102 f13f 2d39 d3bc 0fa7 4a3f
00000190: 2f1e 3440 74d7 41bd 4d7c 253d 0fc6 5340
000001a0: e2de 44bd 99f4 1fbd ba37 e4bd 7b96 17bd
000001b0: 356c 393d 59b0 673d 8c99 4cbd 2d39 5d3d
000001c0: 6db2 e6bc 4ab6 013e 77a6 d93e e4e0 643d
000001d0: 37e0 8a3d ea74 f23f 2995 17bd b712 573f
000001e0: 320a 1640 9937 5040 4f4c 0b40 3a23 4e3d
000001f0: c557 583c 0c7b b8bb 88a9 593c 11c0 5bbd
00000200: 93dd a53f 0cc8 1640 b753 243f 950c 48bd
00000210: bb32 29bd c1db 873d 27b1 8f3f 5d02 a23c
00000220: 3bad 993d 0cae 2c40 55cb f53f b120 41bd
00000230: dbfc a9bd f6ad e83c 4b34 a53c 2210 1340
00000240: a3d3 c93f 1333 e93d 3d24 fe3f f6c8 6cbd
00000250: 2cc8 34bd daa2 2140 0fc1 5740 92f9 10bd
00000260: 5c35 c63f e3b2 9540 b99b 723c 36e2 31bd
00000270: e13d 22bd 44ab ad3f 4089 57bb c242 903f
00000280: 678e 82bc 9ddb 1940 1140 7740 e31b 90bc
00000290: 898d 083d e1c2 813b 237b 2d40 bf08 a9be
000002a0: 0a55 613c 4d17 58bd a5ec 93bc 6a4e 84bd
000002b0: 53d0 7d3c 097e 803d 42a9 3440 6b5c 7fbc
000002c0: baaa 8f40 b500 5abd 0320 bcbd 2d65 1cbc
000002d0: a2f2 12bd 8f7a 68bd c028 cdba d8ac abbd
000002e0: 1b64 7340 60c1 58bd 7291 a0bc f103 873d
000002f0: 325c 2bbd acce 08bd e7df 9d3a 538a 923d
00000300: 23bd 4440 adf7 1e40 1f90 29bc c593 cfbf
00000310: 0e06 0dbd 79c4 57bd 2bbc b1bd da35 b13d
00000320: b3c5 3a40 ed39 a53d 7187 b63d bc66 89bd
00000330: 764e 6f40 7c60 703f 409d 4c40 147b 0e3e
00000340: 62b8 1b3d 0d91 fbbd 36b5 a23f 8603 453c
00000350: b45c 2c40 c45d b03e 4961 cc3f 43dc af3d
00000360: 6f93 21bb 32f4 2d3d 7429 2140 1dad 1940
00000370: 4212 c1bc c0b9 cfbd d51e 6c40 c3cf d9bd
00000380: 45e7 2740 4916 bc3f 6664 5dbd e8b4 7c3f
00000390: 4f03 3f40 943d fc3c b8be 13bd 4052 5140
000003a0: 7780 d2bd c693 1dbc fcdb 8f3d c4e1 c2bc
000003b0: 5e2b 43bb b997 0abd 7f09 2abd cf4d c4bc
000003c0: 0ec1 ebbb 5db0 53bc de11 08bb c47b 943c
000003d0: 44b5 12bd aef5 dd3f 6283 213d be19 663f
000003e0: a34e f73f 877d 4b40 fc48 333f 2584 94bc
000003f0: 8058 373b e444 f3bd 59b9 a53d 7250 793c

net.4.bias f4 [13]
1.5300182 1.6380948 1.5480996 1.2012757 1.9224331 1.7323022 1.6119063 2.0102935
1.3079265 1.5692658 1.1749243 1.2278447 1.2160914
00000000: a3d7 c33f 17ad d13f 2128 c63f 67c3 993f
00000010: 4a12 f63f 14bc dd3f f252 ce3f a6a8 0040
00000020: 236a a73f b4dd c83f eb63 963f 042a 9d3f
00000030: e2a8 9b3f

net.0.weight f4 [128, 45]
-0.26178914 -0.11244794 -0.33579227 0.47890314 0.31627387 -0.7584934 -0.753454 0.18344943
-0.5674222 -0.66627216 0.093658105 -0.3710283 0.04528771 -0.262581 0.2208566 -0.84049666
0.059141073 -0.39100343 0.88464695 0.40373766 0.5585978 -1.7740612 0.42077821 -1.1973894
0.5236841 0.4910715 0.4406506 1.0033301 -0.44187602 -0.2714997 -1.1987885 -1.3330238
-0.2559225 -0.70760477 -0.7445111 -0.5750998 0.50310826 -0.4420433 0.5147927 -0.88151497
-1.3692988 -0.7906385 -0.6747813 -0.11306512 0.12149609 -0.21957774 -0.047798336 -1.5354874
0.56019276 0.18167987 -0.6483394 -0.69153005 -1.6013036 0.9587969 -0.2264771 -2.1834922
1.1001877 -0.12879355 0.9248025 0.67162436 1.1892549 -1.0666164 1.5566934 0.1412731
0.4757013 -0.7444985 -1.602384 -0.6336748 0.30475453 -0.993489 0.27204165 -1.561953
1.6747572 -0.42607445 0.5624781 1.0589303 0.22686078 1.0667819 -1.6290647 -0.27613708
-0.17714928 1.6347284 0.21202236 -0.3453509 -1.8995087 -1.4410129 -0.2500289 -0.037276335
0.39794326 0.42694378 1.1290723 0.70511544 0.32140842 -0.023516938 -0.24982785 0.31222266
0.032042857 0.13405232 0.23774205 -0.12752321 0.17783575 -0.3265468 -0.20935315 -0.089370795
0.15069273 -0.19713686 0.33063638 -0.18962908 0.00044734034 0.29932222 1.2375212 -0.72982967
0.5759341 -0.25599554 -0.5292131 0.6996502 0.4627507 -0.184659 0.34760723 0.27431417
-0.0601125 -0.29212502 -0.5625082 -0.36176273 0.38623306 0.61161184 -1.1359873 -0.2627997
-0.16995081 0.41370648 0.4222412 -0.022400627 -0.097142816 0.059806995 -0.026065119 -0.12212997
-0.27331153 -0.14315708 0.06186916 -0.03607721 -0.07236623 0.040986557 0.059940744 0.02566594
-0.082919896 -0.03106675 0.046863884 0.109563895 0.066576615 -0.019628465 -0.017504852 -0.13056234
-0.12651412 0.044754222 -0.12543121 -0.070776634 -0.06999343 0.060583763 0.06605808 -0.040372882
0.072961554 -0.009539094 -0.02012718 -0.13275379 0.04560872 -0.08220099 -0.04641477 -0.012616382
-0.07305015 -0.055532068 0.06757019 -0.15227276 -0.09221105 0.066064864 -0.12412416 0.042160425
0.109904885 0.04203934 0.115254745 -0.028673092 0.28087026 0.041233376 -1.0197012 0.10510381
-1.9134475 -0.45764372 0.07470866 1.3783033 -2.2503514 -1.0368772 0.6462634 0.4935365
-0.013634366 -0.093627095 -0.49126416 2.0903015 2.0049644 -0.16162686 0.9222286 -0.21817937
0.050838407 -0.11599765 1.5102222 -0.33106828 0.049323652 0.3224733 0.28702253 -0.75358284
0.13551843 0.7575216 0.090481155 -1.6749845 0.7940034 0.011115833 0.5252548 -0.3777102
-1.1390648 -1.4683955 0.22123694 -0.30935904 0.28570434 0.2420398 -0.2998895 0.8626009
-1.8517181 0.48553512 -0.33971766 -0.5463072 -0.6709511 0.20464544 1.2593505 0.3328269
0.42002112 0.061631233 -1.1113166 -0.5832376 -1.2235383 1.2163694 -0.23832116 -0.09132813
0.6015664 0.5611558 1.5095716 0.40035066 0.4781289 1.0864105 -1.4175289 1.3720509
-0.008757142 -0.014772533 0.2313357 -0.017928123 1.7210188 1.1461993 -0.1765181 -0.80358213
00000000: 3a09 86be 1b4b e6bd f7ec abbe cb32 f53e
00000010: a6ee a13e a02c 42bf 5de2 40bf 2bda 3b3e
00000020: 9542 11bf d090 2abf d2cf bf3d 6cf7 bdbe
00000030: 9b7f 393d 0471 86be 3c28 623e ca2a 57bf
00000040: e93d 723d 9a31 c8be 3978 623f b4b6 ce3e
00000050: 4400 0f3f 7014 e3bf 3e70 d73e 0e44 99bf
00000060: 2910 063f b96d fb3e f59c e13e 1f6d 803f
00000070: 933d e2be 0202 8bbe e771 99bf 86a0 aabf
00000080: 4608 83be 9625 35bf 4898 3ebf be39 13bf
00000090: b4cb 003f 8053 e2be 74c9 033f f7aa 61bf
000000a0: 2f45 afbf 4967 4abf 78be 2cbf b08e e7bd
000000b0: f1d2 f83d fdd8 60be 30c8 43bd da8a c4bf
000000c0: cb68 0f3f 4a0a 3a3e 92f9 25bf 1d08 31bf
000000d0: 84f7 ccbf b773 753f 9de9 67be 56be 0bc0
000000e0: f3d2 8c3f 75e2 03be dbbf 6c3f 93ef 2b3f
000000f0: 8139 983f e386 88bf bb41 c73f e5a9 103e
00000100: 1f8f f33e 7497 3ebf eb1a cdbf 8338 22bf
00000110: c908 9c3e 4c55 7ebf 0b49 8b3e 13ee c7bf
00000120: 725e d63f 6e26 dabe 91fe 0f3f 078b 873f
00000130: 314e 683e 4f8c 883f 3185 d0bf d761 8dbe
00000140: 9f66 35be c83e d13f 641c 593e d5d1 b0be
00000150: 1a23 f3bf 1c73 b8bf ca03 80be 12af 18bd
00000160: 38bf cb3e 6098 da3e 7185 903f 7282 343f
00000170: a58f a43e 98a6 c0bc dfd2 7fbe a6db 9f3e
00000180: 5f3f 033d 0345 093e a772 733e 7295 02be
00000190: 931a 363e 2431 a7be ac60 56be 0908 b7bd
000001a0: 324f 1a3e 3fde 49be 2c49 a93e 202e 42be
000001b0: 0189 ea39 c340 993e 1867 9e3f 1ed6 3abf
000001c0: 6b70 133f d911 83be 827a 07bf 471c 333f
000001d0: a9ed ec3e 4017 3dbe 93f9 b13e e872 8c3e
000001e0: 8638 76bd 6991 95be 8a00 10bf f738 b9be
000001f0: 57c0 c53e 9892 1c3f 0868 91bf af8d 86be
00000200: 9607 2ebe 56d1 d33e 0030 d83e 8581 b7bc
00000210: d0f2 c6bd 2ef8 743d 8486 d5bc 471f fabd
00000220: 7def 8bbe c597 12be 846a 7d3d b2c5 13bd
00000230: bf34 94bd 85e1 273d 6d84 753d 6141 d23c
00000240: e8d1 a9bd b27f febc 58f4 3f3d 0963 e03d
00000250: 5259 883d e0cb a0bc 5666 8fbc 22b2 05be
00000260: eb8c 01be 3450 373d 0a71 00be 57f3 90bd
00000270: b758 8fbd ae26 783d 7549 873d 095e 25bd
00000280: de6c 953d dc49 1cbc c1e1 a4bc 9cf0 07be
00000290: 36d0 3a3d fe58 a8bd 6a1d 3ebd f1b4 4ebc
000002a0: 519b 95bd 9875 63bd 3d62 8a3d 64ed 1bbe
000002b0: 26d9 bcbd 044d 873d cf34 febd 69b0 2c3d
000002c0: d015 e13d 7131 2c3d ae0a ec3d d5e3 eabc
000002d0: 3ace 8f3e 54e4 283d 9285 82bf ab40 d73d
000002e0: d9eb f4bf 4750 eabe db00 993d 3e6c b03f
000002f0: c205 10c0 64b8 84bf 8571 253f d1b0 fc3e
00000300: ad62 5fbc 90bf bfbd fa86 fbbe 80c7 0540
00000310: 5651 0040 8381 25be 2c17 6c3f 6a6a 5fbe
00000320: ef3b 503d 2d90 edbd f64e c13f c881 a9be
00000330: 9907 4a3d 381b a53e 9ef4 923e ceea 40bf
00000340: 58c5 0a3e f0ec 413f 2f4e b93d e465 d6bf
00000350: cf43 4b3f 2f1f 363c 1977 063f 3b63 c1be
00000360: e0cc 91bf 62f4 bbbf f08b 623e 4f64 9ebe
00000370: d747 923e 48d9 773e 1e8b 99be 6ad3 5c3f
00000380: 1905 edbf 0f98 f83e 79ef adbe cada 0bbf
00000390: 74c3 2bbf 938e 513e 6632 a13f 4a68 aa3e
000003a0: 020d d73e 0871 7c3d 9f3f 8ebf 0f4f 15bf
000003b0: e79c 9cbf feb1 9b3f 760a 74be 3e0a bbbd
000003c0: 4100 1a3f e8a7 0f3f a439 c13f c3fa cc3e
000003d0: 50cd f43e 800f 8b3f 9671 b5bf 5d9f af3f
000003e0: 1e7a 0fbc 7f08 72bc 44e3 6c3e 00de 92bc
000003f0: 584a dc3f a9b6 923f 29c1 34be 8fb7 4dbf

net.0.bias f4 [128]
0.005134878 0.03656285 1.3811582 -0.25747398 0.061040707 0.184827 -0.01665902 0.476688
-0.4999688 -0.43824092 0.5713346 0.0961422 0.07417203 0.08431202 0.59789586 0.1443477
0.6421158 -0.15994053 0.16301721 1.4271431 -0.100418635 0.012151938 -0.44901285 0.88077474
-0.22477224 0.79977196 0.9402696 0.5278379 0.059282795 0.62886393 -0.25787947 -0.56022507
0.34418857 0.116369106 -0.77134615 0.29149684 0.2608845 -0.35480782 -0.49225187 0.36432818
0.3369819 0.41623908 -0.17268986 0.5492338 1.0687604 -0.28338566 1.2712482 0.5368394
0.15140656 0.1327937 -0.19321808 -0.18437773 0.28488496 0.9396598 0.37503827 -0.0141712725
-0.26349884 -0.35133758 -0.33219558 0.18766369 0.45762822 -0.3631099 0.27279812 -0.05610414
0.29698768 -0.5914431 0.9996113 0.1441621 0.8037926 -0.16716492 0.36271873 -0.5239156
0.69698286 -0.16553293 -0.17382528 0.71687776 -0.022009637 0.2892743 1.1636571 1.2473474
-0.079374574 -0.05794758 0.2643697 -0.23593742 1.0691603 0.90170366 0.11022213 0.18731087
-0.28527734 0.26229793 0.30477312 -0.043074142 1.4968022 1.2389708 -0.9074893 0.33114395
-0.38076085 0.5628037 0.2542538 -0.093020216 0.6611524 0.52173966 0.4520868 -0.25421116
0.15877795 -0.10926334 0.27274907 1.0936012 0.44164607 -0.2954413 0.37480694 0.8838605
0.09465433 -0.30795577 0.8613317 0.1375991 -0.28524283 0.24719231 0.09935411 0.22573334
0.35670605 -0.0038447 -0.18279058 0.51636755 -0.36237055 1.3948336 0.43338448 -0.26266384
00000000: 7b42 a83b edc2 153d cbc9 b03f a1d3 83be
00000010: d205 7a3d 4a43 3d3e 7f78 88bc 7310 f43e
00000020: e9fb ffbe 1d61 e0be fc42 123f 34e6 c43d
00000030: 81e7 973d c8ab ac3d b40f 193f e2cf 133e
00000040: b361 243f 73c7 23be fced 263e a0ac b63f
00000050: 49a8 cdbd ec18 473c 03e5 e5be 747a 613f
00000060: b22a 66be dbbd 4c3f 82b5 703f 6220 073f
00000070: 84d2 723d 3afd 203f c708 84be e96a 0fbf
00000080: 7c39 b03e ed52 ee3d f176 45bf 133f 953e
00000090: a792 853e 5fa9 b5be 7008 fcbe 3989 ba3e
000000a0: e488 ac3e 4a1d d53e 9cd5 30be 969a 0c3f
000000b0: 24cd 883f ed17 91be 43b8 a23f 4f6e 093f
000000c0: 520a 1b3e 12fb 073e f6da 45be 84cd 3cbe
000000d0: 71dc 913e 8b8d 703f 0405 c03e a02e 68bc
000000e0: 52e9 86be 85e2 b3be 8a15 aabe e92a 403e
000000f0: 3f4e ea3e 8ae9 b9be 32ac 8b3e 74cd 65bd
00000100: c50e 983e d168 17bf 87e6 7f3f 3b9f 133e
00000110: 5ac5 4d3f 482d 2bbe 45b6 b93e 551f 06bf
00000120: 786d 323f 7781 29be 41ff 31be 4d85 373f
00000130: 8e4d b4bc c31b 943e b7f2 943f 14a9 9f3f
00000140: 238f a2bd 715a 6dbd 775b 873e 9499 71be
00000150: 3fda 883f 0dd6 663f 24bc e13d 6cce 3f3e
00000160: df0f 92be ea4b 863e 390b 9c3e 836e 30bd
00000170: 3797 bf3f 9896 9e3f 3851 68bf b38b a93e
00000180: 16f3 c2be e713 103f 8e2d 823e 6281 bebd
00000190: 4941 293f bb90 053f ec77 e73e f727 82be
000001a0: b096 223e 75c5 dfbd c4a5 8b3e 20fb 8b3f
000001b0: 6f1f e23e 1544 97be b2e6 bf3e af44 623f
000001c0: 21da c13d 61ac 9dbe 3c80 5c3f c7e6 0c3e
000001d0: 590b 92be fb1f 7d3e 2b7a cb3d a426 673e
000001e0: 2da2 b63e 5df7 7bbb 742d 3bbe aa30 043f
000001f0: a288 b9be e889 b23f 92e4 dd3e e07b 86be

net.2.weight f4 [128, 128]
1.1126537 -0.4751613 0.7290606 -0.08224073 -1.0935141 0.95610523 -0.10005559 -0.56669074
-2.1507845 -1.7269595 1.3454652 -0.3030249 -0.4615328 0.30752826 2.8830268 -0.21799101
0.26511717 -0.33323976 -1.8380859 0.49881378 2.3799264 0.28864217 -0.86725163 1.395092
0.037973676 1.3478682 1.1228882 0.05234904 -0.96520936 0.1599992 0.054884586 -1.2910529
2.1202986 -0.3826962 -0.5699282 -0.5746918 -2.0324237 -1.3570526 -0.5773282 2.3233104
-1.2024088 -0.8866726 -2.794632 0.8248846 0.8447909 0.841397 0.37282398 1.4618784
-1.7765034 0.22691804 -0.50187576 0.081992775 0.16552812 0.7086372 -0.0024303058 -1.25515
2.2396014 -0.9361948 -0.034945786 -0.4587983 0.37562835 -2.8055782 -2.8653877 -1.3633975
0.6175938 1.713669 1.9185466 0.4772865 1.7034912 -1.8423715 0.19719753 1.5377825
0.5029222 -1.147849 0.09205943 0.6974373 -0.4815298 -1.248538 0.4358212 0.5792385
-0.59042335 0.7871336 -0.15201151 -0.487671 1.9201504 -0.21842194 -0.8987946 0.045760218
-0.110453196 1.7900167 -0.13021037 -0.579384 0.5501058 0.8404438 -1.6922445 1.3506788
-1.6751107 -0.34012955 1.1915799 2.5397449 -0.21385717 0.7702303 0.45878735 -3.323701
0.7092985 -1.6817782 -0.06345965 2.7021103 -0.76470953 -0.97069955 1.2165856 1.4424706
-0.20377137 0.46596003 0.7965261 -0.47678766 0.027733756 1.8502762 0.58253574 0.52636236
0.483509 -0.2668141 0.88952994 -0.2336256 -0.83833325 0.48850077 0.25585422 1.1948447
0.7509176 -1.9601995 0.62430084 -0.035644457 -0.6232885 -0.14598586 -0.24971676 0.07408626
-3.1739314 -1.9993993 1.5614045 -1.6518698 0.0997394 1.1040748 3.4234204 -1.5373356
0.4922641 0.09648501 -0.7488742 0.16094734 3.1073499 -1.1142097 -3.1782248 -0.4005441
-0.10928681 -0.5690017 -0.5601883 1.0188581 -1.2219055 -2.413437 -0.050368257 -0.83003813
1.6463196 1.2276844 -0.776442 -6.1824007 -1.6508156 -3.3497672 0.37807432 1.3696567
-4.048789 -2.841061 -2.9293175 0.9464522 0.060801677 1.487473 -0.5960737 2.055523
-1.2290348 0.07295338 0.029038073 -0.028816424 2.374582 -0.19835138 -0.013818932 0.28258765
2.3653033 -0.6417801 -0.06358644 -0.6620788 2.5394225 -1.089384 -1.3461783 -0.9046503
1.0741409 1.5432196 2.0128152 -0.101879545 1.6455767 -1.3765147 1.4193306 2.144646
0.6129051 -2.6467512 1.7027484 1.0513561 1.7714899 -1.8237565 0.28022772 0.14245875
-0.9779592 -0.1752029 2.2847672 -2.199268 0.30455166 0.47719577 -1.6854529 -1.6978515
-0.03344684 0.60165846 0.45195058 -2.1570015 0.59235775 -0.19714889 0.66211057 1.9414512
-1.0293883 1.0643331 0.9811184 3.7616084 0.8774474 1.9327327 -0.15957941 -4.039735
1.5093927 -2.01531 -1.9609897 1.9877807 -0.08515414 -0.003031933 1.5243851 1.6791759
-1.5508125 2.0211587 0.9694292 -0.61581105 -0.07010121 -1.9422537 -0.57698196 -0.961713
-0.79707605 0.39882773 2.3735476 -2.0116177 -1.4202826 -0.009653464 0.44942304 2.0842288
00000000: 706b 8e3f 5848 f3be b7a3 3a3f d46d a8bd
00000010: 45f8 8bbf 50c3 743f f2e9 ccbd a512 11bf
00000020: 74a6 09c0 020d ddbf 3438 ac3f 1426 9bbe
00000030: 074e ecbe 5874 9d3e 8383 3840 0939 5fbe
00000040: 70bd 873e 679e aabe 6646 ebbf 8564 ff3e
00000050: b750 1840 e8c8 933e 3404 5ebf 6092 b23f
00000060: 498a 1b3d f286 ac3f cdba 8f3f f26b 563d
00000070: f617 77bf d5d6 233e a9ce 603d 3941 a5bf
00000080: f9b2 0740 c2f0 c3be d1e6 11bf 001f 13bf
00000090: 3b13 02c0 e6b3 adbf c8cb 13bf 1eb1 1440
000000a0: 88e8 99bf fafc 62bf 40db 32c0 a32b 533f
000000b0: 3744 583f cb65 573f c9e2 be3e d51e bb3f
000000c0: 7764 e3bf 345d 683e ee7a 00bf d4eb a73d
000000d0: 3480 293e 3f69 353f c445 1fbb c1a8 a0bf
000000e0: a155 0f40 76aa 6fbf 5023 0fbd 9ce7 eabe
000000f0: 5c52 c03e 988e 33c0 8362 37c0 cf83 aebf
00000100: a11a 1e3f 8159 db3f ef92 f53f e55e f43e
00000110: 000c da3f d4d2 ebbf 26ee 493e 0fd6 c43f
00000120: 82bf 003f b7ec 92bf a889 bc3d 408b 323f
00000130: 138b f6be 18d0 9fbf f523 df3e f948 143f
00000140: fc25 17bf 9681 493f e8a8 1bbe 03b0 f9be
00000150: 7dc7 f53f 00aa 5fbe 6717 66bf 116f 3b3d
00000160: 4935 e2bd 441f e53f de55 05be 8352 14bf
00000170: bcd3 0c3f 5327 573f 789b d8bf 0be3 ac3f
00000180: 076a d6bf 7625 aebe b185 983f 2e8b 2240
00000190: 60fd 5abe d02d 453f 2de6 ea3e 84b7 54c0
000001a0: 9694 353f 8244 d7bf 22f7 81bd 60ef 2c40
000001b0: 01c4 43bf c47f 78bf 14b9 9b3f e0a2 b83f
000001c0: 71a9 50be 5092 ee3e 22e9 4b3f 831d f4be
000001d0: e731 e33c dad5 ec3f 1021 153f afbf 063f
000001e0: 7e8e f73e dc9b 88be 3cb8 633f 8d3b 6fbe
000001f0: 029d 56bf c61c fa3e 53ff 823e acf0 983f
00000200: 233c 403f d1e7 fabf 2ed2 1f3f ecff 11bd
00000210: d68f 1fbf 517d 15be c0b5 7fbe 89ba 973d
00000220: b121 4bc0 51ec ffbf 1adc c73f 7870 d3bf
00000230: 2c44 cc3d 5352 8d3f 5219 5b40 6ac7 c4bf
00000240: 0a0a fc3e ef99 c53d 38b6 3fbf 61cf 243e
00000250: d2de 4640 6c9e 8ebf 0968 4bc0 1e14 cdbe
00000260: c3d1 dfbd 18aa 11bf 8068 0fbf f169 823f
00000270: 6667 9cbf c075 1ac0 f24e 4ebd 617d 54bf
00000280: 9aba d23f c324 9d3f e7c4 46bf 3ad6 c5c0
00000290: ed4d d3bf 9662 56c0 f592 c13e e950 af3f
000002a0: ae8f 81c0 f2d3 35c0 f079 3bc0 b14a 723f
000002b0: 2e0b 793d 8465 be3f 4998 18bf b08d 0340
000002c0: 0351 9dbf 9568 953d 41e1 ed3c 6c10 ecbc
000002d0: 27f9 1740 a01c 4bbe cd68 62bc 54af 903e
000002e0: 2161 1740 b34b 24bf 9c39 82bd ff7d 29bf
000002f0: e685 2240 ef70 8bbf 924f acbf 2997 67bf
00000300: 737d 893f 3888 c53f f7d1 0040 39a6 d0bd
00000310: 42a2 d23f a231 b0bf a0ac b53f e141 0940
00000320: 59e7 1c3f 5f64 29c0 a9f3 d93f d692 863f
00000330: 2ec0 e23f da70 e9bf 027a 8f3e b5e0 113e
00000340: 895b 7abf 6468 33be a039 1240 cfc0 0cc0
00000350: 32ee 9b3e 0153 f43e ecbc d7bf 3353 d9bf
00000360: 8eff 08bd 4a06 1a3f 1166 e73e 500c 0ac0
00000370: c2a4 173f 66e1 49be 1480 293f 7981 f83f
00000380: ffc2 83bf 113c 883f 932a 7b3f 31be 7040
00000390: 65a0 603f c963 f73f c968 23be 8245 81c0
000003a0: c833 c13f d7fa 00c0 b601 fbbf 996f fe3f
000003b0: 4b65 aebd 65b3 46bb 0d1f c33f 3cef d63f
000003c0: 0681 c6bf aa5a 0140 832c 783f cba5 1dbf
000003d0: 3991 8fbd c59b f8bf 17b5 13bf d332 76bf
000003e0: 2d0d 4cbf 2633 cc3e 34e8 1740 58be 00c0
000003f0: d2cb b5bf 9029 1ebc c71a e63e 0164 0540

net.2.bias f4 [128]
1.7829427 0.9210126 -0.35295272 -0.109531306 -0.098008275 -0.07390783 2.1765468 -0.11678304
-0.08630333 0.6921404 1.0881512 0.010030874 -0.1050112 0.030986069 0.021694038 0.9727442
1.1245484 -0.08961107 0.6270041 -0.080489695 -0.11987232 0.8344783 0.97934675 -0.09456541
1.368797 0.7709385 -0.16406074 -0.119402766 -0.12330228 1.4219146 -0.0020232894 0.27023575
-0.050318263 1.4170784 0.7729068 -0.07257452 -0.008617592 -0.09107882 1.0430032 0.01650173
-0.107679285 -0.08656893 -0.13287741 -0.14520323 -0.07567513 -0.034281567 0.8651652 -0.1119528
0.2147456 -0.031954493 -0.07069626 0.04692441 0.01706149 -0.109262824 -0.11750514 -0.10031519
0.63331074 -0.11466161 0.010312612 -0.08868135 0.022734497 -0.1084444 -0.044025373 -0.10640998
1.2907114 0.52489275 -0.105476536 -0.7136637 -0.12527789 -0.046041366 -0.089023575 -0.091372535
0.89301276 -0.090896465 -0.06855746 -0.014599562 0.8509114 2.8979957 0.57040495 -0.03877775
-0.04694229 -0.09585547 2.5609536 -0.073625274 0.93984425 -0.02971381 1.5736554 -0.06775094
-0.062013954 -0.030138409 0.7848158 0.72119135 -0.13303347 -0.1458014 1.0109212 -0.015672453
0.48299292 1.5456456 -0.09815494 2.640158 0.85701513 -0.06772169 0.0033336938 0.59016913
-0.08301529 0.0073570656 -0.047315598 0.011128746 -0.081636965 0.03888145 -0.060788188 -0.13107719
-0.075797394 -0.07984518 -0.14786735 -0.064148985 -0.14444517 1.3291534 -0.11525126 2.8990703
1.2933776 0.9723014 0.0912691 -0.036371365 -0.11816693 -0.037713952 -0.118353635 0.026344312
00000000: 7737 e43f 7bc7 6b3f 38b6 b4be f351 e0bd
00000010: 90b8 c8bd fd5c 97bd 8b4c 0b40 f22b efbd
00000020: cdbf b0bd 1d30 313f 8a48 8b3f 8958 243c
00000030: 1d10 d7bd 7fd6 fd3c b2b7 b13c c405 793f
00000040: 34f1 8f3f 0286 b7bd 5783 203f c8d7 a4bd
00000050: 9e7f f5bd 5fa0 553f 78b6 7a3f 82ab c1bd
00000060: bd34 af3f 3a5c 453f 8aff 27be 7089 f4bd
00000070: e885 fcbd 4c01 b63f 2a99 04bb 575c 8a3e
00000080: 861a 4ebd d362 b53f 38dd 453f f3a1 94bd
00000090: cd30 0dbc 8887 babd 2181 853f a32e 873c
000000a0: f586 dcbd 0d4b b1bd 0411 08be 28b0 14be
000000b0: 90fb 9abd d46a 0cbd 777b 5d3f 8247 e5bd
000000c0: 45e6 5b3e b7e2 02bd 33c9 90bd cf33 403d
000000d0: 8ac4 8b3c 30c5 dfbd 89a6 f0bd 0d72 cdbd
000000e0: a720 223f b5d3 eabd 3bf6 283c 919e b5bd
000000f0: b23d ba3c 1918 debd f353 34bd 7aed d9bd
00000100: 0836 a53f 5f5f 063f 1504 d8bd aab2 36bf
00000110: d948 00be df95 3cbd fe51 b6bd 8621 bbbd
00000120: 7c9c 643f ed27 babd db67 8cbd 0033 6fbc
00000130: 54d5 593f c378 3940 0f06 123f 6bd5 1ebd
00000140: 8f46 40bd df4f c4bd aae6 2340 d9c8 96bd
00000150: a299 703f 606a f3bc 8a6d c93f 01c1 8abd
00000160: 5802 7ebd d3e4 f6bc b0e9 483f ff9f 383f
00000170: ed39 08be f64c 15be de65 813f 8463 80bc
00000180: d94a f73e b7d7 c53f 7505 c9bd 59f8 2840
00000190: 5865 5b3f abb1 8abd 1a7a 5a3b 5315 173f
000001a0: ec03 aabd 8a13 f13b 00ce 41bd 5855 363c
000001b0: 4831 a7bd 2842 1f3d 09fd 78bd 1939 06be
000001c0: aa3b 9bbd df85 a3bd 8a6a 17be 8b60 83bd
000001d0: 6fe9 13be b321 aa3f da08 ecbd 5e8a 3940
000001e0: 668d a53f bfe8 783f 4beb ba3d 24fa 14bd
000001f0: 8101 f2bd f279 1abd 6463 f2bd 07d0 d73c

net.4.weight f4 [13, 128]
1.0491453 2.3217535 0.1264426 -0.016369784 -0.05065449 -0.005627191 1.2261509 -0.004708384
0.0728379 2.4267788 2.3192406 -0.019591097 -0.023242377 0.017144186 0.07474671 2.1561475
1.6879069 -0.004409732 1.977436 0.067376845 0.026976546 2.5928905 3.8510284 0.057765104
0.65318125 4.4499674 0.011806794 0.0051202215 -0.108695425 1.5130758 -0.031180752 -0.7294318
0.027435312 2.158349 3.5210595 0.03892812 -0.14857942 0.0104212435 2.7656806 0.19101484
0.08725598 0.025388174 -0.027225114 -0.055495482 0.0060578864 -0.03172653 3.0098052 -0.047041602
4.597003 0.11197491 -0.023096783 0.031002736 -0.016170166 -0.032863226 0.04179103 0.008947531
3.2723696 -0.07786103 -0.006854134 -0.033383332 0.039717253 -0.037013214 -0.17028183 -0.071231455
3.15206 2.419233 -0.0018418499 -1.4362764 0.038774714 0.12912948 0.0135992095 -0.05749011
2.9106984 -0.06870201 -0.10691948 0.041692294 3.3738053 1.0869333 3.3947866 -0.012458229
0.030709043 0.14574929 1.2560577 0.04012761 2.642267 0.02902584 1.0499709 -0.0002938062
0.11611879 -0.016086143 2.8143146 2.223935 -0.04181588 0.13345736 3.5012982 -0.043224905
3.211562 1.8765974 -0.0257841 0.78842735 2.8120043 -0.047324613 0.040401746 3.320714
-0.04806412 -0.039051626 -0.111434415 -0.037008744 0.04526921 0.056564663 -0.04995112 0.054009605
-0.028161252 0.12667194 0.42509815 0.055878535 0.06781047 1.8941507 -0.037007485 0.83674246
2.3492982 3.256351 2.1837661 0.050326563 0.01320452 -0.0056299027 0.013285048 -0.053649966
1.2955571 2.3562608 0.6419024 -0.048840124 -0.041308146 0.066337116 1.1259848 0.019776518
0.07503744 2.697287 1.9217759 -0.047150318 -0.083001815 0.028403264 0.020166537 2.2936757
1.5756428 0.11386695 1.9923068 -0.05780884 -0.04413621 2.5253255 3.3665223 -0.03539426
1.5453317 4.673159 0.014807635 -0.043428622 -0.039609794 1.3561646 -0.0032888204 1.1273866
-0.015937043 2.4026132 3.8588722 -0.017591422 0.033338103 0.003959999 2.7096674 -0.33014485
0.013753185 -0.052756596 -0.018057177 -0.06460269 0.015491563 0.06274039 2.8197098 -0.015585999
4.4828286 -0.05322333 -0.09185793 -0.009545607 -0.035875924 -0.056757506 -0.0015652403 -0.08382577
3.8019094 -0.05291879 -0.019600604 0.06592549 -0.04183597 -0.033400223 0.0012044878 0.071552895
3.0729184 2.4861624 -0.010349303 -1.6138448 -0.034429602 -0.052677605 -0.08678468 0.086528495
2.918074 0.08067689 0.08912552 -0.06709048 3.7417274 0.9419785 3.19362 0.13914138
0.038017638 -0.122835256 1.2736732 0.012024766 2.6899292 0.34446537 1.5940907 0.085869335
-0.0024654528 0.04246921 2.5170412 2.3982143 -0.023568276 -0.10142851 3.6871674 -0.106353305
2.6208124 1.469266 -0.054050826 0.9900848 2.978228 0.030791081 -0.036070555 3.2664108
-0.10278409 -0.009617751 0.070243806 -0.023789294 -0.0029780488 -0.0338361 -0.041512962 -0.023962883
-0.007194645 -0.012920466 -0.0020762603 0.018125422 -0.0358174 1.7349824 0.039431937 0.901847
1.9305291 3.1779184 0.6975796 -0.018129418 0.0027976334 -0.11878374 0.08091993 0.015216934
00000000: 654a 863f 9c97 1440 2b7a 013e ed19 86bc
00000010: 157b 4fbd 4d64 b8bb 83f2 9c3f ca48 9abb
00000020: 092c 953d 5850 1b40 706e 1440 827d a0bc
00000030: cc66 bebc f771 8c3c ce14 993d 52fe 0940
00000040: 550d d83f 837f 90bb 9f1c fd3f dffc 893d
00000050: ebfd dc3c ebf1 2540 4077 7640 1a9b 6c3d
00000060: e336 273f 2266 8e40 4971 413c 88c7 a73b
00000070: b59b debd 78ac c13f c76e ffbc 0bbc 3abf
00000080: 05c0 e03c 6422 0a40 0a59 6140 1873 1f3d
00000090: 3425 18be ddbd 2a3c e900 3140 6599 433e
000000a0: 43b3 b23d dcfa cf3c 3407 dfbc 3b4f 63bd
000000b0: 3c81 c63b aef3 01bd a6a0 4040 b2ae 40bd
000000c0: a61a 9340 1a53 e53d 7735 bdbc 73f9 fd3c
000000d0: 4c77 84bc 979b 06bd 122d 2b3d aa98 123c
000000e0: 816e 5140 9b75 9fbd a598 e0bb f6bc 08bd
000000f0: 8fae 223d 2b9b 17bd 5c5e 2ebe cce1 91bd
00000100: 5abb 4940 b7d4 1a40 3a6a f1ba e8d7 b7bf
00000110: 3cd2 1e3d 853a 043e 38cf 5e3c c07a 6bbd
00000120: e248 3a40 a4b3 8cbd 9af8 dabd 8ac5 2a3d
00000130: 6dec 5740 a120 8b3f 2f44 5940 9a1d 4cbc
00000140: 8891 fb3c 4d3f 153e 80c6 a03f d95c 243d
00000150: e71a 2940 99c7 ed3c 7265 863f 000a 9ab9
00000160: b0cf ed3d 16c7 83bc bb1d 3440 f354 0e40
00000170: 2147 2bbd 0ca9 083e 4515 6040 990c 31bd
00000180: 3b8a 4d40 5834 f03f 2d39 d3bc 60d6 493f
00000190: e1f7 3340 74d7 41bd 4d7c 253d 9486 5440
000001a0: e2de 44bd 99f4 1fbd ba37 e4bd 7b96 17bd
000001b0: 356c 393d 59b0 673d 8c99 4cbd 2d39 5d3d
000001c0: 6db2 e6bc 4ab6 013e 77a6 d93e e4e0 643d
000001d0: 37e0 8a3d 8873 f23f 2995 17bd c134 563f
000001e0: e75a 1640 0e68 5040 d3c2 0b40 3a23 4e3d
000001f0: c557 583c 0c7b b8bb 88a9 593c 11c0 5bbd
00000200: d1d4 a53f facc 1640 b753 243f 950c 48bd
00000210: bb32 29bd c1db 873d 4520 903f 5d02 a23c
00000220: 3bad 993d 5aa0 2c40 c1fc f53f b120 41bd
00000230: dbfc a9bd f6ad e83c 4b34 a53c 95cb 1240
00000240: aaae c93f 1333 e93d e903 ff3f f6c8 6cbd
00000250: 2cc8 34bd ef9e 2140 1a75 5740 92f9 10bd
00000260: 6ecd c53f 858a 9540 b99b 723c 36e2 31bd
00000270: e13d 22bd cd96 ad3f 4089 57bb 344e 903f
00000280: 678e 82bc 6ac4 1940 c3f7 7640 e31b 90bc
00000290: 898d 083d e1c2 813b 316b 2d40 bf08 a9be
000002a0: 0a55 613c 4d17 58bd a5ec 93bc 6a4e 84bd
000002b0: 53d0 7d3c 097e 803d 2076 3440 6b5c 7fbc
000002c0: 5573 8f40 b500 5abd 0320 bcbd 2d65 1cbc
000002d0: a2f2 12bd 8f7a 68bd c028 cdba d8ac abbd
000002e0: 7c52 7340 60c1 58bd 7291 a0bc f103 873d
000002f0: 325c 2bbd acce 08bd e7df 9d3a 538a 923d
00000300: b2aa 4440 491d 1f40 1f90 29bc 7792 cebf
00000310: 0e06 0dbd 79c4 57bd 2bbc b1bd da35 b13d
00000320: b9c1 3a40 ed39 a53d 7187 b63d bc66 89bd
00000330: 7678 6f40 8125 713f 4564 4c40 147b 0e3e
00000340: 62b8 1b3d 0d91 fbbd b907 a33f 8603 453c
00000350: cd27 2c40 c45d b03e 2a0b cc3f 43dc af3d
00000360: 6f93 21bb 32f4 2d3d 3417 2140 587c 1940
00000370: 4212 c1bc c0b9 cfbd 8dfa 6b40 c3cf d9bd
00000380: 64bb 2740 e910 bc3f 6664 5dbd 3376 7d3f
00000390: 4a9b 3e40 943d fc3c b8be 13bd e00c 5140
000003a0: 7780 d2bd c693 1dbc fcdb 8f3d c4e1 c2bc
000003b0: 5e2b 43bb b997 0abd 7f09 2abd cf4d c4bc
000003c0: 0ec1 ebbb 5db0 53bc de11 08bb c47b 943c
000003d0: 44b5 12bd e713 de3f 6283 213d 72df 663f
000003e0: 941b f73f 0463 4b40 9494 323f 2584 94bc
000003f0: 8058 373b e444 f3bd 59b9 a53d 7250 793c

net.4.bias f4 [13]
1.524927 1.6416607 1.5443594 1.200374 1.9312431 1.7281455 1.6107427 2.0112123
1.305416 1.5733411 1.1744422 1.2194299 1.2163184
00000000: cf30 c33f f021 d23f 92ad c53f dba5 993f
00000010: f932 f73f df33 dd3f d12c ce3f b4b7 0040
00000020: df17 a73f 3e63 c93f 1f54 963f 4716 9c3f
00000030: 52b0 9b3f
