checkpoints/team1_agent_3.pt (torch, 394913 bytes, 24 tensors)

net.0.weight f4 [128, 45]
0	0x3e30accd	0.17253418
1	0x3f0415cd	0.51595765
2	0xbd0fae4b	-0.035078328
3	0xbdd1c89a	-0.1024334
4	0xbe509164	-0.20367962
5	0xbd0bb349	-0.034106527
6	0xbf69069c	-0.9102571
7	0xbec84a11	-0.39119008
8	0xbfef8853	-1.8713478
9	0x3f01d08e	0.50708854
10	0xc0934a5d	-4.6028275
11	0x3f3aa325	0.7290519
12	0xbfd42543	-1.6573871
13	0x3f4d817a	0.8027569
14	0xbc82db0e	-0.015973594
15	0x3f01e095	0.5073331
16	0xbe8b9750	-0.2726388
17	0xbc7ccf59	-0.015430295
18	0x3e3b49bd	0.18289848
19	0x3da8d74e	0.08244191
20	0xbf5e0f69	-0.86742264
21	0x3e3252a5	0.17414339
22	0xbfaf0629	-1.3673755
23	0x3f8cf6d3	1.1012825
24	0x3ec2c892	0.38043648
25	0xbe89fa6f	-0.26948878
26	0x3f2c3685	0.6727069
27	0x3e9f5811	0.31121877
28	0x3dfccc43	0.12343647
29	0x3cef31e4	0.029198594
30	0xbd7f7f6f	-0.06237739
31	0xbf2c262a	-0.67245734
32	0x3f207c19	0.6268936
33	0xbeb0cbde	-0.34530538
34	0xbf076c3a	-0.52899516
35	0x3f7d8fc2	0.9904748
36	0x3efe15a6	0.4962589
37	0x3f4b478e	0.7940606
38	0x3dadfdbf	0.08495664
39	0xbe1c26aa	-0.15249124
40	0xbdaa0289	-0.08301265
41	0xbe7e72da	-0.248485
42	0x3d994bc7	0.074851565
43	0xbee5ae00	-0.44859314
44	0xbbebd4f6	-0.007197018
45	0x3e46bf07	0.19408809
46	0x3e17541b	0.14778177
47	0xbf7300c4	-0.94923043
48	0xbf19a3fd	-0.6001585
49	0xbe43eee3	-0.19134097
50	0x3f50c153	0.8154499
51	0xbe32fcc6	-0.17479238
52	0x3e93647e	0.28787607
53	0xbe0a94ce	-0.13533327
54	0x3eafa33d	0.34304228
55	0x3e9f52b8	0.31117797
56	0x3ec43070	0.38318205
57	0xbe462d31	-0.19353177
58	0x3f24abc5	0.643246
59	0x3fd04507	1.6271065
60	0xbf071fc1	-0.5278283
61	0x3fb65eae	1.4247644
62	0xbe8cf284	-0.27528775
63	0x3f767e7d	0.96286756
64	0xbf2b129d	-0.66825277
65	0xbe97a334	-0.29616702
66	0x3f8d7d4d	1.1053864
67	0xbf80d6d8	-1.0065565
68	0x3e67efdd	0.22650094
69	0x3edaa131	0.42701104
70	0xbeb646a1	-0.3560076
71	0xbede0915	-0.43366304
72	0xbf978a52	-1.1839087
73	0xbddbecb0	-0.10738504
74	0xbeeab339	-0.4583986
75	0x3f432e61	0.76242644
76	0x4044ae15	3.0731251
77	0x3e892348	0.2678473
78	0x3fe59882	1.7937167
79	0xbfe68ac2	-1.8011096
80	0x3d918c81	0.07106877
81	0xbfe5d137	-1.7954472
82	0x3f17e0ad	0.59327203
83	0xbfa158ea	-1.260526
84	0x3f6a110d	0.9143227
85	0xbf716197	-0.94289535
86	0xbed28f80	-0.41125107
87	0xbf8503e8	-1.0391817
88	0xbe4d192d	-0.20029135
89	0xbbe1a501	-0.006886125
90	0x3ec01da4	0.37522614
91	0xbef483bc	-0.47756755
92	0x3d9dbb0b	0.07701691
93	0xbd914646	-0.07093482
94	0x3e987a42	0.29780775
95	0x3bf4b68d	0.007468051
96	0x3f3f4ceb	0.7472674
97	0x3e91cc5d	0.2847623
98	0x3f14b1e4	0.5808394
99	0xbe942952	-0.28937775
100	0x3e91671c	0.2839898
101	0x3f97207c	1.1806788
102	0xbe8a031d	-0.269555
103	0x3f8c9688	1.0983438
104	0xbe15761e	-0.1459584
105	0x3ec98204	0.39357007
106	0x3fd0c73f	1.6310805
107	0xbda3a9d0	-0.079913735
108	0x3fa7ffa9	1.3124896
109	0xbe41aa4b	-0.18912618
110	0x3d98bc67	0.0745781
111	0xbf2737af	-0.6531934
112	0xbdbdf400	-0.09275055
113	0xbceed347	-0.02915348
114	0xbe97d389	-0.29653576
115	0xbe9f3509	-0.3109515
116	0x3e3f9283	0.18708234
117	0xbd2ae69e	-0.04172384
118	0x3ee35568	0.44401097
119	0xbf0c4048	-0.54785585
120	0x3f0701f4	0.52737355
121	0xbf1df532	-0.61702263
122	0x3f26c77d	0.65148145
123	0xbe807d9c	-0.25095832
124	0x3f4440b4	0.7666123
125	0xbf08f991	-0.5350581
126	0xbd414040	-0.047180414
127	0xbed813ea	-0.42202693
128	0x3f35620e	0.70852745
129	0xbc4b6707	-0.0124147
130	0x3fd5d2e9	1.670499
131	0x3f2e5e48	0.6811261
132	0x3e80e564	0.2517501
133	0x3ed3a757	0.41338608
134	0x3e9fa602	0.3118134
135	0xbcd1e9da	-0.025624204
136	0xbf0c8a31	-0.54898363
137	0xbdf08f59	-0.117460914
138	0xbe61ddbb	-0.2205724
139	0xbe851339	-0.25991228
140	0x3f0fa596	0.5611204
141	0xbfbd3caa	-1.4784138
142	0xbfe37ecc	-1.777307
143	0x3f404443	0.7510416
144	0x3e9797cb	0.29607996
145	0xbd69d402	-0.057086952
146	0xbd7c0fa9	-0.061538372
147	0xbe1965cc	-0.14980239
148	0x3f70d563	0.940756
149	0xbec6e254	-0.3884455
150	0xbf4a5d8a	-0.7904898
151	0xbf3515c2	-0.70736325
152	0xbf9673e9	-1.1754123
153	0x3ecbc479	0.39798334
154	0x3dbccdf4	0.0921897
155	0x3f08bfcc	0.5341766
156	0xbf245ab9	-0.6420093
157	0x3fbbafdc	1.4663043
158	0x3e944e69	0.28966072
159	0x3e8af13a	0.27137166
160	0x3f08ec66	0.53485715
161	0x3ec81206	0.3907625
162	0x3e38fc06	0.1806489
163	0x3fd53414	1.6656518
164	0xbeb8b13c	-0.3607272
165	0xbe81c358	-0.25344348
166	0xbf29710c	-0.6618812
167	0x3f78b3fd	0.9714964
168	0xbfce9a72	-1.6140883
169	0x3ed60f7a	0.41808683
170	0xbef921c2	-0.48658568
171	0x3f98c0b8	1.1933813
172	0x3e905500	0.2818985
173	0xbeb01b5e	-0.3439588
174	0xbe00d9ae	-0.12583038
175	0x3d195c28	0.037441403
176	0xbf0ac5c8	-0.5420804
177	0x3dff41a5	0.124636926
178	0xbea6f1ab	-0.32606253
179	0xbeba0a3a	-0.36335927
180	0xbf56b190	-0.8386469
181	0xbf8e7717	-1.1130093
182	0x3e893fe6	0.26806563
183	0xbf9e69c7	-1.2376031
184	0x3dcb19d3	0.09917035
185	0xbfba964d	-1.4577118
186	0x3f0df5aa	0.5545298
187	0xbdef4373	-0.11682787
188	0x3e2fd09a	0.17169419
189	0x3f1b3e97	0.6064238
190	0xbd22d3f2	-0.039752908
191	0xbfa0b851	-1.2556249
192	0x3eb35ad1	0.35030225
193	0xbf6f3552	-0.93440735
194	0xbe847a25	-0.2587444
195	0xbfacbe47	-1.3495568
196	0x3dba2333	0.09088745
197	0x3e0df660	0.13863516
198	0x3f150641	0.5821267
199	0xbddcecd9	-0.107873626
200	0x3e8f7898	0.28021693
201	0x3ee450b8	0.44592834
202	0x3fa4ed6f	1.2884959
203	0x3f331bec	0.6996448
204	0xbf4baba5	-0.79558784
205	0xbe89a4f7	-0.2688367
206	0x3f905661	1.1276361
207	0x3e9da660	0.30790997
208	0x3f84e952	1.0383704
209	0xbed5f7a2	-0.4179049
210	0xbf30d466	-0.69074094
211	0xbf0ce70d	-0.55040056
212	0xbe602450	-0.21888852
213	0xbf104b14	-0.5636456
214	0xbe51e1fa	-0.2049636
215	0x3f2a91ce	0.6662873
216	0x3edad63d	0.42741576
217	0xbe9da2eb	-0.3078836
218	0xbd0c23ee	-0.034213953
219	0xbf791860	-0.9730282
220	0x3e822fa2	0.25426966
221	0x3c61cf1d	0.01378229
222	0xbf64f833	-0.8944122
223	0x3e126a24	0.14298302
224	0x3db94bb7	0.090476446
225	0xbe1caba3	-0.15299849
226	0xbe83e323	-0.2575923
227	0x3ca4d9ed	0.020123446
228	0xbe2940f3	-0.16528682
229	0x3d88b584	0.06675246
230	0x3e5dd822	0.2166448
231	0x3d306b5c	0.043071136
232	0xbce15fd3	-0.027511513
233	0xbe1a1d62	-0.15050271
234	0x3c7fda0a	0.015615949
235	0x3cf3e92d	0.029774273
236	0x3d81b9eb	0.06334289
237	0xbd51a030	-0.051178157
238	0x3c8e631f	0.017381249
239	0xbc75d95e	-0.015005438
240	0x3d25c236	0.040468417
241	0xbd147738	-0.03624651
242	0xbe018c42	-0.1265116
243	0xbcd6b8a2	-0.026211087
244	0x3c299233	0.010349798
245	0xbe277f1f	-0.16357087
246	0xbc596e26	-0.01327089
247	0x3dcebf7c	0.100951165
248	0x3bf12fcc	0.007360434
249	0xbdb4c288	-0.088261664
250	0x3cd6f645	0.026240477
251	0xbbdb2b59	-0.006688517
252	0x3de1e8f5	0.11030761
253	0xbd921217	-0.071323566
254	0x3ce0a17d	0.027420754
255	0x3bb4088d	0.0054941834

net.0.bias f4 [128]
0	0xbdb85969	-0.09001429
1	0xbdaa4572	-0.08314027
2	0x3f4b4531	0.7940245
3	0x3ef84ef0	0.48497725
4	0xbec9c5b0	-0.39408636
5	0xbe7ff4b0	-0.24995685
6	0x3ebf47e2	0.3735953
7	0x3eaf65ec	0.34257448
8	0xbf43c410	-0.7647104
9	0xbe86bbec	-0.26315248
10	0xbea6266e	-0.32451195
11	0x3bee9ea5	0.0072820955
12	0x3e8db9a2	0.2768069
13	0xbea61192	-0.3243528
14	0x3d2cdde7	0.04220381
15	0x3f035f43	0.5131723
16	0xbdeafcad	-0.11473975
17	0x3f3c488f	0.73548216
18	0x3ddfb44b	0.1092306
19	0x3f397227	0.7243981
20	0x3e6b599f	0.22983406
21	0x3e92beb7	0.2866113
22	0xbe40b882	-0.18820384
23	0x3d9cece9	0.076623745
24	0xbefa49dd	-0.48884478
25	0x3f46a558	0.77596045
26	0x3f8c90db	1.0981706
27	0x3f840c8b	1.0316328
28	0x3ed34f05	0.41271225
29	0xbe8de47d	-0.27713385
30	0x3f92c909	1.1467601
31	0x3f36caeb	0.7140338
32	0xbe22b645	-0.15889843
33	0x3e22bdb5	0.1589268
34	0xbf316d84	-0.6930773
35	0x3fbc40b2	1.4707243
36	0xbf1a0c2d	-0.6017483
37	0xbdfddbc1	-0.1239543
38	0x3e1731f3	0.14765148
39	0xbe2b7ea0	-0.16747522
40	0xbe53f8a3	-0.20700316
41	0x3f55904d	0.8342331
42	0x3f1855c6	0.5950588
43	0xbeb4ad4e	-0.3528847
44	0x3ed3a18e	0.41334194
45	0x3f4d76ed	0.8025959
46	0x3e7d4283	0.24732403
47	0xbe9eb4f3	-0.30997428
48	0xbf0c9bce	-0.5492524
49	0x3f0855b3	0.53255767
50	0x3f200e85	0.62522155
51	0x3fa0748e	1.253557
52	0x3f17fc17	0.59369034
53	0x3c897487	0.016779197
54	0x3ee39e43	0.44456682
55	0x3ec7161e	0.38884062
56	0x3f95ed0c	1.1712966
57	0xbf25261e	-0.6451129
58	0x3ea08cca	0.31357414
59	0xbf069cf9	-0.5258327
60	0x3f772a54	0.9654896
61	0x3fb5a286	1.4190223
62	0x3e79e8bd	0.24405189
63	0xbd1cf89c	-0.03832303
64	0x3f7bfe41	0.98434836
65	0x3d78fa58	0.06078562
66	0x3de87d0b	0.11351975
67	0xbf0fd794	-0.5618832
68	0x3e91d3b8	0.2848184
69	0xbe229a5d	-0.15879197
70	0x3f8240db	1.0176042
71	0x3e0699aa	0.13144556
72	0x3ebf21dc	0.3733052
73	0x3fa484ec	1.2853065
74	0x3cb80e7a	0.02246784
75	0xbdaf9978	-0.08574194
76	0x3f2b871f	0.67003053
77	0x3e638030	0.22216868
78	0xbd88eb45	-0.06685499
79	0xbe01d62d	-0.12679358
80	0x3e04905a	0.12945691
81	0x3f56f982	0.8397447
82	0x3f9acd7a	1.2093956
83	0x3edd2017	0.43188545
84	0xbf036d41	-0.51338583
85	0x3f8849f5	1.064757
86	0x3f0e7b42	0.55656826
87	0x3f1e228d	0.6177147
88	0x3f2bc657	0.6709952
89	0xbe88870b	-0.2666553
90	0xbead9225	-0.33900562
91	0x3f2e2321	0.6802235
92	0x3f8328c7	1.0246819
93	0x3f523277	0.82108253
94	0x3f8f1a69	1.1179935
95	0x3f698218	0.9121413
96	0x3fb015b8	1.3756628
97	0x3ee64760	0.4497633
98	0x3ed1db4c	0.40987623
99	0xbd87ce65	-0.066311635
100	0x3da33c77	0.07970517
101	0x3f027c84	0.50971246
102	0x3f91587d	1.135513
103	0x3f14c543	0.581135
104	0xbdec66f7	-0.115430765
105	0xbe8bf4ca	-0.27335197
106	0xbea01c59	-0.31271628
107	0x3f6fa8de	0.93617046
108	0xbea097c9	-0.31365803
109	0x3f9ae1ea	1.2100194
110	0x3f9ba980	1.2161102
111	0x3f115e6b	0.56784695
112	0x3fa647fd	1.2990719
113	0x3e78354e	0.24239084
114	0xbeb03f41	-0.3442326
115	0x3eb58a11	0.354569
116	0x3ea0c70c	0.3140186
117	0xbd8da43d	-0.069160916
118	0x3f740dc6	0.95333517
119	0x3e8a4c27	0.27011225
120	0x3f80bcdd	1.0057636
121	0x3f63f7fa	0.8905026
122	0x3eaff004	0.34362805
123	0x3e0fa3a6	0.1402727
124	0x3c49e59e	0.012322811
125	0xbeac96d0	-0.3370881
126	0xbebda618	-0.37040782
127	0x3f2ed6da	0.6829659

net.2.weight f4 [128, 128]
0	0xbda98e98	-0.08279151
1	0xbde22915	-0.11042992
2	0x3d3dbe27	0.04632392
3	0xbdef9954	-0.11699167
4	0xbd826803	-0.06367495
5	0x3dad10a7	0.08450442
6	0xbdef389e	-0.11680721
7	0xbdd95811	-0.106125005
8	0xbd5a5402	-0.053302772
9	0xbdb5dc26	-0.088798806
10	0x3d858c73	0.06520929
11	0xbdbd57ee	-0.09245287
12	0x3d433504	0.04765798
13	0xbce71f99	-0.02821331
14	0x37f13d38	2.8757946e-05
15	0x3ba2fd5d	0.004974051
16	0xbaebd032	-0.0017991124
17	0x3ce64b17	0.028111978
18	0x3d8563d3	0.065131806
19	0x3b4712d7	0.003037622
20	0x3c930ee9	0.017951446
21	0xbd2265ed	-0.039647985
22	0xb93ed701	-0.00018199907
23	0x3dad90da	0.08474894
24	0xbd2f5059	-0.042801235
25	0xbdbbf276	-0.09177105
26	0x3d00c0e6	0.031433962
27	0x3ce76e53	0.028250849
28	0xbdfb707f	-0.12277316
29	0xbd308d34	-0.04310341
30	0x3cbd080e	0.02307513
31	0x3c7407ec	0.014894467
32	0xbd62c9e5	-0.055368323
33	0xbdf36ce9	-0.11886007
34	0x3d72b577	0.05925509
35	0xbd200b71	-0.03907341
36	0x3cfa7344	0.030572541
37	0xbdc86e55	-0.09786669
38	0xbc6db6c3	-0.014508906
39	0x3cdd5d6f	0.027022092
40	0x3c32e273	0.0109182475
41	0xbd6c5252	-0.057695694
42	0xbcc2141d	-0.023691231
43	0xbda0453e	-0.07825707
44	0xbd63f3c5	-0.0556524
45	0xbcb04855	-0.021518866
46	0x3be83042	0.007085831
47	0xbdba65ec	-0.09101471
48	0x3a5a6e7a	0.00083325023
49	0xbd1d70b2	-0.038437553
50	0xbdbd08ac	-0.0923017
51	0xbe1034f6	-0.14082703
52	0xbd8733e7	-0.066016965
53	0x3d8c5482	0.06852056
54	0x3cf1d769	0.02952166
55	0xbcfef6b3	-0.031123495
56	0x3caad657	0.020854158
57	0x3c832506	0.016008865
58	0xbd8fe43f	-0.07025956
59	0x3d44f1d6	0.048082195
60	0x3c8bedb0	0.017081112
61	0xbe0067d5	-0.12539609
62	0x3bc2516f	0.005930118
63	0x3d1f0423	0.038822304
64	0x3c8ff2f3	0.017571902
65	0xbd55d842	-0.052208193
66	0xbd942b93	-0.072348736
67	0xbc38a2d0	-0.011269286
68	0xbc70afa0	-0.01469031
69	0xbb650c00	-0.003494978
70	0xbd11f8d3	-0.035637688
71	0xbc73dda0	-0.0148843825
72	0x3bdbb3b5	0.0067047724
73	0xbe0cdab4	-0.13755304
74	0x3d522d50	0.051312745
75	0xbd5ff8af	-0.054680523
76	0xbddb08ab	-0.10695013
77	0xbd5ff8a7	-0.054680493
78	0xbc35761e	-0.011075525
79	0xbd9a6f9e	-0.075408205
80	0xbd4a8149	-0.049439702
81	0x3aa77055	0.0012774566
82	0xbdcd500e	-0.10025035
83	0x3d745405	0.05965044
84	0xbcefc598	-0.029269025
85	0xbc305275	-0.010761847
86	0xbcc80c10	-0.024419814
87	0xbd85b5b9	-0.065288015
88	0x3d6ab69a	0.05730305
89	0xbde1bf31	-0.11022795
90	0x3b6a7078	0.0035772603
91	0xbdd910c8	-0.10598904
92	0xbdfad880	-0.12248325
93	0xbced766f	-0.028987138
94	0xbd1c0921	-0.038094644
95	0xbdef64ee	-0.11689173
96	0xbcd57e9b	-0.026061347
97	0xbceeef8a	-0.029166956
98	0x3d54c6db	0.051947456
99	0x3ca012e6	0.019540261
100	0xbd8ff7d7	-0.070296936
101	0xbdeb09b7	-0.11476462
102	0xbdbf3684	-0.0933657
103	0x3c0b4972	0.008501397
104	0xbccf8f6c	-0.025336944
105	0x3d99583b	0.07487532
106	0xbdb0a869	-0.08625872
107	0x3d0a44e6	0.033757113
108	0x3d85e605	0.06538013
109	0x3b994778	0.004677709
110	0xbd1609d0	-0.03663045
111	0x3d4f30fd	0.05058383
112	0xbd552155	-0.05203374
113	0xbd0cf1e3	-0.03441037
114	0xbc3572f0	-0.0110747665
115	0xbd273151	-0.040818516
116	0xbd9704eb	-0.07373985
117	0xbdc47cd8	-0.095941246
118	0x3c03e076	0.008049121
119	0xbc29d845	-0.010366504
120	0x3cf3b054	0.029747166
121	0xbc555067	-0.013019658
122	0xbd3a6960	-0.04551065
123	0x3d208edd	0.039198745
124	0xbc2ca258	-0.010536753
125	0xbd9cd261	-0.07657314
126	0xbdadbd61	-0.08483387
127	0x3c4c08f4	0.0124533065
128	0xbd6d38fb	-0.05791567
129	0x3f5e2582	0.8677598
130	0x3f520c67	0.82050174
131	0x3ff67a60	1.9256096
132	0x3f530e3e	0.82443607
133	0x3c8df07d	0.017326588
134	0xc01a5e35	-2.412
135	0xbf319235	-0.6936372
136	0x3f3760bc	0.7163198
137	0xbf0a36bd	-0.53989774
138	0x3bd0360a	0.006354098
139	0x3f0f1895	0.55896884
140	0xbf33e7d8	-0.7027564
141	0x3ee014c5	0.43765846
142	0x3fa5d51b	1.295566
143	0x3ea2fe62	0.31834704
144	0x3f9c2d3e	1.2201307
145	0x3e800cf3	0.2500988
146	0x3e0ab93e	0.13547227
147	0xc0a7e1d6	-5.246318
148	0xbf1b4bb6	-0.606624
149	0x3f7dacc3	0.9909174
150	0x3fd295cc	1.6451964
151	0xbf4bc5fd	-0.7959898
152	0xbed7b5d7	-0.4213092
153	0xc02b1ae3	-2.673516
154	0x3f779e1c	0.9672563
155	0x3e0e6934	0.1390732
156	0x3f26139e	0.64873683
157	0xbd8ff491	-0.07029069
158	0x3fdd977a	1.7311852
159	0xc0696828	-3.6469822
160	0xbf9231a5	-1.14214
161	0xbf880fc2	-1.0629809
162	0x3e79fe32	0.24413374
163	0x3d388845	0.04505183
164	0xc09c1a1d	-4.8781877
165	0xc0245829	-2.5678809
166	0x3f0435f3	0.5164482
167	0xc0264c10	-2.5983925
168	0xbd0e02ef	-0.034670766
169	0xbf3d8368	-0.74028635
170	0xbf8a4044	-1.0800862
171	0xbd8a1c40	-0.067436695
172	0xbc049cf2	-0.008094059
173	0x3f9febd5	1.2493845
174	0x3e43cbfe	0.19120786
175	0x3f0c6993	0.54848593
176	0x4030b694	2.7611437
177	0xc055e331	-3.3419917
178	0xbefd58cc	-0.4948181
179	0xbe61b9af	-0.22043489
180	0x3fe0413c	1.7519908
181	0xbe868638	-0.26274276
182	0xbef3cf82	-0.47619253
183	0x3e81a2e0	0.25319576
184	0x3fb1b43b	1.3883127
185	0x3f0ec302	0.5576631
186	0xbead0e22	-0.33799845
187	0x3ddf92d1	0.10916675
188	0x3e566d5a	0.20940152
189	0x3daf1417	0.08548754
190	0xbf93ea2c	-1.1555839
191	0x3f32516c	0.6965549
192	0x3f389a7e	0.72110736
193	0xbfa6a091	-1.3017751
194	0xbf233b48	-0.6376233
195	0x3f8d0f6f	1.1020335
196	0xbe7930a3	-0.2433496
197	0xc01b8047	-2.4297044
198	0xc006590a	-2.0991845
199	0x3f80fd34	1.0077271
200	0xbf4762b0	-0.7788496
201	0xbea6be4c	-0.3256706
202	0xbfb363a5	-1.4014784
203	0xc08b2ad1	-4.3489766
204	0x3f9b208e	1.211931
205	0xbfcd4d82	-1.6039279
206	0xbeb99c96	-0.36252278
207	0xbfd0a5df	-1.630062
208	0xc026ee77	-2.6083047
209	0x3f2b79f9	0.6698299
210	0x3dea9551	0.11454261
211	0xbf9c3bf8	-1.2205801
212	0x3f431f4f	0.7621965
213	0x3f1e583a	0.61853373
214	0xc012ac22	-2.2917562
215	0x3f2ec9a6	0.6827644
216	0xbf7d4540	-0.9893379
217	0x3f3ed7f8	0.7454829
218	0xbcc7b36e	-0.02437755
219	0x4052da14	3.2945604
220	0x3f31df21	0.6948109
221	0x3e8809ed	0.26570073
222	0xc03cf23b	-2.9522846
223	0x3e38e285	0.1805516
224	0x3eb59343	0.35463914
225	0xbfffdbbe	-1.9988935
226	0x3f065ba9	0.5248361
227	0x3f8bca5c	1.092113
228	0x3f9cfdab	1.2264913
229	0x3f1969ec	0.5992725
230	0xbe5bd4c2	-0.2146788
231	0xbe61fb12	-0.22068432
232	0xc00ad389	-2.169161
233	0x3dbd58a4	0.092454225
234	0xc0543357	-3.3156335
235	0xbe8c9427	-0.2745678
236	0xbda6c441	-0.08142901
237	0x3ea8745e	0.3290128
238	0x3f2b306b	0.66870755
239	0x3f12ac9a	0.5729462
240	0x3f29c56a	0.66316855
241	0x3f89c3e0	1.0762901
242	0x3ca3cacd	0.019994164
243	0xbf955d39	-1.1669074
244	0x400d88f5	2.2114842
245	0xbee3c324	-0.44484818
246	0x3fe9fab0	1.8279629
247	0x3ec494a1	0.38394645
248	0xbe3c3069	-0.18377842
249	0x3f10238b	0.56304234
250	0x3c24580b	0.010030757
251	0x400c3886	2.19095
252	0x3f322a42	0.6959573
253	0x3fffaa78	1.9973898
254	0xc0022495	-2.0334828
255	0xbf1ad685	-0.6048358

net.2.bias f4 [128]
0	0xbdd6b57d	-0.10483835
1	0x3f38efe6	0.72241056
2	0x3f808c97	1.0042905
3	0x3edd26ad	0.4319357
4	0x3de1fb03	0.11034205
5	0x3f9ef812	1.2419455
6	0xbd944574	-0.0723981
7	0x3f8585bf	1.0431441
8	0x3f38b72a	0.72154486
9	0x3d017f18	0.031615347
10	0x3f367f12	0.71287644
11	0x3f01b747	0.50670284
12	0x3f166796	0.5875181
13	0x3f800f1a	1.0004609
14	0x3fe6c4b4	1.8028779
15	0xbdd8da9b	-0.10588571
16	0xbcf61515	-0.03003935
17	0x3f5fd91c	0.8744066
18	0xbd812578	-0.06305975
19	0x3f949c8e	1.1610277
20	0xbe08c8e8	-0.1335789
21	0xbde8f961	-0.1137569
22	0x3f7ebc95	0.99506503
23	0x3fdba925	1.7160994
24	0x3fd1ebe0	1.6400108
25	0xbdd2cd31	-0.102930434
26	0xbe0aaf15	-0.13543351
27	0xbd7b131f	-0.061297532
28	0x3fd2ddaa	1.6473897
29	0xbd5808c9	-0.052742753
30	0x3f772dc9	0.9655424
31	0xbdf1fdb6	-0.1181597
32	0x3fc278c4	1.5193105
33	0x3f929d04	1.1454167
34	0xbe0cbf35	-0.13744815
35	0x3f563dee	0.8368825
36	0xbdce1e2f	-0.10064351
37	0x3f55197b	0.83242005
38	0xbe00f34b	-0.12592809
39	0x3f4e9f16	0.80711496
40	0x3f3d3a19	0.73916775
41	0x3fe0ec14	1.7572045
42	0x3fc1e202	1.5147097
43	0xbcfb2896	-0.030659001
44	0x3ece6cb4	0.4031731
45	0x3f8ffc80	1.1248932
46	0x3f33d255	0.70242816
47	0x3f98440b	1.1895765
48	0x3fa92bc9	1.3216487
49	0x3f878a6d	1.0589119
50	0x3fff9336	1.99668
51	0x3f200f3c	0.62523246
52	0x3d028867	0.031868365
53	0xbe08f22d	-0.13373633
54	0xbca65db4	-0.020308353
55	0xbdd6ce37	-0.10488551
56	0xbd0693d8	-0.03285584
57	0x3f4f912b	0.81080884
58	0x3b54c0b4	0.0032463493
59	0xbdb7fc7a	-0.08983703
60	0xbdcbf5aa	-0.09958966
61	0x3f87004e	1.0546968
62	0x3fea8275	1.8321062
63	0xbd9eacd9	-0.07747812
64	0xbd81f285	-0.06345085
65	0xbda41965	-0.08012656
66	0xbdc35589	-0.09537799
67	0x3fcf63e6	1.6202362
68	0xbe16d723	-0.14730506
69	0xbe04196f	-0.12900327
70	0xbd4968cb	-0.049172204
71	0xbdbd0efd	-0.092313744
72	0x3ec4e70a	0.3845752
73	0x3e626254	0.22107822
74	0xbe0876de	-0.13326594
75	0xbdd8aa7e	-0.10579394
76	0x402a2ebb	2.6591022
77	0x3fa3a684	1.2785192
78	0x3fe1f75f	1.7653617
79	0x3eef2a91	0.46712163
80	0xbdb7d02b	-0.08975252
81	0xbdad1da4	-0.08452919
82	0x3ef32d4e	0.47495502
83	0xbc5824ff	-0.013192414
84	0x3ff2e106	1.8974922
85	0xbdcdd97d	-0.10051248
86	0x3fd9ec96	1.7025325
87	0x3cdb56c6	0.026774775
88	0x3f9bba4f	1.2166232
89	0x3ef8c4e8	0.48587728
90	0x3ffb11f6	1.9614856
91	0xbe07086c	-0.13186806
92	0xbdc66177	-0.09686559
93	0x3fa79b30	1.3094234
94	0x3f830419	1.0235626
95	0x3f0c26e4	0.5474684
96	0xbd834e68	-0.06411439
97	0x3e8e4f51	0.2779489
98	0x3f23e632	0.64023125
99	0x3f93dd9c	1.1552005
100	0x3f5ae0cf	0.8549928
101	0xbcb29084	-0.021797426
102	0x3f58eb1b	0.8473374
103	0xbe16e1f4	-0.14734632
104	0xbe33b662	-0.17550042
105	0x3f79f0ea	0.9763323
106	0x3f885949	1.0652248
107	0x3fd28b18	1.6448698
108	0xbe156a79	-0.14591397
109	0xbde3ebf3	-0.11128988
110	0x3f3bfc80	0.7343216
111	0xbcadbaaa	-0.021207172
112	0x3fc64035	1.5488344
113	0x3d184f15	0.037184794
114	0xbe169b2c	-0.14707631
115	0xbe6cd571	-0.23128296
116	0xbe0bc81c	-0.13650554
117	0x3f05dda0	0.522913
118	0x3ebbb1b6	0.3665902
119	0x3f4fd287	0.81180614
120	0x3fe374b6	1.7769992
121	0x3f6f0638	0.93368864
122	0x3f0c54dd	0.5481699
123	0xbd8a3b88	-0.06749636
124	0xbd2848c1	-0.04108501
125	0x3ec32cda	0.38120157
126	0x3fa9aa3e	1.3255079
127	0x3eb32ccd	0.34995118

net.4.weight f4 [13, 128]
0	0xbd511790	-0.05104786
1	0x3ff0c062	1.880871
2	0x3edf27c8	0.43585038
3	0x3fb24c84	1.3929601
4	0x400330dc	2.0498571
5	0x3fbefd8e	1.4921129
6	0xbbcfce81	-0.006341756
7	0x3ff20876	1.8908832
8	0x3fb98000	1.4492188
9	0x38edb12b	0.00011334041
10	0x3f4ecf86	0.80785406
11	0x3fbc3c51	1.4705907
12	0x40113fb5	2.2695134
13	0x3f0b5ce5	0.5443862
14	0x3edec48c	0.43509328
15	0x3d200691	0.039068762
16	0xbd598e82	-0.05311442
17	0x3f278b62	0.65447056
18	0x3dadf105	0.084932365
19	0x3f6d2861	0.9263974
20	0xbd08cae1	-0.033396605
21	0xbc143658	-0.00904616
22	0x3f4e483f	0.8057899
23	0x3f1b7a3a	0.6073338
24	0x3f03891f	0.51381105
25	0x3a5e60f8	0.00084830774
26	0x3cff2d8a	0.031149644
27	0x3d7e6b23	0.062113892
28	0x3f0297db	0.51012963
29	0xbd516575	-0.051122148
30	0x3f45f3c0	0.7732506
31	0xbdb9e352	-0.09076561
32	0x3f804b5c	1.0022998
33	0x3f577891	0.84168345
34	0xbc8a0488	-0.016847864
35	0x3f93496d	1.1506783
36	0xbd80aaf6	-0.06282608
37	0x3fb746e0	1.4318504
38	0xbcfa1091	-0.030525478
39	0x3fb7fa85	1.4373327
40	0x3f9d06b1	1.2267667
41	0x3e68888b	0.22708337
42	0x3ec0bedc	0.37645614
43	0xbbf4a29e	-0.0074656745
44	0x3f92e0b7	1.1474828
45	0x3f047aee	0.51750076
46	0x4039c51b	2.9026554
47	0x3f9d65e1	1.2296716
48	0x3f175126	0.591082
49	0x3f767c51	0.9628344
50	0x3f7b4241	0.9814797
51	0x3f2de795	0.6793149
52	0xbeef5950	-0.46747828
53	0x3d9c732c	0.07639155
54	0x3d2020a1	0.039093617
55	0xbda046e2	-0.0782602
56	0x3cd512d0	0.026009947
57	0x3f844ef5	1.0336596
58	0x3b5f123f	0.0034037975
59	0xbd7fb52b	-0.062428635
60	0x3d67f81e	0.056633107
61	0x3f642876	0.8912424
62	0x3f0ad01b	0.54223794
63	0x3c5458e0	0.012960643
64	0xbd894176	-0.06701939
65	0x3d1a6175	0.0376906
66	0x3c83de74	0.016097285
67	0x3ea48b95	0.32137743
68	0x3d716637	0.05893537
69	0x3d148f14	0.036269262
70	0x3bfbba30	0.0076821074
71	0x3f3db5a0	0.7410526
72	0x40060fa9	2.0947058
73	0x3f523fc9	0.8212858
74	0x3f57e4f9	0.8433376
75	0xbcb481a3	-0.022034472
76	0x3f8ef8f5	1.1169726
77	0x3f1ac8ea	0.6046282
78	0x3f0ebff0	0.55761623
79	0x401b0cab	2.4226482
80	0xbc91385d	-0.017727071
81	0xbb8bb2ac	-0.0042632427
82	0x400f50c1	2.2393038
83	0xbb52e63c	-0.0032180687
84	0x3ee5eee0	0.4490881
85	0xbdeb4f6b	-0.11489757
86	0x3e94b70f	0.29045913
87	0xbd9b24c4	-0.07575372
88	0x3fa6276b	1.298078
89	0x40193e6f	2.3944356
90	0x3f08511c	0.53248763
91	0xbccd0bc4	-0.025030024
92	0x3da8feaf	0.08251702
93	0x3f2b9ba6	0.67034376
94	0x3f8c37aa	1.0954487
95	0x401c8b1d	2.4459908
96	0xbc85bacf	-0.016324429
97	0x3f9201ca	1.1406796
98	0x3fd69b43	1.6766132
99	0x3f0b43ab	0.5440013
100	0x3f2f25f2	0.68417275
101	0x3daa5465	0.08316878
102	0x3f6e14f0	0.930007
103	0xbccd97a5	-0.025096724
104	0x3f2cee36	0.6755098
105	0x3f786e88	0.9704366
106	0x3f886051	1.0654393
107	0x3ed8372b	0.4222959
108	0xbd77490d	-0.0603724
109	0x3d9b66fb	0.07588001
110	0x3f3bedaa	0.7340952
111	0x3f3ae27b	0.7300183
112	0x3f25f02e	0.6481961
113	0xbc856244	-0.016282208
114	0xbd48d119	-0.049027536
115	0x3f5f6ab7	0.8727221
116	0x3e867516	0.26261204
117	0x3f49d77e	0.7884444
118	0x3fcccc57	1.599986
119	0x4002acf0	2.0418053
120	0x3e97dbf7	0.29660007
121	0x3f735f71	0.9506751
122	0x3fcc8d5d	1.5980641
123	0x3d862b9e	0.06551288
124	0x3c8c4830	0.017124265
125	0x3f870406	1.0548103
126	0x3eaea085	0.34106842
127	0x403075a7	2.757181
128	0xbde63bbd	-0.11241863
129	0x3ffb52c0	1.9634628
130	0x3f10c8cc	0.5655639
131	0x3fccca75	1.5999285
132	0x3ffbb1b0	1.9663601
133	0x3fa7bf1b	1.3105196
134	0xbbd9379c	-0.0066289436
135	0x3ffbf865	1.9685179
136	0x3fb36632	1.4015563
137	0x3c9d6457	0.019212885
138	0x3f97aa4c	1.1848845
139	0x3fc37135	1.5268923
140	0x4011e6dc	2.2797155
141	0x3f7bec63	0.9840757
142	0x3eceee83	0.40416345
143	0x3cb95d5d	0.022627527
144	0xbd5c129f	-0.053728696
145	0x3f14cc33	0.58124083
146	0x3c3332f8	0.010937445
147	0x3f07d461	0.5305844
148	0xbd8844df	-0.06653761
149	0xbd139f2d	-0.036040474
150	0x3f434905	0.76283294
151	0x3f0311ba	0.51198924
152	0x3eb07478	0.3446386
153	0xbc94e249	-0.018174307
154	0x3c052049	0.008125373
155	0xbd0653d7	-0.0327948
156	0x3ec7b88c	0.39007986
157	0xbdae4b12	-0.08510412
158	0x3f73ea97	0.9527983
159	0xbd9ce50a	-0.07660873
160	0x3f8f6bfc	1.1204829
161	0x3f7a269e	0.97715175
162	0x3d0b64e8	0.03403178
163	0x3f570b36	0.8400148
164	0x3d8b397b	0.06798073
165	0x3fa175e7	1.2614106
166	0x3d33b589	0.043874297
167	0x3fb2e970	1.397749
168	0x3faf6e9a	1.3705628
169	0x3f41ba23	0.7567465
170	0x3ee2cd85	0.44297424
171	0xbd28a333	-0.041171264
172	0x3fcf2014	1.6181664
173	0x3f06aa94	0.5260403
174	0x402908a2	2.641152
175	0x3f90b4fc	1.1305232
176	0x3f168874	0.5880196
177	0x3fd6dc2c	1.6785941
178	0x3f795e3d	0.9740942
179	0x3f1e9973	0.61952895
180	0xbeb0fa05	-0.3456575
181	0xbd849983	-0.064745925
182	0xbb0c9c23	-0.002145537
183	0x3da14ec7	0.07876354
184	0x3cb20520	0.02173096
185	0x3f4d7c56	0.80267847
186	0xbd252100	-0.040314674
187	0x3ce4b897	0.02792005
188	0xbd25fa86	-0.04052212
189	0x3f083071	0.53198916
190	0x3edf5913	0.43622646
191	0xbccb5ffc	-0.024826042
192	0xbd4964f5	-0.049168546
193	0xbd35f08e	-0.044418864
194	0x3c8aa934	0.016926385
195	0x3f0bdd19	0.54634243
196	0x3d927391	0.07150949
197	0xbd243cc7	-0.040097024
198	0xbd6a644c	-0.057224557
199	0x3f02c1fb	0.5107724
200	0x400a6195	2.162206
201	0xbf5f3af7	-0.8719935
202	0x3e159756	0.14608511
203	0xbd51bf05	-0.05120756
204	0x3f841a03	1.0320438
205	0x3f141f68	0.5786042
206	0x3edb8668	0.4287598
207	0x401fb2c0	2.495285
208	0x3d1bc726	0.03803172
209	0xbcd0fe3c	-0.025511853
210	0x40215771	2.520962
211	0x3d12d0cd	0.03584366
212	0x3ee50d04	0.44736493
213	0x3c947333	0.018121338
214	0x3eeba3c2	0.46023375
215	0xbd9aa7ea	-0.07551558
216	0x3f522f59	0.82103497
217	0x4016a6bb	2.3539264
218	0x3ed79944	0.4210912
219	0x3d5200a6	0.05127015
220	0x3d2c6976	0.042092763
221	0x3e893f1c	0.2680596
222	0x3f5dd483	0.8665239
223	0x400de7aa	2.2172647
224	0xbcfe1b25	-0.031018803
225	0x3fad44f6	1.353667
226	0x3fbd8e2e	1.4809015
227	0x3edb7b5f	0.42867562
228	0x3f64e526	0.8941215
229	0x3db9877a	0.09059043
230	0x3f85193f	1.039833
231	0xbd495f88	-0.04916337
232	0x3f41846b	0.7559268
233	0x3f4b5139	0.7942081
234	0x3f8c2a37	1.0950383
235	0x3ed28e8c	0.4112438
236	0x3c7b7b58	0.015349232
237	0xbb21693a	-0.002462937
238	0x3f76c47a	0.9639355
239	0x3eec4fca	0.46154624
240	0x3ef81ffb	0.484619
241	0x3c122a87	0.008921272
242	0xbda235b5	-0.079204
243	0x3fb48bdb	1.410518
244	0xbea0598d	-0.31318322
245	0x3f818238	1.0117865
246	0x3fca3669	1.5797855
247	0x40085ea4	2.1307764
248	0x3f0319d3	0.5121128
249	0x3f566d03	0.8376009
250	0x3fbecaa4	1.4905591
251	0x3d025145	0.031815786
252	0xbc192cfe	-0.009349106
253	0x3fa014d2	1.2506354
254	0x3f115711	0.5677348
255	0x4029e1ae	2.6543994

net.4.bias f4 [13]
0	0x3fa49b63	1.285992
1	0x3f90b185	1.1304175
2	0x3f858f1c	1.0434299
3	0x3fad58c0	1.3542709
4	0x3f8584ec	1.043119
5	0x3fb7b565	1.4352232
6	0x3f6e60b5	0.93116313
7	0x3ffe3110	1.9858723
8	0x3f27ad4b	0.654988
9	0x3f51a359	0.81889874
10	0x3f9798d8	1.1843519
11	0x3f83a254	1.0283914
12	0x3eb14981	0.34626392

net.0.weight f4 [128, 45]
0	0x3e33537b	0.17512314
1	0x3f052b05	0.5201877
2	0xbd112fa0	-0.03544581
3	0xbdd5371c	-0.10410902
4	0xbe507221	-0.20356037
5	0xbd14073a	-0.036139704
6	0xbf68d66f	-0.909522
7	0xbec97e3b	-0.3935412
8	0xbfef71af	-1.8706568
9	0x3f0555be	0.5208396
10	0xc09332e3	-4.5999618
11	0x3f390aef	0.7228231
12	0xbfd444ff	-1.6583556
13	0x3f4d76ae	0.80259216
14	0xbc506c7a	-0.012721175
15	0x3f021714	0.50816464
16	0xbe8d6f36	-0.2762391
17	0xbc95145d	-0.018198187
18	0x3e43db67	0.19126664
19	0x3dac7c5f	0.084221594
20	0xbf5b552a	-0.85676825
21	0x3e2d56cf	0.16927646
22	0xbfaf6641	-1.370308
23	0x3f8dc41e	1.1075475
24	0x3ec396d4	0.3820101
25	0xbe883b89	-0.26607922
26	0x3f2bd58c	0.6712272
27	0x3e9dce49	0.30821446
28	0x3e02648b	0.12733667
29	0x3cda46b8	0.02664505
30	0xbd780f43	-0.06056143
31	0xbf2d7bf1	-0.67767245
32	0x3f1f3d61	0.6220303
33	0xbeaff7cb	-0.3436874
34	0xbf073b58	-0.52824926
35	0x3f7ebf1d	0.99510366
36	0x3efdf235	0.49598852
37	0x3f49f948	0.78896
38	0x3db46e89	0.088101454
39	0xbe1f906a	-0.15582433
40	0xbda1f025	-0.07907132
41	0xbe82d7db	-0.2555531
42	0x3d98724e	0.07443677
43	0xbee42be1	-0.44564727
44	0xbbe7ec70	-0.007077746
45	0x3e45de30	0.19323039
46	0x3e160c81	0.14653207
47	0xbf7290c2	-0.9475213
48	0xbf197d4d	-0.5995682
49	0xbe4538ad	-0.19259901
50	0x3f519bdf	0.81878465
51	0xbe339bf3	-0.17539959
52	0x3e93d58b	0.28873858
53	0xbe0dd81b	-0.13851969
54	0x3eaad77b	0.33367524
55	0x3e9ff2a4	0.31239808
56	0x3ec4c1c0	0.3842907
57	0xbe4373c4	-0.1908713
58	0x3f241b8f	0.6410455
59	0x3fcfacf1	1.6224653
60	0xbf0631c5	-0.5241969
61	0x3fb69622	1.4264567
62	0xbe8fd039	-0.2808855
63	0x3f766c1b	0.96258706
64	0xbf2b1ec4	-0.6684382
65	0xbe951478	-0.2911718
66	0x3f8d9a3c	1.1062694
67	0xbf80ed87	-1.0072488
68	0x3e6be28a	0.23035637
69	0x3edea3aa	0.4348424
70	0xbeb4fa2a	-0.3534711
71	0xbee02216	-0.43776006
72	0xbf980b40	-1.1878433
73	0xbde27d79	-0.11059088
74	0xbeed0510	-0.46292925
75	0x3f44647f	0.76715845
76	0x40448b95	3.0710194
77	0x3e871166	0.2638046
78	0x3fe564de	1.7921407
79	0xbfe5dc3e	-1.7957838
80	0x3da69cc3	0.08135369
81	0xbfe633cf	-1.7984561
82	0x3f16e677	0.5894541
83	0xbfa18032	-1.2617247
84	0x3f69b9b4	0.91298985
85	0xbf6f6e02	-0.93527234
86	0xbed0fbf5	-0.40817228
87	0xbf8636a5	-1.0485426
88	0xbe51b23d	-0.20478149
89	0xbc056f4b	-0.00814421
90	0x3ebf54ad	0.3736929
91	0xbef3e299	-0.47633818
92	0x3da71cb8	0.081597745
93	0xbd9012c7	-0.070348315
94	0x3e9841da	0.2973774
95	0x3c1070a8	0.008815922
96	0x3f3eeeb6	0.74582994
97	0x3e9009e9	0.2813256
98	0x3f146a6f	0.57974905
99	0xbe9775ce	-0.29582065
100	0x3e92c543	0.28666124
101	0x3f975ab8	1.182456
102	0xbe8bfe1b	-0.27342305
103	0x3f8c85b6	1.0978305
104	0xbe149aba	-0.14512148
105	0x3ec9d4d6	0.39420193
106	0x3fd0521d	1.6275059
107	0xbdb05aa8	-0.08611041
108	0x3fa7a600	1.3097534
109	0xbe39fa70	-0.1816194
110	0x3d9737b4	0.073836714
111	0xbf288ca7	-0.6583962
112	0xbdb95129	-0.09048683
113	0xbcfc185d	-0.030773336
114	0xbe961ae9	-0.29317406
115	0xbe9e781d	-0.30951014
116	0x3e3ce3c3	0.18446259
117	0xbd30a5ae	-0.043126754
118	0x3ee4a3a0	0.44656086
119	0xbf0c3287	-0.547646
120	0x3f070aad	0.52750665
121	0xbf1d46ce	-0.61436164
122	0x3f267adf	0.65031236
123	0xbe80a579	-0.25126246
124	0x3f42fda2	0.7616826
125	0xbf08fde2	-0.53512394
126	0xbd527379	-0.051379655
127	0xbed5f28e	-0.41786617
128	0x3f346de2	0.7048017
129	0xbc170c01	-0.009219171
130	0x3fd64d80	1.6742401
131	0x3f2e0e31	0.67990404
132	0x3e824964	0.25446618
133	0x3ed2bcf4	0.41159785
134	0x3e9f6d9a	0.31138307
135	0xbcdee2b4	-0.02720771
136	0xbf0d32bf	-0.5515556
137	0xbdf4e8cd	-0.11958466
138	0xbe602daf	-0.21892427
139	0xbe82659f	-0.25468156
140	0x3f106ae4	0.564131
141	0xbfbcc328	-1.4747057
142	0xbfe33ab6	-1.7752292
143	0x3f3f985d	0.7484186
144	0x3e96c7c5	0.29449287
145	0xbd625459	-0.05525622
146	0xbd78e490	-0.06076485
147	0xbe140555	-0.14455159
148	0x3f6fa49e	0.9361056
149	0xbec7205f	-0.38891885
150	0xbf4ada93	-0.7923977
151	0xbf340515	-0.70320255
152	0xbf968677	-1.1759785
153	0x3ecb30c4	0.39685643
154	0x3db620b7	0.088929586
155	0x3f089177	0.5334696
156	0xbf24b503	-0.643387
157	0x3fbca1d7	1.473689
158	0x3e9337de	0.2875356
159	0x3e8b6d1a	0.27231675
160	0x3f08ab25	0.53386146
161	0x3ec86a70	0.39143705
162	0x3e3b7eb0	0.18310046
163	0x3fd4fd5a	1.6639817
164	0xbeb91837	-0.36151287
165	0xbe82e763	-0.2556716
166	0xbf2833e1	-0.6570416
167	0x3f796f8b	0.97435826
168	0xbfcec13b	-1.6152719
169	0x3ed4ed9a	0.41587526
170	0xbef990b5	-0.48743215
171	0x3f98dc59	1.1942245
172	0x3e91a7ca	0.28448325
173	0xbeb0eb0f	-0.34554335
174	0xbe050120	-0.1298871
175	0x3d08e59c	0.033422098
176	0xbf09c5d0	-0.5381746
177	0x3dfc3d37	0.12316363
178	0xbea96c3f	-0.33090398
179	0xbeb75ca0	-0.35812855
180	0xbf573f21	-0.840807
181	0xbf8e9cde	-1.1141622
182	0x3e887fe9	0.26660088
183	0xbf9e40ae	-1.2363489
184	0x3dccf295	0.10007206
185	0xbfba2874	-1.4543595
186	0x3f0d3ddc	0.55172515
187	0xbdf0767e	-0.117413506
188	0x3e2c5896	0.16830668
189	0x3f1af1b8	0.60525084
190	0xbd1e4632	-0.038641162
191	0xbfa0cbc9	-1.256219
192	0x3eb540f0	0.35401106
193	0xbf6f179e	-0.9339541
194	0xbe8276c0	-0.25481224
195	0xbfad5563	-1.3541683
196	0x3dbdb5d9	0.092632
197	0x3e0ecbed	0.13944979
198	0x3f1450e2	0.5793592
199	0xbddfcc81	-0.10927678
200	0x3e8ed935	0.2790009
201	0x3ee1b6c2	0.44084746
202	0x3fa56483	1.2921299
203	0x3f323ef4	0.6962731
204	0xbf4af648	-0.79282045
205	0xbe895316	-0.26821202
206	0x3f90b2f3	1.1304611
207	0x3e9e9a9c	0.30977333
208	0x3f84f38c	1.0386825
209	0xbed602aa	-0.41798908
210	0xbf32c69c	-0.69834304
211	0xbf0b9aa3	-0.5453283
212	0xbe5eb758	-0.21749628
213	0xbf102479	-0.5630565
214	0xbe5c0397	-0.21485744
215	0x3f28de39	0.65964085
216	0x3ed8e7db	0.42364392
217	0xbe9bf62a	-0.30461246
218	0xbd224c1b	-0.03962336
219	0xbf78d3a8	-0.9719796
220	0x3e842778	0.25811362
221	0x3c773c31	0.015090034
222	0xbf65b4cf	-0.89729017
223	0x3e0eb9ef	0.13938116
224	0x3dbb2479	0.09137816
225	0xbe1caba3	-0.15299849
226	0xbe83e323	-0.2575923
227	0x3ca4d9ed	0.020123446
228	0xbe2940f3	-0.16528682
229	0x3d88b584	0.06675246
230	0x3e5dd822	0.2166448
231	0x3d306b5c	0.043071136
232	0xbce15fd3	-0.027511513
233	0xbe1a1d62	-0.15050271
234	0x3c7fda0a	0.015615949
235	0x3cf3e92d	0.029774273
236	0x3d81b9eb	0.06334289
237	0xbd51a030	-0.051178157
238	0x3c8e631f	0.017381249
239	0xbc75d95e	-0.015005438
240	0x3d25c236	0.040468417
241	0xbd147738	-0.03624651
242	0xbe018c42	-0.1265116
243	0xbcd6b8a2	-0.026211087
244	0x3c299233	0.010349798
245	0xbe277f1f	-0.16357087
246	0xbc596e26	-0.01327089
247	0x3dcebf7c	0.100951165
248	0x3bf12fcc	0.007360434
249	0xbdb4c288	-0.088261664
250	0x3cd6f645	0.026240477
251	0xbbdb2b59	-0.006688517
252	0x3de1e8f5	0.11030761
253	0xbd921217	-0.071323566
254	0x3ce0a17d	0.027420754
255	0x3bb4088d	0.0054941834

net.0.bias f4 [128]
0	0xbdaf6197	-0.08563536
1	0xbda9e41d	-0.08295462
2	0x3f4b0bb4	0.7931473
3	0x3ef71827	0.48260614
4	0xbecb6db6	-0.3973214
5	0xbe7ff4b0	-0.24995685
6	0x3ebf1331	0.3731933
7	0x3eae92ee	0.34096473
8	0xbf44ca95	-0.76871616
9	0xbe88c383	-0.26711664
10	0xbea6266e	-0.32451195
11	0x3bf152aa	0.0073645907
12	0x3e8f04b2	0.2793327
13	0xbea4275a	-0.32061273
14	0x3d20e493	0.039280485
15	0x3f0348c5	0.5128291
16	0xbdedd0e0	-0.11612105
17	0x3f3ca2ce	0.7368592
18	0x3ddcaf90	0.107756734
19	0x3f39c0c9	0.7255979
20	0x3e6bf2ec	0.23041886
21	0x3e934e67	0.28770754
22	0xbe4448a9	-0.19168343
23	0x3d9bc6ef	0.07606303
24	0xbefb2f9a	-0.49059755
25	0x3f474339	0.7783695
26	0x3f8d7472	1.1051161
27	0x3f842fad	1.032705
28	0x3ed28b1b	0.41121754
29	0xbe8de47d	-0.27713385
30	0x3f9259bd	1.1433636
31	0x3f3640e6	0.7119278
32	0xbe2278f9	-0.1586646
33	0x3e23c222	0.15992025
34	0xbf316c89	-0.69306237
35	0x3fbc3dbf	1.4706343
36	0xbf19e8fe	-0.6012114
37	0xbdf32b62	-0.11873509
38	0x3e13aceb	0.14421432
39	0xbe2c14ab	-0.16804759
40	0xbe529a70	-0.20566726
41	0x3f558633	0.83407897
42	0x3f18e695	0.5972684
43	0xbeb5a621	-0.3547831
44	0x3ed4c0b6	0.41553277
45	0x3f4cf1f9	0.8005672
46	0x3e7e89df	0.24857281
47	0xbe9d27de	-0.3069448
48	0xbf0d8218	-0.5527663
49	0x3f081873	0.53162307
50	0x3f1fde89	0.62448937
51	0x3fa0b620	1.255558
52	0x3f18ec1f	0.5973529
53	0x3c82689e	0.015919026
54	0x3ee4029c	0.4453324
55	0x3ec664b6	0.3874871
56	0x3f95f989	1.1716777
57	0xbf25483d	-0.6456335
58	0x3e9eed7a	0.31040555
59	0xbf06e1e8	-0.52688456
60	0x3f77a776	0.967399
61	0x3fb5a62c	1.4191337
62	0x3e7681b7	0.2407292
63	0xbd23b8a8	-0.039971024
64	0x3f7bf758	0.9842429
65	0x3d87d0dd	0.066316344
66	0x3deaada0	0.114588976
67	0xbf0ef74f	-0.5584611
68	0x3e9327c4	0.28741276
69	0xbe1c7049	-0.15277208
70	0x3f823ee6	1.0175445
71	0x3e040f35	0.12896426
72	0x3ebe667f	0.37187573
73	0x3fa502b6	1.2891452
74	0x3ca923f0	0.02064702
75	0xbdb1038d	-0.086432554
76	0x3f2bbec6	0.6708797
77	0x3e5ef072	0.2177141
78	0xbd93817b	-0.07202431
79	0xbe042ba1	-0.12907268
80	0x3e0be61c	0.13661999
81	0x3f570572	0.83992684
82	0x3f9ac7e0	1.2092247
83	0x3ed9db80	0.42550278
84	0xbf02e365	-0.51128227
85	0x3f883229	1.0640308
86	0x3f0e1a0b	0.5550849
87	0x3f1e70b0	0.618907
88	0x3f2bdc4f	0.6713304
89	0xbe872457	-0.26394913
90	0xbeadcd82	-0.33945853
91	0x3f2db499	0.67853695
92	0x3f831d6f	1.0243357
93	0x3f510d21	0.8166066
94	0x3f8fcc7a	1.1234276
95	0x3f69d6d3	0.9134342
96	0x3fafbf0f	1.3730181
97	0x3ee7619d	0.4519166
98	0x3ed1ba27	0.40962335
99	0xbd87fedd	-0.06640408
100	0x3d9ff671	0.07810677
101	0x3f023a27	0.50869983
102	0x3f91f264	1.1402097
103	0x3f1502e3	0.5820753
104	0xbdedbde5	-0.11608485
105	0xbe8bf4ca	-0.27335197
106	0xbe9eb841	-0.3099995
107	0x3f6fcfde	0.93676555
108	0xbea097c9	-0.31365803
109	0x3f9b50fa	1.2134087
110	0x3f9bac21	1.2161905
111	0x3f10f674	0.5662606
112	0x3fa640b8	1.29885
113	0x3e7530b0	0.23944354
114	0xbeb03f41	-0.3442326
115	0x3eb6b597	0.35685417
116	0x3ea21e07	0.31663534
117	0xbd843b5d	-0.06456635
118	0x3f7416e6	0.9534744
119	0x3e89e894	0.26935256
120	0x3f81107d	1.0083157
121	0x3f642414	0.8911755
122	0x3eb15be8	0.3464043
123	0x3e1020c5	0.14075
124	0x3c624287	0.013809807
125	0xbeae4b03	-0.34041604
126	0xbebe0de6	-0.3711998
127	0x3f2eaa3c	0.6822851

net.2.weight f4 [128, 128]
0	0xbda98e98	-0.08279151
1	0xbde22915	-0.11042992
2	0x3d3dbe27	0.04632392
3	0xbdef9954	-0.11699167
4	0xbd826803	-0.06367495
5	0x3dad10a7	0.08450442
6	0xbdef389e	-0.11680721
7	0xbdd95811	-0.106125005
8	0xbd5a5402	-0.053302772
9	0xbdb5dc26	-0.088798806
10	0x3d858c73	0.06520929
11	0xbdbd57ee	-0.09245287
12	0x3d433504	0.04765798
13	0xbce71f99	-0.02821331
14	0x37f13d38	2.8757946e-05
15	0x3ba2fd5d	0.004974051
16	0xbaebd032	-0.0017991124
17	0x3ce64b17	0.028111978
18	0x3d8563d3	0.065131806
19	0x3b4712d7	0.003037622
20	0x3c930ee9	0.017951446
21	0xbd2265ed	-0.039647985
22	0xb93ed701	-0.00018199907
23	0x3dad90da	0.08474894
24	0xbd2f5059	-0.042801235
25	0xbdbbf276	-0.09177105
26	0x3d00c0e6	0.031433962
27	0x3ce76e53	0.028250849
28	0xbdfb707f	-0.12277316
29	0xbd308d34	-0.04310341
30	0x3cbd080e	0.02307513
31	0x3c7407ec	0.014894467
32	0xbd62c9e5	-0.055368323
33	0xbdf36ce9	-0.11886007
34	0x3d72b577	0.05925509
35	0xbd200b71	-0.03907341
36	0x3cfa7344	0.030572541
37	0xbdc86e55	-0.09786669
38	0xbc6db6c3	-0.014508906
39	0x3cdd5d6f	0.027022092
40	0x3c32e273	0.0109182475
41	0xbd6c5252	-0.057695694
42	0xbcc2141d	-0.023691231
43	0xbda0453e	-0.07825707
44	0xbd63f3c5	-0.0556524
45	0xbcb04855	-0.021518866
46	0x3be83042	0.007085831
47	0xbdba65ec	-0.09101471
48	0x3a5a6e7a	0.00083325023
49	0xbd1d70b2	-0.038437553
50	0xbdbd08ac	-0.0923017
51	0xbe1034f6	-0.14082703
52	0xbd8733e7	-0.066016965
53	0x3d8c5482	0.06852056
54	0x3cf1d769	0.02952166
55	0xbcfef6b3	-0.031123495
56	0x3caad657	0.020854158
57	0x3c832506	0.016008865
58	0xbd8fe43f	-0.07025956
59	0x3d44f1d6	0.048082195
60	0x3c8bedb0	0.017081112
61	0xbe0067d5	-0.12539609
62	0x3bc2516f	0.005930118
63	0x3d1f0423	0.038822304
64	0x3c8ff2f3	0.017571902
65	0xbd55d842	-0.052208193
66	0xbd942b93	-0.072348736
67	0xbc38a2d0	-0.011269286
68	0xbc70afa0	-0.01469031
69	0xbb650c00	-0.003494978
70	0xbd11f8d3	-0.035637688
71	0xbc73dda0	-0.0148843825
72	0x3bdbb3b5	0.0067047724
73	0xbe0cdab4	-0.13755304
74	0x3d522d50	0.051312745
75	0xbd5ff8af	-0.054680523
76	0xbddb08ab	-0.10695013
77	0xbd5ff8a7	-0.054680493
78	0xbc35761e	-0.011075525
79	0xbd9a6f9e	-0.075408205
80	0xbd4a8149	-0.049439702
81	0x3aa77055	0.0012774566
82	0xbdcd500e	-0.10025035
83	0x3d745405	0.05965044
84	0xbcefc598	-0.029269025
85	0xbc305275	-0.010761847
86	0xbcc80c10	-0.024419814
87	0xbd85b5b9	-0.065288015
88	0x3d6ab69a	0.05730305
89	0xbde1bf31	-0.11022795
90	0x3b6a7078	0.0035772603
91	0xbdd910c8	-0.10598904
92	0xbdfad880	-0.12248325
93	0xbced766f	-0.028987138
94	0xbd1c0921	-0.038094644
95	0xbdef64ee	-0.11689173
96	0xbcd57e9b	-0.026061347
97	0xbceeef8a	-0.029166956
98	0x3d54c6db	0.051947456
99	0x3ca012e6	0.019540261
100	0xbd8ff7d7	-0.070296936
101	0xbdeb09b7	-0.11476462
102	0xbdbf3684	-0.0933657
103	0x3c0b4972	0.008501397
104	0xbccf8f6c	-0.025336944
105	0x3d99583b	0.07487532
106	0xbdb0a869	-0.08625872
107	0x3d0a44e6	0.033757113
108	0x3d85e605	0.06538013
109	0x3b994778	0.004677709
110	0xbd1609d0	-0.03663045
111	0x3d4f30fd	0.05058383
112	0xbd552155	-0.05203374
113	0xbd0cf1e3	-0.03441037
114	0xbc3572f0	-0.0110747665
115	0xbd273151	-0.040818516
116	0xbd9704eb	-0.07373985
117	0xbdc47cd8	-0.095941246
118	0x3c03e076	0.008049121
119	0xbc29d845	-0.010366504
120	0x3cf3b054	0.029747166
121	0xbc555067	-0.013019658
122	0xbd3a6960	-0.04551065
123	0x3d208edd	0.039198745
124	0xbc2ca258	-0.010536753
125	0xbd9cd261	-0.07657314
126	0xbdadbd61	-0.08483387
127	0x3c4c08f4	0.0124533065
128	0xbd75b608	-0.05998805
129	0x3f5dab0d	0.8658913
130	0x3f51dade	0.8197459
131	0x3ff65947	1.9245995
132	0x3f538050	0.82617664
133	0x3c8df07d	0.017326588
134	0xc01a308c	-2.409213
135	0xbf319341	-0.69365317
136	0x3f379f69	0.71727616
137	0xbf0a96e5	-0.54136497
138	0x3bd0360a	0.006354098
139	0x3f0fc007	0.56152385
140	0xbf337194	-0.7009518
141	0x3eddd1ee	0.43324226
142	0x3fa52244	1.2901082
143	0x3ea1c481	0.31595233
144	0x3f9bb0c8	1.2163324
145	0x3e7d851c	0.24757808
146	0x3e078abb	0.13236515
147	0xc0a80d5c	-5.251631
148	0xbf1b4356	-0.6064962
149	0x3f7d11c8	0.9885526
150	0x3fd1e007	1.6396493
151	0xbf4a63b7	-0.790584
152	0xbed7a05b	-0.4211453
153	0xc02b358b	-2.675143
154	0x3f7722ad	0.96537286
155	0x3e0cdc0c	0.13755816
156	0x3f251e72	0.6449958
157	0xbd8ff491	-0.07029069
158	0x3fddac16	1.7318141
159	0xc06929b3	-3.64317
160	0xbf92a803	-1.1457523
161	0xbf886108	-1.0654612
162	0x3e7c73de	0.24653575
163	0x3d29a8e1	0.04142082
164	0xc09c2596	-4.879588
165	0xc02438c6	-2.5659652
166	0x3f04d600	0.5188904
167	0xc02631ae	-2.5967822
168	0xbd1b7b05	-0.037959117
169	0xbf3d5a4d	-0.73965913
170	0xbf8a2a77	-1.0794209
171	0xbd83487a	-0.06410308
172	0xbc461b5b	-0.012091483
173	0x3f9f113d	1.2427136
174	0x3e4533b0	0.19257998
175	0x3f0b4561	0.5440274
176	0x403091ed	2.7589066
177	0xc055f1a1	-3.3428729
178	0xbf005814	-0.50134397
179	0xbe63f336	-0.22260746
180	0x3fe05741	1.7526628
181	0xbe87675d	-0.26446047
182	0xbef4e061	-0.47827438
183	0x3e80a41c	0.25125206
184	0x3fb194f5	1.3873583
185	0x3f0eea71	0.5582648
186	0xbeadced2	-0.33946854
187	0x3deb2a08	0.11482626
188	0x3e53a2d1	0.20667578
189	0x3da7f8af	0.082017295
190	0xbf940bb7	-1.1566075
191	0x3f314602	0.6924745
192	0x3f37d4e7	0.7180924
193	0xbfa6f299	-1.3042785
194	0xbf22ae8d	-0.63547593
195	0x3f8ce661	1.1007806
196	0xbe806762	-0.25078875
197	0xc01ba4bb	-2.4319293
198	0xc0067b20	-2.101265
199	0x3f80c88a	1.00612
200	0xbf47990d	-0.7796791
201	0xbea9020a	-0.33009368
202	0xbfb36a0c	-1.4016738
203	0xc08b3bd9	-4.3510556
204	0x3f9abf10	1.2089558
205	0xbfcd40f6	-1.603545
206	0xbeba8748	-0.36431336
207	0xbfd0c551	-1.6310216
208	0xc026d58e	-2.6067843
209	0x3f2aac83	0.6666948
210	0x3de2bf0f	0.11071598
211	0xbf9c82b3	-1.2227386
212	0x3f4410c7	0.765881
213	0x3f1db6da	0.61607134
214	0xc0127d4c	-2.2888975
215	0x3f2ea7b9	0.68224674
216	0xbf7c418b	-0.9853751
217	0x3f3e43c5	0.7432216
218	0xbcb40c53	-0.021978533
219	0x4052c19c	3.293067
220	0x3f326c76	0.6969675
221	0x3e86083a	0.2617815
222	0xc03d2172	-2.9551663
223	0x3e382bc6	0.17985448
224	0x3eb4859f	0.35258195
225	0xc00007f9	-2.0004866
226	0x3f05ec95	0.5231412
227	0x3f8b8f07	1.0903023
228	0x3f9ce895	1.2258478
229	0x3f18a714	0.5962994
230	0xbe5de49c	-0.21669239
231	0xbe62236a	-0.22083822
232	0xc00ac404	-2.1682138
233	0x3dbd58a4	0.092454225
234	0xc054c2ae	-3.3243823
235	0xbe8cf3f5	-0.27529874
236	0xbda6c441	-0.08142901
237	0x3ea71412	0.326325
238	0x3f2af11d	0.6677416
239	0x3f12f38b	0.5740287
240	0x3f29143a	0.6604649
241	0x3f89d279	1.0767356
242	0x3ca3cacd	0.019994164
243	0xbf95a82b	-1.1691946
244	0x400d48aa	2.20756
245	0xbee63fd3	-0.4497057
246	0x3fe9d078	1.8266745
247	0x3ec37c0a	0.38180572
248	0xbe3cfddc	-0.18456215
249	0x3f0f930f	0.5608377
250	0x3be16d0e	0.0068794554
251	0x400c270e	2.1898837
252	0x3f32b0d6	0.6980108
253	0x3fff7bf4	1.9959702
254	0xc001cc23	-2.0280845
255	0xbf1b12cb	-0.6057555

net.2.bias f4 [128]
0	0xbdd6b57d	-0.10483835
1	0x3f388b7e	0.7208785
2	0x3f8004aa	1.0001423
3	0x3ede808b	0.43457446
4	0x3dd6d5fc	0.10490033
5	0x3f9f41f2	1.2442
6	0xbd944574	-0.0723981
7	0x3f8538db	1.0407976
8	0x3f37e73f	0.7183723
9	0x3d017f18	0.031615347
10	0x3f356033	0.70849913
11	0x3f00a903	0.5025789
12	0x3f15956c	0.58431125
13	0x3f8034d6	1.0016124
14	0x3fe6bc85	1.8026282
15	0xbdd8da9b	-0.10588571
16	0xbcf61515	-0.03003935
17	0x3f5f7086	0.8728107
18	0xbd812578	-0.06305975
19	0x3f94185c	1.1569934
20	0xbe08c8e8	-0.1335789
21	0xbde8f961	-0.1137569
22	0x3f7e574d	0.9935196
23	0x3fdbb63e	1.7164991
24	0x3fd1d3fa	1.6392815
25	0xbdd2cd31	-0.102930434
26	0xbe0aaf15	-0.13543351
27	0xbd7b131f	-0.061297532
28	0x3fd2f6b8	1.6481543
29	0xbd5808c9	-0.052742753
30	0x3f768063	0.9628965
31	0xbdf1fdb6	-0.1181597
32	0x3fc2712c	1.5190787
33	0x3f92bdb9	1.1464149
34	0xbe0cbf35	-0.13744815
35	0x3f566f88	0.83763933
36	0xbdce1e2f	-0.10064351
37	0x3f55ae29	0.8346887
38	0xbe00f34b	-0.12592809
39	0x3f4d9d3f	0.80318063
40	0x3f3d20c2	0.7387811
41	0x3fe0d50f	1.756502
42	0x3fc2088e	1.5158861
43	0xbcfb2896	-0.030659001
44	0x3ecd7fe1	0.40136626
45	0x3f8fff86	1.1249855
46	0x3f33ef0f	0.7028665
47	0x3f985528	1.1900988
48	0x3fa97894	1.3239923
49	0x3f86f9eb	1.0545019
50	0x3fff8ea6	1.9965408
51	0x3f1fe904	0.6246493
52	0x3cd3685b	0.025806597
53	0xbe08f22d	-0.13373633
54	0xbca65db4	-0.020308353
55	0xbdd6ce37	-0.10488551
56	0xbd0693d8	-0.03285584
57	0x3f500922	0.81263936
58	0x3b54c0b4	0.0032463493
59	0xbdb7fc7a	-0.08983703
60	0xbdcbf5aa	-0.09958966
61	0x3f872326	1.0557601
62	0x3fea7790	1.8317738
63	0xbd9eacd9	-0.07747812
64	0xbd81f285	-0.06345085
65	0xbda41965	-0.08012656
66	0xbdc35589	-0.09537799
67	0x3fcf68fa	1.6203911
68	0xbe16d723	-0.14730506
69	0xbe04196f	-0.12900327
70	0xbd4968cb	-0.049172204
71	0xbdbd0efd	-0.092313744
72	0x3ec5042e	0.3847975
73	0x3e626254	0.22107822
74	0xbe0876de	-0.13326594
75	0xbdd8aa7e	-0.10579394
76	0x402a3957	2.6597497
77	0x3fa3a981	1.2786103
78	0x3fe20d42	1.7660296
79	0x3eee52a7	0.46547434
80	0xbdb7d02b	-0.08975252
81	0xbdad1da4	-0.08452919
82	0x3ef204b6	0.4726922
83	0xbc5824ff	-0.013192414
84	0x3ff2cb76	1.8968341
85	0xbdcdd97d	-0.10051248
86	0x3fd9d927	1.7019395
87	0x3cdb56c6	0.026774775
88	0x3f9ba3d2	1.2159369
89	0x3ef7a683	0.48369226
90	0x3ffafc4c	1.9608245
91	0xbe07086c	-0.13186806
92	0xbdc66177	-0.09686559
93	0x3fa7a683	1.309769
94	0x3f839c4b	1.0282072
95	0x3f0b722c	0.5447109
96	0xbd834e68	-0.06411439
97	0x3e8d7dd6	0.27635068
98	0x3f240ff0	0.6408682
99	0x3f93c552	1.1544592
100	0x3f5abeb9	0.8544727
101	0xbcb29084	-0.021797426
102	0x3f58ddc9	0.8471342
103	0xbe16e1f4	-0.14734632
104	0xbe33b662	-0.17550042
105	0x3f7a5614	0.97787595
106	0x3f8862ab	1.0655111
107	0x3fd29059	1.6450301
108	0xbe156a79	-0.14591397
109	0xbde3ebf3	-0.11128988
110	0x3f3b9332	0.7327148
111	0xbcadbaaa	-0.021207172
112	0x3fc644d0	1.548975
113	0x3d184f15	0.037184794
114	0xbe169b2c	-0.14707631
115	0xbe73f0fb	-0.23822396
116	0xbe0bc81c	-0.13650554
117	0x3f05f472	0.5232612
118	0x3ebd34db	0.36954388
119	0x3f4ea10e	0.807145
120	0x3fe36229	1.7764331
121	0x3f6f34ce	0.9343995
122	0x3f0cf4b1	0.5506087
123	0xbd8a3b88	-0.06749636
124	0xbd2848c1	-0.04108501
125	0x3ec14764	0.3774978
126	0x3fa9e1ad	1.3271996
127	0x3eb4f9af	0.35346743
